trained_models/double_dql_minimax_1.pt (torch, 536604 bytes, 8 tensors)

conv1.weight f4 [64, 1, 4, 4]
0	0xbe0859eb	-0.13315551
1	0xbde43214	-0.11142364
2	0xbe5bb4c1	-0.21455671
3	0x3e3416a7	0.17586766
4	0x3e2c9de5	0.16857107
5	0x3e00e68c	0.12587947
6	0xbc3fe0b1	-0.011711285
7	0xbebe04b1	-0.37112954
8	0x3db584b4	0.08863202
9	0xbeb51d26	-0.353738
10	0x3e44f8e6	0.19235572
11	0x3df2a408	0.11847693
12	0xbe056228	-0.13025725
13	0x3d9e6e25	0.07735852
14	0xbd0a696e	-0.03379195
15	0x3e0ca762	0.13735726
16	0x3db2378f	0.08702003
17	0x3d89b91d	0.06724761
18	0xbf0ac752	-0.5421039
19	0xbc82d2e0	-0.015969694
20	0xbe0da182	-0.13831142
21	0x3e329dcd	0.17443009
22	0x3e0f8ff7	0.14019762
23	0xbe0994de	-0.13435695
24	0xbeafaa21	-0.34309486
25	0xbebce6da	-0.36894876
26	0x3e55bc2d	0.20872565
27	0xbdbf5bb7	-0.09343665
28	0x3c023ad5	0.007948597
29	0x3e2720f8	0.1632117
30	0xbda08bba	-0.07839151
31	0x3dd04785	0.10169891
32	0x3df579b8	0.11986107
33	0x3e361085	0.17779739
34	0x3e56127c	0.20905489
35	0x3e12deb5	0.14342768
36	0xbe98f667	-0.2987549
37	0xbd5d7171	-0.054063264
38	0x3dba5ca7	0.09099703
39	0x3e054bc8	0.1301719
40	0xbdc2c087	-0.09509378
41	0xbccaa1d7	-0.024735374
42	0x3e056b16	0.13029131
43	0x3ca47568	0.020075515
44	0x3e091d4a	0.13390079
45	0x3e722054	0.23645145
46	0xbec2a09f	-0.3801317
47	0x3e0b28d0	0.13589787
48	0xbecfb063	-0.4056426
49	0xbe7f2a61	-0.2491851
50	0x3e78e8b9	0.24307527
51	0x3e54271e	0.20718047
52	0x3c9256db	0.017863682
53	0x3e242d3e	0.16032884
54	0x3c7716c2	0.0150811095
55	0xbdc58d59	-0.096461006
56	0xbe672334	-0.22572023
57	0xbe88cff6	-0.26721162
58	0xbe566201	-0.20935823
59	0xbe0f6a5e	-0.1400542
60	0x3db19470	0.0867089
61	0xbe192c26	-0.14958248
62	0xbd9e1d69	-0.07720453
63	0xbda5d499	-0.080971904
64	0xbd5d9e8b	-0.054106276
65	0x3d256f8b	0.04038958
66	0xbed43ac1	-0.41451076
67	0xbf07b109	-0.5300451
68	0xbe7536c7	-0.23946677
69	0x3e1aec13	0.15129118
70	0xbd45b035	-0.048263747
71	0xbd57da49	-0.052698407
72	0xbe63bfab	-0.22241084
73	0xbcf3e258	-0.029771015
74	0x3d96269a	0.073315814
75	0xbe858ac3	-0.2608243
76	0xbdc775d5	-0.097392716
77	0xbdf782eb	-0.120855175
78	0x3d530250	0.051515877
79	0x3dbe276a	0.092848614
80	0xbe38ab04	-0.18033987
81	0xbcd2232e	-0.02565154
82	0x3c967d51	0.018370302
83	0x3d80528c	0.062657446
84	0x3da1b0c6	0.07895045
85	0xbdefece7	-0.117151074
86	0xbca3d71a	-0.02000003
87	0xbeb571ca	-0.35438377
88	0xbd265298	-0.04060611
89	0xbe5821f5	-0.21106704
90	0x3d5bac8a	0.053631343
91	0x3d063244	0.03276278
92	0x3d36f0fe	0.04466342
93	0x3d909a34	0.07060662
94	0xbcc6cb60	-0.024266899
95	0x3c67df74	0.0141523965
96	0x3e3aa69d	0.1822762
97	0x3e99c503	0.3003312
98	0xbea8fada	-0.33003885
99	0x3eb1eee8	0.34752584
100	0x3e9ebfbe	0.31005663
101	0x3cb5ed93	0.02220801
102	0x3dc76d27	0.09737616
103	0x3e2ba674	0.16762716
104	0xbc831b44	-0.016004212
105	0x3d696588	0.056981593
106	0x3d7910be	0.060806982
107	0xbe15ce18	-0.146294
108	0xbdf0db49	-0.11760575
109	0xbe825196	-0.2545287
110	0xbe391d3b	-0.18077557
111	0xbe90ad39	-0.28257158
112	0x3ddaea54	0.10689226
113	0xbe4fad2a	-0.202809
114	0x3e23e593	0.16005544
115	0xbe96b557	-0.29435226
116	0xbdf8892d	-0.12135539
117	0x3d3f3e3b	0.046690207
118	0x3eaff4a1	0.34366325
119	0xbd2e356d	-0.04253142
120	0xbd81736c	-0.06320843
121	0xbd2893f5	-0.041156728
122	0xbd15d22d	-0.036577392
123	0xbe6dd277	-0.23224817
124	0xbc1e57c0	-0.009664476
125	0xbebbbb54	-0.36666358
126	0xbe57df3d	-0.21081252
127	0xbe33719f	-0.17523812
128	0xbf4fead9	-0.81217724
129	0x3e985077	0.2974889
130	0xbd176bca	-0.03696803
131	0x3e899f1d	0.26879206
132	0xbdb58e06	-0.088649794
133	0xbdab0d3d	-0.083521344
134	0x3e376d5b	0.1791281
135	0xbdcaf4df	-0.09909987
136	0x3e1852ad	0.14875288
137	0x3e7f89d0	0.24954915
138	0xbdc862f3	-0.09784498
139	0x3d218241	0.03943086
140	0xbd494a1c	-0.04914294
141	0xba89ebaf	-0.001052251
142	0xbe1e6918	-0.15469778
143	0x3d684710	0.056708395
144	0x3e3f9711	0.18709971
145	0x3e75fe46	0.24022779
146	0xbeaedb06	-0.34151477
147	0xbc2008dd	-0.009767738
148	0xbde7a6d0	-0.11311114
149	0xbe13073d	-0.1435823
150	0x3e018737	0.12649237
151	0x3d72f30d	0.059313823
152	0xbe85bb6c	-0.26119554
153	0xbb05c1d8	-0.002040973
154	0xbe4ca0c7	-0.19983207
155	0xbe2bee40	-0.16790104
156	0xbd23321c	-0.03984271
157	0xbe773112	-0.24139813
158	0x3e2790a8	0.16363776
159	0x3d51449e	0.05109083
160	0x3ca50e10	0.020148307
161	0xbda12cd6	-0.0786988
162	0x3e269997	0.16269527
163	0x3e9f2972	0.31086308
164	0xbd8f3d06	-0.06994061
165	0x3e252887	0.16128741
166	0x3ca4d1d2	0.020119581
167	0xbe97228a	-0.2951854
168	0xbe8da6cd	-0.2766632
169	0x3b640b0e	0.0034796628
170	0xbe5a78fd	-0.21335216
171	0x3df77a5c	0.12083885
172	0xbe27c316	-0.16383013
173	0xbe8b9b4c	-0.2726692
174	0x3e02bb81	0.1276684
175	0xbe81b374	-0.25332224
176	0xbf5c641f	-0.8609027
177	0xbf0b6d36	-0.5446352
178	0xbe25472f	-0.16140436
179	0x3d80232c	0.062567085
180	0x3ddbee1f	0.10738777
181	0xbd18060f	-0.037115153
182	0x3d7ea28f	0.062166747
183	0xbe14842f	-0.14503549
184	0x3dd04b7d	0.10170648
185	0x3c34eb45	0.011042421
186	0x3d7b0126	0.061280392
187	0xbe1331ed	-0.14374514
188	0x3d79a081	0.060944084
189	0x3e0248ca	0.1272308
190	0xbe44fbc5	-0.19236667
191	0x3e113d89	0.1418363
192	0xbf49b8f3	-0.78797835
193	0xbe01e441	-0.12684728
194	0xbdcda09f	-0.10040402
195	0x3debb9b9	0.11510033
196	0xbd273cb8	-0.04082939
197	0x3df6538e	0.120276555
198	0xbe07bf9d	-0.13256688
199	0x3c3cc774	0.011522163
200	0x3e2fb481	0.171587
201	0xbe74fbf1	-0.23924233
202	0xbe917234	-0.28407443
203	0xbe16d42c	-0.14729375
204	0xbdc41f99	-0.09576339
205	0xbc6aaf5c	-0.0143240355
206	0x3eb873dd	0.36025897
207	0x3e109d88	0.14122593
208	0x3dbd601a	0.092468455
209	0xbee5f738	-0.44915175
210	0xbd7a205c	-0.061066017
211	0x3e5c05f1	0.21486641
212	0x3da6ca47	0.0814405
213	0x3c45349a	0.012036467
214	0xbd9b8c59	-0.075951286
215	0xbe99447e	-0.29935068
216	0xbe314f3e	-0.17315385
217	0xbe43104b	-0.19049184
218	0x3e3c2298	0.18372571
219	0x3deb2520	0.114816904
220	0xbc054f9c	-0.008136656
221	0x3d878e09	0.06618888
222	0xbec39230	-0.3819747
223	0xbe40c45f	-0.1882491
224	0x3ea9a866	0.3313629
225	0x3d1a1c89	0.03762487
226	0x3e26588b	0.16244714
227	0x3eced506	0.403969
228	0x3e3b014e	0.18262216
229	0xbe7f67ae	-0.24941894
230	0xbe322ae3	-0.17399172
231	0xbc080963	-0.008303019
232	0x3c9e53ac	0.019327007
233	0x3e8e5e8c	0.2780651
234	0x3e1c4bbc	0.15263265
235	0xbd867ee5	-0.06567172
236	0x3d8e28d1	0.06941379
237	0x3e5cadb6	0.2155064
238	0x3e70e1dc	0.23523659
239	0x3e576527	0.2103468
240	0xbe08c48f	-0.13356231
241	0x3e3efbf1	0.18650796
242	0x3bc91841	0.0061369245
243	0x3c5c117b	0.013431902
244	0x3dc6e09e	0.09710811
245	0xbd14fa93	-0.03637178
246	0x3e120274	0.14258748
247	0x3e0e41bd	0.13892265
248	0x3e46d0dc	0.19415611
249	0x3d076b6e	0.033061437
250	0x3e4d6ed7	0.20061813
251	0xbd20f05f	-0.039291736
252	0xbd0cbc59	-0.03435931
253	0xbe620c4c	-0.22075003
254	0xbea03b15	-0.31295076
255	0xbe4eb628	-0.20186675

conv1.bias f4 [64]
0	0xbdfb8b54	-0.12282434
1	0xbec1e6fb	-0.37871537
2	0xbe2334c3	-0.15938096
3	0x3e2b8517	0.16749988
4	0xbe025115	-0.12726243
5	0xbedfaaad	-0.43684903
6	0x3e4d0974	0.20023137
7	0xbdb9ebd5	-0.090781845
8	0x3d7ce2a9	0.061739597
9	0xbe194078	-0.14965999
10	0xbe92117c	-0.28528965
11	0xbcd59dd6	-0.026076239
12	0x3e4fb1f1	0.20282723
13	0xbcab049e	-0.020876225
14	0xbe34e271	-0.17664506
15	0xbeb7fce8	-0.3593514
16	0xbdec6004	-0.11541751
17	0xbe98eade	-0.2986669
18	0x3cb3c99b	0.021946719
19	0xbe94d37c	-0.290676
20	0xbe09f266	-0.13471374
21	0x3d09be74	0.033628896
22	0xbe533c94	-0.20628577
23	0xbd997a62	-0.07494046
24	0x3dc4fbe6	0.09618358
25	0xbec49d72	-0.3840137
26	0xbda7c3da	-0.081916526
27	0xbde30966	-0.11085777
28	0x3e50a145	0.2037402
29	0xbe92926c	-0.28627336
30	0x3dbd3869	0.09239275
31	0xbe8e866b	-0.27836928
32	0x3e55aac8	0.20865929
33	0x3da6dff1	0.08148182
34	0x3e29acdf	0.16569851
35	0xbe8e2f4d	-0.27770463
36	0x3e03b44b	0.12861745
37	0x3ec18071	0.37793306
38	0xbe43a83d	-0.19107147
39	0xbe4eb554	-0.20186359
40	0x3bdd4762	0.0067528943
41	0xbebca3c4	-0.36843693
42	0xbe735f6c	-0.2376687
43	0xbec02f68	-0.37536168
44	0x3e2ff9d5	0.17185147
45	0xbe306681	-0.17226602
46	0xbec6e11b	-0.38843617
47	0x3d96969c	0.07352945
48	0xbdff76c8	-0.124738276
49	0x3dcd827d	0.10034654
50	0xbe43e7e7	-0.19131432
51	0xbdba9810	-0.09111035
52	0xbec3ceb8	-0.3824365
53	0xbe3958b6	-0.18100247
54	0xbe000d28	-0.12505019
55	0xbe0f59ea	-0.13999143
56	0xbe9e39a7	-0.3090336
57	0xbde0b4c0	-0.10971975
58	0x3dda3c43	0.10656025
59	0xbcda8c48	-0.02667822
60	0x3d0464fc	0.03232287
61	0xbe3fa400	-0.18714905
62	0x3d3b883d	0.045784224
63	0xbe189b44	-0.14902979

conv2.weight f4 [128, 64, 2, 2]
0	0xbcd7bbcb	-0.026334664
1	0xbb1edb43	-0.0024239577
2	0xbd97b7f0	-0.0740813
3	0x3b03281d	0.0020012923
4	0xbc802f5e	-0.015647586
5	0xbb9769ff	-0.00462079
6	0x3cbe2963	0.023213094
7	0x3d811cc9	0.063043185
8	0x3ca781f7	0.020447714
9	0xbd0382e9	-0.032107268
10	0xbd8ad631	-0.06779135
11	0xbc9342d9	-0.017976211
12	0xbc3048ab	-0.010759513
13	0x3ad9c0f8	0.0016613295
14	0xbd2095b5	-0.03920527
15	0x3d2d5015	0.0423127
16	0x3c283fc6	0.010269111
17	0xbd7053bb	-0.0586736
18	0xbd9402f0	-0.07227123
19	0xbd1800e1	-0.037110213
20	0xbb46e813	-0.003035073
21	0x3ccb0b31	0.02478561
22	0xbd8caa81	-0.068684585
23	0xbd3ca519	-0.046055887
24	0x3c7adb79	0.015311115
25	0xbce35db0	-0.027754635
26	0xbdc7f02d	-0.09762607
27	0x3c69f982	0.014280679
28	0xbd39bc93	-0.045345854
29	0xbdbaf6aa	-0.09129079
30	0xbdac8967	-0.08424645
31	0xbbd8821d	-0.0066073076
32	0xbc10cce4	-0.008837912
33	0x3d1d4f81	0.0384059
34	0xba5b3276	-0.0008361706
35	0xbda0e6e4	-0.07856539
36	0xbd3402fc	-0.04394816
37	0xbd5bcda4	-0.05366291
38	0xbd5cc6f5	-0.053900678
39	0xbd928226	-0.0715373
40	0x3bb045ca	0.0053794133
41	0xbd5912ee	-0.05299657
42	0xbc9e3edf	-0.019317089
43	0xbd217f0c	-0.039427802
44	0xbd8e96f3	-0.06962385
45	0xbcdaca4b	-0.026707789
46	0x39f1ae49	0.00046096955
47	0xbdcd278a	-0.10017307
48	0xbda87b19	-0.08226604
49	0xbd27501b	-0.04084788
50	0xbd7ba8b8	-0.0614402
51	0xbd840e45	-0.06448034
52	0xbd81695e	-0.06318925
53	0x3b8a1915	0.004214416
54	0x3d0e5c14	0.03475578
55	0xbd6bae24	-0.05753912
56	0xbd0507a9	-0.03247801
57	0x3c7bc324	0.015366349
58	0xbd7f56a2	-0.06233848
59	0x3baf190f	0.0053435634
60	0x3ca6bb36	0.020352941
61	0xbd367cad	-0.044552494
62	0xbcb32726	-0.021869253
63	0xbbdb622f	-0.006695054
64	0xbd147800	-0.036247253
65	0xbd1a3139	-0.0376446
66	0xbb183d80	-0.0023230016
67	0x3d4bd4af	0.049763378
68	0xbd9fb89f	-0.077988856
69	0x3c87f095	0.01659421
70	0xbda1dac3	-0.079030536
71	0xbd99efa8	-0.07516414
72	0xbda6441e	-0.08118461
73	0xbb12b0f8	-0.0022383314
74	0x3ca4d98b	0.020123264
75	0xbd102c1c	-0.035198316
76	0x3d0af7c3	0.03392769
77	0xbd0bd347	-0.034137037
78	0xbd7afa95	-0.06127413
79	0xbc1fad4f	-0.00974591
80	0xbd8b3b06	-0.06798367
81	0xbd5e4f08	-0.05427459
82	0xbd53d021	-0.05171216
83	0x3cc19dc4	0.023634799
84	0xbd74c6de	-0.059759967
85	0x3bcb86ad	0.006211123
86	0x3ce82bf0	0.028341264
87	0x3c8748da	0.01651423
88	0xbcabb1e5	-0.02095885
89	0x3c12a15e	0.008949606
90	0xbc527789	-0.012845882
91	0x3d1fbcac	0.03899829
92	0xbd077720	-0.03307259
93	0xbd5fa74c	-0.054602906
94	0xbd3f48f9	-0.04670045
95	0xbd8b32a8	-0.06796771
96	0xbcccfb5d	-0.025022203
97	0x3cdc50ee	0.026894059
98	0x3d0c7586	0.034291767
99	0xbd17bb1a	-0.03704367
100	0x3ce24925	0.027622769
101	0xbd5aad92	-0.053388186
102	0xbd1e77bc	-0.038688406
103	0x3d2592d6	0.040423237
104	0xbd68c091	-0.05682427
105	0xbc16627e	-0.009178756
106	0x3c90e895	0.017689029
107	0x3b9195bc	0.0044428986
108	0xbc0c8ab1	-0.0085779885
109	0xbcceb754	-0.025233902
110	0xbcec6026	-0.02885444
111	0xbc559ed8	-0.01303836
112	0x3d020a1d	0.031747926
113	0x3cbc6418	0.022996947
114	0xbc41e139	-0.011833482
115	0xbc19d99c	-0.009390261
116	0xbd360e56	-0.044447266
117	0xbd65bf70	-0.056090772
118	0xbcb6317b	-0.022240391
119	0xbca92959	-0.020649599
120	0x3c83e535	0.016100505
121	0xbc6e9aea	-0.014563302
122	0xbda49d3c	-0.080378026
123	0xbd6c475a	-0.057685234
124	0x3c6f1c89	0.014594206
125	0xbd328e70	-0.04359287
126	0xbd83cc02	-0.06435396
127	0xbc8cab17	-0.017171426
128	0x3cda7774	0.026668288
129	0x3bafd7cf	0.0053663026
130	0x3d040bd1	0.03223783
131	0xbcd4ed41	-0.025992038
132	0x3c46d9cb	0.012136887
133	0xbd85965f	-0.06522822
134	0xbdc55709	-0.09635741
135	0xbc8bb6e9	-0.017054992
136	0xbd048dae	-0.03236168
137	0x3cb9481b	0.02261739
138	0xbd8fef0e	-0.07028018
139	0xbdc18fa0	-0.094512224
140	0xbd459c93	-0.048245024
141	0x3cb99242	0.022652749
142	0xbda75797	-0.08171003
143	0xbd3df094	-0.04637201
144	0xbda5bc2a	-0.0809253
145	0x3c4493f5	0.011998166
146	0xbc99fbba	-0.01879679
147	0xbd2aca86	-0.041697048
148	0xbd23da54	-0.040003136
149	0xbcdca2f8	-0.026933178
150	0xbc9b35a2	-0.018946473
151	0x3cdb0a0f	0.026738195
152	0xbdb2e054	-0.087341934
153	0x3c9e51e3	0.019326156
154	0x3d1338d0	0.035942852
155	0xbd8abdea	-0.067745045
156	0x3c17f9ab	0.009275834
157	0x3cbef3f2	0.023309682
158	0x3cea878c	0.028629087
159	0xbd6112ea	-0.05494968
160	0xbd1f4568	-0.03888455
161	0x3c9d2bc7	0.019185914
162	0xbc040c49	-0.00805957
163	0xbd804138	-0.062624395
164	0xbb4cded2	-0.003126074
165	0x3c6a279e	0.014291672
166	0xbd85c7cd	-0.065322496
167	0xbda1e62c	-0.0790523
168	0x3d231e74	0.039823964
169	0xbc952e40	-0.01821053
170	0x3cfc44b4	0.030794479
171	0xbd132d28	-0.035931736
172	0x3abbf083	0.0014338646
173	0x3d325871	0.043541376
174	0x3c11ff09	0.008910903
175	0x3d6405bc	0.05566953
176	0x3d02b118	0.03190717
177	0xbca1e2a8	-0.019761398
178	0xbd2a401d	-0.04156505
179	0xbd4b4276	-0.04962393
180	0xbd7f10b2	-0.06227178
181	0xbd3eebbd	-0.046611536
182	0x3d3f6d80	0.046735287
183	0xbd84aa08	-0.064777434
184	0xbb584db4	-0.00330053
185	0x3cf8a05c	0.030349903
186	0x3c6537e7	0.013990379
187	0xbd2df708	-0.042471915
188	0x3cc01997	0.023449702
189	0xbd2ae3f1	-0.041721288
190	0x3c0cc200	0.008591175
191	0xbdba1b04	-0.09087184
192	0xbd342c63	-0.043987643
193	0x3c3a7ccc	0.011382293
194	0x3d15409c	0.03643857
195	0xbd2b2f57	-0.041793194
196	0xbcce445f	-0.025179086
197	0xbc852146	-0.016251218
198	0x3c1220ba	0.008918935
199	0xbd58494e	-0.052804284
200	0x3c0db585	0.008649235
201	0xbd10a9ae	-0.03531807
202	0xbdb62e34	-0.08895531
203	0xbd10e9d6	-0.035379253
204	0xbbb4df54	-0.005519787
205	0xbda53c8f	-0.08068191
206	0xbd53efb5	-0.051742274
207	0xbd16b782	-0.0367961
208	0xbd8740c0	-0.06604147
209	0xbd2fca96	-0.04291781
210	0xbd5a0a22	-0.05323232
211	0xbc68686d	-0.014185053
212	0xbd282538	-0.04105112
213	0xbd6eacc1	-0.05827022
214	0xbc2bdf56	-0.010490259
215	0x3c7416ee	0.014898045
216	0x3c078c2a	0.008273164
217	0xbd669f19	-0.05630407
218	0x3d19003e	0.037353747
219	0xbc30c3fa	-0.010788912
220	0xbd781033	-0.060562324
221	0x3ceeb2b1	0.029137941
222	0xbd2b218a	-0.041780032
223	0xbd2562ec	-0.040377542
224	0xbd45d196	-0.04829558
225	0x3c233032	0.009960221
226	0xbdb3d6f7	-0.08781236
227	0xbbb5ae50	-0.0055444613
228	0xbb5510b4	-0.0032511177
229	0x3836cffb	4.358588e-05
230	0xbbfb4469	-0.0076680672
231	0xbd226b47	-0.03965309
232	0xbd90bf26	-0.07067709
233	0xbd6ae530	-0.057347476
234	0xbd2e36cf	-0.04253274
235	0x3c075e09	0.008262166
236	0xbdac4e62	-0.08413388
237	0x3d64504d	0.055740643
238	0xbd878493	-0.066170834
239	0x3b3a6de1	0.002844684
240	0x3d075d4d	0.033047963
241	0x3cc70a2d	0.024296844
242	0xb94b842b	-0.00019408825
243	0x3b192aec	0.002337153
244	0xbcb8770f	-0.022517709
245	0xbc00aad8	-0.007853232
246	0xbbdf911b	-0.006822718
247	0xbd1f5e46	-0.038908266
248	0xbc9073e9	-0.017633395
249	0xbc89a347	-0.01680149
250	0xbd309501	-0.04311085
251	0x3c1e0807	0.009645469
252	0xbd073b31	-0.033015434
253	0x3c07b2ef	0.008282407
254	0xbd8bd4ce	-0.06827699
255	0x3b6abc09	0.0035817644

conv2.bias f4 [128]
0	0xbd51f0c1	-0.05125499
1	0xbe1e11d5	-0.1543649
2	0xbd006191	-0.031343047
3	0xbe62618a	-0.2210752
4	0xbe4232f7	-0.18964754
5	0xbd5d145c	-0.053974494
6	0xbda58b82	-0.0808325
7	0xbd5adbaf	-0.053432163
8	0xbd0908cd	-0.03345566
9	0xbcf9681e	-0.030445155
10	0xbce1d6bf	-0.02756822
11	0xbdc2457c	-0.09485909
12	0x3e8106c8	0.25200486
13	0xbe333083	-0.17498975
14	0xbe200360	-0.15626287
15	0xbdbb10c8	-0.0913406
16	0x3ddca984	0.1077452
17	0x3e286273	0.16443805
18	0xbe2ac90c	-0.16678256
19	0x3d1cdebd	0.038298357
20	0xbdf8c1ee	-0.12146364
21	0x3bd2904c	0.006425893
22	0x3cfbfc1f	0.03075987
23	0xbe1884bc	-0.14894384
24	0xbdd028d6	-0.10164039
25	0xbe3c6f9f	-0.18401955
26	0xbdaaf6fc	-0.0834789
27	0xbde2f527	-0.11081915
28	0xbd249c5d	-0.040188182
29	0x3b35c0a8	0.002773324
30	0xbd6aee0e	-0.057355933
31	0xbd841322	-0.06448962
32	0xbe0d1c2c	-0.13780278
33	0xbd83fb93	-0.06444468
34	0xbe87fcf2	-0.2656017
35	0xbdb95986	-0.09050278
36	0xbe2334c2	-0.15938094
37	0xbe3ed63e	-0.18636414
38	0xbe23356c	-0.15938348
39	0xbe630b06	-0.22172174
40	0xbc739bb6	-0.014868667
41	0xbe1cee74	-0.15325338
42	0x3afe44a5	0.001939912
43	0x3e6189f8	0.22025287
44	0xbe76f061	-0.24115135
45	0x3e5d07d8	0.21585023
46	0xbc90fcc2	-0.01769865
47	0xbe5639cd	-0.20920487
48	0xbe432cdd	-0.19060083
49	0xbddfaf3b	-0.109220944
50	0xbe41a898	-0.1891197
51	0xbcd3c266	-0.025849532
52	0xbe759a02	-0.2398453
53	0xbe57785f	-0.21042012
54	0xbd5bf722	-0.05370248
55	0xbe54d1ef	-0.20783208
56	0xbd3700a4	-0.044678345
57	0xbe02ae33	-0.12761764
58	0xbe6dcc5c	-0.23222488
59	0xbda37061	-0.07980419
60	0xbe437044	-0.19085795
61	0xbe113248	-0.14179337
62	0x387d10f0	6.0335675e-05
63	0xbe35a1a1	-0.17737438
64	0xbddd6413	-0.10810103
65	0xbe23456d	-0.15944453
66	0xbe4207be	-0.18948266
67	0xbe3ff4a0	-0.18745661
68	0xbe383887	-0.17990313
69	0xbde77e4f	-0.11303388
70	0xbdf04e9f	-0.11733746
71	0xbe63237c	-0.22181505
72	0xbdd3beac	-0.10339102
73	0xbe173d1b	-0.14769404
74	0xbe119b9a	-0.14219514
75	0x3e3770ad	0.17914076
76	0x3d2c68fa	0.0420923
77	0xbcbbc873	-0.02292273
78	0xbddfb5f3	-0.10923376
79	0xbe104caf	-0.14091752
80	0xbe1e2b3c	-0.1544618
81	0xbe40ce0e	-0.18828604
82	0xbe3cbb58	-0.18430841
83	0x3ca2431b	0.019807389
84	0x3d94e8d5	0.07270972
85	0xbdc58172	-0.0964383
86	0xbe0c4754	-0.13699085
87	0xbe48afeb	-0.19598357
88	0xbc7a82b5	-0.015289952
89	0xbe853b65	-0.26021877
90	0xbe32da66	-0.17466125
91	0xbd44ae2e	-0.048017673
92	0xbe72c810	-0.2370913
93	0xbe3ea5a9	-0.18617882
94	0xbc864a24	-0.016392775
95	0xbdbb655d	-0.09150193
96	0xbe626951	-0.22110488
97	0xbe63bf8a	-0.22241035
98	0xbe38fe2c	-0.18065709
99	0xbdc40f47	-0.095732264
100	0xbdd88919	-0.10573024
101	0xbe10fd38	-0.14159095
102	0xbdeea187	-0.11651903
103	0xbd5278d4	-0.051384762
104	0xbde99ca8	-0.11406833
105	0xbe0414b3	-0.12898521
106	0xbe18c0b4	-0.1491726
107	0xbdb379a8	-0.087634385
108	0xbe101541	-0.14070608
109	0xbd8b5f34	-0.06805268
110	0xbd60a182	-0.054841526
111	0xbcf1b67c	-0.02950596
112	0x3d893436	0.066994116
113	0x3d6f28a0	0.058388352
114	0xbe4af0a3	-0.19818358
115	0xbe517535	-0.20454867
116	0xbe489ca2	-0.19591
117	0xbe01f5ed	-0.1269147
118	0xbe10e80f	-0.14151023
119	0xbe02b2ec	-0.12763566
120	0xbdf935b6	-0.12168448
121	0xbd3230b5	-0.043503482
122	0xbe000baf	-0.12504457
123	0xbe25e771	-0.16201569
124	0xbdfaf97b	-0.12254616
125	0x3e3525bd	0.17690177
126	0xbe35223f	-0.17688845
127	0xbe33d1f3	-0.17560558

fc1.weight f4 [128, 768]
0	0xbcf3cdf2	-0.029761288
1	0x3cb8dbe4	0.02256579
2	0x3c97968f	0.01850441
3	0x3ce3094c	0.027714394
4	0xbbdab714	-0.0066746566
5	0x3cf019d9	0.0293092
6	0xbd7459ce	-0.059655957
7	0xbd7aa177	-0.06118914
8	0x3e4df94c	0.2011463
9	0xbe40d321	-0.1883054
10	0x3e94d4c3	0.29068574
11	0xbec7a17c	-0.3899039
12	0xbe44674f	-0.19180034
13	0xbe4d2448	-0.20033371
14	0x3d80d088	0.06289774
15	0xbed28cac	-0.4112295
16	0xbe3645fe	-0.17800137
17	0x3cb2aa76	0.021809798
18	0xbe95e15f	-0.29273507
19	0xbd90b724	-0.07066181
20	0x3d8b51aa	0.068026856
21	0xbe9413b8	-0.28921294
22	0x3e424c20	0.18974352
23	0xbd8abff2	-0.06774892
24	0x3c00c52d	0.00785951
25	0xbe656173	-0.22400455
26	0xbe861ac0	-0.26192284
27	0x3e3d3ff9	0.18481435
28	0x3d90beda	0.07067652
29	0xbde5945f	-0.1120994
30	0x3c1b6208	0.009483822
31	0xbd10bbd8	-0.03533539
32	0x3b428618	0.0029681977
33	0x3da239f6	0.079212114
34	0x3caefa5c	0.021359615
35	0x3d1b3d1f	0.037900086
36	0x3dc24e3e	0.0948758
37	0xbe484a66	-0.19559631
38	0x3e00b33c	0.12568372
39	0xbf0981f0	-0.53713894
40	0x3cc1c2ab	0.023652395
41	0xbe114a89	-0.14188589
42	0x3d160d28	0.03663364
43	0xbe03081f	-0.12796067
44	0xbe17f727	-0.14840375
45	0x3db18aad	0.086690284
46	0x3dad0ad0	0.08449328
47	0x3abba08c	0.0014314814
48	0x3cdfebd8	0.027334139
49	0xbc589509	-0.0132191265
50	0x3cce7202	0.025200848
51	0xbcc5659a	-0.024096299
52	0x3d12bb58	0.035823196
53	0xbc94ccf8	-0.018164143
54	0x3d8c2301	0.06842614
55	0x3db5b51a	0.08872433
56	0xbe58f55a	-0.21187344
57	0xbec1bca3	-0.3783923
58	0x3ec266cc	0.37969053
59	0x3e04d95f	0.12973545
60	0xbc84ac27	-0.01619537
61	0xbcdc2444	-0.026872762
62	0xbce5788f	-0.028011588
63	0x3cf8a098	0.030350015
64	0x3cc7ee48	0.024405614
65	0xbd02bbe7	-0.03191748
66	0xbbb9a887	-0.005665842
67	0x3a4871d8	0.00076463586
68	0xbdd71c2d	-0.10503421
69	0x3c1c5c21	0.00954345
70	0x3d44d10a	0.048050918
71	0x3deaca69	0.11464388
72	0x3e6b9351	0.23005415
73	0x3d23d146	0.0399945
74	0x3d701fdb	0.05862413
75	0x3d45e25b	0.048311573
76	0x3dd8c2d0	0.105840325
77	0x3dc60a42	0.09669925
78	0xbdce0168	-0.10058862
79	0xbf1c1470	-0.60968685
80	0xbdee4238	-0.11633724
81	0xbd374d83	-0.044751655
82	0xbec56685	-0.3855478
83	0xbe063dae	-0.13109466
84	0xbc4995fc	-0.0123038255
85	0xbeb1019a	-0.34571534
86	0x3da3082a	0.079605415
87	0x3e147889	0.14499106
88	0xbe24315e	-0.16034457
89	0x3e29824e	0.16553614
90	0xbe8a12c2	-0.26967436
91	0xbecc469d	-0.39897624
92	0xbe8225ca	-0.25419456
93	0x3e9fd193	0.3121458
94	0xbdad86e7	-0.08472996
95	0xbe63a5ef	-0.22231267
96	0xbe043bde	-0.12913463
97	0x3d84cce3	0.064843915
98	0xbe1f6f96	-0.1556991
99	0x3d3ebf8b	0.04656939
100	0x3c655e31	0.013999508
101	0x3d28c1f9	0.04120061
102	0x3d947d49	0.07250459
103	0x3d03d9d9	0.032190178
104	0xbd5ee40a	-0.054416694
105	0xbeb1d0ff	-0.34729764
106	0x3e0c94e5	0.13728674
107	0x3c5b93d2	0.013401942
108	0xbe6807da	-0.22659245
109	0xbe67e5ed	-0.22646303
110	0x3db23c6f	0.08702933
111	0xbd1bed6d	-0.038068224
112	0x3eaa044d	0.33206406
113	0xbe503106	-0.20331201
114	0xbe81fb48	-0.25387025
115	0xbd824a6a	-0.063618496
116	0xbe57c869	-0.21072544
117	0x3e13a580	0.14418602
118	0xbdf60a07	-0.12013631
119	0xbead1a9f	-0.33809373
120	0xbde9ef77	-0.114226274
121	0xbd3621a3	-0.044465672
122	0xbe16f787	-0.14742862
123	0xbd014abe	-0.03156542
124	0x3c59d5d9	0.013295614
125	0x3ccefb43	0.025266295
126	0x3b2a2d72	0.002596703
127	0x3d4b387b	0.04961441
128	0xbe101808	-0.14071667
129	0xbd4ebaf9	-0.05047128
130	0xbeb3c3af	-0.35110232
131	0xbe28773d	-0.16451736
132	0xbf819cf7	-1.0126027
133	0xbe8aa854	-0.2708155
134	0x3c9baef1	0.019004317
135	0xbf34d3a0	-0.70635414
136	0xbd6fa686	-0.05850842
137	0xbe959a65	-0.29219356
138	0x3e8f3bc7	0.27975294
139	0xbe80ca2d	-0.25154248
140	0xbe3e3565	-0.18575056
141	0x3f041255	0.5159047
142	0xbe1e2a49	-0.15445818
143	0x3d1aafce	0.037765317
144	0x3cd411c0	0.02588737
145	0xbcc53bb6	-0.024076324
146	0x3bdd42c3	0.0067523434
147	0xbe720e2f	-0.23638223
148	0x3e9c92ee	0.30580848
149	0xbdc76f2b	-0.097380005
150	0x3dadcffd	0.08486936
151	0xbe1226df	-0.1427264
152	0xbe14d7b9	-0.14535417
153	0xbe7165e8	-0.2357403
154	0x3eff3c7d	0.49850836
155	0xbc92005e	-0.01782244
156	0xbe219f19	-0.15783347
157	0xbe03e199	-0.12879027
158	0xbd79d9b0	-0.06099862
159	0x3ea8ffdc	0.33007705
160	0x3dabee50	0.08395064
161	0x3aad7bd8	0.0013235761
162	0xbeef0c90	-0.46689272
163	0xbecbd214	-0.39808714
164	0xbe5a19c3	-0.2129889
165	0xbe4d33b0	-0.20039248
166	0xbdc1e596	-0.09467618
167	0xbdf4908f	-0.11941635
168	0xbd8383fa	-0.06421657
169	0xbdd526cb	-0.1040779
170	0x3d688132	0.056763835
171	0x3deece2c	0.11660418
172	0x3c4494dc	0.0119983815
173	0xbe810dee	-0.2520594
174	0xbe58dcf1	-0.21178032
175	0x3cb82071	0.022476407
176	0xbdcabb1b	-0.09898969
177	0x3da6353f	0.08115625
178	0xbd8b0b5d	-0.06789277
179	0xbdc55c71	-0.096367724
180	0xbdbb9b0f	-0.091604345
181	0xbcd6a083	-0.026199585
182	0xbe2d9ac1	-0.16953565
183	0xbd0bad26	-0.034100674
184	0xbe10ae25	-0.14128931
185	0xbc699bec	-0.014258366
186	0xbdad234e	-0.084539995
187	0xbd2e559a	-0.042562105
188	0xbd871cf8	-0.06597322
189	0x3d932fe4	0.07186869
190	0x3c43c08f	0.011947765
191	0x3be758c1	0.007060141
192	0xbc69b508	-0.014264353
193	0x3c897ca2	0.016783062
194	0xbc5096f6	-0.012731304
195	0xbe02c962	-0.12772134
196	0x3d8c8d90	0.068629384
197	0x3cafb4b2	0.021448467
198	0xbf328a9c	-0.6974275
199	0x3e57d472	0.21077135
200	0xbe22a022	-0.15881398
201	0xbe28c8ad	-0.16482802
202	0x3d91626f	0.07098853
203	0x3d83bea5	0.06432847
204	0xbf2e3f7d	-0.68065625
205	0xbe62bc1f	-0.22142075
206	0xbd2a0e77	-0.0415177
207	0xbea3a0a9	-0.3195851
208	0x3edddfbf	0.43334767
209	0x3d989397	0.074500255
210	0xbe113eb7	-0.1418408
211	0x3cd2d6f7	0.025737269
212	0xbe14255b	-0.14467375
213	0xbc5cbe96	-0.013473174
214	0x3d7880bb	0.060669642
215	0xbe523f3b	-0.20531933
216	0xbe90108d	-0.28137627
217	0xbe5c1377	-0.214918
218	0xbd52a454	-0.051426247
219	0x3ea0e370	0.3142352
220	0x3e15d7f2	0.14633158
221	0xbe11d9d0	-0.14243245
222	0x3ee7d031	0.45276025
223	0xbcbc46b4	-0.022982933
224	0x3e8f1a83	0.27949914
225	0xbcf2a600	-0.02962017
226	0xbe7e3166	-0.24823532
227	0xbca24b9d	-0.019811446
228	0xbec2926f	-0.38002345
229	0xbc5c6fc8	-0.013454385
230	0xbdde00ca	-0.10839994
231	0x3e8a394b	0.26996836
232	0x3db39a06	0.08769612
233	0x3db18259	0.0866744
234	0x3d89a1b6	0.06720297
235	0x3e5b3318	0.2140621
236	0xbea36b08	-0.31917596
237	0x3c44d7b2	0.012014316
238	0x3dfae5a3	0.12250831
239	0x3d83c9e0	0.06434989
240	0xbe423948	-0.18967164
241	0xbed1f662	-0.41008288
242	0xbe41c478	-0.18922603
243	0xbed26b1d	-0.41097346
244	0xbdec7251	-0.115452416
245	0x3ea2964b	0.3175529
246	0xbe111e5b	-0.14171736
247	0xbe2d77dd	-0.16940255
248	0xbbf25248	-0.0073950626
249	0x3e351050	0.17682004
250	0xbe29b661	-0.16573478
251	0xbd9b67ce	-0.075881585
252	0xbd821b17	-0.06352823
253	0x3e0d8ced	0.1382329
254	0xbeb3bb1a	-0.35103685
255	0xbcbbe807	-0.022937788

fc1.bias f4 [128]
0	0x3e6e2e77	0.23259912
1	0x3e8cb148	0.27479005
2	0x3b9908d2	0.004670241
3	0x3deda727	0.116041474
4	0xbce0ea3b	-0.02745544
5	0x3ea919c3	0.33027467
6	0xbcf8255e	-0.030291256
7	0xbcf42ac3	-0.029805547
8	0x3eb29a31	0.34883264
9	0xbc5b4486	-0.0133830365
10	0x3e08e4e3	0.13368563
11	0x3d966eb9	0.073453374
12	0x3d065a8f	0.032801207
13	0x3ea1b36a	0.31582195
14	0x3c70ebd6	0.014704665
15	0x3c8a5f96	0.016891282
16	0xbd55dd38	-0.052212924
17	0xbd5bd95e	-0.053674094
18	0xbbeeab0c	-0.007283574
19	0x3e7484ba	0.23878756
20	0xbcbed7eb	-0.023296317
21	0xbcf3a573	-0.029741978
22	0xbccacb89	-0.024755256
23	0x3ccd2149	0.025040286
24	0x3ba0bcad	0.0049053044
25	0x3e3eab9e	0.18620154
26	0x3e71d9e9	0.23618282
27	0x3ec6749c	0.3876084
28	0x3d59e7d2	0.053199597
29	0x3cc70ebd	0.02429902
30	0x3da4a79c	0.080397815
31	0xbab56ced	-0.0013841667
32	0x3e95e856	0.2927882
33	0x3e39cc12	0.18144253
34	0x3e9e0ada	0.30867654
35	0x3dfdc6cc	0.12391433
36	0x3e94ae7d	0.29039374
37	0xbd11bb5b	-0.035579067
38	0x3e174a52	0.14774445
39	0x3c09b091	0.008403913
40	0x3e917780	0.28411484
41	0xbd9ac83a	-0.075577214
42	0x3e9e1835	0.30877843
43	0x3e3ac714	0.18240005
44	0x3bb65933	0.0055648326
45	0x3e8b45af	0.27201602
46	0x3e23a119	0.15979423
47	0x3e37bdcb	0.17943494
48	0x3e4ce94b	0.20010869
49	0xbbe9fb2f	-0.007140539
50	0x3d8186e8	0.063245595
51	0xbaaa2358	-0.0012980504
52	0x3dd7c8fa	0.1053638
53	0x3d83a630	0.06428182
54	0x3e90d42e	0.2828688
55	0x3e4d53f6	0.2005156
56	0x3e24c459	0.16090526
57	0x3e4421d9	0.19153537
58	0x3e9c47b9	0.3052347
59	0x3eaee140	0.34156227
60	0x3c73163f	0.014836847
61	0x3e17f8f0	0.14841056
62	0xbd1c1935	-0.038109977
63	0xbc949059	-0.018135237
64	0x3b2fffa0	0.0026855245
65	0x3e4dc07e	0.20092961
66	0x3eadb54e	0.33927387
67	0x3e892823	0.26788434
68	0x3b05b328	0.0020400975
69	0x3e4c8000	0.19970703
70	0xbcc731a6	-0.024315666
71	0x3ed51203	0.41615304
72	0xbcf8fdb4	-0.030394413
73	0x3e2990f0	0.16559196
74	0x3e21eb5e	0.15812442
75	0x3e851073	0.25989112
76	0x3e676440	0.22596836
77	0xbac36f94	-0.0014910572
78	0xbd92ca43	-0.071674846
79	0x3ba1ca10	0.004937418
80	0x3e3e7a3f	0.1860132
81	0x3e93af63	0.28844747
82	0x3ebbb38a	0.36660415
83	0x3e16801c	0.14697307
84	0x3e9ee4cb	0.3103393
85	0x3b65a940	0.0035043508
86	0x3c9dce71	0.019263478
87	0x3de66957	0.11250561
88	0x3e2c6a94	0.16837531
89	0x3d08aadb	0.033366065
90	0x3d35a4c3	0.044346582
91	0x3ec284eb	0.37992033
92	0x3c86e837	0.01646815
93	0x3dec46d8	0.1153695
94	0xbc57c113	-0.013168591
95	0x3e8558e5	0.26044384
96	0xbca508eb	-0.020145854
97	0xbd1bbaf6	-0.038020097
98	0xbc65e756	-0.014032206
99	0x3cd7032b	0.026246628
100	0x3e02dba3	0.12779097
101	0xbd44458b	-0.047917884
102	0x3c3c1c63	0.011481377
103	0x3e1236b3	0.14278679
104	0xbd5ef09e	-0.05442869
105	0x3e8c4953	0.27399692
106	0x3e72d1ec	0.23712891
107	0xbce010f3	-0.027351832
108	0x3e834cb0	0.25644445
109	0x3e8f014b	0.27930674
110	0x3d0e46db	0.03473554
111	0x3c88299c	0.016621403
112	0x3ec103b7	0.37698147
113	0x3e20c4c2	0.15700057
114	0xbd40749b	-0.046986204
115	0x3ad04448	0.001588949
116	0x3e33dd61	0.17564918
117	0x3df3866a	0.11890872
118	0x3e3600b0	0.177737
119	0x3e817a93	0.2528883
120	0x3e5a3049	0.21307482
121	0xbcbb0f43	-0.022834426
122	0x3e60f38a	0.21967903
123	0xbbb0df74	-0.0053977314
124	0xbc4a8dd1	-0.012362913
125	0xbda97bab	-0.08275541
126	0x3ea94761	0.3306227
127	0x3c794453	0.015214044

fc2.weight f4 [7, 128]
0	0xbe91353d	-0.2836093
1	0xbac818e0	-0.0015266202
2	0x3cfe4078	0.0310366
3	0xbe677aa8	-0.22605383
4	0x3d6f126d	0.05836718
5	0xba998a0f	-0.0011714118
6	0xbcb735f3	-0.022364592
7	0x3e15ec94	0.14641029
8	0x39bd4580	0.0003610067
9	0x3d9b2459	0.07575292
10	0x3cedc300	0.029023647
11	0xbcbdaf4d	-0.023154879
12	0xbc093060	-0.00837335
13	0xba5f69a4	-0.00085225166
14	0x3d2f7cc7	0.042843606
15	0x3cec51ac	0.028847538
16	0x3d3aee9b	0.04563771
17	0x3d90b19e	0.07065128
18	0x3c1048be	0.008806406
19	0xbae41e19	-0.0017403989
20	0xbbca73b1	-0.0061783423
21	0xbc8cbcb3	-0.017179823
22	0x3d21ce15	0.039503176
23	0xb98c0f54	-0.000267143
24	0x3d49f520	0.049306035
25	0x3adb5c32	0.001673585
26	0xbc2a9aac	-0.010412853
27	0xbb163b3b	-0.0022923488
28	0xbb9504d2	-0.0045476938
29	0xbd059270	-0.032610357
30	0xbcfd5abd	-0.030927056
31	0xbb332635	-0.0027336006
32	0xb7fa7ecc	-2.9861367e-05
33	0xbc183a31	-0.009291218
34	0xba9809d0	-0.0011599604
35	0x3d164aaa	0.0366923
36	0xb9b9f5cf	-0.0003546909
37	0x3d775b05	0.060389537
38	0x3ab224b1	0.0013591257
39	0xbd13013b	-0.035889845
40	0xba76fc12	-0.00094217167
41	0xbd8cc99b	-0.06874391
42	0xbb9e270c	-0.004826432
43	0xbcefa801	-0.029254915
44	0x3d0ee7d9	0.034889076
45	0x3aa5d002	0.0012650492
46	0x3c48ea4d	0.012262893
47	0xbe9557ef	-0.2916865
48	0xbe920c47	-0.28524992
49	0x3cb119fb	0.021618834
50	0x3b6eb093	0.0036421164
51	0xbd32db68	-0.043666273
52	0xbcef67ff	-0.029224394
53	0x3bdf0da3	0.0068070455
54	0x3ae70069	0.0017624024
55	0xba857cb7	-0.0010184263
56	0x3aa8416a	0.0012836878
57	0x3a0964de	0.00052411656
58	0xbb836c98	-0.004010748
59	0xbb1a5d35	-0.002355409
60	0x3da5f25f	0.08102869
61	0x3cd86f17	0.02642016
62	0x3d565f9a	0.052337267
63	0xbcbf20ca	-0.023331065
64	0x3d075eb6	0.033049308
65	0xbcfa0f89	-0.030524986
66	0xbb5064e0	-0.0031798407
67	0xbb90f4bb	-0.0044237054
68	0xbd251372	-0.040301748
69	0xbe871135	-0.26380315
70	0x3dc29b40	0.09502268
71	0xba2c9b1c	-0.00065843924
72	0xbd11d035	-0.035598952
73	0xbb017e30	-0.0019759052
74	0x3bdf78a3	0.006819801
75	0xbe9e2d13	-0.30893764
76	0xbb5ae76c	-0.0033402098
77	0x3d38816d	0.045045305
78	0x3cbc9ecc	0.023024939
79	0xbbce8caf	-0.006303392
80	0xbb28e459	-0.0025770871
81	0xb8c0e083	-9.197092e-05
82	0xbafbcd15	-0.00192109
83	0x3a39ae34	0.0007083148
84	0xbad9e098	-0.001662272
85	0xbe05d497	-0.13069378
86	0x3a9f4f04	0.0012154286
87	0x3cc1667e	0.023608442
88	0x3a0b07c0	0.0005303584
89	0x3d1548ba	0.03644631
90	0xbc84eb13	-0.016225373
91	0xbaa0b68a	-0.0012261432
92	0xbc0c783a	-0.008573586
93	0xbe77a02f	-0.24182199
94	0x3b17e813	0.0023179098
95	0xba5d9adb	-0.0008453556
96	0xbcf2226f	-0.029557435
97	0xbd2612ca	-0.040545262
98	0x3c17458a	0.009232888
99	0x3dc4beeb	0.09606727
100	0x3c77d97f	0.015127539
101	0xbca46fd9	-0.020072864
102	0x3bafefb2	0.00536915
103	0xbe8c14c4	-0.27359593
104	0x3dddaa5f	0.10823511
105	0xb90047a5	-0.00012233721
106	0xbb4ce051	-0.0031261633
107	0x3d6148fb	0.05500124
108	0x3c58e02e	0.013237042
109	0xb9bdeb08	-0.00036224
110	0x3c210933	0.009828853
111	0x3e41e119	0.18933524
112	0xb97fb3f1	-0.00024385728
113	0x3a133488	0.0005615433
114	0x3d026f88	0.031844646
115	0x3d4107df	0.047126647
116	0xba99ac06	-0.0011724241
117	0xbe89320a	-0.2679599
118	0xbb97125b	-0.0046103424
119	0xbc796587	-0.01522196
120	0xbe8f55f5	-0.27995268
121	0xbda1c7ba	-0.07899423
122	0xbb181ea0	-0.0023211613
123	0x3b46b9d0	0.0030323155
124	0xbcc9208f	-0.024551658
125	0x3d24879d	0.040168393
126	0xbbcf81d9	-0.0063326177
127	0x3b4de922	0.0031419476
128	0xbaf27d2c	-0.0018500439
129	0xbe5338d4	-0.20627147
130	0x3ccb1bdb	0.024793556
131	0x3d19722e	0.037462406
132	0x3d6382ce	0.055544667
133	0xbe6a1cfc	-0.22862619
134	0x3d9954f4	0.07486907
135	0x3d71e74b	0.05905847
136	0xbb540486	-0.003235133
137	0x3d619e55	0.055082638
138	0x3cf5e403	0.030015951
139	0x3d3af761	0.045646075
140	0xbc489579	-0.012242668
141	0x3aac0aba	0.0013125755
142	0xbc077000	-0.008266449
143	0x3d08ce3a	0.033399798
144	0x3dcdbc62	0.10045697
145	0xbd4db0df	-0.050217506
146	0x3c55f464	0.013058756
147	0xbe567b09	-0.20945372
148	0x3cf0d300	0.029397488
149	0x3d1ba8e7	0.038002875
150	0xbcb690bc	-0.022285812
151	0x3c9a4707	0.018832697
152	0xbc339be9	-0.010962465
153	0xbe3acb6a	-0.18241659
154	0x3adfc9da	0.0017073706
155	0xbb761d3c	-0.0037554046
156	0x3c98fa72	0.01867411
157	0xbd28536d	-0.041095186
158	0xbcf9ce11	-0.030493768
159	0x3df2bca3	0.11852386
160	0xb8cbf3e8	-9.7252254e-05
161	0x3b6d4cb1	0.0036209042
162	0xbb00df79	-0.001966445
163	0x3cf42934	0.029804803
164	0xbe601dba	-0.2188634
165	0xbbb1b2b3	-0.005422914
166	0xbc876e53	-0.016532099
167	0x3d9b87a2	0.07594229
168	0xbe5c745f	-0.21528767
169	0xba76e836	-0.00094187574
170	0x3b4099d8	0.0029388573
171	0xbd4c7644	-0.049917474
172	0xbd0e09c0	-0.034677267
173	0xbe470647	-0.19435988
174	0xbc82ff16	-0.015990775
175	0x3b968db0	0.004594527
176	0xbaa1ce58	-0.001234482
177	0x3da304ac	0.079598755
178	0xbca04710	-0.019565135
179	0x3d8d0e38	0.06887478
180	0x3ac6459f	0.001512695
181	0xba2d5f98	-0.0006613671
182	0x3a5d4fae	0.0008442354
183	0x3b20aeb2	0.002451819
184	0x3b5cdc22	0.0033700545
185	0x3cbd3152	0.023094807
186	0xbc4063c3	-0.011742535
187	0xbbc97145	-0.006147536
188	0xbd55cffa	-0.052200295
189	0x3ce63f02	0.028106216
190	0xbc83106f	-0.015999047
191	0x3d31c9ce	0.043405347
192	0x3c0ce9b3	0.00860064
193	0xbc88eaf8	-0.016713604
194	0xbb087235	-0.0020820026
195	0x3ba02044	0.004886659
196	0x3cd6a626	0.026202273
197	0xbd30518b	-0.043046515
198	0x3c1fdb7f	0.009756922
199	0xbb8f5075	-0.004373605
200	0xbd8a9e0f	-0.067684285
201	0xbe8bba5e	-0.27290624
202	0xbb88cda3	-0.0041749044
203	0xbb82eb63	-0.0039953454
204	0xbbd01bdd	-0.006350978
205	0x3dd214ae	0.102578506
206	0x3cb2484d	0.021762991
207	0xbd64c4bf	-0.055851694
208	0xbdf0bc58	-0.11754674
209	0xbe3ba55d	-0.183248
210	0xbbf0c60c	-0.007347828
211	0x3caf6371	0.021409722
212	0x3b5d8de1	0.003380649
213	0x3b3afe18	0.00285328
214	0x3ca59ba2	0.020215813
215	0x3cb8a7c9	0.022540944
216	0x3c184f65	0.009296273
217	0x3caf201f	0.021377621
218	0x3c1a99c6	0.0094360765
219	0xbb296150	-0.0025845356
220	0xbcc10ddc	-0.023566179
221	0x3c1b9c9a	0.009497786
222	0x3d08706f	0.03331035
223	0xba6e10ae	-0.0009081465
224	0x3d358834	0.044319347
225	0x3ce81415	0.028329888
226	0xbc314b41	-0.010821165
227	0x3de5d7b8	0.11222786
228	0xbd5e98ac	-0.054344818
229	0xbccdbaed	-0.025113547
230	0x3c1abb7b	0.009444113
231	0xbb6d2f10	-0.0036191382
232	0xbdb39b5e	-0.08769868
233	0xbb0057df	-0.0019583625
234	0xb8764a44	-5.8720136e-05
235	0x3dddc93d	0.10829399
236	0x3c2a8158	0.0104068145
237	0xbb546fde	-0.003241531
238	0x3ccd082e	0.025028314
239	0x3d5dbd3c	0.054135546
240	0xbb385d4a	-0.0028131776
241	0xbb5b3f36	-0.0033454425
242	0xbc9d5f66	-0.019210529
243	0xbd7b6ec2	-0.061384924
244	0xbe8711f8	-0.26380897
245	0xbc358b1b	-0.011080529
246	0xbcc5f6ee	-0.024165597
247	0xbcb5af97	-0.022178454
248	0xb931cd9c	-0.00016956631
249	0x3cf1edd3	0.029532349
250	0xbb01267f	-0.0019706783
251	0x3d763aca	0.06011466
252	0x3cbc1ec8	0.022963896
253	0x3e021df7	0.12706743
254	0xbbb788c1	-0.005601019
255	0xbcc612be	-0.024178859

fc2.bias f4 [7]
0	0xbf538fd5	-0.82641345
1	0xbf4c76e5	-0.7986892
2	0xbf5e741f	-0.86895937
3	0xbf494a9b	-0.78629464
4	0xbf49c86f	-0.7882146
5	0xbf4e16d4	-0.8050358
6	0xbf498fc0	-0.7873497
