trained_models/double_dql_blockcheck_1e.pt (torch, 536716 bytes, 8 tensors)

conv1.weight f4 [64, 1, 4, 4]
000000 14 1d 80 3e 71 9d e5 3d 7d 69 00 bf 32 1c bc 3c
       0.25022185 0.1121167 -0.5016096 0.022962663
000010 fb 1b 17 be 88 7c 59 be 7a bf 38 bf d0 5e 28 3a
       -0.14756767 -0.21238911 -0.7216717 0.00064228196
000020 ae f2 7c 3e 24 f6 7c 3e e1 6a 51 bf a7 36 da bd
       0.2470195 0.2470327 -0.8180371 -0.10654955
000030 dd f2 9b be 7e 9c aa be ae e0 e8 bd 74 e4 b2 3e
       -0.30458727 -0.3332252 -0.11370979 0.3493992
000040 77 5b fd 3c c5 05 95 be 2b 01 f7 be 7f 78 8a bc
       0.030927403 -0.29105964 -0.4824308 -0.01690316
000050 57 6d 45 3e 41 35 6a 3e 21 63 a9 be bb 1d 05 be
       0.19279991 0.22871877 -0.33083442 -0.12999623
000060 26 9f 94 3d c2 57 34 3d b0 c4 3d 3e 3a 4f f3 be
       0.07256918 0.044029005 0.18532062 -0.47521383
000070 89 e3 29 be 4d cc 40 bd ef 20 b8 3d 4d 97 77 3e
       -0.16590704 -0.047069836 0.089906566 0.2417881
000080 2e 40 1d bf 70 27 54 be 44 67 ac 3e 08 8c 63 3e
       -0.61426055 -0.20718169 0.33672535 0.22221386
000090 cd f1 3a be c5 62 41 bd 27 85 a6 3d c7 97 b0 bd
       -0.18256302 -0.047213335 0.081308655 -0.08622699
0000a0 30 61 fe bc ba 29 b7 bd f1 1f 98 be eb 8f 07 bd
       -0.031052202 -0.089435056 -0.2971187 -0.033096235
0000b0 04 20 66 bf 59 2a a7 bd c0 3c b4 bc 41 17 cd 3d
       -0.898926 -0.08162374 -0.022001624 0.10014201
0000c0 90 dc eb 3e 97 5d 31 3e 3a 7c c6 bd f8 f5 24 be
       0.46066713 0.17320858 -0.09691663 -0.16109455
0000d0 9f 53 ad 3e d2 8b 42 3e 64 34 ad be 7c a0 b9 be
       0.3385286 0.1899865 -0.33829033 -0.36255252
0000e0 e8 ef 8f be 34 73 79 be b5 c6 f5 be e7 dc 60 3e
       -0.2811272 -0.24360353 -0.48003164 0.21959268
0000f0 48 c8 a7 be e8 0a c3 3c 25 7f ad be 73 50 42 bd
       -0.3276999 0.023808911 -0.33886066 -0.047440004
000100 cb 46 86 be 88 03 cf 3e 06 44 37 3e 8f 66 46 be
       -0.26225886 0.40432382 0.17897043 -0.1937506
000110 3c c4 d4 bd e2 e5 48 3d 33 32 1c 3e 5b 51 20 3f
       -0.10388991 0.04904736 0.15253524 0.6262414
000120 2d 9e 4c 3e 4f 32 ce 3d c3 fb 1c 3e bc fa f7 bd
       0.19982214 0.10068189 0.15330414 -0.12108371
000130 8e 16 90 be 73 40 ce be 4f c0 a4 bd 57 2b 35 bf
       -0.28142208 -0.40283546 -0.080444925 -0.70769256
000140 b6 b9 11 bf 25 ea cb 3d a5 85 7b 3e 9b 88 aa be
       -0.56924 0.09956769 0.245627 -0.33307347
000150 e9 50 10 3f e3 51 45 be e1 b0 33 be 4d de ff 3d
       0.5637346 -0.19269519 -0.17547943 0.124935724
000160 22 9f 36 be f5 c2 c1 3e b8 6e 13 be 76 d2 88 3c
       -0.17834142 0.37844053 -0.14397705 0.016701918
000170 6c 6b 3b bd 3e 1e db 3c 8f 29 03 3e 8e 18 a0 bd
       -0.045756742 0.026747819 0.12808822 -0.078171834
000180 78 38 5d 3e ef d2 df 3e 62 4f bd be c1 7d 6d 3e
       0.21603572 0.43715617 -0.36974627 0.23192503
000190 76 1a dd bd 78 b5 86 be 30 dc 43 be 7e 8b be be
       -0.10796063 -0.26310325 -0.19126964 -0.372158
0001a0 56 61 cc be 62 f8 2b 3e 0c 01 27 bf 36 5f 0d bf
       -0.3991801 0.1679397 -0.6523597 -0.55223405
0001b0 83 c4 4e 3e 64 61 03 be ed 1b a0 bd 81 bf 3a be
       0.20192151 -0.1283012 -0.078178264 -0.18237115
0001c0 5b fc 51 3e 1f 58 5f be 85 04 87 be 1e d3 1f be
       0.20506422 -0.2181096 -0.26370636 -0.15607879
0001d0 bd af 2a bb 65 26 23 3d c9 b7 70 3d 9c 81 f5 3e
       -0.002604469 0.039831538 0.05876902 0.47950447
0001e0 87 2e 0a be a0 4b ed 3d 86 d1 0f 3f f9 f6 5b be
       -0.13494311 0.1158669 0.5617908 -0.21480931
0001f0 7c 1a a8 3d fd 13 a1 bd 02 53 fa be 8a dc 0a 3a
       0.082081765 -0.078651406 -0.48891455 0.0005297145
000200 31 d8 52 3d e2 3f 1a be 2f c8 86 3e 78 a7 06 3f
       0.051475707 -0.15063432 0.26324603 0.5259929
000210 f5 2b 79 be 92 84 a6 3e a9 08 8a 3e 2c a8 3c be
       -0.24333175 0.32523018 0.26959732 -0.18423527
000220 e6 8d 00 be c3 d1 9a 3e 74 99 29 be a4 67 e2 bd
       -0.1255413 0.3023816 -0.16562444 -0.11054924
000230 43 fa 79 3e e9 2f 8a be f4 7a fd be c2 06 27 be
       0.24411874 -0.26989678 -0.49507868 -0.16311172
000240 fc 49 71 3d 8b ea d8 be 9f 0d 02 3f f2 ef 17 3c
       0.058908448 -0.42366442 0.50802034 0.009273516
000250 d6 10 d3 be 89 3d 1a 3d b0 4e fe bc f9 4a 2c 3d
       -0.41223782 0.03765634 -0.03104338 0.042063687
000260 42 90 e3 3d de 03 ae bd 16 5d 63 bd 72 1b 1a bf
       0.11111499 -0.08496831 -0.055508696 -0.6019813
000270 3f 47 7b 3e 1c e4 a2 bd f1 c9 3f bf d1 8c 1e 3e
       0.24538897 -0.07953665 -0.74917513 0.15483405
000280 a5 33 60 bf 2f 90 94 3b 88 fe 10 bd ca 25 ab bd
       -0.87578803 0.0045337896 -0.03539899 -0.08356817
000290 ce 23 f1 3c 22 74 b6 be d0 6c ce bd 5c 48 32 3e
       0.029436018 -0.35635477 -0.10079348 0.17410415
0002a0 85 47 ae 3d 28 c3 8c be 33 05 8e 3e 95 90 3c 3e
       0.08509735 -0.27492642 0.27738342 0.18414529
0002b0 28 48 2e 3e 10 99 42 3e 71 03 aa 3d 94 bd 13 3e
       0.17019713 0.19003701 0.08301438 0.14427787
0002c0 bf 60 3d be 16 85 01 bd 30 c5 58 bf 9e 95 ec 3e
       -0.18493937 -0.03162106 -0.84675884 0.462079
0002d0 1e 62 01 bf df 0f d6 bd 31 a3 7a 3e 8c be b3 3d
       -0.5054034 -0.10452246 0.24476315 0.08776578
0002e0 ae e8 80 3d e9 b5 c2 be 2d 2b 27 3e 5d 67 b3 be
       0.0629438 -0.3802941 0.16325064 -0.35039797
0002f0 a9 76 86 3e be c1 a3 be 9b 85 a1 bd a4 e6 cc bd
       0.26262406 -0.3198375 -0.07886811 -0.10004929
000300 6d 27 92 3d b4 e0 2c 3f ec 5f 5f 3e 41 e9 6e bf
       0.07136426 0.6753037 0.21813935 -0.9332467
000310 b7 ad 5e 3d 10 2f 59 be d7 05 c4 3d 00 90 2b 3e
       0.054364886 -0.21209359 0.09571426 0.1675415
000320 7b 3a 99 be 4c f7 2f be a3 93 df bd 4c 21 07 ba
       -0.2992743 -0.1718418 -0.10916831 -0.0005154803
000330 9d 36 36 ba ae 32 7f be fc 38 3b bd 5e 8d 52 3d
       -0.0006950887 -0.24921677 -0.04570864 0.05140435
000340 9b c3 6a be 11 8d ee bd e7 c9 a2 be 2f 11 ae be
       -0.2292618 -0.11648 -0.31794664 -0.33997485
000350 db 81 d8 3d c8 1f c7 bb 1e 73 1a 3e 4c 13 e0 be
       0.10571643 -0.0060767867 0.15082976 -0.43764722
000360 17 59 ae 3e 95 6d 12 3f f9 80 2c 3e 93 f3 12 3e
       0.34052345 0.5719846 0.16846074 0.14350729
000370 d5 25 05 bf 7f d2 22 be 0b 64 98 be 04 b2 17 3e
       -0.5201085 -0.1590061 -0.29763827 0.14814001
000380 6d f5 c1 be 81 5e ef be bc 94 fe be 20 c9 09 3e
       -0.37882558 -0.46751788 -0.4972285 0.1345563
000390 f7 da 47 bf ff 63 3e 3e 36 84 9f be 3f 20 d6 3d
       -0.7806849 0.18592833 -0.31155556 0.10455369
0003a0 fe 9a f4 bd 77 d1 27 3e f8 20 2a 3e 3f 98 81 3e
       -0.11943625 0.16388498 0.16614139 0.25311467
0003b0 5b ce 40 be c9 50 cb be 87 e0 6e 3e b0 80 40 3d
       -0.18828718 -0.39710072 0.23327838 0.046997726
0003c0 d6 5e 6d be ad b1 cf bd 4c 13 47 3e d7 02 cb 3d
       -0.23180708 -0.10141311 0.19440955 0.09912651
0003d0 d9 c4 ad 3e c6 ff 7c be 58 77 72 be 78 21 49 be
       0.33939245 -0.24706945 -0.23678339 -0.19641674
0003e0 09 87 ed be 0d d6 f1 3e 54 be 1e 3d c6 22 b0 3e
       -0.46392086 0.4723362 0.03875573 0.3440153
0003f0 f3 ad 83 3e 48 d3 86 bd 75 31 e6 be 19 6b 41 bd
       0.2571865 -0.065832675 -0.44959608 -0.047221277

conv1.bias f4 [64]
000000 3b 08 6f 3e 74 25 8d be 74 83 0a 3e 8e 9b ee be
       0.23342983 -0.27567637 0.13526708 -0.46603054
000010 5d 0e db be a5 8c 0a bf 27 83 05 bf 35 66 13 bf
       -0.42784396 -0.54120857 -0.5215325 -0.5757783
000020 01 77 dd be 64 e9 bb bd d9 93 1f bf 7b 4e a0 be
       -0.43254855 -0.09175375 -0.6233497 -0.31309876
000030 b6 15 de 3e 2e c7 0e bf 1b d5 bd be dd fb 9d be
       0.4337594 -0.55772674 -0.3707665 -0.3085622
000040 f4 44 e6 be a8 4c 00 bf 3b 23 0f bf 70 fb 24 bf
       -0.44974482 -0.5011697 -0.5591313 -0.64446163
000050 15 4a 0a 3f 79 5b 0e bf 78 07 08 bf 3d ac 85 be
       0.5401929 -0.55608326 -0.53136396 -0.2610797
000060 67 b8 95 bd 6a 8c 12 bf ed e2 24 bf f6 57 e6 be
       -0.073105626 -0.57245505 -0.6440876 -0.44988984
000070 06 33 2a 3f b8 b5 e3 be ee cc 44 bf 86 f0 2b 3e
       0.66484106 -0.44474578 -0.768752 0.16790971
000080 54 03 26 be 31 58 2c bf c2 ba 08 bf b1 97 9f 3e
       -0.16212207 -0.6732207 -0.5340997 0.3117042
000090 4c 6e f7 bc 75 32 7f be 8d 44 34 bc 75 2f 35 3e
       -0.03020396 -0.24921592 -0.011002672 0.17693885
0000a0 3f a6 a2 be 8c 0a 22 be 7e a4 5c bf 64 20 b8 be
       -0.3176746 -0.15824336 -0.86188495 -0.35962212
0000b0 12 26 9d be b1 d7 b0 bd 40 dd e6 be 6f 67 f3 be
       -0.30693108 -0.0863489 -0.45090675 -0.4753985
0000c0 ab 98 7a be 12 be e5 3e 73 c2 5a be b1 9d c3 be
       -0.244723 0.44871575 -0.21363239 -0.38206246
0000d0 8c 43 4a bd 36 0d 4f be 06 60 5d be d2 8d b6 be
       -0.049380824 -0.20219883 -0.21618661 -0.35655075
0000e0 3b de 88 be bb 22 c0 be d7 5c f0 be aa a8 90 be
       -0.26732048 -0.37526497 -0.4694583 -0.2825368
0000f0 8b 52 67 3e c7 59 11 3f 7f 73 48 be bd 94 ea be
       0.22590081 0.56777614 -0.19575308 -0.45816603

conv2.weight f4 [128, 64, 2, 2]
000000 03 0d e2 bd 24 a6 2f 3e f2 a0 cf be 5c 7f 07 3f
       -0.11037638 0.17153221 -0.4055248 0.5292871
000010 94 b9 4b bf d4 4a b4 3d 70 83 ab 3d 43 8d b3 3e
       -0.79580045 0.08803335 0.08374679 0.35068712
000020 6f 9e 0c bf 54 ee a3 3e 0d ea 46 be fe 72 b8 3d
       -0.5492925 0.32017767 -0.19425221 0.09006308
000030 cd 1c aa be f8 98 5e 3e 7c cd 05 3f 25 53 c2 3e
       -0.33225098 0.2173804 0.5226667 0.3795406
000040 85 13 5d 3e 05 48 16 bf 0f 19 03 3e bf e0 e5 be
       0.21589477 -0.58703643 0.12802528 -0.4489803
000050 f8 20 b8 3c bd e9 7d 3e a8 a9 23 bf 0d d8 24 3f
       0.022476658 0.24796195 -0.6393075 0.6439217
000060 53 ae 4e 3f 84 51 65 3f 7b b6 3f bf c7 bc b3 3e
       0.8073475 0.8957751 -0.7488782 0.35104963
000070 8a 1f 03 3f 67 c9 11 3f c8 04 77 3e 84 b5 93 3e
       0.5122 0.5694794 0.24122918 0.28849423
000080 bc b0 b6 3e 7b ad 16 be a7 63 ef bd 5b c2 a5 bc
       0.35681713 -0.14714615 -0.11688929 -0.020234277
000090 36 65 83 3e 5d 77 d1 3b 60 9e ae 3e b9 30 2d 3f
       0.25663155 0.006392403 0.34105206 0.6765247
0000a0 0d 7e dd 3e 8a 94 0b 3e 57 3b 4c 3d b2 70 76 bd
       0.43260232 0.13630882 0.04986128 -0.06016607
0000b0 a1 e0 c6 3e 2e ca f2 be 84 da 00 bf 84 75 13 3e
       0.38843253 -0.47419876 -0.5033343 0.14400297
0000c0 00 01 48 bd 79 4a 2d bd 90 37 b5 3d ed c5 11 be
       -0.04882908 -0.04230735 0.08848488 -0.14235659
0000d0 ac e8 1d bf 48 cc c2 bd 04 58 a9 3e 2c 2e d4 be
       -0.61683154 -0.0951162 0.33074963 -0.41441476
0000e0 c1 d6 8e 3d c3 58 ec be 9f 73 62 bf 7c 27 2b 3f
       0.06974555 -0.4616147 -0.88457674 0.66857123
0000f0 b3 d5 69 bf e2 4c 0d 3f 12 17 b7 be 55 34 2c 3e
       -0.91341704 0.5519544 -0.3575979 0.16816838
000100 95 e6 78 bf ec ca c4 3e f7 d3 3e bf 18 da 47 bf
       -0.9722684 0.38436067 -0.7454218 -0.7806716
000110 12 c5 aa bf 36 ae e5 bd 4c f2 03 bf ad af ba bf
       -1.3341391 -0.11214869 -0.5154159 -1.4584862
000120 52 42 02 bf a6 65 d7 be 80 81 2c 3f 4d ec 0a bd
       -0.50882447 -0.4206974 0.673851 -0.03391676
000130 98 5f 55 be 43 cf b9 bc e1 5a 1f bd 6b 06 05 3f
       -0.20837247 -0.022681838 -0.03890503 0.5196292
000140 27 ea 15 3e ba 7e f0 be 74 93 0d bf 26 11 e6 bd
       0.14640103 -0.46971685 -0.5530312 -0.112337396
000150 8b e0 1d bf ba 33 52 be fa 11 94 be 45 b3 bd 3d
       -0.6167075 -0.20527545 -0.28919965 0.092627086
000160 93 c3 61 3e 83 d6 c6 be 75 b3 81 3f 03 8f 01 3f
       0.22047262 -0.38835534 1.0132891 0.50608844
000170 a5 d3 23 3e c3 fa 35 3e ec c2 0f 3f 07 a3 b3 3e
       0.15998705 0.17771439 0.561568 0.35085317
000180 ae 4b 4e 3f 79 59 81 3e 81 01 14 bd b0 9f cd be
       0.8058423 0.25263575 -0.036134247 -0.40160894
000190 f3 e0 e4 3d b9 99 72 be ca ff c1 be a3 a6 d8 be
       0.11175718 -0.23691453 -0.37890464 -0.42314634
0001a0 9e 4a a0 3e ac 83 f2 bd 56 c5 18 bf 05 ad 49 bf
       0.31306928 -0.11841521 -0.5967611 -0.7877963
0001b0 b3 0b 1a bf 36 31 d5 3d c1 c8 9a 3e 3c 1c e3 3e
       -0.601741 0.10409777 0.30231288 0.4435748
0001c0 88 3f c0 bc fb a7 cb bd a8 ea e1 bd 3c f6 1f 3e
       -0.023467794 -0.09944149 -0.11031085 0.15621275
0001d0 60 d9 1e 3d 4f 36 18 be ae 43 9e 3e 60 83 51 bf
       0.038781524 -0.14864467 0.3091101 -0.8184109
0001e0 ea f9 3c 3e 4d 0f 31 be 62 a1 17 3f 1e f8 05 3e
       0.1845471 -0.17290993 0.59230626 0.1308293
0001f0 fa bd ce be fd 3c 04 3e ef e6 75 3e be e0 b7 bc
       -0.40379316 0.1291389 0.24013875 -0.022446033
000200 c6 f4 a9 bd 3b 7b f2 3e db 7e 56 be 28 61 28 3e
       -0.0829864 0.47359642 -0.20946829 0.16443312
000210 27 10 b8 be bd 48 79 3e b5 95 98 3d 80 6b ce be
       -0.35949823 0.24344154 0.07450429 -0.4031639
000220 b1 00 5c bf 0d 78 27 be cb 7d d7 3e 3c 83 d7 bd
       -0.85938555 -0.1635439 0.4208816 -0.10523078
000230 ef 0c cd 3e a6 29 ad bd d9 72 b5 3e 34 3c 29 bd
       0.4004893 -0.084552094 0.35439184 -0.04131718
000240 a3 38 87 3d 89 93 e2 be c1 79 9e 3d 95 e9 12 3d
       0.066025995 -0.44253185 0.077380665 0.035867292
000250 c9 05 bb be dd ac ab 3e 11 26 39 3e fe 04 b8 3e
       -0.3652785 0.33530322 0.18080927 0.3594131
000260 31 6b 42 be 84 f9 19 bf b2 11 10 bf 58 ec 19 bd
       -0.18986203 -0.60146356 -0.56277 -0.03757891
000270 8e 8f 16 bf 53 f1 86 be 51 a2 8f 3e 9f ad 8f 3e
       -0.588128 -0.2635599 0.28053525 0.2806215
000280 1f 46 ac bd 17 5f 2e bf 35 35 31 3e 87 e1 9d 3d
       -0.08411812 -0.68113846 0.17305453 0.077090316
000290 b1 5c aa be be 4b 58 bd c0 8c 15 3f 53 8e d9 bd
       -0.33273843 -0.05280661 0.5841789 -0.10622849
0002a0 aa e3 23 3d cf 68 0b 3f 86 a6 11 3f a5 de 76 3d
       0.04001204 0.544568 0.5689472 0.060270924
0002b0 a8 0d 6a be 24 14 27 bf 27 25 fa bc c6 4e 81 3e
       -0.22856772 -0.6526511 -0.030535294 0.25255412
0002c0 35 cb 78 bf 62 2e c6 3e d3 7a 02 be 3e 6b 21 3f
       -0.9718507 0.38707262 -0.12742166 0.63054264
0002d0 31 ef 74 3a 80 b1 27 be 35 5d 90 be e9 c5 b6 3c
       0.00093435036 -0.16376305 -0.2819611 0.022311168
0002e0 fe e6 39 bf 70 a9 fa be 1d cd 0c 3e f0 a0 a2 3e
       -0.7261809 -0.48957396 0.1375012 0.3176341
0002f0 2d 9a 0a bd 15 03 cc 3e 79 52 38 3f 25 55 07 3d
       -0.03383844 0.398461 0.72000843 0.033040185
000300 e5 8c 9a 3e 2c 88 e5 3d ce f3 25 be 1a 55 33 3e
       0.3018562 0.11207613 -0.16206285 0.17512932
000310 8c ed 05 be 4c 50 e4 be 38 3c c8 3d c6 62 78 3d
       -0.13078898 -0.44592512 0.09777111 0.060641073
000320 57 92 a2 bd 7f b3 0b 3f 8d de 77 be f1 ca 0a 3f
       -0.07938068 0.54570764 -0.2420599 0.54215914
000330 68 9d 4f 3d 78 36 06 bd 9d cf 02 3e e4 a6 fc bd
       0.050687224 -0.03276679 0.1277451 -0.12336519
000340 7a 47 51 be b6 91 8c be d4 7a fe bc b4 eb de 3d
       -0.20437422 -0.2745492 -0.031064428 0.108848006
000350 66 c3 fc be 60 9f 4c bd 0b 74 05 3e 67 57 45 be
       -0.49367827 -0.04995668 0.13032548 -0.19271623
000360 d1 9c 58 3f 0b e8 e6 3d 6f 40 47 be 5e 45 f4 3e
       0.8461428 0.112747274 -0.19458173 0.47709173
000370 e9 cf e5 3d 4b 17 d1 3e 53 c3 9a be 41 90 a8 3e
       0.11221296 0.40838084 -0.30227146 0.32922557
000380 d2 c9 08 bf b5 73 86 3d 83 52 75 bf a5 3e ec 3e
       -0.53432953 0.06565038 -0.9582903 0.46141544
000390 1b 6a 36 bf 59 da 99 3e e1 b3 57 bd a6 86 e8 3c
       -0.71255654 0.300494 -0.05266178 0.028384518
0003a0 19 12 6c bf e5 cc 46 3e f1 e0 60 3f 28 07 ea 3e
       -0.92215115 0.19414099 0.87843233 0.45708585
0003b0 29 d3 d2 be e3 3a 85 3d 8b 03 bb 3e 4d 8e ef 3e
       -0.41176727 0.065053724 0.3652614 0.46788254
0003c0 f7 64 91 3e 49 88 f7 3d 77 2c 07 be 89 0f cb 3e
       0.28397343 0.12086541 -0.13200556 0.3966029
0003d0 0d 9c 63 3d a2 64 00 3e 79 e5 4a 3d 48 dc 49 be
       0.055568743 0.12538388 0.04953525 -0.19712937
0003e0 ba fb e4 3e 72 1d e2 bd b0 40 0b be 28 18 43 be
       0.44723302 -0.110407725 -0.13598895 -0.19052184
0003f0 17 5f 24 bf 7e bb 00 bf 6a 7f c3 3d f4 25 a5 3e
       -0.64207596 -0.5028609 0.09545787 0.32255518

conv2.bias f4 [128]
000000 5b 7b d8 be 16 90 0c 3f 96 fd a2 bd 08 ca 34 bf
       -0.42281613 0.5490736 -0.07958524 -0.70620775
000010 fb c0 c6 be 53 67 e8 be be 91 b4 be 1b f9 02 bf
       -0.38819107 -0.4539133 -0.35267442 -0.51161355
000020 96 6a d0 be 05 86 5a be 2d f1 88 3e 2e 78 1d bf
       -0.4070632 -0.21340187 0.26746503 -0.61511505
000030 01 b3 01 bf 23 20 28 bf 42 03 cc be e5 b1 2b bf
       -0.50663763 -0.65674037 -0.39846236 -0.6706832
000040 70 71 bc be 97 46 8d be de d7 e6 be f5 59 9e be
       -0.36805296 -0.27592918 -0.4508657 -0.30928007
000050 3b aa cd be 80 fe 13 3e 65 11 c9 be b6 91 21 bf
       -0.40168938 0.14452553 -0.39271083 -0.6311296
000060 19 62 00 bf 24 b7 1a bf a7 2f 2b bd ca 42 35 bf
       -0.50149685 -0.604357 -0.04179349 -0.7080504
000070 37 12 c9 be 98 05 4a be 98 79 98 be a4 9b a5 be
       -0.3927171 -0.19728696 -0.2978027 -0.32345307
000080 b2 92 78 be 59 f8 94 3e 38 5d af be 6e 4e 15 bf
       -0.2427471 0.29095724 -0.34250808 -0.583228
000090 73 b6 02 be 3b da b4 be f1 cf e2 be 94 d0 14 bf
       -0.12764911 -0.35322747 -0.44299272 -0.58130765
0000a0 9c 46 c0 be 40 cb 0f bf 82 9e 13 3f 34 e7 47 bf
       -0.3755387 -0.5616951 0.5766374 -0.7808716
0000b0 86 95 d9 be 38 85 9d be 66 9d 22 bf 49 50 1c be
       -0.4249689 -0.307657 -0.6352142 -0.15265001
0000c0 49 a4 2f bc 39 1f d9 be c5 d3 0a bf 91 29 cd be
       -0.010720321 -0.42406633 -0.54229385 -0.40070775
0000d0 11 7d 67 be 3d 3a 2c bf 5e 9d ca be 26 29 da 3c
       -0.22606303 -0.67276365 -0.39573187 0.02663095
0000e0 48 cc 14 bf e3 f1 b4 bd 21 6a e9 be f6 d5 2f be
       -0.5812421 -0.08835199 -0.45588782 -0.17171463
0000f0 8c 82 ef be 60 5c 08 bf 2f 7c e5 be 9d 03 1a bf
       -0.46779287 -0.53265953 -0.44821307 -0.60161763
000100 89 1c 3e bf 16 6a 41 be a1 60 69 be b3 03 da be
       -0.7426229 -0.18888125 -0.22790767 -0.42580947
000110 0f 38 9f bd 4b 53 76 be 0b be f8 be d5 7f db be
       -0.07774364 -0.24055211 -0.4858249 -0.42870966
000120 d2 25 eb be 22 85 6f be e2 87 da be 6e db c4 be
       -0.45927292 -0.2339063 -0.42681795 -0.38448662
000130 bf d9 1d be 73 18 af be 08 33 c7 be 7e 1f 5a be
       -0.15415095 -0.3419834 -0.3890612 -0.21301076
000140 7a 0b 26 bf b3 dc ea be 39 78 1d 3f 55 08 26 bf
       -0.6486126 -0.45871505 0.6151157 -0.64856464
000150 a2 98 09 bf 27 c5 a5 be 63 3a b8 be 28 a7 fd be
       -0.53748524 -0.32376978 -0.35982046 -0.49541593
000160 36 0f 6d be 1e df 04 bf f3 b0 1a be 47 e6 bc be
       -0.23150334 -0.5190295 -0.15106563 -0.36894438
000170 59 ce 7e be 96 3a 14 bf e8 d8 f8 be a7 a8 ba be
       -0.24883403 -0.57901895 -0.48602986 -0.36456797
000180 8d 84 83 bd 7d 63 50 bf 06 9f 95 be 9a 9f d4 be
       -0.064217664 -0.8140181 -0.29222888 -0.41528016
000190 79 22 0a bf 19 6f 44 be a4 fb 58 be ac f4 bd be
       -0.5395885 -0.19183005 -0.21189743 -0.37100732
0001a0 07 dd 9f be 41 c0 ac be 41 db 07 bf 3c ca 1e bf
       -0.31223318 -0.33740428 -0.5306893 -0.62027335
0001b0 18 1e 15 bf 46 c5 11 bf 8a 74 16 bf 35 07 43 bf
       -0.58249044 -0.5694164 -0.58771574 -0.7618287
0001c0 2a 62 9e be 33 0a d7 be 41 5f 72 be e8 43 94 be
       -0.30934268 -0.4199997 -0.23669149 -0.28958058
0001d0 59 b0 c8 be dd 28 fe be 2c 14 f1 be b7 66 3d bf
       -0.39197043 -0.4964055 -0.47085702 -0.73984855
0001e0 20 7a 88 be f9 35 e3 be 9c 7e 07 be 30 30 03 bf
       -0.26655674 -0.44377115 -0.13231891 -0.51245403
0001f0 d9 47 17 bf 69 5a 34 bf f6 e6 1c bf 67 de 97 be
       -0.59094006 -0.70450455 -0.6128992 -0.29661867

fc1.weight f4 [128, 768]
000000 9a 45 17 bd e0 f8 e2 3c 5d 2b 7e 3b 80 10 46 3d
       -0.03693161 0.027706563 0.003878317 0.04835558
000010 14 5f 92 3c 50 c6 15 3c 58 6c b8 bc 31 8f 93 bc
       0.017867602 0.00914152 -0.0225126 -0.018012615
000020 77 fa c0 bc 25 5b 6a 3b a7 5a 57 bd 88 d2 c7 bc
       -0.023556931 0.0035759893 -0.052576687 -0.024392381
000030 89 a4 7a bc 2b 92 c0 bc 45 cc 28 bd 87 72 9c bc
       -0.015298017 -0.023507198 -0.04121043 -0.01909758
000040 5f fc 2b bd e6 ce 6d bd e5 d2 03 3d 7e 1b 08 bc
       -0.041988727 -0.05805864 0.032183547 -0.008307336
000050 b0 7c ca ba c7 f9 f2 3b 1c 82 f3 3c a9 2b a5 3c
       -0.0015448537 0.0074150297 0.029725127 0.02016242
000060 99 dc 64 bc 0b de f2 bc 3c 0e 4d bc ae f6 cf bc
       -0.01396861 -0.029646894 -0.012515601 -0.02538618
000070 3d cf b5 3b bc 92 40 3c 88 e3 08 3c 94 5b 29 3c
       0.0055483864 0.011753734 0.008355029 0.010336775
000080 62 41 04 3c 51 3b c1 3b 1f 15 1a bc 69 9e 09 bd
       0.008072229 0.0058969636 -0.00940445 -0.033598337
000090 54 a2 74 3c a8 b6 2c 3c 4b c7 10 bd ca af ea bc
       0.01493128 0.0105415955 -0.03534631 -0.028648276
0000a0 f7 81 02 bd 79 ad 8f bc 20 c1 6c 3b d4 05 1a 3c
       -0.031862225 -0.017538773 0.0036125854 0.009400804
0000b0 d8 54 b8 bc 14 dd bc ba de cc 62 3c d8 75 4e bc
       -0.022501394 -0.0014409148 0.013842789 -0.012601338
0000c0 c3 72 6a bc f6 cc 09 3d a1 05 d0 bb b8 6d 10 bc
       -0.014309588 0.03364273 -0.0063483273 -0.0088152215
0000d0 f3 e9 07 bd 37 c3 f5 bc b8 28 e1 bc b3 1b ac bc
       -0.033182096 -0.030000312 -0.027485237 -0.021009302
0000e0 63 27 8b bc 0b 55 8c bc 9f 1e be bc e6 1e 80 3c
       -0.016986554 -0.017130395 -0.02320796 0.015639734
0000f0 38 b2 c0 3c 8f b1 61 bc c1 6a 4b bc 88 ae ef bc
       0.023522481 -0.013775243 -0.012415589 -0.029258028
000100 17 4f c8 bb d6 63 fb 3b 1b f5 0c bd 76 58 5e bd
       -0.006112944 0.0076718135 -0.03441344 -0.05428358
000110 3b 06 f1 bc 78 65 e8 bc 63 a7 12 bb 36 90 11 3d
       -0.029421916 -0.028368697 -0.0022377602 0.03553792
000120 ba 77 11 bd ff 0c b9 bc dd 4b 7f 3c 9b d8 03 bd
       -0.03551457 -0.022589205 0.015582052 -0.032188993
000130 ba ab 18 bd 80 b0 6a 3c d8 94 f6 bc 6f 1d 5b bc
       -0.037273146 0.014324307 -0.030100271 -0.013373717
000140 c1 76 9d 3c 68 bb 1c 3c 25 4c fb 3c b8 07 ee bb
       0.019221665 0.0095661655 0.030675957 -0.0072641037
000150 9a 54 f6 ba 3f e9 40 bd 16 a7 29 bd b3 38 e7 ba
       -0.0018793524 -0.04709744 -0.04141911 -0.0017640799
000160 0b a5 03 3d 71 74 91 ba 11 d7 c1 b7 20 d3 34 3c
       0.03213982 -0.0011097324 -2.3107541e-05 0.011036664
000170 ca dc bc 3c 14 9f c0 b9 33 e1 17 bc ab 1d 35 bd
       0.0230545 -0.00036739616 -0.00927 -0.044217747
000180 f5 43 8d bc fe 3e aa bb 38 c1 3e bd d4 34 ba 3b
       -0.017244319 -0.0051954975 -0.046570987 0.005682567
000190 6c 30 3e 3b 36 97 74 bc 50 e4 5a 3b ad 49 29 bd
       0.002902056 -0.01492863 0.0033400245 -0.04133003
0001a0 75 8d c0 3c aa 12 55 bd 82 46 58 b9 02 e7 0d bd
       0.023504952 -0.052019753 -0.00020625631 -0.034644134
0001b0 79 93 67 bd b7 51 0a bc 92 d5 4b bd 4e ec da 3b
       -0.056537125 -0.008442334 -0.049764223 0.0066810017
0001c0 04 a0 17 bd d8 19 b6 3b df 45 40 bd b0 75 7c 3c
       -0.037017837 0.00555728 -0.046941634 0.015408918
0001d0 87 bd c6 3c 77 b6 b1 bc 0b e3 13 bc 32 88 96 bc
       0.024260296 -0.021693451 -0.009026299 -0.01837549
0001e0 fe da ad ba b9 80 c1 bc 1e 79 08 bd 25 25 55 3c
       -0.0013264117 -0.02362095 -0.03331863 0.013009344
0001f0 a7 99 f1 bc b5 d0 ca bc 13 e3 c5 3b c2 fc de bc
       -0.029492212 -0.024757722 0.0060390322 -0.027220134
000200 17 80 46 3c 71 ee f9 3a f1 91 d8 bb b1 70 ba bc
       0.0121155 0.0019068253 -0.0066091944 -0.022758814
000210 e6 57 0c 3d 99 78 34 3c ea c6 e4 bc d3 a7 a7 bb
       0.034263514 0.011015081 -0.02792688 -0.0051164418
000220 bb 26 2b bd c5 08 0a bd 6d c9 c2 39 20 b5 8f bb
       -0.041784983 -0.03369977 0.00037152637 -0.0043856055
000230 64 eb 25 bd 18 4f d3 ba ec 6a 78 bd 9b 38 2a bd
       -0.04050769 -0.0016121594 -0.060648844 -0.04155789
000240 0b 55 01 bd 45 b5 27 bd ac 93 1d 3c f0 b2 07 3b
       -0.031575244 -0.040944356 0.009617727 0.002070602
000250 19 bd 20 3c 90 b3 7c bb 59 34 09 bd 30 a0 76 3c
       0.009810709 -0.0038559176 -0.03349719 0.01505284
000260 3f 13 3a bc 1d ac d2 3b d2 c5 e1 3b c7 c3 9a bc
       -0.011357128 0.006429209 0.006890037 -0.018892182
000270 65 71 0f bd 56 f9 45 bc 20 2a c3 bb e1 2f f6 bc
       -0.03502025 -0.012083372 -0.0059559494 -0.030052127
000280 f0 06 c7 3c 80 f0 f6 ba 58 10 95 ba e9 63 1a bd
       0.0242953 -0.0018839985 -0.0011372669 -0.037692938
000290 e0 95 85 3b ba 23 59 bc c2 0f d8 bc 70 b5 49 bc
       0.0040767044 -0.013253147 -0.026374701 -0.0123113245
0002a0 80 a4 92 b9 b9 c7 ab bc 88 d0 8e bc 2d 78 78 3b
       -0.00027969852 -0.020969259 -0.01743342 0.0037913427
0002b0 f0 d1 2b 3c 7b 6a be bb be 0a 0b ba 23 27 47 3b
       0.010487065 -0.0058110333 -0.000530403 0.0030388318
0002c0 d0 5d 85 3c 73 e1 93 3c 5e ca 89 3c 0c 30 1e 3c
       0.016280085 0.018051839 0.016820129 0.00965501
0002d0 8a b2 43 3c 8c 0e a3 bc cb 36 61 bc 13 f1 27 bb
       0.0119444225 -0.019904397 -0.013745974 -0.002562587
0002e0 ab 51 c6 3c fe 2e 2a bd ef 6c db bb dd 28 f5 bc
       0.024208864 -0.04154872 -0.0066963355 -0.029926712
0002f0 1a 69 17 bd b1 75 27 bc 27 a1 28 bd 52 b3 1b bd
       -0.036965467 -0.010220931 -0.04116931 -0.03801281
000300 45 15 7e bd 4f 51 09 bd 74 43 41 bb eb 13 c7 ba
       -0.062032003 -0.033524808 -0.0029489668 -0.0015188431
000310 59 0d ec bc 08 04 54 bd cf 21 a1 3c 72 60 27 3a
       -0.028814958 -0.051761657 0.019669442 0.0006384916
000320 60 45 e9 bc ae 7a 4c 3c c2 d2 94 bc 88 69 e1 bb
       -0.028475463 0.012480421 -0.018166903 -0.0068790354
000330 26 fc 9f bc 7e 4d 7f bb bf 7a 57 bd 0b 8d b3 3b
       -0.019529413 -0.00389561 -0.052607294 0.00547946
000340 1f aa 40 bd 90 1f 59 bd 48 57 77 bc 95 e8 0e bd
       -0.04703724 -0.053008616 -0.015096493 -0.034889776
000350 73 c8 02 bc 2c 64 0d bd 79 43 72 bc 55 11 5f bd
       -0.007982361 -0.03451936 -0.014786595 -0.05445989
000360 71 e8 f2 bc f6 94 f4 bc e5 0a 24 bb 6c c7 07 bd
       -0.029651852 -0.029856186 -0.0025030908 -0.033149168
000370 c1 bc c2 3c 37 3f 00 3c 60 9f 03 3c 7f 17 f7 bc
       0.023771646 0.007827572 0.008033603 -0.030162571
000380 f7 91 39 bb 67 63 c6 bb 26 c9 1c bd 67 67 0a bd
       -0.0028315762 -0.00605433 -0.038277768 -0.03379002
000390 ab b3 62 bd 12 98 b2 bc 7d 8f 95 3c a9 6e 6c bd
       -0.055347126 -0.021801028 0.018256897 -0.05772272
0003a0 b3 7c 19 ba 79 2b 1c bd 8d bc 0b bc 88 3c be 3b
       -0.00058550684 -0.038127396 -0.008528841 0.0058055557
0003b0 1f 41 ae bc 09 79 30 3c 89 e8 a2 bc 37 82 bc 38
       -0.021271287 0.0107710445 -0.019886272 8.988793e-05
0003c0 a5 a5 60 bb ba ba 97 3b 98 d8 34 bd 43 b2 96 bc
       -0.003427842 0.004630414 -0.044151872 -0.018395549
0003d0 f1 9c cf bb ae f6 48 3c df ad 8b bb 6a eb 16 bd
       -0.0063358475 0.012265844 -0.0042626704 -0.036845602
0003e0 32 28 e5 3b 62 67 04 bd 9c f0 78 bc 12 4f 0c bd
       0.006993317 -0.032325156 -0.0151940845 -0.034255095
0003f0 a1 58 b9 bc 10 99 67 3b e0 02 7b 3b 79 90 7a bd
       -0.02262527 0.0035339035 0.0038301274 -0.061172936

fc1.bias f4 [128]
000000 3b 29 2f bd 8c 03 e6 3e 77 a5 0c 3f 44 72 60 bd
       -0.04276393 0.4492458 0.5493998 -0.054796472
000010 57 7c 98 bd f7 7c b4 bd 9c bf 45 3f 38 4c c1 3e
       -0.07445591 -0.08812898 0.772455 0.37753463
000020 de e1 4b bd 6d a7 eb bd 9c 26 c7 3f e0 e5 0d 3f
       -0.04977595 -0.11506543 1.5558658 0.55428886
000030 bd 4d f5 bd af 1b 9c 3e 27 ae df bc 45 19 f4 3e
       -0.11977718 0.3048987 -0.027304722 0.4767553
000040 66 f7 0e 3f 72 66 99 3e e6 2e 99 3f 53 b2 f9 3b
       0.5584625 0.29960972 1.1967437 0.007620135
000050 d8 20 80 be 16 5d d9 bd c4 8f 96 be 56 e4 da bd
       -0.25025058 -0.10613458 -0.2940656 -0.10688083
000060 31 2a 6d be b0 6a a9 3f 26 c4 df 3e 6c 71 86 bd
       -0.23160626 1.3235683 0.43704337 -0.06564602
000070 ca 72 c7 3d 17 3b 24 bd b2 08 7a 3e 9f 19 f2 3e
       0.09738691 -0.040095415 0.2441738 0.47285172
000080 4d 4b ba bd 52 8c d4 bc d3 a4 85 3d 99 c0 bd 3e
       -0.09096394 -0.025945816 0.06525578 0.37061003
000090 5c c4 95 3e 7d 89 50 bd 31 18 00 3f 7c 5b 00 3e
       0.29251373 -0.05091237 0.50036913 0.12534899
0000a0 bd bf 6d bd 89 81 b1 3e 10 1b b9 bc 45 ba 05 3e
       -0.058044184 0.3466914 -0.022595912 0.13059337
0000b0 b2 c0 ca 3b c1 99 2a bd 23 3b 8d 3e 10 3b 0e 3f
       0.006187522 -0.041650537 0.2758418 0.5555887
0000c0 03 96 4f bd 61 12 bc 3e e9 20 56 bd 74 1e 92 3f
       -0.05068017 0.36732772 -0.05227748 1.1415544
0000d0 e6 12 74 3f 9f 74 bc 3d e1 bd e9 3e c9 99 1e bd
       0.95341337 0.09201931 0.4565268 -0.03872088
0000e0 9e e0 3a bd a1 25 30 bc 8e 6f 06 3e 9f 94 32 bd
       -0.045624368 -0.010751159 0.13128492 -0.043598767
0000f0 a4 e2 37 3e 2e b0 9a 3f ab 16 c5 bc 3e f2 06 be
       0.1795755 1.2085016 -0.02405866 -0.13178346
000100 53 e3 4d 3c 7d b6 e1 bc 91 5f 41 bc 95 e7 03 3f
       0.012566405 -0.027552838 -0.01180257 0.5152524
000110 bd 89 12 3f 97 11 e7 3d 5f fb 1c 3f 50 e1 10 3f
       0.5724142 0.11282652 0.6132106 0.565938
000120 9c 1e 5c bd 47 1f 29 3f d7 fe 27 3e 67 f3 09 bd
       -0.05374013 0.6606335 0.16405807 -0.033679392
000130 bf 05 8e 3e 0e a0 e7 3e 58 1c 74 bb 7c d1 5c bd
       0.2773876 0.452393 -0.003724834 -0.053910717
000140 a0 10 f4 3e 55 44 28 3f 6d 54 a3 bd 78 0a d6 3e
       0.47668934 0.65729266 -0.07975087 0.41804862
000150 c0 26 7c bc b4 40 d6 3b d4 48 ef 3d af be a2 be
       -0.015390098 0.006538475 0.11683813 -0.31786105
000160 80 da 49 bd a8 d2 18 be 33 77 cd 3d 28 c4 77 bd
       -0.049280643 -0.14924109 0.10032501 -0.060489804
000170 fc ee d8 3e df a8 45 3d c4 bc e1 3e 41 13 53 3e
       0.4236983 0.04825675 0.4408933 0.20612814
000180 42 fd a5 3e f9 85 96 be 69 af bf 3d 4c 05 d1 3f
       0.32419783 -0.29399088 0.09359629 1.6329741
000190 e4 ed 38 be e7 71 4e be 99 84 e6 bb d2 cb e2 3e
       -0.18059498 -0.20160638 -0.00703485 0.44296128
0001a0 ef 80 c5 39 a0 6e 0c 3f 6f 78 0a be ca fc b4 3f
       0.0003767083 0.548563 -0.13522504 1.4139645
0001b0 ac ac c5 bd ed a9 1c be 2f 3c 07 3f 73 f7 7e 3e
       -0.09652075 -0.15299197 0.5282621 0.24899082
0001c0 95 05 09 be 0e 29 ab 3c 43 50 50 be 13 6b 12 bd
       -0.13381036 0.0208936 -0.20343117 -0.035746645
0001d0 32 6b c2 bd 68 68 84 bd 32 64 4c 3f e3 46 82 3f
       -0.09493102 -0.064652264 0.79840386 1.0177883
0001e0 6d 60 08 3e d6 d5 60 bc 8d 5e ae bd c3 33 ee 3e
       0.13318034 -0.013722857 -0.08514128 0.46523866
0001f0 2f 2f f8 3e 2a 4f 56 bc 24 f8 37 bd 04 bc 01 3f
       0.48473498 -0.013080398 -0.04491438 0.50677514

fc2.weight f4 [7, 128]
000000 cf f9 b2 3d cb 72 e4 bd 5c f9 c1 bd ac e8 e3 bc
       0.087390535 -0.111547075 -0.0947139 -0.027820908
000010 00 8b c3 be d6 a2 a7 3e c9 89 03 bd e5 f6 35 bd
       -0.38191986 0.3274142 -0.032113824 -0.04442491
000020 94 ca 64 3e 6a 32 37 3e 28 d6 1d 3b 9e a5 fd bc
       0.22342902 0.17890325 0.0024083946 -0.030962761
000030 c2 0c 5c be 2f 3d 4f 3e 3d a2 75 bd c5 9e 8b be
       -0.21489242 0.20238183 -0.059969176 -0.2726957
000040 9c 7d ae bd 3b 41 5a be 40 b7 eb bd 15 99 13 3e
       -0.08520052 -0.21313946 -0.115095615 0.14413865
000050 45 60 22 3e 26 8a 1d bd 99 9e 1a 3e 85 19 60 3e
       0.15857036 -0.038461827 0.15099563 0.21884735
000060 c1 28 19 3e 44 0a a9 3a 84 d5 a8 bd 5f 11 54 3d
       0.14956953 0.0012896736 -0.0824385 0.05177438
000070 dc 69 19 3e 1b fb 66 bd 2c 3f 91 bb bd 4d 1f be
       0.14981788 -0.056391817 -0.0044325795 -0.15556999
000080 58 c5 b5 bd ac 4d 2a bd 77 0f 8b 3c 0a 8e 14 be
       -0.08875531 -0.04157798 0.016975148 -0.14507309
000090 b1 4f 21 be d6 c6 42 3e 00 69 1c be 23 4a 4e 3e
       -0.15753056 0.19021162 -0.1527443 0.20145468
0000a0 95 4b 5e 3d 02 1f 79 3d 99 f3 82 3d ac 39 f8 3c
       0.0542713 0.060820587 0.06394119 0.030300938
0000b0 90 4a 0c bf 45 db 14 bd c4 53 f6 bd ca 56 3d 3c
       -0.54801273 -0.036341924 -0.12027696 0.011556337
0000c0 fa e6 62 be 08 15 2c be e9 1e 1a bd 1d 0d 1b be
       -0.22158423 -0.16804898 -0.037627134 -0.15141721
0000d0 ea 4d 0b be d2 da 47 3e 23 5e 0d 3e 9a fd 53 b9
       -0.1360394 0.19517067 0.13805442 -0.00020217002
0000e0 f1 55 c3 be fd e2 04 3d ad 0a 47 3e b3 ee 7a 3d
       -0.38151506 0.032443035 0.19437666 0.061262798
0000f0 f9 a1 ab 3e 03 a1 0d be b5 2f 33 3e 86 ad d6 be
       0.33522013 -0.13830952 0.17498668 -0.41929263
000100 3a 5e 40 3e 2a f7 a0 bd a7 53 43 3e 35 9e 88 3d
       0.18785945 -0.07859643 0.1907488 0.066708006
000110 18 da ea bd ce d6 70 3d 5e 24 00 bc 93 08 45 bd
       -0.11467379 0.058798604 -0.007821171 -0.04810388
000120 53 23 86 3d 11 a5 aa bd b6 fe 12 3d 9f c4 6f be
       0.06549706 -0.08332265 0.035887443 -0.23414849
000130 42 1b 1a be 4d 02 a6 bd 78 53 c0 3d 19 49 10 3e
       -0.1504946 -0.081059076 0.093909204 0.14090385
000140 ec 07 ac bd 25 84 89 3d 19 72 af 3d b0 c2 5b be
       -0.083999485 0.06714658 0.08566684 -0.21460986
000150 c1 c5 62 bd da 9e 44 bd 25 26 0a be bd e7 e7 3d
       -0.055364374 -0.048003055 -0.13491113 0.113234974
000160 d1 53 3c 3e d2 f3 79 3d b7 eb 08 3d 1e f0 2e bb
       0.18391348 0.06102354 0.03342792 -0.0026693414
000170 04 4b 86 bd 9d 07 a8 be 00 d4 91 bd 06 8a 51 3d
       -0.06557277 -0.32818308 -0.07120514 0.05115702
000180 4d 2d 47 be e9 db 50 3e 9c 9b 17 3e d0 42 fe ba
       -0.19450875 0.20396389 0.14805454 -0.0019398574
000190 c0 a3 02 3e 51 67 91 3e 23 f3 8d 3e ec 1f 4d bd
       0.12757778 0.28399137 0.2772456 -0.05007927
0001a0 14 fb c7 3c dc 18 e2 3c 2a 01 80 3e 52 ef 8b b9
       0.024411716 0.027599744 0.25000888 -0.00026690454
0001b0 2f 94 b6 bd ad d1 6a 3e 53 3d 97 bd a5 fa 19 be
       -0.089149825 0.22931547 -0.073847435 -0.1503702
0001c0 8e 68 08 3d fa 31 c7 3d 0b 9b f4 3d 55 f5 a8 3d
       0.033302836 0.09726329 0.119436346 0.08249918
0001d0 33 d1 6e 3d c8 79 55 3d 03 12 5e be 74 3b 68 bd
       0.058304977 0.052118093 -0.21686558 -0.056697324
0001e0 37 56 c0 3d 57 a2 5f 3d 10 23 90 3e 60 59 03 3e
       0.09391444 0.05459818 0.2815175 0.12827063
0001f0 97 61 63 bd 68 33 99 3d 62 cc 72 3d f8 81 f7 bd
       -0.05551299 0.07480508 0.059276946 -0.120853364
000200 f7 11 05 3d 70 f4 56 be 4d 56 10 be 2b 68 f4 bc
       0.032487836 -0.20991683 -0.14095421 -0.029834827
000210 ec 45 e9 3d 00 a8 89 3e 56 14 70 3c 66 fa 08 be
       0.1139029 0.26885986 0.014653286 -0.1337677
000220 6b e0 f7 3d 9c 28 58 3e 5f 45 06 3b 0b 46 24 3c
       0.12103351 0.21109241 0.0020488126 0.010026465
000230 d2 a9 3d 3e ad b4 2f 3e cc 79 9b bc 48 a8 d7 bd
       0.18521813 0.17158766 -0.018978976 -0.10530144
000240 c7 f4 2f 3d d4 0a 10 3e b4 71 25 3c c4 e0 51 3e
       0.042958047 0.1406663 0.01009791 0.20495898
000250 a6 5c 71 3e 36 7e 16 3e 1a 23 07 3e 43 57 88 3e
       0.23570499 0.14696583 0.13196984 0.26629075
000260 f9 d1 61 3e 26 a2 39 3a 93 c6 c0 3c f0 e3 2d 3c
       0.22052754 0.0007081352 0.023532188 0.010613427
000270 90 18 1d 3e 8b d9 08 be ab 59 97 39 1a 29 87 3c
       0.15341401 -0.13364236 0.00028867772 0.016499091
000280 4f d1 31 bd ed b9 35 3d 95 1b 03 3e a4 9a 94 be
       -0.043412503 0.044366766 0.1280349 -0.2902423
000290 45 ca 52 3c 48 aa b1 be 02 61 48 be 60 af 12 3e
       0.012865608 -0.34700227 -0.19568256 0.14324713
0002a0 3a 27 c5 3c 21 c9 46 3d fe 3d a7 39 67 74 56 be
       0.024066556 0.048531655 0.0003189891 -0.20942841
0002b0 9a df 12 be 1f 3d 75 bd 5d c9 0d be 64 b6 8f 3a
       -0.1434311 -0.059872743 -0.13846345 0.0010964391
0002c0 5e 08 3f 3e 68 b3 ab 3c 92 1d 92 bc ca a7 a2 3b
       0.18655536 0.020959571 -0.017836366 0.0049638497
0002d0 db 63 07 3c f4 31 3d 3e af 2c 8b be 40 36 72 bd
       0.0082635535 0.18476087 -0.27182528 -0.059133768
0002e0 db ee 33 3e c2 e1 23 bd 74 8a 31 3e ea 22 78 3d
       0.17571585 -0.04001022 0.17337972 0.06058017
0002f0 7d 59 85 3e 10 65 1b 3b 26 f6 8d 3e 4f 01 53 3e
       0.26044837 0.002371136 0.2772686 0.20605968
000300 a5 50 af be 0d 64 2c bd 2d c4 ff 3d ed 32 40 be
       -0.34241214 -0.042087603 0.124885894 -0.18769427
000310 a6 d0 3a be 20 2e 9b 3d b7 26 7f be 18 2c 17 bd
       -0.18243656 0.07577157 -0.24917112 -0.036907285
000320 ba 6d ab bd e5 5e 76 be d5 4e a6 be cd 23 5f be
       -0.08370538 -0.24059637 -0.3248202 -0.21791
000330 24 b2 44 bd 39 0f e7 bd e3 87 3d 3d 61 23 07 3e
       -0.04802145 -0.112822 0.04627217 0.1319709
000340 4e 74 17 be ce 2b 1a bd 8d 14 cb 3b bc 14 40 be
       -0.1479046 -0.03763943 0.006197518 -0.1875791
000350 98 4c 3b bd af fd ab 3c c9 6e 2c 3d 10 d8 35 3e
       -0.045727342 0.02099499 0.04209784 0.17758203
000360 88 43 66 3e 13 f7 bc 3e 97 90 28 3d 34 a2 f6 bc
       0.22486699 0.36907253 0.041153517 -0.030106641
000370 6b 4d 04 bd be d0 01 3e d5 21 1d 3e 83 86 2d 3d
       -0.032300394 0.12677285 0.15344937 0.04236461
000380 4b b8 5d be bf a5 22 3e 00 04 66 3d 12 b3 22 3b
       -0.21652333 0.1588354 0.05615616 0.0024825973
000390 09 99 99 3d 71 8e 99 3e d9 69 ad 3e 4c 9e ca bd
       0.07499892 0.29991487 0.33869818 -0.09893474
0003a0 1d 6c 70 bc ef 5b 80 3c 3a 09 b4 3d 73 dc e7 ba
       -0.014674214 0.015668837 0.08790822 -0.00176896
0003b0 f7 2b 7e be 47 d9 a0 3e f9 65 51 bd be d5 36 bd
       -0.24821459 0.3141577 -0.05112264 -0.044637434
0003c0 6e 30 f6 3d fa 3c a6 3d 7d e9 ed 3d fd 7f 81 3e
       0.12020956 0.08117099 0.116168 0.2529296
0003d0 e4 b8 5a 3e 9d c0 08 3d dc 08 07 3c f1 8a 98 bc
       0.21359593 0.033386815 0.008241858 -0.01862094
0003e0 d5 b6 d4 3d 65 04 5c 3d b9 4f 79 bd 81 1d a3 3d
       0.10386435 0.05371513 -0.060867045 0.07964612
0003f0 2d 2c bf bd 20 1f 3d 3d c0 85 31 3d f5 3e a9 bd
       -0.09334598 0.04617226 0.043340445 -0.08263961

fc2.bias f4 [7]
000000 6a 90 9e be 4f c6 b3 be df 26 af be 59 a5 8c be
       -0.30969554 -0.35112235 -0.34209344 -0.274699
000010 15 83 a8 be dc 54 c6 be 6e ea ad be
       -0.32912508 -0.38736618 -0.33967918
