trained_models/double_dql_blockcheck_1f.pt (torch, 536716 bytes, 8 tensors)

conv1.weight f4 [64, 1, 4, 4]
000000 5a bc d7 3e e2 c2 92 bd 3b 92 fa be 45 9b f7 bd
       0.42135888 -0.07166077 -0.4893969 -0.12090162
000010 49 84 73 3d da 12 24 3e cc 37 bf 3c bf 27 78 be
       0.05945233 0.16022816 0.023342036 -0.24233912
000020 4c 1d eb 3d 0e 05 75 3d 9c 82 86 3e 48 95 af 3e
       0.11480197 0.059819274 0.26271522 0.3429358
000030 cd 20 0d bf 40 b4 88 be 93 f6 84 3c 39 ee d4 be
       -0.55128175 -0.2670002 0.016230857 -0.41588
000040 fc 06 30 3e d8 90 60 bc c7 24 66 bf 93 62 8e 3e
       0.17190164 -0.013706408 -0.8989987 0.2780958
000050 ec 26 9a 3e 91 2f e4 3b 3a 50 38 3d 71 7f b1 3d
       0.3010782 0.006963678 0.044998385 0.08666886
000060 3d 39 c5 be e9 d1 0b be cc da 96 3d 4c 17 1c 3e
       -0.38520232 -0.13654293 0.07365951 0.15243262
000070 fe 03 24 be d6 97 79 be 55 d5 84 be 09 d5 45 bf
       -0.16017148 -0.24374327 -0.2594401 -0.7727819
000080 04 9e 53 3e 37 6a 91 3d e7 62 03 3e 2a 54 0e bd
       0.20665747 0.07100337 0.12830697 -0.034748234
000090 ce 4d aa 3e ba aa 76 3e 78 35 92 bd fe c9 24 3f
       0.33262485 0.24088565 -0.071391046 0.64370716
0000a0 8a fe 08 bf 03 c2 77 3e e1 d2 67 bd 24 9a bb be
       -0.53513396 0.24195103 -0.056597594 -0.36641037
0000b0 e2 64 c5 3c 1e 75 e7 be a5 f7 fe bc a9 5e 86 be
       0.024095956 -0.4520654 -0.031123945 -0.26244095
0000c0 a8 3a ce 3e 69 76 32 be 59 bc 40 bd 91 23 63 3e
       0.40279126 -0.17427982 -0.047054622 0.22181536
0000d0 f8 03 4b 3e 55 04 ff 3e cc aa 98 bb ac 5e 03 be
       0.19825733 0.49807993 -0.0046590324 -0.12829083
0000e0 62 1a e7 be 4d 38 1e bf 88 c8 c4 bd f9 6f dd bd
       -0.45137316 -0.6180466 -0.09608561 -0.10812373
0000f0 6b 06 a3 3e 53 ba 9a bd 3a df 54 3e 5f 76 80 3e
       0.31840834 -0.0755507 0.20788279 0.2509031
000100 c1 17 ff 3d 48 5e 84 3d 05 14 50 3e 5c 12 1f 3e
       0.124557026 0.06463295 0.20320137 0.15534347
000110 bf 2b f3 3d 09 56 c0 3e 3e 93 c6 3e 8a 6f c3 be
       0.11873578 0.3756564 0.38784212 -0.38171035
000120 ab 24 ca 3e 90 06 94 3c 36 96 8b be 93 e1 6f 3e
       0.394811 0.018069535 -0.2726304 0.23425893
000130 6b d3 ce 3e e3 6a e8 be 2f 4c 7c be f9 fd 84 be
       0.40395674 -0.45394048 -0.24638437 -0.25975016
000140 4a b5 c5 bd 7c 58 61 be 72 32 53 be 68 2b 07 bf
       -0.09653719 -0.2200641 -0.20624712 -0.5280061
000150 bf 3c 85 bd 2a da 0b 3e 3b eb 90 ba dd 2d 8d 3e
       -0.06505727 0.13657442 -0.0011056432 0.27574053
000160 17 2d fa bb 70 85 ca 3e 01 03 ee bd bd 4e 4f be
       -0.0076347697 0.3955493 -0.11621667 -0.2024488
000170 0e a7 24 3e b7 ee 06 bf e3 88 7e 3e 5f 94 00 3f
       0.16079351 -0.52708 0.24856906 0.50226396
000180 2c 30 bc 3e db f2 02 3f f3 b2 e3 3e 81 22 1a 3f
       0.36755502 0.5115182 0.44472465 0.602089
000190 a2 81 0b 3f d2 8a 69 3e 55 b6 51 3e 3b b1 e7 3e
       0.5449468 0.22806862 0.2047971 0.45252404
0001a0 e1 d9 41 3e 69 0f 83 3e 5e a1 c6 3d 0c 0c 1f 3f
       0.1893077 0.25597695 0.09698747 0.6212776
0001b0 b2 c5 68 3e a4 2d 44 3e 3b d9 ba 3e f7 5f c0 3d
       0.22731665 0.19158036 0.3649386 0.09393304
0001c0 0f 71 e2 bf 66 dc 1d 3e 0d dc ae be b7 dc f2 3b
       -1.7690753 0.15416107 -0.3415226 0.007411565
0001d0 4b e8 a0 bb 27 03 98 3d 2d c0 89 3e dc 67 ed 3d
       -0.004910504 0.07422476 0.2690443 0.11592075
0001e0 2e f0 c0 3d 02 c1 aa 3e 4a 0a e2 bd 6c 4a 0f 3e
       0.09420811 0.33350378 -0.11037119 0.13993233
0001f0 42 b5 f6 bd f2 20 fc bd aa c5 aa 3d fa fa fb bd
       -0.12046291 -0.12310971 0.08338483 -0.12303729
000200 fd 51 13 bd 3e 90 72 3e ae aa 91 3d e2 72 f9 3e
       -0.035966862 0.23687837 0.07112633 0.4872046
000210 2c ed c0 3d ef f2 dd be 80 1d d5 bd 78 54 00 3f
       0.09420237 -0.43349406 -0.10406017 0.5012889
000220 4a 32 9a 3e 08 c0 07 be 3b d2 98 3e e4 a8 c8 be
       0.30116493 -0.13256848 0.29847893 -0.39191353
000230 f0 78 da be d1 24 8a bd 3a 9d aa be 4b 68 84 be
       -0.42670393 -0.067453034 -0.3332308 -0.2586082
000240 82 a7 47 bf 9d 9a 42 3e 1b 81 c6 bd 6c 79 9e 3e
       -0.7798997 0.19004293 -0.09692594 0.30952013
000250 34 e8 3b bf f1 d5 50 3d 05 da f3 3c 11 f9 81 bd
       -0.7340119 0.05098528 0.029767046 -0.06346334
000260 40 59 ac bf a5 0f 8f be 80 e6 46 3e c9 49 a8 bd
       -1.3464737 -0.27941623 0.19423866 -0.082171984
000270 fb b3 6d be d7 2c 58 bd ef 71 2b be 63 96 c3 be
       -0.23213188 -0.052777138 -0.16742681 -0.38200673
000280 be a7 56 3e 0e 02 dc bd 86 79 94 3c ac 42 b9 bc
       0.20962426 -0.107425794 0.018124353 -0.0226148
000290 96 73 ed bc c5 83 b6 bd 87 77 62 3e 07 e3 7d be
       -0.02898578 -0.08911852 0.22115909 -0.24793635
0002a0 ef e6 4c 3d 8c d5 e3 3d 6c 31 a4 be a7 6a 60 bf
       0.050024923 0.11124715 -0.32068956 -0.8766274
0002b0 d2 f5 52 3e 2c 32 58 3d 8e c7 c9 be b7 1a 43 bf
       0.20601586 0.052782223 -0.3941006 -0.7621264
0002c0 c2 88 40 3e 9c 08 bf bd 73 a6 56 be 40 27 8a 3e
       0.18802169 -0.09327814 -0.20961933 0.2698307
0002d0 9e 48 93 3e 3a 27 8c 3b 32 76 a3 3d c7 cb 60 bd
       0.2876634 0.004277137 0.07981528 -0.054881837
0002e0 2e aa b6 bd 86 17 23 3f 84 62 11 3e 42 a7 bb 3d
       -0.08919178 0.6370777 0.14197737 0.09162761
0002f0 13 6a 07 bf 0e 9d d9 bc 5b 98 a0 bd c8 5b 26 be
       -0.5289623 -0.026564147 -0.078415595 -0.1624595
000300 35 97 17 bf a5 3b 0b bf 4e e1 9e 3d e4 16 bc 3e
       -0.592151 -0.54387885 0.07757817 0.36736214
000310 e8 80 f9 3d 91 13 8f 3e e0 50 a7 be 68 93 12 bf
       0.1218279 0.27944615 -0.3267889 -0.57256174
000320 b7 ba f6 3e 6c 8e 4c 3e 72 77 41 be 83 0f 57 3e
       0.48189327 0.19976205 -0.18893221 0.21002011
000330 e2 cb 21 bf 46 ef 76 bd 6a cf bd be 74 75 15 bf
       -0.63201725 -0.060286783 -0.37072307 -0.58382344
000340 84 60 10 3f 13 cd d0 be 28 4c 35 be 99 32 00 3e
       0.5639727 -0.4078146 -0.17704833 0.12519301
000350 a3 53 68 be f2 b8 4e 3e 0c 28 1b 3e 0f 07 ed bc
       -0.22688155 0.20187739 0.15151995 -0.02893403
000360 e8 38 83 be 71 70 f8 bb ce c5 26 be f6 51 c2 be
       -0.25629354 -0.0075817634 -0.16286394 -0.37953156
000370 08 d6 b5 bd 5b 6b dc 3d 49 4f 3c be ad 8f f2 3d
       -0.08878714 0.10762664 -0.1838962 0.1184381
000380 07 d1 9b be bf c3 fb 3d d0 77 ce bc fb 4f 1e 3d
       -0.30432913 0.12293195 -0.025203615 0.038650494
000390 c2 02 01 3e cc f7 4d 3e 5c e2 3e 3e b8 0c d3 3e
       0.12598708 0.20114058 0.18641037 0.4122064
0003a0 e2 a4 a4 be bf 94 68 be f5 1a 95 be 21 53 6d 3d
       -0.32157046 -0.22712992 -0.2912213 0.057940606
0003b0 03 ae 9e 3d 21 4a d1 bd 91 00 d2 bd 2e 6f 2e bf
       0.07748034 -0.10219217 -0.10254014 -0.68138397
0003c0 31 09 bf 3e c8 eb 3c 3e 39 d8 30 bf 9a 78 7f 3e
       0.373117 0.18449318 -0.6907993 0.2494835
0003d0 10 bc 9e be 09 0d 89 3e 70 48 ba 3e 30 fe 43 3e
       -0.31002855 0.26767758 0.3638339 0.19139934
0003e0 2e be 43 be 0f 5a c5 be f7 91 8d 3e ae a3 be 3e
       -0.19115517 -0.38545272 0.27650425 0.37234253
0003f0 1a 9d bc be 6a ea 91 3d cd 83 94 be b3 b9 30 bf
       -0.3683861 0.07124789 -0.29006806 -0.69033355

conv1.bias f4 [64]
000000 da 8d 1c bf 0d 53 3e bf 2c 54 50 bf a8 36 19 3f
       -0.6115395 -0.74345475 -0.81378436 0.59849024
000010 04 18 45 be e5 64 4b bf cf 67 12 3f ab 44 24 3e
       -0.19247442 -0.7945083 0.5718965 0.1604182
000020 40 b1 12 bf f3 b3 01 bf 63 12 34 bf b5 4a 41 bf
       -0.5730171 -0.50665206 -0.70340556 -0.7550462
000030 a7 eb ef 3d c2 b2 84 bf 18 15 67 bf 86 cf 26 bf
       0.11714869 -1.0367053 -0.9026656 -0.65160406
000040 18 63 21 bf 54 d8 3d 3f 24 f0 47 bf c3 71 a1 be
       -0.6304183 0.74158216 -0.781008 -0.31532106
000050 5b 05 bf be e1 53 6d bf 71 37 77 bf 5c c9 5b bf
       -0.37308773 -0.92706114 -0.9656897 -0.85854125
000060 a5 e2 71 bf f4 40 74 bf 1d 24 36 bf 87 25 0c bf
       -0.9448646 -0.9541161 -0.71148854 -0.5474476
000070 cb ac 20 bf 49 8d 57 3c 07 80 88 bf 7d f8 13 bf
       -0.6276366 0.013156244 -1.0664071 -0.5780104
000080 3e c8 38 bf 68 b6 40 bf 41 8f 76 bf 83 fb 43 bf
       -0.72180545 -0.7527833 -0.9631234 -0.7655565
000090 c1 10 93 bf 02 a6 87 be 1a 9c 19 bf 1c 12 57 3f
       -1.1489488 -0.2649384 -0.6000382 0.8401201
0000a0 01 fd 8b be 73 d2 12 bf 73 d4 04 bf 66 d2 99 bf
       -0.27341464 -0.5735237 -0.5188667 -1.2017334
0000b0 78 78 a0 be 2c eb 6d bd ec 25 e4 3e 16 ff 66 bf
       -0.3134191 -0.058085606 0.44560182 -0.9023298
0000c0 9f 37 e9 be 8d ce 01 3f ed f8 5c bf b9 3d 23 bf
       -0.45550248 0.50705796 -0.8631733 -0.63766056
0000d0 25 94 9f 3e d1 9a 2b bf ce 8d 76 bf 82 ae 43 bf
       0.31167713 -0.67033106 -0.96310127 -0.7643815
0000e0 0b ca fc bc dc 79 e4 be 5a 8b 58 bf d8 74 34 bf
       -0.03085806 -0.4462422 -0.84587634 -0.7049079
0000f0 66 f7 2c bf 1b 50 20 bf da 55 bc be 68 c5 ad 3e
       -0.67565 -0.6262223 -0.3678425 0.33939672

conv2.weight f4 [128, 64, 2, 2]
000000 29 08 a6 3d cd b0 eb bd 1f da 0e 3e c7 b4 aa 3d
       0.08107025 -0.115083314 0.13950394 0.08335262
000010 cc 07 bf 3e 72 53 83 3d a3 f7 13 3f 82 5b 3b 3f
       0.37310636 0.064124 0.5779974 0.73186505
000020 e5 53 13 bf 96 35 16 3f 3a 2f 54 3f 84 14 31 bd
       -0.5754989 0.58675516 0.8288456 -0.043232456
000030 59 93 84 3e c1 4a 30 be 7b 47 ca bc 38 68 00 3e
       0.25893667 -0.17216016 -0.024692288 0.12539756
000040 57 47 fb bd 91 fb b7 be 51 cb 26 3e fd 7f 78 3e
       -0.12269466 -0.35934117 0.16288497 0.24267574
000050 89 bc 04 bf fb 10 8d be 03 a5 7f be f0 61 c3 3d
       -0.5185018 -0.27552018 -0.2496529 0.095401645
000060 52 12 56 3d 93 5d 24 bf 61 62 3d be 80 22 84 be
       0.052263565 -0.6420528 -0.1849456 -0.2580757
000070 64 d0 9f 3e 3a 8a fd 3d cf fa 5d 3e f2 59 10 be
       0.31213677 0.1237988 0.21677707 -0.14096811
000080 d7 01 47 3e a3 c7 e5 bd d5 0b 48 bd eb b5 4c 3f
       0.19434296 -0.11219718 -0.04883941 0.79965085
000090 fa 60 4c 3f 80 0d 14 bf 7f 5f f8 3e 3a c1 d4 3e
       0.79835474 -0.578331 0.48510358 0.4155367
0000a0 bc 6d e8 3e b4 22 72 bd 44 e9 87 3f 6e 20 9b 3e
       0.4539622 -0.059115127 1.0618062 0.3029818
0000b0 ee 28 23 3d 01 e8 1e 3e 84 71 43 3b d7 db 67 3e
       0.039833955 0.1551819 0.00298223 0.22642456
0000c0 0c 28 05 3f cc d3 c5 3e ea 1b 07 bc b5 e5 5f be
       0.5201423 0.3863815 -0.008246401 -0.2186497
0000d0 e2 7c e9 3d d7 e2 34 bf fd 3b 37 3f ea 9e 59 3f
       0.11400773 -0.7065863 0.7157591 0.8500811
0000e0 bf 89 73 3e 76 60 8c be 0e 6f 27 3f ee 40 6a 3e
       0.23783015 -0.27417344 0.6540383 0.22876331
0000f0 5b bb 25 3f 8b ce 09 bf 22 7f 33 3e 20 83 ed be
       0.64739007 -0.53830785 0.17528966 -0.46389103
000100 c5 2a a0 be cc 3e 1e be ae 82 d2 be 6d 80 07 3f
       -0.3128263 -0.15453643 -0.41115326 0.5293034
000110 48 f0 b6 be 70 cf 1e 3f a1 84 55 3b 05 e5 4e be
       -0.35730195 0.62035275 0.0032580274 -0.20204552
000120 6c a9 7f 3f f9 9f 40 3e 69 29 a3 3e 00 b1 a2 be
       0.9986789 0.18811025 0.3186753 -0.31775665
000130 d2 0d 39 3e ba 66 23 bf 3f b5 7a 3f d8 d4 ea 3e
       0.18071678 -0.63828623 0.9793281 0.45865512
000140 7a 7f 1d bc 51 bb e1 3e 66 68 06 be 83 51 1c 3f
       -0.009612912 0.44088224 -0.13125762 0.61061877
000150 6a 61 74 be f7 6e d6 3e 2e 69 a1 3e ed 6e 6b 3f
       -0.23865286 0.41881534 0.31525558 0.91966134
000160 91 ef 1e 3f bf 96 ea 3e f7 db f2 3e eb b6 08 3e
       0.620843 0.45818135 0.47433445 0.13351028
000170 db f9 60 3f 2b 0a 76 3f 47 9e 37 3e d0 b5 9a be
       0.8788125 0.96109265 0.17931472 -0.30216837
000180 cb e1 63 3e 05 f4 df 3e cf 10 a1 be b3 c5 ea bb
       0.22254102 0.4374086 -0.31458136 -0.007164681
000190 e8 01 82 3f 5b 36 b1 3f 5d 74 14 3f 2c 37 9e 3e
       1.0156832 1.3844713 0.57990056 0.30901468
0001a0 42 94 5c be 64 01 37 be 56 5e 6e be bb 65 0a 3d
       -0.21540931 -0.17871624 -0.23278174 0.033788424
0001b0 18 71 76 3c 32 aa b7 3e e3 04 89 bf 33 c1 49 3e
       0.015041612 0.35872036 -1.0704616 0.19702606
0001c0 8f 52 73 3d eb f1 0b 3e 1f 79 ca bd d4 6e 08 3f
       0.059404906 0.13666503 -0.09886383 0.5329411
0001d0 63 5d 82 be 51 55 ea be 1a 56 ea 3e 82 f4 0c 3f
       -0.25461873 -0.45768216 0.45768815 0.5506059
0001e0 e9 63 b0 bd 09 0a 70 3e 09 bd d6 be 53 5b 0e bf
       -0.08612806 0.23441328 -0.41941097 -0.556081
0001f0 80 e6 0d bf 16 9b 0a 3f be 91 88 be 72 00 04 be
       -0.5542984 0.5414289 -0.26673692 -0.12890795
000200 fb 57 97 3f 25 8d 82 3e 12 a3 01 be 3f 00 9f 3e
       1.1823725 0.2549831 -0.12659863 0.31054875
000210 75 2c 3e 3e 5c 0a a7 be bd ff b0 be 64 5b 03 3f
       0.18571647 -0.3262509 -0.34570113 0.51311326
000220 54 5b 69 be bb a2 6b be 2e 3b e7 be 7f ab 4e bf
       -0.22788745 -0.23011295 -0.45162338 -0.8073043
000230 66 63 35 3e 77 41 82 be f4 cb dd 3e 28 2a 48 3f
       0.17713699 -0.2544057 0.43319666 0.78189325
000240 c3 49 b4 bf f1 a4 96 3e 5f 01 87 bf 05 a0 75 be
       -1.408501 0.29422715 -1.0547293 -0.23986824
000250 78 05 f8 bd 84 ae 68 3c e4 75 3e 3f d2 ed bc 3e
       -0.12110418 0.014201764 0.74398637 0.36900192
000260 bd 94 69 3e 12 0e 44 3d 3c 49 35 be cd 18 a0 bd
       0.22810645 0.04786498 -0.17703718 -0.078172304
000270 e6 92 ea 3e 36 d8 e3 3e a1 ae 69 3e 11 6f 2f 3f
       0.458152 0.44500893 0.22820522 0.6852885
000280 79 c6 19 bf f7 16 0f 3e b6 8d 93 bd c8 de 58 3e
       -0.6006847 0.13973604 -0.072047636 0.21178734
000290 fb 74 81 bf 43 cd 31 3f 35 b7 9c 3e 63 26 14 bd
       -1.0113825 0.6945383 0.30608526 -0.03616942
0002a0 30 aa 36 3f 29 ed c0 3e 1a dc 15 3f cb 8d ae 3e
       0.71353436 0.3768094 0.58538973 0.34092554
0002b0 ba 20 40 3f a7 9c 8a 3e bd d9 dc bd 05 d2 ae 3e
       0.75049937 0.2707264 -0.10783718 0.34144607
0002c0 13 8f 70 be ba b4 16 bf eb b9 e2 bd 99 55 3f bf
       -0.23492078 -0.58869517 -0.11070617 -0.74739987
0002d0 30 ae f6 be a5 5b 0c 3f 14 a7 a9 be e1 f3 28 3f
       -0.4817977 0.5482734 -0.33135283 0.6599713
0002e0 88 32 3b 3f de f5 b7 3d 08 1a 1a be 61 ea f8 3e
       0.7312398 0.08982442 -0.15048993 0.48616317
0002f0 11 09 03 bf 3d 29 b4 3e ab a2 2c 3e 23 10 cf bd
       -0.5118571 0.35187712 0.16858928 -0.101105
000300 3e df ac bd b0 04 03 3e b1 95 ba 3e 6a a5 37 3e
       -0.084410176 0.12794757 0.3644233 0.17934194
000310 d5 34 8d 3e 23 fd e8 3c 38 e3 17 3f 7b 21 99 3e
       0.2757937 0.028441017 0.59331083 0.29908356
000320 76 f8 e2 be 7f c8 83 be 50 3e 93 bc af 64 c5 3b
       -0.44330186 -0.25738904 -0.017974049 0.0060239653
000330 5e 6a 80 bf 48 11 8d 3e 0e da fc bd 9d 65 ad 3e
       -1.0032461 0.27552247 -0.12346278 0.33866587
000340 f4 a8 33 3e 9b f4 8d 3e bb 4f 58 bb 1d 32 fd 3e
       0.17544919 0.27725682 -0.0033006507 0.49452296
000350 e4 c6 3c 3e d7 57 da 3e f0 d2 ff be a5 4f a1 be
       0.18435246 0.4264514 -0.4996562 -0.31506076
000360 9c 9d 34 3e 3e c1 d4 3e c9 92 14 3f 87 69 1d be
       0.17638248 0.41553682 0.58036476 -0.15372287
000370 46 c7 9d 3c 48 0e 02 be e1 11 0c bf 2e c7 18 3f
       0.01926006 -0.1270076 -0.5471478 0.59678924
000380 e7 db 6e be 14 2d 7a be e7 e2 56 be ca 0b 60 be
       -0.23326074 -0.24431258 -0.20984994 -0.21879497
000390 ac ce 78 bf 05 ae 54 3e a6 19 e8 3b b9 59 b3 3d
       -0.97190356 0.20769508 0.0070831357 0.087573476
0003a0 03 76 93 3f 36 42 02 3f bc 84 45 3f 58 34 2b 3e
       1.1520389 0.5088228 0.7715566 0.16719186
0003b0 22 f6 ed 3e f0 e0 f2 3a 7e e6 bc b9 3a aa e6 be
       0.46476847 0.0018530171 -0.00036029884 -0.45051748
0003c0 de 48 08 be 4d f3 01 3f 62 0e 12 3f 6b 10 95 be
       -0.13309047 0.5076187 0.57053196 -0.29114088
0003d0 08 bb 6d 3f 89 df 9d 3e e2 e0 13 3f 09 7e 1c 3f
       0.9286351 0.30834606 0.5776502 0.61129814
0003e0 41 97 86 be ab 6f cd 3d 01 33 12 be f5 2a b1 3d
       -0.26287273 0.100310646 -0.14277269 0.086507715
0003f0 31 78 d8 be 14 a8 9e be dc ee 49 3c 31 e9 69 3e
       -0.422792 -0.30987608 0.012325015 0.22842862

conv2.bias f4 [128]
000000 ff 85 54 be b9 eb 28 be e0 c3 3c bf bb 42 23 bf
       -0.2075424 -0.16496171 -0.7373638 -0.637737
000010 de 3b 89 be 7f f5 6b bf 7e ff 23 bf 88 ac 2b bf
       -0.26803488 -0.9217147 -0.64061725 -0.67060137
000020 7b 20 28 bc a6 d3 56 bf 4e f1 30 bf b8 31 d8 be
       -0.01026165 -0.839167 -0.691182 -0.42225432
000030 e7 ab 19 bf 9c ec 1f bf cf e0 0b bf c7 ea 64 bf
       -0.6002793 -0.6247041 -0.54639906 -0.8942074
000040 43 5f 2f bf 02 59 76 bf 80 cb 72 bf ce 20 53 bf
       -0.6850473 -0.96229565 -0.94841766 -0.8247193
000050 2c 44 56 bf 8a 5f 12 bf 31 dc b5 be 93 63 6e bf
       -0.8369777 -0.5717703 -0.35519555 -0.9312069
000060 86 0f 52 bf a6 6b 49 bf 38 78 19 bf 23 e0 29 bf
       -0.82054937 -0.78679883 -0.59949064 -0.6635763
000070 f8 f6 2d bf 44 af 30 bf 55 99 61 bf a3 fd 38 bf
       -0.6795497 -0.69017434 -0.8812459 -0.7226202
000080 df 3d 0f bf 3e 45 14 3f 76 81 43 bf 22 8f 6e bf
       -0.5595378 0.57918155 -0.76369417 -0.93187153
000090 d3 21 29 bf 47 64 51 bf f4 d6 6a bf f7 7a 31 bf
       -0.66067237 -0.81793636 -0.9173424 -0.69328254
0000a0 11 67 23 bf 26 b2 3c bf 6f d4 37 bf 4e 1f 99 be
       -0.6382914 -0.7370933 -0.7180852 -0.29906696
0000b0 00 1a 88 be 04 e4 d8 be fa fe 33 3f dd 19 07 bf
       -0.26582336 -0.42361462 0.7031094 -0.5277384
0000c0 b2 18 00 bf c8 a1 38 bf c1 8f 15 bf 69 12 a8 bd
       -0.5003768 -0.7212186 -0.58422476 -0.082066365
0000d0 b7 6a 98 be a4 c8 52 bf 99 a9 4b bf 32 65 0d bf
       -0.29768917 -0.82337403 -0.7955566 -0.55232537
0000e0 20 fe 09 3f e2 eb 25 bf 80 92 eb be 82 51 4e bf
       0.5390339 -0.64813054 -0.46010208 -0.8059312
0000f0 ea 4b 0b bf 57 b6 2d bf c5 74 5a bf d5 7d 56 be
       -0.5441271 -0.67856354 -0.85334426 -0.20946439
000100 cb ae 78 bf 01 37 3e bf f2 2c 27 bf 9d 5e 91 be
       -0.9714171 -0.7430268 -0.65302956 -0.28392497
000110 7e 34 1c bf f9 da f6 be f9 57 4e bf ca 49 15 bf
       -0.61017597 -0.48213938 -0.80602986 -0.5831572
000120 1d 3b 12 bf c1 97 00 bf d1 90 36 bf 4c 47 5a bd
       -0.5712145 -0.5023156 -0.7131472 -0.05329065
000130 5b 82 1a bf de e6 4a bf 59 41 51 bf fa 6a 0d be
       -0.60355157 -0.79258525 -0.8174034 -0.1381034
000140 79 87 17 bf 53 a7 63 bd 63 d6 53 bf 0b 65 01 bf
       -0.5919109 -0.055579495 -0.82749003 -0.50544804
000150 be d8 4e bf 2b 3c 1a bf d4 73 84 bf 7f af 28 bf
       -0.8079947 -0.6024806 -1.0347848 -0.65892786
000160 67 54 66 3e fb ac fe be 45 b7 40 bf cd 89 41 bf
       0.22493134 -0.4974135 -0.7527965 -0.7560089
000170 70 3f 3f bf 61 50 52 bf 0a c6 2c bf 57 f4 2f bf
       -0.7470617 -0.821539 -0.67489684 -0.6873221
000180 c4 24 85 bf fc 83 10 bf 4a c0 23 bf 85 3f 0b be
       -1.0401845 -0.5645139 -0.63965285 -0.1359845
000190 99 fe ff be 67 68 46 bf 26 db 16 bf a1 8c 9f be
       -0.4999893 -0.77503055 -0.58928144 -0.3116198
0001a0 86 f1 44 bf 96 f9 1b bf c7 3f 83 bf ce 69 22 bf
       -0.76931036 -0.6092771 -1.0253838 -0.63442695
0001b0 31 a7 40 3c 5b b5 49 bf 4a 29 a5 bd 68 e9 f9 bc
       0.011758612 -0.7879235 -0.08064516 -0.030506805
0001c0 a5 e8 45 bf 0b 87 59 bf 87 5b 17 bf 54 db 24 bf
       -0.7730811 -0.84971684 -0.59124035 -0.6439717
0001d0 18 38 cf be 71 ee 2f bf d9 37 7a bf a5 75 30 bf
       -0.40472484 -0.6872321 -0.97741467 -0.6892951
0001e0 fe e6 d3 be 74 51 1f bf c8 0c 39 bf e2 a8 f1 be
       -0.4138717 -0.6223366 -0.7228513 -0.4719916
0001f0 7f 07 05 3e 1f 15 19 bf f7 ea 2e bf ab 2e 78 be
       0.12991141 -0.59797853 -0.6832728 -0.24236552

fc1.weight f4 [128, 768]
000000 38 32 1d bd 56 4b 17 be d3 2d 84 be f1 ec dd be
       -0.03837797 -0.14774832 -0.2581621 -0.43344834
000010 4c 79 50 be 34 25 21 be 9f c2 50 3e 69 83 56 bd
       -0.20358771 -0.15736848 0.20386742 -0.052371416
000020 a7 e4 53 3b cb 87 4d 3c 96 30 15 be 89 12 33 be
       0.0032332332 0.012544583 -0.14569315 -0.1748754
000030 3f 8b 0d be c2 71 89 be 14 7e 07 3e a3 af 19 bf
       -0.1382265 -0.26844603 0.13231689 -0.60033625
000040 0b e9 fd bd 01 ca 39 be 9e 7f 68 bc e2 c6 67 bd
       -0.12397965 -0.18143465 -0.014190583 -0.056586154
000050 cd bd 93 3d ed 6f fb bc ff 71 8c be e6 9b e4 3c
       0.07213936 -0.030693019 -0.27430722 0.02790637
000060 c9 72 8b be 8d 9e ee bd 60 8e 45 3c 71 d4 c4 bb
       -0.27236012 -0.11651335 0.012057871 -0.0060067703
000070 b8 fe dc 3d 0c 98 1f be 9b eb 01 be f1 0f 7e 3e
       0.10790771 -0.15585345 -0.12687533 0.24810769
000080 1d 2a 2c be 30 3a d9 bd b6 39 15 be 72 de f4 bd
       -0.1681294 -0.106068015 -0.14572796 -0.119564906
000090 f8 36 0b bd 02 f8 92 3a af 3f 76 bd f4 f7 19 bd
       -0.03398797 0.0011212828 -0.060119327 -0.037589982
0000a0 a7 1b c6 3c 63 79 1a be d6 9b 96 bd 73 8c ec bd
       0.024183108 -0.15085368 -0.07353942 -0.11550226
0000b0 54 bc 30 be 17 42 a3 bd 91 03 a1 3d 06 18 98 be
       -0.17259341 -0.0797159 0.07862008 -0.29705828
0000c0 36 21 06 bd 91 4c 0a 3b 68 f6 9c bc b9 58 9b 3a
       -0.032746516 0.0021102766 -0.019160464 0.0011852003
0000d0 74 7b b3 bc 6c fc a4 bb 8d 91 63 be c0 41 a5 3e
       -0.021909453 -0.005034974 -0.22223492 0.32276726
0000e0 c0 cf a3 bd 06 f9 06 be 98 90 df be 41 00 33 3e
       -0.079986095 -0.13180932 -0.43665004 0.17480566
0000f0 fc 70 3c be 98 2a d9 bd f8 ac 03 bc 6a 6a 3a bd
       -0.18402475 -0.10603827 -0.008036844 -0.04551164
000100 d1 0a 0a be 59 37 71 3b 3d 98 90 bd fe 3e 07 3e
       -0.13480689 0.0036806671 -0.07060287 0.13207623
000110 1a da 77 be 49 e1 dc bd 80 2b 31 bd e4 d5 2c be
       -0.24204293 -0.10785157 -0.043254375 -0.16878468
000120 8d 88 01 3e a7 60 15 3e 49 80 91 be c4 11 0d bd
       0.12649746 0.14587651 -0.28418186 -0.03444077
000130 84 2b 0d bf c5 23 80 be 3f 8d ff bd 5c 30 9a be
       -0.55144525 -0.2502729 -0.124781124 -0.3011502
000140 5d 6c e5 bd c7 48 41 bd fb 44 65 bd e4 ca 17 3e
       -0.11202309 -0.047188547 -0.055973988 0.1482349
000150 f3 a0 06 be f9 38 28 3e 9f 0d a6 3c 0b f1 ae 3d
       -0.13147335 0.16427983 0.020270167 0.08542069
000160 78 1e 4d be 62 d2 16 be 5e 05 d3 be 26 4a 68 bd
       -0.20031154 -0.14728692 -0.41215032 -0.05671134
000170 23 e3 80 3d 28 85 a1 be 7a a1 3b be 3b e2 23 3e
       0.06293323 -0.31546903 -0.18323317 0.16004269
000180 19 9b 4b 3d 87 8e 42 be 5c 24 14 bd 96 03 2e 3e
       0.04970846 -0.18999682 -0.036167488 0.16993555
000190 d6 48 9b be ff 00 d6 be b4 b5 4f be b7 ac 9a be
       -0.30329007 -0.41797635 -0.20284158 -0.30209896
0001a0 fa 18 83 be 02 df c9 be 30 d6 6e be 8c 20 2b 3e
       -0.25604993 -0.39427954 -0.23323894 0.16711634
0001b0 a2 cd a5 bd 63 f1 fe bb 06 2d 4b 3c f5 0b 9f be
       -0.08095862 -0.0077802404 0.012400871 -0.3106381
0001c0 b3 72 63 be d2 fb da 3d 08 66 db 3c b1 1e 57 be
       -0.22211723 0.10692562 0.02678205 -0.21007802
0001d0 31 03 9c be ed 4a 26 bd 5f f4 a5 bc a1 86 89 3d
       -0.30471185 -0.0405988 -0.020258127 0.067151316
0001e0 7f 34 a7 3d 70 ef 14 bd 3e 86 c7 bd 38 b7 a4 bd
       0.0816431 -0.036361158 -0.097424015 -0.08042759
0001f0 cb 97 5e 3c 2c e2 50 be a4 a9 03 be 63 d4 8e 3d
       0.013585995 -0.20398778 -0.12857682 0.06974103
000200 bf b0 19 bd b6 9c 9c bd 65 f0 26 3d 4a 60 3c 3e
       -0.037522074 -0.07647078 0.0407566 0.18396106
000210 91 06 67 be 97 d4 2f 3e 7a 4d 52 be 8f 34 80 be
       -0.22561099 0.1717094 -0.20537367 -0.250401
000220 92 f3 a9 be c8 74 bb ba 46 b5 04 3e a6 bb 1a be
       -0.33193642 -0.0014301771 0.12959775 -0.15110645
000230 43 26 8e 3b 24 de 3f bd a0 ff 9c bd 5e 05 8c be
       0.0043380572 -0.04684271 -0.07665944 -0.27347845
000240 19 be 22 3e 07 00 7d 3e 79 e6 a4 3d f8 cb ae 3d
       0.15892829 0.24707042 0.08051772 0.08534998
000250 fd 62 b2 bd d2 2b 82 be 35 7f d7 bd 5b 16 15 3e
       -0.08710287 -0.25424057 -0.1052231 0.14559309
000260 99 c1 2d bd 16 3e 02 3d 87 7a 0d 3d 02 47 a1 be
       -0.042420957 0.03179749 0.03454068 -0.31499487
000270 e6 9b 5a be 4c 76 5d bd fd 98 3b be 63 29 d9 bc
       -0.21348533 -0.054067895 -0.18320079 -0.026508993
000280 bd 88 21 be 3b 39 85 3d db 33 c3 3d 8d a9 b4 bd
       -0.15774818 0.065050565 0.09531375 -0.08821402
000290 a7 24 93 bd b5 ed 4f 3d f8 92 3c 3e c4 16 e7 3d
       -0.07184725 0.050763804 0.18415439 0.11283639
0002a0 d8 3c 7c bd f3 a7 e2 3d ee 2b 76 bd fb c0 a0 3d
       -0.061581463 0.1106719 -0.06010049 0.07849308
0002b0 ba 6c 9e be ee 59 43 3e e0 94 76 3e 5f 49 1d bc
       -0.30942327 0.19077274 0.24080229 -0.009600013
0002c0 a4 bf 87 3e c2 77 10 be c6 01 ec bd 31 97 98 be
       0.26513398 -0.14108184 -0.11523776 -0.2980285
0002d0 78 d8 fe bd 4c de 1d be 1a db 10 be 82 1a 87 be
       -0.12443632 -0.15416831 -0.1414608 -0.2638741
0002e0 78 e4 16 3d ea e3 1c be b5 e5 e5 3c 34 b5 47 3a
       0.03683898 -0.15321317 0.028063634 0.0007618249
0002f0 4c 16 6a bd 4c db 3e be 54 9d 4a be b1 16 b4 be
       -0.05715017 -0.18638343 -0.19786578 -0.35173562
000300 5c 10 9f 3d 02 0a 97 3d 1c c4 20 3e 80 f3 80 be
       0.07766792 0.07374956 0.1569981 -0.25185776
000310 0e 14 ff bd 40 cc fe bd 73 f1 a2 be b6 c3 77 3c
       -0.12454997 -0.12441301 -0.31824836 0.015122345
000320 d5 f5 fe bd 03 ab ae bc 4f 20 bc bd 40 1d 11 be
       -0.124492325 -0.02132178 -0.0918585 -0.14171314
000330 a2 c3 6f bd 2e ce 88 3e 0a 42 aa 3d 8b 23 3d be
       -0.05853618 0.26719803 0.08313377 -0.1847059
000340 a1 21 00 3d dc c1 85 be a7 f1 28 3e bd 29 84 be
       0.03128207 -0.26124465 0.16498433 -0.25813094
000350 ed 78 4e be 51 ac 18 3e 76 54 16 be 95 82 23 bc
       -0.20163317 0.14909483 -0.14680657 -0.009979864
000360 f9 dc 48 be fb 2d 24 3d 67 b4 87 be a7 de 48 be
       -0.19615544 0.040082913 -0.26504824 -0.19616185
000370 cb f6 09 bd eb f4 e7 3d 4f ed a7 3e b4 0b 80 bd
       -0.033682626 0.11326011 0.3279824 -0.06252232
000380 2d a5 7c 3d 5e c1 89 bb 11 f1 97 be 98 93 98 be
       0.06168096 -0.0042039594 -0.29676107 -0.29800105
000390 d2 97 bf be 62 cb 6e 3d 25 be 5a be cd 99 04 3e
       -0.37420517 0.05829943 -0.21361597 0.12949295
0003a0 8c 0d 91 be 6d 29 97 3c 1f d2 eb bd d8 45 c6 bd
       -0.28330648 0.01845237 -0.11514687 -0.096812904
0003b0 7e 2a 0b 3e 10 b7 43 3d 03 bb ed bd 49 65 18 be
       0.13590428 0.047782004 -0.11607935 -0.14882387
0003c0 97 31 76 bd 9d 5e d3 bd 71 28 8a bd 15 b3 fb bd
       -0.060105886 -0.103207804 -0.06745995 -0.122900166
0003d0 1f c2 bb be f8 8e 1b be 12 ba e3 3d 2f 5e 67 be
       -0.3667154 -0.15191257 0.111194745 -0.22594522
0003e0 d0 6e 9d bd de d6 55 3b 82 7b d4 3d fd 42 80 bd
       -0.076871514 0.0032629292 0.1037512 -0.06262777
0003f0 72 7e ff bd 6c ff 27 bd 8b 0b 61 be 16 2e 8a be
       -0.124752894 -0.041015074 -0.2197706 -0.26988286

fc1.bias f4 [128]
000000 0d 7f 20 be a2 cf 59 bc e0 26 85 bd 07 69 56 3f
       -0.15673466 -0.013294132 -0.065015554 0.8375401
000010 d5 af ad 3e c1 8c 40 3e ae dc 14 3f 15 b8 0a 3e
       0.33923212 0.18803693 0.5814923 0.13546784
000020 21 ce 56 3e 5e d5 ed 3e 70 d7 48 3e 53 f1 44 bd
       0.2097707 0.4645185 0.19613433 -0.048081707
000030 2c 63 8e bd 65 df e8 3e ab e9 90 bd 4d 03 02 3f
       -0.06952509 0.45482937 -0.07075819 0.50786287
000040 f4 b3 ee bd 2e d6 2f 3f 1e a3 00 3e 0b dc b0 3f
       -0.11655417 0.6868619 0.12562224 1.3817152
000050 4e 9d 25 3e 73 0f 78 3d fa d1 72 3e d0 fa 7c bd
       0.16173288 0.06056161 0.23712912 -0.06176263
000060 ef c3 40 3e e6 ab e0 3e f9 9b c1 be 27 b5 07 3f
       0.18824743 0.43881148 -0.3781431 0.5301079
000070 49 71 6e 3e c1 e9 66 3e 6c 1f b3 3d b3 b3 0d 3f
       0.23285402 0.22550108 0.087462276 0.55352324
000080 3f 36 54 be b0 24 5d be 3b 2a 70 3f f6 09 a6 3e
       -0.20723818 -0.21596026 0.9381444 0.32429475
000090 3c c3 ca 3d 84 e5 7a 3e 31 a1 fc 3d 72 0e d1 3f
       0.09900519 0.24501616 0.12335432 1.6332533
0000a0 3f ed c5 be 8a a8 8c bc b1 a2 dc bc 0a 53 96 bd
       -0.38657567 -0.01717021 -0.026933046 -0.07340057
0000b0 0e 41 86 bd 24 1b 9e 3d 63 20 cf 3e ca e9 d7 3e
       -0.06555377 0.077200204 0.40454397 0.42170554
0000c0 a9 a1 67 3f d1 69 54 3e 7c 98 6a 3f 94 dd 29 be
       0.9048105 0.20743491 0.9163892 -0.16588432
0000d0 36 b2 bf 3f c4 f4 7b 3f 1f 6d c0 bd b0 70 e9 3e
       1.4976261 0.9842036 -0.09395813 0.45593786
0000e0 b6 1a c6 3e 29 65 ea bb 66 78 82 3e ff f2 aa 3e
       0.38692254 -0.0071531725 0.25482482 0.33388516
0000f0 0c 50 bd 3f 86 39 f3 3e cd 6e 70 bd d1 17 6b 3e
       1.4790053 0.47504824 -0.058699418 0.22958304
000100 b9 f1 d5 3c df f5 1d 3f 83 ba 2e 3f de f1 e5 3e
       0.026116239 0.61703295 0.68253344 0.44911093
000110 61 ca 1b 3e 3f 4d d5 3d 5f 28 d3 3e 74 ae b8 bd
       0.1521392 0.10415124 0.41241738 -0.09017649
000120 f6 e2 32 3e 2f d4 bc 3d cd d2 a9 3e 21 9f 5d 3f
       0.17469391 0.09220158 0.3316864 0.86570936
000130 6c 8e 1b bd ce 97 1f be 60 fa 63 3d 2d 8a 17 be
       -0.03797762 -0.15585253 0.055658698 -0.14798804
000140 c7 1e b9 3e 1e 03 ad 3e 32 48 4d 3f f2 40 b0 3d
       0.36156294 0.3379144 0.80188286 0.08606137
000150 e9 f6 e6 bc 34 fd 01 3e 05 43 75 bd db 95 c9 3e
       -0.028193908 0.12694246 -0.059878368 0.39372143
000160 a1 cf 09 3f ce 76 25 be 28 db af be 09 b1 55 3e
       0.5383244 -0.16158602 -0.3434689 0.20868315
000170 1b 8e 20 be 71 d0 98 be bd 1e 34 bd d2 6d 45 3f
       -0.15679209 -0.29846528 -0.043974627 0.771207
000180 2a c4 56 3f 0c b4 e9 3e 53 88 e9 3d 41 4a 98 3e
       0.8389307 0.45645177 0.11402955 0.2974415
000190 64 78 10 be d5 0e 99 3e c9 09 86 3e 9d fe 53 3e
       -0.14108425 0.29894128 0.2617934 0.20702596
0001a0 6e 80 1f be e5 b3 03 3f f2 38 d6 3b 6c 77 88 bc
       -0.15576336 0.5144637 0.00653755 -0.016658507
0001b0 13 e0 61 3f d7 61 a4 3e 88 69 ff 3e 05 ee 6a be
       0.88232535 0.32105896 0.498852 -0.2294236
0001c0 fe 1d d0 3e e3 d6 75 bd 1c a6 83 bd 26 0e 48 bc
       0.40647882 -0.060019385 -0.06428167 -0.0122104045
0001d0 5c 04 a3 bd 9d 5f 83 3e 37 4b f4 bd a1 39 73 3d
       -0.07959816 0.25658885 -0.119284086 0.05938113
0001e0 60 5a 45 bc f5 b1 9c 3f 59 99 de be 4b 31 84 bd
       -0.012045473 1.2241808 -0.4347637 -0.064547144
0001f0 7e 45 4d 3b 97 c5 6d 3e 38 19 7c bd fc 4e b1 bc
       0.0031321938 0.23219906 -0.061547488 -0.021644108

fc2.weight f4 [7, 128]
000000 28 f8 5f be 91 91 22 3d eb 5c 8e bd 6b ba 1f be
       -0.21872008 0.039689604 -0.069513164 -0.15598457
000010 88 6c 99 bd 60 3e a1 bd d8 57 fa bc 72 bd 4d bd
       -0.07491404 -0.07873225 -0.030559465 -0.050229497
000020 24 cd bf bd 1e 23 14 3c ea 57 44 bd 92 50 4a bd
       -0.09365299 0.009041576 -0.047935404 -0.049393244
000030 be d7 b1 3d e5 49 9d 3c d1 cd 02 3e f6 10 ae bb
       0.08683728 0.019200275 0.12773825 -0.0053120805
000040 5a f1 ac 3d 22 c7 37 bd de 27 2d 3d 97 70 78 3b
       0.08444472 -0.044867642 0.04227435 0.0037908906
000050 27 a7 68 bd d0 11 52 3e f9 67 97 bd e8 aa 88 bd
       -0.056800034 0.20514607 -0.07392878 -0.06673223
000060 88 ab 3a 3c 3a 4e 3d 3c 87 c9 6b 3e 49 3d 3c bb
       0.011393435 0.011554295 0.23026095 -0.0028723052
000070 11 f9 8a be b1 ce 3d 3d c0 f3 15 bd c3 d0 8d bc
       -0.27143148 0.046339694 -0.03660941 -0.01731146
000080 f7 4d dd 3d e8 96 1a bf aa 33 da 3b 0f 5d 06 3d
       0.10805886 -0.60386515 0.006658991 0.03280359
000090 19 2b bd bd d8 30 1b 3d 78 4f ca 3c 0c 56 44 3a
       -0.09236736 0.037888378 0.024696097 0.00074896286
0000a0 04 33 bf 3d fb f1 67 3d a6 b4 9e bd 0c 92 60 3d
       0.09335902 0.056627255 -0.077493 0.05482678
0000b0 32 3a a7 bd 0a a2 cc 3b dd 5b 62 3c 37 47 d1 bd
       -0.08165397 0.0062449025 0.013815847 -0.10218661
0000c0 61 ad 47 3b b3 e3 8b 3b f2 f3 48 ba 81 45 20 3e
       0.0030468332 0.004269087 -0.0007665745 0.15651514
0000d0 b5 6b df 3b e5 ca 97 3b 89 3e 8b bc 26 48 82 3c
       0.0068182596 0.004632341 -0.016997593 0.015903544
0000e0 a7 64 e2 3c 46 5a 7d bd f3 1d 51 bd 3f 6b 3c 3d
       0.027635885 -0.06185367 -0.051053952 0.046000715
0000f0 eb e2 b4 3b a5 61 dd bd 22 1a 5c 3d f6 f9 b3 3c
       0.005520215 -0.1080964 0.05373586 0.021969777
000100 bf 16 ff be 92 97 5a be 67 e0 38 3c 8e a6 73 bd
       -0.4982204 -0.21346882 0.01128397 -0.05948501
000110 20 89 1e be a7 f9 f4 be 66 14 d7 bc 1c 5a 44 be
       -0.15481997 -0.4784672 -0.026254844 -0.19174999
000120 25 b5 3c bd ad 64 69 3d 4d 69 88 3c 2f f3 28 b9
       -0.04607119 0.056980778 0.016651774 -0.00016112321
000130 f8 a2 ed 3c 2f 00 4b 3e fa 43 9f 3d b2 a4 63 3e
       0.029008374 0.19824289 0.077766374 0.22230795
000140 3c 7a 0e be 23 65 93 bb ab bc 28 39 95 2f 83 3d
       -0.13913816 -0.0044981404 0.00016092013 0.0640556
000150 69 ba 74 bd dc 3c 0c bf 78 14 59 bd 9b 57 03 be
       -0.059748087 -0.54780364 -0.052998036 -0.12826388
000160 db 76 cb 3c dd 12 c1 3b ee bd b6 3d e8 75 5c be
       0.024836948 0.0058921413 0.08922945 -0.21529353
000170 29 52 57 3e 14 d3 54 3e 97 d9 0c 3d 5b 37 81 ba
       0.21027435 0.20783645 0.034387197 -0.0009858416
000180 7b 30 02 bc bc 3d 5a be 14 9b 2e bd a4 6c 31 3c
       -0.007946129 -0.21312612 -0.042628363 0.010829125
000190 0e 67 18 be e4 84 26 bd 6a ef 82 3d 6d 21 1e be
       -0.14883062 -0.040654078 0.06393321 -0.15442438
0001a0 1d 90 18 3a 1c 64 a6 be 72 9d e1 bc 7b 31 44 bd
       0.00058198144 -0.32498252 -0.027540896 -0.04789875
0001b0 f7 a0 2f 3b bc aa ca be 6d c4 40 be 23 22 8e b9
       0.0026798823 -0.39583385 -0.1882493 -0.00027109784
0001c0 97 9e d5 bc b9 dd fc bd 93 f6 43 3d 4d f1 52 bd
       -0.026076598 -0.12346978 0.047842573 -0.051499654
0001d0 c2 03 13 3d 8a a2 13 3e da 78 ad bd b9 7d d5 3c
       0.035892256 0.14417472 -0.08470316 0.026060926
0001e0 ae e3 9c 3d be 31 db 3a 38 5a 1d 3e 9a ed 5e bc
       0.07660614 0.0016723198 0.15366447 -0.013606453
0001f0 14 1d 4d bc 1a bb 4a be 41 83 cf bc 99 cb 83 3d
       -0.01251914 -0.19797936 -0.025331141 0.064353175
000200 16 09 af bd da fa 6c bd 2c 9f 38 3d 4c ca 7c 3c
       -0.08546655 -0.05785642 0.045073673 0.015429091
000210 65 d6 cc 3d 4d 30 09 bd 9e 4d 3f bd 59 00 6b bd
       0.1000183 -0.03349333 -0.04670488 -0.05737338
000220 63 b1 78 bd 4b 7c 31 be f1 91 7f bd 83 9d 4b 3b
       -0.060716044 -0.1733257 -0.06239504 0.0031069226
000230 c6 1d 41 3c f9 62 2d 3c c4 93 cc 3d 74 de 84 be
       0.011786884 0.010582679 0.099891216 -0.25950968
000240 de bd 97 bd ec ea 37 bc 0f 2f 39 3e b1 c1 23 3b
       -0.07409261 -0.011225443 0.18084358 0.0024987275
000250 42 e8 bf bc 4a d4 51 be 7c 94 ed bc 49 78 11 bd
       -0.023426179 -0.20491138 -0.029001467 -0.035515103
000260 b5 93 d7 3c 8d 28 51 3b 2f 36 38 3e 83 6e f3 bd
       0.02631555 0.003191504 0.1798942 -0.11886313
000270 ac a2 5d 3e c5 60 47 bd d1 5e 3c 3e d2 0e 60 bb
       0.21644086 -0.04867627 0.18395545 -0.003418852
000280 0e 95 86 3d ee 81 7b 3d a9 c3 c5 3b ce 94 e6 3b
       0.06571399 0.061403207 0.0060352874 0.007036782
000290 10 d1 38 3c c4 43 0d be 57 6d 91 be 5a ba e5 ba
       0.011280313 -0.13795382 -0.28403732 -0.001752685
0002a0 ad af b1 3d 9a 45 22 3c 8f d4 1c 3e 1e ee 3a bd
       0.086760856 0.00990429 0.1531546 -0.045637242
0002b0 6f 82 6f 3e 06 6d 11 3c 48 aa 24 bf 49 cf 1f be
       0.233896 0.008876091 -0.6432233 -0.15606417
0002c0 b7 c6 ba 3b d7 9d 87 3b a8 b1 7e ba 28 70 ca be
       0.005699958 0.004138689 -0.0009715804 -0.39538693
0002d0 b9 e1 af ba 6e ea 9b bc 21 d1 d4 3c 75 63 a6 3b
       -0.0013418711 -0.019032683 0.025978627 0.005077774
0002e0 5f 38 80 3c d8 e4 60 3d 55 9a 49 bc f3 df 60 bd
       0.01565188 0.054905742 -0.012304862 -0.054901075
0002f0 85 29 d5 3b d4 06 2e be 1e 92 56 3e c6 fd 1a 3d
       0.0065051937 -0.16994792 0.20954177 0.037839673
000300 24 1d c3 3e 97 ca 26 be 97 11 37 bb 0f 97 7d bd
       0.3810817 -0.1628822 -0.0027934068 -0.06191164
000310 f9 30 25 be bc 11 c7 3c 79 cd 32 be a6 5a 87 be
       -0.16131963 0.024300449 -0.17461194 -0.26436347
000320 bd 6f 99 3d a2 9c 8a bd 25 87 2a 3d 3f 8c 90 3b
       0.074920155 -0.067681566 0.04163279 0.00441125
000330 f6 fd 35 bd ff e4 f7 bc 20 ab 45 bc 9c cf 67 3e
       -0.04443165 -0.030260561 -0.012064725 0.2263779
000340 4f c8 37 3c 5f ef f7 be 7c 20 60 3b b7 d3 4d 3d
       0.011217191 -0.48424813 0.003419905 0.050250735
000350 ac e8 81 bc f2 40 ad 3c 04 62 6e 3c d8 a2 00 be
       -0.015858017 0.021149132 0.014549736 -0.1256212
000360 c2 16 f0 3c 8a 3a 3e be 6c a5 02 3e d8 41 1e 3e
       0.029307727 -0.18577018 0.12758416 0.15454805
000370 7c c3 56 be 4b 06 8a 3e 77 3f 73 3d ed 8a 98 3a
       -0.20973009 0.26957926 0.059386697 0.0011638083
000380 5c 17 ee 3c c7 1f c8 bd fa bd 38 bd 0d bc 95 be
       0.029063873 -0.09771686 -0.04510305 -0.29245034
000390 ef 94 17 3e 0e 9b 98 bc e3 67 0d bd 33 5d ee bd
       0.14802907 -0.018628623 -0.034522902 -0.1163887
0003a0 0d 58 8c bd aa f1 81 bd 09 f5 f0 bd 25 e4 3f be
       -0.06852732 -0.06344922 -0.11765487 -0.18739374
0003b0 60 b9 c1 3a f4 bd fc 3b c4 b1 c8 bc 66 22 ae be
       0.0014779978 0.007713074 -0.024498828 -0.3401062
0003c0 d7 d2 8d 3c de c9 22 3e b3 61 0a 3e 64 d4 e3 bc
       0.01731245 0.15897319 0.13513832 -0.027811237
0003d0 b2 d5 a3 3d 47 a3 9a 3c 60 31 6d be ca 45 60 bc
       0.079997435 0.018876685 -0.23163366 -0.013688514
0003e0 e0 7e cd 3c 4c fd 64 3b 95 fc 2e 3e 8f 81 90 bd
       0.025084913 0.0034941016 0.1708854 -0.07055961
0003f0 b7 e6 6d bd 77 01 ba bd e6 98 fa bc d0 a9 5b bb
       -0.058081355 -0.09082311 -0.030590486 -0.0033517964

fc2.bias f4 [7]
000000 a9 02 b0 3d 6f 55 5f 3d 9f 02 d0 3d 1b b9 5d 3e
       0.085942574 0.054524835 0.1015675 0.21652643
000010 bb 55 ce 3d 90 88 e3 3d 7b 78 19 3e
       0.100749455 0.111100316 0.14987366
