trained_models/double_dql_blockcheck_1r.pt (torch, 536604 bytes, 8 tensors)

conv1.weight f4 [64, 1, 4, 4]
-0.055983633 0.052418318 -0.065673545 0.31099582 0.24551508 0.1785666 0.2520578 -0.23898059
0.15006936 0.27400157 -0.13074078 -0.059240177 -0.27704504 -0.18452957 0.018783214 0.26070172
-0.41194597 -0.1967883 -0.3401763 -0.3200582 6.867654e-05 0.32285276 0.4295274 -0.18954492
0.08644078 -0.01749999 -0.35307312 -0.09266716 0.348098 -0.14002001 0.027415328 0.066489816
-0.12965553 -0.73552495 0.17723237 0.28817213 0.22094005 -0.6076567 0.03411307 -0.014050838
0.22531444 -0.16136445 -0.13835055 -0.052785266 -0.43512332 0.09734117 0.18581031 -0.358052
0.15633124 0.08487268 -0.4720638 0.17210554 0.028375378 0.3794026 0.20793422 -0.30749676
-0.2316383 0.047364715 0.057217453 0.06705265 0.16020188 -0.28018594 -0.02438453 0.01706647
-0.57672054 0.073031686 -0.30485874 0.2437243 0.2203642 -0.2569619 0.10713693 0.21288718
-0.068441905 0.20133598 -0.09606815 0.2512605 0.017637469 -0.27392018 0.25853673 -0.47353974
-0.3314398 0.10541476 -0.2593938 0.18217564 0.1718199 -0.071520016 0.033839658 0.04783905
-0.3785407 -0.23433872 -0.20138492 0.025548212 -1.1371258 0.28749034 0.08681255 0.052770816
-0.96890277 -0.84855795 0.11929387 0.2392313 0.1824307 0.12766762 -0.031671844 0.013456508
-0.17300479 0.1586483 -0.12823741 -0.24010363 0.32474563 0.13587637 -0.124364816 0.08554923
0.15924005 0.2344549 0.17276503 0.29776585 -0.096528895 -0.14739329 -0.38094994 -0.2757309
0.27318767 -0.09092455 -0.019532176 0.22721538 -0.26622263 0.08750393 -0.058504514 -0.517491
-0.376129 0.00881263 -0.21818505 -0.24605058 -0.04191254 -0.05954363 0.14920768 -0.063113965
0.10558038 0.090080455 -0.31200504 0.52100956 0.030808084 0.022869749 -0.045282546 -0.43601602
0.38614142 -0.43789414 -0.1354594 -0.3602085 -0.15250187 -0.12212074 0.14882658 0.0006446596
-0.14165244 0.006601993 -0.006138055 -0.12500687 -0.13923293 0.32866466 0.0127182845 0.32834333
0.312572 0.005934224 -0.2544672 -0.25838855 0.027569998 0.16264786 0.2770254 0.0016322578
0.31888327 0.17283109 -0.16118476 0.22213586 -0.3059367 -0.45881832 -0.10036007 0.19735155
0.2324812 0.080225915 -0.07121584 0.18231389 0.29374903 0.19773686 -0.19318679 0.21605329
-0.38779518 -0.12221358 0.26387227 -0.052148316 -0.12887393 -0.304509 -0.005566881 0.41240412
-0.2270553 -0.07546933 -0.35293546 0.24231996 -0.032409206 -0.04698945 0.09993491 -0.27016684
-0.29112545 -0.17133425 -0.07721972 0.19506258 0.47078443 0.024776759 0.24994737 0.1241616
-0.31286666 0.32460648 -0.62904525 0.074825615 -0.011389706 -0.02781909 0.108530454 0.12171856
0.061643284 -0.12721466 0.13302837 -0.2729551 -0.1445502 -0.19416308 0.1869038 0.16678286
-0.057198305 0.08350989 -0.2178156 -0.9168108 -0.22920111 0.031639308 -0.3081407 -0.21584815
0.34582928 -0.19908197 0.113435805 -0.17625684 -0.16934825 -0.08842005 0.067002855 0.29282343
0.12054215 -0.4665011 0.24016888 -0.11354648 -0.2723155 -0.59106064 0.21622933 0.31523398
0.19703612 0.04203247 -0.15267554 -0.13232246 -0.5303036 0.029333644 -0.090635315 -0.063577056
00000000: 184f 65bd 97b4 563d da7f 86bd d83a 9f3e
00000010: 4e68 7b3e 2ada 363e b80d 813e 54b7 74be
00000020: c8ab 193e ef49 8c3e e9e0 05be d4a5 72bd
00000030: d9d8 8dbe 52f5 3cbe 41df 993c b27a 853e
00000040: 95ea d2be df82 49be 972b aebe abde a3be
00000050: 7006 9038 f54c a53e 04eb db3e 1018 42be
00000060: dd07 b13d 245c 8fbc 00c6 b4be 48c8 bdbd
00000070: e739 b23e 6861 0fbe 1c96 e03c d02b 883d
00000080: 6bc4 04be 5d4b 3cbf 677c 353e 4c8b 933e
00000090: 1c3e 623e 648f 1bbf 26ba 0b3d 7c35 66bc
000000a0: d4b8 663e b93c 25be c4ab 0dbe 5d35 58bd
000000b0: 7cc8 debe cf5a c73d 0f45 3e3e 9752 b7be
000000c0: 4c15 203e bad1 ad3d 59b2 f1be 6f3c 303e
000000d0: 7b73 e83c 0f41 c23e b5ec 543e 3770 9dbe
000000e0: 9732 6dbe 8101 423d d95c 6a3d e652 893d
000000f0: f60b 243e 8874 8fbe 11c2 c7bc fbce 8b3c
00000100: f5a3 13bf a391 953d 7216 9cbe dd92 793e
00000110: 27a7 613e 8390 83be 9b6a db3d 19ff 593e
00000120: 452b 8cbd 052b 4e3e 61bf c4bd 37a5 803e
00000130: 747c 903c 443f 8cbe ed5e 843e cd73 f2be
00000140: 7ab2 a9be b2e3 d73d 44cf 84be 408c 3a3e
00000150: 8ef1 2f3e 1679 92bd 749b 0a3d e1f2 433d
00000160: 16d0 c1be 7df6 6fbe d937 4ebe 7c4a d13c
00000170: 578d 91bf ef31 933e c7ca b13d 3626 583d
00000180: 030a 78bf 183b 59bf 5850 f43d 0df9 743e
00000190: 1dcf 3a3e 4dbb 023e 56ba 01bd af78 5c3c
000001a0: 2b28 31be b374 223e ab50 03be badd 75be
000001b0: 0f45 a63e 2d23 0b3e fbb2 febd 6f34 af3d
000001c0: d30f 233e f214 703e 51e9 303e c474 983e
000001d0: f1b0 c5bd 44ee 16be df0b c3be 9a2c 8dbe
000001e0: 41df 8b3e a736 babd f101 a0bc 26ab 683e
000001f0: 554e 88be 4335 b33d 6ea2 6fbd 4a7a 04bf
00000200: fb93 c0be d962 103c e76b 5fbe aff4 7bbe
00000210: 7cac 2bbd 05e4 73bd e6c9 183e e541 81bd
00000220: 873a d83d 1a7c b83d 20bf 9fbe e260 053f
00000230: 3c61 fc3c 5759 bb3c 317a 39bd 7e3d dfbe
00000240: 54b4 c53e a933 e0be deb5 0abe 406d b8be
00000250: 7329 1cbe 701a fabd ff65 183e 60fe 283a
00000260: 560d 11be 8855 d83b bd21 c9bb cd01 00be
00000270: 1493 0ebe bc46 a83e 5a60 503c 9e1c a83e
00000280: 7009 a03e e173 c23b 8649 82be 814b 84be
00000290: 7ada e13c 298d 263e 46d6 8d3e 7cf1 d53a
000002a0: ab44 a33e a2fa 303e 9e0d 25be 9577 633e
000002b0: bca3 9cbe 3cea eabe 9589 cdbd 8616 4a3e
000002c0: 8d0f 6e3e 7c4d a43d 9cd9 91bd 7eb0 3a3e
000002d0: 4666 963e 887b 4a3e c2d2 45be 133d 5d3e
000002e0: 178d c6be 1d4b fabd 441a 873e 7999 55bd
000002f0: 87f7 03be 9be8 9bbe 626a b6bb a226 d33e
00000300: 2f81 68be aa8f 9abd f5b3 b4be b922 783e
00000310: 84bf 04bd 0278 40bd adaa cc3d 4f53 8abe
00000320: 650e 95be 3f72 2fbe 5f25 9ebd 7cbe 473e
00000330: a80a f13e a1f8 ca3c 34f2 7f3e 7048 fe3d
00000340: 0f30 a0be d232 a63e 1c09 21bf 2c3e 993d
00000350: e49b 3abc dce4 e3bc 3745 de3d 9547 f93d
00000360: ab7d 7c3d 8f44 02be 9738 083e c5c0 8bbe
00000370: f804 14be b0d2 46be b663 3f3e 20c9 2a3e
00000380: c548 6abd 3c07 ab3d 0d0b 5fbe 1db4 6abf
00000390: b2b3 6abe 3898 013d 9ec4 9dbe 4c07 5dbe
000003a0: 8910 b13e 25dc 4bbe 0851 e83d ac7c 34be
000003b0: a169 2dbe 9215 b5bd cb38 893d f4ec 953e
000003c0: cede f63d 3bd9 eebe d5ee 753e 0f8b e8bd
000003d0: f06c 8bbe c04f 17bf 396b 5d3e 5966 a13e
000003e0: d6c3 493e 3d2a 2c3d fa56 1cbe 8a7f 07be
000003f0: fac1 07bf 1c4d f03c 029f b9bd b034 82bd

conv1.bias f4 [64]
0.08116578 -0.14992006 -0.004647747 -0.2359688 -0.174482 -0.24868692 0.0635395 -0.091519564
-0.33862084 -0.39780036 -0.081184156 -0.27594474 -0.5596764 -0.32563052 -0.16882749 -0.046513185
-0.42269343 -0.12407985 -0.23937379 -0.06764826 -0.21644865 -0.10568155 -0.06393574 -0.20547995
-0.12671216 -0.18966185 -0.034311287 0.15781203 -0.39225453 -0.21156387 -0.0902922 -0.22337599
-0.3436458 0.4953773 0.07548419 -0.12624758 0.03328241 -0.2817943 0.03968357 0.18106793
-0.3688732 0.08008081 -0.14765476 -0.1182167 0.24419357 -0.23018403 0.002382169 0.27800718
0.016312746 -0.29778388 -0.096271016 -0.13346705 -0.37046224 -0.28227428 -0.14493957 0.17561175
0.09934828 -0.2813445 -0.27543914 -0.21506375 0.12820828 -0.44893014 -0.26276293 -0.23209745
00000000: 3f3a a63d a584 19be 214c 98bb cea1 71be
00000010: 69ab 32be c9a7 7ebe ff20 823d 9c6e bbbd
00000020: b65f adbe 7dac cbbe e143 a6bd a148 8dbe
00000030: f446 0fbf 0bb9 a6be 1de1 2cbe 9c84 3ebd
00000040: 466b d8be 941d febd 671e 75be 2c8b 8abd
00000050: b7a4 5dbe 926f d8bd bef0 82bd 5669 52be
00000060: d5c0 01be b736 42be fe89 0cbd 7a99 213e
00000070: 96d5 c8be 33a4 58be 1eeb b8bd adbc 64be
00000080: 58f2 afbe 18a2 fd3e 7497 9a3d 0c47 01be
00000090: 2353 083d 5847 90be 3d8b 223d df69 393e
000000a0: f3dc bcbe 6801 a43d cf32 17be 991b f2bd
000000b0: e10d 7a3e 5db5 6bbe 2a1e 1c3b f556 8e3e
000000c0: 4fa2 853c 2177 98be bd29 c5bd 96ab 08be
000000d0: 3aad bdbe 4186 90be 0a6b 14be 91d3 333e
000000e0: 1c77 cb3d 630c 90be 5c06 8dbe ac39 5cbe
000000f0: 0849 033e 2cda e5be dd88 86be f4aa 6dbe

conv2.weight f4 [128, 64, 2, 2]
0.13754152 0.030436516 -0.11210085 -0.04188291 -0.030224891 0.2024078 0.09539677 -0.01863472
-0.17111145 0.2805456 0.03562107 -0.570072 0.48737347 0.15487736 0.29153168 -0.37197992
0.02638797 0.1202059 0.055965792 -0.05124681 0.101874955 0.038373604 -0.37794384 -0.008399537
0.10569794 -0.14702228 -0.28162095 -0.14743923 -0.054114353 0.5024066 -0.5922244 -0.030247215
-0.112836175 0.004023954 -0.29188278 0.13758613 0.18364541 -0.12684828 -0.13754112 -0.0049164984
0.06392756 0.11410585 -0.44510528 0.015015069 0.064531006 0.13583128 -0.11362764 -0.13893053
0.23844998 0.18977028 0.0944455 -0.21638723 0.022267282 -0.18310888 -0.13385297 0.17992754
-0.30446517 -0.17766967 0.026473014 -0.10192009 0.04715197 -0.31619465 0.18841623 0.14553268
0.25228912 0.29531828 -0.06440214 0.06841602 -0.32735944 -0.39049146 -0.17544143 0.19173709
0.05194543 0.54991543 0.11231297 0.35099277 -0.0030160332 0.3865576 0.15455921 -0.25052094
0.08575182 0.3519715 -0.05489895 0.059658878 -0.19954252 -0.06362878 0.4405016 0.2132921
0.014568076 0.12732185 -0.37500352 -0.025073597 0.25771397 0.6071543 0.27155888 -0.3091151
-0.071469754 -0.13548006 -0.14075202 -0.015388058 0.2578931 0.17814694 -0.22384772 0.11733405
-0.26943102 -0.043781497 -0.27112707 -0.00978989 -0.26322952 -0.30328244 0.53615224 -0.05957691
0.28248614 -0.24223712 0.23799127 0.18207067 -0.43727255 0.24280857 0.10091723 0.06065427
-0.40162972 0.00046994412 0.098202884 0.53564006 -0.04506213 0.43320054 -0.0487685 0.059087854
-0.21856561 -0.3766765 0.2706479 0.28590095 -0.49946707 -0.40346065 0.20354864 0.09407978
0.18252614 0.40538052 0.084186934 0.3515697 0.3624192 0.36280137 -0.091123864 0.32252923
0.017731417 0.20195255 0.15958945 -0.44102734 0.12781844 0.3811806 -0.092601284 -0.025067307
0.048762906 -0.15821438 -0.09482629 0.14060643 -0.3149674 -0.5255021 -0.19148213 0.17531484
0.15489022 0.1346104 0.40929502 0.12958986 0.22205321 0.20903248 0.14337109 0.35944498
-0.06749847 0.24658497 -0.24033917 0.16791707 0.38613373 -0.00028853223 0.025428928 0.09695527
0.08281402 0.104051895 0.026638288 0.15621082 -0.15730505 -0.3070324 0.026366869 -0.2033751
0.011571806 -0.31184486 0.29157546 0.82289255 -0.25154606 -0.13991529 -0.18382391 -0.12849966
0.23335423 -0.11724299 -0.25088942 0.12386661 -0.4865577 -0.24821101 0.05468641 0.24057734
-0.06281325 -0.33210468 0.0030014894 0.37246627 0.035807636 0.59102017 -0.28897306 -0.3001342
-0.19769353 0.37198174 0.05401361 0.08071228 -0.30050492 -0.023980664 0.09016111 0.59201956
0.10681623 0.054526262 -0.31687537 0.15416399 0.32682198 0.13396646 0.13694012 0.060158174
0.10698739 -0.41576162 0.2169496 0.10473888 -0.10072703 0.10322196 0.13738737 -0.30345425
0.2133199 0.1970324 0.13272579 0.28558332 -0.08668294 0.24122138 -0.34205216 -0.1487451
-0.15875956 0.011501212 -0.430661 0.17867795 0.17572734 0.48434106 0.002486104 0.097557284
0.1312556 0.37615556 0.017574884 0.19524257 0.10795668 -0.18604825 0.30267057 -0.6088388
00000000: afd7 0c3e 0056 f93c 2195 e5bd 6a8d 2bbd
00000010: 319a f7bc fe43 4f3e 625f c33d d7a7 98bc
00000020: d737 2fbe aca3 8f3e 66e7 113d 3df0 11bf
00000030: 0489 f93e 2c98 1e3e a443 953e 2774 bebe
00000040: 962b d83c 832e f63d 633c 653d 2de8 51bd
00000050: d1a3 d03d a42d 1d3d db81 c1be 369e 09bc
00000060: 2978 d83d 028d 16be 9f30 90be 4ffa 16be
00000070: 03a7 5dbd b89d 003f 059c 17bf 02c9 f7bc
00000080: a716 e7bd 5fdb 833b a971 95be 61e3 0c3e
00000090: 8b0d 3c3e 84e4 01be 94d7 0cbe 941a a1bb
000000a0: 74ec 823d 54b0 e93d d7e4 e3be c401 763c
000000b0: d528 843d 5b17 0b3e 9cb5 e8bd ce43 0ebe
000000c0: 3b2c 743e 2453 423e a46c c13d 9d94 5dbe
000000d0: e069 b63c e580 3bbe c110 09be ed3e 383e
000000e0: dce2 9bbe 0aef 35be efdd d83c 7bbb d0bd
000000f0: 6d22 413d 44e4 a1be 2ff0 403e 8506 153e
00000100: 0a2c 813e f533 973e 45e5 83bd b31d 8c3d
00000110: a89b a7be 7fee c7be eba6 33be ba56 443e
00000120: bbc4 543d 42c7 0c3f 5804 e63d 53b5 b33e
00000130: a4a8 45bb e1ea c53e c544 1e3e 4844 80be
00000140: a69e af3d 9c35 b43e b9dd 60bd de5c 743d
00000150: e054 4cbe ce4f 82bd 6d89 e13e 3f69 5a3e
00000160: f0ae 6e3c a960 023e 7600 c0be 2567 cdbc
00000170: 16f3 833e 776e 1b3f c409 8b3e 5644 9ebe
00000180: bc5e 92bd 49bb 0abe 4c21 10be 311e 7cbc
00000190: 900a 843e 276c 363e 5638 65be d64c f03d
000001a0: ddf2 89be 3a54 33bd 2bd1 8abe c665 20bc
000001b0: 05c6 86be d647 9bbe 4641 093f eb06 74bd
000001c0: 06a2 903e 020d 78be fcb3 733e bc70 3a3e
000001d0: 30e2 dfbe cfa2 783e b1ad ce3d 9d70 783d
000001e0: 69a2 cdbe d562 f639 981e c93d b51f 093f
000001f0: 1193 38bd 76cc dd3e 7bc1 47bd 1b06 723d
00000200: aacf 5fbe bedb c0be 5d92 8a3e 9c61 923e
00000210: 26ba ffbe 6592 cebe 0e6f 503e e6ac c03d
00000220: 22e8 3a3e 098e cf3e 336a ac3d f200 b43e
00000230: 028f b93e 1ac1 b93e 269f babd 8d22 a53e
00000240: 7a41 913c a6cc 4e3e 6b6b 233e 56ce e1be
00000250: d6e2 023e 1b2a c33e bea5 bdbd f459 cdbc
00000260: 9dbb 473d f302 22be 4934 c2bd 22fb 0f3e
00000270: 6843 a1be 4e87 06bf e413 44be bc85 333e
00000280: 8b9b 1e3e 4fd7 093e 1e8f d13e 34b3 043e
00000290: eb61 633e 9c0c 563e dfcf 123e 2c09 b83e
000002a0: a33c 8abd c580 7c3e 791b 76be 74f2 2b3e
000002b0: 52b3 c53e 2446 97b9 5450 d03c 7c90 c63d
000002c0: 669a a93d 2919 d53d 8a38 da3c bbf5 1f3e
000002d0: 9314 21be 5a33 9dbe 55ff d73c 9041 50be
000002e0: ac97 3d3c 21aa 9fbe 6149 953e 16a9 523f
000002f0: a5ca 80be f445 0fbe 563c 3cbe 6a95 03be
00000300: 69f4 6e3e 181d f0bd 9474 80be c7ad fd3d
00000310: 171e f9be 072b 7ebe dbfe 5f3d e859 763e
00000320: 3ca4 80bd a009 aabe a3b4 443b e6b3 be3e
00000330: 07ab 123d 194d 173f 47f4 93be 31ab 99be
00000340: 2c70 4abe 6474 be3e 603d 5d3d 7b4c a53d
00000350: c8db 99be 1973 c4bc 63a6 b83d 988e 173f
00000360: 78c2 da3d ee56 5f3d 7d3d a2be 2add 1d3e
00000370: 3655 a73e 812e 093e 083a 0c3e 6b68 763d
00000380: 341c db3d b5de d4be 0928 5e3e 5781 d63d
00000390: f949 cebd 0966 d33d 46af 0c3e 5b5e 9bbe
000003a0: 8870 5a3e ddc2 493e 45e9 073e fa37 923e
000003b0: d386 b1bd bd02 773e 7621 afbe a350 18be
000003c0: de91 22be 946f 3c3c 997f dcbe 5af7 363e
000003d0: def1 333e 8dfb f73e e7ed 223b 1dcc c73d
000003e0: de67 063e 7697 c03e 34f9 8f3c abed 473e
000003f0: 6418 dd3d 6f83 3ebe a3f7 9a3e dcdc 1bbf

conv2.bias f4 [128]
-0.16658832 -0.0050082514 -0.1867201 0.07451039 -0.35086697 -0.17012782 -0.18301007 -0.20391625
-0.11491773 0.27719322 -0.21959047 -0.24306615 -0.0066778585 -0.05712093 -0.18249679 -0.23692885
-0.03565281 0.011036465 -0.18255286 -0.17040235 0.09088241 -0.23578891 -0.25090602 -0.16241693
-0.092937015 -0.2320284 -0.13298845 -0.19498436 -0.13624407 -0.24125189 -0.11741623 -0.06664174
-0.3497525 -0.20701134 -0.26300865 -0.028078813 -0.30720198 0.0348284 -0.11424814 -0.3560178
0.00021695603 -0.06547383 -0.12579444 -0.10416751 -0.08842038 -0.04854069 -0.12929931 0.05412193
0.07868859 0.27079782 -0.17975849 -0.21969411 -0.26643196 -0.20352109 -0.1472444 -0.09393351
0.0024112521 -0.29490462 -0.042897236 -0.13611054 -0.13266516 -0.19871165 -0.27979058 -0.25285798
-0.06504373 -0.26843253 -0.18893608 -0.15565795 -0.003258105 -0.2584461 -0.11706214 -0.061399434
-0.18148373 -0.18554589 -0.02955627 -0.0061391336 -0.29791117 0.023454338 -0.2004969 -0.049595375
-0.19050458 -0.060109407 -0.050411783 -0.19310476 -0.30473277 -0.30972642 0.29365155 -0.018403757
-0.2909176 -0.05834662 -0.18952495 -0.21479751 0.34043485 -0.17098722 -0.2708515 -0.19519989
-0.0511391 -0.04274814 -0.041842487 -0.13162316 -0.15621628 -0.18125409 -0.18429203 -0.09580236
-0.26004666 -0.17641278 -0.08767935 -0.25209287 -0.26357567 -0.21139972 -0.27847704 -0.16068947
-0.005855176 -0.15555507 -0.14411525 -0.19343255 -0.09817965 -0.059801593 -0.092343435 -0.06882867
-0.21310852 -0.059103105 -0.20658386 -0.20239072 -0.09457957 -0.07494948 -0.09157675 -0.107746914
00000000: 2196 2abe 421c a4bb 8e33 3fbe e798 983d
00000010: d6a4 b3be fd35 2ebe fe66 3bbe 6ccf 50be
00000020: fd59 ebbd 45ec 8d3e 53dc 60be 55e6 78be
00000030: f0d1 dabb a3f7 69bd 70e0 3abe 7a9d 72be
00000040: ae08 12bd 4ad2 343c 23ef 3abe f47d 2ebe
00000050: 8f20 ba3d a672 71be c176 80be a050 26be
00000060: c355 bebd da98 6dbe 202e 08be fba9 47be
00000070: 9183 0bbe bc0a 77be ec77 f0bd 777b 88bd
00000080: c212 b3be c8fa 53be 12a9 86be 8a05 e6bc
00000090: 9449 9dbe 39a8 0e3d eefa e9bd f747 b6be
000000a0: b17e 6339 2517 86bd 42d0 00be c755 d5bd
000000b0: bf15 b5bd 9ad2 46bd 0a67 04be f5ae 5d3d
000000c0: 7c27 a13d 03a6 8a3e 9c12 38be 7ef7 60be
000000d0: c569 88be d567 50be 3cc7 16be 3660 c0bd
000000e0: 1906 1e3b bdfd 96be 03b5 2fbd 9060 0bbe
000000f0: 60d9 07be 117b 4bbe b640 8fbe 9a76 81be
00000100: a635 85bd fd6f 89be 7678 41be cc64 1fbe
00000110: ee85 55bb 0c53 84be 46be efbd f97d 7bbd
00000120: dfd6 39be beff 3dbe fe1f f2bc c92a c9bb
00000130: d087 98be 5023 c03c 0f4f 4dbe 8524 4bbd
00000140: a213 43be 4835 76bd 967c 4ebd 41bd 45be
00000150: ef05 9cbe 7694 9ebe 7f59 963e 7ac3 96bc
00000160: 27f3 94be defc 6ebd d412 42be e1f3 5bbe
00000170: 7a4d ae3e 4617 2fbe 0cad 8abe 7be2 47be
00000180: 3c77 51bd ac18 2fbd 0763 2bbd 39c8 06be
00000190: 29f7 1fbe ac9a 39be 0db7 3cbe 0734 c4bd
000001a0: d624 85be 8da5 34be 3b91 b3bd 5112 81be
000001b0: 64f3 86be 2b79 58be 8b94 8ebe c88b 24be
000001c0: c7dc bfbb d449 1fbe f392 13be 2f13 46be
000001d0: 6a12 c9bd 84f2 74bd 8e1e bdbd 0cf6 8cbd
000001e0: 1f39 5abe 1916 72bd b88a 53be 833f 4fbe
000001f0: efb2 c1bd 1d7f 99bd 978c bbbd 6aaa dcbd

fc1.weight f4 [128, 768]
-0.041997235 -0.016853403 -0.080376364 0.16032214 -0.17646252 0.0352547 0.24437381 -0.18907388
0.09928972 0.15110157 -0.12367736 -0.14798886 0.012204338 -0.7338816 -0.2339567 -0.002983148
-0.25201127 -0.16458102 0.08707329 -0.07426856 -0.0021442557 0.2365764 0.11480667 0.20857424
-0.11490705 -0.32832375 0.17072159 -0.22171588 -0.09098926 -0.1716251 0.16402677 -0.41744784
0.14359747 -0.5211911 0.0034170833 -0.41614312 -0.16632026 -0.5017682 -0.35545784 -0.14128365
0.18363361 -0.00941109 0.00040148856 -0.3491364 0.013099462 -0.16059895 -0.022238987 -0.36815098
-0.24805903 -0.13178834 0.006271523 -0.2691415 -0.08826413 0.2073567 -0.257925 -0.06711547
-0.003849962 -0.059473593 0.08546251 -0.087499015 -0.01932731 -0.11734846 -0.23055531 -0.33592555
-0.47168437 -0.41522434 -0.0990811 -0.25983542 -0.52060044 -0.5061738 0.114215285 -0.015857693
0.13611147 -0.054330915 -0.0150665715 -0.47076738 0.27311638 -0.037276044 -0.19773673 -0.31168315
-0.12249273 0.20222788 0.1738298 -0.07600689 -0.69025296 0.10149266 0.16162625 -0.009224366
-0.2780087 -0.32366556 -0.23782676 -0.18660711 -0.22239879 0.0012270244 -0.06646648 0.055629328
0.098801725 0.19885713 -0.11606349 -0.2889884 -0.16174388 0.23733267 -0.043318942 0.10491295
0.0212452 -0.20449063 -0.07918707 -0.10544514 -0.44712278 -0.37912637 -0.014391141 -0.27340496
-0.012688058 -0.1483526 -0.25424284 -0.11688379 0.1801226 -0.15773526 -0.93502384 -0.14028758
0.06939766 -0.14074217 -0.20859616 0.02489891 -0.07895088 0.13068336 -0.016034173 -0.15359485
-0.027127087 -0.10226305 -0.21318962 -0.39459124 0.4541644 0.00031983608 0.029729493 -0.13008
-0.31798577 -0.5212887 -0.027885506 -0.8232496 -0.013891056 0.019517861 -0.48975033 -0.026147097
-0.17018518 -0.4624103 -0.27474925 0.23363271 -0.79726857 -0.38553977 -0.5032102 -0.009770351
0.087365046 -0.1213754 -0.2234091 -0.28589776 0.06499021 -0.1928829 -0.13176379 -0.11860438
-0.17295955 0.032955565 -0.84014535 -0.12016946 -0.6277838 -0.59372437 -0.14997452 -0.24499707
-0.25398386 0.24077141 -0.2028796 0.07220142 -0.46987396 -0.17638084 -0.02948716 -0.21942449
0.07410742 -0.67483246 -0.19239911 -0.024133513 -0.10689809 -0.013970675 0.086174786 -0.1776992
-0.11642997 -0.238399 -0.16105273 0.27908832 -0.055566877 0.04695899 -0.12714036 -0.14307874
-0.16943358 -0.08305154 0.015535807 -0.06148649 -0.37356403 0.05154544 -0.14670469 -0.7902898
0.1913887 -0.022049926 -0.8324694 0.020284034 -0.28803116 -0.2263751 0.3527883 0.17799821
-0.4246806 -0.3896371 -0.05249195 -0.36261076 0.050587982 0.035137698 0.12583168 0.07857344
-0.07844343 0.11978555 -0.20931791 0.2550388 -0.24866083 -0.34908724 -0.18570046 0.013300304
0.035596162 -0.17979985 -0.023642663 -0.04076945 -0.19093807 0.13970327 0.0014616668 -0.25750774
-0.00072609115 0.37437126 -0.09212924 5.8789636e-05 -0.027064152 -0.34012356 -0.42196062 -0.4343541
-0.015496479 -0.15426981 0.07533194 -0.41763216 0.009903815 0.03575272 0.028367935 -0.043283086
-0.06045656 -0.5409912 -0.44505948 -0.40757602 -0.20484239 -0.09539772 -0.07352056 -0.1764164
00000000: 4b05 2cbd 2610 8abc 5d9c a4bd 7d2b 243e
00000010: 97b2 34be 3b67 103d 213d 7a3e 959c 41be
00000020: 6958 cb3d 5fba 1a3e 8e4a fdbd 648a 17be
00000030: b4f4 473c aadf 3bbf 5892 6fbe eb80 43bb
00000040: 9f07 81be ed87 28be 7b53 b23d 1d1a 98bd
00000050: a486 0cbb 1541 723e c21f eb3d 7c94 553e
00000060: 6354 ebbd 0d1a a8be a4d1 2e3e 7d09 63be
00000070: 9458 babd 7dbe 2fbe a2f6 273e b9bb d5be
00000080: 370b 133e c86c 05bf 25f1 5f3b b610 d5be
00000090: dc4f 2abe e173 00bf 92fe b5be a9ac 10be
000000a0: 730a 3c3e f930 1abc e27e d239 02c2 b2be
000000b0: 209f 563c 0d74 24be 892e b6bc 497e bcbe
000000c0: 3003 7ebe 86f3 06be 5981 cd3b eacc 89be
000000d0: d3c3 b4bd 5155 543e bf0e 84be d673 89bd
000000e0: a54f 7cbb 959a 73bd f806 af3d af32 b3bd
000000f0: 4f54 9ebc 6454 f0bd b116 6cbe 6ffe abbe
00000100: 9d80 f1be 4998 d4be 08eb cabd 2609 85be
00000110: 1246 05bf 9b94 01bf b4e9 e93d fee7 81bc
00000120: ce60 0b3e 188a 5ebd c8d9 76bc 6c08 f1be
00000130: e9d5 8b3e c4ae 18bd 7f7b 4abe ef94 9fbe
00000140: 78dd fabd d314 4f3e 7000 323e 80a9 9bbd
00000150: 6bb4 30bf 62db cf3d 5a81 253e cc21 17bc
00000160: 2857 8ebe 7eb7 a5be dc88 73be ef15 3fbe
00000170: 82bc 63be 1bd4 a03a 941f 88bd 94db 633d
00000180: 8f58 ca3d 34a1 4b3e b2b2 edbd 4af6 93be
00000190: 30a0 25be 5607 733e 346f 31bd 9adc d63d
000001a0: 6a0a ae3c fe65 51be d52c a2bd 9ff3 d7bd
000001b0: 47ed e4be da1c c2be d2c8 6bbc bcfb 8bbe
000001c0: 93e1 4fbc bee9 17be 1e2c 82be c560 efbd
000001d0: 0f72 383e 5a85 21be b95d 6fbf 8ca7 0fbe
000001e0: 5c20 8e3d b71e 10be 3b9a 55be cdf8 cb3c
000001f0: 00b1 a1bd dcd1 053e 195a 83bc f847 1dbe
00000200: a039 debc 4a6f d1bd 614e 5abe dd07 cabe
00000210: 3c88 e83e acaf a739 448b f33c b133 05be
00000220: 08cf a2be 2d73 05bf 2570 e4bc 7cc0 52bf
00000230: 5097 63bc ece3 9f3c 8ec0 fabe 7032 d6bc
00000240: 0645 2ebe 0bc1 ecbe efab 8cbe 6a3d 6f3e
00000250: cb19 4cbf 7865 c5be 62d2 00bf d313 20bc
00000260: 72ec b23d aa93 f8bd 5bc5 64be 3161 92be
00000270: 9619 853d 1883 45be 16ed 06be dae6 f2bd
00000280: 4f1c 31be 6afc 063d c413 57bf 681b f6bd
00000290: 70b6 20bf 52fe 17bf ec92 19be 83e0 7abe
000002a0: 2c0a 82be c88c 763e abbf 4fbe 57de 933d
000002b0: 5293 f0be 2e9d 34be 0e8f f1bc d0b0 60be
000002c0: a2c5 973d d2c1 2cbf 4604 45be a5b3 c5bc
000002d0: 63ed dabd 42e5 64bc 687c b03d c7f6 35be
000002e0: d672 eebd de1e 74be 02eb 24be aae4 8e3e
000002f0: 189a 63bd 1258 403d 1531 02be 3c83 12be
00000300: ff7f 2dbe ed16 aabd e689 7e3c 42d9 7bbd
00000310: c943 bfbe 5021 533d c139 16be 6f50 4abf
00000320: 66fb 433e 0ca2 b4bc b71c 55bf b42a a63c
00000330: d278 93be e0ce 67be aba0 b43e 2a45 363e
00000340: bc6f d9be 847e c7be cd01 57bd 1ea8 b9be
00000350: 5835 4f3d 8cec 0f3d 05da 003e 1deb a03d
00000360: f3a6 a0bd 2052 f53d 6f57 56be 7294 823e
00000370: f2a0 7ebe 90bb b2be 4328 3ebe 85e9 593c
00000380: 48cd 113d 741d 38be 42ae c1bc defd 26bd
00000390: 4585 43be 600e 0f3e 6695 bf3a 0ed8 83be
000003a0: 2757 3eba 97ad bf3e 41ae bcbd e494 7638
000003b0: a4b5 ddbc ad24 aebe 390b d8be a963 debe
000003c0: f2e4 7dbc e8f8 1dbe a247 9a3d e2d3 d5be
000003d0: 9c43 223c 7271 123d df63 e83c 9b49 31bd
000003e0: 4ca1 77bd 667e 0abf d6de e3be cead d0be
000003f0: 34c2 51be e15f c3bd f391 96bd 80a6 34be

fc1.bias f4 [128]
0.3751002 0.1057195 -0.21429257 0.24430844 0.12004508 -0.016109636 -0.03398768 0.22632843
0.7537303 0.03317997 0.24955769 -0.064153075 0.71191895 0.36552393 -0.051389873 0.65719485
0.17326069 0.48742846 0.028677253 -0.051087547 0.24690124 -0.045767292 0.3326209 -0.18956932
-0.08730428 -0.1719366 0.20179237 0.070992514 -0.04919388 0.24951994 0.0660837 0.12514003
0.55778444 0.24269329 0.5347027 -0.07599494 0.17146626 0.22915223 0.27886254 0.28693065
-0.05962615 0.16275392 0.034545083 0.1281607 0.38838005 0.098939195 0.27439266 0.35784373
-0.019908648 0.4321468 0.046922915 0.056938447 -0.02282183 0.3107393 0.053401805 0.5099431
0.43239164 -0.030743085 0.3759106 0.53701407 0.04597791 -0.04354362 0.31843525 0.3272445
0.19921167 -0.021505227 0.32949212 -0.11344303 0.27388602 0.66924715 0.32455683 0.30296892
0.16120173 0.086254604 -0.11067194 0.7225039 0.55477893 0.49356845 0.6939163 -0.029610164
-0.032749306 0.6859056 0.36801875 0.5199898 -0.04849499 -0.019640563 0.02437074 0.15627162
0.31056887 0.11248447 0.3089632 -0.01930557 -0.08467527 0.58733624 0.31999648 0.032639097
-0.17977802 0.17375892 0.1114577 0.22432649 0.4955351 -0.05463028 -0.06152882 0.1513275
0.10132422 0.7505175 0.14329438 0.52863693 0.41013515 -0.044386953 0.68845004 -0.09399244
0.120864294 0.21747726 -0.032369416 0.06835741 0.43348497 0.29340345 0.18148239 0.5032788
0.2980327 0.08226744 0.39642468 0.39967105 0.30988157 0.7621361 0.3833395 0.35816863
00000000: 220d c03e 7783 d83d 836f 5bbe fe2b 7a3e
00000010: 32da f53d 5bf8 83bc aa36 0bbd a4c2 673e
00000020: 78f4 403f b8e7 073d 0d8c 7f3e b062 83bd
00000030: 5240 363f f425 bb3e 307e 52bd ec3d 283f
00000040: 406b 313e 3990 f93e 8fec ea3c 2d41 51bd
00000050: aed3 7c3e 7c76 3bbd 494d aa3e 761e 42be
00000060: 96cc b2bd 2610 30be a9a2 4e3e 8664 913d
00000070: 867f 49bd 2882 7f3e e456 873d b524 003e
00000080: f6ca 0e3f 9784 783e 47e2 083f 3ca3 9bbd
00000090: da94 2f3e e2a6 6a3e 12c7 8e3e 93e8 923e
000000a0: 8d3a 74bd f7a8 263e 257f 0d3d 8f3c 033e
000000b0: c0d9 c63e a2a0 ca3d 327d 8c3e 4b37 b73e
000000c0: 7617 a3bc 5842 dd3e 3e32 403d 4a38 693d
000000d0: d9f4 babc 3919 9f3e dabb 5a3d a28b 023f
000000e0: 7062 dd3e ecd8 fbbc 5b77 c03e c179 093f
000000f0: 5553 3c3d cb5a 32bd f209 a33e 978c a73e
00000100: 25fe 4b3e bb2b b0bc 31b3 a83e d254 e8bd
00000110: ca3a 8c3e c853 2b3f 502c a63e be1e 9b3e
00000120: 1112 253e 41a6 b03d f8a7 e2bd 04f6 383f
00000130: fe05 0e3f 01b5 fc3e 80a4 313f 0491 f2bc
00000140: 2324 06bd 8297 2f3f f46c bc3e 0d1e 053f
00000150: afa2 46bd 3fe5 a0bc 25a5 c73c ab05 203e
00000160: e202 9f3e 425e e63d 6d30 9e3e b726 9ebc
00000170: 3a6a adbd ab5b 163f 94d6 a33e 93b0 053d
00000180: bb17 38be dced 313e ef43 e43d d8b5 653e
00000190: c7b6 fd3e 00c4 5fbd a505 7cbd 99f5 1a3e
000001a0: 1383 cf3d ea21 403f c3bb 123e c054 073f
000001b0: 3cfd d13e 18cf 35bd 433e 303f 1c7f c0bd
000001c0: b387 f73d 5cb2 5e3e cb95 04bd f8fe 8b3d
000001d0: bef1 dd3e fa38 963e 85d6 393e e1d6 003f
000001e0: be97 983e d57b a83d 2df8 ca3e afa1 cc3e
000001f0: cca8 9e3e 5a1b 433f 1345 c43e e161 b73e

fc2.weight f4 [7, 128]
-0.025222177 0.06773656 0.014643373 -0.13880993 -0.16020988 -0.07163516 -0.014466212 -0.036623836
0.0014613294 -0.11812816 -0.058796786 0.058969036 0.0016664946 0.037569467 -0.0024945624 -0.0028374596
-0.13063993 -0.032750748 0.014890738 0.012618088 -0.19711894 0.0069868183 -0.11922879 0.022125062
-0.15686537 -0.33057484 -0.10171579 -0.38299403 0.039858952 0.0018060298 -0.22195439 -0.06263733
-0.03282977 -0.08703333 -0.08603125 -0.104946144 0.083619416 -0.22228432 -0.20198596 -0.27965283
-0.0040610805 0.0014757692 0.13644193 -0.1808111 -0.060573563 -0.058144487 -0.17737088 -0.03641626
-0.02025492 -0.09175113 -0.14847976 0.011976996 0.011059937 -0.12303808 -0.23742615 -0.01526562
0.049338542 0.031286858 -0.042239312 -0.042754747 0.08658082 -0.049914513 -0.043163154 -0.12785149
-0.11342974 -0.0003639845 0.05307267 -0.027383188 -0.20986533 -0.0058896514 -0.10682417 -0.023809979
-0.35451806 -0.083812505 0.087003246 -0.0026091104 -0.11190257 -0.07635199 -0.0012007307 0.02099354
-0.15464556 -0.0015344719 -0.17480169 -0.1433584 0.14932199 0.07884939 0.16188182 0.0716134
-0.16488539 0.010684597 -0.21656312 0.01180559 0.06516977 -0.03467796 -0.2315963 0.02863889
0.011537966 -0.073279336 -0.28932437 -0.17700405 -0.17137817 0.0033458988 -0.035456818 -0.013112336
-0.15872142 -0.0018481894 -0.12282374 -0.15370429 -0.04273066 0.051575825 0.0021805298 -0.07873942
-0.18362966 -0.27580562 -0.02888627 -0.07419908 -0.005039383 -0.112267435 0.06911219 -0.06206805
-0.05839949 -0.10278018 -0.07440555 -0.096707866 -0.11375342 -0.0005081145 -0.084222056 -0.062187247
-0.19949406 -0.322701 0.014616976 -0.14324605 0.118138775 0.033270866 -0.039238557 -0.028508477
0.0001963356 0.021153161 -0.112105206 0.04269573 0.0030547483 0.00844008 0.034834146 -0.0010692925
-0.2901927 -0.042731363 -0.16893516 0.00866965 -0.22331102 -0.0014625713 -0.251383 0.00521714
-0.34752628 -0.26000634 -0.1542546 -0.13682371 -0.004412227 -0.0003093941 -0.1354224 0.043311052
-0.028665094 -0.06872211 -0.04049566 -0.10700007 0.06659533 -0.28952235 -0.0056408043 0.021143675
-0.008939083 -0.20441678 -0.13429669 -0.22886138 -0.07312303 -0.13396649 -0.213607 0.015660834
-0.043983992 0.003496935 0.045201212 -0.16874936 0.016544199 -0.14351176 0.066938676 0.020825109
-0.05500701 0.028822098 -0.14570539 -0.07571017 0.0019703936 0.047040977 -0.16583495 0.034336735
-0.16899802 0.041152857 -0.18402614 0.018347718 -0.0141293965 0.0006194525 -0.2039814 -0.07749924
-0.09115268 -0.15395924 -0.36754787 0.0009253106 0.07738514 0.01702372 0.0017661725 0.0021850052
-0.21016376 0.003257233 0.016808579 -0.031472836 -0.1858827 0.00078246114 0.08125514 -0.012864592
-0.08313119 0.06400861 -0.11945709 -0.064343825 -0.0264611 -0.07443792 -0.2909875 -0.22518305
0.013435725 -0.058420844 0.03874523 -0.19246343 -0.06296122 -0.0057570813 0.033680998 -0.25982055
-0.23841535 -0.0016693852 -0.045907572 0.05827211 -0.13757923 -0.10339858 0.0025795973 -0.15674108
-0.1886275 0.049254928 0.032795206 -0.28322184 -0.03914435 -0.11611878 -0.25923264 -0.21318935
-0.033317525 0.009305819 -0.073844984 0.027183333 -0.29749542 -3.2550728e-05 -0.04828519 -0.1877811
00000000: bd9e cebc 77b9 8a3d c2ea 6f3c 3124 0ebe
00000010: 0f0e 24be 74b5 92bd b103 6dbc e002 16bd
00000020: 148a bf3a 2ded f1bd e6d4 70bd 8489 713d
00000030: 486e da3a 71e2 193d d07b 23bb acf4 39bb
00000040: 79c6 05be a625 06bd 48f8 733c 19bc 4e3c
00000050: 8cd9 49be aef1 e43b 392e f4bd 9e3f b53c
00000060: 51a1 20be 1b41 a9be 5e50 d0bd cb17 c4be
00000070: 2443 233d 4eb8 ec3a 0348 63be 0048 80bd
00000080: 8278 06bd 883e b2bd 2731 b0bd 01ee d6bd
00000090: a840 ab3d 809e 63be 68d5 4ebe a82e 8fbe
000000a0: d012 85bb 996e c13a 6fb7 0b3e 8c26 39be
000000b0: fc1b 78bd ea28 6ebd b6a0 35be 3729 15bd
000000c0: a5ed a5bc 04e8 bbbd 140b 18be 2a3b 443c
000000d0: bd34 353c 64fb fbbd d71f 73be a71c 7abc
000000e0: 3617 4a3d a626 003d 2103 2dbd 9a1f 2fbd
000000f0: 4951 b13d 2973 4cbd d9cb 30bd 80eb 02be
00000100: da4d e8bd 2cd5 beb9 ba62 593d b552 e0bc
00000110: f0e6 56be fafd c0bb a1c6 dabd 250d c3bc
00000120: 6483 b5be e4a5 abbd c22e b23d 9cfd 2abb
00000130: 2d2d e5bd 6f5e 9cbd d661 9dba a5fa ab3c
00000140: 685b 1ebe 5520 c9ba 37ff 32be 8bcc 12be
00000150: dde7 183e ca7b a13d 59c4 253e 0caa 923d
00000160: b7d7 28be 730e 2f3c b9c2 5dbe 3c6c 413c
00000170: ba77 853d 7a0a 0ebd 9527 6dbe 1b9c ea3c
00000180: bd09 3d3c 7a13 96bd 5322 94be 8d40 35be
00000190: c27d 2fbe de46 5b3b 2b3b 11bd 20d5 56bc
000001a0: de87 22be f23e f2ba 038b fbbd a864 1dbe
000001b0: 5806 2fbd 2c41 533d 38e7 0e3b 2242 a1bd
000001c0: 6a09 3cbe 6536 8dbe e6a2 ecbc b0f5 97bd
000001d0: 6921 a5bb 78ec e5bd b18a 8d3d 113b 7ebd
000001e0: 4e34 6fbd 6a7e d2bd f061 98bd c60e c6bd
000001f0: 8ef7 e8bd fd32 05ba 9d7c acbd 0eb8 7ebd
00000200: 2c48 4cbe 1139 a5be 0a7c 6f3c 18af 12be
00000210: bef2 f13d 0847 083d 9cb8 20bd 9c8a e9bc
00000220: 70df 4d39 6549 ad3c 6a97 e5bd b8e1 2e3d
00000230: 2c32 483b 4348 0a3c 40ae 0e3d 8127 8cba
00000240: 2394 94be 1507 2fbd 57fd 2cbe 260b 0e3c
00000250: a5ab 64be c0b3 bfba 46b5 80be 8bf4 aa3b
00000260: f7ee b1be 8d1f 85be ebf4 1dbe 841b 0cbe
00000270: 7194 90bb 2c36 a2b9 2bac 0abe ee66 313d
00000280: 0fd3 eabc 2dbe 8cbd c7de 25bd da22 dbbd
00000290: 2263 883d 463c 94be 7fd6 b8bb 8035 ad3c
000002a0: 3b75 12bc a252 51be 1285 09be a35a 6abe
000002b0: 87c1 95bd 832e 09be cbbb 5abe 264b 803c
000002c0: 8f28 34bd d52c 653b e824 393d a2cc 2cbe
000002d0: b387 873c bff4 12be 2517 893d 6b99 aa3c
000002e0: 084f 61bd 521c ec3c cb33 15be ef0d 9bbd
000002f0: b821 013b 0aae 403d a3d0 29be ada4 0c3d
00000300: d10d 2dbe e68f 283d 5971 3cbe f44d 963c
00000310: fc7e 67bc c162 223a 80e0 50be ecb7 9ebd
00000320: 42ae babd 7ea7 1dbe 3c2f bcbe 8b90 723a
00000330: 1a7c 9e3d 5475 8b3c ea7e e73a 4e32 0f3b
00000340: 2b35 57be 4d77 553b 25b2 893c a9e9 00bd
00000350: 0958 3ebe 141e 4d3a 1869 a63d 02c6 52bc
00000360: af40 aabd f216 833d eba5 f4bd b2c6 83bd
00000370: f3c4 d8bc e872 98bd 50fc 94be 6396 66be
00000380: 8421 5c3c b24a 6fbd 51b3 1e3d 2215 45be
00000390: d0f1 80bd e6a5 bcbb 16f5 093d 3307 85be
000003a0: 2723 74be 46cf daba 9409 3cbd bcae 6e3d
000003b0: 92e1 0cbe a2c2 d3bd 760e 293b bc80 20be
000003c0: 9127 41be 89bf 493d 4454 063d 7402 91be
000003d0: d355 20bd afcf edbd 24ba 84be 4f4e 5abe
000003e0: f577 08bd 6f77 183c 0a3c 97bd 95af de3c
000003f0: 5251 98be 1487 08b8 b1c6 45bd b049 40be

fc2.bias f4 [7]
0.956537 0.96686417 0.93929243 0.9215999 0.9320146 0.9295741 0.93511504
00000000: 9cdf 743f 6984 773f 7875 703f f9ed 6b3f
00000010: 8298 6e3f 91f8 6d3f b363 6f3f
