trained_models/dql_alphabeta_1.pt (torch, 536552 bytes, 8 tensors)

conv1.weight f4 [64, 1, 4, 4]
000000 ec b4 3a 3e 81 39 25 3e 5c c4 1e 3e 8b 23 59 bd
       0.18233079 0.16135217 0.15504593 -0.053012412
000010 75 0f 2f be 38 c7 3e bc 8c b8 bc 3d 89 f6 99 be
       -0.1709574 -0.011644177 0.09214887 -0.30070904
000020 21 07 4b be 6b 06 84 be c2 f1 58 3b fc 44 d5 bd
       -0.19826938 -0.25786147 0.0033103083 -0.10413548
000030 d7 55 cb bd d4 c3 41 be 46 eb a2 3d 78 33 a4 3e
       -0.09928482 -0.18922359 0.07955031 0.32070518
000040 8f b9 47 3e 9d c1 e4 be 6c 70 6a 3d c0 6d e6 3d
       0.19504379 -0.44678965 0.05723612 0.11251402
000050 c1 c1 ac 3d da 30 3d 3e a8 3b a2 3d 7c 66 1e be
       0.08435393 0.18475667 0.07921535 -0.15468782
000060 e1 7b d0 be ed ac a1 3d cd bf d5 3b d2 be 00 3e
       -0.40719512 0.07894311 0.0065231086 0.12572792
000070 78 09 33 3e 9c ec 3d be f7 ac 22 be f1 78 ac 3d
       0.17484081 -0.1854729 -0.15886293 0.08421505
000080 3e 35 83 3e 41 4b b5 be 62 0f 64 be db 62 6a 3e
       0.25626558 -0.35408977 -0.22271493 0.22889273
000090 71 f1 43 3e d1 61 ca 3d 6f 6b 16 be 3c 86 33 3e
       0.19135071 0.09881938 -0.1468942 0.17531675
0000a0 0b b9 8c bd bd 83 de bd 86 d2 41 3e 82 07 83 3d
       -0.06871232 -0.10864971 0.18927965 0.063979164
0000b0 09 1d 68 be 6c 7f 2b 3e 4d 66 c6 3d 08 e1 53 be
       -0.22667326 0.16747826 0.09687481 -0.20691311
0000c0 bf 74 ab bb 72 24 9b 3d 95 d7 9d bc ec c6 42 3e
       -0.005232423 0.07575311 -0.019267837 0.19021195
0000d0 ca bd bd be 4f dc 20 3d 4f 8e e3 3d 61 ab 03 be
       -0.3705886 0.039272603 0.111111276 -0.12858345
0000e0 ec 7f 8a bd 25 46 44 be 58 3e df 3d 6b 03 0d be
       -0.067626804 -0.19167383 0.10900563 -0.13770835
0000f0 87 0c 74 3e b0 2c c3 be 41 d0 e4 3d ba 40 b6 be
       0.23832904 -0.3812003 0.11172534 -0.35596257
000100 f3 90 48 bd ab 2b 9d be 45 f5 d3 3c e4 fb 2d be
       -0.04896636 -0.3069738 0.02587379 -0.1699062
000110 ff cf f9 3d cf 0a f0 bd ad ed fc 3d b3 b1 75 be
       0.12197875 -0.117208116 0.123500206 -0.23993568
000120 f1 86 e6 3d da 1d c8 be 79 9e d5 bd 21 15 d5 3e
       0.11256207 -0.39085275 -0.10430617 0.41617683
000130 47 23 59 be 49 44 74 be 96 aa 3d bd 04 69 da be
       -0.21204863 -0.23854174 -0.04630526 -0.42658246
000140 80 cd 7d 3d b2 91 6e bd e3 aa c6 be 01 90 d0 be
       0.06196356 -0.058244415 -0.3880225 -0.40734866
000150 98 3d d7 3d 93 cd 70 3e 46 4d 9a 3e f5 01 04 3e
       0.10509795 0.2351592 0.3013708 0.12891372
000160 f7 26 ef bd 9d 47 82 be fb f3 84 3d 81 65 a2 3e
       -0.11677354 -0.25445262 0.06491848 0.31718066
000170 79 8c f0 be ad a6 00 3e ab c4 a0 be 05 f1 7f be
       -0.46982172 0.12563582 -0.31400046 -0.24994285
000180 0a b7 81 3e 87 ef 8d 3e 76 55 60 be bc fa b2 be
       0.2533496 0.27721807 -0.21907601 -0.3495692
000190 c3 4b d2 bb 57 d9 9f bd 7a c0 ad 3e 3d e6 65 bc
       -0.006417723 -0.07805126 0.3393591 -0.014031944
0001a0 c9 39 77 bd a5 83 7a be 54 54 68 be c3 37 0f be
       -0.060357843 -0.24464281 -0.22688419 -0.13986115
0001b0 c1 fa 8b 3d cc 03 55 3e 26 b8 43 3d 6f 76 a5 be
       0.06834937 0.2080223 0.04778304 -0.3231692
0001c0 02 0c 31 bf db 99 d9 bd 40 f6 76 be bc 70 70 bd
       -0.6915895 -0.10625049 -0.24117374 -0.058701262
0001d0 75 d8 c6 be 19 c8 2e 3e f0 9a 92 3e 5e 22 29 3b
       -0.3883702 0.17068519 0.28633833 0.0025807838
0001e0 42 51 1d 3e 4e b2 e1 bd e9 f8 0d 3d 5f 85 9c be
       0.15363029 -0.11020337 0.034661207 -0.30570504
0001f0 21 96 c3 bd f0 6b 50 be f7 bf 00 3d 14 2c be 3e
       -0.09550119 -0.20353675 0.031433072 0.37143004
000200 4c 6d 90 bd 80 ea 44 bd c2 4f 0f be 88 2b cb 3d
       -0.07052097 -0.0480752 -0.13995269 0.09920412
000210 48 ac 20 bd 38 ad 1c be 74 ba 69 be 58 42 0b be
       -0.0392268 -0.15300453 -0.22825032 -0.13599527
000220 28 3e 5d be 58 39 6d 3d f6 48 68 be 20 98 26 3d
       -0.21605742 0.057916015 -0.22684082 0.04067242
000230 e8 9b 2a bd 02 e9 78 be 28 d2 99 bd d0 86 33 be
       -0.04165259 -0.24307635 -0.07510787 -0.17531896
000240 3f dd be 3e 85 52 45 bd 03 38 3f 3e 7b 97 fd bd
       0.37278172 -0.0481744 0.1867371 -0.12382408
000250 52 50 ed 3c e8 e9 c3 3d 57 ef 82 bc 95 8f 96 bc
       0.028968964 0.095660985 -0.015983267 -0.018379012
000260 9c 74 66 3d 67 06 0e 3d 14 1c 17 be 3a ea 08 3d
       0.05626355 0.034674075 -0.14756805 0.0334265
000270 da 34 f6 3c 61 77 86 bd 3d b2 09 3e fc 35 30 3e
       0.030054498 -0.065657385 0.13446899 0.17208093
000280 73 da 55 3d 88 0c 6c bf 0b d3 25 be 8c 64 5a 3e
       0.052210283 -0.9220662 -0.16193788 0.21327418
000290 4f c9 3e 3b d7 78 96 3e 5a e1 c5 3d 6c 6e 83 bd
       0.0029111688 0.29389068 0.09662123 -0.06417546
0002a0 36 50 82 3d 2f cf 87 3e 02 fe 2c be 9e 2f 0a bd
       0.06362955 0.26525256 -0.16893771 -0.033736818
0002b0 42 aa 08 bd af ee b5 be 0e c1 89 bd 95 36 f1 bd
       -0.033365496 -0.35533664 -0.067262754 -0.11777989
0002c0 d7 37 7d 3c 08 b8 b6 bf dc cc 2f 3c 57 05 69 3d
       0.015455208 -1.4274912 0.010729995 0.056889858
0002d0 59 44 49 bd c6 55 4d 3e 49 c0 9e 3d 49 39 98 3c
       -0.049137447 0.20052251 0.07751519 0.018582003
0002e0 17 3a 90 bb 1b 0e de 3d a8 2b 4d be 2c 95 da bd
       -0.004401456 0.10842534 -0.20036185 -0.106729835
0002f0 e7 0f 96 bd 40 fd 7c 3e ec 87 8f 3d a8 df 07 3e
       -0.07327252 0.24705982 0.07008347 0.13268912
000300 23 61 97 3d 0c cf c6 3c 7c a2 b2 be bc e2 87 be
       0.07391574 0.02426865 -0.3488959 -0.26540172
000310 bb ef 43 3e 91 8b 56 bd 9a b9 93 3e 5a 4a a1 3e
       0.19134419 -0.052379195 0.2885254 0.31502038
000320 4d fd c2 bd d8 2f 01 be 75 26 88 be 06 7d dc be
       -0.095209695 -0.12615907 -0.2659184 -0.43064135
000330 50 a7 99 be 1c bd 29 3e 93 4f b5 3d 33 f5 60 3e
       -0.30010462 0.16576046 0.08853068 0.21968536
000340 f7 13 9c bf c6 36 47 be 52 32 31 3d 49 0c 98 3d
       -1.2193593 -0.19454488 0.04326088 0.07424218
000350 c4 e4 69 3e bd 0f 47 bd 59 68 a5 bd 1a c7 9c 3d
       0.22841173 -0.048598994 -0.08076543 0.07655163
000360 64 8a e5 3d 1f 74 29 be 1c d1 f0 bd 2f 7f ad bd
       0.112080365 -0.16548203 -0.117586344 -0.08471524
000370 1b d7 e4 3e 0a fc 0d be d1 ab 55 be 71 d2 86 3d
       0.44695362 -0.13865677 -0.20866324 0.06583107
000380 b0 78 9d 3c a0 bc 81 3d e0 5d 25 bd 70 3e 0b be
       0.019222587 0.063348055 -0.04037273 -0.13598037
000390 ea 25 48 be 43 4b d3 3e d8 e2 c0 3d 29 a8 c3 be
       -0.19545713 0.41268358 0.09418267 -0.38214234
0003a0 01 82 cb bd 19 7b a6 be 70 00 a3 be 69 0c 80 3e
       -0.09936906 -0.3251579 -0.3183627 0.25009468
0003b0 78 88 96 3e db 60 22 be 89 e4 28 3e 2c 06 25 be
       0.29400992 -0.1585726 0.16493429 -0.16115636
0003c0 a4 49 b3 be e8 ec 05 3e d5 e5 ca bc c1 ed 47 be
       -0.3501712 0.13078654 -0.024767796 -0.1952429
0003d0 ff de 3a 3d 53 8c 5b 3e 42 34 27 be a5 84 7e 3e
       0.045622822 0.21440248 -0.16328529 0.24855287
0003e0 22 fc 8d 3e 17 e8 14 3e d4 60 0f bd 96 f8 89 bd
       0.27731425 0.1454166 -0.035004452 -0.06736867
0003f0 bd 8f 26 3d 37 d0 94 be e3 8a 71 3d ee 07 71 bc
       0.040664423 -0.29065105 0.058970343 -0.014711363

conv1.bias f4 [64]
000000 dd 4e 33 be c6 77 11 be eb d3 d4 be 49 b3 e6 bc
       -0.17510553 -0.14205846 -0.4156793 -0.028161662
000010 70 f9 95 3e 9b c1 5c 3e 2b 65 87 be da b2 f7 bd
       0.29291868 0.2155823 -0.26444373 -0.1209466
000020 f4 6e cb bd 4f 99 94 be f7 5e 52 bd b6 c7 0e 3e
       -0.09933272 -0.29023215 -0.051360097 0.13943371
000030 af 32 1b be 6c 92 b7 bd 8a a3 97 3c 61 90 a3 be
       -0.15156053 -0.08963475 0.018510599 -0.3194609
000040 cc e1 f6 bd e0 69 81 3e df b9 ab be 9f 7d 37 3e
       -0.12054786 0.2527609 -0.33540246 0.17919014
000050 19 32 41 bc be 57 5a be 6d 35 d7 be bb 0f 12 be
       -0.011791729 -0.21322533 -0.42032948 -0.14263813
000060 b4 9a 91 3e a6 2b 81 be cf df 9e be 7f e2 89 be
       0.28438342 -0.25228614 -0.31030127 -0.26930615
000070 ee 42 0d bb 42 10 af be 27 06 82 be 25 86 9f bd
       -0.0021554786 -0.3419209 -0.2539532 -0.07789258
000080 db ce d5 3c ee ca 2e be 9e f3 4f be 51 19 cb be
       0.026099613 -0.17069599 -0.20307776 -0.39667752
000090 12 a6 ed 3d 90 f6 f9 be df db 3f be 71 5f 64 bd
       0.11603941 -0.48820925 -0.18736218 -0.055755083
0000a0 6c 98 94 3d 76 58 1f 3d 08 e1 49 be 20 ab a3 be
       0.07255635 0.038902722 -0.19714749 -0.31966496
0000b0 68 26 67 3d 49 e9 9f bd 68 2d 30 3c fa cd 3e bd
       0.05643311 -0.078081675 0.010753013 -0.046583153
0000c0 84 11 f2 be 05 4b 38 be 30 a1 4c be f6 19 f0 bd
       -0.47278988 -0.17997368 -0.19983363 -0.11723702
0000d0 74 c8 b2 bd a7 e9 77 be e9 5c 87 be 62 c8 65 be
       -0.0872964 -0.24210225 -0.26438072 -0.22439721
0000e0 26 5c d5 be b9 14 85 39 26 3e a4 be d5 72 a3 3c
       -0.41671866 0.00025383176 -0.32078665 0.019952217
0000f0 e1 2b 2d 3d bc c8 dc be eb 77 11 be 15 c8 de be
       0.042278174 -0.43121898 -0.14205901 -0.43512025

conv2.weight f4 [128, 64, 2, 2]
000000 ae 64 52 be bb 28 39 3d b1 40 cb be 72 4a 0d 3d
       -0.20546219 0.04520486 -0.39697793 0.034494825
000010 5f 96 47 bf 65 0e df bc d9 1e 38 be 50 57 35 be
       -0.77963823 -0.027228544 -0.17980517 -0.17709088
000020 31 e2 2b be aa 66 0d bd a5 f1 95 3e ad 3b 25 3e
       -0.16785504 -0.034521736 0.29285923 0.16136046
000030 88 8a ab be b2 f2 96 bd 61 98 9c be 57 5d f4 bc
       -0.33504128 -0.07370509 -0.30585006 -0.029829664
000040 ef 44 6c be cb da 02 3e 82 6e d1 bd b2 c6 a8 be
       -0.23073171 0.12778775 -0.10226156 -0.32964092
000050 f1 ac 16 bd 7c c8 92 be 5f 92 de 3d dc 84 15 be
       -0.036786024 -0.28668582 0.10867762 -0.14601463
000060 78 a8 fb bd 24 ea de 3d b8 38 89 bd 27 e5 be 3d
       -0.12287992 0.108845025 -0.06700271 0.09321051
000070 ac 8d 65 bd 8a d6 3b be 27 7d be be cd fe d9 bd
       -0.056043312 -0.18343559 -0.3720486 -0.106443025
000080 f2 cc 10 bd e0 a3 88 3b 60 4f 0b bd 2c ac fc 3c
       -0.0353517 0.004169926 -0.034011245 0.030843817
000090 9a 58 12 be d3 00 d2 bd 3e b5 3c 3d 19 1e e9 bd
       -0.14291611 -0.102540635 0.046071284 -0.11382694
0000a0 1c 26 39 3e 5c eb 86 3d 9c 18 0e be 89 25 af be
       0.18080944 0.0658786 -0.13876575 -0.34208325
0000b0 0c b9 e9 bd 04 ff 9a bc a0 84 a3 3d ee 6f 81 bd
       -0.11412248 -0.018920429 0.079842806 -0.06320177
0000c0 15 15 83 bc 86 d9 14 3d 3a 37 25 3e 93 2a ca 3c
       -0.016001264 0.03634026 0.16134349 0.024678504
0000d0 6c dd c9 3e 3f 1f 47 be ab 42 9d 3c 28 23 69 be
       0.39426744 -0.19445513 0.019196829 -0.22767317
0000e0 98 4c 0e bf 5a a4 f3 bc 12 79 8d bd 21 62 0b be
       -0.5558562 -0.029741455 -0.06907858 -0.13611652
0000f0 de c6 34 3e 69 6e 24 be 33 e3 21 be f3 53 f5 bd
       0.17653987 -0.16057743 -0.15809326 -0.11978903
000100 c1 2b 20 3e 74 65 6d be ad 00 48 be 7f 92 15 be
       0.15641691 -0.23183233 -0.19531508 -0.14606665
000110 38 42 77 be fb be 0d bd d4 85 2d be 07 a6 d8 be
       -0.24146354 -0.03460596 -0.16945583 -0.4231417
000120 79 d4 43 3e e5 b9 94 be 03 94 74 be e0 ee 5a be
       0.1912402 -0.29048076 -0.23884587 -0.21380186
000130 3d 27 3b be 4d ed e2 3b 2c 13 38 bd 7e 5d 00 be
       -0.18276687 0.006925261 -0.04494016 -0.12535664
000140 f4 cd 52 bd bf 6a e2 3d 06 e6 6c bf 0f 4a 28 be
       -0.051465943 0.110555165 -0.9253849 -0.16434501
000150 1d 85 d0 bc 41 d2 25 3e 4a 1b 03 3e b6 e3 75 3c
       -0.025454098 0.16193487 0.12803379 0.015007904
000160 1a 62 01 3e a1 50 f4 bd 7a 2f 3b 3e 80 31 8a be
       0.12635079 -0.11929441 0.1827983 -0.2699089
000170 e0 72 3e be df 27 59 be b0 ca d1 be a7 a0 bb be
       -0.18598509 -0.21206616 -0.4097495 -0.36646006
000180 a8 bd bf be 8a 90 91 bc 2e 7f dc 3e 37 9e 9c bd
       -0.37449384 -0.017769117 0.4306578 -0.076473646
000190 6a 28 be be ad 72 a0 bd 12 24 12 bc fb c8 43 3e
       -0.37140208 -0.07834373 -0.008919733 0.19119637
0001a0 16 d1 07 bf 42 e3 fc 3b d4 2b 18 bf db 24 8d 3d
       -0.53053415 0.007717521 -0.59441876 0.06891795
0001b0 7f f1 a8 3e 60 15 06 bd a8 f1 80 bd e2 e8 36 3e
       0.32996747 -0.03273523 -0.06296092 0.17862275
0001c0 b1 e0 11 bc 56 09 2c be d3 79 d1 be 6f 5b 93 3c
       -0.008903668 -0.16800436 -0.40913257 0.017987935
0001d0 71 00 af 3d 76 95 b4 3d 24 22 81 3d 51 52 29 3d
       0.08545006 0.0881757 0.0630534 0.04133827
0001e0 a1 09 d7 3d 91 7b 85 3d 74 31 26 3f dd ed 0f bf
       0.104998834 0.06517709 0.6491921 -0.56222326
0001f0 37 18 92 be ba 1a 65 bc 0b 52 e7 be 46 2e e9 3d
       -0.285341 -0.013983423 -0.4517978 0.11385779
000200 ff c7 b6 bd f8 28 98 be cf 6f 99 3e 02 3c 0f 3e
       -0.08924865 -0.29718757 0.29968116 0.13987735
000210 a3 9b b9 bd 36 79 43 bd a7 d2 9d 3e 94 af cf 3d
       -0.090628885 -0.047723018 0.30824777 0.10140911
000220 a6 65 d1 3c 41 55 a9 3c ef 01 15 be d1 da dc 3c
       0.025561165 0.020670535 -0.14551519 0.026959809
000230 f9 0f a3 bd e7 30 81 be e3 e6 aa be 28 32 66 be
       -0.07962031 -0.25232622 -0.33379278 -0.2248007
000240 79 fc ac bd ee 96 12 be 2b 70 ef be 82 9d c4 bc
       -0.08446593 -0.14315388 -0.46765265 -0.024000887
000250 ce d3 01 bd c2 8c 3c bd 27 54 01 3d 69 30 fa bc
       -0.031696133 -0.046032675 0.031574395 -0.030540662
000260 09 41 8f 3d 1c ba 4b 3e bf 24 6e bc 2b ea 31 bd
       0.06994826 0.19895214 -0.014535128 -0.04343621
000270 88 f3 23 bf 70 f7 44 3e 27 d8 c8 bc b9 14 d8 3c
       -0.64043474 0.19235015 -0.024517132 0.026377069
000280 ad 91 07 3e 65 10 9a bc b7 e9 75 bd 45 25 72 be
       0.13239165 -0.018806646 -0.06003734 -0.2364703
000290 8d 70 d6 be 01 1d 42 be c1 d1 da 3d 13 99 0f be
       -0.41882744 -0.18956377 0.10684539 -0.14023237
0002a0 f0 ee 21 be e3 7e 6a be 73 e2 0f be 3c f7 d3 bd
       -0.15813804 -0.22899966 -0.14051227 -0.103498906
0002b0 f4 ea b8 3d aa cd 19 be 1d 77 5d bd 68 20 7a 3d
       0.09029189 -0.15019861 -0.054068673 0.06106606
0002c0 40 a6 91 be ef ac 91 bd 84 22 12 be a7 bb 1c be
       -0.2844715 -0.071130626 -0.14270979 -0.15305959
0002d0 3f 87 3b 3d 80 f3 dc bc 39 d7 b0 3e a3 34 84 3c
       0.045783278 -0.026971579 0.34539202 0.01613838
0002e0 49 d4 86 be 85 19 8a be 1d b3 ac 3e 35 c5 05 be
       -0.26333836 -0.26972595 0.33730403 -0.1306351
0002f0 2d 82 26 3e e7 f9 1c 3e 05 95 92 bd 35 30 6d be
       0.16260596 0.15329705 -0.071573295 -0.23162921
000300 cc 14 0c be 9d 04 73 be 6d 45 53 bd b4 c2 cf 3c
       -0.13679808 -0.23732229 -0.05157988 0.025361396
000310 11 60 33 be 60 2e 62 3d e2 2c a0 3e ab 28 8a bc
       -0.17517115 0.055220008 0.31284243 -0.016865095
000320 95 0c 95 bd 99 e2 80 bd 9b 21 d7 bd 9e 28 61 be
       -0.072777905 -0.0629322 -0.105044566 -0.2198815
000330 09 a8 87 be 3c 14 16 bd 6b ea fa 3d 10 de 81 bd
       -0.26495388 -0.03664039 0.12251743 -0.06341183
000340 d6 fb cc be 24 21 a7 3d 41 41 5c bc e0 41 8e 3d
       -0.40035886 0.08160618 -0.013443292 0.069461584
000350 6a 6a a3 3e 2f 0f 31 bc 9e f5 fd ba fe a7 63 be
       0.31917125 -0.010806843 -0.0019375568 -0.22232053
000360 80 4a 47 3c 48 52 ba 3d d4 79 ea 3c d1 62 f8 3d
       0.012163758 0.09097725 0.028622545 0.12128223
000370 ce 9f cf bc 8f f0 25 be 84 1d 0c bc 1e ce 05 be
       -0.025344756 -0.16205047 -0.008551959 -0.13066909
000380 b4 29 8a be ee 90 a1 bb f7 94 3b be 6b 32 40 3d
       -0.26984942 -0.004930607 -0.18318544 0.046923082
000390 5e 23 04 3e f6 3b 52 be 69 55 8c bd 48 87 b6 be
       0.12904117 -0.20530686 -0.06852228 -0.35650086
0003a0 82 b7 d8 be d8 a7 01 be 73 eb 72 be 1b d6 b3 bd
       -0.42327505 -0.12661684 -0.23722629 -0.08781072
0003b0 2e 36 e1 be dd d2 a6 ba 5f 96 65 bd ba 35 a2 3d
       -0.43986648 -0.0012727637 -0.05605161 0.07920404
0003c0 1c 6b f6 be ff e6 2e 3d 02 71 1f 3e 13 86 ee 3d
       -0.48128593 0.042700764 0.15570453 0.116466664
0003d0 ba fe 88 3d 66 65 27 3c ee 77 cb 3d 6d 91 8f 3d
       0.0668921 0.010217046 0.09934984 0.0701016
0003e0 1b e0 4a be b3 ba 47 3e bd af fa 3d c6 fd 3d be
       -0.19812052 0.19504814 0.12240551 -0.18553838
0003f0 ef 0d 56 be 35 2c fd 3d 06 f7 25 be 07 a0 90 ba
       -0.20903753 0.123619474 -0.16207513 -0.001103402

conv2.bias f4 [128]
000000 e1 e7 c9 bd 8f 73 f8 bd 11 ba 9c 3b 37 3f 10 bd
       -0.098586805 -0.12131416 0.004782923 -0.035216536
000010 fe 43 89 bd 08 1a 96 bc a7 ad b5 3d 52 91 87 3d
       -0.067024216 -0.01832296 0.08871012 0.066195145
000020 99 7e 38 bd a1 cb 33 bd a0 06 32 3c 9d 32 12 3c
       -0.045042608 -0.043895368 0.010865837 0.0089232
000030 83 e3 8c bd 4f 6d 87 bd 64 c0 12 be ff 29 9b bc
       -0.06879332 -0.06612646 -0.14331204 -0.018940924
000040 90 f7 3c 3e fe 5c 0b be 0c 50 ba bb bf b0 9e 3d
       0.18453813 -0.13609692 -0.005685812 0.077485554
000050 75 67 74 3d 09 4a 14 bd d2 37 21 bc 78 59 98 bd
       0.059668977 -0.036203418 -0.009839969 -0.0743894
000060 a4 ad a0 3e 80 ef 9e 3b 25 67 9c bd bc 1c d5 bd
       0.31382477 0.004850328 -0.07636861 -0.10405871
000070 c6 13 85 bd 6f 28 82 bd dc 38 34 be d9 e5 93 bd
       -0.06497912 -0.06355368 -0.17599815 -0.07221574
000080 7a 48 29 3e 69 52 cf bd 9e 89 a2 bd 3f 3a 51 bc
       0.16531554 -0.1012314 -0.07936405 -0.012770235
000090 ab a8 ff bd 23 ab 01 be 1e 83 33 bc 43 f0 14 3c
       -0.12483343 -0.1266294 -0.010956554 0.009090486
0000a0 ee 19 a9 bd 54 79 8e 3d ad eb ec 3d 2a 78 e4 bd
       -0.08256899 0.06956735 0.11568389 -0.11155732
0000b0 53 2a b2 bd 22 32 21 bd 3c 34 91 bc ff 7d 3a bd
       -0.08699479 -0.03935445 -0.017725103 -0.045530315
0000c0 6a f2 96 bd 01 1a be 3d 26 52 87 bd 64 aa 9f bd
       -0.073704556 0.092823036 -0.066074654 -0.07796171
0000d0 5e 22 29 bd 30 d5 14 bd 5b 39 9b 3c 88 cd 7a 3e
       -0.04129254 -0.036336124 0.018948248 0.24492466
0000e0 a3 e0 03 bd 66 e8 81 3c df 86 f4 bd 8a 31 09 be
       -0.032196652 0.015857887 -0.11939787 -0.13397804
0000f0 1c 37 71 bd 41 26 02 be a3 ed e7 bd 0a e7 fa bd
       -0.058890447 -0.12709905 -0.113246225 -0.122510985
000100 7b 69 b8 bd 12 23 c2 bc e8 e1 0a 3e 25 a4 9a bd
       -0.09004494 -0.023698363 0.13562739 -0.07550839
000110 ff cb e2 bc 3d 23 87 bd 00 ea 5c bd c6 95 00 3d
       -0.027685164 -0.06598518 -0.053934097 0.031392835
000120 1b fe a2 3d a6 fe c4 bc 87 ec 2d 3e 3e 9b 78 3e
       0.07958623 -0.024047207 0.1698476 0.2427797
000130 b1 23 9c 3d 53 08 d6 bb bd 0f fe bb 77 e8 d2 bd
       0.07623995 -0.006531754 -0.007753341 -0.102982454
000140 ca c3 97 3d 78 06 87 3c f4 35 41 bd 1a de 88 bd
       0.07410391 0.016482577 -0.047170594 -0.066829875
000150 ca 73 fc bd 1e cd 65 bd d5 01 4b bd 7d 48 9c bd
       -0.123267725 -0.056103818 -0.049562294 -0.076310135
000160 cf 20 ac bd ce 55 7b 3c 6c ca 95 bd 13 ee 81 bc
       -0.08404695 0.015340282 -0.073139995 -0.015860593
000170 ad c5 99 3c 5d 5b 8c bd 1e 1e 1d 3c fc a0 48 3d
       0.018771017 -0.06853364 0.0095897 0.04898165
000180 a9 b1 82 bd 67 35 bb bd 05 db fe 3c 7f 80 05 3e
       -0.06381542 -0.09141045 0.031110296 0.13037299
000190 4e 26 f8 bd 1f e6 d9 bd d7 80 2d bd ae b8 12 bd
       -0.12116681 -0.10639595 -0.0423592 -0.035820656
0001a0 20 a7 75 bd 30 5a 22 3d 44 96 df bd 70 08 cc bd
       -0.059973836 0.03963679 -0.10917333 -0.09962547
0001b0 35 01 23 bc fc 71 86 bd d3 86 36 bd 96 4c 50 bd
       -0.009949018 -0.065647095 -0.044562172 -0.050854288
0001c0 b5 c8 16 be 0c e8 be 3c a5 ca f3 3c 57 af cb bd
       -0.14725001 0.023304008 0.029759714 -0.09945553
0001d0 0d 6a 50 bd 6a e0 28 bd b4 58 7b bd ce af 55 bd
       -0.050882388 -0.041229643 -0.06136389 -0.052169614
0001e0 1f 0c 0c bc b1 4f d2 3d ed 63 a9 bc 7e 47 c3 bd
       -0.008547812 0.10269106 -0.020677531 -0.095351204
0001f0 a3 ed a8 bd cd 3e 8c bc f2 f9 1d be ec d9 c4 3d
       -0.082484506 -0.01711979 -0.15427378 0.09611878

fc1.weight f4 [128, 768]
000000 8a 5d 6e 3b a5 ec 84 bc 04 b4 db 3b b4 46 0f bd
       0.0036371672 -0.016226122 0.006704809 -0.034979537
000010 82 be 9d 3c 55 e6 21 bc 3f 58 50 bd d4 1c 89 3c
       0.01925588 -0.009881576 -0.050865408 0.01673738
000020 c7 54 f6 bc 6c aa 19 bd 94 17 dc 3c f5 45 c9 bc
       -0.030069722 -0.037516043 0.026866712 -0.02456949
000030 eb 7f b2 bc 26 cf 30 3d 76 e1 2d 3c f2 8b 6a 3c
       -0.021789512 0.043166302 0.010612836 0.014315592
000040 c5 c6 67 bb 3a 22 88 3c 0e 2e da 3c 84 91 ec bc
       -0.0035366279 0.016617883 0.026633289 -0.028877981
000050 a3 90 5d bb a4 b7 a6 3b 6c fa b8 bc 08 ce 97 3c
       -0.0033808134 0.0050878096 -0.022580348 0.01853086
000060 84 65 b4 3c a0 b0 fc bc 80 08 30 ba b4 ec f5 3c
       0.022021063 -0.03084594 -0.0006715134 0.030020095
000070 92 44 bf bc 77 f3 08 bd 01 46 b3 3b 82 50 6e b9
       -0.023348127 -0.03343531 0.0054709916 -0.0002272744
000080 83 7b 39 bd 57 26 25 bd da 9f 08 bc 33 fa 19 3c
       -0.045283806 -0.040319767 -0.008338893 0.009398031
000090 e1 5e ed 3c ee 17 00 3d d5 70 92 bc 27 b9 af bc
       0.028975906 0.03127282 -0.017876068 -0.021450592
0000a0 d3 88 5f bc a8 76 17 bd ca 78 14 bd a5 96 d2 3c
       -0.013643461 -0.036978394 -0.036248006 0.025706599
0000b0 81 1d d6 bc b3 63 15 bd 24 55 1a 3c 18 b9 f7 bb
       -0.026137115 -0.036472034 0.009419713 -0.0075599067
0000c0 71 6b b7 3c f6 cc ac 3c d8 d6 dd bb 28 b6 80 bc
       0.0223901 0.021093827 -0.006769996 -0.015711859
0000d0 08 c7 d1 3c cd 8b bd bb 19 96 34 bd cc 40 9f bc
       0.0256076 -0.005784488 -0.044088457 -0.019440077
0000e0 70 44 d0 bc aa a6 25 bd d0 7a ca bc ed 4f ae 3b
       -0.025423259 -0.040442146 -0.024716765 0.0053195865
0000f0 39 b4 33 bd e5 ed 73 3c f6 79 e1 bb ed fb 22 bd
       -0.043873046 0.014888261 -0.006880994 -0.039791036
000100 d9 16 19 bd 34 bc 0b bd 6d e5 28 bc ba a5 3c bd
       -0.037375305 -0.03411503 -0.010308606 -0.046056487
000110 c0 77 23 bd d3 21 de bc 4e 03 0e 3c 7b 08 e7 ba
       -0.039909124 -0.027115738 0.00866778 -0.0017626429
000120 5e e9 b8 bc ce 86 de bc 1c cc a2 bc 8a 62 1b bc
       -0.022572216 -0.02716389 -0.019872718 -0.009483943
000130 e1 d5 bc 3c 57 e2 d2 bc 41 e1 ac 3c e0 a5 89 bc
       0.023051204 -0.025742693 0.021103503 -0.016802728
000140 87 e3 92 3c 38 60 f6 bc 21 ae d0 bb 63 e4 08 bd
       0.01793076 -0.030075178 -0.006368414 -0.03342093
000150 b6 dd 09 bd 01 42 d5 bb 07 75 04 bc 9f 91 4c 3b
       -0.033658706 -0.0065081124 -0.008084542 0.0031214727
000160 72 e6 39 ba 98 13 e8 3b 41 6d 73 bc f9 3d af 3c
       -0.0007091529 0.007082414 -0.014857591 0.021391856
000170 3b 7c 4c bd 6b ee a4 bc 91 0b 60 39 32 19 f7 3b
       -0.049923163 -0.020133218 0.00021366614 0.0075408453
000180 da 3f 3d 3c 3e 40 49 3c b4 1a 32 bd 49 c9 49 bd
       0.011550868 0.012283383 -0.043482497 -0.049264226
000190 86 16 15 bd ed e5 13 bd 82 36 d4 bc d0 9f 94 bb
       -0.036398433 -0.036107946 -0.025904898 -0.0045356527
0001a0 25 52 ee bb 4b 68 c5 3b 79 37 d3 bc cc a6 db bc
       -0.007272976 0.0060243956 -0.025783287 -0.026812933
0001b0 a0 cb 90 bb 65 ff 2c bd d4 6c c9 3b fd f5 82 ba
       -0.0044188052 -0.04223575 0.0061470065 -0.0009991523
0001c0 59 b0 e3 bc 46 62 83 3b a0 b2 0f bc 83 97 8c ba
       -0.02779405 0.004009518 -0.008770615 -0.0010726306
0001d0 0c c6 0b bc 39 a3 14 bd 9e 32 e1 bc 05 c3 d7 bc
       -0.008531105 -0.036288474 -0.027489956 -0.02633811
0001e0 a3 1d ad bb 62 77 09 bd 29 a7 d9 3c 9a 6c 24 bb
       -0.005283074 -0.033561118 0.026568966 -0.0025089146
0001f0 03 16 a9 bc bb 48 33 3c 84 91 d8 bc 44 2c 8e bc
       -0.020640379 0.010942633 -0.026436575 -0.017355092
000200 eb ad 78 3c 4d 12 9c bc c9 b4 17 bc 2d f5 9a bc
       0.015178184 -0.019051695 -0.009259411 -0.018915737
000210 bb e2 a3 3b af 8a 84 3b fe ce 14 3c bb 13 3d bd
       0.0050013936 0.0040448527 0.009082554 -0.046161395
000220 1c cb 66 bb 42 39 06 3c 16 23 dd bc c4 0a 11 bc
       -0.0035216277 0.008192362 -0.02699427 -0.008852664
000230 5d 66 38 bd 6c dc ae bb 76 30 6f ba e4 19 6b bc
       -0.045019496 -0.005336335 -0.00091243477 -0.0143494345
000240 ac 63 3d bd 5c 53 2e bd 4a 70 58 bc e0 96 13 bc
       -0.046237633 -0.042559966 -0.013210366 -0.009008139
000250 58 18 c6 bb 47 86 6b bc a3 6e cf bb 9c ae e1 3c
       -0.0060453825 -0.014375276 -0.0063303276 0.02754908
000260 16 9c cd bc 1e 4e f2 bc 2a ac 17 bc f9 7a a4 bc
       -0.025098842 -0.029578265 -0.009257356 -0.02007817
000270 29 b3 02 bd cf 4e 05 bd ad d9 13 bd aa f7 22 bc
       -0.03190914 -0.03254586 -0.036096264 -0.009946743
000280 74 7e 91 bc 38 78 cf 3a c2 36 26 3c 5c c5 8b bc
       -0.017760493 0.0015828675 0.010144891 -0.017061882
000290 00 ec f0 bc ed 64 00 bd f4 b8 51 bc 03 ba 21 bd
       -0.029409409 -0.03134625 -0.012800444 -0.039484035
0002a0 e2 b9 ee ba 64 8a d8 3c cd a4 08 bd a8 4e fb bc
       -0.0018213356 0.026433177 -0.03336029 -0.030677155
0002b0 13 6a 5f bc cd 18 00 bc 28 6e ac bc 2c f1 e8 bc
       -0.01363613 -0.007818413 -0.02104862 -0.028435312
0002c0 a7 e3 94 3c df 38 19 bb 45 de 12 bb 53 9f 8d bc
       0.01817496 -0.0023379845 -0.0022410315 -0.017287886
0002d0 c7 87 7c 3c 73 01 35 bd f7 6c 11 bd 56 08 de bc
       0.015413231 -0.044190835 -0.035504308 -0.027103584
0002e0 d7 46 83 bc 5f 18 66 bc d4 24 b3 bc 6d e9 40 bc
       -0.01602499 -0.014043896 -0.021868147 -0.011774403
0002f0 cf 64 a9 bc 0f e6 4c bc be b9 38 3c 0c 05 0a 3c
       -0.020677952 -0.012506022 0.011274753 0.008424055
000300 46 70 43 ba 2c 49 90 bc e2 56 ce 3c 90 07 4e 3b
       -0.000745539 -0.017613016 0.025187913 0.0031437613
000310 79 3a 0b bd 94 b9 87 3c a4 ba 60 bc e7 79 e9 bb
       -0.03399131 0.016567983 -0.013716374 -0.0071251276
000320 ab f2 db 3c 3f f8 e6 bc ce e4 b6 3b 02 e5 3f bc
       0.026849112 -0.028194545 0.005581475 -0.011712315
000330 a1 c9 d2 bc ba 9c 18 bc 0c ee b0 bc 3f 7d a2 bc
       -0.02573091 -0.00931471 -0.021597885 -0.019835113
000340 0c fc be 3b f3 b3 ea bc 74 74 cb 3c ee 33 d4 3a
       0.005828386 -0.02865026 0.024835803 0.0016189793
000350 a5 7a 0e bd 1e 49 aa 39 ac 46 c9 3b 75 77 2f bb
       -0.03478493 0.00032479403 0.006142458 -0.0026774083
000360 fa f3 fa bb 53 4a 87 bb 33 86 e4 3b b2 4b 7a bc
       -0.007658479 -0.004128733 0.0069740056 -0.015276836
000370 a0 50 1c bd c7 d3 d2 bc c9 3c 1e bd 87 ef f6 bc
       -0.038162827 -0.025735749 -0.038632188 -0.030143512
000380 7d 0d 8e 3c 55 ba 29 bc df c8 08 bd 4b e7 83 bc
       0.017340416 -0.010359366 -0.03339469 -0.0161015
000390 3a b2 67 3c 1f 4b 6e bc 53 77 4c bd 39 56 fe bb
       0.014141614 -0.014544277 -0.049918484 -0.0077617434
0003a0 9b ff 48 bc a9 03 d3 bc 49 40 50 3c ad 43 8a bc
       -0.012267972 -0.025758581 0.012710639 -0.016877973
0003b0 13 b6 fc 3b f9 54 79 bc 83 00 84 bd e0 bf 07 3c
       0.0077121346 -0.015218013 -0.0644541 0.008285493
0003c0 39 a3 b6 bc 92 19 b8 3c d0 3a 33 3b 02 37 f6 bc
       -0.022294628 0.02247313 0.0027348287 -0.030055527
0003d0 80 3c 6f bb 24 70 7e 3c e4 16 da bc 4f 7a 8b bc
       -0.0036504567 0.015529666 -0.026622243 -0.017026095
0003e0 d8 ee 06 bd 38 0e e5 bc c0 99 03 3d a9 c6 85 ba
       -0.032942623 -0.027960882 0.03212905 -0.00102063
0003f0 5e 54 1f bd dc a9 40 bd 3f 8f 74 3c 72 c6 b5 3b
       -0.03889882 -0.04703699 0.014926731 0.005547338

fc1.bias f4 [128]
000000 ea d4 56 bd c8 97 c6 bc 56 e3 0e 3e bc 35 de 3c
       -0.052449144 -0.024242297 0.1395391 0.027125232
000010 37 2e 1e bd 1c ee c9 bc 3f 7b 9c 3d 13 2f 0a bd
       -0.038618293 -0.024649672 0.07640695 -0.0337363
000020 9c 60 4e 3e ba 63 ca bc 29 50 60 3e 72 6d dc 3d
       0.20154041 -0.024705756 0.21905579 0.107630625
000030 1e 76 b1 bd f5 6c 92 3e c5 db 97 3e d2 1c d8 3c
       -0.08665107 0.28598753 0.29659858 0.02638093
000040 2e 45 1d 3d 68 0d 04 3e a3 e2 23 bd 6b a5 c5 bc
       0.038396053 0.12895739 -0.04001106 -0.024126729
000050 fe dc 7a 3e c7 53 f0 3d c7 34 dc bc b7 40 46 3e
       0.24498364 0.11734729 -0.026880635 0.19360624
000060 65 e6 3b bd 3d c2 7a 3d d7 06 7a 3c 59 89 2a 3e
       -0.04587402 0.061220396 0.01526042 0.16653956
000070 e9 65 17 bd c9 b3 0c ba 94 43 b2 3d 61 b3 40 3e
       -0.036962423 -0.0005367366 0.08704296 0.18818428
000080 6f 86 6b bd f0 6b bb bc e4 54 21 3e 6a 66 ed 3c
       -0.057501253 -0.022878617 0.1575504 0.028979499
000090 45 15 f2 3c c8 f0 94 bd 9c 94 08 3e 67 45 1a 3e
       0.029551158 -0.07272488 0.1333794 0.15065537
0000a0 4b 41 90 bc 3d 3e 39 bd 7d 60 b6 bd 25 42 04 3e
       -0.01760926 -0.04522537 -0.089051224 0.12915857
0000b0 97 96 b8 3d ab d7 66 bc fb fb c6 3d b4 2e 57 bd
       0.09013098 -0.014089505 0.0971603 -0.052534774
0000c0 6d 72 36 3e 0d 13 94 3e be 5d 85 bd 46 6f 2b bd
       0.17817087 0.28920785 -0.065120205 -0.041854165
0000d0 e4 b4 8c 3e af 09 40 bd 18 a0 a3 3a 9a 10 59 bd
       0.2748176 -0.046884235 0.0012483625 -0.052994348
0000e0 b2 78 0c 3d 1f b1 db 3d 1a 26 27 3d 1f ad 47 3c
       0.03429479 0.107271425 0.04080782 0.012187271
0000f0 53 2b 04 3e 5f e4 24 bc b7 94 0b 3f db fd 83 bd
       0.12907152 -0.010064214 0.54523796 -0.064449035
000100 0b 9b a7 3e 13 67 ca bb 99 08 4e 3d 2b 16 00 3e
       0.32735476 -0.006176838 0.050301168 0.12508456
000110 e2 c3 c4 3d 01 a9 a7 3d 8a ae e7 3c f9 64 8e bd
       0.09607674 0.08186532 0.028281469 -0.06952853
000120 0a 01 b8 bd 99 25 c6 bb fd f4 63 3d 37 98 27 3e
       -0.08984573 -0.0060469625 0.05565356 0.16366659
000130 ba 04 76 3e 23 32 cc bc d3 01 1d bd c7 51 9e 3e
       0.2402524 -0.02492625 -0.038331818 0.30921766
000140 d7 dd 3b 3e 5f b2 a1 3e 67 4d 02 bd 98 44 cd 3d
       0.18346344 0.315814 -0.031812098 0.10022849
000150 34 af 6e bd c8 d7 47 bc 85 2f 81 bc 7a dc 39 3c
       -0.058272555 -0.012197442 -0.01576973 0.01134407
000160 d0 2f 04 3a ec 17 9e 3d 2f 97 70 bb 2a 48 04 bd
       0.0005042525 0.077194065 -0.0036711206 -0.032295384
000170 e9 bd 5b bb 55 35 12 3e e5 3f c9 3d 78 4d 3d 3e
       -0.0033529943 0.14278157 0.0982664 0.18486583
000180 14 d8 e7 3d 41 c8 74 bd 2b f0 67 bd 15 ff f6 bd
       0.113205105 -0.05976129 -0.056625526 -0.12060372
000190 e1 73 80 3d de 2e 6d 3e 70 94 e7 bb bd 62 0b bd
       0.06272102 0.2316241 -0.0070672557 -0.03402971
0001a0 60 b1 1b bd f5 03 4c bd ac 50 86 bd 5b b2 3e bd
       -0.038010955 -0.04980846 -0.06558356 -0.04655681
0001b0 90 2e c7 3c c0 d7 80 bd 77 0c 68 bd d5 ea 4c bd
       0.024314195 -0.06291151 -0.056652512 -0.05002864
0001c0 11 0a 8f bd d8 c4 d7 3d ec fc 9f bc cf 41 a0 3c
       -0.06984342 0.10535592 -0.019529782 0.01956263
0001d0 e5 a7 d4 3c 3a fb d1 3d c5 50 e5 bc cb 76 50 bd
       0.025958965 0.10252996 -0.027992615 -0.05089454
0001e0 6f 33 ab bd 10 90 9f bd f7 33 0e 3e 04 1c 76 bd
       -0.083594196 -0.077911496 0.1388701 -0.06008531
0001f0 1c c5 80 bd 99 6e 71 bd 1b cd 5a 3e 99 ea ac 3e
       -0.06287596 -0.058943365 0.21367304 0.33772734

fc2.weight f4 [7, 128]
000000 00 79 b9 3b 04 f2 d8 3d cb 35 65 bd ba 4c 0d bd
       0.0056601763 0.10593036 -0.055959504 -0.034497
000010 bc 71 cd bd da 71 f4 3c 59 21 8b 3d 80 fd 9e 3d
       -0.10031459 0.029839445 0.0679347 0.07763195
000020 6d 54 3c bd c9 64 5a bd 69 2e 20 3d 4c 72 2c bc
       -0.045978952 -0.053318772 0.03910676 -0.010525297
000030 32 82 3d 3e 3d 4a 65 3d 3d 89 38 3d f2 29 99 3d
       0.18506697 0.055979002 0.045052756 0.074787036
000040 bd 13 d1 bd c2 b0 b1 3d 88 3a d2 3c 88 b5 ec 3a
       -0.10208843 0.08676292 0.025662675 0.0018059472
000050 96 0a 6e 3d da db c7 3c b3 0c a2 bc f0 2a 18 3e
       0.058115564 0.024396826 -0.019781446 0.1486013
000060 54 2f 9e bc dd c1 8c bc 28 e7 14 3d dc b6 b8 bd
       -0.019309677 -0.017182285 0.03635326 -0.09019253
000070 52 91 6f ba c9 c5 85 bd c1 55 89 3d 6e 29 b5 3d
       -0.0009138781 -0.06531865 0.067058094 0.08845793
000080 08 4e 0d 3e b1 90 ba 3c e6 3b 55 3d b7 a0 24 3d
       0.13799298 0.022774072 0.052059077 0.040192332
000090 80 47 18 bd 79 44 18 3d f2 ae 1a bc 92 33 18 be
       -0.037177563 0.037174676 -0.009441124 -0.14863423
0000a0 ed 6e 87 3d 4e 9a 33 3d 59 82 5c bc 33 9d cd bc
       0.06612954 0.04384833 -0.013458812 -0.025099372
0000b0 9a 33 c7 bd 38 11 d1 bc 16 b1 d5 bd fb b9 2d bd
       -0.09726639 -0.025520906 -0.10434167 -0.042413693
0000c0 7b 40 2a 3d 67 18 40 3e b7 c3 50 3d df 22 ec be
       0.0415654 0.18759309 0.0509679 -0.46120355
0000d0 e4 91 01 3d 28 88 70 3d d9 61 bf be 68 1f f8 3d
       0.031633273 0.0587236 -0.3737934 0.12115365
0000e0 1c 7d 56 bc ac a1 92 bb 78 cf 52 3d da cc 2b bd
       -0.013091352 -0.004474839 0.05146739 -0.04194341
0000f0 8f c0 34 3e b5 43 88 3d 69 1c f6 bc 0e ce ec bc
       0.1765158 0.06653539 -0.030042844 -0.028906848
000100 f4 0f b3 bd 17 02 1c bd 01 88 06 bf c3 f2 89 3d
       -0.08743277 -0.03808793 -0.52551275 0.06735756
000110 da b6 15 bd ad b5 60 3e 94 13 5e 3d 48 96 1a 3e
       -0.036551334 0.21944304 0.05421789 0.1509639
000120 42 ed 99 3d 14 31 f4 3b 1d 93 81 3c cb 47 85 3c
       0.075159565 0.0074521396 0.01581722 0.016269585
000130 d1 8d 5d bd 1e 63 1d 3e e6 b0 29 3d 35 98 ea 3d
       -0.054090325 0.15369841 0.04142847 0.114548124
000140 3a 9d 8d 3c 65 78 a4 bd 55 6b fb bd 7a 34 39 3d
       0.017286886 -0.08030776 -0.12276331 0.04521606
000150 db 97 14 3d 1a 51 0c bd 81 e7 5f 3d 80 9d b7 38
       0.036277633 -0.034257032 0.05466414 8.755457e-05
000160 2d 17 f1 bc fb 1d 54 b9 32 6c 52 bc 97 ae 0c 3e
       -0.029429996 -0.00020229064 -0.012843179 0.13738476
000170 79 66 39 bd ff 62 1d 3d 49 af e3 3d 96 73 c0 3d
       -0.04526374 0.03842449 0.11117417 0.09397046
000180 30 4e db be 09 d0 8b 3c c3 01 12 bd d2 15 e2 bd
       -0.4283309 0.017066972 -0.03564621 -0.11039318
000190 62 19 fe bd 06 79 98 bc f6 a9 46 bd 31 c5 37 3c
       -0.12407185 -0.018612396 -0.04850193 0.011216448
0001a0 4f b9 90 bc 74 6e 13 3d 9f cb 05 be e0 32 8e 3d
       -0.017666487 0.03599401 -0.13065957 0.069432974
0001b0 80 63 17 bd b3 a4 b6 3d 38 9a 61 3c 24 c6 ee bb
       -0.036960125 0.08918133 0.013769679 -0.007286804
0001c0 2f 6a 9a 3a 23 e3 16 be ac 8f f8 3d 78 81 30 3e
       0.0011780913 -0.14735083 0.12136778 0.17236888
0001d0 90 d0 c3 3d f4 32 93 be 59 7d 93 bd 62 c3 36 3d
       0.095612645 -0.28749812 -0.072016425 0.044619925
0001e0 6c 40 8e 3d 12 50 bb bd f2 4a ca 3d e4 70 0e 3d
       0.06945881 -0.091461316 0.09877576 0.03477563
0001f0 34 c3 ab bd 70 4d c6 bc 6c 76 3d 3e 67 86 99 3c
       -0.083868414 -0.024206847 0.18502206 0.018740846
000200 aa eb b0 3d 82 86 30 3d 17 c5 28 3c 55 ee a9 3d
       0.08638699 0.043097027 0.010300896 0.08297411
000210 e3 78 c6 3c 00 88 9b 3d 65 1a 9e 3c a2 c4 f9 bc
       0.024227565 0.07594299 0.019299695 -0.03048927
000220 c4 29 a3 bd 3a a8 0d 3d 45 4b 65 bd 9d 5c d4 3c
       -0.079669505 0.03458426 -0.055979986 0.025923068
000230 8f b6 64 bd 8e a7 ca bd 66 29 3d 3c 15 32 80 3e
       -0.055838164 -0.0989524 0.011545515 0.2503821
000240 91 7c ea bc fb 3f 7c be e1 fb 8e 3d 5a 3c c8 bd
       -0.028623851 -0.24633782 0.06981636 -0.09777136
000250 8c 6e 8b 3c 09 aa 89 3d e5 f0 df 3c c7 63 a2 3d
       0.017020486 0.06721885 0.027336547 0.07929187
000260 dd 47 3b bc b3 07 c0 3c 12 92 30 3d d7 30 f4 3c
       -0.011430708 0.023441171 0.043108054 0.029808445
000270 f8 2b 52 3d b2 44 e1 3d d4 1a f7 bb 33 73 60 3e
       0.051311463 0.10999431 -0.00754104 0.21918945
000280 3c 65 02 3e 51 eb d8 bc 35 ab a1 bb 58 fd 56 3e
       0.1273393 -0.026479395 -0.0049337395 0.2099508
000290 d7 de 16 3e 7f 5e 8a 3d b9 2d a0 3c 05 cb 58 3d
       0.14733444 0.06756305 0.019553052 0.05292799
0002a0 be 69 09 be a9 3f 49 bd 2c 2d a1 ba 8e 11 3c 3d
       -0.13419244 -0.049132977 -0.0012296787 0.04591518
0002b0 79 d9 5a be 8c 0e df bc e4 3a 13 be c3 42 57 bd
       -0.21372022 -0.027228616 -0.14377934 -0.052553903
0002c0 12 68 ee 3c b5 28 07 3d 49 c0 35 3d e4 0e 29 3b
       0.029102359 0.032997806 0.04437283 0.002579623
0002d0 19 44 b4 3d d4 dd e0 3d a9 f9 23 bc 64 77 d5 3d
       0.08802051 0.1097981 -0.010008254 0.104231626
0002e0 f9 31 34 3e f7 9f 26 3e 84 38 be be 06 c0 97 bc
       0.17597188 0.16271959 -0.37152493 -0.018524181
0002f0 df 77 a7 3c 91 7f 51 3d e2 b5 a9 bc 32 7f 5b 3d
       0.020442901 0.051147047 -0.020716611 0.0535881
000300 42 d2 f6 3b cc e1 32 bd 31 44 2b bd 0a 8a 41 3e
       0.007532389 -0.043672368 -0.04181308 0.18900314
000310 7d 92 20 bd 4c 50 ed 3a b9 86 a2 bc 70 7c 14 be
       -0.039202202 0.0018105595 -0.019839631 -0.14500594
000320 4f a0 ea be 0b db 08 be 48 6f c3 3c 26 78 07 3e
       -0.4582543 -0.13364808 0.023856774 0.13229427
000330 b0 e0 bb bd 52 a2 02 3e 98 7e 7b be 28 36 cd 3d
       -0.09173715 0.12757233 -0.2456001 0.10020095
000340 4a 17 10 be ce 05 6d bc 69 29 8d be 9e eb e3 bc
       -0.14071384 -0.014466716 -0.27570656 -0.027822312
000350 78 25 1b 3c 8e 6e 9b bd 15 ea c9 3c 96 9e 93 bd
       0.009469382 -0.07589446 0.024647752 -0.07207982
000360 b9 3b d7 be a0 a4 ef 3d 5f 67 67 3d 9f f2 c9 3d
       -0.42037752 0.117013216 0.056495067 0.098607294
000370 1b b6 a9 bd 49 ce 4b be da ca 10 3c 05 ac 09 3d
       -0.08286687 -0.1990291 0.008837426 0.033611316
000380 bc 13 91 3d 10 39 b1 3c d2 be 9f bd c6 bd c5 bd
       0.07083842 0.021633655 -0.07800068 -0.09655337
000390 b9 26 16 be 30 83 70 be 3a 1c 1f bd 79 56 b8 3d
       -0.14663209 -0.23487544 -0.03884528 0.09000868
0003a0 41 09 26 3d 97 c5 4e 3d d8 e9 c1 be 1f 05 b7 3d
       0.04053617 0.050481405 -0.3787372 0.08936524
0003b0 5b 9b c6 3d ba 8f 15 be d7 17 62 3a e0 d8 95 3d
       0.096976005 -0.14605609 0.0008624768 0.07316756
0003c0 06 f9 d7 bd bc 8d cc bc cb 67 4c be 94 25 80 bb
       -0.10545544 -0.024969928 -0.19961469 -0.0039107297
0003d0 31 b1 d7 3d e0 aa ac 3c cd 51 8d 3d 99 cb 0e bd
       0.105318435 0.021077573 0.06900368 -0.034862135
0003e0 34 12 91 3c c7 5a 49 3d 64 f3 43 3d e7 46 b5 3d
       0.017708875 0.049158838 0.047839537 0.08851414
0003f0 d7 83 82 bd 6d ef 3b be 75 b2 80 3c 57 5e f7 3d
       -0.06372803 -0.18353052 0.015710095 0.12078541

fc2.bias f4 [7]
000000 fc 8c 07 bd 26 6b bf bd 14 9f d9 bb f7 29 aa be
       -0.033093438 -0.09346609 -0.006641278 -0.33235142
000010 af 36 a7 bd 36 c6 26 bd a4 d3 cc bd
       -0.08164727 -0.040716372 -0.10001305
