trained_models/dql_blockcheck_1.pt (torch, 536468 bytes, 8 tensors)

conv1.weight f4 [64, 1, 4, 4]
-0.29592344 -0.09098869 0.15324666 -1.1547825 0.16703759 0.41591978 -0.027815605 -0.09615304
-0.04242645 0.12830517 -0.10685171 -0.0023389373 -0.05707729 -0.42903498 0.19886407 0.7673272
0.2817428 -0.11995452 -0.09536264 -0.08774688 -0.16726443 0.4076883 0.03789109 0.10822941
0.015252363 -0.03519755 -0.64066327 0.27801725 -0.62676734 0.33947146 -0.022777498 0.5301444
0.51795536 0.2611704 -0.24438351 -0.78792936 -0.31617972 -0.23966986 0.15870285 -0.13208596
0.2892718 -0.16209778 0.22458856 0.14958826 -0.12906015 0.3571785 -0.50404906 -0.13146837
0.038172334 -0.65020806 0.13627097 -0.861779 -0.4011963 0.18973096 -0.24267344 0.36945468
0.20256281 0.15172078 0.34881243 -0.049150262 0.13104685 0.04479286 -0.43622518 0.21436451
0.35089475 -0.3549791 0.25004324 -0.47145423 0.18700904 -0.0010083077 0.102258004 -0.46364152
0.33558804 -0.26079446 -0.19042747 0.09991904 -0.18105556 0.1292492 0.15944603 -0.5407844
-0.5976891 -1.0940795 -0.96479106 0.085836865 -0.25420284 -0.19604522 -0.042974394 -0.46573907
0.43813267 -0.18790998 0.44435546 0.48406315 -0.16788498 0.24364197 -0.20059986 -0.30216518
0.4075959 -0.28974545 -0.4658001 -0.5517296 -0.07263843 -0.15568916 0.15731516 -0.07839817
-0.39917618 0.124933645 -0.08558064 0.26850608 0.23101115 -0.46992263 -0.06383261 0.03405106
0.47489366 0.16472642 -0.014551017 0.15555175 0.31365138 0.040986273 -0.2377054 -0.02279121
-0.4108598 0.25966802 0.12392384 -0.5747346 -0.29949114 -0.28901944 0.40211603 0.13780136
-0.70452356 0.37496662 -0.004987336 0.16467388 0.22700137 -0.34238046 -0.26368287 -0.039964795
0.09310174 -0.121257745 -0.46092477 0.17894888 0.30173326 -0.48232064 -0.0590255 0.59063107
0.4131069 0.17596956 0.032386377 0.40671462 -0.047485422 0.15640292 -0.16835782 0.48831183
-0.0658014 -0.15793973 -0.28395236 -0.14969198 0.17855604 -0.26683965 -0.18291934 -0.06830212
-0.11308331 -0.71906453 -0.025394224 0.124965675 0.8780365 -0.17670126 -0.06825563 -0.13485253
-0.23065189 -0.50427544 -0.20027427 0.059920672 -0.2599196 -0.13948615 0.30893657 -0.0068062074
0.2024676 -0.031062212 -0.32838157 -1.2442031 0.34720528 0.1709775 -0.2513318 0.06995911
0.022666134 0.10841714 0.14353923 0.39907336 0.048187457 -0.24781375 0.3159724 -0.13942409
-0.2966755 -0.3425461 0.060098745 -0.064339176 0.0552363 -0.1824699 -0.02600744 0.19916174
0.5236856 -0.8944574 0.12408159 0.19774 0.19061524 -0.9778084 -0.2508774 0.09479826
-0.56263924 -0.92493045 0.24589835 -0.14962146 0.20419693 0.13328396 0.011334803 0.029454177
0.17630057 0.119673654 0.19851129 0.019530185 -0.33132792 0.15398112 -0.38678733 -0.12601495
0.2962536 0.38578242 0.03214391 -0.53338873 0.108496 -0.008110681 0.17946447 -0.24127889
0.34931293 0.2599203 -0.226814 0.14206833 -0.14424933 -0.26262766 -0.21931401 -0.49170822
-0.09006144 -0.76980966 0.038749557 -0.18330076 0.23885076 0.15054917 0.027826052 -0.10458281
-0.1950096 0.38979256 0.48141888 -0.64810944 -0.038095172 -0.0023183431 -0.22481671 -1.315926
00000000: 4783 97be 4758 babd b1ec 1c3e eacf 93bf
00000010: e70b 2b3e 70f3 d43e 8ddd e3bc e3eb c4bd
00000020: 5bc7 2dbd 6e62 033e 12d5 dabd db48 19bb
00000030: e0c9 69bd 79aa dbbe 06a3 4b3e 8e6f 443f
00000040: 9840 903e b7aa f5bd 7d4d c3bd a3b4 b3bd
00000050: 5e47 2bbe 85bc d03e b033 1b3d 62a7 dd3d
00000060: 0ce5 793c 4e2b 10bd 8202 24bf 4758 8e3e
00000070: d373 20bf 34cf ad3e e097 babc 8bb7 073f
00000080: b998 043f 20b8 853e ac3f 7abe bdb5 49bf
00000090: 4fe2 a1be 046c 75be 0083 223e 8b41 07be
000000a0: 6f1b 943e f6fc 25be 8bfa 653e aa2d 193e
000000b0: 5828 04be 1ae0 b63e 5c09 01bf a59f 06be
000000c0: 985a 1c3d 0974 26bf 9e8a 0b3e 8c9d 5cbf
000000d0: 9a69 cdbe d548 423e 637f 78be 2a29 bd3e
000000e0: a06c 4f3e b15c 1b3e 8b97 b23e c951 49bd
000000f0: 2531 063e b878 373d e858 dfbe 5f82 5b3e
00000100: 7aa8 b33e d2bf b5be ab05 803e 7362 f1be
00000110: 4c7f 3f3e 3129 84ba a56c d13d 6c62 edbe
00000120: 32d2 ab3e da86 85be 6bff 42be 5ba2 cc3d
00000130: a166 39be e759 043e d245 233e d970 0abf
00000140: 2702 19bf cc0a 8cbf 8cfc 76bf 3dcb af3d
00000150: e026 82be 14c0 48be eb05 30bd 5a75 eebe
00000160: ed52 e03e 796b 40be 8f82 e33e 20d7 f73e
00000170: 0aea 2bbe 487d 793e 0d6a 4dbe 65b5 9abe
00000180: 69b0 d03e 8459 94be 5a7d eebe 273e 0dbf
00000190: 75c3 94bd fb6c 1fbe 3a17 213e 388f a0bd
000001a0: d260 ccbe 36dd ff3d e744 afbd a179 893e
000001b0: 308e 6c3e b399 f0be acba 82bd 2079 0b3d
000001c0: 4325 f33e 0bae 283e 6467 6ebc f548 1f3e
000001d0: ea96 a03e 39e1 273d 0b69 73be a2b4 babc
000001e0: 375c d2be 35f3 843e c8cb fd3d cf21 13bf
000001f0: e756 99be 5bfa 93be 27e2 cd3e cd1b 0d3e
00000200: a85b 34bf a0fb bf3e cf6c a3bb 45a0 283e
00000210: 0c73 683e 7e4c afbe 7101 87be 20b2 23bd
00000220: 20ac be3d fb55 f8bd 55fe ebbe 603e 373e
00000230: c87c 9a3e bbf2 f6be b9c4 71bd 9933 173f
00000240: bf82 d33e 5d31 343e 94a7 043d e63c d03e
00000250: 1380 42bd 1628 203e fe65 2cbe 0204 fa3e
00000260: e2c2 86bd f4ba 21be 3462 91be db48 19be
00000270: 65d7 363e 359f 88be 354f 3bbe fbe1 8bbd
00000280: 3998 e7bd 9d14 38bf 8c07 d0bc 01ee ff3d
00000290: 00c7 603f 2df1 34be 9cc9 8bbd c816 0abe
000002a0: 0230 6cbe 3218 01bf b314 4dbe 616f 753d
000002b0: 2f14 85be 75d5 0ebe ef2c 9e3e 9b06 dfbb
000002c0: ab53 4f3e 2e76 febc a121 a8be 0c42 9fbf
000002d0: e4c4 b13e ba14 2f3e 90ae 80be b946 8f3d
000002e0: 54ae b93c ce09 de3d f3fb 123e 5853 cc3e
000002f0: 3660 453d e3c2 7dbe 22c7 a13e 30c5 0ebe
00000300: dae5 97be 3462 afbe 1a2a 763d 42c4 83bd
00000310: 753f 623d 64d9 3abe 8e0d d5bc 0ef1 4b3e
00000320: 4210 063f 29fb 64bf 7d1e fe3d 5b7c 4a3e
00000330: a430 433e a751 7abf 0173 80be 9725 c23d
00000340: 2009 10bf 3ec8 6cbf c7cc 7b3e 5e36 19be
00000350: 0019 513e 977b 083e 9cb5 393c e349 f13c
00000360: 2388 343e 7617 f53d 8b46 4b3e c4fd 9f3c
00000370: d0a3 a9be 3aad 1d3e fd08 c6be 100a 01be
00000380: 8dae 973e 4685 c53e 55a9 033d 2a8c 08bf
00000390: 2733 de3d a9e2 04bc 89c5 373e d011 77be
000003a0: 25d9 b23e 4614 853e ee41 68be 5c7a 113e
000003b0: 19b6 13be 2277 86be da93 60be 2ec1 fbbe
000003c0: 2272 b8bd 3f12 45bf dbb7 1e3d 32b3 3bbe
000003d0: 4b95 743e 9029 1a3e 76f3 e33c 832f d6bd
000003e0: 99b0 47be e492 c73e 897c f63e 80ea 25bf
000003f0: af09 1cbd 58ef 17bb 5a36 66be 4370 a8bf

conv1.bias f4 [64]
-0.35357586 -0.44101974 0.109045625 -0.18234232 0.09982555 -0.019366996 0.28626359 -0.22490287
-0.33020598 -0.26927608 -0.07480867 -0.47522947 -0.20518963 0.260863 0.03622631 0.07866612
0.08645107 0.015118109 0.12315706 -0.51170105 -0.22758193 -0.447566 -0.24182552 -0.39344975
0.18531151 -0.41670167 0.21943748 -0.07666154 -0.20104417 -0.31849933 -0.3993056 -0.3939877
0.36643308 -0.534228 -0.18136698 0.33213097 0.034327727 0.17905633 -0.43134382 -0.4508799
0.29337114 -0.5457758 -0.43665946 -0.3733133 0.27300456 -0.24933591 -0.34685364 -0.48577636
-0.0048399623 -0.41355044 0.34876877 0.2204034 -0.33181182 -0.012088091 0.103902504 -0.029962027
-0.50026435 -0.11860343 0.038638506 -0.40026227 -0.16224821 0.109739 -0.6592145 -0.23791108
00000000: e507 b5be 57cd e1be 5053 df3d f2b7 3abe
00000010: 5771 cc3d 89a7 9ebc 2491 923e f04c 66be
00000020: c210 a9be 8ede 89be 4a35 99bd 4751 f3be
00000030: 3b1d 52be d68f 853e 0a62 143d b41b a13d
00000040: 420d b13d f2b1 773c c539 fc3d d7fe 02bf
00000050: 3d0b 69be 5f27 e5be 1ca1 77be 3f72 c9be
00000060: 4dc2 3d3e ec59 d5be 38b4 603e ba00 9dbd
00000070: 86de 4dbe 5812 a3be c971 ccbe c1b8 c9be
00000080: 1e9d bb3e 2bc3 08bf 44b8 39be 120d aa3e
00000090: 3b9b 0c3d 8b5a 373e 19d9 dcbe bbd9 e6be
000000a0: be34 963e f6b7 0bbf d491 dfbe ec22 bfbe
000000b0: 41c7 8b3e ea51 7fbe cd96 b1be aeb7 f8be
000000c0: 8c98 9ebb e2bc d3be d291 b23e 6eb1 613e
000000d0: 3de3 a9be 210d 46bc d6ca d43d ed72 f5bc
000000e0: 5311 00bf 5be6 f2bd 6943 1e3d 2def ccbe
000000f0: 6524 26be d7be e03d 48c2 28bf f69e 73be

conv2.weight f4 [128, 64, 2, 2]
0.0061364267 -0.018842606 -0.066957854 -0.054165054 -0.023716835 -0.045382112 -0.006007524 -0.002046584
0.03162773 0.018759182 -0.02614145 -0.022291778 0.018554078 -0.0294201 -0.060043965 0.043099716
0.017015861 0.0097054625 -0.013723586 -0.0072809146 -0.004786461 -0.0348065 -0.09430272 -0.04462518
0.0030863138 -0.024935441 -0.0037031707 -0.03984874 -0.00397259 0.018488655 -0.09331743 -0.02881415
-0.09376369 -0.047563594 0.0024853556 -0.012832881 -0.0752025 -0.0023319358 -0.040596783 -0.057606343
-0.05668699 -0.042361125 -0.064134 -0.0281412 -0.0054589813 -0.056075912 -0.022574024 0.03452388
0.07416075 -0.067969956 0.036634453 -0.01236105 0.043892656 0.01288645 -0.021947358 -0.05273067
-0.060893837 0.0029521834 -0.00059007603 -0.010678096 0.042172205 0.030387774 -0.014405996 -0.014771207
0.018087598 -0.08719184 0.024110202 -0.07240275 -0.043900076 0.009682963 -0.048669625 0.033439193
0.022574304 -0.002860641 -0.040542856 -0.020403642 0.01787417 0.052527867 -0.0066599404 -0.018509183
0.007920364 0.035711482 -0.05938816 -0.06721514 -0.024991812 0.03735748 -0.050413154 -0.004146307
0.021910088 -0.052220013 -0.05228096 -0.04452646 -0.021271875 -0.07727248 -0.04455247 -0.037234034
0.0151406815 0.0016957436 0.005617907 0.063350774 0.033168025 -0.07181053 -0.07760382 -0.09311658
-0.0072201383 0.067267485 0.006949823 0.010278556 -0.06562766 0.008419159 0.019280406 0.041295607
-0.10457011 -0.091529645 0.0066794814 -0.08080386 -0.067137 -0.059536196 -0.0046609724 -0.0070576235
-0.023900159 -0.03737578 -0.004112679 -0.02404218 0.028656257 0.02300009 -0.045090143 0.023618024
-0.04547938 -0.029262468 0.0048877243 0.021047702 -0.044491313 0.026451359 -0.09984881 -0.039282702
-0.009296157 0.00511128 -0.103354976 0.037573684 -0.027609766 -0.0921269 0.05851478 -0.03214523
-0.07225724 -0.01941282 0.025680725 -0.05720703 -0.031085445 0.020954816 -0.05228881 -0.07680461
-0.015244244 -0.04890554 0.034771547 -0.005458552 -0.022897141 -0.07620476 -0.07739437 -0.051490776
0.00056757516 -0.099808946 0.03518453 -0.0028511707 -0.047175534 -0.015014827 -0.033835426 -0.026474578
-0.0932089 -0.048918292 -0.06300911 0.026441189 -0.051453907 0.048485216 0.026357688 0.010729249
-0.007159821 -0.027222056 -0.04102525 0.05900968 -0.017730793 -0.08522255 -0.033123646 -0.05462044
0.016823942 0.01163387 -0.0033357537 0.007355155 -0.027754832 -0.008389459 -0.04094914 -0.070947334
0.009099084 -0.12654659 0.013310386 -0.048042167 -0.06864934 0.012737432 0.023315124 -0.0051859245
-0.02747716 -0.01674 -0.05134997 -0.020495059 -0.04188273 -0.02858257 0.031121645 -0.0028520979
-0.06083456 -0.054524213 -0.0010093412 0.005882222 0.053956315 -0.021263938 0.034830626 -0.016800858
-0.05797731 -0.022293827 -0.040681206 -0.041165676 0.006358376 -0.002925737 -0.037033577 0.012337139
-0.022615176 -0.01772626 0.0028548623 -0.005871153 0.0047652423 -0.07505373 0.023676535 -0.06757033
0.046063032 0.016908308 0.038145635 -0.007946459 0.0325353 -0.019049818 0.04195507 0.014043239
-0.05256453 0.068133436 -0.02194797 0.04092111 0.017513124 0.011420078 -0.019744571 -0.02452668
-0.06843149 -0.034911916 -0.034548514 -0.037505567 0.04748137 -0.0037712653 0.029701317 0.0003173933
00000000: 1414 c93b cf5b 9abc 3321 89bd 2ddc 5dbd
00000010: cf49 c2bc 98e2 39bd c4da c4bb fb1f 06bb
00000020: 148c 013d dbac 993c 9826 d6bc 3f9d b6bc
00000030: b9fe 973c 6c02 f1bc a9f0 75bd 5489 303d
00000040: d964 8b3c a903 1f3c e4d8 60bc bd94 eebb
00000050: bfd7 9cbb 4391 0ebd c921 c1bd e5c8 36bd
00000060: c143 4a3b 6945 ccbc e5b0 72bb 6f38 23bd
00000070: 802c 82bb 8575 973c 351d bfbd a70b ecbc
00000080: 2d07 c0bd 0bd2 42bd 59e1 223b 0141 52bc
00000090: c503 9abd 64d3 18bb d048 26bd a1f4 6bbd
000000a0: 9e30 68bd dc82 2dbd b058 83bd 6088 e6bc
000000b0: 41e1 b2bb dbaf 65bd 29ed b8bc e968 0d3d
000000c0: 97e1 973d d533 8bbd 020e 163d 0086 4abc
000000d0: c9c8 333d b021 533c f2ca b3bc 1dfc 57bd
000000e0: d16b 79bd 6b79 413b 55af 1aba 2ef3 2ebc
000000f0: c3bc 2c3d c8ef f83c 2007 6cbc ef02 72bc
00000100: 712c 943c a391 b2bd c282 c53c e547 94bd
00000110: 91d0 33bd 4aa5 1e3c cd59 47bd 89f7 083d
00000120: bfed b83c 9879 3bbb 4410 26bd 8a25 a7bc
00000130: da6c 923c 7627 573d a13b dabb 92a0 97bc
00000140: 6ac4 013c 3446 123d 0041 73bd 17a8 89bd
00000150: a1bb ccbc 2804 193d 067e 4ebd bedd 87bb
00000160: c97c b33c a7e4 55bd 8f24 56bd 6161 36bd
00000170: 5b42 aebc 0941 9ebd a77c 36bd b782 18bd
00000180: 9f10 783c b743 de3a 6b16 b83b 0dbe 813d
00000190: 32db 073d 6611 93bd c0ee 9ebd e8b3 bebd
000001a0: e996 ecbb 89c3 893d 57bb e33b 6367 283c
000001b0: cb67 86bd 83f0 093c f1f1 9d3c 9525 293d
000001c0: db28 d6bd e573 bbbd 8ddf da3b 7f7c a5bd
000001d0: 207f 89bd 3adc 73bd 12bb 98bb a343 e7bb
000001e0: 44ca c3bc 5917 19bd a7c3 86bb 1bf4 c4bc
000001f0: 87c0 ea3c af6a bc3c 71b0 38bd 967a c13c
00000200: 9648 3abd d8b7 efbc 3429 a03b 3b6c ac3c
00000210: 863c 36bd 85b0 d83c 887d ccbd e6e6 20bd
00000220: e94e 18bc 867c a73b c6ab d3bd dde6 193d
00000230: e02d e2bc 07ad bcbd 32ad 6f3d b7aa 03bd
00000240: 9bfb 93bd a207 9fbc 6260 d23c eb51 6abd
00000250: e7a6 febc 6fa9 ab3c cb2c 56bd bc4b 9dbd
00000260: fec2 79bc 2d51 48bd 9c6c 0e3d a7dd b2bb
00000270: c992 bbbc 3e11 9cbd f180 9ebd fee7 52bd
00000280: 53c9 143a a268 ccbd a71d 103d b5da 3abb
00000290: 223b 41bd c000 76bc 0497 0abd 37e1 d8bc
000002a0: 4fe4 bebd 8c5e 48bd ec0a 81bd 319b d83c
000002b0: 55c1 52bd 6f98 463d 14ec d73c bbc9 2f3c
000002c0: ef9c eabb ca00 dfbc 180a 28bd 22b4 713d
000002d0: 2b40 91bc 2989 aebd a9ac 07bd afb9 5fbd
000002e0: 5dd2 893c fd9b 3e3c a99c 5abb 8303 f13b
000002f0: 1a5e e3bc f173 09bc 49ba 27bd d64c 91bd
00000300: 5314 153c 6e95 01be ce13 5a3c ddc7 44bd
00000310: 0698 8cbd a9b0 503c 5cff be3c b0ee a9bb
00000320: c817 e1bc 5322 89bc 5954 52bd 41e5 a7bc
00000330: 3a8d 2bbd fe25 eabc d2f2 fe3c 43ea 3abb
00000340: a92d 79bd c854 5fbd df4b 84ba a8bf c03b
00000350: 4c01 5d3d b631 aebc 8faa 0e3d f4a1 89bc
00000360: 9e79 6dbd 8ba1 b6bc 56a1 26bd 579d 28bd
00000370: ec59 d03b b9bd 3fbb 85b0 17bd b621 4a3c
00000380: 7643 b9bc a936 91bc a418 3b3b cd62 c0bb
00000390: c025 9c3b c5b5 99bd 4bf5 c13c 5062 8abd
000003a0: 97ac 3c3d 4b83 8a3c 993e 1c3d dd31 02bc
000003b0: bc43 053d 5d0e 9cbc 14d9 2b3d 9d15 663c
000003c0: e84d 57bd 8b89 8b3d 3bcc b3bc e59c 273d
000003d0: af77 8f3c 471b 3b3c 5ebf a1bc 2dec c8bc
000003e0: cf25 8cbd ccff 0ebd be82 0dbd 709f 19bd
000003f0: d37b 423d 5527 77bb 2d50 f33c cf67 a639

conv2.bias f4 [128]
-0.07740035 0.07019607 -0.019801388 -0.03961988 -0.038508337 -0.033239946 0.0369831 -0.082020655
-0.1523617 -0.117946446 -0.076740585 -0.019746292 -0.045327004 0.00020223297 -0.023888422 -0.12092707
-0.12941767 -0.08878477 -0.0385803 -0.020101838 0.058704168 -0.16253863 -0.15407094 -0.0011381551
-0.062154688 -0.019435778 -0.22238652 -0.03938412 -0.11382691 0.024203036 0.04095804 0.048758216
-0.05341758 0.008380145 -0.05163367 -0.10477491 -0.0141287735 -0.030815696 -0.044436134 0.16874121
-0.012663316 -0.23352668 0.11853515 -0.102521956 -0.17778206 -0.061365064 -0.14414904 -0.014055762
-0.11849576 -0.124318466 -0.096682265 -0.046647128 -0.1150178 0.004002504 -0.12839803 -0.17840573
-0.23254654 -0.07283001 -0.053074326 0.017107937 -0.051508136 -0.141632 -0.07090351 0.023852536
-0.111494675 -0.04344544 -0.0393701 0.05999741 -0.048460748 -0.09431261 -0.05404709 0.055004638
-0.036996976 -0.06133941 -0.061454445 -0.04556861 -0.04422936 -0.06238566 -0.09978732 -0.029631017
-0.04474366 -0.02890531 -0.032444242 -0.08441579 0.008814232 -0.01792904 0.057738964 -0.064963184
-0.1304597 -0.10803595 -0.02622154 -0.08895572 -0.06562986 -0.17557639 -0.0027566885 -0.022812013
-0.03520952 -0.05123647 -0.07207688 -0.05751441 -0.04339035 -0.1842437 -0.055320535 -0.078524806
-0.122052684 -0.17550117 -0.022234187 -0.02274429 -0.03876143 -0.04880913 -0.014147464 -0.044567797
-0.035445254 -0.18498866 -0.031135108 -0.14458372 -0.0752716 -0.10138887 -0.062916756 -0.131355
0.013257429 -0.012432572 0.0059398445 -0.011129964 -0.053744745 -0.076277815 -0.058144577 -0.14306471
00000000: 1384 9ebd f5c2 8f3d 8536 a2bc 7548 22bd
00000010: ebba 1dbd 9c26 08bd 977b 173d 72fa a7bd
00000020: b504 1cbe e88d f1bd 2b2a 9dbd fac2 a1bc
00000030: cfa8 39bd 800e 5439 a7b1 c3bc 9da8 f7bd
00000040: 1186 04be cad4 b5bd 6006 1ebd 9cac a4bc
00000050: c873 703d 8770 26be c6c4 1dbe 262e 95ba
00000060: ea95 7ebd c837 9fbc 4bb9 63be 3e51 21bd
00000070: 151e e9bd 7245 c63c 9ec3 273d b2b6 473d
00000080: 64cc 5abd e04c 093c d47d 53bd 3a94 d6bd
00000090: 5f7c 67bc 3371 fcbc aa02 36bd 7fca 2c3e
000000a0: cc79 4fbc 9e21 6fbe 8fc2 f23d 08f7 d1bd
000000b0: 800c 36be ef59 7bbd ce9b 13be 244a 66bc
000000c0: e8ad f2bd ae9a febd 5a01 c6bd 0f11 3fbd
000000d0: 748e ebbd 7027 833b c67a 03be feaf 36be
000000e0: ae20 6ebe e627 95bd 7764 59bd f225 8c3c
000000f0: 32fa 52bd fb07 11be dc35 91bd 6566 c33c
00000100: 5257 e4bd d8f3 31bd 8b42 21bd d8bf 753d
00000110: c77e 46bd f826 c1bd 7b60 5dbd 8b4c 613d
00000120: 248a 17bd 083f 7bbd a8b7 7bbd 27a6 3abd
00000130: d829 35bd 1b88 7fbd 4b5d ccbd bfbc f2bc
00000140: 2145 37bd d4ca ecbc 41e4 04bd 30e2 acbd
00000150: 9269 103c ecdf 92bc b17f 6c3d 6b0b 85bd
00000160: 3a97 05be f441 ddbd 8ece d6bc 6b2e b6bd
00000170: f368 86bd 4cca 33be 8fa9 34bb 42e0 babc
00000180: dc37 10bd 55dd 51bd 0b9d 93bd 3b94 6bbd
00000190: 14ba 31bd 61aa 3cbe c997 62bd 9dd1 a0bd
000001a0: c2f6 f9bd 94b6 33be 7824 b6bc 3c52 babc
000001b0: 4ec4 1ebd 15ec 47bd c4ca 67bc b98c 36bd
000001c0: 0b2f 11bd ab6d 3dbe 0e0f ffbc c10d 14be
000001d0: ff27 9abd f8a4 cfbd 80da 80bd ed81 06be
000001e0: b035 593c fdb1 4bbc 07a3 c23b 745a 36bc
000001f0: 7323 5cbd 8b37 9cbd 0229 6ebd 8e7f 12be

fc1.weight f4 [128, 768]
0.009812121 0.010328569 0.018797781 0.034064367 -0.052530974 -0.032975573 -0.17125404 -0.038804624
-0.053664103 0.14801972 0.18621561 0.13569383 -0.15537472 0.0353896 0.1307364 0.20304105
0.23447853 -0.34592554 -0.30456695 -0.12077374 -0.19519848 -0.33138615 -0.073336475 0.0045131035
0.039023865 -0.041792437 -0.06883466 0.11811373 -0.05677258 -0.049043268 0.21234736 0.057352133
0.120452255 -0.120955355 0.22880247 -0.042756792 0.255689 -0.06955659 -0.12717813 -0.18095182
-0.1471821 -0.25177872 -0.22750668 -0.049033664 -0.068414055 -0.3622902 -0.1142163 -0.08178124
-0.20392945 -0.13910955 0.10992326 0.11966154 0.29120645 0.1403659 -0.2480037 0.13623616
-0.0038953468 -0.12206248 0.03065224 0.028892154 -0.23208871 -0.120153345 -0.025667606 -0.25379583
-0.17638144 -0.08681521 -0.25009453 -0.5086558 -0.10475512 -0.21448907 0.055308767 -0.22104514
-0.18240471 0.066051885 0.06709198 -0.12913392 -0.5756322 0.303688 0.12453844 -0.14015193
-0.4385831 -0.102044046 0.31839284 -0.1456164 -0.15078482 0.015664663 -0.22882126 0.05775911
-0.0025400873 0.16814232 0.1974895 -0.056216374 -0.4908297 -0.45572102 -0.017302528 -0.3060111
0.1266931 -0.11665744 -0.10002717 0.024800668 0.098927535 -0.44085604 -0.07345311 0.19627653
0.19522427 -0.025349932 -0.032743957 -0.0232662 -0.048128072 0.22485615 -0.24729483 0.02331981
-0.05839297 -0.02993495 -0.27181828 -0.10958864 0.013448107 -0.14520659 -0.2806186 -0.04701083
0.12556705 0.34722415 -0.2651858 0.0115784025 0.096331194 -0.11464262 -0.34179732 0.1136852
-0.15615608 -0.008086809 -0.07448817 -0.30085745 0.5498591 -0.16106115 -0.30265507 -0.11613847
-0.2144512 -0.17481053 -0.16539967 -0.4472174 0.0866121 -0.3116252 -0.0220503 -0.49920362
0.11405736 -0.003871432 -0.085844405 0.23028982 -0.2675313 -0.14294435 0.074318714 -0.24657856
-0.11113067 0.08580697 0.0592136 0.04599087 0.68277985 -0.24593964 -0.49806437 -0.34744
-0.2708999 -0.29459253 -0.16197345 -0.003627841 -0.1618439 -0.04487296 0.03152395 -0.41709277
-0.06049691 -0.1040446 -0.16445561 0.06385699 -0.06173618 0.09180505 0.10488238 -0.2402106
-0.39444625 0.025698697 -0.021109296 0.13624924 -0.15022233 0.022947941 0.14175402 -0.41456103
-0.0032107353 -0.040272057 -0.16356407 -0.18565844 -0.3132806 0.1314568 -0.28574094 -0.051967688
0.013096272 -0.006774435 0.003241728 0.020628681 -0.031156162 -0.0082549 0.047379736 0.23890059
-0.035558175 0.07012988 -0.1010371 0.2882079 0.17584322 -0.17116135 0.08454634 0.05074233
-0.6366244 -0.18813719 -0.42605188 0.20223993 -0.017006556 -0.3734131 -0.025203526 -0.16896194
-0.2989613 -0.17740498 -0.26583844 0.03982052 0.008323596 -0.1781082 0.38607347 -0.02351246
0.19602016 -0.15225145 0.13882689 -0.24243774 0.10072878 -0.17251128 0.014742217 -0.39382282
-0.083557315 -0.03931865 0.26636043 -0.06554096 -0.029145537 -0.2270902 0.030981682 0.024466978
-0.0036612495 0.1960148 0.17507544 -0.27005997 0.0014267813 -0.14259635 0.13321035 0.057292756
-0.25966376 -0.17563914 0.22652721 0.032024175 -0.108676255 -0.274706 -0.05077331 -0.02520834
00000000: 05c3 203c 2939 293c cefd 993c 1487 0b3d
00000010: b82a 57bd 6511 07bd 385d 2fbe 99f1 1ebd
00000020: e4ce 5bbd 7b92 173e 4eaf 3e3e 53f3 0a3e
00000030: 8d1a 1fbe aff4 103d c3df 053e fee9 4f3e
00000040: 241b 703e 271d b1be 33f0 9bbe 3958 f7bd
00000050: 1ce2 47be 72ab a9be 6f31 96bd a8e2 933b
00000060: 7dd7 1f3d 8c2e 2bbd 30f9 8cbd 9ce5 f13d
00000070: 5d8a 68bd 98e1 48bd 9671 593e 12ea 6a3d
00000080: acaf f63d 71b7 f7bd 324b 6a3e bf21 2fbd
00000090: abe9 823e af73 8ebd fc3a 02be 6f4b 39be
000000a0: e8b6 16be 24e9 80be 83f7 68be 86d7 48bd
000000b0: ab1c 8cbd 1a7e b9be 3cea e9bd ec7c a7bd
000000c0: e2d2 50be bc72 0ebe 721f e13d 1c11 f53d
000000d0: 0319 953e 14bc 0f3e aff4 7dbe 7e81 0b3e
000000e0: 1349 7fbb e5fb f9bd 681a fb3c 3daf ec3c
000000f0: aaa8 6dbe f512 f6bd df44 d2bc 87f1 81be
00000100: 569d 34be 2ccc b1bd 640c 80be 4437 02bf
00000110: da89 d6bd 06a3 5bbe 728b 623d a859 62be
00000120: 4dc8 3abe 3646 873d 8567 893d af3b 04be
00000130: a25c 13bf fe7c 9b3e 020e ff3d fd83 0fbe
00000140: f78d e0be 78fc d0bd 6304 a33e 771c 15be
00000150: 5667 1abe 2e53 803c 1f50 6abe d194 6c3d
00000160: 9877 26bb 802d 2c3e b03a 4a3e 2443 66bd
00000170: 084e fbbe 4454 e9be 08be 8dbc 7dad 9cbe
00000180: d6bb 013e 19ea eebd 0bdb ccbd c52a cb3c
00000190: 859a ca3d e2b7 e1be 966e 96bd b7fc 483e
000001a0: dfe8 473e a9aa cfbc 871e 06bd c298 bebc
000001b0: f121 45bd b140 663e db3a 7dbe 3009 bf3c
000001c0: 782d 6fbd 243a f5bc c42b 8bbe 0270 e0bd
000001d0: 7355 5c3c 09b1 14be 3ead 8fbe 6e8e 40bd
000001e0: a694 003e 5dc7 b13e 6fc6 87be 57b3 3d3c
000001f0: 4a49 c53d c0c9 eabd 0f00 afbe c9d3 e83d
00000200: 61e7 1fbe 897e 04bc 418d 98bd fd09 9abe
00000210: 91c3 0c3f 37ed 24be 9bf5 9abe 02da edbd
00000220: 1899 5bbe 8801 33be 885e 29be aef9 e4be
00000230: af61 b13d 578d 9fbe d5a2 b4bc 9e97 ffbe
00000240: e896 e93d dab7 7dbb 31cf afbd 18d1 6b3e
00000250: ddf9 88be 0160 12be 6934 983d 177f 7cbe
00000260: 7a98 e3bd 91bb af3d f689 723d ec60 3c3d
00000270: a9ca 2e3f 9ad7 7bbe 4b02 ffbe a8e3 b1be
00000280: 64b3 8abe d5d4 96be 5edc 25be 12c1 6dbb
00000290: 68ba 25be b5cc 37bd 421f 013d 2f8d d5be
000002a0: 9ccb 77bd 5615 d5bd 0d67 28be 74c7 823d
000002b0: 14df 7cbd 4904 bc3d 93cc d63d c4f9 75be
000002c0: dcf4 c9be 1386 d23c 67ed acbc ec84 0b3e
000002d0: e2d3 19be 52fd bb3c f727 113e 5841 d4be
000002e0: 336b 52bb 50f4 24bd 577d 27be 3f1d 3ebe
000002f0: 5166 a0be 9d9c 063e a34c 92be 12dc 54bd
00000300: bf91 563c 14fc ddbb 2c73 543b 7bfd a83c
00000310: 353b ffbc 8f3f 07bc 4111 423d 5ba2 743e
00000320: 73a5 11bd 41a0 8f3d 8aec cebd fc8f 933e
00000330: 3f10 343e ec44 2fbe a226 ad3d 30d7 4f3d
00000340: d1f9 22bf 09a7 40be 7923 dabe fc17 4f3e
00000350: 5551 8bbc 0030 bfbe a077 cebc 5c04 2dbe
00000360: 7511 99be a7a9 35be fa1b 88be d71a 233d
00000370: b15f 083c ff61 36be 6cab c53e 349d c0bc
00000380: 82b9 483e cee7 1bbe a328 0e3e 9941 78be
00000390: e44a ce3d cca6 30be 5789 713c 25a3 c9be
000003a0: 1920 abbd 980c 21bd 6560 883e 573a 86bd
000003b0: 9fc2 eebc 558a 68be 4ccd fd3c f96e c83c
000003c0: 93f1 6fbb 1bb8 483e fa46 333e 4d45 8abe
000003d0: d602 bb3a c704 12be 4b68 083e cfab 6a3d
000003e0: a6f2 84be bfda 33be c0f6 673e c82b 033d
000003f0: a891 debd 44a6 8cbe adf7 4fbd b881 cebc

fc1.bias f4 [128]
-0.079945445 -0.14740446 -0.1151822 -0.029174069 -0.072903395 -0.1981323 -0.023855845 -0.017225083
-0.022634111 0.21470363 -0.20232658 -0.21641651 -0.05174294 0.008133872 -0.007713214 0.00417441
-0.037690803 -0.04331072 -0.047127564 -0.08518702 -0.014762075 -0.018332671 -0.014136416 -0.0507342
-0.047788043 -0.122741155 -0.12000394 -0.036402177 -0.1843966 -0.24935526 -0.033390634 -0.034621663
0.014315425 -0.057262033 -0.122662194 -0.040620934 -0.21279626 0.012247811 0.06939271 -0.053995296
-0.024596278 -0.047923762 0.10042804 0.030035725 -0.0389434 -0.11596407 -0.037500467 0.086166285
-0.14061597 -0.17799656 -0.19250792 -0.025481112 -0.18800923 -0.054471124 0.23020872 -0.09082945
0.049100753 0.020400578 -0.16087309 -0.10995347 0.07498857 0.03511121 -0.024322497 -0.100465715
-0.07763154 0.1534403 -0.0734232 -0.044371486 0.080865525 -0.14337848 -0.025206733 -0.106781125
-0.16670342 0.021085115 -0.09752904 -0.07034065 -0.0289382 -0.036760088 0.003385565 -0.041194096
-0.041001484 -0.05473068 0.002481258 -0.09966288 -0.043889694 -0.0467237 -0.09342208 -0.039162762
0.019981977 -0.09326737 0.016681803 0.00029750858 -0.12895645 -0.044394977 0.09395057 -0.06326121
0.14836925 -0.024822062 0.006661153 -0.09916162 -0.1009915 -0.14792275 -0.067517705 0.084462985
-0.008405969 -0.08145408 -0.16742979 0.054130644 -0.1202229 -0.09523997 -0.080683954 -0.05605986
-0.11079241 -0.040186882 0.094610274 -0.11338773 0.01832232 -0.096471466 -0.10899838 -0.13843402
0.07106267 0.15791862 -0.06479896 -0.17751044 0.04894209 -0.0558459 -0.056893047 -0.08707352
00000000: 70ba a3bd 32f1 16be a5e4 ebbd 75fe eebc
00000010: 604e 95bd 32e3 4abe 556d c3bc 9e1b 8dbc
00000020: 2c6b b9bc 45db 5b3e b32e 4fbe 4a9c 5dbe
00000030: 68f0 53bd ef43 053c 21bf fcbb 7dc9 883b
00000040: ac61 1abd 9566 31bd d508 41bd 8876 aebd
00000050: a1dc 71bc 662e 96bc 6d9c 67bc aace 4fbd
00000060: 65bd 43bd b75f fbbd a0c4 f5bd 731a 15bd
00000070: 76d2 3cbe fc56 7fbe 9ec4 08bd 72cf 0dbd
00000080: 3f8b 6a3c 988b 6abd 5136 fbbd 2362 26bd
00000090: 43e7 59be 0bab 483c c41d 8e3d 2c2a 5dbd
000000a0: 227e c9bc b54b 44bd 37ad cd3d 7b0d f63c
000000b0: 1d83 1fbd 927e edbd 179a 19bd f377 b03d
000000c0: a2fd 0fbe bb44 36be cc20 45be c4bd d0bc
000000d0: 7e85 40be 1d1d 5fbd d6bb 6b3e ca04 babd
000000e0: df1d 493d 1d1f a73c eabb 24be 492f e1bd
000000f0: 9b93 993d c6d0 0f3d f93f c7bc f8c0 cdbd
00000100: 49fd 9ebd 741f 1d3e e75e 96bd e0be 35bd
00000110: d39c a53d cfd1 12be 5a7e cebc 10b0 dabd
00000120: 4db4 2abe b1ba ac3c 4ebd c7bd c20e 90bd
00000130: ce0f edbc bf91 16bd 5be0 5d3b 24bb 28bd
00000140: 2cf1 27bd 472d 60bd 9a9c 223b 0d1c ccbd
00000150: aec5 33bd 5a61 3fbd 1354 bfbd 2269 20bd
00000160: 3eb1 a33c f602 bfbd 47a8 883c edfa 9b39
00000170: 290d 04be 82d7 35bd 2869 c03d 188f 81bd
00000180: 1cee 173e a357 cbbc cd45 da3b 3f15 cbbd
00000190: a2d4 cebd 1079 17be b946 8abd eefa ac3d
000001a0: 30b9 09bc 66d1 a6bd b772 2bbe 18b8 5d3d
000001b0: 6c37 f6bd 2c0d c3bd a13d a5bd 069f 65bd
000001c0: 22e7 e2bd 009b 24bd 08c3 c13d d437 e8bd
000001d0: b118 963c d592 c5bd 8b3a dfbd a6c1 0dbe
000001e0: 4e89 913d 6bb5 213e 51b5 84bd 4cc5 35be
000001f0: 8077 483d acbe 64bd af08 69bd 9a53 b2bd

fc2.weight f4 [7, 128]
-0.23913491 -0.2624356 0.1785035 -0.053281184 0.2461873 0.27391937 -0.2897137 -0.26307803
-0.25679633 0.12397801 0.3064295 -0.24906343 0.00808224 -0.16679874 -0.29991463 0.2278224
0.005326494 -0.13736859 -0.04141028 0.1349738 -0.07556918 -0.08576216 0.12911664 -0.25307658
0.024094656 0.35914066 -0.11278741 -0.012491372 -0.07684871 -0.33598748 -0.43257627 -0.34580314
0.059189443 0.25678077 0.1836873 -0.025515119 -0.3498432 0.04157423 0.1855709 -0.032848004
0.0650598 -0.067697614 -0.18441148 0.20485629 0.14765929 0.15260856 0.19519259 -0.21230002
-0.038720597 0.16461182 0.2822694 0.26934883 0.3775262 0.07126929 0.17209524 -0.227879
-0.20461644 0.12030262 0.33333123 0.22548893 -0.19071472 0.13083951 0.04721231 0.30077142
-0.021757925 0.204838 0.2954328 -0.08911101 -0.72793394 0.18570822 -0.09538566 0.36627722
-0.27362043 0.2739908 0.20010102 0.18909168 0.36757672 0.1330316 -0.118926145 0.12591772
0.21100076 -0.013219661 0.041059256 -0.28382725 0.26608828 -0.31536046 0.2120009 0.09199231
-0.036308765 -0.040950034 0.10261062 0.14179803 0.3178983 -0.23201284 -0.17178518 -0.029344015
0.19897363 -0.042027347 0.05501809 -0.2708042 -0.2761962 0.28321677 -0.115339786 0.2706213
-0.016546968 0.20644537 0.35513994 0.24787043 0.2798648 -0.31253833 0.16967216 0.069928154
0.18943909 -0.0064662835 0.12584953 -0.28046343 0.21883245 0.30853134 0.12098699 -0.39591917
0.21401373 -0.23642325 -0.07623684 0.28271517 0.23283385 0.2146514 0.23379825 -0.2307183
-0.24506806 0.2746067 0.14843869 -0.02775187 0.29338264 0.18799995 0.119175896 0.3052965
0.13339604 0.13523044 -0.20585978 -0.34753376 0.022530474 -0.37313962 0.19605948 0.16851568
-0.063671656 -0.23839252 0.061854668 0.10675126 0.011166908 -0.28616577 0.08829447 -0.2031485
-0.017093845 0.33990744 -0.25443918 0.004430348 0.29125118 -0.28635648 0.111181475 0.300009
0.061358184 0.16101891 0.3871671 0.0053763464 0.35817677 -0.034297444 0.18808109 -0.06882955
0.11736672 0.07081297 -0.1051247 0.20929846 0.08500634 0.21715528 0.06416416 0.0060901027
0.11487931 -0.33268192 0.124234684 0.27060008 0.31636325 0.05343005 0.21720368 -0.21172914
-0.35885054 0.21270347 0.091126464 0.18143219 -0.19096757 0.08764486 -0.06653658 0.09080188
-0.34784767 0.2034338 0.32839048 -0.31242377 0.17631024 0.23486847 -0.21520258 0.33210757
0.1969025 0.019121671 -0.36164922 0.15973741 0.2179288 0.23285392 -0.3404256 -0.27643663
-0.30355656 -0.26235437 -0.0019326558 -0.36199299 0.36999053 -0.19817026 0.24581249 0.013264287
-0.536794 0.33327502 -0.3208066 0.046391953 0.42895672 0.22931126 -0.013799513 0.08820265
0.16156189 -0.051188592 0.061032422 -0.12768479 0.17402665 0.17296375 -0.18858033 0.18863337
-0.044786524 -0.27870616 -0.37951687 0.2564775 0.3304818 0.27175868 -0.22812201 0.16204359
0.21637109 0.04020579 0.13792731 0.26559758 0.27281263 -0.16529854 0.105060555 -0.3660718
-0.16745393 0.13235445 0.033605736 0.28478754 -0.14367335 -0.3830948 0.15801142 -0.11777784
00000000: c8df 74be f55d 86be 9fc9 363e 5f3d 5abd
00000010: 8618 7c3e 293f 8c3e 5b55 94be 2ab2 86be
00000020: cf7a 83be 2fe8 fd3d 54e4 9c3e 7c0a 7fbe
00000030: 5f6b 043c 4acd 2abe 698e 99be 464a 693e
00000040: df89 ae3b 5aaa 0cbe d39d 29bd 9236 0a3e
00000050: 04c4 9abd 12a4 afbd 2737 043e 4193 81be
00000060: 2862 c53c 49e1 b73e 16fd e6bd 9da8 4cbc
00000070: db62 9dbd 8d06 acbe a37a ddbe 1c0d b1be
00000080: a170 723d c578 833e 8618 3c3e 1505 d1bc
00000090: a61e b3be bd49 2a3d 4c06 3e3e a18b 06bd
000000a0: 133e 853d 0ca5 8abd 5dd6 3cbe d9c5 513e
000000b0: ff33 173e 6b45 1c3e 91e0 473e 2d65 59be
000000c0: 7d99 1ebd 0090 283e 9d85 903e 17e8 893e
000000d0: 1d4b c13e a2f5 913d bc39 303e 1d59 69be
000000e0: f986 51be 3861 f63d 64aa aa3e 92e6 663e
000000f0: b84a 43be cbfa 053e b261 413d b6fe 993e
00000100: ad3d b2bc 0dc1 513e f842 973e d57f b6bd
00000110: e159 3abf 4c2a 3e3e 8f59 c3bd b088 bb3e
00000120: fa17 8cbe 8648 8c3e 48e7 4c3e 40a1 413e
00000130: 0433 bc3e 7039 083e 8d8f f3bd 93f0 003e
00000140: 9510 583e 4797 58bc c02d 283d ce51 91be
00000150: b93c 883e ed76 a1be c416 593e 7766 bc3d
00000160: 80b8 14bd 39bb 27bd 8425 d23d 8133 113e
00000170: 91c3 a23e c694 6dbe 74e8 2fbe dc62 f0bc
00000180: bebf 4b3e de24 2cbd a65a 613d d9a6 8abe
00000190: 9769 8dbe ca01 913e 4437 ecbd e08e 8a3e
000001a0: 828d 87bc 6a66 533e e7d4 b53e bfd1 7d3e
000001b0: 704a 8f3e 0605 a0be 8abe 2d3e 7e36 8f3d
000001c0: 52fc 413e 1ee3 d3bb b3de 003e e798 8fbe
000001d0: 9d15 603e d2f7 9d3e 07c8 f73d ebb5 cabe
000001e0: 6a26 5b3e f018 72be 0f22 9cbd 0bc0 903e
000001f0: ff6b 6e3e 94cd 5b3e cf68 6f3e 6b41 6cbe
00000200: 1ff3 7abe 4099 8c3e 5000 183e e457 e3bc
00000210: 4036 963e 0f83 403e 7e12 f43d d34f 9c3e
00000220: f998 083e d979 0a3e e8cc 52be f2ef b1be
00000230: d491 b83c 280c bfbe d1c3 483e 608f 2c3e
00000240: 4966 82bd 2b1d 74be 525b 7d3d 68a0 da3d
00000250: 68f5 363c 5284 92be bbd3 b43d 2906 50be
00000260: 6408 8cbc 5908 ae3e da45 82be 742c 913b
00000270: e01e 953e 519d 92be 1db3 e33d c89a 993e
00000280: b852 7b3d 24e2 243e c43a c63e 102c b03b
00000290: f262 b73e 7a7b 0cbd 5498 403e 82f6 8cbd
000002a0: f75d f03d 6406 913d 9e4b d7bd 5652 563e
000002b0: ce17 ae3d f45d 5e3e 8068 833d 7c8f c73b
000002c0: d845 eb3d 4955 aabe c16e fe3d 188c 8a3e
000002d0: 5dfa a13e 78d9 5a3d a46a 5e3e 86cf 58be
000002e0: 42bb b7be f0ce 593e 83a0 ba3d 5cc9 393e
000002f0: 018d 43be 267f b33d 5544 88bd 56f6 b93d
00000300: 1719 b2be f350 503e cc22 a83e 02f6 9fbe
00000310: ac8a 343e 5c81 703e 115e 5cbe 010a aa3e
00000320: cfa0 493e 0da5 9c3c 162a b9be 3492 233e
00000330: ba28 5f3e 4271 6e3e 444c aebe 1a89 8dbe
00000340: c46b 9bbe 5053 86be 2b51 fdba 2557 b9be
00000350: 666f bd3e 25ed 4abe 45b6 7b3e 7452 593c
00000360: 556b 09bf 06a3 aa3e c340 a4be 7d05 3e3d
00000370: 37a0 db3e 92d0 6a3e 5a17 62bc 97a3 b43d
00000380: 7b70 253e 21ab 51bd 22fd 793d cdbf 02be
00000390: 0b34 323e 691d 313e 341b 41be 1b29 413e
000003a0: 1372 37bd 93b2 8ebe 0950 c2be 0551 833e
000003b0: e934 a93e f423 8b3e d198 69be c1ee 253e
000003c0: 6290 5d3e d4ae 243d d13c 0d3e 68fc 873e
000003d0: 19ae 8b3e 0544 29be fd29 d73d c36d bbbe
000003e0: 0b79 2bbe ed87 073e 2ba6 093d accf 913e
000003f0: 1b1f 13be 0025 c4be bfcd 213e 8235 f1bd

fc2.bias f4 [7]
0.02812048 -0.06830331 0.06993128 0.08851136 0.09144448 -0.05118206 -0.070788845
00000000: ec5c e63c 9be2 8bbd 2238 8f3d 7245 b53d
00000010: 3e47 bb3d 48a4 51bd bef9 90bd
