dql_minimax.pt (torch, 536432 bytes, 8 tensors)

conv1.weight f4 [64, 1, 4, 4]
0.040968843 0.17417224 -0.1516112 -0.27388433 -0.44709572 -0.20471144 -0.08493337 -0.1826476
-0.047745027 -0.23056105 -0.06432971 0.047530036 0.025630768 -0.003306608 -0.23175389 0.1385841
0.31151235 0.25598592 0.0074168593 -0.13196711 0.3394407 0.10641614 -0.06777792 -0.31553316
-0.16800065 -0.08235773 0.17852701 -0.23856439 -0.4623592 -0.2578889 0.045415822 -0.10070564
0.17929038 0.18096237 -0.060518403 -0.22305274 0.0042982576 -0.008494876 -0.12069756 -0.23889597
-0.31194425 0.111835994 -0.15748566 0.3256423 -0.7058585 -0.034459986 0.3962521 -0.40470803
0.22865118 0.23283026 0.16374743 0.45885003 0.1621512 -0.2307862 0.017767237 -0.29186156
0.14119092 0.17367843 -0.2842953 -0.32595363 -0.31376606 -0.25918856 0.112337105 -0.19361952
0.2772961 -0.19195975 -0.41587496 0.35797465 0.23974675 -0.036038715 0.17257757 0.09012712
-0.095799044 0.12792711 0.21012893 0.340196 -0.26883116 -0.091131926 -0.19480518 -0.47463253
0.18499263 0.14193018 -0.396208 -0.403337 -0.064872585 -0.10813253 -0.37801638 -0.34163398
0.18641701 -0.05329911 0.15057942 0.013557917 -0.39608005 0.20471779 -0.40056613 0.22828703
-0.011261442 0.094384536 -0.88743335 0.03304326 -0.052765127 0.025748312 0.020851884 0.22087702
-0.069639966 -0.25408432 -0.018908212 -0.27133915 0.1811434 0.087858155 0.24500966 0.10970479
-0.36182544 0.17967543 -0.3935247 0.23957537 0.05613646 0.1686415 0.38325214 0.16166188
0.0639806 -0.3365903 -0.19918896 -0.18653803 -0.15499309 0.16957796 -0.4451638 -0.24170315
0.21878986 -0.17622648 -0.040756684 0.31741986 0.08952323 0.036464814 0.09450864 0.0596294
0.37328365 0.10414246 -0.0043465085 -0.2160846 -0.5875948 -0.28030756 0.24320717 -0.31065983
-0.35472983 -0.33669934 -0.2202002 0.30069134 0.29024157 0.018061358 0.11574849 0.041573036
-0.25644833 -0.16600846 0.2913877 0.091118686 0.49616894 -0.26905832 -0.31411004 -0.26487622
-0.03215478 0.0025201475 0.07437445 -0.2740058 -0.01038078 -0.22907567 -0.20632724 -0.17896144
0.011161791 0.11192755 0.02532358 -0.43095866 -0.05539471 -0.11559523 0.11933754 0.26336372
-0.221974 -0.08503274 0.043093108 -0.030059094 0.22366391 -0.07539679 0.07456916 0.07972552
-0.41351205 -0.5573372 0.19123651 -0.17636074 0.2386368 0.2789673 -0.059087604 -0.33493966
0.3154545 0.07338958 -0.13847207 0.23466052 0.22480376 -0.15384252 -0.14488535 -0.01979919
0.24859011 -0.124023154 -0.105428346 0.23854944 0.014328298 -0.28480995 0.0031096174 -0.0016716366
-0.5409695 -0.15330455 -0.28870702 -0.5462207 0.21848278 0.07522765 0.13751452 0.18860382
0.24573071 -0.009122029 -0.08585684 -0.2814623 -0.17500769 -0.23686694 -0.04407237 0.42122668
-0.15805753 -0.27645236 0.16953953 -0.36564544 0.032445233 0.11654426 0.11446277 0.063677
-0.12542346 -0.32600212 0.004538677 -0.09582967 -0.3751441 -0.33814922 -0.07861065 0.099861465
0.017757533 -0.22165605 -0.33446908 0.13636981 -0.5980197 0.020579712 -0.2282091 0.15918663
-0.018901898 0.16086063 -0.089350566 0.17677142 0.0419464 -0.32187924 -0.10506362 -0.021618264
00000000: f2ce 273d 355a 323e f73f 1bbe 913a 8cbe
00000010: bbe9 e4be e09f 51be 8cf1 adbd f907 3bbe
00000020: 4a90 43bd 3218 6cbe 4cbf 83bd dbae 423d
00000030: 9ef7 d13c adb3 58bb e450 6dbe fee8 0d3e
00000040: 8c7e 9f3e 9610 833e 2009 f33b 6322 07be
00000050: 2ccb ad3e b5f0 d93d 26cf 8abd 908d a1be
00000060: 5d08 2cbe 2bab a8bd c9cf 363e 394a 74be
00000070: 58ba ecbe 040a 84be f105 3a3d c23e cebd
00000080: e697 373e 334e 393e 25e2 77bd f067 64be
00000090: 66d8 8c3b 182e 0bbc 4830 f7bd 25a1 74be
000000a0: 28b7 9fbe 450a e53d ec43 21be 96ba a63e
000000b0: 25b3 34bf ea25 0dbd 8ee1 ca3e e435 cfbe
000000c0: 8923 6a3e 0e6b 6e3e 68ad 273e 64ee ea3e
000000d0: f70a 263e 3853 6cbe 998c 913c e16e 95be
000000e0: 5a94 103e c2d8 313e 278f 91be 65e3 a6be
000000f0: f2a5 a0be 5db4 84be ff10 e63d 3244 46be
00000100: c1f9 8d3e 1991 44be 90ed d4be 7448 b73e
00000110: 2c80 753e 559d 13bd 2db8 303e 9194 b83d
00000120: 4a32 c4bd 53ff 023e 0a2c 573e 2c2e ae3e
00000130: 3da4 89be 60a3 babd 027b 47be 0903 f3be
00000140: b56e 3d3e 2556 113e c6db cabe 3082 cebe
00000150: ebdb 84bd 9674 ddbd 5d8b c1be a6ea aebe
00000160: 1ae4 3e3e 2b50 5abd 7e31 1a3e 0722 5e3c
00000170: 01cb cabe 8aa1 513e 0117 cdbe 13c4 693e
00000180: e981 38bc ae4c c13d d52e 63bf 5f58 073d
00000190: 3f20 58bd 20ee d23c 92d1 aa3c 962d 623e
000001a0: 669f 8ebd 5717 82be 65e5 9abc f7ec 8abe
000001b0: a87d 393e faee b33d d0e3 7a3e e8ac e03d
000001c0: 2f41 b9be d6fc 373e 127c c9be 3f53 753e
000001d0: 58ef 653d 5bb0 2c3e a039 c43e b18a 253e
000001e0: 4308 833d 9055 acbe 31f8 4bbe d303 3fbe
000001f0: 82b6 1ebe d8a5 2d3e 82ec e3be 0881 77be
00000200: 730a 603e b774 34be 7bf0 26bd db84 a23e
00000210: f557 b73d 215c 153d bf8d c13d f53d 743d
00000220: 091f bf3e a448 d53d 286d 8ebb 4845 5dbe
00000230: 9d6c 16bf 7984 8fbe 4d0b 793e ce0e 9fbe
00000240: 269f b5be db63 acbe 297c 61be 37f4 993e
00000250: 8b9a 943e 6af5 933c 8b0d ed3d 7d48 2a3d
00000260: 324d 83be 1ffe 29be c530 953e 6f9c ba3d
00000270: db09 fe3e 03c2 89be 08d3 a0be db9d 87be
00000280: bbb4 03bd 0f29 253b a251 983d 7d4a 8cbe
00000290: 2614 2abc d092 6abe 7347 53be ab41 37be
000002a0: f2df 363c 453a e53d 6573 cf3c 9da6 dcbe
000002b0: 90e5 62bd 31bd ecbd 3d67 f43d 9cd7 863e
000002c0: 274d 63be a525 aebd 6682 303d 7d3e f6bc
000002d0: 2708 653e a269 9abd b7b7 983d 2247 a33d
000002e0: dab7 d3be a7ad 0ebf 81d3 433e e997 34be
000002f0: 355d 743e cdd4 8e3e d805 72bd 367d abbe
00000300: 4183 a13e 474d 963d 9fcb 0dbe d94a 703e
00000310: f532 663e e588 1dbe d35c 14be e931 a2bc
00000320: 688e 7e3e daff fdbd d1ea d7bd 4e46 743e
00000330: 3dc1 6a3c 9cd2 91be b9ca 4b3b d11a dbba
00000340: fa7c 0abf defb 1cbe 68d1 93be 1fd5 0bbf
00000350: f3b9 5f3e f410 9a3d 9bd0 0c3e 5c21 413e
00000360: d5a0 7b3e 9074 15bc b6d5 afbd d41b 90be
00000370: 3735 33be 3f8d 72be 3b85 34bd 06ab d73e
00000380: d5d9 21be 2a8b 8dbe c59b 2d3e e135 bbbe
00000390: 4be5 043d c2ae ee3d 756b ea3d 1669 823d
000003a0: 026f 00be c0e9 a6be 2fb9 943b 5942 c4bd
000003b0: e312 c0be e521 adbe 9ffe a0bd 2b84 cc3d
000003c0: 3f78 913c cef9 62be 883f abbe 87a4 0b3e
000003d0: d217 19bf c996 a83c a5af 69be d201 233e
000003e0: 27d8 9abc a6b8 243e 6efd b6bd 9103 353e
000003f0: fdcf 2b3d 5bcd a4be 982b d7bd c918 b1bc

conv1.bias f4 [64]
-0.21259391 0.02121883 -0.052969832 -0.041851535 -0.0022673656 -0.040608004 0.026259482 0.19871627
-0.032232564 0.008368923 -0.40005547 -0.04728774 -0.22029725 0.2065202 -0.048078842 -0.281055
-0.011108948 0.10300594 -0.07057153 -0.14575943 0.12390468 -0.3145117 0.15809815 -0.38110942
-0.2531367 -0.13776559 -0.028492764 -0.35287026 -0.13678803 -0.2983274 -0.358496 0.0012622519
0.005594784 -0.35649416 -0.116286114 0.067603745 -0.14607555 -0.3083117 -0.090811744 -0.19509204
-0.11267745 0.22913963 -0.22829667 0.05198595 -0.3004156 -0.058272958 -0.11226743 -0.34271967
-0.17518236 -0.35088435 -0.14969818 -0.2744248 -0.19587637 -0.27429792 -0.1466553 -0.3385738
-0.055542964 -0.39851993 -0.0013698275 0.13678487 -0.11900539 0.019403858 -0.16889405 0.17772673
00000000: 38b2 59be 1dd3 ad3c e5f6 58bd 846c 2bbd
00000010: 1598 14bb 9454 26bd 201e d73c 477c 4b3e
00000020: 4b06 04bd cf1d 093c 12d4 ccbe cab0 41bd
00000030: 9a95 61be 087a 533e 52ee 44bd 71e6 8fbe
00000040: 4e02 36bc c7f4 d23d ce87 90bd f641 15be
00000050: bdc1 fd3d ad07 a1be 7be4 213e c620 c3be
00000060: 229b 81be 6c12 0dbe a869 e9bc 69ab b4be
00000070: 2912 0cbe 5ebe 98be ca8c b7be 2572 a53a
00000080: 7354 b73b 6786 b6be 6a27 eebd d573 8a3d
00000090: d494 15be 08db 9dbe 82fb b9bd 35c6 47be
000000a0: 6fc3 e6bd 94a3 6a3e 9ac6 69be 38ef 543d
000000b0: 13d0 99be a0af 6ebd 77ec e5bd f478 afbe
000000c0: 0163 33be 1da7 b3be 7b4a 19be 6881 8cbe
000000d0: d193 48be c770 8cbe cf2c 16be 8c59 adbe
000000e0: 0581 63bd ce0a ccbe c98b b3ba 5511 0c3e
000000f0: 19b9 f3bd d7f4 9e3c 90f2 2cbe fffd 353e

conv2.weight f4 [128, 64, 2, 2]
-0.20219849 -0.28720418 -0.15363073 -0.28248438 -0.159439 -0.35699847 -0.21226153 0.30330008
-0.1641158 -0.037218515 -0.41176638 -0.14128654 -0.21015456 -0.2518643 0.15151682 0.19341227
-0.0499189 0.0030931446 0.07130594 0.2206641 -0.04836905 -0.23795672 -0.020155739 -0.12430598
-0.13413894 0.01408121 0.1516688 -0.18228751 -0.074149996 0.19669129 -0.30012807 0.047403257
-0.13571353 -0.245663 -0.4263924 0.18880904 -0.60980034 0.25371972 -0.18024524 -0.10212558
-0.008970541 -0.07601223 0.16465011 -0.009268907 -0.60947293 0.035111517 -0.043698117 0.031495064
-0.10980099 -0.025520204 0.096013196 -0.04143334 0.28525782 -0.35760453 0.2191337 -0.40262192
0.02034881 -0.0026469508 -0.11298828 0.11165353 -0.036033243 0.009027904 -0.091724 -0.09500276
-0.09269968 -0.08448823 -0.081297606 -0.3577897 -0.040950816 0.20268886 -0.42486864 -0.12160404
0.03771216 0.092462845 -0.2139902 -0.025791153 -0.010787187 -0.19872056 -0.29070973 -0.029110843
-0.086790465 -0.050145872 0.4156382 -0.18759783 -0.09716316 -0.28200772 -0.2815763 -0.2529073
-0.017377153 0.08236877 0.20852372 0.05818335 -0.1979692 -0.12538406 -0.28812554 0.10261412
-0.2780289 -0.30370367 0.34355137 -0.122834444 -0.23746306 -0.15110172 -0.033590797 -0.09384203
0.17046475 -0.14054349 -0.23826772 -0.167239 -0.14311151 0.026814157 -0.0251124 -0.0004044778
-0.15204297 -0.1149813 0.1461841 -0.6392909 0.11311483 -0.19525626 -0.08921851 0.23975624
-0.08055137 0.028936168 -0.11597718 -0.28707176 -0.62150407 -0.06646354 0.1874253 -0.033671897
-0.13053203 -0.13049583 -0.5200359 -0.1918812 0.10700922 -0.1792827 0.17664757 0.029400662
-0.11465669 0.006873162 -0.0531459 0.27408326 -0.14996053 -0.048424467 0.11979831 0.23809764
-0.27394655 -0.33175588 0.08256617 -0.15600902 -0.22917898 0.049931355 -0.12775216 -0.2219481
0.1240978 0.0038178305 -0.16559678 0.19540316 -0.1369117 0.23906687 -0.42689267 0.05759706
-0.2572959 0.13403635 0.28922328 -0.13287677 -0.07794715 -0.1376308 -0.15056247 0.2576169
-0.05658605 -0.23746087 -0.09281114 -0.4606702 -0.061177567 -0.066970065 -0.043751404 0.5782365
0.006823653 -0.19855392 -0.21967824 -0.14901938 -0.31163344 -0.0053159576 -0.18704878 0.24657068
-0.07625556 -0.08737911 0.20627253 -0.17399406 0.063704886 0.068656795 -0.17868124 0.0620819
-0.123873584 -0.14467883 0.10506454 0.022076162 -0.15981837 0.019672757 -0.022432573 -0.13041246
-0.047525525 -0.13831355 -0.32442012 -0.008436139 -0.08008095 -0.21361633 -0.18874991 -0.026603393
0.06959546 -0.0833096 -0.11967878 0.019989396 -0.1244387 -0.15214616 0.10076944 -0.24549046
0.18018335 0.037821356 0.16152607 -0.21348685 -0.37588045 -0.106527336 -0.19040254 -0.4462143
-0.17402461 -0.039719764 0.33555308 -0.10607009 0.25113875 0.083223596 0.018183311 -0.15836573
-0.09038758 -0.0006803027 -0.2541244 0.23284402 -0.24338613 0.050809175 0.028193273 -0.34850302
-0.20202674 0.03979372 -0.21677524 -0.20141996 0.15550224 0.06868611 -0.588251 0.031775013
0.057347868 -0.11058307 -0.1524316 0.09774537 -0.40043786 0.04443084 0.095297314 -0.1453232
00000000: 1f0d 4fbe 6d0c 93be 6051 1dbe cba1 90be
00000010: fa43 23be 81c8 b6be 165b 59be 264a 9b3e
00000020: f90d 28be 7172 18bd 0bd3 d2be 6bad 10be
00000030: c232 57be 5cf4 80be 3a27 1b3e de0d 463e
00000040: c377 4cbd 5bb6 4a3b d908 923d c5f5 613e
00000050: a01e 46bd edaa 73be a61d a5bc 2294 febd
00000060: b85b 09be e0b4 663c 114f 1b3e 94a9 3abe
00000070: f4db 97bd 7169 493e 63aa 99be eb29 423d
00000080: 7df8 0abe 158f 7bbe 1b50 dabe 2857 413e
00000090: e01b 1cbf 8de7 813e 3592 38be 3727 d1bd
000000a0: 2df9 12bc 4dac 9bbd 0a9a 283e 9ddc 17bc
000000b0: 6b06 1cbf 18d1 0f3d ccfc 32bd f800 013d
000000c0: 57df e0bd bf0f d1bc 91a2 c43d 02b6 29bd
000000d0: 500d 923e f117 b7be 9664 603e 7624 cebe
000000e0: 8cb2 a63c 7778 2dbb 6666 e7bd 9baa e43d
000000f0: 9897 13bd c6e9 133c cbd9 bbbd cf90 c2bd
00000100: 54d9 bdbd 2a08 adbd 5c7f a6bd 3630 b7be
00000110: 0bbc 27bd ab8d 4f3e 6288 d9be 8a0b f9bd
00000120: 1178 1a3d 295d bd3d 3f20 5bbe f847 d3bc
00000130: bebc 30bc 677d 4bbe e8d7 94be dd79 eebc
00000140: 33bf b1bd c265 4dbd 88ce d43e a519 40be
00000150: 7bfd c6bd 5163 90be c52a 90be 117d 81be
00000160: 885a 8ebc f5b0 a83d 3e87 553e aa51 6e3d
00000170: 70b8 4abe ae64 00be 3185 93be 5a27 d23d
00000180: ce59 8ebe 0c7f 9bbe f7e5 af3e a090 fbbd
00000190: 8429 73be 69ba 1abe 8196 09bd 4030 c0bd
000001a0: 508e 2e3e a2ea 0fbe 74fc 73be b340 2bbe
000001b0: d38b 12be 5da9 db3c 85b8 cdbc 1710 d4b9
000001c0: 27b1 1bbe 517b ebbd 49b1 153e 92a8 23bf
000001d0: bfa8 e73d 42f1 47be 32b8 b6bd a982 753e
000001e0: 1ef8 a4bd 8b0b ed3c 7285 edbd 12fb 92be
000001f0: e41a 1fbf 091e 88bd 6bec 3f3e 8beb 09bd
00000200: 30aa 05be b3a0 05be 1321 05bf 817c 44be
00000210: a627 db3d e295 37be 1ae3 343e a8d9 f03c
00000220: 20d1 eabd 4338 e13b 84af 59bd a454 8c3e
00000230: 418f 19be bc58 46bd d158 f53d decf 733e
00000240: b942 8cbe e8db a9be 7418 a93d d4c0 1fbe
00000250: e5ad 6abe d284 4c3d 76d1 02be 5d46 63be
00000260: fd26 fe3d 9134 7a3b 3492 29be c417 483e
00000270: 9532 0cbe f2cd 743e ad91 dabe e5ea 6b3d
00000280: 4abc 83be d340 093e 1315 943e d910 08be
00000290: c1a2 9fbd 17ef 0cbe 0c2d 1abe 5de6 833e
000002a0: c6c6 67bd f128 73be c413 bebd f7dc ebbe
000002b0: 5495 7abd 9a27 89bd ac34 33bd 4f07 143f
000002c0: f398 df3b b851 4bbe 55f3 60be 8998 18be
000002d0: 6b8e 9fbe 7c31 aebb b789 3fbe 067d 7c3e
000002e0: e02b 9cbd d2f3 b2bd 1b39 533e 802b 32be
000002f0: b577 823d ef9b 8c3d 37f8 36be 9749 7e3d
00000300: 6fb1 fdbd b026 14be 142c d73d 11d9 b43c
00000310: 6da7 23be c328 a13c 84c4 b7bc d88a 05be
00000320: 20aa 42bd 11a2 0dbe 651a a6be bb37 0abc
00000330: 7b01 a4bd 3dbe 5abe a847 41be 5cef d9bc
00000340: 1188 8e3d 399e aabd 261a f5bd cdc0 a33c
00000350: b8d9 febd 34cc 1bbe 3560 ce3d da61 7bbe
00000360: fc81 383e 91ea 1a3d 1767 253e 4c9c 5abe
00000370: 6773 c0be 012b dabd e2f8 42be 3376 e4be
00000380: 8233 32be 31b1 22bd 9dcd ab3e 463b d9bd
00000390: 4295 803e 2271 aa3d 2bf5 943c a02a 22be
000003a0: 201d b9bd 5756 32ba 981c 82be aa6e 6e3e
000003b0: 373a 79be 481d 503d 94f5 e63c fd6e b2be
000003c0: 19e0 4ebe bdfe 223d 54fa 5dbe 0941 4ebe
000003d0: fb3b 1f3e 4eab 8c3d 9e97 16bf 8426 023d
000003e0: 99e5 6a3d 6079 e2bd 0817 1cbe b92e c83d
000003f0: 3106 cdbe 1dfd 353d 3d2b c33d 9bcf 14be

conv2.bias f4 [128]
-0.0345072 -0.09396488 0.0024954882 -0.123141885 0.071573205 0.039448272 -0.15220134 -0.041050255
-0.004165207 0.0828523 -0.0655675 -0.13085175 -0.078369886 0.019021468 0.109223515 0.08715412
-0.06270625 -0.083579466 -0.07545085 -0.08071268 0.026230369 0.023234336 0.030002965 -0.06542185
-0.021724513 -0.06187631 -0.069369845 -0.18089709 -0.064203985 -0.11780885 0.2356835 -0.07911388
-0.05043334 -0.098592356 -0.07621857 0.10458222 0.13377504 0.05023332 0.0011021543 -0.14466685
0.22528453 -0.078487374 -0.090879016 -0.06527475 -0.059449576 -0.024157733 -0.10466818 0.09793965
-0.00503642 0.025473682 -0.00045778276 -0.0366184 -0.059439503 -0.10586047 -0.013680489 -0.08872952
-0.18823138 -0.070866324 -0.04904432 0.16046607 -0.10325506 0.013897586 -0.07389964 -0.076710105
-0.089365624 0.069449715 0.04652999 0.023760596 -0.0907817 -0.010852188 -0.06983786 0.36255357
-0.11706098 -0.054217752 0.012505522 0.1188426 0.061798494 -0.13447343 -0.087808885 -0.114777125
0.071484946 -0.09366985 -0.043417484 -0.17239037 -0.031003859 -0.16289638 -0.0839161 -0.07941862
0.016760198 -0.10427619 0.008612265 -0.11287295 0.0119327465 0.009927098 -0.09608234 0.04510762
-0.09983298 -0.03365293 -0.042696897 0.0690664 -0.06339879 -0.059762683 0.015465026 -0.06520931
-0.049433365 -0.010973497 -0.09928807 -0.017554794 -0.118351094 -0.12767625 -0.14524937 0.042754155
0.059379753 -0.22303616 -0.05645583 -0.13367963 0.28423536 0.08782766 0.05713615 -0.05678035
0.13299012 -0.1334077 0.19006968 -0.06847846 0.072729185 -0.10490391 -0.1312696 -0.026941694
00000000: 6c57 0dbd a970 c0bd 588b 233b d031 fcbd
00000010: f994 923d 8394 213d abda 1bbe 5024 28bd
00000020: 4a7c 88bb 77ae a93d 4148 86bd 00fe 05be
00000030: 6480 a0bd e9d2 9b3c 94b0 df3d dc7d b23d
00000040: 226c 80bd b62b abbd fa85 9abd b14c a5bd
00000050: 12e1 d63c ef55 be3c c7c8 f53c e4fb 85bd
00000060: 9bf7 b1bc 0372 7dbd c711 8ebd 163d 39be
00000070: 617d 83bd c445 f1bd 0457 713e 7506 a2bd
00000080: 3193 4ebd caea c9bd 7b18 9cbd 342f d63d
00000090: 53fc 083e 74c1 4d3d 2976 903a 8c23 14be
000000a0: fdb0 663e fdbd a0bd c71e babd c5ae 85bd
000000b0: 6681 73bd 70e6 c5bc 455c d6bd 9594 c83d
000000c0: 8e08 a5bb 2fae d03c 9002 f0b9 2dfd 15bd
000000d0: d676 73bd 60cd d8bd 2124 60bc d3b7 b5bd
000000e0: babf 40be 5d22 91bd b2e2 48bd 3851 243e
000000f0: 6477 d3bd b3b2 633c b258 97bd 301a 9dbd
00000100: 5305 b7bd a73b 8e3d 3b96 3e3d 95a5 c23c
00000110: c2eb b9bd 60cd 31bc 2707 8fbd 9fa0 b93e
00000120: abbd efbd 6f13 5ebd f6e3 4c3c c063 f33d
00000130: 6b20 7d3d 67b3 09be 25d5 b3bd 4510 ebbd
00000140: b366 923d fad5 bfbd 88d6 31bd 1a87 30be
00000150: cefb fdbc 4fce 26be 34dc abbd 3ba6 a2bd
00000160: af4c 893c c18e d5bd 751a 0d3c ef29 e7bd
00000170: 9181 433c 44a5 223c d1c6 c4bd c5c2 383d
00000180: 3c75 ccbd a8d7 09bd f1e2 2ebd af72 8d3d
00000190: 3ad7 81bd b7c9 74bd 0561 7d3c 758c 85bd
000001a0: a47a 4abd 2fca 33bc 8b57 cbbd 12cf 8fbc
000001b0: 0f62 f2bd 90bd 02be 40bc 14be fb1e 2f3d
000001c0: 2f38 733d 9763 64be 3a3e 67bd 50e3 08be
000001d0: 4c87 913e fdde b33d 9807 6a3d 8392 68bd
000001e0: 902e 083e 079c 08be a0a1 423e 6f3e 8cbd
000001f0: 0af3 943d dcd7 d6bd 8a6b 06be d4b4 dcbc

fc1.weight f4 [128, 768]
0.013278577 -0.025795965 -0.008222865 -0.032283824 -0.0024024267 -0.056392565 -0.04516168 -0.01120603
-0.018295448 -0.005631173 -0.013738363 -0.028628543 -0.006392862 -0.01708215 0.026327508 -0.015620953
-0.012506854 0.0119315935 -0.006921096 -0.02282581 0.02450097 0.024531174 -0.0072689867 -0.0016580217
-0.0072061648 -0.04990734 -0.041362964 -0.03422764 0.0072131827 -0.025794689 0.015846282 0.018549614
-0.0144792525 -0.01041595 0.0020854776 -0.01222149 -0.01852455 0.023731986 -0.04674879 -0.024685435
-0.025092967 -0.021648468 0.0007090026 -0.03949986 -0.043913227 -0.009891357 -0.050525304 -0.049186617
-0.06686003 0.010423927 0.0069025857 0.0051505407 -0.03520451 0.018986981 -0.032110535 -0.035810947
-0.008264489 -0.03370803 -0.040265605 -0.037508816 -0.0054972866 -0.024606312 -0.0023675992 -0.026672974
-0.00833416 -0.03319576 -0.002750695 -0.03628414 0.0045606117 -0.0051418417 0.014674491 0.0074197394
-0.00416252 0.025296606 -0.0102727115 0.030724272 0.028394654 -0.018594103 -0.01906444 0.0040281676
-0.027128376 -0.006904658 -0.0007125996 -0.03587071 -0.0031174459 -0.009679338 -0.021642897 0.017911997
-0.06287509 -0.03840566 -0.027910598 -0.026944375 -0.0015003013 -0.029588824 -0.01848411 0.033058718
-0.030005341 -0.0379125 -0.024146592 -0.035272744 -0.017797248 -0.033461194 -0.006498648 -0.004335452
0.0114717 0.003551066 -0.009036949 -0.013733301 -0.018451486 -0.059085842 -0.07099687 -0.046037596
-0.050605968 -0.03349872 -0.004165292 -0.00014772266 -0.018123096 -0.023955503 0.019874603 -0.003871277
-0.008197027 -0.029612688 -0.07615795 -0.0009751068 0.0078283185 0.013735158 -0.009464057 -0.02522649
-0.024627902 -0.0018205214 0.0024478182 -0.021536894 -0.013217492 0.0017638258 0.01585646 -0.017752768
-0.001811576 -0.005841419 0.018437792 0.011213582 -0.0017730072 0.035841085 0.036010444 -0.035931174
-0.00229637 0.009800577 -0.012451145 -0.025444102 -0.0051211095 -8.927598e-05 -0.042480376 -0.045733407
-0.004584303 -0.056008756 -0.032982614 0.017482718 0.0035217418 -0.014663915 -0.02122397 -0.006504498
-0.036485743 -0.059945602 -0.0427151 0.0065944083 -0.038685963 -0.041212033 0.016585795 0.020422902
0.011754346 0.0061529083 0.014934254 0.035821516 0.00044782838 -0.03691544 -0.03079016 -0.047713175
0.014694809 -0.04191803 -0.008750263 0.029516365 0.0047553857 -0.024846392 -0.022208488 -0.035488147
0.0060324557 -0.028634634 -0.016858827 -0.05313315 -0.020427508 -0.05347876 -0.011776569 -0.006132121
0.029485976 -0.053322922 -0.0068581956 -0.021531964 -0.01466575 0.02528787 -0.021812173 -0.0069027483
0.00495975 -0.071145795 0.011899541 0.007677379 -0.014908463 0.015515972 0.027777188 -0.0057342276
0.027396768 0.0071663633 0.007286505 -0.0025186827 -0.02327732 -0.05521325 0.0045319255 -0.042688224
-0.0423458 -0.024161944 0.012126788 -0.06170625 0.003461217 -0.03022983 0.012819275 -0.028559381
-0.017674895 -0.023164077 -0.0017617219 0.021678079 -0.022008615 -0.00017502447 0.009598703 -0.022679714
0.012035468 0.025600422 -0.05075069 -0.06548446 0.013142074 -0.03209776 -0.057457216 0.017459529
0.019245269 -0.027728407 -0.014239268 -0.008295827 0.01567489 -0.0018846279 0.0030218922 0.031466387
-0.005312804 -0.02897222 0.016653404 -0.020576425 0.0006791865 -0.054859437 -0.026723169 0.011914875
00000000: 638e 593c 0f52 d3bc 32b9 06bc 0b3c 04bd
00000010: 0872 1dbb e4fb 66bd 74fb 38bd 7f99 37bc
00000020: 56e0 95bc b485 b8bb df16 61bc 6886 eabc
00000030: 377b d1bb ddef 8bbc c9ac d73c 07ef 7fbc
00000040: 8ce9 4cbc bb7c 433c 5cca e2bb 31fd babc
00000050: 42b6 c83c 9af5 c83c ae30 eebb fa51 d9ba
00000060: b121 ecbb a46b 4cbd 366c 29bd 4832 0cbd
00000070: 905c ec3b 624f d3bc 10d0 813c 5cf5 973c
00000080: 633a 6dbc a9a7 2abc 82ac 083b a53c 48bc
00000090: ccc0 97bc 9569 c23c a97b 3fbd 1c39 cabc
000000a0: c48f cdbc 2158 b1bc 5cdc 393a 9bca 21bd
000000b0: 5bde 33bd 5c0f 22bc 9ff3 4ebd e877 49bd
000000c0: e9ed 88bd 1ec9 2a3c 162f e23b dec5 a83b
000000d0: 9b32 10bd 968a 9b3c 5686 03bd 80ae 12bd
000000e0: c767 07bc 6e11 0abd 8ced 24bd d8a2 19bd
000000f0: 9522 b4bb 2d93 c9bc b929 1bbb 4881 dabc
00000100: 008c 08bc 47f8 07bd 0145 34bb ae9e 14bd
00000110: 2f71 953b e57c a8bb 476d 703c 4921 f33b
00000120: c065 88bb d43a cf3c e04e 28bc 78b1 fb3c
00000130: e89b e83c a952 98bc 072d 9cbc b8fe 833b
00000140: 543c debc 7840 e2bb c0cd 3aba 2aed 12bd
00000150: 104e 4cbb 1696 1ebc 724c b1bc 2ebc 923c
00000160: a8c4 80bd 414f 1dbd c4a4 e4bc 73ba dcbc
00000170: c2a5 c4ba 4364 f2bc fd6b 97bc 9468 073d
00000180: c3cd f5bc 234a 1bbd 13cf c5bc 277a 10bd
00000190: 89cb 91bc 9b0e 09bd 9cf2 d4bb 6810 8ebb
000001a0: ccf3 3b3c 00b9 683b b60f 14bc a401 61bc
000001b0: 9227 97bc ff03 72bd cf66 91bd eb91 3cbd
000001c0: 3448 4fbd f435 09bd 007d 88bb 00e6 1ab9
000001d0: e376 94bc 553e c4bc 10d0 a23c 40b5 7dbb
000001e0: d34c 06bc 4f96 f2bc b3f8 9bbd 4f9e 7fba
000001f0: 5942 003c 6e09 613c 220f 1bbc c9a7 cebc
00000200: 74c0 c9bc 909e eeba 936b 203b 246e b0bc
00000210: 2e8e 58bc 2c30 e73a 68e5 813c 416e 91bc
00000220: 6772 edba 6069 bfbb da0a 973c 2cb9 373c
00000230: 4064 e8ba 1ace 123d b07f 133d 912c 13bd
00000240: b27e 16bb 9992 203c e3ff 4bbc 2670 d0bc
00000250: fbce a7bb ad39 bbb8 e7ff 2dbd f452 3bbd
00000260: ec37 96bb 7069 65bd c718 07bd eb37 8f3c
00000270: 06cd 663b eb40 70bc e4dd adbc af23 d5bb
00000280: 1372 15bd 8589 75bd 07f6 2ebd e815 d83b
00000290: 2c75 1ebd f3cd 28bd efde 873c ee4d a73c
000002a0: 4d95 403c 569e c93b cdae 743c 95b9 123d
000002b0: 82ca ea39 a534 17bd a53b fcbc e46e 43bd
000002c0: 7fc2 703c 3db2 2bbd 435d 0fbc 4ecc f13c
000002d0: 11d3 9b3b a98a cbbc 93ee b5bc 055c 11bd
000002e0: e8ab c53b 2e93 eabc 861b 8abc 25a2 59bd
000002f0: 9757 a7bc 8b0c 5bbd 83f2 40bc f6ef c8bb
00000300: 938c f13c 2369 5abd b7ba e0bb cd63 b0bc
00000310: 9d48 70bc 8228 cf3c 71af b2bc 7330 e2bb
00000320: 6685 a23b e3b4 91bd 4bf6 423c 8692 fb3b
00000330: a042 74bc b436 7e3c fc8c e33c 30e6 bbbb
00000340: 306f e03c d0d3 ea3b a2c3 ee3b 7c10 25bb
00000350: 14b0 bebc 4a27 62bd 8c80 943b d9d9 2ebd
00000360: ca72 2dbd 45ef c5bc 6faf 463c b1bf 7cbd
00000370: 96d5 623b 8ca4 f7bc f007 523c 5df5 e9bc
00000380: f1ca 90bc 97c2 bdbc 94e9 e6ba 3a96 b13c
00000390: 694b b4bc c686 37b9 e143 1d3c cfca b9bc
000003a0: 6930 453c fab7 d13c f5df 4fbd b71c 86bd
000003b0: db51 573c f178 03bd 4258 6bbd 4907 8f3c
000003c0: 41a8 9d3c af26 e3bc d24b 69bc 38eb 07bc
000003d0: a068 803c 9e05 f7ba f00a 463b e6e2 003d
000003e0: 0817 aebb 2657 edbc b86c 883c e48f a8bc
000003f0: 6f0b 323a 4ab4 60bd 8cea dabc 9c36 433c

fc1.bias f4 [128]
-0.040407818 -0.09714395 -0.0070858765 0.16403306 -0.15809071 0.2766402 0.028539034 0.17713661
0.0050546285 0.33827844 -0.05904328 -0.020489281 -0.01433329 0.25938094 0.13236235 0.01126514
-0.0079205595 -0.10028255 0.047081377 0.064830184 0.15926006 0.35821444 -0.15626533 0.0753522
0.33702743 -0.15213776 0.10364676 0.0051999185 0.1976956 -0.09388201 0.050964322 -0.05492568
-0.053258505 0.07133132 0.28534225 -0.11732238 -0.07382915 0.069871776 -0.0542197 0.53105205
-0.03876601 -0.027613059 0.14573397 0.011992814 0.1555387 -0.060627833 -0.014818085 -0.035980333
-0.060448773 -0.029272296 0.12097423 0.3846453 -0.0356672 -0.022786926 -0.114442244 0.17666622
0.15046424 0.22456178 0.17844069 -0.13673754 0.09650776 -0.0026969728 -0.05477076 0.14746392
0.03858342 0.26183066 0.14249483 0.1681741 0.10689668 0.20238405 -0.03136866 0.23573765
0.07891805 -0.15628745 0.10620599 0.03030064 0.15396258 0.31016314 0.14317138 0.1267348
0.18732268 0.23795694 0.18905127 -0.03330869 -0.1285652 0.32301933 0.2581756 0.066078015
0.2012472 -0.0052694418 0.06425708 -0.046983544 -0.078400224 -0.059638064 -0.15778436 -0.043263942
0.30960727 0.23119226 0.114240564 -0.15601659 -0.020203805 -0.023521129 0.17654465 0.367102
0.099022545 -0.030616365 0.06055347 -0.03372965 0.39194027 -0.050570827 0.03259261 0.22035684
0.026101884 0.075617686 -0.13117023 -0.043265276 -0.11441828 0.1721926 -0.002746426 -0.045615718
-0.023406876 0.106851555 -0.10220519 0.25580648 0.052745882 0.06571431 0.29826048 -0.044326242
00000000: ab82 25bd 68f3 c6bd a430 e8bb 48f8 273e
00000010: 88e2 21be c9a3 8d3e b1ca e93c 4d63 353e
00000020: 4ca1 a53b d532 ad3e 5ed7 71bd 23d9 a7bc
00000030: 2dd6 6abc 94cd 843e ff89 073e 6c91 383c
00000040: 3cc5 01bc f060 cdbd 67d8 403d b0c5 843d
00000050: 1215 233e e267 b73e 0504 20be 4152 9a3d
00000060: dc8e ac3e 00ca 1bbe c144 d43d 1464 aa3b
00000070: b770 4a3e 3645 c0bd f7bf 503d c0f9 60bd
00000080: 9725 5abd 2816 923d 6118 923e b746 f0bd
00000090: bd33 97bd ef18 8f3d 7a15 5ebd 07f3 073f
000000a0: 1cc9 1ebd c834 e2bc 493b 153e 827d 443c
000000b0: 8945 1f3e e454 78bd 8ec7 72bc 1d60 13bd
000000c0: 2299 77bd 74cc efbc 56c1 f73d 3bf0 c43e
000000d0: c517 12bd a6ab babc b260 eabd fde7 343e
000000e0: 4c13 1a3e 86f3 653e 28b9 363e ed04 0cbe
000000f0: dca5 c53d b2bf 30bb 4e57 60bd c800 173e
00000100: a609 1e3d ab0e 863e 2aea 113e d535 2c3e
00000110: a6ec da3d c43d 4f3e 6d7c 00bd 3665 713e
00000120: c99f a13d d109 20be 8782 d93d 0c39 f83c
00000130: 5ea8 1d3e b4cd 9e3e 859b 123e c4c6 013e
00000140: 84d1 3f3e fcaa 733e a896 413e b16e 08bd
00000150: 99a6 03be ca62 a53e 982f 843e e953 873d
00000160: bf13 4e3e 48ab acbb 3799 833d d171 40bd
00000170: 4c90 a0bd 0b47 74bd 3992 21be 8835 31bd
00000180: d884 9e3e aabd 6c3e f5f6 e93d d0c2 1fbe
00000190: 7382 a5bc 62af c0bc 1fc8 343e cbf4 bb3e
000001a0: 55cc ca3d 2ccf fabc ea06 783d 1a28 0abd
000001b0: 65ac c83e 5b23 4fbd d47f 053d 39a5 613e
000001c0: 9ed3 d53c 72dd 9a3d 7d51 06be ee36 31bd
000001d0: 2254 eabd 4253 303e 62fd 33bb 8cd7 3abd
000001e0: c7bf bfbc fdd4 da3d f450 d1bd 11f9 823e
000001f0: 110c 583d 3995 863d 99b5 983e 6f8f 35bd

fc2.weight f4 [7, 128]
0.02631745 -0.036102455 -0.121605754 -0.18684806 0.12320405 0.19245233 0.19040136 -0.26345077
0.040952563 -0.11606874 0.031896397 -0.04868128 0.019772712 -0.15763332 0.06802322 -0.16094217
0.023438375 -0.24987476 -0.31609097 -0.1826339 -0.086303145 -0.09578067 -0.09938213 0.24109234
0.04941878 0.05596669 0.019288022 -0.017806455 -0.08675033 -0.065327175 -0.06376111 0.011920152
-0.0717658 0.107435115 -0.04005117 0.12706384 0.029393509 0.24894744 0.023850381 -0.03706525
-0.069514185 0.07601758 0.12732935 0.03109923 0.23560075 -0.0016118069 0.053752482 -0.07964317
0.031795166 0.09275323 0.039168555 0.0026914624 -0.1262352 0.14017889 -0.049372368 0.023392886
0.13213752 -0.089368135 -0.06940442 0.10096283 0.10678455 0.03443576 0.04700255 -0.18875071
0.010194377 -0.04822643 0.08476597 0.3174541 -0.32190627 -0.1955001 0.04349677 0.0010050907
-0.14141847 -0.038918428 -0.64412796 -0.1937569 -0.16674781 0.00079900696 0.04802318 -0.20920028
0.1166592 -0.025570327 -0.08518511 0.024352752 -0.031017117 0.006757391 0.080520235 0.13166033
0.13131523 0.094788946 -0.16268174 0.04625002 -0.16422085 -0.054052934 -0.029804574 -0.00068511814
0.24328738 0.15048157 -0.17841549 -0.040202133 0.0039296 0.082673915 0.2113883 -0.030497277
0.09179761 0.0359956 -0.13374768 -0.12925498 -0.08783181 0.0015383017 0.017128114 0.0015254433
-0.35514072 0.073531754 -0.095913336 -0.0794894 -0.21830532 0.027719371 0.06867949 0.00094940007
-0.035905436 0.05525036 0.19413455 0.06743779 0.0316382 -0.35521734 0.21258795 -0.01117321
0.051564213 -0.0025585988 0.06377961 -0.068861194 0.08525803 0.057039045 -0.033217113 -0.10550901
0.10980795 -0.1350047 -0.042433307 -0.024999565 -0.2098252 -0.15211931 0.11888362 0.10621355
-0.013713284 0.007694815 -0.26603484 0.24017604 -0.4965952 -0.13189061 -0.12476183 0.16087508
0.0154986065 0.050180703 0.4979833 -0.12340447 0.03837719 0.00610858 0.012213436 -0.43086252
0.02728101 0.074852586 0.042547036 -0.47550315 0.011523936 -0.0062472136 -0.036745697 -0.01651278
-0.2856013 0.09217651 -0.03892846 0.05744618 0.053566787 -0.15525568 -0.016886204 -0.05669728
-0.0016838236 0.015822481 0.16431941 0.07209836 0.026015228 0.12149187 -0.014094133 -0.13932551
-0.075227074 -0.028533373 0.15397288 -0.23790802 0.08915239 -0.026296366 -0.028627045 -0.069258235
0.1407509 -0.15953381 0.04193584 0.30880535 0.046230007 0.21719165 0.08519066 0.04465206
0.19838066 -0.21549894 0.12141264 0.12131544 -0.0073267696 -0.036401283 0.20261994 0.121189944
0.0107682645 0.13483775 0.11768413 -0.015401054 -0.1447053 -0.12827386 -0.0051688305 0.1842605
0.04539552 -0.47205254 -0.019506164 -0.05245171 0.05897606 -0.025371319 0.30168205 -0.07989311
-0.077833354 -0.082394995 0.098902926 -0.14493397 0.044568915 0.057538446 0.34637925 -0.060168896
-0.0502815 0.04885723 0.2064669 0.0394845 -0.11565562 -0.2224547 -0.022797043 0.10151486
-0.3391504 0.13235475 0.10613221 0.041465823 -0.103201404 0.03350633 -0.6343021 -0.003970655
0.030031856 0.06629647 0.27847555 -0.14247444 -0.13049658 0.1885949 0.14330474 -0.05241856
00000000: b197 d73c 2be0 13bd 700c f9bd 1955 3fbe
00000010: 6852 fc3d 3912 453e 93f8 423e 05e3 86be
00000020: e0bd 273d 73b5 edbd cca5 023d 0666 47bd
00000030: 62fa a13c a16a 21be c24f 8b3d 06ce 24be
00000040: d601 c03c 2bdf 7fbe add6 a1be 6204 3bbe
00000050: b4bf b0bd a828 c4bd dc88 cbbd e9e0 763e
00000060: 596b 4a3d 543d 653d ea01 9e3c d8de 91bc
00000070: 28aa b1bd 41ca 85bd 2f95 82bd be4c 433c
00000080: f3f9 92bd f106 dc3d b20c 24bd 061d 023e
00000090: a8ca f03c 14ec 7e3e e061 c33c bbd1 17bd
000000a0: 745d 8ebd 1baf 9b3d a062 023e d0c3 fe3c
000000b0: 5341 713e 4443 d3ba 902b 5c3d f51b a3bd
000000c0: a63b 023d 68f5 bd3d 356f 203d 3f63 303b
000000d0: cd43 01be 0e8b 0f3e ae3a 4abd 70a2 bf3c
000000e0: 0f4f 073e a406 b7bd e823 8ebd 9ac5 ce3d
000000f0: dcb1 da3d 830c 0d3d bf85 403d de47 41be
00000100: 5106 273c 1489 45bd c899 ad3d 5889 a23e
00000110: e6d0 a4be 2e31 48be ab29 323d 3fbd 833a
00000120: 01d0 10be ee68 1fbd 92e5 24bf 3568 46be
00000130: f0bf 2abe 7374 513a f4b3 443d 9938 56be
00000140: 05eb ee3d dd78 d1bc 8875 aebd 6c7f c73c
00000150: 9c17 febc 1b6d dd3b cbe7 a43d f7d1 063e
00000160: 8077 063e b520 c23d 0b96 26be a970 3d3d
00000170: 8329 28be 9c66 5dbd b928 f4bc 8099 33ba
00000180: 5420 793e d717 1a3e 8db2 36be feaa 24bd
00000190: e0c3 803b f150 a93d 2d76 583e 6dd5 f9bc
000001a0: 6300 bc3d 1f70 133d 27f5 08be 6b5b 04be
000001b0: 2ae1 b3bd d7a0 c93a 4250 8c3c 62f1 c73a
000001c0: 01d5 b5be d197 963d 366e c4bd 57cb a2bd
000001d0: 6e8b 5fbe bc13 e33c d5a7 8c3d 29e1 783a
000001e0: 9411 13bd 344e 623d 35cb 463e d31c 8a3d
000001f0: 0f97 013d 0cdf b5be a8b0 593e d70f 37bc
00000200: ff34 533d 2aae 27bb e29e 823d 1907 8dbd
00000210: c39b ae3d c6a1 693d ab0e 08bd 1c15 d8bd
00000220: fee2 e03d ac3e 0abe 8cce 2dbd e3cb ccbc
00000230: 6bdc 56be 2ac5 1bbe 4179 f33d 7d86 d93d
00000240: afad 60bc c924 fc3b b835 88be b5f0 753e
00000250: ba41 febe 550e 07be 2183 ffbd 70bc 243e
00000260: deed 7d3c 488a 4d3d abf7 fe3e 7cbb fcbd
00000270: 6631 1d3d 7c2a c83b dd1a 483c 039a dcbe
00000280: 6d7c df3c 504c 993d cd45 2e3d 2675 f3be
00000290: e4ce 3c3c 6db5 ccbb a882 16bd cf45 87bc
000002a0: 553a 92be 0ac7 bc3d 7373 1fbd b04c 6b3d
000002b0: d968 5b3d 58fb 1ebe f054 8abc 683b 68bd
000002c0: bfb3 dcba 269e 813c 5943 283e 4ea8 933d
000002d0: e31d d53c bbd0 f83d 14eb 66bc 59ab 0ebe
000002e0: a710 9abd d2be e9bc 11ab 1d3e 299e 73be
000002f0: 8795 b63d 7a6b d7bc 4483 eabc 43d7 8dbd
00000300: 0121 103e d55c 23be eac4 2b3d bc1b 9e3e
00000310: ad5b 3d3d 7d67 5e3e 7178 ae3d 14e5 363d
00000320: 4d24 4b3e c1ab 5cbe 31a7 f83d 3b74 f83d
00000330: 6615 f0bb 8319 15bd 9a7b 4f3e 6f32 f83d
00000340: 606d 303c e812 0a3e 6104 f13d b454 7cbc
00000350: a02d 14be 395a 03be 4b5f a9bb c9ae 3c3e
00000360: a7f0 393d dfb0 f1be 64cb 9fbc 9bd7 56bd
00000370: e290 713d 83d7 cfbc 1276 9a3e 009f a3bd
00000380: 1867 9fbd b5be a8bd 9e8d ca3d 9269 14be
00000390: e58d 363d 6fad 6b3d 9f58 b13e a973 76bd
000003a0: f9f3 4dbd 851e 483d 0f6c 533e 80ba 213d
000003b0: dbdc ecbd 2acb 63be ddc0 babc 06e7 cf3d
000003c0: 1fa5 adbe 0188 073e d85b d93d 11d8 293d
000003d0: 425b d3bd ef3d 093d 9f61 22bf 451c 82bb
000003e0: 5e05 f63c 72c6 873d 5994 8e3e d2e4 11be
000003f0: e5a0 05be 051f 413e 7abe 123e d8b4 56bd

fc2.bias f4 [7]
-0.06260012 -0.2179138 -0.098785535 -0.21670327 -0.13398765 0.0049060476 -0.06057155
00000000: 7e34 80bd cc24 5fbe 1250 cabd 76e7 5dbe
00000010: 0f34 09be e9c2 a03b e019 78bd
