trained_models/PPO/ppo_connect4_model_1e.pt (torch, 537724 bytes, 9 tensors)

conv1.weight f4 [64, 1, 4, 4]
00000000: 03fc 2fbe b126 b93d d313 4cbe 23b5 3dbe
00000010: a1a4 f03d cc96 8fbd 64a2 90bd bfb1 70be
00000020: 6833 593e c113 5d3e 7554 30be 323a 0d3d
00000030: a633 cb3d 7995 303e 158c 993d c041 41bc
00000040: bd95 703d fe24 4c3e 2e2f 50bd 8757 783d
00000050: bfe8 2bbe bb69 04be bd99 bdbd b82b 2abe
00000060: 0656 503e 1e7e f1bd e88c 763e c9a6 cf3d
00000070: cf0c 7a3d ea09 59be b918 8b3e 53c5 ba3d
00000080: f193 d23e 8cf5 9cbb 1a69 cd3c 06e4 49be
00000090: cf1c 1c3e 8d53 4b3e 6e36 14be 13ff d8bd
000000a0: bfd4 0c3e d827 b33a a5e3 913b 9b4c 3d3c
000000b0: 435b 9a3d 9764 df3d 8013 05bd 7c32 d3bd
000000c0: 1a47 f53d 7ac8 363c 5cc3 423e ad4d 473e
000000d0: b24f 043e 8826 803e 9beb c0bc 4ace 51be
000000e0: 3b80 26be c36c 3d3e 43d2 41be 2909 6d3c
000000f0: 0958 e4bd 859e 173d 5e71 39be 3c90 c63d
00000100: 1007 1f3e bea8 193e 46db e63d 7f05 97be
00000110: 4527 5dbd 42ac 3fbe a8a8 20be 211e 60be
00000120: 03cd 983d bffe 893e 16ed e33d cc53 b8bd
00000130: 6152 be3c 8043 7dbd be8a 3dbe 9789 71be
00000140: 2838 1ebd 42ac 41bd 0d22 48be 5a51 2fbe
00000150: 0d0b 46be bdb0 fb3d f615 f03d 4e9d 483e
00000160: 3100 b4be b9e2 aebd 0800 963d 0422 803d
00000170: 37cf ea3d f72c 863e 942d 203e 4032 10be
00000180: f2f2 683d c9c3 20be 9c00 dcbd c1ec babe
00000190: b152 89bc d17f 1fbe 86e6 a2bd 3dec 383d
000001a0: 39fb 443d 6e3e 823d e203 cc3d 553a 1fbe
000001b0: 0d6a 853e e237 cabd e78d 723e 67ee 2dbe
000001c0: 3323 243e a48b fb3d 6afe fabd 6cc7 073e
000001d0: 33a0 6d3e a5b8 433e ca1f a3bd 647b 4fbe
000001e0: 13b6 07be fb07 ddbd 1841 46bd 7ac6 613e
000001f0: 0806 43bd 3ffb 55bb 94f1 b1bc dcb3 683e
00000200: ba11 743d 9275 353e fad9 4f3e 2d84 903d
00000210: d0aa 583d 5c2b c6bd e9c5 e1bd 8abc b1bd
00000220: 20e1 f3bd d675 253e 907c 733e 2efc 3c3e
00000230: fcf7 64be 607a 223d 3242 0fbe ab41 b03d
00000240: 083a 903e af24 2c3e df57 dabd 4baf dc3d
00000250: c389 41be 7696 28bd 7f59 64be 2ca7 943d
00000260: ea3b 2a3e c82d c53d 7644 68be 9321 27be
00000270: 46ed 71bd 1f28 febd cb18 803e 2b2d 373d
00000280: 704b 9c3e 10d4 7e3d 8c9d 833e 184f 0d3e
00000290: 68f4 933e b3fe 7a3d 67f5 39be bc81 533e
000002a0: b8b3 32be 58d0 143c 3f54 803e 1423 2abe
000002b0: bf20 b83d 5a53 0bbe c206 3ebd f7f9 b13d
000002c0: bda4 a03e a31a 6f3e 8d32 d8bd 452c 1f3e
000002d0: 097e 873c bdfb c0bd 3ed1 3c3e 0246 603e
000002e0: 0452 033e fdce 503e 866c 46bd 3211 44be
000002f0: d30f 40be c51d c93d d2a5 82bd 3d98 203e
00000300: 08c2 d6bc 66eb d73d 442f 603e 9dc0 0ebc
00000310: eb37 0dbc f8d0 85be 7ce4 0e3e 1076 083e
00000320: 641d 503e 8fdc 12be 8684 3e3e e644 e33d
00000330: 1211 81be f462 2a3e 43a0 553e 8318 9dbd
00000340: 6623 553d 4337 4fbe 6999 83be 40ce ff3d
00000350: 3944 5a3e 840d 7a3d ee1e 88be 3822 543e
00000360: e8f6 483e 8dc0 86bc 5e19 9cbe 0238 003c
00000370: f19f 583e 3568 ad3d 78f9 b93d b407 5cbe
00000380: 58da 5f3e d094 dbbd 6272 6abe 444c 6abe
00000390: 14f1 ae3d f678 01be 5dc8 a33d aa5c 90be
000003a0: 7c70 1e3e 9ba9 2e3e b800 283d 29d6 5a3e
000003b0: d96f 5e3e e474 53be b12d d13d 2779 4d3d
000003c0: 97eb 553e 7be6 3c3e b4c9 a1bc 522f 87be
000003d0: 35e1 6b3e c76b 413e 5fdb 0a3e bf11 70be
000003e0: 4fe3 05bd 1d59 d6bd 19f3 0abd 4a0b 453d
000003f0: 7eee 053b cc4e 2dbe e22a 8cbd d4b8 1dbe
-0.17185979 0.09040583 -0.19929437 -0.1852613 0.117501505 -0.07011184 -0.070622236 -0.23505305
0.21211016 0.21589567 -0.17219718 0.034479327 0.099219605 0.1724452 0.07497422 -0.011795461
0.05873655 0.19935986 -0.050826244 0.060630348 -0.16788004 -0.12930958 -0.09257839 -0.1661824
0.20345315 -0.11791633 0.24077189 0.101392336 0.06104737 -0.21195188 0.271673 0.09119668
0.41128495 -0.0047900137 0.02507453 -0.1971589 0.15245365 0.19856091 -0.14473888 -0.105955265
0.13753031 0.001366849 0.004452186 0.011553909 0.07536938 0.10907858 -0.0324893 -0.103123635
0.11976452 0.011156196 0.19019836 0.19463225 0.12921026 0.25029397 -0.023549845 -0.2048885
-0.16259854 0.1849852 -0.18927865 0.014467516 -0.11149604 0.03701641 -0.18109652 0.09695479
0.15530038 0.15005776 0.11272292 -0.2949638 -0.05399253 -0.18718055 -0.15689337 -0.21886493
0.07460978 0.26952168 0.11129205 -0.09000358 0.02323264 -0.06183195 -0.18509957 -0.23587643
-0.038627774 -0.04728342 -0.1954424 -0.17120877 -0.19340153 0.122895695 0.11722939 0.19591257
-0.35156396 -0.08539338 0.07324225 0.06256488 0.11465304 0.2620618 0.15642387 -0.14081669
0.056872316 -0.15699686 -0.10742304 -0.36508754 -0.016763063 -0.15576102 -0.07954125 0.04514717
0.048091147 0.06359564 0.09961678 -0.15549596 0.26057473 -0.0987394 0.23686944 -0.16985475
0.16029052 0.12282494 -0.12255557 0.13259667 0.23205642 0.19113405 -0.07965048 -0.20261914
-0.1325305 -0.10792538 -0.048401922 0.22048369 -0.047613174 -0.0032650975 -0.021721639 0.22724861
0.059587218 0.17720631 0.20297995 0.070564605 0.052897274 -0.09676239 -0.110240765 -0.08678539
-0.119081736 0.16158232 0.23777986 0.18455574 -0.22360224 0.039667487 -0.13990095 0.08606275
0.28169274 0.16810869 -0.10661291 0.10775622 -0.18900208 -0.041159116 -0.22299765 0.07258448
0.16624418 0.09627873 -0.22682366 -0.16321401 -0.059064172 -0.12409996 0.25018916 0.04472081
0.30526304 0.062213957 0.25706136 0.13799703 0.28897405 0.061278056 -0.1816002 0.20654958
-0.1745137 0.009082876 0.25064275 -0.16614944 0.08990621 -0.13606015 -0.046393164 0.08690255
0.31375685 0.23350005 -0.10556517 0.15544231 0.01653959 -0.09423015 0.18439195 0.21901706
0.12824255 0.2039146 -0.04844334 -0.19147184 -0.18756036 0.09820131 -0.06379284 0.15683074
-0.026215568 0.105429456 0.2189303 -0.008712915 -0.008619289 -0.26135993 0.13954347 0.13326287
0.20323712 -0.14341949 0.18605241 0.11097126 -0.25208336 0.1663931 0.20861916 -0.07670691
0.05203571 -0.20235924 -0.2570298 0.12490511 0.21315087 0.061048046 -0.26586097 0.20716178
0.19625437 -0.016449237 -0.30488104 0.007825853 0.21154763 0.084671415 0.090807855 -0.21487314
0.21860635 -0.10721743 -0.22895196 -0.22880656 0.08542076 -0.12643799 0.07997201 -0.28195697
0.15472597 0.17056887 0.04101631 0.21370758 0.21722354 -0.20650059 0.10213793 0.050164368
0.20890652 0.18447296 -0.0197495 -0.2640329 0.23035128 0.1888877 0.13560246 -0.2344427
-0.03268748 -0.10466216 -0.033923242 0.04810647 0.0020436342 -0.1692459 -0.06844117 -0.15402538

conv1.bias f4 [64]
00000000: 7f45 66bd cffb 3fbe a492 1e3d 9f55 8f3d
00000010: ad47 583e 3688 7abd 53de 9f3b f538 323e
00000020: 0753 9f3c c92e 4b3e e173 1bbe bdc8 6cbe
00000030: ac0a 1dbe a61a 9c3c cbf7 f5bc ec60 0f3e
00000040: 7bde 64be 0687 353e f0c9 5d3e d836 d63d
00000050: c757 683e 8b64 123e d7a5 803e 3f3f 96bd
00000060: 4e3e 523e de74 80bc 954b e73d 787a e43d
00000070: 0188 07be 63cb 1bbe 6e2f 8f3d d83e 06be
00000080: be5b 2a3e 85d7 a43c 05b7 743e 8ab4 e6bd
00000090: ef46 ab3d d18f 373e 4f60 d8bb 6842 bdbd
000000a0: 9ec5 ce3d 8990 4bbe cdaf 05be 64fe 2b3e
000000b0: 0a0f b53d 2ffc 5b3d 4d39 dbbd 4aef 553e
000000c0: ce1c 1f3d b317 ecbd 57dc 0f3e 4811 733e
000000d0: cb2b 873d 0f70 14be e4bf 74be 60d6 d43d
000000e0: ec01 82bc 26ec 883d 1113 beba 8b89 59bc
000000f0: 4209 143e bf27 983d 19d9 1cbe 5ccb 8e3d
-0.05621862 -0.18748401 0.038714066 0.06998753 0.21121092 -0.061165057 0.004878798 0.1740454
0.01944877 0.19842066 -0.15180923 -0.2312345 -0.15336102 0.019055676 -0.030025383 0.14001817
-0.22350495 0.17727289 0.21659064 0.10459679 0.22689734 0.14296167 0.25126526 -0.07336282
0.2053158 -0.015680727 0.11293713 0.111561716 -0.13235475 -0.15214305 0.06991468 -0.1310991
0.1663656 0.020122299 0.23897941 -0.11264904 0.08363139 0.17925955 -0.0066032778 -0.092411816
0.10096286 -0.19879355 -0.13055344 0.16796261 0.08840759 0.053707298 -0.10704289 0.20892063
0.03884583 -0.11527958 0.14048897 0.23737061 0.0660015 -0.14495872 -0.23901325 0.10392451
-0.015870057 0.06685667 -0.0014501532 -0.013277422 0.14456657 0.07429456 -0.15317191 0.069723815

conv2.weight f4 [128, 64, 2, 2]
00000000: e2d3 bc3c 22f8 a3bc eff8 a73c 295e 173d
00000010: 876c 27bb 86d3 803b ee74 f3bc c926 7dbd
00000020: 825b 0b3e 79e4 bfbc dff0 ab3d 5c73 d23b
00000030: 3897 413d 742f 273d 168c 3c3c 0556 7f3c
00000040: a38a a6bd 076d 8ebd fcee 69bd dda5 55bd
00000050: d8fd cabd 436e 9ebd 8990 dcbc 814b 95bd
00000060: d0e7 b7bc cecd 8dbd 001e 443d 8fca bebc
00000070: 9b0b ae3c fcc6 d93c 4e90 a73c 03ae 5a3d
00000080: ae77 0bbd ce68 a13c c5c3 ffbc fc37 dbbc
00000090: 5ed2 aa3d 4ffd 943d 66e5 ec3c 090c 783d
000000a0: 6a46 1e3e a2a3 ce3d 3f07 4f3b 96c8 6c3d
000000b0: 6a7b c73c cce6 e33d 183c c13d c3bc 8d3d
000000c0: 0b92 6e3d b7e9 523d 0844 573d 117a af3c
000000d0: eb36 0ebd ff0a 90bd 9e30 54bd 561d 1ebc
000000e0: a137 9c3d 4e13 76bd 1f2e b33c badf 2c3d
000000f0: 608e 16bd df7c 1ebd 0c50 873b 662f 30bc
00000100: 94c2 2e3d a0cd 34bc eda6 11bb 08c2 943c
00000110: 85b8 4e3c 174a 11bc 2217 16bd 05be 65bb
00000120: 5e96 26bd 6959 54bd 8f58 2dbc f209 983c
00000130: 31c3 e2bb dc48 3c3d 6bc2 29bd e463 cabc
00000140: 0d69 1ebd ea37 01bd 5fc5 02bd 5e3c 91bd
00000150: 05e6 57bd f4f1 533d ccf8 fabc 9734 e1bb
00000160: a9b1 f8bc 6438 65bd 58fc c1bb 359f 7dbd
00000170: 50e4 67bd c693 423d 107c 81bd b714 8a3b
00000180: 2f34 87bd 7bb4 0d3d c02d b5bd 40c3 8dbc
00000190: 1df6 2dbd b318 3e3d 59c0 fcbd 9569 843c
000001a0: b18e d0bd 600d 3abd db37 a0bd 36f9 49bc
000001b0: 6aa4 413b 63fc d8bd 61d4 8abd 8fb8 39bd
000001c0: 161f 1abe 7b25 91bd 9ba5 28be 632d 70bd
000001d0: bbcc e6bd 7613 adbd 1f78 aebd 0499 9bbc
000001e0: af48 82bd 3217 dab9 7e3b 29bc e748 4fbb
000001f0: e0b3 fd3b 94e4 e03c 88c4 5ebd 48f0 83bc
00000200: 62e8 f3bc 255c 4d3d 6302 1d3c c7ce b8bd
00000210: 44c4 58bb 613b c7bb a05b 113d 1978 f4bc
00000220: 6e66 173d bea4 b43c 248f d2bd 48d8 b1bd
00000230: 74ee 243e 5eb4 683b fc9e 8a3d b743 113d
00000240: bb38 03bd 6a48 2fbd 9b6d 3abc a1c8 9dbb
00000250: bd9d b5bc a280 423d b99a a23c f953 fb3c
00000260: c1b2 503d 20a1 42bd af31 053d 7d60 3d3c
00000270: 9d9b 8a3d 722f a93d dade a73c a7d1 ffbc
00000280: a388 103d 3369 d9bb baff b33c 5f82 213d
00000290: cab9 143e b1e7 143d 4e1b e93a d1a5 53bc
000002a0: 6b9c 24be 1571 a7bd 85ee 56be bdef 2fbd
000002b0: 6da8 a7bc e7a6 183d 312e 57bd bee2 51bd
000002c0: cf4c 2abd e4a2 513d 5110 e3bc 0808 7bbd
000002d0: f726 3abb 5ae3 903d fb46 65bd 8c67 6fbd
000002e0: 1be0 1e3c 490c 3abd 25d5 8b3d d3e2 06bd
000002f0: 0a30 7dbc 68e5 afbc 4788 c839 9075 123d
00000300: 63c7 9bbd 3158 b9bd c3ec e2bc 9615 aabd
00000310: 4103 87bc e7bd d03b 4ec1 833d f2d7 76bd
00000320: fd19 b7bb b5f9 dfbc a355 43bd 5e1c 2a3d
00000330: 4f46 02bd d1b8 e4bc 6801 3b3d f82e 963c
00000340: da56 96bd 5904 f4bd af2c 4ebe d987 f5bd
00000350: 06de a1bd 404f d2bd e26f a1bd 5cdc 10be
00000360: f41f d13d 39f6 453d 11a1 0d3d 19e7 1c3d
00000370: 2fc8 8abd 918a 06bd fd71 abbd 1187 ccbd
00000380: fa8d be3b 96bb 293d 6c55 643d a483 fb3c
00000390: 5278 cd3d 8991 9d3a 4d4e 00bc 953e 6bbc
000003a0: 9362 fabc bb19 5f3b e6ea 913d fe9f 853d
000003b0: 2405 a13d 4d95 7f3d 4dd1 073d a1a9 f2bc
000003c0: 76dc 193c e2ab b3b9 d8b7 533d 6b8d 4cbd
000003d0: a8be b4bc 51e5 0b3d 34db bcbd faf2 ecbb
000003e0: 10db b6bd 4b8d 6bbd c12a 39be 605c 0bbd
000003f0: 3384 c7bd ab18 253d 1b5c 5dbd a42d cb3c
0.023050252 -0.02001578 0.020504443 0.036955032 -0.0025546865 0.0039314656 -0.029718842 -0.061804567
0.13609126 -0.023424374 0.08395552 0.0064224433 0.047263354 0.04081674 0.011508008 0.0155844735
-0.081319116 -0.06954389 -0.05711268 -0.052160133 -0.09911698 -0.077358745 -0.026924388 -0.07289792
-0.022449404 -0.0692402 0.047880173 -0.023289947 0.021245768 0.026584141 0.020454552 0.053388607
-0.034049682 0.019703295 -0.03122128 -0.026760094 0.083409056 0.07274877 0.02891798 0.060558353
0.15456548 0.10089804 0.0031590012 0.05780848 0.02435084 0.111280054 0.0943529 0.06920769
0.058244746 0.05149242 0.052555114 0.02142051 -0.034720343 -0.07033347 -0.051804177 -0.009650549
0.07627798 -0.060077004 0.021872578 0.04220555 -0.036756873 -0.038693305 0.0041294154 -0.010753488
0.042666033 -0.011035353 -0.002222474 0.018158928 0.012617235 -0.008867762 -0.036643155 -0.0035055887
-0.040670745 -0.05184308 -0.010580196 0.01855943 -0.0069202413 0.04596792 -0.041445177 -0.024705835
-0.038674403 -0.031547464 -0.03192651 -0.07091592 -0.052709598 0.051744416 -0.030636214 -0.0068727243
-0.030358152 -0.05596198 -0.0059199743 -0.06191941 -0.05661422 0.04750421 -0.06322491 0.004213895
-0.0660175 0.034595948 -0.08846617 -0.017305017 -0.04247104 0.046410274 -0.12341375 0.016163627
-0.10183466 -0.04542291 -0.078231536 -0.012327483 0.0029547461 -0.10595014 -0.06778789 -0.045342024
-0.15050921 -0.07087227 -0.16469423 -0.058637034 -0.11269518 -0.084509775 -0.08519005 -0.018993862
-0.063615195 -0.00041597482 -0.010329125 -0.0031629147 0.00774239 0.027452745 -0.054386646 -0.016105786
-0.029773895 0.050136704 0.009583089 -0.09023815 -0.0033075968 -0.0060800766 0.03548777 -0.029842423
0.03696292 0.022051211 -0.10281208 -0.086838305 0.16106588 0.0035507898 0.06768605 0.03546497
-0.032036524 -0.04279367 -0.011378671 -0.0048151766 -0.022169942 0.047485955 0.019849168 0.03067969
0.050951723 -0.047516942 0.032518085 0.011558649 0.06767962 0.082610026 0.020492006 -0.0312279
0.035286557 -0.006634855 0.021972526 0.039430972 0.14523998 0.03635377 0.0017784627 -0.012917952
-0.16075294 -0.081758656 -0.20989425 -0.04295324 -0.020466054 0.037268545 -0.052534286 -0.05124163
-0.041577157 0.051180735 -0.027717741 -0.061286956 -0.0028404573 0.07074614 -0.055975895 -0.05844836
0.009696986 -0.045421872 0.068277635 -0.03293116 -0.015453348 -0.021471694 0.00038248507 0.035756648
-0.076063894 -0.09050024 -0.027700787 -0.083048984 -0.016481044 0.0063702944 0.06433354 -0.060264535
-0.005587815 -0.02734075 -0.04768909 0.04153096 -0.031805333 -0.027920159 0.045655638 0.018332943
-0.07340784 -0.11914892 -0.20134233 -0.119888015 -0.07903676 -0.10269022 -0.07882668 -0.1414656
0.10211173 0.04833052 0.034577433 0.03830633 -0.06776463 -0.03284699 -0.08371351 -0.099866994
0.005815265 0.04143866 0.055745527 0.03070242 0.10032715 0.0012021522 -0.007831168 -0.014358182
-0.030564582 0.0034042436 0.071248814 0.06524657 0.078623086 0.062398244 0.03315859 -0.029621901
0.009390941 -0.00034269603 0.051689 -0.049939554 -0.022063568 0.03415424 -0.09221497 -0.0072311135
-0.089285016 -0.057507794 -0.18082716 -0.034023643 -0.09742012 0.04030673 -0.054042917 0.024802037

conv2.bias f4 [128]
00000000: 72f7 86bd d830 07bd 1824 053d 73e4 c03c
00000010: e559 3b3d 1160 cf3c 724b ee3c 4a85 873d
00000020: 7186 d0bc 0470 01bd 2685 193d b7c3 0dbd
00000030: 9281 6b3d 2e5b 6abc c96c 4d3d f370 b33c
00000040: 7877 beba 700b 093c 0da6 963d dae3 093d
00000050: 5202 e7bc d6ee f23c 4a99 183d 545e 303d
00000060: 63a7 963c 2521 abbc 4d9e 75bd d01f 69bd
00000070: df17 ecbc dca8 65bd cba7 21bd e431 61bd
00000080: de08 23bd 1385 80bd a434 2f3d 5dae 0ebd
00000090: 8099 3cbd af2b 923d 08e5 3bbd 2013 db3c
000000a0: 6ab1 043d 2738 863d 238c 98bd 030c 343d
000000b0: 4d99 773d ace8 893c 52fd e83c 3717 50bd
000000c0: b972 ad3c c57b 6d3c 3a7e b23c c777 d93c
000000d0: 11b8 853b 58f9 603d dee8 103d d217 42bd
000000e0: be0b 0ebc 9cda 4e3d 1587 c73c 3ad2 11bd
000000f0: b12c 3fbd a8f1 2abd 4074 eabc de31 6bbc
00000100: 51cb 27bc f92d 89bc 5f9d 3c3c 75fb 85bd
00000110: 1110 053d 08f0 cdbc fcd6 b93d ca6e 513c
00000120: aeb1 6bba 4184 7b3b 4ae5 003a 3765 f13c
00000130: 8087 7c39 6c22 5f3d bac9 92bc ae57 7ebd
00000140: e923 5e3b a663 923c 982c 713d 0e57 2e3c
00000150: 1803 3fbd fc48 953d 5c80 95ba 98b0 423d
00000160: 3698 cf3c f42e 27bd fb12 813d 428c 70bd
00000170: 16e6 5b3d 4196 253c a674 083d 860e c6bc
00000180: 2d2a 8c3d 727e 22bd 5b73 1b3d b1c1 cc3c
00000190: 92a2 43bd f89d f73c 0c58 5abd 0c7b 9bbc
000001a0: 4acd 2b3c ec81 e23c f054 b33c e902 04bd
000001b0: 57b9 e53c b271 003d 1dc0 2a3b 4c87 513d
000001c0: 4688 d0bc 1d0e 243d 1f04 213d 3e7d 11bd
000001d0: 8f69 80bc 95e6 3ebd b3c6 09bd 853a 2e3c
000001e0: 9a4f 323d 5869 023d 23c9 d23c 4212 2cbd
000001f0: 82e1 aa3c c28a 503c 512b 1abd 9189 9cbc
-0.06590165 -0.033005565 0.032505125 0.023546433 0.045740027 0.025314363 0.02908871 0.0661722
-0.025454732 -0.031600967 0.037480496 -0.034610476 0.057496615 -0.0143039655 0.050152574 0.021904444
-0.0014531454 0.008364543 0.073558904 0.03366456 -0.028199349 0.029654901 0.037255563 0.04305871
0.018390363 -0.020889828 -0.05996542 -0.056915104 -0.028819976 -0.05606924 -0.03946666 -0.05497922
-0.03980338 -0.06275382 0.04277481 -0.034834255 -0.046044827 0.07137238 -0.045872718 0.026742518
0.032395758 0.06553679 -0.07448604 0.043956768 0.060448933 0.01683458 0.028441105 -0.05080339
0.021172868 0.014494841 0.021788705 0.026546372 0.0040807803 0.054925293 0.03537833 -0.047385998
-0.008669792 0.05050145 0.024356404 -0.03560088 -0.04667348 -0.041734368 -0.028619885 -0.014355151
-0.0102413455 -0.016745554 0.01151213 -0.06542102 0.032486025 -0.02513887 0.09074208 0.012782762
-0.0008991015 0.003837839 0.0004916979 0.029467208 0.0002408307 0.054476187 -0.017918456 -0.062095337
0.0033895916 0.017869782 0.05888042 0.010640873 -0.04663381 0.07289311 -0.0011406052 0.047531694
0.025341135 -0.040816262 0.06302448 -0.05872751 0.053686224 0.010106624 0.03331437 -0.024176847
0.06843982 -0.03967137 0.03795181 0.024994703 -0.04776246 0.030226693 -0.053306624 -0.018979572
0.010485956 0.027649842 0.021891087 -0.032229338 0.028042478 0.03135843 0.002605445 0.05115442
-0.025455605 0.040052522 0.03931057 -0.03551983 -0.015675334 -0.04660662 -0.03363676 0.010634069
0.043532945 0.031838745 0.025730675 -0.0420096 0.020859484 0.012728395 -0.037638966 -0.019108566

fc_shared.weight f4 [128, 768]
00000000: 14aa 29bc c846 c2bb 72e1 993c 27c0 a2bb
00000010: 82d1 98bc bcb2 bb3c 7409 913b 354b 0abc
00000020: ce73 4bbc 28a5 1bbc 41c6 25bc 4823 6139
00000030: ea58 cd3b 2132 05bd c9ca 8c3b 8824 bc3b
00000040: 6152 b7ba 313c 353c 0564 bbbc 6cdc d5bc
00000050: 0665 353b c07d 093c e1ae fa3c b4f1 723c
00000060: 4a3d 0bbd 805a 48bb 5141 cfbb 5a4d 02bd
00000070: 2529 c93b 52c6 07bd 80b3 d53c b99b 03bc
00000080: e637 97bc 258c 5e3b 5a21 963c 7cbe aabc
00000090: 031e 0fbc 5740 e7bc 74dc 17bd 8b91 9cba
000000a0: e820 03bd e2c0 183c fbea 283b 9a05 ad3b
000000b0: 25b9 0fbd 9837 243c 19b9 943c 03eb 8c3c
000000c0: a56b f6bc cac7 d43c ab46 0ebd d8f4 a93c
000000d0: 333d 933c 5e0a dc3c ad79 183c 2891 1f3c
000000e0: c362 16bd e519 b83c 6f12 343b 695b 06bd
000000f0: 3ea7 f93c 7e6d 0c3c 995f 3abb aa61 3abc
00000100: 8945 eabc 5093 03bd 63f9 983c 8813 013d
00000110: dea1 82bb f0a1 373c 6e46 2bbc 16f0 1fbd
00000120: 360d 74bc fce1 05bc 443d cc3c 9e4f b4bc
00000130: f35e 7dbc 8c47 b8bc 43f1 dabc 6f73 49bc
00000140: df92 42bc f0dc e03c e55b 813c eda0 12bd
00000150: 265c 0cbd fbf9 d33b 97ce 273c 7b29 e4bc
00000160: 28aa 063c 974a a0bb 38fe 073c fcd4 69bc
00000170: fff9 dc3c 0311 a9ba 2466 bfba ee4d 3a3c
00000180: ec2f ad3b fe52 e03c ecc2 23bb a6ba 04bc
00000190: ba89 1fbd 7a66 693c 4590 c2bc cb00 6bbc
000001a0: b4a6 1ebd 1367 d1bc c206 c4bc 62cb 9bbc
000001b0: 643e 953b 2a4e 16bd cd28 18bd dbb7 253b
000001c0: d768 98bc b5c4 a3bc 75a7 7abc 9921 cc3c
000001d0: 336d 16bd 1501 1d3c a6e8 0cbc 399a 533b
000001e0: eb69 31bc 6b78 a83b 894a be3c a641 e0bc
000001f0: 8196 953b cd29 31bc 426f 4a3c a23f e13c
00000200: d0be 09bd 6e8d d83c 953e 15bb 7b56 d93c
00000210: b959 ef3c 236b b63b 85e1 fbbc 6034 7d3c
00000220: 0ba5 9f3c 8a9b 05bc 2646 09bb 495d ecbb
00000230: e512 9fbc a0a6 dabb faa0 993c 6f6f e73c
00000240: 5f26 ba3c a511 02bc 6976 a63c 4a8a 8b3b
00000250: c99c 6c3c 20a4 cbbb 4117 d23c b0dd e43c
00000260: 4469 2abc 53d7 c83c 998a e6bc 16d1 a23c
00000270: 0817 f53c cd1f dfbc ed28 b03c 47d3 53bc
00000280: 4c0e 61bb fc31 9c3c 8a3e 7aba 35c5 be3c
00000290: 0939 973b 756b 923c 32e8 8e3c 4b0a 43bc
000002a0: 8d29 49bc d10a c0bc 3a79 c53c b2b6 9abc
000002b0: cfd4 b83b af52 853c f7f3 6cbc 8383 4cbb
000002c0: 10cc 14bd efc5 7cbc 12f8 f43c f8cb 42bc
000002d0: d26c c53c 3da7 c7bb 24c7 aa3c 7947 fb3c
000002e0: ccd7 b73c bae3 0fbc cc5d c23c 11d9 103a
000002f0: 76dc 5d3c 2159 b53c 2bb6 dcba c11b 03bc
00000300: c1c3 ffbc 460f 13bd 4f2c c1bc c6bc c4bc
00000310: daba e1bc 64a1 b7bc d781 3b3c c7d7 cebc
00000320: 40ed 223b 247f 76bc e4af bc3c 50d8 023d
00000330: 3da7 fc3c 70a2 c93c d246 d93c ffae f8bb
00000340: 19d9 6e3c 6ce3 fa3c 04f2 23bd 6b0a 2bbc
00000350: e803 46bc 4dd6 19bb c5ad 0b3b 0924 953c
00000360: 4899 f5bc c1ec a8bc 7795 d23c 022a e0bc
00000370: df85 fc3c 5bdf 01bd 8815 a2bb b6cd 55bc
00000380: a7ff 983c e5c0 d4bc f50e 84bc f8f9 f1bc
00000390: f2b0 07bc e21f febb 5ac1 a03c c4a1 7c3c
000003a0: 840e 0abd 38ea 8b3c 2808 4a3c 3ea7 0abd
000003b0: 7fe5 c73c f2f0 1cbb 8585 e7bb ca17 823b
000003c0: deb2 93bc 8c48 8a3c f808 9cbc 8009 b539
000003d0: 0052 893b e429 dd3c 97a8 8bbc 7daf f8bc
000003e0: 7e04 8e3c 6e95 803a 7cef 903c 3678 12bd
000003f0: 1b3a ca3c 063d 9fbc 934c 0dbd dbaa 413c
-0.010355491 -0.005928848 0.018784259 -0.004966754 -0.018654589 0.022912376 0.0044261757 -0.008440782
-0.012417747 -0.009499826 -0.010118068 0.00021470815 0.006266703 -0.03251851 0.004296635 0.0057416596
-0.0013986343 0.011061714 -0.022874841 -0.026106082 0.0027678623 0.008391798 0.030600967 0.014828134
-0.033993997 -0.003057152 -0.006324925 -0.03181205 0.006138938 -0.033148117 0.026086569 -0.008032733
-0.018459272 0.0033958044 0.01832645 -0.020842783 -0.008735183 -0.028228922 -0.037075475 -0.0011945231
-0.032013804 0.009323331 0.0025774825 0.005280209 -0.035088677 0.01002302 0.018154668 0.017201906
-0.030080626 0.025974173 -0.034735363 0.020746633 0.017973518 0.026860412 0.0093063535 0.009739198
-0.03671528 0.022473285 0.0027476808 -0.03280202 0.030475255 0.008571027 -0.0028438328 -0.011375824
-0.02859761 -0.03212291 0.018673604 0.031512767 -0.003986581 0.0112080425 -0.010453803 -0.039047323
-0.014895728 -0.008171555 0.024931557 -0.02201062 -0.015464532 -0.022495054 -0.02672637 -0.012295588
-0.011875837 0.027449101 0.015790889 -0.035798002 -0.034267567 0.006469009 0.010242126 -0.02785181
0.008219279 -0.0048917043 0.008300357 -0.014271971 0.026974676 -0.0012898747 -0.0014602584 0.011371119
0.0052852537 0.027383324 -0.0024988009 -0.008101141 -0.038949706 0.014245624 -0.023750434 -0.014343451
-0.0387332 -0.025561845 -0.023929004 -0.019017879 0.0045545567 -0.036695637 -0.037148286 0.0025286588
-0.018604679 -0.019991258 -0.015298714 0.024918364 -0.036725234 0.0095827775 -0.00860039 0.0032287969
-0.0108284755 0.005141308 0.0232289 -0.027375054 0.0045650606 -0.010813189 0.0123556275 0.027496163
-0.03362924 0.026434626 -0.0022772898 0.026530495 0.029217588 0.005566971 -0.030747185 0.015454382
0.019487878 -0.008154759 -0.0020946353 -0.007213269 -0.01941819 -0.0066726953 0.018753517 0.028251378
0.022723375 -0.007938777 0.020320134 0.0042584287 0.014441677 -0.0062146336 0.025645854 0.02793774
-0.010401074 0.024516737 -0.02814226 0.01987509 0.029918209 -0.027236843 0.02150389 -0.01292879
-0.0034340797 0.019066803 -0.0009546062 0.023287395 0.0046149534 0.017873505 0.017444704 -0.0119043095
-0.012277973 -0.023442658 0.024105657 -0.018885944 0.005640603 0.016274778 -0.014462463 -0.0031206317
-0.03632742 -0.01542805 0.029903445 -0.01188945 0.024099741 -0.0060929344 0.02084691 0.03067373
0.022441767 -0.008782322 0.023726366 0.00055255095 0.0135413315 0.022137227 -0.0016838958 -0.0080022225
-0.031221272 -0.035903238 -0.023580698 -0.024015795 -0.027554918 -0.022415824 0.01144453 -0.025249375
0.002486065 -0.015044961 0.02303309 0.031944573 0.030841464 0.024613589 0.026523028 -0.0075892205
0.014578127 0.030626021 -0.040025726 -0.010439496 -0.012085892 -0.002347368 0.0021313292 0.01820566
-0.029980317 -0.020620706 0.025706036 -0.02736378 0.030825553 -0.03170715 -0.0049464144 -0.013049534
0.018676592 -0.025970886 -0.016120413 -0.02953814 -0.008281933 -0.0077552656 0.019623447 0.015419427
-0.03370525 0.017079458 0.012331046 -0.0338509 0.024401424 -0.0023947326 -0.0070654773 0.003970121
-0.018029626 0.016880296 -0.019047245 0.00034530088 0.0041906834 0.026997514 -0.017048163 -0.030357117
0.017336126 0.0009810159 0.01769232 -0.035759173 0.02468591 -0.019438278 -0.034496855 0.01182052

fc_shared.bias f4 [128]
00000000: 1755 96bb 4af1 3fbc 74f3 e8bc dfa2 53bd
00000010: a531 7bbc 72c6 6f3d cbba 22bd 26c8 163d
00000020: 3991 67bc cee7 2abc d205 0dbd d3a4 b2bc
00000030: cefd 8c3d 3c46 3d3a 619d b8bc f633 783c
00000040: 2960 cc3c 0517 363c cece 8fbb 631f c4bb
00000050: 942d 153c 2ad7 be3c 5326 b83b 2a68 43bc
00000060: 34f2 c2bc 4a16 d33c 1b43 4ebb 734c 073d
00000070: 8dc1 423d 4795 f83c 68a9 e13b b960 3b3c
00000080: ac99 633c e501 d6bc 6ccb 2fbc 3cdf 07bd
00000090: ffa5 1cbc 9c73 e83c 631e 42bd a9c5 133c
000000a0: b7a3 693d 95ed 633d a521 b43c 2235 32bc
000000b0: 6e2f 1bbb 2467 fb3c f444 e1b9 945e 643b
000000c0: 4f36 083d cca0 bb39 f3ad 0dbb 0883 243d
000000d0: 5ec7 01bd 415c 123c 0f4d a33c cc64 083c
000000e0: c20b 143d 0a5f a23b 08c9 a9bb b38e 323c
000000f0: 2256 f8bc c66b 2a3d 118d 103d 89d8 16bd
00000100: abd1 fe3c 93fe 583d 8f9e e2bc f2c2 103d
00000110: 44f0 eebb 1682 b03c 303d d13b 5980 c53c
00000120: 9e93 04bd f652 66bb f951 0d3c 0390 4e3c
00000130: 82cd 90bc fe93 973c 354b 893c 691a 8f3d
00000140: 2021 353c 2362 4abb be97 123c 0f80 883c
00000150: eeb9 48bc ba67 d63c c1d2 bbba ce42 293d
00000160: 3734 733c 8ad0 c83c 5fc1 f03c 2942 08bb
00000170: 38c1 593b 9dc8 2fbb 432c fe3c f703 24bc
00000180: 2afe d13c c55f 073b f3d0 923c bb91 f5bc
00000190: bc64 8ebb c7ce 92bb b711 dcbb 788c 03bd
000001a0: c931 ec3c 8baf 803c a3bc b5bc 2dad 1db8
000001b0: 0068 423d 9b64 b63c 6f2e 033c 72e4 453c
000001c0: f57e 12bd 483a 1abd 5b22 263d f60c 61bc
000001d0: 0062 223d 8c48 de3c 9aa6 2d3d 3a07 4abc
000001e0: fd95 eb3b d879 2b3a a079 1f3d ea89 233d
000001f0: e0b8 843c 5ddc 233d 0ebf 243c 9130 e0bc
-0.00458778 -0.011715243 -0.0284364 -0.051668998 -0.01533166 0.05853886 -0.03972892 0.03681197
-0.014133745 -0.010431243 -0.03442938 -0.02180711 0.06884347 0.00072202436 -0.022535982 0.015149107
0.024948196 0.011113887 -0.0043886667 -0.005985187 0.009105105 0.023295958 0.005619803 -0.01192669
-0.023797132 0.025767464 -0.0031473103 0.033031892 0.047547866 0.030344618 0.00688665 0.011436635
0.013891619 -0.02612395 -0.010729652 -0.033171877 -0.009561061 0.02837544 -0.04739226 0.009019294
0.057040896 0.055646498 0.0219887 -0.010876926 -0.0023679393 0.03068883 -0.00042966718 0.0034846412
0.033254918 0.00035787222 -0.0021618574 0.040164024 -0.031684272 0.008933128 0.019934205 0.008324813
0.036144026 0.004955177 -0.0051814355 0.01089828 -0.030314509 0.041606687 0.03529078 -0.036827598
0.031105837 0.052977156 -0.027663497 0.035342164 -0.0072918255 0.021546405 0.006385468 0.024109052
-0.03236734 -0.0035144663 0.008625501 0.012607577 -0.017676119 0.018503185 0.016759494 0.06987459
0.011055261 -0.0030881248 0.008947311 0.016662626 -0.01225136 0.026172508 -0.0014329777 0.041323476
0.014843992 0.024513502 0.029389082 -0.0020791388 0.003322674 -0.0026822456 0.031026965 -0.010010711
0.02563389 0.0020656448 0.0179219 -0.029976716 -0.0043455046 -0.004480216 -0.006715979 -0.032116383
0.028832333 0.015708705 -0.022184676 -3.7593e-05 0.047462463 0.02226477 0.008006676 0.012078391
-0.035765607 -0.037653238 0.040560108 -0.013736 0.03964424 0.027134202 0.04239521 -0.0123308245
0.007189511 0.00065412885 0.03893435 0.039926447 0.016201437 0.040005077 0.010055317 -0.027366908

actor.weight f4 [7, 128]
00000000: 10ed 83bd ce68 9f3d caf4 753d d2b8 8a3d
00000010: 146e a53c 6da0 b5bc 9bd4 bc3d d3f1 09be
00000020: b650 2fbd 81e7 77bd 9cff 5abd 5757 2dbd
00000030: 85f1 05be d5ae 393d 7b50 ac3d bb37 f0bc
00000040: 90c4 cfbd bac9 acbd 7567 2d3c f43d 49bb
00000050: 9812 f43c 382c bfbc 7b6f 00bd b572 dfbc
00000060: e5cb 133d f82e 9b3b 9085 2bbd 3137 8f3d
00000070: 52f7 793d eca9 b5bc 8e4b 133d dfad 48be
00000080: cd04 0fbe bfd2 4dbd ec84 77bd 13fb 29bd
00000090: 13ed b33d 6f79 d5bc 44f2 9a3d de76 863d
000000a0: e709 aa3d b19d 13be 6ed2 633d 016b f5bd
000000b0: 4cdf 9abd 2fb3 713d 2c43 813c b7b4 dc3d
000000c0: f186 abbc 7a8e f43c 795b c03c 7c1f a93d
000000d0: 80a1 ce3c 91d8 84bd 338c f9bb 9fe0 bc3b
000000e0: 5aaf fcbd 0fc8 eebd 3ed5 c3bc 4dd6 893d
000000f0: cdd5 783d e891 76bd 601c e9bd 2fa3 9dbd
00000100: 1cb1 aabd 48b7 4dbd db12 313d df69 e9bd
00000110: 9d46 ac3d 2234 18bd 05d4 563d 5fdd 4abc
00000120: 7254 f73c 61b0 41bc 711b 67bd f119 823d
00000130: 81b3 233d 8b00 3bbe 5d6b b83d b2c7 83bb
00000140: 351d 9b3d f221 833d 05de 7cbc a9a1 3bbd
00000150: 5c7f d13d f61b 18bb 54ee fb3d d150 423c
00000160: 0127 93bd d1c3 adbd 8fd3 a53d 4ce6 3d3d
00000170: e0e9 1cbd cb71 4ebb 2ad1 f2bd 3a80 e7bc
00000180: 6618 8dbd 945a d7bd 5a9e a2bc 3ceb 463c
00000190: 8eab d3bd 5c5f 25be 72ec 34bd 20bf 2abd
000001a0: ba4a bc3d b2e2 993d 3cb1 4ebd 3933 503d
000001b0: 2938 20bc 1bf3 573d 1c64 723d 9018 8fbd
000001c0: bc4a 9e3b 1e51 03be 15cf 9abd 3c18 853d
000001d0: 16fb ecbd 29b8 55bd ad43 17be 470c aebc
000001e0: 61c0 3b3d 42da ce3d dc67 38bc 8475 a83d
000001f0: 551b 9d3d 55da 0abd 79bc b4b9 9aa5 20be
00000200: 4d37 813d 71dd 933c 0e3a 72bd 8fa1 ba3b
00000210: 44b1 95bd 8361 243d 1a52 9d3d 8567 94bd
00000220: 737e a43d 4b84 803b ee8e 5d3d fec0 603d
00000230: bb1d 083c fa7d 873d e22a 463c 1537 b9bd
00000240: 0030 6b3d 7553 7c3d de81 7fbd 39a3 b2bd
00000250: 9c88 9fbd 282c 0a3d 5c48 d23c 787f dfbc
00000260: 8481 08bd 915d 423d e624 d6bd 83fd a53d
00000270: 550a 363d 1a71 b2bd 6e23 ecbd b172 19bd
00000280: 3850 403c 900c 62bd f288 6dbd 5024 e63c
00000290: 37ce f03c c319 9d3d 769b 2cbd 9521 ba3d
000002a0: b879 92bd 111e c2bd f2f9 a53d de70 05be
000002b0: 65e4 a53d 80ae 72bd 5a82 863d f9f2 22be
000002c0: 66be 0fbd 2e41 c03d b4d5 ad3d b9d8 6d3d
000002d0: 834b 2e3d 8a08 593d a037 6b3d 5966 413d
000002e0: 918b 66bd fa60 abbd b403 9a3d 7c8a 9f3d
000002f0: 4b62 94bd e819 893d f8aa 793d e683 693d
00000300: 21a4 6ebd fbb3 fabd c9d7 9cbd 32ae d1bc
00000310: a0a7 2dbd 4f37 b63d 26f1 bd3d 33f3 893c
00000320: 27ba 6dbd d9c6 5d3d 471f 1bbd f3b6 6abd
00000330: 2cf7 5dbd 1d25 79bd 5d05 163d d38c 7a3d
00000340: f5c7 043b 4153 873d 622d e1bd 8268 a6bc
00000350: 51d1 2c3d 9658 003d 73d9 62bd ebad cabd
00000360: 7a9a 2c3a 3047 fd3c f5a6 223d f215 25bc
00000370: 8c61 983b 9640 973d d533 40bd e3bf 643d
00000380: 55bf a33d fe9f 0cbe 9d96 583d 1154 c5bb
00000390: 48de 46bd 924d 6fbd 8c12 3fbd 5ea1 28bd
000003a0: 447b 233d 4707 cd3c bdb3 cebd 238e 99bd
000003b0: 51f7 32bc 88a4 81bd d57d 303d 07d2 2f3d
000003c0: 6b41 96bd 4ce8 dbbd f4cc 873c f6cd 6a3d
000003d0: 487c a03d 086c 7dbc ca78 0cbe fba4 abbd
000003e0: 33c7 fabc f8b0 cb3d 434c 0a3c 612f b2bc
000003f0: 6b90 a23d ea6e 8c3d 5dd9 1bbd 0f60 47bc
-0.064417005 0.07783662 0.060047902 0.06773533 0.02019409 -0.022171224 0.09220239 -0.13471155
-0.04280158 -0.060523514 -0.053466424 -0.042319622 -0.13080414 0.04533275 0.08413788 -0.02932345
-0.10144913 -0.08436914 0.010583748 -0.0030707093 0.029794022 -0.023336515 -0.031356316 -0.027276376
0.03608312 0.0047358237 -0.041875422 0.06992949 0.06102688 -0.022175752 0.035960726 -0.19597577
-0.13966675 -0.05024981 -0.0604295 -0.04149921 0.08785453 -0.02605888 0.0756574 0.06565641
0.0830267 -0.14415623 0.055620603 -0.119833 -0.07562122 0.059008773 0.0157791 0.10776656
-0.020938369 0.029853094 0.023481118 0.08257958 0.025223494 -0.06486619 -0.00761559 0.0057640816
-0.12338133 -0.11659252 -0.023905393 0.06730328 0.06075077 -0.06019774 -0.11382365 -0.076971404
-0.08334562 -0.05022362 0.043230873 -0.113971464 0.08411906 -0.037159093 0.05244829 -0.012381881
0.030191634 -0.011821837 -0.056422655 0.06352604 0.03996611 -0.18261926 0.09004853 -0.0040216083
0.0757393 0.06402959 -0.015433793 -0.045808468 0.1022937 -0.0023210025 0.12301317 0.011860088
-0.07185174 -0.08484615 0.08096992 0.046362206 -0.038308978 -0.0031500931 -0.11856301 -0.028259385
-0.06889419 -0.10515323 -0.019850899 0.012141045 -0.10335456 -0.16149658 -0.044170804 -0.041686177
0.091939405 0.07513942 -0.050461993 0.0508301 -0.009779015 0.052722078 0.059177503 -0.06987107
0.0048306864 -0.12823913 -0.07559029 0.06498763 -0.11571328 -0.052177582 -0.1477191 -0.021246089
0.045837764 0.10100223 -0.011255231 0.08225539 0.07671229 -0.033899624 -0.00034472698 -0.15688172
0.06309376 0.018049927 -0.059137397 0.005695529 -0.07309201 0.040132057 0.07681675 -0.07246307
0.08031931 0.0039220206 0.054091386 0.05487155 0.00830787 0.06615825 0.012095185 -0.09043709
0.057418823 0.06160303 -0.06237971 -0.087225385 -0.07789728 0.033733517 0.02566927 -0.027282462
-0.03332664 0.047452513 -0.104562566 0.08104994 0.044443447 -0.08712979 -0.11530195 -0.037462894
0.011737876 -0.05518776 -0.05799193 0.028093487 0.029395206 0.07670929 -0.042140447 0.090884365
-0.07152122 -0.09478391 0.08104314 -0.13031337 0.081002034 -0.059248447 0.06567831 -0.15912999
-0.035093687 0.09387432 0.08488026 0.05806801 0.042552482 0.05298666 0.057426095 0.047216747
-0.056285445 -0.08368106 0.075202376 0.07790086 -0.072453104 0.06694394 0.060954064 0.057010554
-0.058261994 -0.1224136 -0.07658345 -0.025595758 -0.042396188 0.08897268 0.09274511 0.0168396
-0.058038857 0.054144714 -0.037871625 -0.05730338 -0.0541908 -0.06082641 0.03662621 0.061169457
0.0020260785 0.06607676 -0.10994984 -0.020313505 0.042191807 0.031334482 -0.055383157 -0.098964535
0.0006584298 0.030917734 0.039710004 -0.010076033 0.0046503004 0.07385366 -0.04692443 0.05584706
0.07995478 -0.13732907 0.05287801 -0.0060219844 -0.048551828 -0.058423586 -0.046648547 -0.041169517
0.039912477 0.025027884 -0.10092876 -0.074978136 -0.010923223 -0.0633021 0.043088753 0.042924907
-0.07336696 -0.107376665 0.016577221 0.057325326 0.07836205 -0.015467651 -0.13717952 -0.08381077
-0.030612564 0.099458635 0.008441034 -0.021751108 0.07937702 0.06857093 -0.03804909 -0.012168898

actor.bias f4 [7]
00000000: 3910 2cbe 8649 49bd 82d6 fa3d f909 693d
00000010: 1ef4 473e b8e4 79bd 6304 bbbd
-0.16803063 -0.049142383 0.12247945 0.056894276 0.19526717 -0.06100914 -0.09131696

critic.weight f4 [1, 128]
00000000: 04b3 823d ef96 6d3d 32e9 c2bc c01c 003d
00000010: 52e6 bf3c f675 20bd 9e57 ae3b c150 ea3b
00000020: 4b7a 24bd 00ba fabc b57c 633d 63a7 423d
00000030: da57 08ba e98f 5ebb 7795 d1ba 9fe5 b0bc
00000040: 5509 1a3d d074 5a3a a10c 143d 7d22 413c
00000050: dd00 0e3d 9d57 1b3c 8bf3 4f3d 9d98 343d
00000060: eb92 8d3d 997f b03c 2c09 063d afe0 ffbb
00000070: 5af4 89bd 3824 2ebb 4a9f 0fbd 8f35 e23b
00000080: 5639 843b 8446 a53d 1225 d73b a21b 8d3d
00000090: 9897 f7bc 3805 6d3d bf7e 3f3d a11d d3ba
000000a0: f391 22bc 1fc3 323b 4f34 9abd 9653 963d
000000b0: bb99 7a3d 83d5 91bd e898 583d 6763 38bb
000000c0: 10c8 54bd fe16 25bd 5628 813c 2e4d 7dbd
000000d0: ff1b d53c 5a99 8bbd 9716 0f3d f337 d5bc
000000e0: ba4f 3cbc 1264 913c fff2 843c a826 35bc
000000f0: 3875 013d 4a98 96bd 48d4 2abd 6c7f 05bb
00000100: c589 a3bd 80ac 8dbb 0b9c f63c 756f 073c
00000110: 3ea5 aebd 0a0f 4b3d 8572 13bc 35a9 c1bc
00000120: ca1b a83c 2ffa 57bd dbef 6bbd 8558 8bbd
00000130: 745c 0d3b 8808 643d 3444 59bd c97c 383b
00000140: fc9d 273c a5ec 443b af25 38bd 74de 553d
00000150: 82a5 25bd 8af5 813b cd21 bdbd 6ec6 c5bb
00000160: a193 133d ca51 5c3d 062c 63bd 7450 583d
00000170: 9928 6e3d 7c39 003c 737f c7bb 3742 ab3c
00000180: 8abe 343c eb07 7bbb fba4 843d e3a6 913b
00000190: 2a02 e43d 63b8 53bd 6cad d93c 8c0b d03c
000001a0: 0cfc 2fbd 27d6 9e3d 9ec3 fa3d 6b9f 383d
000001b0: 3e74 1cbc 73ce a33b ed01 8dbd fdba b23c
000001c0: 6049 f1bc eaab 0f3c 7c63 21bd 2f2f 46bd
000001d0: 4bb3 84bc a37d aa3c cfcd 593a f62c 203c
000001e0: 4713 aa3d 3511 b6bb 125c 953b ff61 63bd
000001f0: 4036 4fbd d3a7 07bc c6cd 363d e314 023d
0.06381801 0.05800527 -0.023792837 0.031277418 0.023425255 -0.039174996 0.0053205034 0.00715074
-0.04015569 -0.03060627 0.05553885 0.047522914 -0.0005201079 -0.003396029 -0.0015989979 -0.021593867
0.037606556 0.00083334465 0.036144856 0.011788008 0.034668792 0.009481338 0.05076937 0.044090856
0.06912788 0.021545218 0.03272359 -0.007808767 -0.067360595 -0.002657188 -0.03506402 0.0069033573
0.0040351553 0.080700904 0.0065656984 0.06890036 -0.030223653 0.057866305 0.046751734 -0.0016106853
-0.009922492 0.0027276946 -0.07529508 0.073401615 0.061181765 -0.07120802 0.052880198 -0.002813542
-0.051948607 -0.04030513 0.015766304 -0.061841182 0.026014326 -0.06816359 0.034933653 -0.026027655
-0.011493618 0.017747913 0.01622915 -0.01105658 0.03160593 -0.073532656 -0.041706353 -0.0020370139
-0.07985262 -0.004323542 0.030103704 0.0082663195 -0.08527611 0.04957489 -0.008999472 -0.023640255
0.020521063 -0.052728828 -0.05760179 -0.06803993 0.002157 0.0556722 -0.05304356 0.002815055
0.0102305375 0.0030048278 -0.044957813 0.0522141 -0.040441044 0.003966038 -0.092349626 -0.0060356176
0.03602946 0.053788938 -0.055461906 0.0528111 0.058144186 0.007826205 -0.006088191 0.020905597
0.011031756 -0.003830428 0.0647678 0.0044449433 0.11133225 -0.051689517 0.026571952 0.025396131
-0.04296498 0.0775569 0.12244342 0.045073908 -0.009549199 0.004998976 -0.06885133 0.021817679
-0.029453933 0.008769015 -0.039401516 -0.04838484 -0.016198775 0.020811861 0.0008308561 0.0097763445
0.08304458 -0.0055562505 0.004558095 -0.05551338 -0.050588846 -0.0082797585 0.044629835 0.0317582
