trained_models/PPO/ppo_connect4_model_1_10m_steps.pt (torch, 537914 bytes, 9 tensors)

conv1.weight f4 [64, 1, 4, 4]
000000 89 af 06 be ab e9 5f 3d ab b1 75 bc 83 a5 d8 3d
       -0.13152899 0.054666203 -0.014995973 0.10578444
000010 55 5b 14 be 01 6b 9a bd ce e6 71 bd 65 39 61 be
       -0.14487965 -0.075399406 -0.059058003 -0.2199455
000020 29 59 39 3e 82 2b 0c be e9 14 a4 3e 39 4c db be
       0.18100418 -0.13688472 0.32047203 -0.4283159
000030 a6 71 79 3e ee 12 cb bd b0 3d 47 b9 a3 20 eb 3d
       0.2435976 -0.0991572 -0.000190011 0.11480834
000040 43 47 c4 3d 9c eb 59 3d b0 09 5d bd 89 67 22 3e
       0.095839046 0.05320321 -0.053964317 0.15859808
000050 e6 6c 95 bd fd 55 56 be c8 a1 a4 3c 30 56 7e 3d
       -0.07296161 -0.2093124 0.020096675 0.062093914
000060 77 74 96 3c 8c 50 fb be 5f 42 21 3e 34 3a 68 bd
       0.018366082 -0.4908489 0.15747975 -0.05669613
000070 79 7f 8c 3e 20 71 7f be c5 b8 56 bd ed a3 64 be
       0.27441004 -0.24945498 -0.052422304 -0.22328158
000080 1e 53 84 3e 90 e0 08 be 02 af 76 3e 54 bf 4c bf
       0.25844663 -0.13366914 0.24090198 -0.79979444
000090 29 13 4d bd 33 39 88 3d 40 65 36 be 81 6a 34 be
       -0.0500671 0.06651535 -0.17812061 -0.17618753
0000a0 44 25 b9 3c 2c 28 9d be f9 0b ff 3c b8 d4 2c 3e
       0.022600777 -0.3069471 0.031133639 0.16878021
0000b0 69 bd c9 3e 72 01 4c be f1 4c 45 be 1b 3d d2 3e
       0.3940232 -0.19922426 -0.19267632 0.41062245
0000c0 50 c9 1b 3d 6e 18 36 3d ab 5b 41 be 6f 4b 2c 3d
       0.038033783 0.04445689 -0.18882625 0.042064127
0000d0 1b f5 0c 3e 27 48 80 3e e9 b2 59 bf 82 1e 7b 3e
       0.13765375 0.25055048 -0.8503862 0.24523357
0000e0 5d 15 1a 3d 2a 64 2d 3e 92 74 42 bf 7b 5e 36 3e
       0.03761803 0.16932741 -0.7595912 0.17809479
0000f0 63 f6 50 3c d5 b8 95 be 92 c7 03 be 5b 29 9b bd
       0.012754056 -0.29242578 -0.12869099 -0.07576247
000100 fb ee 8e be e4 69 4d 3d 08 cb 17 3e c3 40 d0 bc
       -0.27916703 0.050149813 0.14823544 -0.025421506
000110 80 17 ff bd c5 28 ed 3e 5a 9c 61 be 2f 75 1b 3e
       -0.12455654 0.46320167 -0.220323 0.1518142
000120 fe a1 90 3e d5 a0 4d be 90 61 02 bd 6e 2a 99 be
       0.2824859 -0.20080884 -0.031831324 -0.29915184
000130 7e 90 33 be 5a 19 27 bd f8 e3 41 be 4e 98 52 3d
       -0.17535588 -0.04079566 -0.1893462 0.05141478
000140 dc 03 de 3d c8 72 ed 3c 49 d2 42 bd 55 c9 e8 bd
       0.1084058 0.028985396 -0.047563825 -0.11366526
000150 d0 66 72 3d ef f9 b1 bc 11 7c 96 3d 5a 55 9b 3e
       0.05918008 -0.021725623 0.073478825 0.30338556
000160 12 24 d2 3e 23 7d f3 3c 72 f0 e0 bd 0d 68 09 be
       0.41043144 0.029722756 -0.10983361 -0.13418598
000170 34 ac ef be 21 26 44 3e d4 3e 74 3d fa 49 7f 3e
       -0.46811068 0.1915517 0.05963023 0.24930564
000180 35 24 e5 3e 7a 6e 55 be 88 d4 80 be 33 8c db 3d
       0.44754186 -0.20842925 -0.25162148 0.107201
000190 cd a7 bb bd 1e 5c 5b bc 62 a9 c7 bd 0e b7 1b 3e
       -0.09162865 -0.013388662 -0.09749104 0.15206549
0001a0 10 0b 5c 3d 4d 91 04 3d 79 68 66 3e 49 d6 33 3d
       0.053721488 0.032365132 0.2250079 0.04390553
0001b0 1f 58 1a bc 85 05 6f be 03 17 91 be 75 1e c5 be
       -0.009420424 -0.2334195 -0.2833787 -0.384998
0001c0 65 fb fc 3d 0f f0 dc 3c 5e 9e d0 bd bd 0d 98 be
       0.12352637 0.026969938 -0.10186456 -0.2969798
0001d0 2a 83 d0 3d 4e 9b 58 3e f0 ed 55 be f3 b1 89 be
       0.101812676 0.21152994 -0.20891547 -0.26893577
0001e0 75 6c 4a 3e 28 d6 f8 be 2f 36 10 3f 0c 2e 95 bd
       0.19767936 -0.48600888 0.5633268 -0.07284173
0001f0 7d a4 8a 3d ac 9c 10 be f9 f1 c4 be e3 2f 13 bd
       0.06769655 -0.14122266 -0.3846586 -0.03593434
000200 c9 3c 13 3e 17 49 b1 be 84 cd ca 3d 1b 16 36 bd
       0.14378656 -0.34626076 0.0990248 -0.044454675
000210 4b f5 03 be 08 0c e7 be aa de fe bd e5 ba f8 be
       -0.1288654 -0.45126367 -0.124448135 -0.4858009
000220 20 ff 9a 3c a9 b5 9a be 61 32 26 bf 8b 4b 86 3e
       0.018920481 -0.3021672 -0.6492062 0.2622951
000230 2b 9d cb ba 65 bb 01 3e 8b 9f 80 3e 03 aa 76 3d
       -0.0015534511 0.12669142 0.25121722 0.06022073
000240 02 94 1c 3e 41 af 3e 3c 19 e5 ce bd 87 59 44 bf
       0.15290835 0.0116384635 -0.10102291 -0.7669911
000250 a3 34 d3 3e 9f f8 47 3e 3a 1c 82 bc 11 f4 f1 3d
       0.41251096 0.19528435 -0.0158826 0.1181413
000260 ba b0 bf be 82 81 8c be 20 ac 8e bd 09 12 ef 3c
       -0.3743952 -0.27442557 -0.06966424 0.029183405
000270 5e cd 29 be 11 33 49 be 3f e3 22 3e 1d ad a9 3e
       -0.16582248 -0.19648387 0.15907 0.33139887
000280 eb 19 99 3e 04 cb 5a 3c cb 03 71 bd a4 8a 9f bd
       0.29902586 0.013354067 -0.058841508 -0.077901155
000290 f6 1c 6f bf 2b 16 88 3d e4 22 0f 3e ec a0 83 be
       -0.93403566 0.06644853 0.13978153 -0.2570871
0002a0 2d 1e 93 3e 40 95 da be 09 db 7e 3e d6 c7 06 3e
       0.2873396 -0.42691994 0.24888243 0.13162169
0002b0 f6 ee c7 3e 7c 61 8b bd 63 f3 93 be 51 0b fc 3d
       0.390495 -0.06805703 -0.28896627 0.12306846
0002c0 cf e9 1f be ca 79 c8 bc f8 e8 96 3e 8e 8d 70 3e
       -0.15616535 -0.024472136 0.29474616 0.23491499
0002d0 a1 e6 1f bf 4f 5b 26 3e cf 3f 65 3d f0 5b de bd
       -0.62461287 0.16245769 0.055969056 -0.108573794
0002e0 69 e5 b0 be 7b 68 14 be bc 09 c6 3e 77 3d 83 3d
       -0.34550026 -0.14492981 0.38679302 0.06408208
0002f0 08 91 a5 3d 11 88 5f be 18 ef 98 bd 47 b5 ba be
       0.08084303 -0.21829249 -0.074674785 -0.3646643
000300 67 f0 80 3e 71 b1 85 bd 95 d2 f4 bc 98 1d 88 3e
       0.25183412 -0.06527985 -0.02988557 0.26585078
000310 11 18 84 3d ae 75 c6 bc bb fa c9 3d 8e 76 9a be
       0.06449903 -0.024226036 0.09862276 -0.30168575
000320 cc 62 8a 3e 04 ef 0a 3e 7f 20 2d 3e a7 76 a0 3d
       0.270285 0.1356774 0.16906928 0.07835131
000330 f5 94 7d 3e 62 46 e0 be 85 d0 51 be 0a cd 30 be
       0.24763854 -0.43803698 -0.204897 -0.17265716
000340 6f 85 5a 3e a0 c5 41 3e 30 7b 33 3e bc 58 30 bf
       0.21339963 0.18923044 0.17527461 -0.688854
000350 27 b7 11 be d3 08 05 3e 72 8b 22 be 96 79 12 be
       -0.14230023 0.12991647 -0.15873507 -0.14304194
000360 7d 27 99 3e 7a f7 18 3a 9d 37 88 bd 8f f8 22 bd
       0.2991294 0.0005835217 -0.066512324 -0.039787825
000370 09 1b cf be 8d 81 a6 3e 8e 86 34 3c a4 4d 72 be
       -0.40450314 0.32520714 0.011018408 -0.2366243
000380 2c 73 a0 3e 37 56 94 bc 53 48 a9 3d da 50 97 ba
       0.3133787 -0.018107517 0.08265748 -0.0011544481
000390 10 86 58 be ad 50 af bd b5 27 7d be 9e ab 9d be
       -0.21144891 -0.085603096 -0.24722178 -0.30794996
0003a0 9f fb 1f 3e 30 03 c8 3d 72 fd 19 3d b5 62 b7 3d
       0.1562333 0.09766233 0.03759522 0.08954374
0003b0 81 81 cc bd 47 59 0a 3d fd a9 9f 3d 20 f8 88 bd
       -0.099856384 0.033776548 0.077960946 -0.06687951
0003c0 00 c0 0f 39 c8 0b 8c bd 88 c4 02 3d 28 33 8f bd
       0.00013709068 -0.068381846 0.031925708 -0.06992179
0003d0 98 1b a4 3d 28 05 c4 bd d8 91 11 be 58 0d 9b bd
       0.080130756 -0.09571296 -0.14215791 -0.075709045
0003e0 40 02 67 be 0c a1 27 be af 15 7d 3b 90 17 3a be
       -0.22559452 -0.16370028 0.003861766 -0.18173051
0003f0 ab a3 c4 bd 96 96 eb bd 72 9e c8 bd 3b 9a db 3d
       -0.0960153 -0.11503331 -0.09795846 0.107227765

conv1.bias f4 [64]
000000 fd df 87 be 99 d4 9b bd 0a d4 a2 be 84 23 de 3d
       -0.26538077 -0.07608909 -0.31802398 0.10846618
000010 4c 5a 84 3d c3 f0 a2 be e5 19 f3 bd 15 b7 6d 3e
       0.06462535 -0.31824312 -0.11870173 0.23214372
000020 b3 b4 a2 3e 81 50 bb 3b 1e f2 e0 bd 22 80 12 3d
       0.31778488 0.005716384 -0.1098368 0.03576673
000030 79 bc a8 bd 36 0e 76 bc e4 2a 77 be c3 65 63 be
       -0.08239073 -0.015018037 -0.24137455 -0.22206788
000040 30 58 20 bd bb db 8e be 24 1b c3 be a0 54 a5 3c
       -0.039146602 -0.27902016 -0.38106644 0.020181954
000050 1e 82 62 3e 52 0b 8a be bc 88 cf be c7 b7 ef bd
       0.22119948 -0.26961762 -0.40534008 -0.117049746
000060 33 4e 0b bd 5c e8 3b be 11 e8 c6 3c 44 01 d1 be
       -0.034010123 -0.18350357 0.02428058 -0.40821278
000070 fc c4 ac 3e 81 c6 cd bc a8 96 38 be 84 85 1b be
       0.33744037 -0.025119068 -0.18026221 -0.15187651
000080 43 4e 22 be 71 2b 92 be 29 6f ed be 36 5f cb be
       -0.15850167 -0.28548768 -0.4637387 -0.39721078
000090 0f 82 b3 be 25 cb c8 bd 7b 13 a6 be e3 d7 c1 3c
       -0.35060164 -0.09804372 -0.32436737 0.023662513
0000a0 1a 4e 31 3e 2d 42 a5 bd 08 83 27 bd 21 f2 06 3e
       0.1731495 -0.08069263 -0.040896446 0.13178302
0000b0 65 24 9e 3e 6a 18 61 bd 04 aa 1a 3e d7 e7 53 be
       0.30887142 -0.054954924 0.15103918 -0.20693909
0000c0 e0 0d 8c bd e4 54 8a bd 8b 22 49 3e 71 57 3e 3e
       -0.06838584 -0.06754473 0.19642083 0.18588044
0000d0 9b 31 9d bc ca 35 b7 be e8 43 8d 3d f8 8a 22 be
       -0.019188693 -0.35783225 0.06897718 -0.15873325
0000e0 68 49 95 be 36 73 c7 be 6d e8 31 bb 12 fb 0a be
       -0.29157567 -0.38955086 -0.0027146593 -0.13572338
0000f0 13 d7 55 3e f6 87 91 be 44 12 8c 3e 77 b6 88 bd
       0.20882826 -0.28424042 0.27357686 -0.066754274

conv2.weight f4 [128, 64, 2, 2]
000000 ed 6b 7f be 22 89 2b 3d 46 c0 8e be 64 53 22 3e
       -0.24943514 0.041878827 -0.27881068 0.15852123
000010 e6 d0 1d bd 81 ca 90 3d 7c 97 02 3d 01 3f b0 3d
       -0.0385293 0.070698746 0.031882748 0.08605767
000020 d0 6d c5 3c 20 47 11 3d 32 fe f9 bd 21 28 a6 be
       0.024100214 0.03546822 -0.12206687 -0.3245249
000030 35 b4 b8 bd 6b 1d bd be c6 bd b4 3d 65 f1 52 bd
       -0.09018747 -0.36936507 0.08825259 -0.051499743
000040 d7 83 91 bd 91 1d 87 3d 16 4b 79 bd 30 f9 a3 3e
       -0.071052246 0.06597436 -0.060862623 0.32026052
000050 3a 04 62 3d e6 64 b9 bd bc 25 9f 3d e4 6b 79 be
       0.055179812 -0.09052448 0.07770869 -0.24357563
000060 28 b9 63 be 8f 9e a8 3c c7 e0 82 be 63 b8 9a be
       -0.222386 0.02058342 -0.25562117 -0.302188
000070 59 b5 90 be ff c6 90 3d 87 88 95 3c b5 96 98 3c
       -0.28263357 0.070692055 0.018253578 0.01862655
000080 e0 b9 07 bd c4 1a 73 be 69 7c 09 bd a3 1e 91 bc
       -0.03313625 -0.23740679 -0.033565912 -0.017714804
000090 83 69 8d 3d 37 46 9a 3e 20 58 56 be 41 2c bc be
       0.069048904 0.30131695 -0.20932055 -0.36752513
0000a0 65 b7 c8 bd f1 4c e9 3d 42 43 98 be a9 d3 b8 3c
       -0.09800605 0.113916285 -0.29738814 0.022561865
0000b0 02 58 10 3e b2 ac ef 3c 95 2f 45 bd 99 48 8b 3e
       0.14096072 0.029257152 -0.04814108 0.27203825
0000c0 c6 e9 85 be b4 34 b5 3c 02 85 5a be a8 98 cf bd
       -0.26154917 0.022119857 -0.21339801 -0.10136539
0000d0 71 55 1b bd 04 97 c5 3a 0b 05 f0 bc 2c 74 48 3b
       -0.03792328 0.0015074913 -0.02929928 0.0030586822
0000e0 22 d5 be 3d a8 ba dd bb b9 4f a5 be 18 75 b5 bd
       0.093179956 -0.006766636 -0.32287386 -0.088602245
0000f0 3c d1 05 bb 27 96 fc 3c 80 c4 0e 3d e7 ba 12 3d
       -0.0020418903 0.030833317 0.034855366 0.035822775
000100 a8 25 12 3d 5c 66 f5 3d 23 25 41 3e 78 67 80 bd
       0.035680443 0.11982414 0.18861823 -0.06269735
000110 88 c1 dd 3d 60 e5 ed 3d f2 95 57 bd fb d1 e6 3d
       0.10827929 0.116160154 -0.052633233 0.11270519
000120 4b 4b 9f be 7a 1e cc bd 4f d2 5a 3e 13 af b4 3d
       -0.3111213 -0.099667504 0.21369289 0.08822455
000130 a3 d9 38 3e 5a 96 0d bf db 37 19 be 35 09 73 be
       0.18051772 -0.55307543 -0.14962713 -0.23733981
000140 26 a4 8c 3d 05 5d 13 bc cd 76 8f 3d d8 66 15 3e
       0.06867246 -0.008994346 0.07005081 0.14590013
000150 c6 5f db be df 9e 54 3b 07 63 ce be c7 94 5e 3e
       -0.42846507 0.0032443327 -0.40309927 0.21736442
000160 e2 db 11 3e 7e 69 b7 bc be 81 40 3e 69 c1 1c be
       0.14244035 -0.02238917 0.18799493 -0.15308155
000170 39 92 5c 3b 09 f7 31 be 71 a2 01 bc c3 bb 20 3c
       0.0033656491 -0.17379393 -0.007912264 0.009810391
000180 7d 40 a1 bc cb ee 9b 3b 82 e4 18 3e 40 e2 c3 be
       -0.01968407 0.004758691 0.14930919 -0.38258553
000190 cf c6 d2 3d 21 73 89 bd 7e 28 21 3e 14 ac 7a bd
       0.10291826 -0.06711412 0.15738103 -0.061199263
0001a0 f4 e3 d7 be 1d 58 7a 3d cd e1 9c be 26 35 70 bd
       -0.42166102 0.061119188 -0.30641022 -0.058644436
0001b0 35 3b 00 3e 5b b5 e7 bd 5b 58 02 3c b7 12 be 3d
       0.12522586 -0.11313888 0.007955636 0.09280913
0001c0 cf d7 02 3e d3 f4 bb bd d2 d0 84 3e 7c f3 6f bd
       0.12777637 -0.09177556 0.25940567 -0.058581814
0001d0 dc de 1f be 30 df 26 3e 04 0f db b9 a2 d1 0e 3e
       -0.15612358 0.16296077 -0.00041782123 0.13947156
0001e0 fd fe 26 3e ab 7b 55 be a1 9a 26 be 8c 65 7a be
       0.16308208 -0.20847957 -0.16269924 -0.244528
0001f0 0d fc d9 3d 78 43 c3 3d 64 23 07 be 31 4f 5a 3b
       0.10643778 0.09534353 -0.13197094 0.0033311362
000200 d6 0f 70 bd a0 29 a7 3e 90 23 b3 be 0d ea a2 be
       -0.058608852 0.32648945 -0.3498807 -0.31819192
000210 58 f7 5c 3d 5e bd 0f bd 80 3c b6 3d ec 3b 20 be
       0.053946823 -0.035092704 0.08898258 -0.15647858
000220 79 e2 ce bc 86 4d 0b be 1c 2c 96 be a4 bc 06 3e
       -0.025254475 -0.13603792 -0.29330528 0.13157898
000230 96 74 76 bd 54 eb ee 3d a6 7e b8 be 40 d9 37 3e
       -0.06016978 0.11665979 -0.36034125 0.17953968
000240 c6 d8 94 3d bf fc 0c 3e 5c da 1c 3e 40 f7 84 3d
       0.07267909 0.1376829 0.15317672 0.06492472
000250 bd a3 cc bd 66 da 92 be 96 fe 67 be a2 48 b3 bc
       -0.09992168 -0.2868225 -0.2265571 -0.02188522
000260 71 f5 b3 bd 16 6b ca bb b8 ed 47 be 6b bf 8c 3e
       -0.087870486 -0.0061773164 -0.19524276 0.2748979
000270 bd 03 57 bd 55 f8 e5 3d e5 59 b4 3d 77 40 60 be
       -0.0524938 0.11229006 0.088062085 -0.21899591
000280 cf 99 9f 3e 61 dc 10 be bc 62 af be 08 25 76 be
       0.31172034 -0.14146568 -0.34255016 -0.24037564
000290 49 69 2f 3c 9f bd 16 3e 5e 43 a8 3d e6 44 61 be
       0.010706254 0.14720772 0.08215974 -0.21998939
0002a0 74 6b 50 3d ff f0 99 3d 87 fd 75 be fc b8 ad be
       0.050883725 0.075166695 -0.24022494 -0.33930194
0002b0 b0 8a ae bd 44 e2 6a 3d e5 0f bd bb 98 a7 c9 3d
       -0.08522546 0.05734469 -0.005769717 0.09846419
0002c0 2d 3b 19 be 7b 7f 38 ba 69 f6 32 3d a5 6e 1d 3e
       -0.1496398 -0.0007038039 0.043692026 0.15374239
0002d0 bb c4 87 bc ee 1b 52 3e 94 ab 07 3e cc fc 4c 3b
       -0.0165733 0.20518467 0.13249046 0.0031278608
0002e0 ff bf 95 3c f0 90 5d be f0 b0 65 be 93 1b 7b be
       0.018280027 -0.2163732 -0.22430778 -0.24522237
0002f0 e4 6b 93 ba 14 6d da be 7d c2 83 3d bb a0 b6 bd
       -0.0011247364 -0.42661345 0.0643358 -0.08917376
000300 68 e7 ea bc b6 66 25 be 99 1a 31 be 95 f7 33 be
       -0.028674796 -0.16152462 -0.17295302 -0.17574914
000310 70 1d 9c 3d ec e4 af be ee 94 e9 3d 97 ba 13 be
       0.07622802 -0.3435434 0.11405359 -0.14426647
000320 6f 1c 07 bd 47 57 11 3e 82 47 1e be bf 6a 76 3e
       -0.0329861 0.1419345 -0.15456966 0.24064158
000330 be 67 93 3d ef c9 4c be 74 45 56 bd 45 96 42 3e
       0.071975216 -0.19998907 -0.05231233 0.19002636
000340 e7 81 dd 3d ae 77 89 3c 5f 82 90 be 50 8f 8e bd
       0.108157925 0.0167807 -0.28224465 -0.069609284
000350 a1 e3 a0 3d 13 f6 b7 bd d2 98 3c bf 8c 42 09 be
       0.07855917 -0.08982482 -0.73670685 -0.13404292
000360 73 1e cf bd e0 81 95 be 37 f4 a7 3d 98 bd 2f 3d
       -0.101132296 -0.2920065 0.08200877 0.04290542
000370 2e 59 9b 3d 68 18 17 3e 33 d7 92 be 20 52 bd 3d
       0.07585369 0.14755404 -0.2867981 0.0924418
000380 12 d1 0e be 78 fe f6 bc a8 65 3f 3e f0 2f 52 be
       -0.13946941 -0.030150637 0.18691123 -0.20526099
000390 fd 08 34 3d f2 ef ce 3d d6 88 50 3e 86 79 a3 3d
       0.043953884 0.1010436 0.20364699 0.07982163
0003a0 59 a4 04 be 3b f2 72 bd d6 54 a6 bb aa 51 18 be
       -0.12953319 -0.05931304 -0.005076031 -0.14874902
0003b0 27 52 53 3d cd d7 f3 3d 4c 38 3b 3e eb 52 06 bd
       0.05159202 0.11906395 0.18283194 -0.03279392
0003c0 fd b7 10 3b cc d5 8b 3e 17 4e 5b 3d a9 40 5a be
       0.0022082322 0.27311552 0.05354127 -0.21313728
0003d0 a6 c5 23 bf 40 f3 4f bd 2c d2 30 be f9 ff a2 bc
       -0.6397346 -0.05076909 -0.17267674 -0.019897448
0003e0 3d 75 92 bd 2f ea 53 3e 83 8d 8b be f1 c5 64 be
       -0.07151268 0.20694803 -0.27256402 -0.22341134
0003f0 ca 66 e5 3d ee a1 8a be cd 9c 9f 3d a6 fd 21 bd
       0.11201246 -0.27076668 0.07793579 -0.03954854

conv2.bias f4 [128]
000000 37 af 41 bd 26 85 18 be cf 8c ae 3d 3f 7d a0 bb
       -0.04728624 -0.14894542 0.08522951 -0.004897743
000010 8e d0 c6 bd cf c4 ad bc d8 78 16 be ec 50 ef bc
       -0.097077474 -0.02121201 -0.14694536 -0.029213391
000020 cd 78 45 bd 59 ca d0 bc 90 22 03 3d f1 48 b4 3d
       -0.048210908 -0.025487112 0.032015383 0.08802975
000030 fc aa 10 be 7d 0c ff 3d 64 98 b2 3d 6b 55 11 3d
       -0.14127725 0.12453554 0.087204725 0.03548185
000040 30 a3 64 be e6 a4 64 bd 48 59 57 bd b7 bf 80 bd
       -0.22327876 -0.055821322 -0.05257538 -0.06286567
000050 1c 97 2c bc 81 de 49 be 32 4b 1a bd 41 24 d2 3d
       -0.010534074 -0.19713785 -0.037669368 0.10260821
000060 14 c2 5d bd 7b 44 ae bd a0 ce 80 bc d5 cd 04 3d
       -0.054140165 -0.08509155 -0.015723526 0.03242286
000070 0b 32 3b bd f1 3b 15 bd 07 f4 87 3d 05 c9 99 bd
       -0.04570202 -0.036434118 0.066383414 -0.075090446
000080 82 cd 2d be fa 11 c6 3c fc 5a 46 be 22 93 ab 3d
       -0.16972926 0.024178494 -0.19370645 0.08377673
000090 4b 5a 77 3d 3a e0 f6 bd d5 f7 ca 3d 35 bd 23 bd
       0.060388844 -0.120544866 0.099105515 -0.039975364
0000a0 1c 2c 9b bd c2 88 53 bd 2f e7 b8 bd 97 8a 74 3d
       -0.075767726 -0.051644094 -0.0902847 0.059702482
0000b0 55 fe 03 be c2 47 0c bd 00 71 66 bc b7 3a a8 bd
       -0.12889989 -0.03424812 -0.014065027 -0.08214324
0000c0 6b 7b b0 bd bc e6 b8 bc 7a a0 a9 bd f0 44 a7 3d
       -0.0861729 -0.02257096 -0.082825616 0.08167446
0000d0 3e 88 d8 bd 03 c1 a5 bd 66 e8 cc 3d 7d f1 62 3e
       -0.10572861 -0.08093455 0.10005264 0.22162433
0000e0 c6 ea 55 be dd 43 15 bd e6 4d 78 bd 0b c5 42 3d
       -0.2089034 -0.036441673 -0.060621165 0.047551196
0000f0 a4 aa c7 bd b7 1b 9e bd 87 40 4f bb 46 92 cf bc
       -0.09749344 -0.0772013 -0.0031624155 -0.025338303
000100 2a d3 39 be 2d 08 86 bd 45 ed 31 3c 84 2b 31 be
       -0.18146959 -0.06544528 0.010859792 -0.17301756
000110 bc 0d a4 3e 67 58 59 bd 43 6d 5f bd ec fd 34 bd
       0.32041728 -0.053062823 -0.05454756 -0.04418747
000120 a8 e2 54 bd 59 11 f8 bc 8d 6a d5 bd f3 14 cc bd
       -0.05197397 -0.03028171 -0.104207136 -0.09964933
000130 0d 5d 1f be c6 a2 0e bd c8 db 5e 3d c9 c6 b0 bd
       -0.1556284 -0.0348232 0.05440882 -0.08631665
000140 83 58 1f be c5 cc 06 3c 48 31 3f 3c 36 23 ac 3c
       -0.15561108 0.008227532 0.011669464 0.021012884
000150 65 0d 7b be 10 cb 1c be c8 69 f1 3d 0a 65 16 be
       -0.24516828 -0.15311837 0.11787754 -0.14686981
000160 74 1f bb bd 1a eb d0 bd f7 31 69 bd 81 46 33 bc
       -0.091368586 -0.10201092 -0.056932416 -0.010942102
000170 b9 b4 23 be 3b 59 4b 3d 83 34 e5 3c 15 e5 d0 bd
       -0.15986909 0.049645644 0.027979141 -0.10199944
000180 ef a1 04 bd 78 f7 d9 3d 7d 99 b9 bc c8 df 0a be
       -0.032380994 0.10642904 -0.022656197 -0.13561928
000190 4d b5 af bd 2f f2 a6 bc 3c 67 af 3e 23 0a 16 be
       -0.08579502 -0.020379154 0.3425845 -0.14652304
0001a0 77 29 7d bd 81 ed c4 bd c1 4d e4 bd 53 68 03 3d
       -0.061807122 -0.09615613 -0.11147643 0.032081913
0001b0 2e f4 25 3d b5 e1 25 bd c0 b8 ed bd 9b c5 6a bd
       0.04051607 -0.040498454 -0.11607504 -0.057317358
0001c0 01 85 f5 bd 6a 07 30 bd 42 de 48 bd 89 b0 93 bd
       -0.11988259 -0.04297582 -0.049040087 -0.07211406
0001d0 d5 0e a8 bd ba 49 c2 bc 81 20 51 bd ee 27 82 bd
       -0.08205954 -0.023716796 -0.05105639 -0.06355272
0001e0 22 9d a1 bd 83 b5 88 3d d6 b6 bb bd 50 23 50 3c
       -0.07891299 0.066752456 -0.091657326 0.012703732
0001f0 44 31 78 bd 1d 73 f5 bc 30 31 03 be f7 bc d7 bd
       -0.06059386 -0.029962117 -0.12811732 -0.10534089

fc_shared.weight f4 [128, 768]
000000 59 f5 c6 bd a8 d7 6e 3e 45 6e bf 3d 6a ae 48 3e
       -0.09714765 0.23324454 0.09347204 0.19597784
000010 12 1d ce bd 75 4b 1d 3d 68 7f 6a 3d be b4 14 be
       -0.100641385 0.03840204 0.05725041 -0.14522073
000020 cf 53 41 bd bb 55 8c 3d 58 ec 8b bd 65 8a 95 3e
       -0.047199067 0.06852289 -0.06832188 0.2920715
000030 e9 ea 5e bd 76 01 35 bc 32 ee 55 bc d0 2d 44 3c
       -0.054423247 -0.011047712 -0.0130572785 0.011973813
000040 39 08 a4 be ef be 06 3d e9 44 a2 be 8f e4 35 3d
       -0.32037523 0.032896932 -0.316932 0.044407424
000050 fe 42 2e be a4 a7 73 be 7e ab 68 be aa a6 98 bd
       -0.17017743 -0.23794419 -0.22721669 -0.07453664
000060 96 ee 44 bc 41 44 2a 3e 90 1a 04 3d 68 8e 96 be
       -0.012019774 0.166276 0.032251894 -0.29405522
000070 81 46 24 be 4d 5b 9e bd f5 e9 1f be d8 44 eb bd
       -0.1604252 -0.07732258 -0.15616591 -0.1148774
000080 27 4f c6 bc 13 49 7b be 6d 0c ef bd 21 6f ca bd
       -0.024207665 -0.24539594 -0.11672292 -0.098844774
000090 a2 2f b8 3d c5 4b 44 3e 8c d8 0d 3e f6 e4 69 be
       0.0899346 0.19169529 0.13852137 -0.22841248
0000a0 9e 45 09 3f 39 3f 05 3e a8 40 55 3e 76 07 84 3e
       0.5362185 0.13012399 0.20825446 0.25786942
0000b0 59 43 06 3d 2f 71 a9 bd 35 ab 31 3d fa 48 06 3e
       0.03277907 -0.08273541 0.043376166 0.13113776
0000c0 20 60 4c 3d dc 3c 34 bd fb 22 2f 3c 5a 89 e8 3c
       0.04989636 -0.044003353 0.010689492 0.028385807
0000d0 ae 14 4d bd ba 3c 74 3c 69 47 84 3d 94 64 68 bd
       -0.05006855 0.0149070565 0.06458933 -0.056736544
0000e0 07 cb 45 3d 58 ba 44 3d 7a ff 91 3d 03 59 46 be
       0.048289325 0.048029274 0.071288064 -0.19369893
0000f0 5d 40 d4 3d c5 d7 1d bd b9 3f 63 be 43 a1 be bc
       0.10363839 -0.038535852 -0.22192277 -0.023270255
000100 e0 31 03 bd 6c be 68 bd 4a 7e 08 be f7 9b 3e be
       -0.032029986 -0.056822225 -0.13329425 -0.18614183
000110 2b b1 26 bd 5c 71 2a 3c 4c df 89 bd 47 14 cf 3d
       -0.040696304 0.010403004 -0.067320436 0.101112895
000120 aa 66 43 be b8 a4 e4 3d 8f 65 2e 3d 59 cb c5 bd
       -0.19082132 0.1116423 0.042577323 -0.09657926
000130 6c 98 27 3d f5 89 30 be c2 d5 ce 3d 95 fb 17 3e
       0.040916845 -0.17240126 0.10099365 0.14842065
000140 55 98 b6 3d 6c aa a8 bb 44 91 87 bc e5 cd e5 bd
       0.08915774 -0.005147269 -0.01654876 -0.11220912
000150 6a 70 0f be 71 ec 88 3e 92 1d a3 be 28 e6 d2 bc
       -0.14007726 0.2674289 -0.31858498 -0.025744513
000160 a4 81 d0 be 58 c3 ce 3d 0f 12 1b be b5 76 ad bc
       -0.40723908 0.100958526 -0.15143608 -0.021174768
000170 8f 7a 86 be eb 52 37 be 89 42 34 be 4b c9 1d 3e
       -0.2626538 -0.17902724 -0.17603506 0.15408818
000180 a1 57 8a 3d 55 07 f0 3d cc 66 60 3e 96 f9 b4 3b
       0.06754995 0.117201485 0.21914214 0.005522917
000190 35 72 a0 3d eb e6 26 3e d8 75 70 bc e8 e2 a7 3d
       0.07834283 0.16299026 -0.014676534 0.08197576
0001a0 b1 60 9f 3c f0 70 a1 bc 25 63 bc be 5a fc ba 3b
       0.019455286 -0.019707173 -0.3679439 0.005706352
0001b0 b2 12 89 3e 0c 47 aa bb a9 91 41 bd f8 f8 0b be
       0.26772076 -0.0051964577 -0.047258053 -0.13669193
0001c0 fb 77 bc 3c 22 28 b1 be fb 17 5c bd 4a ef 3d be
       0.02300643 -0.3460093 -0.053733807 -0.18548313
0001d0 bd 7c 42 3e 07 03 fc 3e e8 96 1d 3e b6 83 49 be
       0.18992896 0.4922106 0.15389597 -0.1967915
0001e0 28 6a 35 bd 68 ff bb bd bc 4d 1a bd 75 d7 df be
       -0.04429069 -0.09179574 -0.03767179 -0.43719068
0001f0 8f 0a 24 3e db e6 c7 bd 17 e4 ed 3d 8f 49 eb 3d
       0.16019653 -0.09760829 0.1161577 0.114886396
000200 23 f3 d1 3a 65 d6 b5 3e 8a d1 93 3d 68 0b cd 3d
       0.0016017895 0.35515133 0.07217701 0.10011941
000210 33 40 32 bd 78 e8 1b 3e 55 5f f0 bd 4a 27 d3 3d
       -0.043518256 0.15225399 -0.11736933 0.10310228
000220 14 c6 95 3d 93 c6 a9 3e 67 a7 1d bf 82 86 9c bd
       0.07313171 0.33159313 -0.6158356 -0.07642843
000230 90 52 ca bd 04 ce c9 be 90 65 4e 3d e1 2f 3b be
       -0.09879029 -0.3941499 0.050389826 -0.18279983
000240 87 19 51 3d d9 05 36 3d 5e 04 9e bd c7 f2 12 bf
       0.051049735 0.04443917 -0.07715677 -0.574017
000250 ef bb a8 be dc 89 8a 3d bd 57 97 be ab 2a 33 bb
       -0.32955882 0.06764576 -0.29559126 -0.0027338665
000260 78 e4 86 bd 8d a1 3c be 02 99 a1 3e 32 de 89 bd
       -0.06586546 -0.18421002 0.31562048 -0.067318335
000270 c0 35 0a bf 0c f8 9d 3d b5 f6 38 3d df 81 98 3d
       -0.53988266 0.07713327 0.045157153 0.07446646
000280 31 c4 9f be 7d cf 02 be 2c 01 d3 bd af 6f 02 3d
       -0.3120437 -0.12774463 -0.10302958 0.03184479
000290 12 49 af 3c 39 9c ae bb 69 1a 02 be f7 a9 f9 3d
       0.021397147 -0.005328682 -0.12705387 0.12190621
0002a0 7a 9c a6 be 1e f4 7b bc f6 69 f2 bd 15 35 1d 3d
       -0.32541257 -0.015378026 -0.11836617 0.0383807
0002b0 88 97 34 be b0 f5 51 3c b4 df 59 be 19 1e 7e 3e
       -0.1763593 0.012814924 -0.21276742 0.24816169
0002c0 72 b1 95 be 04 bb 65 3e 80 b1 41 3e 3a 57 36 3d
       -0.29236943 0.22434622 0.18915367 0.04451678
0002d0 d7 26 24 be ea d3 dd 3a 4c 4b f0 3d d4 ae 81 3c
       -0.16030441 0.0016924117 0.11733112 0.015830435
0002e0 52 33 8f 3d 7c 4e b6 bc f4 4a c2 3c da 21 0f 3e
       0.069922104 -0.022254221 0.023717381 0.13977757
0002f0 9c 0b 5a bd dd af a6 3d 75 56 7d 3d 28 c9 67 3d
       -0.053233728 0.08139012 0.06185003 0.056588322
000300 ed 14 3a bd 82 7e 04 bd 0a 50 09 be 2a bb f2 bb
       -0.045430113 -0.03234721 -0.13409439 -0.0074075656
000310 45 ff 83 bd 76 95 3f be 7f c0 95 bd f7 3c fa 3b
       -0.06445173 -0.18709359 -0.07312106 0.007636662
000320 cb 38 ee 3c fa 9b 4f be 31 b3 c4 be d0 13 c6 bc
       0.029079815 -0.20274344 -0.38417962 -0.02417937
000330 fa 7f 1e 3e 1b e3 07 3b fb f7 82 3e d3 5d 8d bd
       0.15478507 0.002073473 0.2557982 -0.06902661
000340 2e 41 9e bd 36 6c 0f bc 9f ad b8 3c d7 10 c6 bd
       -0.07727276 -0.008753827 0.022543726 -0.09671181
000350 d9 67 bb bb 7c 72 47 be 92 23 e9 3c 06 42 4d bd
       -0.0057191667 -0.19477266 0.028459344 -0.050111793
000360 56 5b 54 be 8a 0b 81 bd 38 14 61 bd b7 4d de bd
       -0.20737967 -0.06301029 -0.054950923 -0.10854667
000370 86 85 b7 bb e7 e9 5a 3d 98 8a 28 be 5d d4 ed bc
       -0.005600634 0.053445723 -0.1645912 -0.029031927
000380 41 ad 04 3d 35 1e 5c be 87 ef 96 3e f5 36 f2 3d
       0.03239179 -0.21495898 0.2947962 0.118268885
000390 7f 4a 1e 3d 7e 0b 2b 3d c6 96 bf 3d af b5 e6 3d
       0.038645264 0.041759007 0.093549296 0.11265122
0003a0 1d 6b 72 bd e3 05 e1 bd 1c 35 02 be d3 76 2a 3d
       -0.059184182 -0.10987451 -0.12715572 0.041617226
0003b0 59 49 0f 3d c1 0f 80 3d 5c d0 23 bd 71 be 1c 3c
       0.03498206 0.06253005 -0.03999363 0.009566889
0003c0 3a f1 5e be 15 df 33 3e c1 7a fc bd 88 23 5d be
       -0.21771708 0.17565568 -0.12328101 -0.21595585
0003d0 2a c9 2d bd f2 29 28 3e 48 08 9c 3d f8 73 27 be
       -0.042428173 0.16422251 0.07618767 -0.16352832
0003e0 20 44 13 bd 30 3b 42 3d c0 b9 13 3e b8 94 52 3e
       -0.03595364 0.047419727 0.14426327 0.20564544
0003f0 4e 58 41 bd 1c 0e eb be 59 b8 73 be c7 a1 90 3c
       -0.047203355 -0.45909202 -0.23800792 0.017655266

fc_shared.bias f4 [128]
000000 73 0e af 3c ef c2 b9 3d c9 0e 83 3d aa 0a 3a 3e
       0.021369195 0.09070384 0.063993044 0.1816813
000010 bd 07 c3 3d a8 10 63 3d 5a f0 2f 3e ae a0 49 be
       0.0952296 0.055435807 0.1718153 -0.196902
000020 01 09 4f 3c 1b a6 a2 3e 7c 66 c2 3e 73 b2 78 3d
       0.012636424 0.31767353 0.37968814 0.060717057
000030 2c 03 a1 3e c2 79 a2 3e 01 73 aa 3d 53 0b c9 be
       0.31447732 0.3173352 0.083227165 -0.39266452
000040 4b 95 a1 bb c0 87 ba be 2f d1 23 bd 3d 28 a9 3c
       -0.004931127 -0.36431694 -0.039994415 0.02064907
000050 ae e8 ab 3d ef b9 76 3c 83 d6 11 3d 25 f6 0c 3e
       0.083939895 0.015058978 0.035604965 0.13765772
000060 2d 6d 71 bd c6 81 09 3e 04 57 65 bc 5c ef ac 3e
       -0.05894201 0.13428411 -0.013997797 0.33776367
000070 5e 91 58 be 39 47 0d bc a8 32 a8 3b 85 7b 37 3d
       -0.21149203 -0.008622938 0.005132992 0.04479553
000080 24 3a d1 bd 44 55 d6 3d db 73 60 3e dc 87 b9 bc
       -0.102161676 0.10465482 0.21919195 -0.02264779
000090 6b 17 a5 3e 1c 31 8e bd 29 18 87 3e 05 5b 0a bd
       0.3224443 -0.069429606 0.2638562 -0.03377821
0000a0 a8 80 c4 3e 0f 32 fd be 94 8b 00 3e fb 00 32 3e
       0.38379407 -0.49452254 0.12553245 0.17383187
0000b0 d6 cd 7d bb 10 fa 07 bd 52 62 2a 3d e8 54 95 3e
       -0.0038727424 -0.033197463 0.04159767 0.2916634
0000c0 d0 6e 81 3e ee b2 b5 3e d0 b7 02 3c c2 2b a8 3d
       0.25279856 0.35488075 0.007978395 0.08211471
0000d0 1d af d7 3c 3d e4 50 3d 3a 3b dc 3d ff 3b 32 3c
       0.026328618 0.050998915 0.10753484 0.010878562
0000e0 3e 80 58 be 99 36 d7 bc c8 04 7e bd e5 ff 92 3d
       -0.2114267 -0.026271151 -0.06201628 0.07177714
0000f0 86 3b e1 bd 20 19 bb bd 13 6d 0c 3e b0 3c 02 3e
       -0.10997681 -0.091356516 0.13713484 0.12718463
000100 64 2a a3 3c e5 11 84 be ef 89 65 3d 2f 0b ab 3d
       0.019917674 -0.25794902 0.056039747 0.083517425
000110 cf 4e de 3d e4 eb 90 3e 91 7c 03 bd be e2 c0 3d
       0.10854875 0.2830497 -0.032101218 0.09418248
000120 6e 7e b2 3e 58 4a 3a 3e eb 38 d9 3e 32 3d fd 3d
       0.34862083 0.18192422 0.42426237 0.12365188
000130 ee 7e 3f 3d c4 32 09 3e 98 7f da be 1b 50 e8 3d
       0.04675191 0.13398272 -0.4267547 0.11343404
000140 28 5d c9 3d 4b 6d 05 be 38 67 e3 3d dd b7 f6 3d
       0.09832221 -0.13029973 0.11103672 0.12046788
000150 94 ce 84 3c 78 11 69 3d b1 e8 d5 3d 52 10 8b 3e
       0.016211785 0.056901425 0.10444773 0.2716089
000160 9f c5 12 3e 11 4a 9c 3e 88 98 ab 3d 8a 17 de 3d
       0.14333199 0.30525258 0.083787024 0.108443335
000170 ee 7d 89 3e d3 b0 19 3e 8e 22 b4 3d 3e 4b 04 3e
       0.2685389 0.1500886 0.08795653 0.12919328
000180 b1 7f 8b 3c a7 c8 14 3e f6 4f 39 3e e3 31 53 3e
       0.017028661 0.14529668 0.18096909 0.20624499
000190 5e 5b 8d bd a3 8e d7 bd 5d 29 01 3e 9b d1 23 3e
       -0.069021925 -0.10525253 0.12613435 0.15997927
0001a0 cd 17 a4 3d a5 f7 fb 3b e3 4d 8c 3d bc 4d fa 3c
       0.08012352 0.0076894336 0.06850793 0.030554645
0001b0 d5 c5 3c be c8 2d bf 3d 35 51 84 3d dd bd b4 3e
       -0.18434842 0.09334904 0.064608015 0.35301104
0001c0 c1 fa 1c be 73 d8 95 bd d3 63 80 3e 7a e5 00 3d
       -0.1533003 -0.07316675 0.2507616 0.031468846
0001d0 8c 15 be 3d 5b 17 ba 3e 3a 02 aa 3e f8 82 4f 3d
       0.092814535 0.36345944 0.33204824 0.05066201
0001e0 95 81 16 3e d7 98 5d bc a8 1d 22 3e 25 5d 23 3e
       0.14697869 -0.013525209 0.15831625 0.159535
0001f0 af cc 3d be 8d f0 b9 3d 96 44 29 3e 85 12 44 bc
       -0.18535112 0.090790845 0.1653007 -0.011967306

actor.weight f4 [7, 128]
000000 4e 97 83 be fd 1f a6 3e 28 26 f4 bd 9d 69 85 be
       -0.25701374 0.3244628 -0.1192134 -0.2605714
000010 48 9e 9e 3d a5 ac 83 3e 0d 1d bc be 96 e7 24 3f
       0.077450335 0.25717655 -0.36740914 0.6441587
000020 33 2f 51 be eb 24 a5 be ce fc 3c 3d 1d c7 34 be
       -0.20428161 -0.3225473 0.04613953 -0.1765408
000030 0a 09 73 bd be 48 be bc f7 52 a8 be de ae 69 3e
       -0.059334792 -0.023228046 -0.32875797 0.22820613
000040 c3 32 e8 be 0c 29 98 bd 12 dc 1d bd ef 41 4f be
       -0.45351228 -0.07429704 -0.038539954 -0.20239995
000050 88 5f c4 3c 75 e0 b5 bc aa 60 fc bc 1d 28 cb bd
       0.023971334 -0.022201756 -0.030807812 -0.099197604
000060 f8 96 1a bd 95 16 57 be 96 49 80 3d 95 e4 24 3d
       -0.03774163 -0.21004708 0.062640354 0.040257055
000070 8e a7 76 3e 9d e2 f2 3e 25 43 9e bc 58 64 04 be
       0.24087355 0.47438517 -0.019319126 -0.12928903
000080 12 6c 96 3a 40 2b 75 be de 3a 3f be 64 92 24 be
       0.0011476299 -0.2394228 -0.186748 -0.16071469
000090 df 60 6a 3e 68 cc 0e 3b 08 5b cc 3d 7e eb 99 be
       0.22888516 0.0021789316 0.099783 -0.3006248
0000a0 a3 b7 34 3e eb 16 e2 3e b5 25 7e 3d 76 15 12 3e
       0.17648177 0.4415811 0.06204768 0.14265999
0000b0 3a c7 43 be 9f c3 7e 3c 1e bd b6 bc 98 06 a7 be
       -0.19118968 0.015549569 -0.022306975 -0.32622218
0000c0 7e eb 64 3e 00 d0 08 3e df 6a 42 3d 2d 59 a4 3d
       0.22355458 0.13360596 0.0474652 0.080248214
0000d0 89 99 93 be 7e 00 85 bd 22 e8 c6 3e e1 c9 0f be
       -0.28828076 -0.064942345 0.38848978 -0.14041854
0000e0 48 cb 4b 3e ec 35 76 3d d2 10 c1 3d c3 15 be bd
       0.19901764 0.060110018 0.09427036 -0.092814945
0000f0 d6 3a c0 3e 53 d8 b5 bd f2 21 b7 be d8 4f 85 3d
       0.37544888 -0.08879151 -0.35768086 0.065093696
000100 fd 91 ad be 79 22 26 3d d5 67 9e be c6 34 31 be
       -0.33900443 0.04056022 -0.30938593 -0.17305288
000110 08 9f a2 bd c9 7d 4a 3d d4 10 79 bd 98 9a 94 3e
       -0.07940489 0.049436364 -0.060807064 0.29024196
000120 f2 2d 37 bd a6 74 6d be 43 fb ba bd a1 00 06 be
       -0.04472155 -0.23189029 -0.091299556 -0.13086177
000130 41 c5 e4 3e ed 18 72 bd 4a 35 19 3e 4b 11 39 3f
       0.44681743 -0.059105802 0.14961734 0.7229201
000140 e9 a9 19 be 60 05 98 3e 31 5b 0a be 25 0d a6 be
       -0.15006222 0.296916 -0.1351135 -0.32431903
000150 16 da cf 3d 12 92 e5 3b 6a f2 08 3f 8f 7c 1d 3d
       0.101490185 0.0070059383 0.53494895 0.038448866
000160 27 27 55 3d 27 80 88 be a2 dc 2e 3c 00 11 da be
       0.05203929 -0.26660272 0.01067272 -0.42591095
000170 3b 11 48 3b 51 c3 59 bc 3e d1 df be 8e 66 3c 3f
       0.0030527848 -0.013291196 -0.43714327 0.73593986
000180 f2 8a 07 3e b9 b5 8a 3c a0 c6 6c bd 90 f2 ab bd
       0.13236597 0.016932355 -0.05780661 -0.083958745
000190 d2 85 a6 3d 8c f7 98 3e d6 5e a6 be 8a 62 08 be
       0.08130993 0.29876363 -0.3249423 -0.1331884
0001a0 56 60 63 3f b3 65 3c 3e a3 66 0b be 5f 08 65 3e
       0.8881887 0.1839817 -0.13613372 0.22366475
0001b0 8a 70 26 3f 76 1f 79 3e a3 fa bd be e9 a5 4c bd
       0.6501547 0.24328408 -0.37105283 -0.04996291
0001c0 64 2a 48 3e 52 db a7 bd ec 0c d9 bd 12 b2 9a be
       0.1954742 -0.08196129 -0.10598168 -0.30213982
0001d0 bb 1f 8b be 7f 7d 98 bd c5 ed db 3a 3f f9 ea 3e
       -0.27172646 -0.074458115 0.0016779235 0.45893285
0001e0 2b 30 9c bd 7d 38 c4 be da 63 bd be 4e 1d 0b 3f
       -0.07626375 -0.38324347 -0.36990243 0.5434159
0001f0 b8 c9 c7 3d 2c 53 f4 3e ef ac 93 bd 5f 6d ce 3d
       0.09755272 0.47719705 -0.07210719 0.10079455
000200 30 52 17 3f 41 fe ff 3d a9 89 93 bd e1 2f 16 bf
       0.59109783 0.12499667 -0.07203991 -0.5866681
000210 69 b2 8e be 0e de 69 3e 69 50 da be e9 4e a0 3e
       -0.2787049 0.22838613 -0.42639473 0.31310204
000220 32 d0 b4 3e 44 7d b5 3d e2 55 c8 3d 6b 61 28 3f
       0.3531509 0.08861783 0.09782006 0.6577365
000230 6a 88 8c 3d 19 1b d4 3d 45 1a f9 3e 39 05 66 3d
       0.068619564 0.10356731 0.48652855 0.056157324
000240 34 1f d1 be 14 e6 7d be 4e 85 91 be 8a 5d 32 be
       -0.4084412 -0.24794799 -0.28422016 -0.17418495
000250 5b ae fd 3e c8 2b 79 be 0f 95 af be 85 2d 77 3d
       0.49547085 -0.24333107 -0.3429341 0.060346145
000260 75 c1 a2 3d 0c a3 1d bf e7 76 0b 3d 54 95 e2 3d
       0.07947055 -0.61576915 0.03404894 0.11063638
000270 4b 2f 77 be ea 22 57 be a2 59 ce 3c db b3 0a be
       -0.24139135 -0.21009412 0.025189225 -0.13545172
000280 1f 02 b0 3c 3f 50 f9 3d 4e 7c c8 be 3c 45 d7 3e
       0.021485386 0.12173509 -0.39157337 0.4204501
000290 3a 3d d9 3d 56 3f 08 bd 32 23 ae 3d 66 c4 5c 3f
       0.10607381 -0.033263527 0.08502807 0.8623718
0002a0 39 b2 33 3d 92 44 ab 3e 3b 65 04 bf 4b ff 21 3e
       0.04387114 0.33450752 -0.51716965 0.15820043
0002b0 78 b1 6e be a4 b7 57 bf 09 c9 40 be 68 e6 9e 3e
       -0.23309886 -0.8426459 -0.18826689 0.3103516
0002c0 99 c4 e2 3d a5 20 e9 3d 01 c8 1f be 6f 39 ea bc
       0.11072654 0.113831796 -0.15603639 -0.02859184
0002d0 e6 3f 47 be 03 60 a0 be 13 3a 34 3e 32 92 27 bf
       -0.19457969 -0.3132325 0.17600279 -0.6545745
0002e0 1a cc d0 bd 7b 20 88 3d f3 ff 06 bd 0a 6c db bd
       -0.10195179 0.0664682 -0.032958936 -0.10713966
0002f0 94 77 f3 bd 2d a9 0d be b9 57 9e 3e d5 6b bd 3e
       -0.11888042 -0.13834067 0.30926302 0.36996332
000300 04 26 65 be 6b 61 9f 3d b9 ad e1 3e 1a fa fd 3e
       -0.22377783 0.07782253 0.44077852 0.49604875
000310 d7 0e b1 3e 5e 13 b4 3d 47 34 8b be 41 7b e0 3b
       0.34581634 0.087927565 -0.27188322 0.0068506305
000320 b6 7e 5c 3d eb 90 36 bf a6 8c 6b 3d 04 ee eb 3c
       0.05383178 -0.7131488 0.05750718 0.028800018
000330 69 c8 72 be a1 76 95 be 17 c5 e8 3e c1 1c 97 bd
       -0.23709263 -0.2919207 0.45462868 -0.07378531
000340 c5 92 01 bf 61 43 a5 be 64 fa a1 be d9 33 80 3e
       -0.5061458 -0.3227797 -0.31636345 0.25039557
000350 a5 57 4d be 49 52 01 bf c7 19 17 bf 09 fa c0 3c
       -0.20052965 -0.5051618 -0.5902371 0.023556726
000360 a5 9f 9c bc b5 3c 3a 3e 3f 84 4e bd b1 c5 2e be
       -0.019119093 0.1818722 -0.05041909 -0.17067601
000370 7a c3 11 3e 92 cf 62 be 3c c2 1b 3e 4c 91 af bd
       0.14234725 -0.22149494 0.15210813 -0.08572635
000380 48 1b 33 be 91 8d 85 be 71 74 43 3d 32 fe 03 bc
       -0.17490876 -0.2608457 0.04771847 -0.00805621
000390 67 fd 12 be f7 b9 e2 3e aa 90 c9 3e 3e 32 e8 be
       -0.14354478 0.44282505 0.39368182 -0.45350832
0003a0 de a9 60 3a 3b 1f a4 bd fa 63 a9 be 2f ef 30 3e
       0.0008570234 -0.08013769 -0.3308409 0.17278741
0003b0 95 a3 61 3e 4e e9 ad bc 82 a1 54 bf da 6f 52 3d
       0.22035058 -0.021229412 -0.8305894 0.0513762
0003c0 65 59 eb bc f0 2d 6c 3d c7 78 f9 3d 2d 24 80 3e
       -0.02872915 0.057660997 0.121812396 0.250276
0003d0 19 6d 0e 3f f8 2a 19 3e c1 5f d3 3d d4 e3 ba 3e
       0.5563522 0.14957798 0.10320998 0.36501944
0003e0 53 f7 ad 3e ba 54 b7 be ae 46 e6 be 8c 50 8c 3d
       0.33977756 -0.3580683 -0.449758 0.068513006
0003f0 57 27 1b 3e 96 88 33 be e2 72 8c 3e 2a f8 ed 3d
       0.15151726 -0.17532572 0.274314 0.11619599

actor.bias f4 [7]
000000 63 e2 12 bf 93 7b 29 bd 4d a0 d7 3c f3 34 a0 bc
       -0.5737669 -0.041377615 0.026321555 -0.019556498
000010 ba 73 d0 3c 59 3c 30 3e 4b 0e 26 be
       0.025445808 0.17210521 -0.1621639

critic.weight f4 [1, 128]
000000 79 57 8f 3c 2d 82 81 bd aa 96 4f bd 3b 10 70 3a
       0.017497765 -0.06323657 -0.050680794 0.0009157692
000010 30 d1 ba 3b 88 15 2d be 11 36 38 3c a7 6b 23 3c
       0.0057012066 -0.16902745 0.011243359 0.009974397
000020 9c 7c a0 3c 1c a1 32 bd b9 23 55 bd 88 24 92 3c
       0.019590668 -0.043610677 -0.05203602 0.017839685
000030 ef 09 3d bd c9 47 b1 bd 29 46 14 3c e2 ce 59 3d
       -0.04615205 -0.0865627 0.009049931 0.053175814
000040 eb c3 ca 3a a9 ce ca 3d 36 5a d5 b9 45 a0 e6 3a
       0.0015469765 0.099026985 -0.00040693738 0.0017595371
000050 4d 46 b1 3c 98 ad 8f 3b b2 49 40 bc e0 06 bf bd
       0.021639967 0.0043847077 -0.01173632 -0.09327483
000060 e1 76 09 3c cb a1 6c 3c a1 32 de 3c b1 41 53 bd
       0.008390159 0.014442871 0.027123751 -0.05157632
000070 5a 7d 45 3d b5 75 87 3d 4b 13 27 3c 85 10 46 3c
       0.048215248 0.06614248 0.010197471 0.0120888995
000080 58 26 04 bc 61 b2 81 bd ee f8 c5 3a bf 5f bf 3c
       -0.0080657825 -0.06332851 0.0015104094 0.023361085
000090 4e 09 6f bd 59 89 78 bc fc cb 58 bd f9 b1 2d 3c
       -0.058358483 -0.015169465 -0.05292891 0.010601514
0000a0 00 72 5d bd 80 b3 d7 bb 79 ae 98 3b a0 f1 ce bd
       -0.054063797 -0.0065826774 0.0046594706 -0.1010468
0000b0 91 13 ba 3b 09 74 c9 bb af 38 d2 bc 5b 50 ce 3b
       0.005678602 -0.0061478657 -0.025661794 0.0062962
0000c0 af ed 55 bd 04 fe 42 bd 58 34 a1 3b 5f 62 82 bd
       -0.052228626 -0.04760553 0.00491957 -0.06366419
0000d0 21 2d d4 3b 4e b9 d4 3c 8d 13 28 be a3 b2 0d 3c
       0.0064751063 0.025967266 -0.16413708 0.008648547
0000e0 e2 06 de 3c 4e 61 92 3d b5 2c f7 b6 ed e9 db 3b
       0.027102891 0.07147466 -7.366378e-06 0.0067112357
0000f0 59 e4 c1 be c7 4d 83 3c b3 c4 b1 3b eb ad 06 3c
       -0.37869528 0.016028298 0.0054250597 0.008220176
000100 ab 17 dd 3c 4d b3 2b 3d 5f 6c 8c 3c 33 40 ca 3b
       0.026988825 0.04191904 0.01714152 0.006172204
000110 b9 2e d4 3b fc 8a 89 bd be 01 36 bb 8c 0c c8 bd
       0.0064752963 -0.06715962 -0.0027772035 -0.09768018
000120 18 e4 7e bd bb 7f 45 3c 76 a1 34 bd ce 94 2e 3b
       -0.062229246 0.012054379 -0.044099294 0.0026638987
000130 e3 a8 47 bd e5 39 92 3b f9 31 c9 3d 59 20 9a bd
       -0.048745047 0.004462468 0.09823985 -0.07525701
000140 8f 77 8e 3c 08 18 dc 3d 5c 45 eb 3b 8b 78 a0 3b
       0.017390994 0.10746771 0.007179899 0.0048971823
000150 76 f6 bf ba 5b 82 a2 3b 53 9b 9c bc 8c 2d 91 bd
       -0.0014645595 0.0049593872 -0.019117033 -0.070887655
000160 62 c2 85 3b c1 b0 bd 3b 2f ab bb bd a5 c6 81 3b
       0.00408201 0.005788893 -0.0916351 0.003960448
000170 dd 8c bd bd 40 b5 6b bd 62 b5 22 bb 00 b3 0b be
       -0.09255383 -0.0575459 -0.002482735 -0.13642502
000180 41 83 71 3c e9 ea 0b 3c 54 64 81 bd 5e ea 71 bd
       0.014740766 0.008539894 -0.06317964 -0.0590614
000190 7f d3 4e bc 5d b8 3d 3d 3f d8 cd 3b a3 a5 1a 3b
       -0.012623667 0.0463184 0.006281882 0.0023597262
0001a0 aa 1f b2 bd 7b 62 7e 3c 92 70 c9 ba 66 b0 87 3c
       -0.08697446 0.015526409 -0.0015368632 0.016563606
0001b0 f3 20 28 bd c6 3e 09 be 72 54 27 3c cf 89 53 bd
       -0.041047048 -0.13402852 0.010213004 -0.051645096
0001c0 dd 09 18 bd 3c 1d e6 bd 88 db 32 bd ab 4f 7e 3b
       -0.03711878 -0.11236045 -0.043666393 0.003880481
0001d0 cb 2c 70 3c fe 3c fc bc de ce 3a bd cb 59 b1 3c
       0.014659117 -0.030790802 -0.04560744 0.021649262
0001e0 0b 8e 57 3c 60 05 44 bb 31 ed 5f 3c 4b 82 96 bd
       0.013156424 -0.002991043 0.013667391 -0.0734907
0001f0 7a 63 1e 3d 80 d8 38 bd 41 f9 0c bd e5 12 ae 3c
       0.038669087 -0.045128345 -0.034417395 0.021249244
