trained_models/PPO/ppo_connect4_model_1_64batch.pt (torch, 537886 bytes, 9 tensors)

conv1.weight f4 [64, 1, 4, 4]
0	0x3e79f393	0.24409322
1	0x3da911f2	0.08255376
2	0x3db93240	0.090427876
3	0xbd3e7639	-0.046499465
4	0x3dce1425	0.10062436
5	0x3cd9dd58	0.026594803
6	0x3d434fa9	0.04768339
7	0x3e6ff480	0.23433113
8	0x3dd66804	0.10469058
9	0x3d88cf2d	0.06680141
10	0xbdbec105	-0.09314159
11	0xbdf861f8	-0.12128061
12	0x3dd7dbb1	0.1053995
13	0xbdabc991	-0.08388055
14	0xbdf35017	-0.1188051
15	0xbc8af703	-0.016963487
16	0xbd94e55c	-0.07270309
17	0xbca0bf7d	-0.019622559
18	0x3c9e4792	0.019321237
19	0xbe2d8c6c	-0.16948098
20	0xbdb7198a	-0.08940418
21	0x3c7ee149	0.015556642
22	0xbe41dfc0	-0.1893301
23	0x3e3c1c0e	0.18370077
24	0x3ce42333	0.027848816
25	0x3e721eaf	0.23644517
26	0xbeb14745	-0.34624687
27	0xbd1e8d1e	-0.0387088
28	0xbd87d496	-0.066323444
29	0xbd3646fd	-0.044501293
30	0x3ba1763e	0.0049274256
31	0x3e4dabb7	0.20085035
32	0xbe3949e8	-0.18094599
33	0x3b6ba5a7	0.003595689
34	0x3cb71690	0.022349626
35	0x3e87cdba	0.26524144
36	0x3dc93e38	0.098263204
37	0xbd852b29	-0.06502373
38	0x3d811ab4	0.06303921
39	0xbde8d826	-0.11369352
40	0xbe03dba4	-0.12876755
41	0x3e064395	0.13111718
42	0xbe703e9a	-0.2346138
43	0x3e1af199	0.15131225
44	0xbcec125a	-0.028817344
45	0xbe0cd5ab	-0.13753383
46	0xbe1ff42d	-0.1562049
47	0xbb83d556	-0.0040232344
48	0xbe8754e3	-0.2643195
49	0xbdce4ee1	-0.10073639
50	0xbe87f10e	-0.26551098
51	0x3e8d5575	0.2760426
52	0xbe063d11	-0.13109232
53	0xbc409b3b	-0.01175576
54	0xbe156ad2	-0.1459153
55	0x3e2cad10	0.16862893
56	0x3e5118b8	0.20419586
57	0x3dd0550a	0.1017247
58	0xbded189f	-0.11576962
59	0x3e4c4eb0	0.19951892
60	0x3d9a50fe	0.07534979
61	0xbe3a8c14	-0.18217498
62	0x3da8cdef	0.08242404
63	0x3c9dc8a2	0.019260708
64	0x3e3fbc8f	0.18724273
65	0xbe72618a	-0.2367002
66	0xbe40172a	-0.18758836
67	0x3bde9331	0.006792449
68	0x3dc0579e	0.09391712
69	0xbe3b5209	-0.18293013
70	0x3e4b0077	0.19824396
71	0xbe19acf5	-0.15007384
72	0x3d98fdd5	0.074702896
73	0xbe78eaea	-0.24308363
74	0x3db9a5dc	0.09064838
75	0x3e6d64c8	0.23182976
76	0x3d3e60a6	0.04647889
77	0x3d0cf456	0.034412704
78	0xbd07f25a	-0.03319011
79	0x3d561243	0.05226351
80	0xbdf21815	-0.118209995
81	0xbd88d830	-0.066818595
82	0x3e8ff714	0.28118193
83	0xbd2e6e76	-0.042585813
84	0x3e28cd7d	0.16484638
85	0xbde7f36a	-0.113257244
86	0x3e671c54	0.225694
87	0x3e5f142c	0.21785039
88	0xbd18480a	-0.037178077
89	0xbe7977e1	-0.24362136
90	0xbc4b1c35	-0.012396862
91	0x3d31bf08	0.043395072
92	0x3de54fbe	0.1119685
93	0x3e727231	0.23676373
94	0x3ce143b8	0.027498111
95	0x3bdd08c8	0.0067454316
96	0xbe1e8b68	-0.15482867
97	0x3e8fdc4b	0.28097758
98	0xbcb3104b	-0.021858355
99	0x3e54c701	0.20779039
100	0xbd717761	-0.05895174
101	0xbe113d9d	-0.1418366
102	0x3e2df073	0.16986255
103	0x3e415ba3	0.18882613
104	0xbe36d3ea	-0.17854276
105	0x3e318402	0.17335513
106	0xbdb22996	-0.08699338
107	0x3e235997	0.15952145
108	0x3b335729	0.0027365184
109	0xbd61ec18	-0.055156797
110	0xbe209616	-0.15682253
111	0xbe39d67a	-0.18148223
112	0xbc85adfe	-0.016318318
113	0x3e2455bf	0.16048335
114	0x3d7c536f	0.061603006
115	0xbd209941	-0.039208654
116	0x3e4b8e36	0.19878468
117	0x3e72418d	0.23657818
118	0x3e4da8e1	0.20083953
119	0xbe71f7a9	-0.23629631
120	0xbdd297e4	-0.10282877
121	0x3be0feba	0.0068663033
122	0xbdf65108	-0.12027174
123	0xbdcc7cf1	-0.09984768
124	0xbd50564d	-0.050863553
125	0x3df479fa	0.11937328
126	0xbdf1a51c	-0.1179907
127	0xbe3c2eeb	-0.18377273
128	0x3ea2715d	0.31727114
129	0x3e0b81b8	0.13623703
130	0x3da4ed45	0.08053068
131	0xbc9c7119	-0.019096898
132	0xbda6204e	-0.081116304
133	0x3df65d9c	0.12029573
134	0x3e2bf2a3	0.16791777
135	0xbb81e4ee	-0.003964058
136	0xbcb5c519	-0.02218871
137	0xbe3efb8a	-0.18650642
138	0x3d5fb763	0.05461825
139	0x3de498b6	0.1116194
140	0xbd3ff5e3	-0.046865355
141	0x3db9043f	0.09034013
142	0xbe500e15	-0.20317872
143	0xbce56782	-0.028003458
144	0x3e54737e	0.20747182
145	0xbe25f7fd	-0.16207881
146	0xbd6ce1ae	-0.057832412
147	0xbd9bbed9	-0.07604761
148	0xbe04d028	-0.1297003
149	0x3e2310e8	0.15924418
150	0xbde94a84	-0.11391166
151	0xbda26855	-0.07930056
152	0xbdf9b615	-0.121929325
153	0xbe22aeaa	-0.15886942
154	0x3e1b792f	0.15182947
155	0xbe0324a0	-0.1280694
156	0x3e2f0134	0.17090303
157	0x3d4b25a5	0.049596447
158	0x3e3117b9	0.17294206
159	0xbe292d55	-0.16521199
160	0xbe4886ae	-0.19582626
161	0x3e073358	0.1320318
162	0x3d0e6f94	0.034774378
163	0xbbf316e7	-0.0074185017
164	0xbe3d8ac9	-0.18509974
165	0x3e5961a3	0.21228652
166	0x3e3035aa	0.17207971
167	0xbd6d87cc	-0.057990834
168	0xbc3fcd2e	-0.0117066335
169	0x3c716344	0.014733139
170	0x3e6288d2	0.22122505
171	0xbe59216f	-0.2120416
172	0x3d68927e	0.05678033
173	0x3e62eec2	0.22161391
174	0xbdd18207	-0.10229879
175	0xbc9818cc	-0.018566512
176	0xbd98b797	-0.07456892
177	0x3da6889d	0.08131526
178	0x3d20f9ce	0.039300732
179	0xbca401be	-0.020020362
180	0xbb53f392	-0.0032341224
181	0xbca36285	-0.019944439
182	0x3db3ad5a	0.087732986
183	0x3e2b2019	0.16711463
184	0x3d6d781d	0.057975877
185	0xbd932e3b	-0.07186552
186	0xbd2dffa1	-0.042480115
187	0xbe401fe2	-0.18762162
188	0xbe2f7eba	-0.17138186
189	0x3d624021	0.05523694
190	0xbca6bc8a	-0.020353574
191	0x3dd84931	0.10560835
192	0xbe496295	-0.19666512
193	0xbe266bb7	-0.16252027
194	0x3e273694	0.16329414
195	0xbd14aa80	-0.036295414
196	0x3e0c6cc8	0.13713372
197	0xbe37e0df	-0.17956875
198	0xbe7cc9af	-0.24686311
199	0x3e54712a	0.20746294
200	0xbe44d657	-0.19222389
201	0x3e6c7ecd	0.23095246
202	0x3e836bf4	0.256683
203	0xbe4d24f8	-0.20033634
204	0x3e0fc32c	0.14039296
205	0xbe45e463	-0.19325404
206	0xbe01695b	-0.12637846
207	0x3e553ec6	0.20824727
208	0xbe549e1c	-0.20763439
209	0x3c713520	0.014722139
210	0x3d5a3135	0.053269584
211	0x3db9c4e6	0.090707585
212	0xbe350652	-0.17678192
213	0x3d8a0f22	0.067411676
214	0x3e30160a	0.17195907
215	0xbe080a23	-0.13285117
216	0xbcf8dfd5	-0.030380169
217	0xbd2e1fbb	-0.04251073
218	0x3d3889c1	0.045053247
219	0xbe843afc	-0.25826252
220	0xbda5c395	-0.08093945
221	0x3de2a19d	0.110659815
222	0x3d421f64	0.047393218
223	0x3b0bb178	0.0021315496
224	0xbd7f2f96	-0.06230124
225	0xbe1742b4	-0.14771539
226	0x3e84fb79	0.25973108
227	0xbe26715d	-0.16254182
228	0x3d3ed463	0.046589267
229	0x3e3ff138	0.18744361
230	0x3e2d600e	0.16931173
231	0x3d8bb0b8	0.06820816
232	0x3c5dd368	0.013539173
233	0xbe54c0ba	-0.20776644
234	0xbdf4f512	-0.11960806
235	0x3e40b23b	0.1881799
236	0xbe37c999	-0.17947997
237	0x3d65221a	0.055940725
238	0xbe82ddee	-0.25559944
239	0x3e229fce	0.15881273
240	0xbe2d0cde	-0.1689944
241	0x3c745a7f	0.014914154
242	0xbdad79dd	-0.08470509
243	0xbdb1e299	-0.08685798
244	0x3dd68595	0.104746975
245	0xbd8f42e1	-0.06995178
246	0xbdffcee6	-0.124906346
247	0xbdbf9a06	-0.093555495
248	0x3d805474	0.06266108
249	0x3e1ef1d9	0.15521945
250	0xbe1d2a8f	-0.15348266
251	0x3e874c7e	0.26425546
252	0xbd420379	-0.047366593
253	0xbe584c09	-0.21122755
254	0x3e019426	0.1265417
255	0xbccd502f	-0.025062649

conv1.bias f4 [64]
0	0xbe1193d8	-0.14216554
1	0xbdbbb77e	-0.09165858
2	0x3d5dca4c	0.054148003
3	0xbe6b0e98	-0.22954786
4	0x3dc54558	0.09632367
5	0x3dd1fc2c	0.10253176
6	0xbe0d5ad4	-0.1380418
7	0xbe2e2965	-0.17007978
8	0xbe77e234	-0.24207383
9	0x3e47315f	0.19452427
10	0xbe1a4af8	-0.15067661
11	0x3e26ee44	0.16301829
12	0xbe1f1e49	-0.15538897
13	0xbd08c4d7	-0.033390846
14	0x3e342702	0.17593005
15	0xbd9cfe72	-0.07665719
16	0xbdb417b4	-0.087935835
17	0xbc7fdb98	-0.01561632
18	0xbe2326e4	-0.15932804
19	0xbe2a6c9a	-0.1664299
20	0x3e183de7	0.14867364
21	0xbd813edb	-0.06310817
22	0x3bbfd465	0.005854177
23	0xbd4bbf07	-0.049742725
24	0xbe73ae64	-0.23796993
25	0x3e5a56ed	0.21322222
26	0xbe492778	-0.19643962
27	0xbd97835c	-0.07398102
28	0x3dedf829	0.116195984
29	0x3e459903	0.1929665
30	0xbe2b11cb	-0.16706006
31	0xbd92adbb	-0.07162043
32	0xbe3ec3ad	-0.18629332
33	0xbd3ff59c	-0.04686509
34	0x3e082b5d	0.13297792
35	0xbda59eee	-0.08086954
36	0xbe189258	-0.14899576
37	0xbd5a2064	-0.053253546
38	0xbc151eb4	-0.0091015585
39	0xbe0f2822	-0.13980153
40	0x3c420e22	0.01184419
41	0xbe4742c8	-0.19459069
42	0x3ce61093	0.028084075
43	0xbda29429	-0.079384156
44	0xbe775290	-0.24152589
45	0x3e0683ef	0.13136266
46	0x3b230595	0.0024875153
47	0x3e6fce32	0.23418501
48	0xbddfad91	-0.10921777
49	0x3e33c0b1	0.17553975
50	0xbc9ceee3	-0.019156879
51	0xbe3577be	-0.1772146
52	0xbe0432bd	-0.1290998
53	0xbdb27f51	-0.0871569
54	0x3e227d63	0.15868144
55	0x3e708f79	0.2349223
56	0x3d5284ca	0.05139617
57	0x3cb05873	0.02152655
58	0x3dbbb743	0.09165814
59	0xbe5ba70a	-0.21450439
60	0xbdc89825	-0.09794644
61	0x3e804599	0.250531
62	0x3e44c8f4	0.19217283
63	0x3dbe6cae	0.09298073

conv2.weight f4 [128, 64, 2, 2]
0	0xbbd60b52	-0.006532111
1	0x3a41df31	0.0007395624
2	0xbbfddb59	-0.0077470955
3	0x3ac4fd4f	0.0015029105
4	0xbd8daf2c	-0.06918177
5	0xbc88def4	-0.016707875
6	0x3d1d9612	0.038473196
7	0xbd6fb7c2	-0.058524854
8	0x3c819c26	0.015821528
9	0x3d3fe8c6	0.04685285
10	0xbcc7ad8c	-0.024374746
11	0xbc62e9b1	-0.013849662
12	0xbd09784d	-0.033561993
13	0x3cda49bc	0.026646487
14	0x3d0a38d4	0.0337456
15	0xbd62a7a3	-0.055335652
16	0x3d263424	0.04057707
17	0x3d20e358	0.039279312
18	0x3d399115	0.045304377
19	0xbd8b247a	-0.06794067
20	0xbd4bd21b	-0.04976092
21	0x3d4b0963	0.0495695
22	0xbb8b0fa0	-0.004243806
23	0xbd2dce38	-0.042432994
24	0xbd8d3270	-0.06894386
25	0x3d4d797b	0.05016468
26	0xbda85229	-0.08218796
27	0xbdb695ba	-0.08915277
28	0xbcfbb808	-0.030727401
29	0xbd3f3385	-0.046679992
30	0xbd85134a	-0.0649782
31	0x3ce6e636	0.028185945
32	0x3cb93250	0.022606999
33	0xbd2f51f6	-0.042802773
34	0x3d45296e	0.048135214
35	0xbb8eb1a6	-0.0043546734
36	0x3d56e450	0.05246383
37	0xbd81a33c	-0.063299626
38	0xbd02fb3e	-0.031977884
39	0xbd07117b	-0.032975655
40	0x3cb99687	0.022654785
41	0xbb617e46	-0.003440754
42	0xbd973d3a	-0.07384725
43	0x3b9113e0	0.004427418
44	0x3d2b022a	0.04175011
45	0xbcb5060c	-0.02209761
46	0x39908ba8	0.00027569872
47	0x3d6c9e3a	0.057768084
48	0x3c970a47	0.018437518
49	0xbcbe9749	-0.023265498
50	0x3d7fe1d7	0.062471237
51	0xbd0ef156	-0.034898125
52	0xbd803f23	-0.062620424
53	0xbd8a3c2e	-0.067497596
54	0x3ca0b999	0.01961975
55	0xbd8aac20	-0.067711115
56	0x3c0acdc3	0.008471909
57	0xbac3bed2	-0.0014934188
58	0xbd140a5b	-0.03614269
59	0xbd2c5c91	-0.042080466
60	0xbd4bdd38	-0.049771518
61	0xbe058703	-0.13039784
62	0xbd59177e	-0.05300092
63	0xbcb79987	-0.022412075
64	0xbcf6f17a	-0.030144442
65	0xbd5cc2c8	-0.053896695
66	0xbd936c8f	-0.0719844
67	0x3d00e068	0.03146401
68	0x3d025c9c	0.0318266
69	0xbc2fc6b1	-0.010728524
70	0xbd9c0d14	-0.07619682
71	0xbd4b3da8	-0.049619347
72	0xbc39139f	-0.011296182
73	0xbd729721	-0.05922616
74	0xbd518dfd	-0.0511608
75	0xbbd39a8c	-0.0064576324
76	0xbc84d979	-0.01621698
77	0xbd041500	-0.03224659
78	0x3c7c5f6a	0.015403608
79	0xbcb6af70	-0.022300452
80	0xbd4281ff	-0.047487255
81	0xbc94d480	-0.018167734
82	0xbd8ef43a	-0.06980176
83	0xba637287	-0.00086764287
84	0xbd0b7c19	-0.034053896
85	0xbda57e47	-0.08080726
86	0xbd1554bb	-0.03645776
87	0xbd70ae58	-0.058760017
88	0xbd2d129d	-0.04225408
89	0x3ce52b20	0.027974665
90	0x3d74b587	0.05974343
91	0x3d054a44	0.03254153
92	0xbda25371	-0.079260714
93	0xbd015b2a	-0.03158108
94	0xbcd06ad2	-0.02544156
95	0xbd50c01f	-0.05096447
96	0x3d8f7c87	0.070061736
97	0xbcedfe8e	-0.029052045
98	0xbd0e44f5	-0.03473373
99	0x3d27beda	0.040953495
100	0x3c420969	0.011843064
101	0x3cfe953a	0.031077016
102	0xbd729521	-0.05922425
103	0xbc1a5c50	-0.009421423
104	0xbc8dc128	-0.017304018
105	0xbbb5e195	-0.005550573
106	0x3c00520f	0.007832064
107	0x3af7b4e7	0.0018898518
108	0xb9a4975e	-0.00031393295
109	0xbd86c534	-0.06580582
110	0x3c226bb9	0.009913378
111	0x3bc943d3	0.0061421185
112	0xbd4592e9	-0.048235808
113	0xbd3d5829	-0.046226654
114	0xbd73a435	-0.059482772
115	0xbb8ca1e2	-0.004291759
116	0xbcd910c8	-0.02649726
117	0x3c83bd76	0.016081553
118	0x3c1f258a	0.00971354
119	0x3d011d0c	0.031521842
120	0xbdc4718a	-0.09591968
121	0xbdcb43a9	-0.099250145
122	0xbdacdd74	-0.08440676
123	0xbd954d59	-0.072901435
124	0x3cc5ec96	0.024160665
125	0x3ce7bf91	0.028289588
126	0x3c3a9eb2	0.011390375
127	0x3c950d30	0.018194765
128	0x3d11b4f8	0.035572976
129	0xbd466b87	-0.04844239
130	0xbdac96ae	-0.08427177
131	0xbc984f55	-0.018592516
132	0xbd7474f8	-0.059681863
133	0x3d8ddf35	0.06927339
134	0xbc8a0597	-0.016848369
135	0x3d30462c	0.04303567
136	0x3d2dc392	0.04242284
137	0xbb9505c7	-0.004547808
138	0x3d11fda8	0.035642296
139	0x3d73fa46	0.05956485
140	0xbbc72fe3	-0.0060787066
141	0x3cc5f93e	0.0241667
142	0xbccbd281	-0.02488065
143	0xbd13ce21	-0.03608525
144	0x3cab8474	0.020937182
145	0x3d1fd2f5	0.039019544
146	0xbd81d45e	-0.06339334
147	0xbd4049ce	-0.046945386
148	0xbc173b54	-0.0092304535
149	0xbb94ac05	-0.004537108
150	0x3d20adf6	0.039228402
151	0xbc79bd95	-0.015242954
152	0xbd84858c	-0.064707845
153	0x3c570411	0.013123528
154	0x3bef0f6c	0.0072955396
155	0xbce6652e	-0.028124418
156	0xbd599b52	-0.05312664
157	0x3cf9135d	0.030404741
158	0x3d16427d	0.036684502
159	0x3c3d688c	0.01156057
160	0xbd5283d4	-0.051395252
161	0xbd9c9e6f	-0.07647406
162	0xbd47a0e0	-0.048737407
163	0xbcf1b2e4	-0.029504247
164	0x3d02c983	0.031930458
165	0x3cc8c74a	0.02450909
166	0x3b2b1d5f	0.0026110036
167	0x3cf83f1d	0.030303532
168	0x3c806555	0.015673319
169	0xbd63ebce	-0.055644803
170	0x3d103164	0.035203353
171	0xb90c9ac8	-0.00013409101
172	0xbd246186	-0.040132068
173	0xbc2e7770	-0.010648593
174	0xbd119d16	-0.0355502
175	0x3ce49f92	0.02790812
176	0xbd9c1324	-0.07620838
177	0x3cc7bb52	0.024381313
178	0x3cf73759	0.030177759
179	0xbcf86bc4	-0.030324824
180	0x3cb58a86	0.02216078
181	0x3cf36436	0.02971087
182	0xbc26f92f	-0.010191246
183	0xbbe632db	-0.0070251054
184	0x3cbebceb	0.023283442
185	0xbc3b6905	-0.011438613
186	0x3c29e66c	0.010369878
187	0x3d31e9f9	0.043436024
188	0x3d3b07b5	0.045661647
189	0x3d3f6d49	0.04673508
190	0xbc8c57b3	-0.017131662
191	0x3d78480a	0.060615577
192	0xbcc3e02a	-0.0239106
193	0x3d66be53	0.05633385
194	0x3cad5aad	0.021161402
195	0x3ca72701	0.02040434
196	0xbd8aca5e	-0.0677688
197	0x3d40ae83	0.047041427
198	0xbc776867	-0.015100575
199	0xbb10eceb	-0.002211387
200	0xbc3518da	-0.011053288
201	0x3d093c4e	0.033504777
202	0x3d56b038	0.05241415
203	0x3d3bab33	0.045817565
204	0x3d1e57ee	0.038658075
205	0xbc81e54c	-0.015856408
206	0xbd8f963f	-0.07011079
207	0x3d746683	0.059668075
208	0xbd9072f4	-0.070531756
209	0x3c8da806	0.017292034
210	0xbd9056fa	-0.070478395
211	0xbb378e13	-0.0028008267
212	0x3cbe0c5d	0.023199255
213	0xbd1f8e83	-0.03895427
214	0x3d2ad771	0.041709367
215	0x3d3368ae	0.043801002
216	0xbaf07ade	-0.0018347164
217	0x3d12700d	0.03575139
218	0xbd02a12f	-0.031891998
219	0xbd129a4f	-0.03579169
220	0xbcdec2c9	-0.02719249
221	0x3cb8ab93	0.02254275
222	0xbd1faf21	-0.038985375
223	0x3d3f088e	0.046639018
224	0x3c0e99f0	0.008703694
225	0xbd652f9b	-0.055953603
226	0x3d0b5e4a	0.034025468
227	0x3b9df20b	0.0048201135
228	0xbb9ddf92	-0.0048179114
229	0xbd00474b	-0.03131799
230	0xbd09285f	-0.033485767
231	0x3ce3f19b	0.027825167
232	0xbd18395b	-0.037164073
233	0x3c05d339	0.008168035
234	0x3bebeb3c	0.007199673
235	0x3ce1af96	0.027549546
236	0xbd408b22	-0.047007687
237	0x3cb9df5c	0.022689514
238	0xbd254ef2	-0.04035849
239	0xbd8914f4	-0.066934496
240	0x3cc3675a	0.023852993
241	0xbdc86760	-0.09785342
242	0x3d024db4	0.031812385
243	0xbd04f862	-0.03246344
244	0xbd520116	-0.051270567
245	0xbd018f50	-0.031630814
246	0x3d1a1de7	0.037626173
247	0x3d46afe7	0.048507597
248	0x3d7d2f14	0.061812475
249	0xbd11146f	-0.035419878
250	0xbbfebf6b	-0.0077742836
251	0x3d0734c0	0.03300929
252	0xbd6d47c9	-0.057929788
253	0xbd40831c	-0.047000036
254	0x3d54e1eb	0.051973265
255	0xbcb7df28	-0.022445276

conv2.bias f4 [128]
0	0xbbce7e94	-0.0063017104
1	0xbada22ed	-0.0016642489
2	0xbcf064af	-0.029344885
3	0xbd35c4e5	-0.044377226
4	0xbbf20be6	-0.0073866723
5	0x3ca71bce	0.020399
6	0xbbc021f4	-0.0058634225
7	0x3d365c8f	0.044521865
8	0x3d85de14	0.06536499
9	0xbbe99444	-0.0071282703
10	0x3d60e748	0.054908067
11	0x3ccc884c	0.024967335
12	0x3d8069c6	0.06270175
13	0x3d05a831	0.032631103
14	0x3d74977b	0.059714776
15	0x3cd95609	0.026530283
16	0xbd43c6b7	-0.04779693
17	0x3bc5c3d4	0.0060353074
18	0x3cd75dbd	0.026289815
19	0xbd35dde3	-0.04440106
20	0x3d111798	0.03542289
21	0x3d8be61a	0.06830998
22	0xbb9da4ad	-0.0048108906
23	0xbd63b07b	-0.055588227
24	0x3d15f9df	0.03661525
25	0x3d675b22	0.056483395
26	0xbd262095	-0.040558416
27	0xbc9e8bc5	-0.019353757
28	0x3d835992	0.064135686
29	0x3c06022a	0.008179227
30	0x3d2b5b9a	0.041835405
31	0x3d29c256	0.0414451
32	0xbd09c9c1	-0.033639673
33	0x3d607ddb	0.054807525
34	0xbc867b25	-0.016416142
35	0x3d0d2d05	0.034466762
36	0xbcb2ae74	-0.021811701
37	0x3c7d39c2	0.015455665
38	0xbd517d28	-0.05114475
39	0xbd7ee0ae	-0.06222599
40	0x3b2ba7c3	0.0026192523
41	0x3d309753	0.043113064
42	0x3af5dda9	0.0018758076
43	0xbd3e4be9	-0.046459112
44	0xbc29582e	-0.010335965
45	0xbcf90321	-0.030397
46	0x3d34ec01	0.044170383
47	0xbb003c4b	-0.0019567187
48	0x3d6e70d4	0.05821307
49	0xbd4eb338	-0.050463885
50	0x3b7f57a2	0.0038962145
51	0x3b56c2a9	0.0032769835
52	0xbbe060f0	-0.0068474934
53	0x3d87033a	0.06592412
54	0x3d6bb655	0.057546932
55	0x3cca5f24	0.02470357
56	0xbd0caf51	-0.034346882
57	0x3cbefe09	0.023314493
58	0xbbedfde0	-0.0072629303
59	0xbcf1e720	-0.029529154
60	0xbbffb166	-0.00780313
61	0x3d153b15	0.0364333
62	0xbd343017	-0.043991175
63	0x3d2e1b65	0.042506594
64	0xbcd7700c	-0.026298545
65	0x3c0d37e3	0.008619281
66	0x3d1cbe4d	0.038267422
67	0x3cea3d7c	0.028593771
68	0xbce4a651	-0.027911337
69	0x3bbecd91	0.0058228453
70	0x3d7ee859	0.062233303
71	0xbd50b68a	-0.050955333
72	0xbd6bf188	-0.05760339
73	0x3d61b7c4	0.055106893
74	0x3d0abb26	0.033869885
75	0x3d86c644	0.06580785
76	0xbcebb6af	-0.028773634
77	0x3c8a11c9	0.016854184
78	0xbd5eef4e	-0.054427437
79	0x3d74b0e6	0.059739016
80	0x3cb10464	0.021608539
81	0x3d34405d	0.044006694
82	0xbd6244dc	-0.05524145
83	0xbc1317d0	-0.008977845
84	0xba9d14f7	-0.0011984397
85	0xbc4e4f74	-0.012592185
86	0xbd421f42	-0.04739309
87	0x3d075808	0.033042938
88	0xbd3f8fcd	-0.046768
89	0xbbb290e0	-0.0054493994
90	0xbd02c93d	-0.031930197
91	0x3d7c8735	0.06165238
92	0xbd24243b	-0.040073615
93	0xbc50b5d0	-0.01273866
94	0x3c02e733	0.0079896925
95	0x3cb7200e	0.022354152
96	0x3cc8322a	0.024437983
97	0x3cefa0f7	0.029251559
98	0xbce81965	-0.028332422
99	0xbc7e4b64	-0.015520904
100	0x3d21e839	0.039528105
101	0x3d353355	0.044238407
102	0xbd1a495c	-0.037667617
103	0x3d8b2604	0.0679436
104	0xbd1b4b40	-0.03791356
105	0xbd634406	-0.055484794
106	0xbcbadecc	-0.022811316
107	0xbb882499	-0.0041547534
108	0x3d21c8dc	0.039498195
109	0xbd14574d	-0.03621607
110	0x3b81c06f	0.0039597075
111	0xbd40fb2c	-0.047114536
112	0xbd6267df	-0.05527484
113	0x3d603c49	0.054744992
114	0xbd708de1	-0.058729056
115	0xbd087877	-0.03331801
116	0xbd3b3876	-0.045708142
117	0x3bb936c4	0.0056522805
118	0x3d1c86a9	0.03821436
119	0x3d040993	0.032235693
120	0x3d85fa61	0.065418966
121	0x3d51a601	0.051183704
122	0xbd5ac513	-0.0534106
123	0x3bddc9d2	0.0067684436
124	0xbb949a43	-0.004534991
125	0x3c0e68c8	0.008691974
126	0xbc93ac5e	-0.018026527
127	0x3d23963a	0.03993819

fc_shared.weight f4 [128, 768]
0	0xbc487a1c	-0.012236144
1	0x3c8cc30e	0.017182853
2	0x3cad0cfa	0.021124352
3	0xbcba1428	-0.02271469
4	0x3cba971c	0.022777133
5	0x3cfdd718	0.030986354
6	0xba9691e0	-0.0011487566
7	0xbc343ced	-0.011000854
8	0xbb4531f5	-0.003008959
9	0xbd0a6064	-0.03378333
10	0x3cacaad3	0.02107755
11	0x3cd53955	0.026028315
12	0xbbc4cbac	-0.006005725
13	0x3c6c7cea	0.014434079
14	0xbd01478e	-0.03156238
15	0xbcd9b954	-0.02657763
16	0x3cda5f48	0.026656762
17	0xbcec61a1	-0.028855147
18	0x3cd8cb3c	0.026464097
19	0xbba6d260	-0.0050909966
20	0x3d12603a	0.0357363
21	0xbc838623	-0.016055172
22	0x3cc20d88	0.023688093
23	0xbc5a7082	-0.013332488
24	0xbc151cd3	-0.0091011105
25	0xbc544131	-0.012954996
26	0x3c55f13b	0.013058002
27	0x3c0ad41c	0.008473422
28	0x3935e6b4	0.00017347449
29	0xbc4fb16f	-0.012676581
30	0xbbb32708	-0.0054672994
31	0x3d035395	0.032062132
32	0xbcaf787d	-0.021419758
33	0xbd161016	-0.036636434
34	0xbc353a48	-0.011061259
35	0x3ca891f7	0.020577414
36	0xbca298d7	-0.01984827
37	0xbc8d06cf	-0.01721516
38	0x3b1b3919	0.0023685156
39	0x3ada70f8	0.0016665747
40	0xbd0be214	-0.03415115
41	0xbd21132a	-0.039324917
42	0x3c909ed4	0.01765386
43	0x3cc2e284	0.023789652
44	0x3c263a26	0.0101457
45	0x3ce344fd	0.027742857
46	0xbd172791	-0.036902968
47	0x3c60acc2	0.013713064
48	0x3cab0f53	0.02088133
49	0xbc8d8f09	-0.017280119
50	0xbb3fe5d6	-0.002928128
51	0x3c7cb46b	0.015423874
52	0xbc164728	-0.009172238
53	0x3c9cf2e9	0.019158797
54	0xbcf7a918	-0.030231997
55	0x3ca3a1e0	0.019974649
56	0xbc89653c	-0.016771905
57	0xbc79c671	-0.015245066
58	0x37429874	1.1598797e-05
59	0xbb377a65	-0.0027996537
60	0x3c844c1c	0.016149573
61	0x3cea3fb6	0.028594833
62	0x3b9b9c81	0.0047488813
63	0xbc26250b	-0.010140668
64	0x3c0ac9bb	0.008470948
65	0xbd145bc0	-0.036220312
66	0xbbc3c563	-0.005974458
67	0x3c9d6287	0.01921202
68	0x3c8eb547	0.017420424
69	0x3c7d11fe	0.015446184
70	0xbc499922	-0.012304576
71	0xbd0f0ecc	-0.03492622
72	0xbc143e9b	-0.009048129
73	0x3b12e828	0.0022416208
74	0x3a852fde	0.001016136
75	0xbc86f273	-0.01647303
76	0x3cca0af3	0.024663424
77	0x3cc62433	0.024187183
78	0xbb8be6a8	-0.0042694397
79	0xbcbe24ef	-0.02321097
80	0x38729522	5.7836187e-05
81	0x3cadeae6	0.021230172
82	0xbd016119	-0.03158674
83	0xbcbbe2b5	-0.02293525
84	0xbc923892	-0.01784924
85	0xbd195f24	-0.03744425
86	0x3c6a2b4d	0.01429255
87	0x3ce2b8ef	0.027676074
88	0xbc2389ac	-0.009981554
89	0x3d01359b	0.031545263
90	0xbc97f24e	-0.018548157
91	0x3c92d9d6	0.017926138
92	0x3ceea824	0.02913291
93	0xbcc64539	-0.02420293
94	0x3bf52dad	0.0074822516
95	0xbceb4114	-0.028717555
96	0xbd0723f6	-0.03299328
97	0x3c3e92fa	0.011631722
98	0x3cfb161b	0.03065019
99	0xbcc32c2d	-0.023824776
100	0xbcc6cf4e	-0.024268772
101	0xbd05bee9	-0.03265277
102	0xbc7d76e8	-0.015470244
103	0xbd123916	-0.035698973
104	0xbba82a7f	-0.005132019
105	0xbc54be20	-0.012984782
106	0xbd1bd76a	-0.03804723
107	0xbcc3ede6	-0.02391715
108	0x3ade5805	0.0016963488
109	0xbc7893be	-0.015171943
110	0x3c6d7772	0.01449381
111	0xbd137995	-0.03600462
112	0xbba44cda	-0.005014044
113	0x3c954301	0.018220427
114	0xbcaef8de	-0.021358903
115	0x3c320167	0.010864592
116	0x3cdc46e6	0.026889276
117	0x3c0b51b7	0.008503369
118	0xbc390514	-0.011292715
119	0xbb2e049c	-0.002655304
120	0x3d02044a	0.03174237
121	0xbd1882a7	-0.037233975
122	0x3cc4f909	0.02404453
123	0xbba292b6	-0.004961337
124	0xbcc2f64d	-0.023799086
125	0x3c8abeb1	0.016936632
126	0xbcec1143	-0.028816825
127	0x3c84fc3a	0.016233552
128	0xbcaba43f	-0.020952342
129	0xbd0a9de6	-0.03384199
130	0x3d0256d6	0.031821094
131	0xbc2ea49a	-0.010659361
132	0xbcf4739d	-0.029840285
133	0xbc57e0b4	-0.013176132
134	0xbcfe7571	-0.03106186
135	0xbd023693	-0.031790327
136	0xbc2934d9	-0.010327541
137	0xbc8343bb	-0.016023507
138	0x3c3ee3e1	0.01165101
139	0xbcf01813	-0.029308354
140	0x3bccc597	0.0062491405
141	0xbd15e569	-0.036595736
142	0xbc839d22	-0.016066138
143	0xbc958b4a	-0.018254895
144	0x3d008420	0.031376004
145	0xbbce1248	-0.0062888004
146	0x3c89f741	0.016841533
147	0x3ca313fe	0.019906994
148	0x3c560897	0.013063571
149	0xbac88ebd	-0.0015301328
150	0xbd173609	-0.036916766
151	0xbce65a05	-0.028119097
152	0x3c5d95b5	0.0135244625
153	0x3cb0cb30	0.021581262
154	0xbd17db97	-0.03707465
155	0x3ce4319f	0.027855692
156	0xbc5ea84f	-0.013589933
157	0x3c6bff24	0.014404092
158	0x3c6a7320	0.0143096745
159	0xbc722547	-0.014779395
160	0xbc9d44e1	-0.019197883
161	0xbd17a098	-0.03701839
162	0xbd05e9c1	-0.03269363
163	0xbc5d8468	-0.013520338
164	0xb93d0eed	-0.00018030005
165	0xbc581fce	-0.013191177
166	0x3c838d31	0.016058536
167	0xbcd84811	-0.026401551
168	0x3c4618d0	0.012090877
169	0xbc4026ee	-0.011728032
170	0xbcf7273a	-0.030170072
171	0xbb84f890	-0.0040579513
172	0x3cfc4801	0.030796053
173	0xba7e4984	-0.0009700286
174	0xbbe08d48	-0.0068527795
175	0xbd08016e	-0.03320449
176	0x3ce5744f	0.028009562
177	0x3ceb1c45	0.028700003
178	0x3bd25d9d	0.006419851
179	0x3bdb2f3d	0.006688981
180	0xbca91de3	-0.020644134
181	0x3cfeb055	0.031089941
182	0xbd018eaa	-0.031630196
183	0xbcba1623	-0.022715634
184	0xbd221303	-0.039568912
185	0xbc87f4bd	-0.016596192
186	0xbc6af469	-0.0143404985
187	0x3b8cc2db	0.0042956895
188	0x3ca14ab3	0.01968894
189	0x3b767b5b	0.0037610147
190	0xbd0b7d1e	-0.034054868
191	0xbc7c6d86	-0.015406972
192	0xbd10890c	-0.035286948
193	0xbb9b4058	-0.004737895
194	0x3c063a99	0.008192682
195	0x3bb462ae	0.0055049276
196	0xbb03652d	-0.002004932
197	0xbb18951a	-0.002328223
198	0xbcc54c9b	-0.02408438
199	0xbcdb9e2a	-0.026808817
200	0xbd190fe9	-0.03736869
201	0xbd00ca55	-0.03144296
202	0xbbf587bb	-0.007492987
203	0xbc1c63ca	-0.009545276
204	0x3c714658	0.014726244
205	0xbc9cd4a8	-0.019144371
206	0x3c2b9725	0.010473047
207	0x3cecc6f4	0.028903462
208	0xbc114d53	-0.008868533
209	0xbcca8f87	-0.024726642
210	0x3bba95f5	0.005694146
211	0x3d057d40	0.03259015
212	0xbd1dc05f	-0.038513537
213	0x3be29dec	0.0069157984
214	0x3c6709ec	0.014101487
215	0x3cc7aab2	0.024373386
216	0xbb3b8f66	-0.0028619408
217	0x3bcd97bc	0.0062741917
218	0x3c2341a5	0.009964381
219	0xbd211e2a	-0.039335407
220	0x3b0fe6e7	0.0021957697
221	0xbcd04893	-0.025425231
222	0xbce60e66	-0.028083038
223	0xbc488e72	-0.012240993
224	0xbc235acc	-0.009970378
225	0x3cf74a2c	0.030186735
226	0xbc89562e	-0.016764726
227	0xbc85e394	-0.01634387
228	0xbc10e034	-0.008842517
229	0xbcbe424c	-0.023224972
230	0x3cf46092	0.029831205
231	0x3bc380b4	0.0059662703
232	0x3ca84359	0.020539926
233	0xbcdc7ccb	-0.026914975
234	0xbc3b6e66	-0.011439895
235	0xbc54c5d7	-0.012986622
236	0x3b2d1863	0.002641224
237	0xbce9f61d	-0.028559739
238	0xbbaa4954	-0.0051967297
239	0xbb3bac2e	-0.0028636563
240	0xbcc9b016	-0.024620097
241	0x3919fcb6	0.00014685359
242	0x3ce4765e	0.027888473
243	0xbd144b7e	-0.036204807
244	0xbcd5c1be	-0.02609336
245	0x3c27db35	0.010245134
246	0x3c6ddc2b	0.014517824
247	0x3cec2814	0.028827704
248	0x3cc1a576	0.023638468
249	0xbc934d98	-0.017981336
250	0xbceda6e5	-0.029010246
251	0xbca1ad16	-0.019735854
252	0x3c1c114c	0.009525608
253	0x3c179c9e	0.009253649
254	0xbc8dc748	-0.017306939
255	0xbb0e2231	-0.002168786

fc_shared.bias f4 [128]
0	0xbcf1ea7f	-0.029530762
1	0xbd0ec94f	-0.03485995
2	0x3d7745dc	0.060369357
3	0xbd5d8007	-0.054077175
4	0x3b49b1aa	0.0030776062
5	0x3d20e21e	0.039278142
6	0x3ca0dee4	0.019637533
7	0xbbd526d9	-0.006504875
8	0x3d45e66c	0.04831545
9	0x3c7d70a3	0.015468749
10	0x3d0c3628	0.034231335
11	0xbd11efbc	-0.03562902
12	0x3d057d21	0.032590035
13	0xbc38838a	-0.01126183
14	0x3c878c3c	0.016546361
15	0x3cee086e	0.029056754
16	0x3bbc96f7	0.005755301
17	0x3b417ef4	0.0029525133
18	0xbd1ca2e5	-0.038241286
19	0xbccf2970	-0.025288314
20	0xbcc3a058	-0.023880169
21	0x3d626146	0.05526855
22	0xbce48a98	-0.027898118
23	0x3b568e8f	0.003273878
24	0xbc4a0a72	-0.012331592
25	0x3d12c295	0.0358301
26	0x3ccce689	0.025012271
27	0x3c07c999	0.008287811
28	0x3c6771a6	0.014126217
29	0xbd3d3c23	-0.04619993
30	0x3bcad9ed	0.0061905296
31	0x3ba54c07	0.0050444636
32	0xbb83d0e1	-0.004022703
33	0xbbb41c0e	-0.0054965084
34	0xbd1b0c61	-0.037853602
35	0xba06cf0a	-0.00051425456
36	0xbd00f585	-0.031484146
37	0x3c369c2e	0.011145635
38	0x3b38effe	0.0028219218
39	0x3d18292b	0.037148636
40	0x3ccbcd8b	0.024878284
41	0x3ba6036f	0.0050663273
42	0xbd062a6f	-0.03275531
43	0xbc802d01	-0.01564646
44	0x3bcb0ce8	0.006196607
45	0x3cab1c00	0.020887375
46	0x3cb8c08f	0.022552757
47	0x3c07eb79	0.008295887
48	0x3d6d470a	0.057929076
49	0x3d1efd5e	0.03881585
50	0x3c9eff49	0.019408839
51	0x3c10b14d	0.008831334
52	0x3a97ebb7	0.0011590634
53	0xbc365c92	-0.011130469
54	0xbd2a0751	-0.041510884
55	0x3d409bc0	0.047023535
56	0x3bc306ec	0.005951753
57	0x3b043804	0.002017499
58	0x3d4bd5c4	0.04976441
59	0x3c3d3925	0.011549269
60	0x3cb5ec6f	0.022207467
61	0x3d6a0d87	0.057141807
62	0xbd12dc56	-0.03585466
63	0xbb64fc10	-0.003494028
64	0x3b5bf8ea	0.0033565112
65	0x3c156e13	0.009120482
66	0xbc6ec8e1	-0.01457426
67	0x3c8edc70	0.017439097
68	0x3cbca4d8	0.023027822
69	0x3cbc9d04	0.02302409
70	0x3a7d8f4f	0.0009672539
71	0x3d0574d2	0.03258211
72	0x3b39dbdc	0.0028359806
73	0xbc76dea9	-0.015067735
74	0x3d5cc26b	0.05389635
75	0x3cdb4a53	0.026768839
76	0xbb9a717b	-0.004713235
77	0xbd08aa84	-0.03336574
78	0x3b6c8a49	0.0036093167
79	0x3d2b0abc	0.041758284
80	0xbd0ba66f	-0.03409427
81	0x3bd90156	0.0066224737
82	0x3c33c3e4	0.010971997
83	0x3c97ccff	0.018530367
84	0xbb8b48e0	-0.0042506307
85	0xbba5ee9f	-0.0050638462
86	0x392854af	0.00016053276
87	0xbd7d11c4	-0.06178452
88	0x3c405716	0.011739513
89	0x3be80668	0.007080842
90	0xbcc9ebe6	-0.024648618
91	0x3c2f015e	0.010681478
92	0x3d2749d0	0.040841877
93	0x3c17df64	0.009269569
94	0xb8fb3c58	-0.000119798526
95	0xbb9741bb	-0.00461599
96	0x3d442571	0.04788727
97	0x3c73fb83	0.014891508
98	0x3d3d4fd0	0.046218693
99	0x38821292	6.202342e-05
100	0xbc4cdaa0	-0.012503296
101	0x3b303606	0.002688767
102	0xbb8c09ef	-0.004273645
103	0xbc217c21	-0.009856255
104	0xbc45ac92	-0.01206507
105	0xbd09fabe	-0.033686392
106	0xbc728443	-0.014802041
107	0x3c3b91cb	0.011448334
108	0xbd0ef615	-0.03490265
109	0x3c0d0313	0.00860669
110	0xbc665c82	-0.0140601415
111	0x3c9b34ef	0.01894614
112	0x3ad3f116	0.0016169872
113	0xbc244e0d	-0.010028374
114	0x3ac9d9c3	0.0015399981
115	0xbcf8bd94	-0.030363835
116	0x3d050c46	0.032482408
117	0x3b9854c2	0.004648776
118	0xbba29fdb	-0.004962904
119	0x3d3753a2	0.044757493
120	0xbcc52b89	-0.02406861
121	0x3d51fef5	0.051268537
122	0x3bddaed8	0.0067652278
123	0x3d85013a	0.064943746
124	0x3d37dc8e	0.04488807
125	0x3cc6eb74	0.024282195
126	0xbd16f07f	-0.03685045
127	0xbb762d90	-0.0037563778

actor.weight f4 [7, 128]
0	0x3c8ee002	0.0174408
1	0xbc747ddc	-0.014922585
2	0xbd8dc395	-0.0692207
3	0x3b415987	0.0029502825
4	0xbd154044	-0.03643824
5	0x3dcc77a9	0.09983761
6	0x3c31e4f9	0.010857814
7	0xbc242e0b	-0.010020743
8	0xbceca16a	-0.028885562
9	0x3d522ce1	0.05131233
10	0x3dd01e56	0.10162036
11	0x3cf0679a	0.029346276
12	0xbb19b9e0	-0.0023456737
13	0xbcfe0cbf	-0.031011937
14	0xbd9a71cf	-0.075412385
15	0x3db7c05b	0.08972236
16	0x3d14a486	0.036289714
17	0xbd99e4ef	-0.07514369
18	0xbd8a46d3	-0.0675179
19	0x3d36ed76	0.044660054
20	0xbd544661	-0.05182493
21	0xbd706875	-0.058693368
22	0x3d5112e5	0.05104341
23	0x3d71e824	0.059059277
24	0xbd284b79	-0.0410876
25	0x3bddb239	0.0067656306
26	0x3d299c1e	0.04140865
27	0xbca54208	-0.020173088
28	0x3d2c01d8	0.041993946
29	0xbcb26d31	-0.021780582
30	0x3b832ce9	0.0040031564
31	0xbc017cda	-0.007903302
32	0xbca9107a	-0.02063774
33	0xbd064b3e	-0.0327866
34	0xbcdc0c2e	-0.026861276
35	0xbe23a6ac	-0.15981549
36	0x3c9467a5	0.018115828
37	0x3d77a274	0.06045766
38	0x3db80616	0.08985536
39	0x3d99a836	0.07502787
40	0xbdb6316c	-0.08896145
41	0x3cdb587d	0.026775593
42	0x3d44ceaa	0.048048653
43	0x38bc0273	8.964995e-05
44	0xbc950fa1	-0.018195929
45	0x3bbe2b35	0.0058034905
46	0xbb01cd8f	-0.001980636
47	0x3da35001	0.07974244
48	0xbd858927	-0.065203
49	0x3d130250	0.035890877
50	0x3da2c3ba	0.07947488
51	0xbd9e1bb6	-0.07720129
52	0x3d4eccdf	0.05048835
53	0xba121735	-0.0005572916
54	0xbd384344	-0.044986024
55	0xbd201495	-0.03908213
56	0x3d45130b	0.048113864
57	0x3cf3235a	0.029679943
58	0xbd71dee9	-0.059050474
59	0xbbd299a7	-0.006427008
60	0x3dacaf67	0.08431893
61	0x3aaab601	0.0013024212
62	0xbd3ca775	-0.046058137
63	0xbcf3ac40	-0.029745221
64	0xbda69523	-0.08133914
65	0xbcb218ce	-0.021740343
66	0xbc9c3f43	-0.019073134
67	0x3daeee11	0.08541501
68	0xbd08956e	-0.033345632
69	0xbde30a1a	-0.11085911
70	0x3c9e5a5c	0.019330196
71	0xbdae476a	-0.08509715
72	0x3d19aa99	0.03751621
73	0xbd0f8198	-0.0350357
74	0xbd9a8260	-0.07544398
75	0x3c80d1a6	0.015724968
76	0x3d616bfb	0.05503462
77	0xbccd7f9d	-0.025085265
78	0xbd18a819	-0.037269685
79	0x3bedcc9e	0.0072570583
80	0xbca85011	-0.020545991
81	0x3de1ddad	0.110286094
82	0x3d7653a7	0.06013837
83	0xbd6b0a53	-0.057382893
84	0xbcb1e83b	-0.021717181
85	0x3d06ec85	0.032940406
86	0x3d6bdbc8	0.057582647
87	0x3d3de650	0.04636222
88	0xbc9bf77a	-0.019038904
89	0x3d0de97f	0.034646507
90	0xbcad9e4f	-0.021193651
91	0x3c303218	0.010754131
92	0x3ba92e4a	0.005162989
93	0x3d9d6ba6	0.07686548
94	0x3d16220d	0.036653567
95	0x3daac51b	0.08338376
96	0xbdad05f3	-0.084484
97	0x3d04e7d1	0.03244764
98	0xbdd29999	-0.10283203
99	0x3d584bc9	0.05280665
100	0x3daaab88	0.08333498
101	0xbda13bf6	-0.07872765
102	0xbd3ad8ba	-0.045616843
103	0xbdb95f07	-0.09051328
104	0xbd9f7db7	-0.0778765
105	0x3ca7041b	0.0203877
106	0xbd4fa4f6	-0.05069443
107	0x3da62226	0.08111982
108	0xbcef0370	-0.029176444
109	0xbd1338a2	-0.03594268
110	0x3da3ffcd	0.080077745
111	0x3d8a2dec	0.0674704
112	0x3d17e792	0.037086077
113	0x3d2dfb83	0.04247619
114	0x3d935b69	0.071951695
115	0x3cf48226	0.029847216
116	0x39f6bb89	0.000470605
117	0x3d9ebe4e	0.077511415
118	0xbd67605d	-0.056488384
119	0xbda30314	-0.079595715
120	0x3cc3a38c	0.023881696
121	0xbdfa0b59	-0.12209196
122	0x3bf1fbf8	0.0073847733
123	0xbd8bfcf1	-0.06835354
124	0x3cc2b3a7	0.023767306
125	0x3aad006f	0.0013198982
126	0x3cd3bf87	0.025848163
127	0x3d8cb299	0.06870002
128	0xbd4247c6	-0.04743173
129	0xbd527ab8	-0.051386565
130	0xbd97d8e4	-0.074144155
131	0x3df9a9e5	0.12190608
132	0x3da3c77c	0.07997033
133	0x3d9bc350	0.07605612
134	0x3b1221cb	0.0022297974
135	0xbd8a5084	-0.067536384
136	0xbda641c2	-0.08118011
137	0x3d94ace7	0.07259541
138	0xbd1e7315	-0.03868397
139	0xbd1ec6bd	-0.03876375
140	0x3d5dcf74	0.05415292
141	0xbd1092f8	-0.03529641
142	0x3d436d90	0.04771191
143	0x3d642a22	0.055704243
144	0x3c0f4166	0.00874362
145	0x3c941365	0.018075654
146	0xbc3b6dce	-0.011439754
147	0xbd809579	-0.0627851
148	0x3d477f50	0.0487054
149	0xbd3fecb9	-0.046856616
150	0x3d997072	0.0749215
151	0x3c8db515	0.01729826
152	0x3d573476	0.052540265
153	0xbd743d46	-0.059628747
154	0x3c634e22	0.013873609
155	0x3d27965f	0.04091489
156	0x3d48a711	0.048987452
157	0xbda1fdbd	-0.07909725
158	0x3d104754	0.035224274
159	0x3d634573	0.055486154
160	0xbd62470c	-0.055243537
161	0xbd895334	-0.06705323
162	0x3cd02307	0.025407327
163	0xbd200051	-0.0390628
164	0x3b94d937	0.0045424956
165	0x3d2374a6	0.039906166
166	0xbd1e3549	-0.038625035
167	0xbd947e63	-0.07250669
168	0xbd203180	-0.039109707
169	0xbd048955	-0.032357533
170	0xbcc88e6c	-0.024481975
171	0x3d832567	0.06403618
172	0xbdb20e90	-0.08694184
173	0x3d133f4d	0.03594904
174	0xbb966f57	-0.0045909095
175	0xbd876133	-0.06610336
176	0x3d96784e	0.07347165
177	0x3d267483	0.040638458
178	0xbd95af04	-0.07308772
179	0x3e1c4687	0.15261279
180	0x3ca591ef	0.020211188
181	0x3d51e99d	0.05124818
182	0x3d1a289c	0.037636384
183	0x3ddaf587	0.10691362
184	0x3d2bd404	0.04195024
185	0xbd8e9cfa	-0.06963535
186	0x3db800f3	0.08984556
187	0xbda39bcc	-0.079887
188	0xbd8fabe0	-0.070152044
189	0xbcb80d71	-0.022467347
190	0xbd218b15	-0.03943928
191	0x3da35915	0.079759754
192	0xbd6251c3	-0.055253755
193	0x3d897be0	0.067130804
194	0xbca31e8f	-0.019912032
195	0x3cb2e77f	0.021838902
196	0x3d1158ee	0.0354852
197	0xbe0d57d5	-0.13803037
198	0xbd3d7040	-0.046249628
199	0x3cbd8c2a	0.023138124
200	0x3c7419bd	0.014898715
201	0x3d280582	0.041020878
202	0xbd7cd7c7	-0.06172922
203	0xbd996a06	-0.074909255
204	0xbdada90e	-0.0847951
205	0x3d57c368	0.05267659
206	0xbca29d6e	-0.019850459
207	0x3db5055e	0.08838914
208	0xbdba77de	-0.09104894
209	0x3d54196b	0.051782053
210	0x3cbb452e	0.022860136
211	0xbd7bf33d	-0.061511267
212	0xbcbbac72	-0.022909377
213	0xbe429eb9	-0.1900586
214	0xbc6a71d1	-0.0143093625
215	0x3d5babaf	0.053630527
216	0xbb3c8c70	-0.002877023
217	0xba63ad75	-0.000868521
218	0x3ba26438	0.0049557947
219	0x3da87488	0.082253516
220	0x3da54001	0.080688484
221	0x3da2882b	0.07936128
222	0xbcea6c7d	-0.028616184
223	0xbd02d751	-0.031943623
224	0xbd007268	-0.031359106
225	0x3d494d3e	0.04914593
226	0xbd97021f	-0.073734514
227	0x3dad26f5	0.08454696
228	0xbd11b0b0	-0.035568893
229	0x3c5c4fc4	0.013446752
230	0xbcab0544	-0.020876534
231	0x3d0348a2	0.03205169
232	0xbd4790ee	-0.0487222
233	0xbcee6730	-0.029101938
234	0xbda44d12	-0.080225125
235	0x3c90af1a	0.01766162
236	0x3c3aab15	0.011393328
237	0x3b89f2c1	0.0042098467
238	0x3d8da54f	0.06916296
239	0x3dc8f270	0.09811866
240	0xbd41ce83	-0.047316086
241	0xbd6b1790	-0.057395518
242	0x3d1a3348	0.03764656
243	0x3d4f0e82	0.050550945
244	0x3d4d7cff	0.050168034
245	0xbc6e69b4	-0.014551569
246	0xbda0a0d2	-0.07843174
247	0x3dbf25a4	0.09333351
248	0xbb24e020	-0.0025158003
249	0xbc3b0a1e	-0.011415986
250	0x3d393d2b	0.04522435
251	0xbd0b1f58	-0.03396544
252	0x3d8caab9	0.068685
253	0xbd3319df	-0.043725844
254	0x3d83b0f0	0.064302325
255	0xbda9453b	-0.08265158

actor.bias f4 [7]
0	0xbdc60194	-0.0966827
1	0x3d3409fa	0.043954827
2	0x3dba0cb3	0.090844534
3	0x3d5a1bbb	0.053249102
4	0xbcb5a93b	-0.022175422
5	0xbd0660a6	-0.032807015
6	0xbd848fa5	-0.064727105

critic.weight f4 [1, 128]
0	0x3d8c04db	0.068368636
1	0x3d66dde4	0.056363955
2	0xbc9da638	-0.019244298
3	0x3d01d33e	0.031695597
4	0x3cfeb826	0.031093668
5	0xbd6902cc	-0.056887433
6	0xbd7c0de3	-0.06153668
7	0x3d914cce	0.070947275
8	0xbd9f27bc	-0.077712506
9	0xbb09aa96	-0.0021006218
10	0xbc767c0c	-0.0150442235
11	0x3dac52c6	0.08414225
12	0xbd2d682f	-0.042335685
13	0x3bc68356	0.006058137
14	0x3c838d21	0.016058506
15	0xbca26b22	-0.019826476
16	0xbd146df8	-0.036237687
17	0xbc871460	-0.016489208
18	0x3c82fa34	0.015988447
19	0xbb37a046	-0.0028019114
20	0x3d9d9c89	0.07695872
21	0xbd499527	-0.04921451
22	0xbbd24c89	-0.006417815
23	0xbc3e762e	-0.011624856
24	0x3d5fffab	0.054687183
25	0xbd4da297	-0.050203886
26	0xbda3f2cb	-0.080052935
27	0xbd441412	-0.047870703
28	0xbd74cb4b	-0.059764188
29	0x3cc486a6	0.023989987
30	0xbcb1f1f6	-0.021721821
31	0x3d72975c	0.05922638
32	0x3cd868f5	0.026417235
33	0xbd8f2281	-0.06989003
34	0x3c4ffc06	0.012694364
35	0xbbe889a9	-0.0070964885
36	0x3d1e839a	0.038699724
37	0x3d95c84a	0.07313593
38	0xbd187273	-0.037218522
39	0xbd46e40e	-0.048557334
40	0xbad78259	-0.0016442045
41	0xbd5239d4	-0.05132468
42	0x3d986a88	0.07442194
43	0x3d251ae2	0.04030884
44	0xbd2d210f	-0.042267855
45	0x3d892c2e	0.0669788
46	0xbc9427c8	-0.018085375
47	0xbcf2e28b	-0.02964904
48	0xbce870fc	-0.028374188
49	0xbd68a34c	-0.056796357
50	0xbcdf7cd5	-0.027281204
51	0xbc758d46	-0.0149872955
52	0xbd57b7e0	-0.05266559
53	0x3cc8cb79	0.024511086
54	0xbd1da746	-0.038489603
55	0xbd91200c	-0.070861906
56	0xbd254597	-0.04034957
57	0x3d3f95a5	0.04677357
58	0xbd26fc34	-0.040767863
59	0x3d883357	0.06650417
60	0x3c7cc808	0.015428551
61	0xbd93972e	-0.072065696
62	0x3ccd95ba	0.02509581
63	0x3ce4c5aa	0.027926285
64	0x3cbf77a2	0.023372475
65	0x3d8d4b00	0.06899071
66	0xbd7ee7f2	-0.06223292
67	0x3d486d85	0.04893257
68	0x3d1b187d	0.03786515
69	0xbc4e948c	-0.0126086585
70	0xbd841e87	-0.06451135
71	0x3ca31202	0.019906048
72	0xbd8f0f9a	-0.06985398
73	0x3d82974b	0.06376513
74	0xbd9d0fd6	-0.07669036
75	0x3d5b6324	0.053561345
76	0xbda89948	-0.08232361
77	0x3c5c098b	0.01343001
78	0x3da450ef	0.08023249
79	0xbccb405c	-0.024810962
80	0x3cbcafd4	0.02303306
81	0x3d3c3787	0.045951393
82	0x3dac03a9	0.083991356
83	0xbc57be56	-0.013167938
84	0x3cd16e7c	0.025565378
85	0xbc2df0bc	-0.010616478
86	0x3d503fab	0.05084197
87	0x3d38954f	0.045064267
88	0x3b26d356	0.0025455556
89	0xbd8285fc	-0.06373212
90	0x3d9c46be	0.076306805
91	0xbd7f43b3	-0.062320422
92	0xbcb192a6	-0.021676373
93	0xbc23f1c8	-0.010006376
94	0xbd1f6cf0	-0.03892225
95	0x3d0682a0	0.032839417
96	0xbd9d7bd2	-0.076896325
97	0x3c5a2bbd	0.013316092
98	0xbcb3911f	-0.021919785
99	0xbc9685eb	-0.018374404
100	0x3d799c0b	0.06093983
101	0x3c9a99a6	0.018872093
102	0x3d7f225b	0.062288623
103	0x3b171e02	0.0023058658
104	0x3d80f98d	0.06297598
105	0x3b32a2d2	0.0027257693
106	0xbd88664a	-0.06660135
107	0xbd1b46d1	-0.037909333
108	0x3cd627e5	0.02614207
109	0x3d41fb5f	0.047358867
110	0x3c8b1166	0.01697607
111	0xbd0c32cb	-0.034228127
112	0xbd853662	-0.06504513
113	0x3d4ec4bf	0.0504806
114	0x3b1c74f7	0.0023873427
115	0x3d939f5c	0.0720813
116	0xbd889f26	-0.0667098
117	0x3d448e2e	0.047987156
118	0x3d9539df	0.07286429
119	0xbd2532da	-0.0403317
120	0x3d719b7e	0.05898618
121	0xbc53b139	-0.012920671
122	0xbd845701	-0.06461907
123	0xbd4edadd	-0.050501693
124	0xbccf0884	-0.025272615
125	0xbd7587d5	-0.059943993
126	0x3cc5aedd	0.024131233
127	0xbd2c4909	-0.04206184
