trained_models/PPO/ppo_connect4_model_1e.pt (torch, 537724 bytes, 9 tensors)

conv1.weight f4 [64, 1, 4, 4]
0	0x3d77b442	0.06047464
1	0xbd237484	-0.03990604
2	0xbd7a7624	-0.061147824
3	0xbda7f22f	-0.0820049
4	0xbe105cde	-0.14097926
5	0x3da1e5be	0.07905148
6	0x3e068687	0.13137256
7	0xbcd87d40	-0.026426911
8	0xbe59df6c	-0.21276635
9	0x3ec643d6	0.3872363
10	0xbe321771	-0.17391755
11	0xbcb2ddc2	-0.021834258
12	0xbe9924cb	-0.29910883
13	0x3d535e79	0.051603768
14	0x3d905e96	0.07049291
15	0x3e0a50b6	0.13507351
16	0xbd2d3b46	-0.042292856
17	0x3cc95edb	0.024581363
18	0xbdbda838	-0.09260601
19	0xbe7fa643	-0.24965768
20	0x3d7a28fb	0.06107424
21	0xbe48bf74	-0.19604284
22	0xbd660f01	-0.056166653
23	0xbd6d9cb8	-0.058010787
24	0x3dc8d504	0.098062545
25	0xbe8c6986	-0.27424258
26	0x3cab00b8	0.020874366
27	0x3df563d0	0.11981928
28	0x3eab019e	0.3339967
29	0xbdbc913f	-0.09207391
30	0xbdd11e73	-0.10210886
31	0x3e3013d5	0.17195065
32	0x3e49fc7c	0.19725221
33	0xbe724283	-0.23658185
34	0x3d529bd7	0.05141815
35	0x3dc4047a	0.09571166
36	0xbe313ba5	-0.17307909
37	0xbe23af28	-0.15984786
38	0xbe39642b	-0.18104617
39	0xbe96c940	-0.29450417
40	0x3dbd517a	0.09244056
41	0x3e3136c5	0.17306049
42	0x3dfb6ce4	0.122766286
43	0x3e8259eb	0.25459227
44	0x3eb771ef	0.35829112
45	0xbe9887fa	-0.29791242
46	0xbe00f0fc	-0.12591928
47	0x3ca0bd9f	0.019621668
48	0xbd7cb9dd	-0.06170069
49	0x3cefbccd	0.029264832
50	0xbe19f9ea	-0.15036741
51	0xbc104216	-0.008804819
52	0x3d3aa14a	0.045563973
53	0xbc67a21b	-0.01413777
54	0xbebf64ba	-0.37381536
55	0xbe2b6b23	-0.16740088
56	0x3e2fc8b3	0.17166404
57	0x3e30624b	0.17224996
58	0xbebfefb1	-0.37487558
59	0x3e56273c	0.20913404
60	0xbe6bd704	-0.2303124
61	0x3d08ed92	0.03342969
62	0x3dbb4214	0.09143463
63	0x3e8a870f	0.27056167
64	0xbdf1e359	-0.11810941
65	0x3ea0198d	0.31269494
66	0xbd3f7ce8	-0.04674998
67	0xbe8fb434	-0.28067172
68	0xbe38bfed	-0.18041964
69	0x3db6098e	0.08888541
70	0xbdd5b25e	-0.104344115
71	0xbda88c65	-0.08229903
72	0x3e3fe41a	0.18739358
73	0xbc5ae374	-0.013359893
74	0xbe902847	-0.2815573
75	0x3e151468	0.14558566
76	0x3e961867	0.29315493
77	0x3e85253e	0.26004976
78	0xbe61a30f	-0.22034858
79	0xbe8816ef	-0.26579997
80	0x3e109f72	0.14123324
81	0xbdb27b6d	-0.08714948
82	0x3e8a77f7	0.2704465
83	0xbe427131	-0.18988492
84	0xbe058607	-0.13039409
85	0xbe19fb3c	-0.15037245
86	0x3e19bd05	0.15013511
87	0x3e83c32c	0.25734842
88	0x3e46b640	0.1940546
89	0x3c82c7d0	0.015964419
90	0xbe656b3a	-0.22404185
91	0xbdd3108d	-0.10305891
92	0x3de9843e	0.11402176
93	0x3e4ef221	0.20209552
94	0xbd80a8f0	-0.06282222
95	0xbe7a705e	-0.24456927
96	0xbe23e0a1	-0.16003658
97	0xbd6e6691	-0.058203284
98	0xbdc86a65	-0.09785918
99	0xbe293bf5	-0.16526778
100	0x3e78e810	0.24307275
101	0x3eb7deb0	0.35912085
102	0x3ca6f39b	0.020379832
103	0x3d77760c	0.060415313
104	0x3c4528ad	0.012033624
105	0x3c698379	0.014252537
106	0xbd961c88	-0.07329661
107	0x3cbb1a36	0.022839647
108	0xbe4377bc	-0.19088644
109	0xbe202f91	-0.15643145
110	0xbd7e0301	-0.062014583
111	0xbd2227b0	-0.03958863
112	0x3e376c04	0.17912298
113	0x3cb07e89	0.021544712
114	0xbdd8c327	-0.10584097
115	0x3ce70c9e	0.028204259
116	0xbd1f1cd6	-0.03884586
117	0xbe466285	-0.1937352
118	0x3de1ffcc	0.110351175
119	0x3e8208ef	0.2539744
120	0xbe20faa5	-0.15720613
121	0x3e861ff3	0.2619625
122	0x3d3648db	0.044503074
123	0x3dc1fba0	0.09471822
124	0x3daeffda	0.085448936
125	0xbe89908e	-0.268681
126	0xbd711330	-0.05885619
127	0xbe030cb0	-0.12797809
128	0x3d9944c2	0.07483818
129	0xbcd5b944	-0.026089318
130	0x3e5f7c98	0.21824872
131	0xbd93d22f	-0.07217824
132	0x3c9d9ce1	0.019239845
133	0xbe6ab6a6	-0.22921237
134	0xbe37ae76	-0.17937645
135	0xbdf417b5	-0.11918584
136	0xbecb580d	-0.39715615
137	0xbe8f4fe6	-0.27990645
138	0xbe4d9a04	-0.20078284
139	0xbe652c58	-0.22380197
140	0x3dcaa7ea	0.09895308
141	0x3cee20ca	0.02906837
142	0x3de8f377	0.11374562
143	0x3e809734	0.2511536
144	0x3e81d2f7	0.25356266
145	0x3e4d18e8	0.20029032
146	0x3e67392d	0.22580405
147	0x3e8dab7f	0.27669904
148	0x3da28208	0.07934958
149	0x3d9f0fde	0.07766698
150	0xbd3569ba	-0.04429028
151	0x3df4e254	0.11957231
152	0x3da7cb82	0.08193113
153	0xbdb9460c	-0.090465635
154	0xbca285f9	-0.019839274
155	0x3c9e2d84	0.019308813
156	0x3e2a586c	0.16635293
157	0xbd513fca	-0.051086225
158	0x3e1fc746	0.1560336
159	0xbe1e80a1	-0.15478756
160	0x3d5bd539	0.05367014
161	0x3d600960	0.05469644
162	0x3cac5a4c	0.02103915
163	0xbc57315e	-0.013134329
164	0x3e816370	0.25271177
165	0xbe0c831f	-0.13721894
166	0x3e1842cd	0.14869232
167	0x3e411448	0.18855393
168	0xbe0c29cb	-0.13687818
169	0x3e9c5a02	0.3053742
170	0x3e08d43c	0.13362211
171	0xbbda710c	-0.0066663083
172	0x3e168d9f	0.14702462
173	0xbe2ff674	-0.17183858
174	0x3dd5646c	0.104195446
175	0xbe016b2e	-0.12638542
176	0x3e558e82	0.20855144
177	0xbe384a12	-0.17997006
178	0xbd083650	-0.03325492
179	0xbe5d741c	-0.21626323
180	0x3e5b0c53	0.2139142
181	0x3cc1a725	0.023639271
182	0x3dcbbd9f	0.09948277
183	0x3e6b43ed	0.2297513
184	0xbd902f25	-0.07040242
185	0xbe941229	-0.28920105
186	0x3e588d38	0.2114762
187	0xbe1c3f9a	-0.15258637
188	0x3ef61e89	0.4807017
189	0xbe6c077a	-0.23049727
190	0xbe5e0e86	-0.21685228
191	0xbdff2296	-0.124577686
192	0xbe95294b	-0.29133067
193	0x3e5a31f9	0.21308126
194	0xbdb2c1a3	-0.087283395
195	0xbc6aef4d	-0.01433928
196	0xbdc137a3	-0.0943444
197	0xbda1a38d	-0.07892523
198	0x3d75159a	0.059835054
199	0xbd59e6ba	-0.053198554
200	0xbd09d5d6	-0.033651195
201	0xbdaf7558	-0.085673034
202	0xbce38195	-0.02777175
203	0x3e1d68ca	0.15372005
204	0x3d4242c9	0.047426973
205	0xbc17beb6	-0.009261778
206	0x3e9b36e7	0.30315325
207	0x3ea5c98c	0.3238033
208	0xbe87037c	-0.26369846
209	0x3d6cfe86	0.05785992
210	0xbdb36d4a	-0.087610796
211	0x3d49a676	0.049231015
212	0xbeb9d202	-0.36293036
213	0xbdebe6d6	-0.11518638
214	0x3e5ea6a8	0.21743262
215	0x3dce9c69	0.100884266
216	0xbddd346e	-0.10801016
217	0x3d5e894d	0.05433016
218	0x3d5b0af6	0.05347725
219	0x3e42c172	0.19019106
220	0xbdb4927b	-0.088170014
221	0xbdeb248f	-0.114815824
222	0x3dd8c084	0.105835944
223	0xbd23b382	-0.039966114
224	0x3e7b6b0a	0.24552551
225	0x3d47d9d8	0.048791736
226	0xbe3a112b	-0.18170612
227	0x3ea6742a	0.325105
228	0x3d7905ff	0.060796734
229	0xbd0e949f	-0.034809705
230	0xbc52c5de	-0.012864558
231	0x3e4184f1	0.1889837
232	0x3dbb3f39	0.09142918
233	0x3e9b42cc	0.303244
234	0xbe7a5d39	-0.24449624
235	0xbd6916ac	-0.056906387
236	0xbe605f05	-0.21911247
237	0xbd375bfe	-0.044765465
238	0xbd30eb3b	-0.043193083
239	0x3e69a688	0.22817433
240	0x3e741eb1	0.23839833
241	0xbe3647f1	-0.17800881
242	0x3e6e6a61	0.23282768
243	0x3de9686a	0.113968685
244	0xbde7ed7c	-0.113245934
245	0x3e535d9b	0.20641176
246	0x3e46d421	0.19416858
247	0x3dde4c30	0.10854375
248	0xbcd4ffdb	-0.026000908
249	0x3dcb3348	0.099218905
250	0x3e4b1e61	0.19835807
251	0x3e2eac9a	0.1705803
252	0x3d92d36f	0.07169234
253	0x3e399bfe	0.18125913
254	0x3e4e8605	0.20168312
255	0xbe02d666	-0.12777099

conv1.bias f4 [64]
0	0x3dd60027	0.10449248
1	0xbd3bd2b0	-0.045855224
2	0x3d873abe	0.06603001
3	0x3de86a95	0.11348454
4	0x3e26950e	0.16267797
5	0xbd1b0781	-0.037848953
6	0xba3b0ba2	-0.00071352173
7	0x3d17995f	0.0370115
8	0x3e025e15	0.12731202
9	0xbdb63a32	-0.088978186
10	0xbe20491b	-0.15652888
11	0xbc22ef3a	-0.009944731
12	0xbe5c7f50	-0.21532941
13	0x3e5be89c	0.21475452
14	0x3d74740b	0.05968098
15	0xbe133017	-0.14373814
16	0xbdbe7a4b	-0.09300669
17	0x3dad0a14	0.08449188
18	0x3df53c23	0.11974361
19	0xbe24be16	-0.16088137
20	0x3d39d811	0.045372073
21	0x3e7efb11	0.24900462
22	0x3e21ac83	0.15788464
23	0x3bed3b1a	0.0072397115
24	0x3ddcd198	0.10782164
25	0xbe240aef	-0.16019796
26	0xbdfa6e3e	-0.12228058
27	0xbd9e5756	-0.07731502
28	0x3dc4870b	0.0959607
29	0x3e60ad2a	0.21941057
30	0x3d918086	0.07104592
31	0x3e3a55ea	0.18196836
32	0xbd9515de	-0.072795615
33	0xbe3da91b	-0.1852154
34	0x3df045b7	0.11732047
35	0xbdaa0ea0	-0.08303571
36	0xbe84f652	-0.25969177
37	0xbcc43d2b	-0.023954948
38	0x3e4b578a	0.19857612
39	0xbdf59e88	-0.11993128
40	0x3da21ee8	0.07916051
41	0xbd8673a2	-0.06565024
42	0x3e491cdc	0.19639915
43	0x3e86e195	0.2634398
44	0xbd51208d	-0.051056433
45	0xbe3d464b	-0.18483846
46	0x3cd1c42c	0.025606237
47	0x3c6f07a0	0.01458922
48	0x3e75ebaa	0.2401568
49	0x3d374601	0.044744495
50	0xbe23663c	-0.15956968
51	0xbb7651eb	-0.0037585448
52	0xbdd00059	-0.10156316
53	0xbdd43cb3	-0.1036314
54	0xbc90687a	-0.017627943
55	0x3c86e813	0.016468083
56	0xbdc417ff	-0.095748894
57	0x3d376805	0.044776935
58	0x3e7683cd	0.24073716
59	0x3d4195b9	0.047261927
60	0x3dc0f8b1	0.09422434
61	0xbd9bdf75	-0.076109804
62	0xbdf1363f	-0.11777925
63	0x3d673356	0.056445442

conv2.weight f4 [128, 64, 2, 2]
0	0x3c731dae	0.014838619
1	0x3bf5b4a9	0.007498343
2	0xbd6ba24b	-0.05752782
3	0xbd888634	-0.06666222
4	0xbd89cfe7	-0.06729107
5	0xbcd8f411	-0.026483567
6	0xbd1d5963	-0.038415324
7	0xbb8952ea	-0.0041907923
8	0x3d0be49f	0.034153577
9	0xbb65c9e9	-0.0035062975
10	0xbd8d5ace	-0.06902085
11	0xbace17b4	-0.0015723617
12	0xbd93095f	-0.07179522
13	0xbd3c0383	-0.045901787
14	0xbd9167dc	-0.07099888
15	0xbd3d95ae	-0.046285324
16	0xbc8e4ae7	-0.0173697
17	0xbd76c998	-0.06025085
18	0xbd635f83	-0.05551101
19	0xbd30c7cd	-0.043159295
20	0xbd1ea1ed	-0.038728643
21	0x3ad95bbb	0.0016583124
22	0xbd1d6920	-0.038430333
23	0x3d88683f	0.06660508
24	0xbd80138d	-0.06253729
25	0xbda77d97	-0.08178251
26	0x3c93b8a1	0.018032374
27	0xbc2980de	-0.010345666
28	0xbce69b4f	-0.028150229
29	0xbc89e10e	-0.016830947
30	0xbd3c2caf	-0.04594105
31	0x3cad51ae	0.021157112
32	0xbd38f379	-0.04515407
33	0xbd0af1fa	-0.033922173
34	0x3c71eee9	0.014766433
35	0xbdb3763c	-0.08762786
36	0x3d3bb7b7	0.0458295
37	0xbc7385e4	-0.014863465
38	0xbd119f2c	-0.03555219
39	0x3cb79889	0.022411602
40	0x3c72b0f3	0.014812696
41	0xbcb4d2e5	-0.022073219
42	0x3d1766d5	0.036963303
43	0x3c84658c	0.016161703
44	0xbd7b082a	-0.061287083
45	0xbd5bf85a	-0.053703643
46	0xbd14638c	-0.036227748
47	0xbb13d728	-0.0022558663
48	0x3d2ea2fc	0.042635903
49	0xbd8b7ade	-0.068105444
50	0x3b81a611	0.0039565642
51	0xbd9529c7	-0.07283359
52	0x3bece015	0.007228861
53	0xbcbeaca1	-0.023275675
54	0xba832b48	-0.0010007406
55	0xbd0995f1	-0.03359026
56	0x3ca573a2	0.02019674
57	0xbd6b414a	-0.05743531
58	0xbcf870b0	-0.030327171
59	0x3c9db233	0.019250011
60	0x3c943533	0.018091774
61	0x3cd2c15c	0.025726967
62	0xbd2cc689	-0.042181525
63	0xbc444b68	-0.011980869
64	0x3cae0d86	0.021246683
65	0xbd68df97	-0.056853857
66	0x3d7f91b9	0.06239483
67	0x3c09ba6f	0.008406266
68	0xbd50c9b0	-0.050973594
69	0xbc5896a6	-0.013219511
70	0xbd64dc70	-0.055874288
71	0xbd201a21	-0.03908742
72	0x3cdded02	0.027090553
73	0xbcbad8ff	-0.02280855
74	0x3d05972a	0.032614864
75	0x3d6b570f	0.057456072
76	0x3cbe48cf	0.023228077
77	0xbdcd8592	-0.10035242
78	0xbbce4981	-0.0062953834
79	0xbd1488c6	-0.03626325
80	0x3c7ae055	0.015312274
81	0x3d66f2e2	0.056383975
82	0xbcaacd22	-0.020849768
83	0xbda67303	-0.081274055
84	0x3d1528c7	0.03641584
85	0x3b3557f1	0.0027670825
86	0xbbed7349	-0.007246409
87	0xbd89f740	-0.06736612
88	0x3d4d4fe1	0.050125007
89	0x3ccc01e9	0.024903255
90	0xbda3f204	-0.08005145
91	0xbda2b921	-0.07945467
92	0xbd6fe371	-0.058566514
93	0xbd919497	-0.071084194
94	0x3d35839c	0.044314966
95	0xbc7ba890	-0.015360013
96	0xbd637530	-0.05553168
97	0x3cd25c9d	0.025678927
98	0xbce4a25c	-0.02790945
99	0x3cac8b31	0.021062465
100	0xbb494945	-0.0030713838
101	0x3cc127f9	0.02357863
102	0x3d3fb146	0.04679992
103	0xbd707115	-0.058701593
104	0xbd4672cc	-0.048449323
105	0xbd849b88	-0.06474978
106	0xbcfce6e1	-0.03087181
107	0x3c206e29	0.009791889
108	0x3d8ce2bf	0.06879186
109	0x3cab99fc	0.020947449
110	0x3d6650ce	0.056229405
111	0xbabaf073	-0.0014262333
112	0x3d15c7ef	0.036567625
113	0xbbacfd7d	-0.0052792416
114	0xbc09730d	-0.008389247
115	0xbd438da2	-0.047742493
116	0x3b0ff676	0.002196697
117	0xbc284b6c	-0.010271888
118	0xbda580ad	-0.080811836
119	0x3d210ee2	0.039320834
120	0x3d611a5a	0.05495677
121	0xbd5540a2	-0.05206359
122	0xbd618ee8	-0.055067927
123	0x3be66560	0.007031128
124	0x3b89ed06	0.0042091636
125	0xbd868a6f	-0.06569373
126	0x3cd37d6a	0.025816638
127	0x3ccb3f13	0.02481035
128	0x3c5ceb76	0.013483873
129	0x3cb312f5	0.021859625
130	0xbd63b2d6	-0.055590473
131	0xbd3a8543	-0.045537245
132	0xbd84ae5e	-0.064785704
133	0xbca09308	-0.01960136
134	0xbc9bbc77	-0.019010765
135	0xbca9f902	-0.020748619
136	0xbc655128	-0.0139964
137	0x3b50e051	0.0031871984
138	0xbd31729a	-0.043322183
139	0xbd8d1103	-0.0688801
140	0x3c2191c5	0.009861414
141	0xbd50a7ae	-0.05094116
142	0xbce767f3	-0.028247809
143	0x3b62ca43	0.003460542
144	0xbb8441d7	-0.004036169
145	0xbc08e5dd	-0.008355585
146	0xbc81e97d	-0.015858406
147	0xbd141517	-0.036152925
148	0xbc075e66	-0.008262252
149	0xbd37ac23	-0.044841897
150	0x3c691a80	0.0142275095
151	0x3c698481	0.014252783
152	0x3c3e9567	0.0116323
153	0x3d24ab8b	0.04020266
154	0xbd833d27	-0.06408148
155	0xbc610115	-0.013733168
156	0xbd39aa37	-0.045328345
157	0xbda4abc5	-0.08040575
158	0xbdb64f35	-0.08901826
159	0xbd1fac78	-0.03898284
160	0xbd15e211	-0.036592547
161	0x3ca20e1e	0.019782122
162	0x3d5fb4f5	0.054615933
163	0xbd06cdc2	-0.03291107
164	0xbd28181e	-0.041038625
165	0x3d247052	0.04014618
166	0x3bcf0cb8	0.006318655
167	0xbca6d723	-0.020366257
168	0x3cb32ef1	0.02187297
169	0xbc73b40a	-0.014874468
170	0xbcfea2a5	-0.031083414
171	0xbccb399a	-0.02480774
172	0xbbf28522	-0.0074011246
173	0xbd85dc8f	-0.06536209
174	0xbc90601e	-0.017623957
175	0x3b8e8d2b	0.0043503246
176	0xbd33cdc7	-0.043897416
177	0x3d116ba6	0.035503052
178	0x3ce45ab7	0.027875287
179	0x3d8d8066	0.06909256
180	0xbd1e0dd5	-0.03858741
181	0xbdb2e896	-0.087357685
182	0x3d231f4c	0.03982477
183	0xbd81e6ac	-0.06342825
184	0xbd3ceac9	-0.046122346
185	0xbd9b8f0b	-0.07595643
186	0x3cb7eb63	0.022451108
187	0xbd5da2bf	-0.054110285
188	0xbdc2162f	-0.094768874
189	0xbd0d56d1	-0.034506623
190	0xbd4f7540	-0.050648928
191	0xbd80dce5	-0.06292132
192	0xbca0d158	-0.019631073
193	0xbd60b973	-0.05486436
194	0x3bf870ac	0.007581791
195	0xbbb70d43	-0.0055862977
196	0x3c488a85	0.012240057
197	0xbdc378b8	-0.0954451
198	0xbd55a6f3	-0.05216117
199	0xbd8283d1	-0.06372798
200	0xbd5aaf8a	-0.053390063
201	0x3c9b2f37	0.018943412
202	0xbd8fa8a8	-0.070145905
203	0x3d77b75f	0.06047761
204	0xbd30bb2c	-0.04314725
205	0x3d89a3fc	0.06720731
206	0xbd611af3	-0.05495734
207	0xbc9875bb	-0.018610826
208	0xbd13a83e	-0.03604912
209	0xbd808721	-0.06275774
210	0x3cb18acc	0.021672629
211	0xbd04ec27	-0.032451775
212	0xbc8974cb	-0.016779324
213	0xbd4c84e1	-0.04993141
214	0xbc2bcd11	-0.010485903
215	0x3afaef61	0.0019144827
216	0x3d5b7cf2	0.053585954
217	0xbca109a5	-0.01965792
218	0xbd5bbaba	-0.053644873
219	0xbd7240df	-0.059143897
220	0x3d8ce07e	0.06878756
221	0x3d3b0b30	0.045664966
222	0x3c47ae56	0.012187561
223	0x3ca9ce06	0.020728122
224	0xbcaa4a52	-0.020787392
225	0xbcb20a75	-0.021733502
226	0x3d2ffe70	0.04296726
227	0xbd0663c1	-0.032809976
228	0xbd846c18	-0.0646593
229	0xbcf49cc7	-0.029859914
230	0x3c360b90	0.011111155
231	0x3cd5e8c9	0.026111977
232	0xbda23daa	-0.07921918
233	0xbd4c026e	-0.049807005
234	0xbd05a5bb	-0.032628756
235	0x3bdd959c	0.0067622196
236	0x3d6ce3ab	0.05783431
237	0xbd8fa3ab	-0.07013639
238	0xbd8b258b	-0.0679427
239	0xbc59d8e6	-0.0132963415
240	0x3d2fc05c	0.042908058
241	0x3d21e106	0.03952124
242	0xbd8c1881	-0.06840611
243	0x3cebed58	0.028799698
244	0x3c2869e3	0.010279152
245	0x3c0cfd60	0.008605331
246	0xbce05515	-0.02738432
247	0x3d4dd5d6	0.050252758
248	0xbc236370	-0.009972438
249	0x3d889c6a	0.066704586
250	0x3c2da1b2	0.010597633
251	0x3abf1761	0.0014579111
252	0xbdc46a89	-0.095906325
253	0xbcab9ac8	-0.020947829
254	0xbd582552	-0.052769966
255	0x3d5b6ff1	0.053573553

conv2.bias f4 [128]
0	0x3c6dcfc0	0.0145148635
1	0x3cf49d3a	0.029860128
2	0xbd061372	-0.03273339
3	0xbcd734df	-0.026270328
4	0x3da86892	0.0822307
5	0xbd813dcc	-0.06310615
6	0xbcf4c1de	-0.0298776
7	0xbd3d1611	-0.046163622
8	0xbcef21bb	-0.029190889
9	0x3d72dfed	0.059295584
10	0xbc9b5b30	-0.01896438
11	0x3da463e3	0.080268644
12	0x3d084f32	0.03327865
13	0xbd5d380f	-0.05400854
14	0xbca6ce93	-0.020362174
15	0xbcaa43a1	-0.020784201
16	0x3d746356	0.059665047
17	0xbcf0464b	-0.029330393
18	0x3a27c070	0.000639922
19	0x3cf0e5ca	0.029406447
20	0x3c5c21bc	0.013435777
21	0x3bc9efda	0.0061626257
22	0x3cbbe257	0.022935076
23	0x3d69ea7a	0.05710838
24	0xbd55093e	-0.052010767
25	0xbc117c63	-0.008879754
26	0x3c790340	0.015198529
27	0x3d503737	0.050833907
28	0xbcc08891	-0.02350262
29	0xbd00e198	-0.031465143
30	0x3d268116	0.04065045
31	0xbd68b1b3	-0.056810092
32	0x3b3d4b15	0.0028883864
33	0xbd8c9d32	-0.0686592
34	0xba50bb9d	-0.0007962527
35	0xbd603535	-0.054738242
36	0x3c7bf995	0.015379329
37	0xbd467e1c	-0.04846011
38	0x3d2ee018	0.04269418
39	0x3d2ed553	0.04268391
40	0xbd861d29	-0.065485306
41	0x3dadf868	0.08494645
42	0x3db00925	0.08595494
43	0xbd686985	-0.056741256
44	0xbd857379	-0.06516165
45	0xbd887c56	-0.0666434
46	0xba6a0941	-0.00089277705
47	0x3d91298c	0.070880026
48	0x3cad4796	0.021152299
49	0x3ce11c1d	0.027479226
50	0x3d17b5f8	0.037038773
51	0x3a9de7c2	0.0012047219
52	0x3d40910c	0.047013327
53	0xbd1e9847	-0.03871944
54	0xbd982089	-0.074280806
55	0xbd12d826	-0.035850666
56	0xbc3f79ac	-0.011686724
57	0xbd950166	-0.07275657
58	0xbc1420f1	-0.009041057
59	0xbcc91b73	-0.024549222
60	0xbd1d2908	-0.03836921
61	0xbbb6d5ae	-0.005579672
62	0xbd4a8063	-0.049438845
63	0x3cc639f4	0.024197556
64	0xbce3abdc	-0.02779191
65	0xbbde67b6	-0.0067872657
66	0x3d4cf70f	0.0500403
67	0xbd96bd76	-0.073603556
68	0xbd512d19	-0.0510684
69	0x3ddb6cba	0.10714097
70	0xbda03a8f	-0.07823669
71	0xbd818eab	-0.0632604
72	0x3dc45529	0.095865555
73	0x3e044783	0.12917905
74	0xbd701615	-0.05861481
75	0xbb69ddc2	-0.0035685156
76	0xbd913c9e	-0.0709164
77	0xbcaeefb3	-0.021354532
78	0x3c82894f	0.015934614
79	0xbd3f8f67	-0.04676762
80	0x3d8bb6e5	0.06821994
81	0xbd0ff0dd	-0.035141815
82	0x3d3342f1	0.043765012
83	0xbcf26faf	-0.02959427
84	0x3d0e63e5	0.034763236
85	0xbdae43cc	-0.08509025
86	0xbd056e32	-0.032575794
87	0x3cbe7f53	0.023254072
88	0xbb38970e	-0.0028166207
89	0xbd5f1bb1	-0.054469768
90	0xbd49c090	-0.049255908
91	0x3d313bf2	0.04327006
92	0x3d43bd5b	0.047788005
93	0x3c4535e9	0.012036779
94	0xbd127efb	-0.03576563
95	0xbce4017f	-0.027832745
96	0xbd48c0d9	-0.04901204
97	0x3ce1f732	0.027583692
98	0x3c7321b2	0.014839577
99	0xbc448707	-0.011995084
100	0xbd2aa8c1	-0.041664843
101	0xbcd139c0	-0.025540233
102	0xbb3059e9	-0.002690906
103	0xbd8346bd	-0.06409977
104	0x3d53ceb5	0.051710803
105	0xbd771d88	-0.060330898
106	0x3c9068bc	0.017628066
107	0xbd5e05ca	-0.05420474
108	0x3d770ee0	0.06031692
109	0xbc032f65	-0.008006905
110	0xbd05fdb8	-0.03271267
111	0x3d3775b3	0.04478998
112	0xb9984afd	-0.0002904757
113	0x3d538cb0	0.051647842
114	0x3d1aad8b	0.03776316
115	0xbd6fefb4	-0.058578208
116	0x3b8dddef	0.004329435
117	0x3ccaedfa	0.02477168
118	0x3c810cb4	0.015753128
119	0xbd48b59f	-0.049001332
120	0xbd927b7c	-0.07152459
121	0xbd37d8ef	-0.04488462
122	0x3c6e1e71	0.014533625
123	0x3cdafcca	0.026731867
124	0xbd2732d6	-0.040819965
125	0x3b130851	0.0022435377
126	0xbc8f5a74	-0.017499186
127	0x3d0c8294	0.034304217

fc_shared.weight f4 [128, 768]
0	0xbc914606	-0.017733585
1	0xbca45c5a	-0.020063568
2	0xbc798412	-0.015229242
3	0xbd5ffbda	-0.054683544
4	0xbd26de59	-0.04073939
5	0xbc9eb513	-0.019373452
6	0x3c60858a	0.013703713
7	0xbda55a33	-0.08073845
8	0xbc16f939	-0.009214693
9	0xbda95a72	-0.08269204
10	0xbb87fb21	-0.00414981
11	0x39d2a51d	0.0004017734
12	0x3cc9bdfe	0.024626728
13	0xba1efdfa	-0.0006065067
14	0xbe0277b5	-0.12740977
15	0xbdbbb62e	-0.091656074
16	0x3d08804f	0.03332549
17	0xbd1489a6	-0.036264084
18	0xbaa4316e	-0.0012526938
19	0x3d11679e	0.035499208
20	0x3db183a7	0.08667689
21	0x3c98a7bb	0.018634668
22	0x3ce08894	0.027408876
23	0x3c890aa4	0.016728707
24	0x3d3ed782	0.046592243
25	0x3d056a54	0.032572106
26	0x3bc736e6	0.0060795425
27	0x3d3537c7	0.044242647
28	0x3c012f71	0.007884846
29	0x3d47ec6a	0.048809446
30	0xbd0c13a2	-0.03419841
31	0xbd41314c	-0.047166154
32	0x3d38c0e0	0.045105815
33	0xbd6e54ea	-0.05818645
34	0xbd9c6f40	-0.07638407
35	0xbc536a58	-0.012903772
36	0x3d93735c	0.071997374
37	0xbc07fd1d	-0.008300093
38	0x3da8fc2c	0.08251223
39	0xbc80b7fe	-0.015712734
40	0xbb86e55a	-0.0041166963
41	0x3bc7bb43	0.0060953214
42	0xbd496816	-0.04917153
43	0xbd2dfa13	-0.042474817
44	0x3cbff8de	0.023434099
45	0xbbdf20f2	-0.0068093473
46	0x3c4c28de	0.012460915
47	0xbd23d915	-0.040001947
48	0x3e13dc7c	0.14439577
49	0xbda125e9	-0.07868559
50	0x3d82eb60	0.063925505
51	0x3d31564d	0.043295193
52	0xbdd614d4	-0.104531914
53	0x3c3eae06	0.01163817
54	0x3bf4d734	0.0074719433
55	0x3d9bfbe4	0.07616404
56	0xbbbceeb9	-0.0057657626
57	0xbd0b53c1	-0.03401542
58	0xbd20e8ea	-0.039284624
59	0xbd187977	-0.037225213
60	0x3cb9492a	0.022617895
61	0xbcafccf0	-0.021460027
62	0x3db8b2cf	0.0901848
63	0x3bc0ec47	0.0058875415
64	0xbd3b2a70	-0.04569477
65	0x3d0ad81a	0.033897497
66	0xb9b17e9a	-0.00033854396
67	0x3d6dd75d	0.058066715
68	0x3b309319	0.0026943146
69	0x3d51bfbf	0.051208254
70	0x3d9d3d66	0.076777264
71	0xbcbe338e	-0.023217943
72	0xbb9e07fa	-0.004822728
73	0xbd2506d4	-0.040289715
74	0xbaf8efa8	-0.0018992322
75	0xbd50f90f	-0.05101877
76	0xbc571488	-0.013127454
77	0xbd7612d6	-0.060076557
78	0x3cc31b8d	0.023816848
79	0x3cb0036d	0.021486009
80	0xbd5c0410	-0.05371481
81	0xbd705c62	-0.058681853
82	0xbc166800	-0.009180069
83	0xbb48ce64	-0.0030640597
84	0xbde9d738	-0.11418003
85	0x3ab06c92	0.0013460091
86	0x3d767fda	0.060180523
87	0xbdbd47ff	-0.09242248
88	0xbb2c77d0	-0.002631653
89	0xbc681514	-0.014165182
90	0x3dcc645a	0.09980078
91	0xbd799261	-0.060930613
92	0xbb479fcb	-0.0030460234
93	0x3dc000b9	0.09375138
94	0xbe0a71ae	-0.13519928
95	0xba6a10f7	-0.00089289196
96	0x3d9219bf	0.07133817
97	0x3d2f2ef5	0.04276939
98	0x3d72d725	0.05928721
99	0x3de0540d	0.109535314
100	0x3d9a1536	0.07523577
101	0x3d609805	0.054832477
102	0x3d25fd26	0.040524624
103	0x3d8a51e3	0.067539
104	0xbcdfa40f	-0.027299909
105	0xbd913c38	-0.07091564
106	0x3bf32761	0.007420466
107	0xbcc31367	-0.023812963
108	0xbcb1bcc5	-0.021696458
109	0x3d1596a2	0.036520608
110	0x3db2cb18	0.08730143
111	0xbcac7ee9	-0.02105661
112	0x3cd53753	0.026027357
113	0x3c9355e4	0.017985292
114	0xbcc00498	-0.02343969
115	0xbd150f42	-0.036391504
116	0xbcb9d502	-0.022684578
117	0xbd2813c2	-0.041034468
118	0x3c8a9c64	0.016920276
119	0xbbda8224	-0.006668346
120	0xbcff60ac	-0.031174026
121	0x3da5ec23	0.0810168
122	0xbe020377	-0.12696634
123	0xbd28b320	-0.041186452
124	0xbbbaa8ab	-0.0056963763
125	0xbd9aa04b	-0.07550105
126	0x3ba98f29	0.0051745367
127	0x3d1d1404	0.038349167
128	0x3caa1eee	0.020766702
129	0xbc815799	-0.01578884
130	0x3b745e16	0.0037287525
131	0xbc6e3067	-0.014537907
132	0x3c69b9a4	0.014265452
133	0x3b9a6e0f	0.004712827
134	0xbd1be387	-0.038058784
135	0x3b5a0b2b	0.0033270817
136	0xbcc83ecd	-0.024444008
137	0x3b29ac6d	0.0025890127
138	0x3e0ad37f	0.13557242
139	0xbb9fbbf7	-0.004874702
140	0x3d773aa1	0.060358647
141	0x3b01fb9c	0.0019833809
142	0xbcdf5a8c	-0.027264856
143	0xbc1ef9c4	-0.009703103
144	0x3cd876d7	0.026423855
145	0xbd735811	-0.05941016
146	0xbcc8821e	-0.024476107
147	0x3cbccc7c	0.023046724
148	0x3d00b91d	0.031426538
149	0xbd131c79	-0.035915826
150	0x3d30e7fa	0.04318998
151	0x3cca6031	0.02470407
152	0x3cb85646	0.022502076
153	0xba6364f1	-0.0008674404
154	0x3c945114	0.018105067
155	0x3d2e074b	0.042487424
156	0x3d250319	0.040286157
157	0xbd0c95d1	-0.034322564
158	0x398ce1d2	0.0002687113
159	0x3c5dbe1f	0.013534098
160	0x3c8dc637	0.01730643
161	0x3c5f653e	0.013634978
162	0x3cee01df	0.029053627
163	0x3c1e6543	0.009667697
164	0xbc26a524	-0.0101712085
165	0x3d0f0933	0.034920882
166	0x3cb4ea91	0.022084506
167	0xbd05e0cf	-0.032685097
168	0x3c69a64b	0.014260839
169	0x3d032c71	0.032024805
170	0xbd02cb29	-0.03193203
171	0xbd140cc9	-0.036145005
172	0xbd501f9d	-0.0508114
173	0xbbdc9663	-0.0067317947
174	0xbd40f081	-0.047104362
175	0x3d6bd88f	0.057579573
176	0x3d08c5b6	0.033391677
177	0xbd4a82e6	-0.04944124
178	0x3d16166a	0.03664247
179	0x3d1a9454	0.037739113
180	0x3d63655c	0.055516586
181	0x3cfb146d	0.030649388
182	0x3d3d18e5	0.04616632
183	0x3d77e87e	0.060524456
184	0xbd19d97d	-0.03756093
185	0x3c7c5481	0.015401007
186	0xbd5540dd	-0.05206381
187	0xbde81e51	-0.113339074
188	0xbd44a016	-0.048004232
189	0x3c571ada	0.0131289605
190	0x3c7ebfc4	0.01554865
191	0x3cb3ef36	0.02196465
192	0xbe076b94	-0.13224632
193	0x3e08781f	0.13327073
194	0xbbae4b09	-0.0053190035
195	0xbdb20f8b	-0.08694371
196	0x3d86bc31	0.065788634
197	0xbd1e2696	-0.038611017
198	0xbcdf0d5f	-0.027228056
199	0xbcc968b6	-0.024586063
200	0xbd08113c	-0.03321956
201	0x3ca8745d	0.020563299
202	0xbda71a0f	-0.08159267
203	0x3be4e7b3	0.0069856285
204	0x3d7ee9a7	0.062234547
205	0x3da1f71f	0.07908463
206	0x3c636311	0.0138786
207	0x3cb1ab54	0.02168814
208	0x3b33eb17	0.0027453357
209	0x3d7520e6	0.059845828
210	0x3c28a2c8	0.010292716
211	0x3d174db2	0.03693933
212	0x3d1af365	0.037829775
213	0xbb9f4d08	-0.0048614778
214	0xbb71708a	-0.003684076
215	0xbc23f059	-0.010006034
216	0xbbd1d4fe	-0.0064035645
217	0x3e0090c0	0.12555218
218	0x3d8ff24e	0.07028638
219	0x3d104c23	0.03522886
220	0xbc0f7604	-0.008756164
221	0x3d20710d	0.039170314
222	0xbe1c6300	-0.1527214
223	0x3d6b85e1	0.057500724
224	0x3c850b77	0.016240818
225	0xbdc96108	-0.0983296
226	0xbbbdceb8	-0.005792465
227	0xbd1d3517	-0.03838071
228	0x3ceda363	0.029008573
229	0xbc819b0b	-0.015821
230	0x3d14836d	0.03625815
231	0x3cf38949	0.029728549
232	0x3b76e88f	0.0037675237
233	0xbc9021bb	-0.017594209
234	0xbd80c51b	-0.06287595
235	0xbcdc99ad	-0.026928747
236	0x3d96cb77	0.073630266
237	0xbd62a379	-0.05533168
238	0xbcdeee4e	-0.027213242
239	0x3cae3cfa	0.02126931
240	0x3c7c32a8	0.015392937
241	0xb937dcc9	-0.00017534489
242	0x3be4a197	0.006977271
243	0xbcdc7a8e	-0.026913907
244	0xbd52804f	-0.051391896
245	0x3c11eb63	0.008906218
246	0x3d5aba75	0.053400476
247	0x3d77b551	0.06047565
248	0x3e3028ce	0.17203066
249	0x3e1995f3	0.14998607
250	0x3dde893f	0.10866021
251	0x3d96d390	0.07364571
252	0x3d72d7fd	0.059288014
253	0x3d27a2c1	0.0409267
254	0x3dd861d4	0.10565534
255	0x3e43ff54	0.19140369

fc_shared.bias f4 [128]
0	0x3d643edc	0.05572401
1	0x3cc89fb0	0.024490207
2	0x3c2f302b	0.0106926365
3	0xbcd1bfb9	-0.025604116
4	0x3a19a508	0.00058610784
5	0x3d65eacc	0.056132123
6	0xbd394dda	-0.04524026
7	0xba2f5f6d	-0.000668994
8	0xbc7f9800	-0.0156002045
9	0x3b918eee	0.0044420874
10	0xbb4ddd16	-0.0031412295
11	0x3d2113e2	0.039325602
12	0x3b1c9514	0.0023892568
13	0xbcc094d9	-0.023508476
14	0xbcec6eb9	-0.02886139
15	0xbca28799	-0.019840049
16	0xbcf60a7e	-0.0300343
17	0x3cddae64	0.027060695
18	0x3cf0cecb	0.029395482
19	0x3d50fd0e	0.05102258
20	0x3d01cf0d	0.0316916
21	0x3da222d2	0.07916798
22	0x3c3c395b	0.011488284
23	0xbd23d78c	-0.040000483
24	0xbc6c4fc8	-0.014423318
25	0xbc14b4a2	-0.009076269
26	0x3d1f48b5	0.0388877
27	0xbb17098c	-0.0023046462
28	0x3c433ad5	0.011915882
29	0x3d1a075d	0.03760468
30	0x3d5c9add	0.053858627
31	0x3b162015	0.0022907306
32	0x3cfafd59	0.030638384
33	0xbd0a0251	-0.033693615
34	0x3d829124	0.063753396
35	0x3c33ef9d	0.010982421
36	0x3ce64eeb	0.028113803
37	0xbd161e36	-0.036649905
38	0xbd144ff9	-0.03620908
39	0xbc86c188	-0.016449705
40	0x3c70a2b0	0.014687225
41	0xbccde137	-0.025131805
42	0xbb56a19c	-0.0032750135
43	0x3c64ff47	0.0139768785
44	0x3d0e0f43	0.034682523
45	0x3c4f2ccc	0.012644958
46	0xbd53b852	-0.051689453
47	0x3c017f52	0.007903891
48	0x3d30bef7	0.04315087
49	0x3cf70980	0.030155897
50	0xbcd96cb1	-0.026541086
51	0x3d02cbd1	0.031932656
52	0x3b20fe85	0.0024565768
53	0x3d98ec84	0.07466987
54	0xbc1315da	-0.008977378
55	0x3c6be727	0.014398373
56	0x3cbb7390	0.022882253
57	0xbcab4b93	-0.02091006
58	0x3c847740	0.016170144
59	0x3d3364e0	0.043797374
60	0xbc1b320c	-0.009472381
61	0x3cdc5fae	0.026901092
62	0x3d745d46	0.059659265
63	0x3ce60ed0	0.028083235
64	0x3c92ce7d	0.017920727
65	0x3c8b3cb4	0.016996719
66	0xbb7e7c69	-0.0038831478
67	0x3d90c607	0.07069021
68	0x3d4a1d36	0.049344264
69	0x3c98aada	0.018636156
70	0x3bd5b208	0.006521467
71	0x3cc82326	0.024430823
72	0xbbf3e1b8	-0.0074426793
73	0xbb94836a	-0.0045322673
74	0xbcf21355	-0.029550234
75	0x3cec0355	0.028810183
76	0x3ca2b1be	0.019860145
77	0xbc3bae2e	-0.011455102
78	0xbd0c22b1	-0.03421277
79	0x3d29d4d6	0.04146274
80	0x3c44287e	0.011972545
81	0xbc5d85df	-0.013520687
82	0x3d48622e	0.048921756
83	0x3c9264cb	0.017870327
84	0xbc98560a	-0.018595714
85	0xbc89f24b	-0.016839167
86	0x3cdf8bcb	0.027288338
87	0x3d7f151e	0.062276
88	0x3d67fd5d	0.05663811
89	0xbc1f058c	-0.009705912
90	0x3d54a517	0.051915254
91	0x3cd5d34b	0.026101729
92	0x3d0b6173	0.03402848
93	0x3d2198a4	0.03945221
94	0x3c8e6e34	0.017386533
95	0xbd14665a	-0.036230423
96	0x3d2400d6	0.04003986
97	0xbd1e87ed	-0.038703848
98	0x3cc63761	0.024196329
99	0x3c6f5426	0.014607465
100	0xbce3bea1	-0.02780086
101	0x3d0cd90b	0.034386676
102	0x3bb2bd4c	0.005454695
103	0x3abbd518	0.0014330475
104	0x3da46379	0.080267854
105	0x3d3f315e	0.04667794
106	0x3c9653a9	0.01835044
107	0xbb2008d9	-0.0024419336
108	0x3c17dc49	0.009268829
109	0xbd1c70f1	-0.038193647
110	0xbc44775a	-0.011991346
111	0xbbeb619a	-0.007183266
112	0x3d117184	0.035508648
113	0x3c7096d0	0.014684394
114	0xbc594bb5	-0.013262679
115	0x3d19fa1b	0.037592035
116	0x3cd6506f	0.0261614
117	0x3d17f231	0.037096206
118	0x3c5ccc4a	0.013476441
119	0x3cc078b5	0.023495058
120	0xbd094b18	-0.03351888
121	0xbba0b4c6	-0.0049043624
122	0xbb7d5c3e	-0.0038659717
123	0xbcc76fa6	-0.02434523
124	0xbc3100e4	-0.010803435
125	0xbb7578bc	-0.0037455996
126	0x3ca65bab	0.020307383
127	0x3bbe1b09	0.0058015627

actor.weight f4 [7, 128]
0	0x3c9ce129	0.019150333
1	0xbd3fccb4	-0.04682608
2	0x3d4e5016	0.050369345
3	0x3d24715c	0.04014717
4	0x3cc35f42	0.023849133
5	0xbc842821	-0.016132416
6	0xbddb25c4	-0.107005626
7	0xbd59ffd6	-0.0532225
8	0xbe0d543b	-0.13801663
9	0xbdf55d32	-0.11980666
10	0xbd31f5b2	-0.043447204
11	0xbd83472a	-0.06410058
12	0xbdba460f	-0.09095394
13	0xbd6326b2	-0.055456825
14	0x3c08fff2	0.008361803
15	0xbe062256	-0.13099036
16	0x3ab96e84	0.0014147316
17	0x3d015975	0.031579453
18	0xbdb0f8b7	-0.086411886
19	0xbd235734	-0.039878085
20	0xbdaa7466	-0.083229825
21	0xbdfc3b58	-0.123160064
22	0xbd0f1e5b	-0.03494106
23	0xbb63cbc6	-0.003475891
24	0xbd6e1ea6	-0.058134697
25	0xbdbecdcc	-0.093165964
26	0xbc9cfb19	-0.019162701
27	0xbd436bfa	-0.047710396
28	0x3c5ef17b	0.013607378
29	0xbdc2823c	-0.094974965
30	0xbd0726e1	-0.032996062
31	0xbe94d7ed	-0.29070988
32	0xbd86d737	-0.06584018
33	0x3d3cfb8b	0.046138328
34	0xbe054613	-0.13015012
35	0xbcc63a50	-0.024197727
36	0xbbb966a7	-0.005657989
37	0xbdb8b9da	-0.09019823
38	0xbcb98b85	-0.022649536
39	0xbc66d013	-0.014087695
40	0x3d750844	0.059822336
41	0xbcffa296	-0.031205457
42	0x3d5adc6b	0.053432863
43	0x3d47f430	0.04881686
44	0xbc2eeff5	-0.010677327
45	0x3da69301	0.081335075
46	0x3c8cf834	0.017208196
47	0x3dadcf00	0.08486748
48	0xbd702d92	-0.05863721
49	0xbd9295c9	-0.071574755
50	0x3d209218	0.039201826
51	0x3dad7f17	0.08471506
52	0xbaedec3a	-0.0018152066
53	0xbdef040e	-0.11670695
54	0x3d4a1803	0.049339306
55	0xbda54e46	-0.0807157
56	0x3d464743	0.048407804
57	0x3ad51c85	0.001625911
58	0xbd204bce	-0.039134793
59	0xbdc87e80	-0.09789753
60	0x3cfcb5be	0.03084838
61	0x3d77bda5	0.060483593
62	0x3d4d15f3	0.05006976
63	0x3d2fdbc0	0.04293418
64	0xbe2ad9ab	-0.16684596
65	0xb936d7eb	-0.00017437308
66	0x3d4fad32	0.05070228
67	0xbd8e5cbe	-0.06951283
68	0xbc9ed69d	-0.019389445
69	0x3d4a9364	0.04945697
70	0xbd0ad5d2	-0.03389532
71	0xbd8d82b0	-0.06909692
72	0x3da7270b	0.08161744
73	0x3db16d62	0.08663441
74	0xbd5ea9ee	-0.054361276
75	0x3c50104d	0.012699199
76	0xbdaa7a38	-0.083240926
77	0xbda40ede	-0.08010648
78	0x3da314fb	0.07962986
79	0x3aefae12	0.001828613
80	0xbdc52fbb	-0.096282445
81	0xbd4e2c9e	-0.05033552
82	0xbdd967db	-0.10615512
83	0xbdd29db6	-0.10283987
84	0x3c0b8dbc	0.008517679
85	0x3bb64dca	0.0055634724
86	0x3ca39c78	0.019972071
87	0xbe309f5f	-0.17248295
88	0xbd4f98b5	-0.050682742
89	0x3d015b5c	0.031581268
90	0xbd30c3c0	-0.04315543
91	0x3bd0c0b4	0.0063706283
92	0xbd2810cd	-0.041031647
93	0x3d4af013	0.04954536
94	0xbdb798b8	-0.08964676
95	0xbde08380	-0.10962582
96	0xbd92e866	-0.07173233
97	0xbd8a5757	-0.0675494
98	0xbd5a3251	-0.05327064
99	0xbe0dff6f	-0.13866971
100	0xbd8049d3	-0.06264081
101	0x3d10b750	0.03533107
102	0xbd08289a	-0.033241846
103	0xbc4b76ac	-0.01241843
104	0xbdf0acc2	-0.11751701
105	0xbe0b301e	-0.13592574
106	0xbda13d16	-0.07872979
107	0xbc86639f	-0.016404925
108	0xbd29f4f9	-0.04149339
109	0x3cbe9de7	0.023268653
110	0xbd8b8e46	-0.06814246
111	0x3d9f0ded	0.07766328
112	0x3d2a6aa0	0.04160559
113	0xbdcbaaf9	-0.0994472
114	0xbd182965	-0.037148852
115	0x3d9bc7f8	0.076065004
116	0xbbfc90c6	-0.007707688
117	0x3af8c588	0.0018979767
118	0xbd4608bb	-0.04834817
119	0x3d3c36c0	0.04595065
120	0x3d5ad0cb	0.053421777
121	0xbdfb1974	-0.12260714
122	0x3d00542b	0.03133027
123	0xbd055ab4	-0.032557204
124	0x3ce9d0fa	0.02854203
125	0xbc39e1ac	-0.011345308
126	0xbdae45fb	-0.085094415
127	0xbe03f761	-0.12887336
128	0x3c8bbb08	0.017056957
129	0xbd885a76	-0.06657879
130	0xbcc56533	-0.024096107
131	0xbcea1b00	-0.028577328
132	0xbd520dc1	-0.051282648
133	0xbde4b78b	-0.111678205
134	0xbe3d3c06	-0.18479928
135	0x3d35a764	0.04434909
136	0xbea3aacc	-0.31966245
137	0xbe1e6636	-0.15468678
138	0x3daee47e	0.08539675
139	0x3e41e6cd	0.189357
140	0x3d509272	0.05092091
141	0x3daf8447	0.08570152
142	0xbd3540c5	-0.044251222
143	0x3cc5cae2	0.024144594
144	0xbddfcbfc	-0.10927579
145	0xbd82912f	-0.06375348
146	0x3e10fd04	0.14159018
147	0x3da2818d	0.07934866
148	0xbebf3725	-0.3734676
149	0x3e464421	0.19361927
150	0x3dca2035	0.09869424
151	0x3d986a40	0.074421406
152	0xbd8261a1	-0.063662775
153	0x3cf18dea	0.029486615
154	0xbe847dc8	-0.25877213
155	0x3cbf189d	0.023327166
156	0xbdca501c	-0.09878561
157	0x3e035b3e	0.12827775
158	0xbdc4944b	-0.09598597
159	0x3d3f5c1d	0.046718705
160	0x3e171491	0.14753939
161	0xbdb2edd8	-0.08736771
162	0x3e212413	0.15736417
163	0xbd2a4f9c	-0.041579828
164	0x3de45460	0.11148906
165	0x3ae49420	0.0017439164
166	0x3d9f4540	0.0777688
167	0x3d84b4c2	0.06479789
168	0x3d7d1249	0.061785016
169	0x3cbdf0b0	0.023186058
170	0xbd07a9ec	-0.033121035
171	0x3d3e3aa3	0.04644264
172	0x3dd56ccd	0.10421143
173	0x3d8e4cde	0.06948255
174	0xbdb2637a	-0.0871038
175	0xbb3235bc	-0.0027192673
176	0xbcc311ea	-0.023812253
177	0xbd3e606e	-0.04647868
178	0x3c3bb328	0.011456288
179	0xbe2584f7	-0.16164003
180	0xbc7291cc	-0.0148052685
181	0x3dc108d3	0.09425511
182	0x3d004760	0.03131807
183	0xbd97dc1a	-0.07415028
184	0x3c29c20a	0.010361204
185	0xbdb300a8	-0.087403595
186	0xbb5f6d0f	-0.0034092104
187	0x3d4ae049	0.0495303
188	0x3d2980fe	0.041382782
189	0xbda89c28	-0.082329094
190	0xbec7e774	-0.39043772
191	0x3ce33dba	0.027739394
192	0x3e1944db	0.14967673
193	0xbc87e93d	-0.016590709
194	0x3a50f139	0.0007970515
195	0x3dafce65	0.085842885
196	0x3d919804	0.07109073
197	0x3cf220e9	0.029556708
198	0xbbd9799d	-0.006636812
199	0xbd8d95a4	-0.06913307
200	0xbd873dc7	-0.0660358
201	0x3d7d8251	0.061891858
202	0xbd485ec2	-0.048918493
203	0xbd23825b	-0.03991924
204	0xbe8863ae	-0.2663855
205	0xbd05fcb8	-0.032711715
206	0x3dd40a05	0.103534736
207	0x3e071b63	0.13194041
208	0xbc2aa222	-0.010414632
209	0xbd3b356d	-0.045705248
210	0x3d9dcc98	0.07705039
211	0x3e0bafa0	0.13641214
212	0xbe84feac	-0.2597555
213	0xbd1e466d	-0.038641382
214	0x3d91758f	0.07102501
215	0x3e22071d	0.15823026
216	0x3e4ad3dd	0.19807382
217	0xbcd145d0	-0.025545985
218	0xbedcebbf	-0.4314861
219	0x3dac8006	0.08422856
220	0x3ddbf5a0	0.107402086
221	0x3d60c5de	0.0548762
222	0xbda4f0ce	-0.08053742
223	0xbe0ba9ba	-0.13638964
224	0x3d385bda	0.04500947
225	0xbd4a6dc3	-0.049421083
226	0xbd49ba01	-0.049249653
227	0x3cb50a89	0.02209975
228	0x3d9db98d	0.07701407
229	0x3db11432	0.0864643
230	0x3daf7e40	0.08569002
231	0xbc8685e1	-0.01642126
232	0xbed7b1fa	-0.42127973
233	0x3e043ca4	0.12913758
234	0x3caf0f7d	0.02136969
235	0x3cf51e19	0.029921578
236	0x3c8b8b3e	0.01703417
237	0xbd71345a	-0.058887817
238	0xbd34fb0a	-0.044184722
239	0x3c078b8d	0.008273018
240	0x3d939241	0.0720563
241	0xbd7947f5	-0.06085964
242	0xbda914cb	-0.08255919
243	0xbe12bb4a	-0.14329258
244	0x3d40d855	0.04708131
245	0x3dee754c	0.11643466
246	0xbc3a59a3	-0.01137391
247	0x3d9336e3	0.07188203
248	0xbd0293d9	-0.03187928
249	0xbc286330	-0.010277554
250	0x3cc097c1	0.023509862
251	0xbd84475f	-0.064589255
252	0xbd0ceb55	-0.034404118
253	0x3cb5b203	0.02217961
254	0xbd2b4e16	-0.041822515
255	0xbe0a3208	-0.13495648

actor.bias f4 [7]
0	0xbe02dfa6	-0.12780628
1	0xbde1ed32	-0.110315695
2	0x3dc767f9	0.09736628
3	0x3e108b45	0.14115627
4	0x3d63fdb9	0.05566189
5	0xbd308a02	-0.043100365
6	0x3c0c8bf5	0.00857829

critic.weight f4 [1, 128]
0	0x3b5de6f5	0.0033859585
1	0xbd8ee0e1	-0.06976486
2	0xbdb61c56	-0.088921234
3	0x3d752904	0.05985357
4	0x3d4913e5	0.04909124
5	0x3b001a71	0.001954701
6	0x3e1c8c3b	0.15287869
7	0xbd5f2779	-0.054481003
8	0x3b7b259f	0.0038321984
9	0x3b979ec4	0.0046270806
10	0xbd786b95	-0.060649473
11	0xbbb18ee8	-0.005418647
12	0x3d9098f5	0.07060424
13	0x3d9fa54d	0.077952005
14	0x3ccc451a	0.024935294
15	0x3c9fb823	0.019496983
16	0x3d0eab08	0.034831077
17	0x3b054773	0.0020336777
18	0x3b97ae92	0.0046289647
19	0xbdb01010	-0.08596814
20	0x3d914be2	0.070945516
21	0x3bc77908	0.006087426
22	0x3db14141	0.08655024
23	0x3d776bee	0.060405664
24	0xbdc3b731	-0.09556425
25	0xbd5a7a04	-0.05333902
26	0x3bd3dd5f	0.0064655985
27	0xbd7bbe35	-0.061460692
28	0x3ace9407	0.0015760668
29	0x3be48c11	0.006974705
30	0x3b3dc239	0.0028954877
31	0x3ba74cf5	0.0051056095
32	0x3b912d04	0.004430415
33	0xbd488f71	-0.04896492
34	0x3bb4be00	0.005515814
35	0x3a4c1a5c	0.000778591
36	0x3baa0c7e	0.0051894775
37	0xbc01309d	-0.0078851255
38	0x3d59243b	0.053013068
39	0xbda4ae89	-0.080411024
40	0x3b952c49	0.0045523983
41	0x3db3da92	0.08781923
42	0xbb85d07e	-0.004083692
43	0x3d4b96cd	0.04970436
44	0xbd33e019	-0.043914888
45	0x3d2db26b	0.04240648
46	0x3b0fae0c	0.0021923808
47	0x3d64e8ea	0.055886187
48	0xbd88cbef	-0.06679522
49	0xbdd3b11d	-0.10336516
50	0x3d470378	0.048587292
51	0xbc567c59	-0.01309117
52	0xbdd43285	-0.10361198
53	0x3b9c81cf	0.0047762166
54	0xbdaae3de	-0.083442435
55	0x3d5c100b	0.053726237
56	0x3d65c54c	0.05609636
57	0x3e14fab8	0.14548767
58	0x3d66c71f	0.05634224
59	0x3b73cae0	0.003719978
60	0x3d4be0f9	0.049775098
61	0xbe85709a	-0.2606247
62	0x3bc74dc7	0.00608227
63	0xbe561b1c	-0.20908779
64	0x3bbc395c	0.0057441425
65	0x3d29a41a	0.041416265
66	0x3d8d9fae	0.06915222
67	0x3b4a3386	0.0030853464
68	0xbb998ceb	-0.004685988
69	0x3da3293b	0.079668485
70	0x3d9751d9	0.07388658
71	0x3da92493	0.08258929
72	0x3cf8a466	0.030351829
73	0xbd6f44f1	-0.058415357
74	0x3b651b4a	0.0034958893
75	0x3da710a2	0.08157469
76	0x3d18dcf4	0.037320092
77	0x3cec4214	0.028840102
78	0x3d0ea590	0.03482586
79	0xbd120988	-0.03565362
80	0x3b968829	0.0045938683
81	0x3d629661	0.055319194
82	0x3bc997b4	0.0061521176
83	0x3b8f42a7	0.0043719593
84	0x3deed730	0.116621375
85	0x3d976dbb	0.07393976
86	0x3d99883b	0.07496687
87	0x3b71c52d	0.0036891208
88	0x3c95b1c4	0.018273242
89	0x3b6ea85a	0.0036416263
90	0x3b87d1cf	0.004144884
91	0x3be8290a	0.0070849704
92	0x3bdd2684	0.006748976
93	0xbd851376	-0.064978525
94	0x3b3d580a	0.0028891587
95	0x3e2f4c50	0.17118955
96	0xbd633e07	-0.055479076
97	0x3c128570	0.008942947
98	0x3b7abc07	0.0038259046
99	0x3b1ac0f2	0.002361354
100	0x3da45636	0.08024256
101	0x3cad05c5	0.021120915
102	0xbe08cf2b	-0.13360278
103	0x3d0526eb	0.03250782
104	0x3bab6af5	0.005231256
105	0x3b28b18c	0.0025740592
106	0x3be8ab8c	0.007100528
107	0x3d733d04	0.05938436
108	0xbe504e39	-0.2034234
109	0x3b12eb2f	0.0022418012
110	0x3e0a1928	0.13486159
111	0x3d2c7043	0.04209925
112	0xbd3b91a4	-0.04579319
113	0x3b0d6f8b	0.0021581377
114	0xbd62b4fe	-0.05534839
115	0xbdfc0a38	-0.123066366
116	0xbdbd5fb0	-0.092467666
117	0xbb072761	-0.0020622837
118	0xbb800a84	-0.0039075036
119	0x3d259277	0.040422883
120	0x3cafb0a1	0.021446528
121	0x3b54cba7	0.003247002
122	0xbdb17049	-0.08663995
123	0x3c2a6982	0.010401132
124	0x3c230797	0.00995054
125	0xbd60fc37	-0.05492803
126	0x3c2c109e	0.010502009
127	0x3b3911b0	0.0028239302
