trained_models/PPO/ppo_connect4_model_1_5m_steps.pt (torch, 537900 bytes, 9 tensors)

conv1.weight f4 [64, 1, 4, 4]
0.023749987 -0.035235364 0.26722485 0.042173505 0.064523585 -0.019569695 -0.0730054 -0.3862667
-0.2046812 -0.17149664 -0.033365324 0.067901276 0.0017774653 0.39016914 -0.28455222 -0.18208815
0.29879805 0.13659054 0.07506671 0.25152934 -0.10887905 0.021263165 -0.3364466 0.13633926
-0.2844509 -0.027263328 -0.31046116 -0.2164216 -0.26673666 0.037234973 0.37158978 -0.3988078
-0.41751772 -0.06056995 -0.21088904 0.34274262 -0.07169387 -0.030040655 -0.17107385 0.03742237
0.067768924 0.047306545 0.35965845 0.18723719 -0.3046316 0.15793467 -0.24222559 -0.10127808
0.09885775 0.19172955 -0.004702784 -0.19938108 -0.056278527 0.08726986 0.32907924 -0.26189712
0.25409666 0.12331381 -0.3391931 -0.549976 -0.08045991 0.16663723 -0.061090503 -1.2063735
0.10527728 -0.19846883 0.08151958 -0.15592048 0.18905595 0.09923083 -0.21760361 0.45011646
-0.08957721 -0.29410735 0.032963037 0.0046483614 -0.26294336 0.16654609 -0.25857195 0.1229476
0.14239734 0.049566545 0.09696967 -0.011501889 -0.0477026 0.18234096 -0.1631469 0.405648
0.14339624 -0.2071386 -0.20097272 0.3992696 -0.13578998 -0.18470396 -0.14753811 -0.39070562
-0.053540967 -0.04960271 0.10089304 -0.81695986 -0.14121051 0.003935657 -0.01001393 0.07282568
0.33646414 0.39347446 0.5398283 -0.66963524 -0.32352427 -0.03245894 0.008174521 -0.15809476
0.060632695 -0.033462483 0.06674541 0.2615089 0.012804466 0.13060446 0.07903237 0.09726237
0.028774511 0.34443694 -0.28122354 -0.16464095 -0.2231079 0.09163252 -0.032193974 0.02236528
-0.068760276 -0.045359626 0.16505796 0.24202596 -0.22504959 -0.23310773 -0.26218572 0.22572304
-0.045884468 0.17867242 -0.20313963 0.035655327 0.3086192 0.16752818 0.0929272 -0.07517173
-0.14607318 -0.0039603906 -0.18457882 0.09065747 -0.45350248 0.16824551 0.086904086 0.2873431
-0.092112795 -0.22372068 -0.12072337 0.08018765 -0.24582544 0.021262787 -0.23909447 0.12103946
0.28501114 -0.008617071 0.17748389 -0.21170145 0.111763164 0.1994099 -0.23842233 0.36229807
0.033305503 0.23282738 0.0061940667 0.049619406 -0.050165087 -0.25643298 -0.13487807 0.0019557984
0.021549195 -0.54803526 -0.047946695 0.12558761 0.06853518 -0.5694496 0.28100935 0.16542196
0.015306906 -0.08304528 0.078007914 0.09814737 -0.17797925 -0.3740228 -0.3286941 0.09425087
0.14978628 0.021098554 0.4145604 -0.11905207 -0.32422155 0.088268444 0.052767072 0.14325857
-0.24718644 -0.18795271 -0.248174 -0.22751424 -0.20915402 -0.13451944 0.11086573 -0.1132097
0.23259813 -0.033671733 0.1116778 -0.04576228 0.1360909 0.13727379 -0.17737159 0.17460088
-0.2953755 0.17771469 0.11510324 -0.09300467 0.23414285 -0.08260171 -0.41051605 -0.018160332
-0.38086987 0.044193737 -0.1367261 -0.12921634 -0.47824314 -0.08907101 -0.03657972 0.100072384
-0.40571108 0.23492287 0.29503283 0.040881578 -0.32734495 0.26168773 -0.08402127 0.16669734
-0.0026355148 0.2311259 -0.1962334 0.358992 -0.0041207834 -0.07986689 0.21185994 -0.2145982
-0.05276592 -0.0818952 -0.092573136 -0.056948178 0.37483773 -0.271759 -0.28508574 -0.09415661
00000000: 558f c23c f552 10bd b2d1 883e 20be 2c3d
00000010: f124 843d a050 a0bc db83 95bd c0c4 c5be
00000020: f397 51be d19c 2fbe 14aa 08bd d30f 8b3d
00000030: d7f9 e83a 40c4 c73e d4b0 91be 5175 3abe
00000040: 0ffc 983e 64de 0b3e 93bc 993d 74c8 803e
00000050: fbfb debd 1730 ae3c bb42 acbe 859c 0b3e
00000060: 8ca3 91be 5857 dfbc c4f4 9ebe a09d 5dbe
00000070: b591 88be b383 183d 0441 be3e 8930 ccbe
00000080: e2c4 d5be 3218 78bd 4cf3 57be f67b af3e
00000090: 3cd4 92bd d217 f6bc fc2d 2fbe 3348 193d
000000a0: 6fca 8a3d 82c4 413d 2725 b83e 1bbb 3f3e
000000b0: acf8 9bbe a0b9 213e fc09 78be e26a cfbd
000000c0: ef75 ca3d c054 443e d019 9abb 8e2a 4cbe
000000d0: 5084 66bd 8aba b23d 137d a83e 6117 86be
000000e0: f518 823e f38b fc3d b8aa adbe 3acb 0cbf
000000f0: 2ac8 a4bd f3a2 2a3e 093a 7abd 726a 9abf
00000100: 9d9b d73d 6a3b 4bbe bdf3 a63d 9ea9 1fbe
00000110: e297 413e 8939 cb3d 7bd3 5ebe aa75 e63e
00000120: 4274 b7bd 3d95 96be 4004 073d 4851 983b
00000130: 83a0 86be 0f8b 2a3e 8b63 84be f4cb fb3d
00000140: 9cd0 113e 4a06 4b3d 0998 c63d 6b72 3cbc
00000150: cd63 43bd 97b7 3a3e fb0f 27be 18b1 cf3e
00000160: 77d6 123e 241c 54be cbcb 4dbe 116d cc3e
00000170: 870c 0bbe 0923 3dbe 3b14 17be 910a c8be
00000180: c64d 5bbd 362c 4bbd 03a1 ce3d 4824 51bf
00000190: 7d99 10be aff6 803b 7711 24bc a125 953d
000001a0: 0745 ac3e 7c75 c93e 3032 0a3f 376d 2bbf
000001b0: f9a4 a5be aaf3 04bd 6dee 053c 98e3 21be
000001c0: fd59 783d f50f 09bd d1b1 883d 7fe4 853e
000001d0: d3c9 513c 2dbd 053e b9db a13d 7e31 c73d
000001e0: 86b8 eb3c 0a5a b03e 88fc 8fbe a397 28be
000001f0: 6676 64be d5a9 bb3d d4dd 03bd 6437 b73c
00000200: 30d2 8cbd 04cb 39bd f404 293e a7d5 773e
00000210: 6673 66be cbb3 6ebe 353d 86be f123 673e
00000220: 5af1 3bbd e7f5 363e d603 50be 520b 123d
00000230: 5603 9e3e 828c 2b3e 9e50 be3d a3f3 99bd
00000240: 3594 15be 2ac6 81bb 3b02 3dbe a0aa b93d
00000250: 7a31 e8be 8d48 2c3e c5fa b13d a31e 933e
00000260: a2a5 bcbd 0917 65be d03d f7bd 6c39 a43d
00000270: aab9 7bbe 4c2f ae3c 2ed5 74be 89e3 f73d
00000280: fbec 913e 9e2e 0dbc 56be 353e 44c8 58be
00000290: 16e4 e43d 1c32 4c3e fc24 74be 227f b93e
000002a0: 5a6b 083d 4d6a 6e3e 99f7 ca3b b83d 4b3d
000002b0: e879 4dbd 2f4b 83be 7a1d 0abe da2c 003b
000002c0: f087 b03c 0a4c 0cbf c163 44bd 0a9a 003e
000002d0: 2c5c 8c3d 73c7 11bf 75e0 8f3e 6064 293e
000002e0: d1c9 7a3c a513 aabd 9dc2 9f3d 7d01 c93d
000002f0: 3140 36be eb7f bfbe 984a a8be 9a06 c13d
00000300: 9361 193e e0d6 ac3c 4341 d43e 92d1 f3bd
00000310: 5e00 a6be 16c6 b43d 4922 583d 60b2 123e
00000320: 711e 7dbe ad76 40be 5321 7ebe 7ef9 68be
00000330: 792c 56be 77bf 09be 920d e33d 7dda e7bd
00000340: 342e 6e3e 5feb 09bd 55b7 e43d 3a71 3bbd
00000350: 6a5b 0b3e 8091 0c3e e6a0 35be 93ca 323e
00000360: 753b 97be d7fa 353e 3fbb eb3d 3c79 bebd
00000370: 25c3 6f3e 162b a9bd 292f d2be fac4 94bc
00000380: 6001 c3be 7e04 353d ed01 0cbe 4a51 04be
00000390: 49dc f4be dd6a b6bd 9ed4 15bd c0f2 cc3d
000003a0: 5db9 cfbe 9f8f 703e 8b0e 973e 7173 273d
000003b0: c299 a7be effb 853e 5813 acbd b5b2 2a3e
000003c0: 9ab8 2cbb 45ac 6c3e 69f1 48be cdcd b73e
000003d0: a307 87bb 4191 a3bd d0f1 583e a1bf 5bbe
000003e0: 1421 58bd acb8 a7bd fc96 bdbd 7e42 69bd
000003f0: bbea bf3e ff23 8bbe c2f6 91be 2ed5 c0bd

conv1.bias f4 [64]
0.17244692 0.2163498 -0.037373822 -0.017116997 0.147523 0.20970732 -0.112244695 -0.32363188
-0.33614996 0.22901244 -0.28820565 0.289444 -0.010141001 -0.18747236 -0.213954 0.05650599
0.031631272 -0.30284724 -0.014444664 -0.11069243 -0.057219446 -0.06600192 -0.18178502 -0.12794268
-0.1385606 -0.37370363 -0.17354517 -0.31537187 -0.1404106 -0.051109277 -0.044289242 -0.22131443
-0.04153046 0.2167068 0.20698757 -0.07282241 -0.28687525 -0.10613121 -0.13244966 -0.3141106
-0.10663959 0.10102795 0.19536711 -0.025270117 -0.3051034 -0.16179675 0.33517736 -0.17811741
-0.12528017 0.079027 -0.24371952 0.22219177 0.06761475 -0.37822506 0.11201597 0.05287897
-0.29200566 -0.30255663 -0.015847743 -0.28828904 -0.28853917 0.04963296 0.1725309 0.17412896
00000000: ed95 303e cd8a 5d3e 4b15 19bd f238 8cbc
00000010: 4510 173e 84bd 563e 8ce0 e5bd 14b3 a5be
00000020: d91b acbe 3d82 6a3e b18f 93be 0132 943e
00000030: 7126 26bc c1f8 3fbe c216 5bbe d372 673d
00000040: cb8f 013d cb0e 9bbe 50a9 6cbc b6b2 e2bd
00000050: f05e 6abd 042c 87bd da25 3abe 6803 03be
00000060: d4e2 0dbe 1556 bfbe d3b5 31be 6c78 a1be
00000070: ccc7 0fbe f657 51bd a368 35bd 40a0 62be
00000080: d81b 2abd 63e8 5d3e 8df4 533e ea23 95bd
00000090: 50e1 92be 525b d9bd e2a0 07be 1bd3 a0be
000000a0: db65 dabd bee7 ce3d 510e 483e 4703 cfbc
000000b0: 8336 9cbe 0cae 25be 5e9c ab3e 6964 36be
000000c0: 7249 00be e8d8 a13d 9c91 79be 3d86 633e
000000d0: 9a79 8a3d b7a6 c1be a168 e53d 9e97 583d
000000e0: c481 95be b4e8 9abe 20d3 81bc 9f9a 93be
000000f0: 68bb 93be ee4b 4b3d f1ab 303e dd4e 323e

conv2.weight f4 [128, 64, 2, 2]
0.11189908 -0.07529029 0.07140256 0.01347234 0.10408334 0.10375902 0.2590083 0.08340046
0.005537599 0.107806616 -0.018456412 0.23821577 -0.024124587 -0.009944636 0.18213451 -0.3017162
0.10458863 -0.029213697 -0.08594037 0.16997817 0.13912018 0.14100268 0.066539355 -0.13793044
-0.21504016 0.019472273 -0.2520186 -0.54675764 -0.07610009 0.041451726 -0.030797774 0.07237961
0.03437387 0.040429603 -0.060579855 0.057407558 0.071122825 0.09836799 0.10741341 0.14187343
0.14913034 -0.06040592 -0.06582039 0.008013767 0.17490685 0.14160858 0.11322145 -0.034941465
-0.061201166 0.007010467 0.0840282 0.09947583 -0.0005634916 -0.036070477 0.04505625 -0.08484905
-0.099828474 -0.005381125 -0.24716651 0.061697442 -0.027958687 -0.006225312 0.2989036 -0.00086396065
-0.009255178 -0.14462811 0.10114885 0.1484061 -0.21192567 -0.197805 -0.082057185 -0.2522826
-0.045323186 -0.0011650013 -0.373301 -0.07501082 0.04516157 0.07853043 0.09491965 -0.1792979
0.03281209 -0.0981793 -0.1926913 0.027265856 0.0827056 -0.15676036 0.1177746 0.15982878
0.105882846 -0.14675385 0.00925356 0.10559989 -0.15209536 -0.20553271 0.08012403 -0.084999114
-0.24347587 -0.24413288 -0.026158601 -0.10739429 -0.12541863 -0.040755514 -0.057174575 -0.072457284
0.0540749 0.08970613 0.014373673 0.0974761 -0.058383085 -0.11963535 0.021668622 0.023185458
-0.18402626 0.045489322 0.017941548 -0.16769019 -0.055496585 0.026670037 -0.15557009 -0.050295338
0.059999444 -0.009226553 -0.18629296 0.07799733 -0.012541634 0.059886146 -0.17092106 0.3267636
-0.019330705 -0.14797722 0.11273077 0.085452035 0.04812292 -0.011023426 0.10902423 0.14510047
-0.028238146 0.12737633 0.045933012 0.124596894 -0.020196283 -0.023439784 -0.090262786 0.050027993
-0.10859863 -0.10664095 0.15037468 0.029419633 -0.025511542 -0.036646612 -0.2433632 0.10386065
0.04828644 -0.12671936 -0.124570675 0.08439186 -0.013233074 -0.12447164 -0.04975495 -0.22579722
-0.019212833 -0.06679981 -0.07032736 -0.08049195 -0.007692772 0.07082392 0.04765666 -0.15447725
0.06612575 0.1517546 -0.0012640697 -0.13010532 -0.17446963 -0.31741393 0.024309928 0.16011101
-0.079586014 -0.008305576 -0.089858204 0.15704276 -0.06905137 -0.13537282 -0.1957828 -0.2154202
0.083442256 0.047749523 -0.009815096 0.38086432 -0.046819482 -0.05306709 -0.030366872 0.06480553
-0.00909574 -0.032604583 0.07422124 0.1554034 -0.075628474 -0.008584088 0.0049308045 -0.17126724
-0.04074912 0.027459538 -0.18983388 -0.034566376 0.003743462 -0.040246196 0.06116698 0.2180948
0.027788306 -0.069536835 0.12932192 0.034165237 0.20192215 0.043400165 -0.16253151 -0.19969033
-0.051032387 -0.029430967 0.14303443 0.14667377 0.0033547217 0.18718149 0.021908462 -0.08129055
-0.037289005 -0.07805148 -0.037027832 0.018794235 -0.1421876 -0.43824163 -0.25575837 0.15596244
0.07168951 -0.06617584 0.14946875 0.07040623 -0.05916504 -0.1724354 -0.04225146 0.01840839
-0.28496137 -0.14177266 -0.16458827 -0.12042764 -0.0072762524 0.022882253 0.10782767 0.12204955
0.13176459 0.17767794 0.046125807 -0.004236798 0.09343265 0.05330618 0.097262196 0.1384966
00000000: 582b e53d cc31 9abd 813b 923d 17bb 5c3c
00000010: a529 d53d 9c7f d43d bc9c 843e dccd aa3d
00000020: bf74 b53b b7c9 dc3d e731 97bc d6ee 733e
00000030: eda0 c5bc d4ee 22bc 7881 3a3e 8c7a 9abe
00000040: 9032 d63d 9051 efbc 8101 b0bd c20e 2e3e
00000050: 8575 0e3e 0263 103e c945 883d a33d 0dbe
00000060: 7d33 5cbe 5184 9f3c 9508 81be 4ff8 0bbf
00000070: 5dda 9bbd 49c9 293d 9d4b fcbc c33b 943d
00000080: 9dcb 0c3d 8399 253d 9522 78bd 3024 6b3d
00000090: d8a8 913d 2875 c93d 90fb db3d 4547 113e
000000a0: a0b5 183e 336c 77bd d7cc 86bd 2d4c 033c
000000b0: c81a 333e d701 113e a6e0 e73d c81e 0fbd
000000c0: 13ae 7abd 0fb8 e53b fa16 ac3d fcb9 cb3d
000000d0: 48b7 13ba a3be 13bd e78c 383d 57c5 adbd
000000e0: df72 ccbd 2654 b0bb 3819 7dbe 75b6 7c3d
000000f0: 9e09 e5bc b4fd cbbb e509 993e 6b7b 62ba
00000100: 08a3 17bc 6419 14be 2127 cf3d c5f7 173e
00000110: 0b03 59be 658d 4abe 990d a8bd 2f2b 81be
00000120: cea4 39bd f5b2 98ba 4f21 bfbe 469f 99bd
00000130: 57fb 383d 90d4 a03d 3c65 c23d de99 37be
00000140: f865 063d 3b12 c9bd de50 45be a55c df3c
00000150: 8e61 a93d ca85 20be cf33 f13d 28aa 233e
00000160: 1bd9 d83d a446 16be 3e9c 173c c144 d83d
00000170: e3be 1bbe 2b77 52be 1118 a43d 0414 aebd
00000180: bd51 79be f8fd 79be 904a d6bc 8af1 dbbd
00000190: be6d 00be 41ef 26bd e32f 6abd 7c64 94bd
000001a0: a47d 5d3d d9b7 b73d 8e7f 6b3c 8da1 c73d
000001b0: 1a23 6fbd 6103 f5bd 6582 b13c 6eef bd3c
000001c0: 6171 3cbe 0353 3a3d 27fa 923c fab6 2bbe
000001d0: 6350 63bd 1f7b da3c c44d 1fbe 7c02 4ebd
000001e0: fac1 753d f82a 17bc 95c3 3ebe 10bd 9f3d
000001f0: 6d7b 4dbc 2d4b 753d ee05 2fbe 8f4d a73e
00000200: 6d5b 9ebc 5787 17be 64df e63d 7a01 af3d
00000210: 8a1c 453d 9a9b 34bc 1848 df3d 3895 143e
00000220: af53 e7bc f16e 023e 4124 3c3d a82c ff3d
00000230: ad72 a5bc ca04 c0bc b2db b8bd 27ea 4c3d
00000240: f568 debd 9266 dabd d2fb 193e 7101 f13c
00000250: 95fd d0bc c21a 16bd 3434 79be e4b4 d43d
00000260: 01c8 453d b8c2 01be e91e ffbd a4d5 ac3d
00000270: 89cf 58bc fdea febd d9cb 4bbd 6337 67be
00000280: 3b64 9dbc 57ce 88bd ca07 90bd f7d8 a4bd
00000290: a613 fcbb 220c 913d a133 433d 492f 1ebe
000002a0: f06c 873d 8f65 1b3e 24af a5ba 543a 05be
000002b0: 2ba8 32be 1484 a2be 9d25 c73c 24f4 233e
000002c0: fefd a2bd 1c14 08bc 9407 b8bd d1cf 203e
000002d0: ce6a 8dbd 2c9f 0abe 497b 48be 1d97 5cbe
000002e0: c6e3 aa3d 0195 433d 7fcf 20bc a600 c33e
000002f0: c9c5 3fbd e15c 59bd f2c3 f8bc c3b8 843d
00000300: 4c06 15bc 628c 05bd 4e01 983d 1222 1f3e
00000310: 1ae3 9abd 46a4 0cbc 9692 a13b ae60 2fbe
00000320: 8de8 26bd d3f2 e03c d063 42be 7995 0dbd
00000330: df54 753b 32d9 24bd 3a8a 7a3d 3e54 5f3e
00000340: 4da4 e33c 5469 8ebd f76c 043e d9f0 0b3d
00000350: aec4 4e3e 5fc4 313d a96e 26be 9f7b 4cbe
00000360: 5607 51bd 3619 f1bc 9e77 123e a631 163e
00000370: e4da 5b3b 81ac 3f3e 6079 b33c a97b a6bd
00000380: 5bbc 18bd 74d9 9fbd 7faa 17bd 5ef6 993c
00000390: a099 11be 3561 e0be c3f2 82be 9eb4 1f3e
000003a0: f3d1 923d 3387 87bd 560e 193e 2431 903d
000003b0: 0a57 72bd e892 30be de0f 2dbd 31cd 963c
000003c0: 75e6 91be da2c 11be d489 28be c4a2 f6bd
000003d0: a16d eebb 9073 bb3c c1d4 dc3d 1df5 f93d
000003e0: 4ced 063e 35f1 353e 6aee 3c3d d6d4 8abb
000003f0: 9e59 bf3d 9557 5a3d 6731 c73d 0dd2 0d3e

conv2.bias f4 [128]
-0.023833852 -0.0723797 -0.0019281697 -0.030245438 -0.12816955 0.055737697 -0.060638823 -0.013504208
0.055797283 -0.13233212 -0.0013626124 0.05556009 0.013099288 0.07971779 -0.021184264 -0.06509523
0.0015721647 0.024597589 -0.07807193 -0.05073803 -0.009399265 -0.059841592 -0.03148438 -0.022302672
0.02731807 0.040967356 -0.048590004 -0.030762628 -0.11081788 0.023366021 -0.12386923 0.049885288
-0.019717984 0.011049366 0.048177484 -0.02892467 -0.04051528 -0.027446292 -0.069128014 -0.0474529
-0.12774976 -0.09060509 -0.11793403 -0.0053665023 -0.046545975 0.00074771215 -0.011306279 -0.018577106
-0.067595236 -0.13511121 0.028297298 -0.09524144 0.007919398 0.13942945 -0.14492872 -0.007492607
-0.097266376 -0.031622894 0.02185316 -0.05468636 0.15507564 -0.08665619 -0.053411573 -0.0065587014
-0.09624989 0.17326127 0.07075343 0.043088533 -0.040652167 -0.14079946 -0.04325064 -0.040636044
-0.011087916 -0.087898664 0.025933169 0.008661809 -0.12415144 -0.07895715 0.04899047 -0.0021929266
-0.027301222 -0.13386406 -0.07225689 -0.025951697 -0.10896775 -0.07588032 -0.01546284 -0.060362194
-0.01995584 -0.09124247 -0.074446924 -0.10142197 -0.0034978571 0.0019198848 0.08173835 0.04968961
0.0013246476 -0.016748223 0.030574726 0.0031206852 -0.060631335 -0.002497466 -0.052790537 -0.03751761
-0.011371507 0.022372372 -0.04824027 -0.095147446 -0.063567676 -0.06591055 -0.007843942 -0.1297268
-0.094795994 -0.0820196 -0.057152756 -0.047734685 -0.060190424 0.015605532 -0.06599989 -0.00414384
-0.04006017 -0.1446419 0.011659036 -0.036802854 -0.035797488 -0.029519591 -0.025798328 -0.0681615
00000000: 363f c3bc cf3b 94bd a4ba fcba 48c5 f7bc
00000010: e13e 03be 364d 643d 6a60 78bd c140 5dbc
00000020: b18b 643d 1282 07be af99 b2ba fa92 633d
00000030: 659e 563c 1543 a33d 9f8a adbc a650 85bd
00000040: 1811 ce3a e280 c93c 2de4 9fbd aed2 4fbd
00000050: 60ff 19bc 751c 75bd c4f5 00bd 18b4 b6bc
00000060: 25ca df3c 63cd 273d 5006 47bd e801 fcbc
00000070: 7cf4 e2bd 196a bf3c 27af fdbd 8454 4c3d
00000080: 9c87 a1bc 6608 353c c155 453d 6ef3 ecbc
00000090: 5af3 25bd 0cd7 e0bc fd92 8dbd f95d 42bd
000000a0: d5d0 02be 298f b9bd 6687 f1bd 7cd9 afbb
000000b0: fea6 3ebd 1d02 443a f93d 39bc 042f 98bc
000000c0: 5f6f 8abd 985a 0abe bccf e73c f20d c3bd
000000d0: 5dc0 013c 98c6 0e3e 3268 14be 8b84 f5bb
000000e0: 9833 c7bd 0287 01bd 6605 b33c cefe 5fbd
000000f0: 26cc 1e3e cd78 b1bd 18c6 5abd 60ea d6bb
00000100: aa1e c5bd 676b 313e 2de7 903d 9a7d 303d
00000110: e382 26bd bc2d 10be 9527 31bd fb71 26bd
00000120: 17aa 35bc 3704 b4bd cc71 d43c 43ea 0d3c
00000130: 1c43 febd 49b4 a1bd 3baa 483d 34b7 0fbb
00000140: d0a6 dfbc a913 09be 6cfb 93bd a798 d4bc
00000150: 7c2a dfbd 2467 9bbd da57 7dbc 593e 77bd
00000160: 6e7a a3bc 55dd babd a177 98bd 52b6 cfbd
00000170: 4e3c 65bb a5a4 fb3a 7066 a73d 5587 4b3d
00000180: cc9f ad3a 9233 89bc d977 fa3c 6984 4c3b
00000190: 9058 78bd 87ac 23bb e43a 58bd 11ac 19bd
000001a0: 8f4f 3abc 4446 b73c 9797 45bd aadc c2bd
000001b0: c52f 82bd 1cfc 86bd e183 00bc 1ad7 04be
000001c0: 6724 c2bd e4f9 a7bd 0219 6abd 7285 43bd
000001d0: 3c8a 76bd 58ae 7f3c f32a 87bd 0dc9 87bb
000001e0: 2216 24bd 021d 14be 8b05 3f3c 97be 16bd
000001f0: 63a0 12bd 12d3 f1bc 0457 d3bc 4298 8bbd

fc_shared.weight f4 [128, 768]
-0.03743094 -0.041220736 -0.028446192 -0.005245839 0.026623923 -0.055210035 0.069863476 -0.08894435
-0.0074504474 -0.018946746 0.02308021 -0.08689309 -0.09123482 -0.07168812 0.015202621 -0.008612035
-0.042517237 0.0375545 -0.00905841 -0.038961057 0.016198622 -0.045246154 -0.026238002 0.035584662
-0.015548841 -0.0018377635 0.0022756332 -0.037038606 0.00554679 -0.02560047 0.0147418175 -0.030667704
0.039089855 -0.00093938125 -0.06969361 -0.034299023 0.04531066 -0.08874031 -0.07753986 0.03551028
0.0090123685 -0.1298686 0.041973714 0.01161968 -0.09763992 -0.02121387 -0.03555237 -0.012545143
-0.022282647 -0.013294961 -0.10911986 -0.029048027 0.01020602 0.011315624 0.021984627 -0.005730432
-0.014615144 -0.036523588 -0.027706642 -0.009416444 0.009941171 -0.06415048 -0.03469198 -0.1193585
0.02962587 -0.1172327 -0.0683517 -0.15734023 0.011313402 -0.030932032 0.012585872 -0.07861355
-0.010584675 0.010298436 -0.06999432 0.058812384 -0.009690753 0.020104475 0.065553404 0.012243766
-0.026172332 -0.018757055 -0.026673215 -0.058034115 -0.10305602 -0.14959143 0.15256934 -0.09118599
-0.01891632 -0.05887824 -0.011109472 -0.091201834 -0.078800544 -0.01599266 0.07177941 0.06926383
-0.030602083 0.09316981 0.02972449 -0.061314777 -0.04927457 -0.058173925 0.0627791 0.114248686
-0.020833654 -0.04899382 0.0069437805 0.08824577 -0.041667044 -0.016133768 -0.02595592 -0.025630197
-0.013851447 -0.025948856 -0.06416722 -0.0041112723 -0.071604185 0.020995842 0.024764558 -0.08629559
-0.037317105 -0.01782174 -0.021539321 -0.044259407 0.015012863 -0.032145802 -0.16439337 0.002832624
-0.052624434 -0.061549183 0.07223944 -0.05594394 -0.03255521 -0.06417209 -0.05346893 -0.007466282
-0.005955986 -0.06490715 0.08775006 -0.05088793 -0.019895984 0.03542488 0.0073492145 -0.01661389
0.0054433607 0.1081687 0.049304772 -0.05179799 -0.059313424 0.09558595 -0.007650354 0.031335205
-0.054178365 -0.03325159 0.03094329 0.0085778525 -0.013001096 0.058196157 0.05226999 0.025922203
0.07922045 -0.0037724562 -0.0064923237 -0.05322367 -0.05669404 -0.0645653 -0.088588044 -0.025948806
0.052785087 -0.04063678 0.13019265 -0.045722064 0.006259517 -0.08157073 -0.09935467 0.03293563
0.11351889 0.14005522 -0.117968075 0.018865459 0.068353884 0.0022869378 -0.051927023 -0.065772034
0.046265222 0.01006028 0.00072258123 0.013447911 0.0025892844 -0.010790846 0.04078083 -0.072625354
0.02301804 0.014717911 -0.0005389435 0.02860998 -0.02344996 -0.0061304956 -0.09732443 -0.072505735
-0.050454076 -0.079177156 -0.034006 -0.06065137 -0.080133595 -0.12636782 -0.0939212 0.081474304
-0.19453645 -0.09680492 -0.0942139 -0.007109589 -0.029885134 0.0638084 0.0047626076 -0.030318653
-0.0052056834 -0.047788247 -0.15794241 -0.030572133 0.0092669455 0.08431367 0.023702398 -0.062490694
-0.13791691 -0.08574926 -0.05240707 -0.09579501 0.0007323643 -0.02894985 -0.022426095 0.02477843
0.008369287 0.013212311 -1.9447762e-05 -0.050421204 0.029050538 0.07876752 0.05450755 -0.016158037
0.0010383877 0.00020921398 -0.03794599 -0.084126204 -0.07161732 0.06871606 -0.026285587 -0.1050468
-0.0030113207 0.039694235 0.015122624 -0.014989375 0.04763784 0.070285514 0.10710516 0.19948761
00000000: 2f51 19bd 13d7 28bd fd07 e9bc 49e5 abbb
00000010: 6a1a da3c eb23 62bd 9514 8f3d 7528 b6bd
00000020: e222 f4bb 3536 9bbc b512 bd3c 01f5 b1bd
00000030: 52d9 babd 39d1 92bd 6a14 793c 7e19 0dbc
00000040: 8e26 2ebd bfd2 193d ba69 14bc a195 1fbd
00000050: f9b2 843c 0854 39bd 14f1 d6bc 39c1 113d
00000060: 91c0 7ebc 1ce1 f0ba ca22 153b cbb5 17bd
00000070: d9c1 b53b 14b8 d1bc aa87 713c d63a fbbc
00000080: af1c 203d cf40 76ba 86bb 8ebd 227d 0cbd
00000090: ac97 393d 7bbd b5bd 38cd 9ebd 3a73 113d
000000a0: 9da8 133c 46fc 04be a1ec 2b3d 7860 3e3c
000000b0: 70f7 c7bd b6c8 adbc 5d9f 11bd 258a 4dbc
000000c0: 198a b6bc 1cd3 59bc 3c7a dfbd 21f6 edbc
000000d0: 2737 273c 2b65 393c 1b19 b43c 59c6 bbbb
000000e0: 5b74 6fbc c299 15bd 0af9 e2bc 6e47 1abc
000000f0: 4be0 223c 5461 83bd 2d19 0ebd 3b72 f4bd
00000100: f4b1 f23c b317 f0bd fafb 8bbd cc1d 21be
00000110: d95b 393c 2c65 fdbc f934 4e3c 2400 a1bd
00000120: 586b 2dbc c5ba 283c 2f59 8fbd 41e5 703d
00000130: f7c5 1ebc 24b2 a43c dd40 863d 149a 483c
00000140: 5c67 d6bc 65a8 99bc c981 dabc 2eb5 6dbd
00000150: 090f d3bd 7f2e 19be 233b 1c3e b8bf babd
00000160: 66f6 9abc 4f2a 71bd 8104 36bc 07c8 babd
00000170: 2e62 a1bd 0a03 83bc 1501 933d 32da 8d3d
00000180: 38b1 fabc d0cf be3d c680 f33c 3425 7bbd
00000190: 22d4 49bd c847 6ebd 5492 803d 37fb e93d
000001a0: 57ab aabc bead 48bd a788 e33b 33ba b43d
000001b0: 10ab 2abd f72a 84bc 82a1 d4bc 6bf6 d1bc
000001c0: 2ef1 62bc b292 d4bc 1a6a 83bd dab7 86bb
000001d0: 37a5 92bd 79ff ab3c 0bdf ca3c bebb b0bd
000001e0: d2d9 18bd e6fe 91bc 3b73 b0bc 5a49 35bd
000001f0: 83f8 753c 51ab 03bd bc56 28be 8ba3 393b
00000200: b88c 57bd ff1a 7cbd 46f2 933d 7925 65bd
00000210: 9d58 05bd a86c 83bd 3d02 5bbd b7a7 f4bb
00000220: 6f2a c3bb 0aee 84bd 4eb6 b33d dd6f 50bd
00000230: e7fc a2bc ae19 113d aed1 f03b da19 88bc
00000240: 385e b23b 8d87 dd3d cdf3 493d 212a 54bd
00000250: a2f2 72bd 91c2 c33d d2af fabb 5859 003d
00000260: 22ea 5dbd d232 08bd c87c fd3c 1f8a 0c3c
00000270: 8d02 55bc 185f 6e3d 0f19 563d cd5a d43c
00000280: 553e a23d 503b 77bb 8fbd d4bb 1001 5abd
00000290: 0238 68bd d03a 84bd a66d b5bd 9792 d4bc
000002a0: 2d35 583d c172 26bd 3951 053e 0f47 3bbd
000002b0: a21c cd3b 8e0e a7bd 767a cbbd 83e7 063d
000002c0: 987c e83d a36a 0f3e 3f99 f1bd bc8b 9a3c
000002d0: 1ffd 8b3d 73e0 153b 6eb1 54bd 7db3 86bd
000002e0: 9a80 3d3d dfd3 243c 9b6b 3d3a a054 5c3c
000002f0: fcb0 293b 17cc 30bc cd09 273d 9abc 94bd
00000300: 5490 bc3c 6523 713c e347 0dba 7a5f ea3c
00000310: 211a c0bc 53e2 c8bb 0852 c7bd e37d 94bd
00000320: efa8 4ebd a227 a2bd e049 0bbd 926d 78bd
00000330: 151d a4bd 9166 01be c259 c0bd 00dc a63d
00000340: 9034 47be a841 c6bd 38f3 c0bd 8ef7 e8bb
00000350: abd1 f4bc faad 823d a60f 9c3b d35e f8bc
00000360: 7094 aabb 9cbd 43bd a8bb 21be 6972 fabc
00000370: 63d4 173c a5ac ac3d 882b c23c 3ef6 7fbd
00000380: 173a 0dbe 4f9d afbd cca8 56bd 2d30 c4bd
00000390: 23fc 3f3a 3c28 edbc eeb6 b7bc 22fc ca3c
000003a0: 551f 093c 7378 583c c023 a3b7 7786 4ebd
000003b0: 65fb ed3c de50 a13d 4f43 5f3d dc5d 84bc
000003c0: 821a 883a 7360 5b39 416d 1bbd 5c4a acbd
000003d0: 1aac 92bd 01bb 8c3d df54 d7bc c722 d7bd
000003e0: 9459 45bb 6c96 223d e2c4 773c ff95 75bc
000003f0: e51f 433d daf1 8f3d f359 db3d 7b46 4c3e

fc_shared.bias f4 [128]
-0.07010638 0.15487128 0.11877738 0.05460789 0.22252242 0.013803931 0.067705855 0.06151747
-0.04163557 -0.00082642585 0.0778735 -0.0021497302 0.09659953 0.0017216583 -0.04591944 0.2469616
-0.084982835 0.07798458 0.1112716 0.11249925 0.08235251 0.10533784 -0.061227113 0.06752629
0.0498917 -0.091765374 0.07996933 0.12831035 0.082734875 0.016046608 0.08349929 0.094915405
0.08721647 0.07419628 0.042191356 -0.080411725 0.15901884 -0.027348306 0.10532491 0.08602552
-0.016299756 0.13982229 -0.03427942 -0.027051497 -0.057256974 0.1962344 0.042836174 0.11963155
0.079506814 0.18481208 -0.16601364 -0.05217803 0.1737844 -0.06977393 0.10070842 0.1690745
-0.082653694 -0.18864676 -0.083466604 -0.0396159 0.11479153 0.12329656 0.11096983 -0.014616427
0.018623656 0.02844225 0.023168292 0.1618739 0.09665813 0.06044279 0.07232141 -0.011308296
-0.052858558 0.114356324 0.2198509 -0.0244642 0.20019118 0.060422495 0.10689894 0.12506339
0.20985952 0.1759798 -0.09248586 -0.05851069 0.03165181 0.08146844 0.15509257 0.12661153
0.07009217 0.10705824 0.032739524 0.042972166 0.10208385 0.070897594 0.053265058 -0.0019036485
0.013492482 0.028464392 0.13115269 0.088075586 0.07677511 -0.021245383 0.12481338 0.07661402
0.032925792 0.15079063 0.04048548 0.04076211 0.07907103 -0.014259765 -0.02849938 0.14832526
0.06945772 0.09739901 0.16969447 0.095165156 -0.11144902 0.17285748 0.11321065 -0.06623075
-0.15908296 0.20462154 0.10419779 0.109616846 0.1299424 0.17650762 -0.046227265 -0.028431162
00000000: ef93 8fbd 9496 1e3e 8e41 f33d 86ac 5f3d
00000010: ebdc 633e e229 623c 5ea9 8a3d bef9 7b3d
00000020: 0f8a 2abd 80a4 58ba 247c 9f3d 7de2 0cbb
00000030: f9d5 c53d 44a9 e13a 0616 3cbd 80e3 7c3e
00000040: 7b0b aebd 61b6 9f3d 5de2 e33d 0266 e63d
00000050: 6fa8 a83d 5ebb d73d 48c9 7abd 394b 8a3d
00000060: 3d5b 4c3d 7cef bbbd f6c6 a33d ca63 033e
00000070: e770 a93d 2d74 833c ad01 ab3d 0263 c23d
00000080: 8c9e b23d 38f4 973d d8d0 2c3d e7ae a4bd
00000090: d6d5 223e 8e09 e0bc 96b4 d73d 262e b03d
000000a0: 1187 85bc 932d 0f3e 9468 0cbd 1a9b ddbc
000000b0: 4a86 6abd acf1 483e fc74 2f3d 6301 f53d
000000c0: 78d4 a23d 613f 3d3e 7bff 29be a1b8 55bd
000000d0: 8af4 313e a2e5 8ebd 3740 ce3d de21 2d3e
000000e0: 5746 a9bd 9e2c 41be 8af0 aabd 4844 22bd
000000f0: d217 eb3d e882 fc3d 2644 e33d bd79 6fbc
00000100: a390 983c b9ff e83c 6ecb bd3c 46c2 253e
00000110: b3f4 c53d dc92 773d 3f1d 943d 6e46 39bc
00000120: 3782 58bd a633 ea3d 9820 613e 2569 c8bc
00000130: ebfe 4c3e 947d 773d d5ed da3d 9e10 003e
00000140: 6ae5 563e 0c34 343e 3a69 bdbd e8a8 6fbd
00000150: 54a5 013d edd8 a63d 96d0 1e3e 74a6 013e
00000160: 7c8c 8f3d 5a41 db3d e119 063d 9503 303d
00000170: 5611 d13d c232 913d 762c 5a3d d883 f9ba
00000180: 920f 5d3c 282e e93c e44c 063e f960 b43d
00000190: 453c 9d3d cc0a aebc 289e ff3d d0e7 9c3d
000001a0: 32dd 063d dc68 1a3e 1ad4 253d 2cf6 263d
000001b0: feef a13d caa1 69bc 8877 e9bc 94e2 173e
000001c0: d93f 8e3d 2279 c73d 63c4 2d3e f3e5 c23d
000001d0: 623f e4bd 8d01 313e fcda e73d fda3 87bd
000001e0: a5e6 22be 4f88 513e a765 d53d cc7e e03d
000001f0: 9f0f 053e 6abe 343e cd58 3dbd 78e8 e8bc

actor.weight f4 [7, 128]
0.012246361 -0.06135806 -0.25899664 -0.061775036 -0.026099645 -0.23819426 -0.08964165 -0.17006363
0.106265195 -0.3932773 -0.11205784 -0.02817806 -0.19882184 -0.08563874 0.2334475 -0.071273275
0.07680786 -0.09329852 -0.14849217 -0.1480003 -0.27990094 -0.036471747 0.0864542 0.117366955
-0.111434445 -0.100142635 0.05655159 -0.34792623 -0.41449705 0.056995764 -0.15618157 -0.24810444
-0.15131633 -0.21286087 -0.05656958 0.04685528 -0.0011010574 -0.24883956 -0.1345655 -0.14758481
-0.17987438 -0.2371869 -0.10875879 -0.03657827 -0.013879496 -0.087752454 -0.053528093 -0.0443935
-0.30911943 0.021250177 0.15155874 -0.06574547 -0.16649719 0.07613834 -0.3563109 -0.1841996
-0.10438805 0.14538002 -0.10492341 0.13315561 -0.13627951 -0.264634 0.012461026 -0.14611395
-0.16566285 -0.19354627 -0.15244646 -0.11742962 -0.18784814 -0.12877706 -0.095897816 -0.013578904
0.12996793 -0.029963851 -0.08317409 -0.03961495 -0.15376642 -0.07899513 -0.110969275 -0.41226968
0.003807395 -0.20684333 0.00038365085 0.045970675 -0.19236939 -0.113426656 -0.18215768 0.057551883
-0.19081512 -0.28698322 0.14047667 -0.02214806 -0.0343462 -0.18373376 0.2473992 -0.23995352
-0.054947272 0.1126742 -0.19379902 -0.067012556 0.1502525 -0.23516707 -0.21130778 -0.31379762
0.10788823 -0.06984934 -0.33101347 -0.25512964 0.041678846 0.04201901 -0.14026529 -0.07140613
0.030111855 -0.21367112 -0.105821036 0.08113447 -0.019424886 -0.01916747 0.018107833 -0.19887248
0.18542108 -0.102424555 -0.094940424 -0.09616189 -0.1962277 -0.17013909 0.23985739 0.07854974
0.06074282 0.037759826 -0.3257752 0.29503486 0.1108682 -0.1966561 0.19628264 -0.25556734
0.011650616 -0.10975045 -0.1858892 0.0009531427 -0.07198236 0.07765874 0.1646277 0.16091418
0.25614363 0.2218636 0.08760199 -0.10289811 -0.24834868 -0.015442444 0.14211473 -0.032605782
0.038016137 0.028316975 -0.0019611735 -0.19496812 -0.37955314 0.11135668 0.014165316 -0.02508766
0.038518183 -0.23223251 -0.12352838 -0.02713965 0.0740788 0.09772214 0.1564984 -0.045315873
-0.02565363 -0.01877231 0.3653089 -0.21507727 0.06694417 0.102460735 0.158532 0.3122773
-0.28495562 0.1486105 -0.07630297 -0.050142378 0.076650314 -0.015731454 -0.05874457 -0.08307822
0.047434047 0.14973205 -0.10143614 0.1447361 -0.07969876 -0.34841987 0.11969536 0.12725861
-0.1465173 0.3331162 0.27358964 0.07225312 -0.15860006 0.11827575 0.123671584 0.035850715
-0.19520341 -0.07984754 0.12056574 -0.167437 0.06298539 -0.04915544 -0.116827406 -0.22860333
0.15206648 0.054401986 -0.23713337 0.21997052 -0.31587878 -0.13352554 0.05950436 0.06308768
-0.07692234 -0.27734166 0.24689513 0.3270634 0.14770164 -0.22780642 0.14025773 -0.26992363
0.035666026 0.26397443 -0.08294523 0.2957626 0.25269222 -0.024478106 0.17871358 0.17040616
0.13626964 0.076464005 -0.31820762 -0.18195719 0.077479705 0.059220545 0.2340693 0.0915043
-0.021723447 -0.4709384 0.06745313 -0.09866601 0.030764528 0.045289755 -0.030631976 -0.13013203
0.12830004 0.09696756 0.23393276 -0.03567354 0.102544285 0.0842944 0.35872597 0.28581667
00000000: f6a4 483c 9752 7bbd 359b 84be d207 7dbd
00000010: ecce d5bc 32e9 73be 0b96 b7bd 2925 2ebe
00000020: 91a1 d93d a45b c9be 957e e5bd add5 e6bc
00000030: f497 4bbe 5d63 afbd dd0c 6f3e b9f7 91bd
00000040: 704d 9d3d 4b13 bfbd 550e 18be 648d 17be
00000050: 2d4f 8fbe 6663 15bd e60e b13d 165e f03d
00000060: be37 e4bd 9517 cdbd a4a2 673d 6323 b2be
00000070: f538 d4be 6474 693d 10ee 1fbe 170f 7ebe
00000080: abf2 1abe 33f8 59be 81b5 67bd 52eb 3f3d
00000090: 5b51 90ba cccf 7ebe 8acb 09be 7920 17be
000000a0: fd30 38be 1fe1 72be eebc debd 19d3 15bd
000000b0: d366 63bc 8fb7 b3bd 4640 5bbd f5d5 35bd
000000c0: e744 9ebe da14 ae3c 3732 1b3e 90a5 86bd
000000d0: 3d7e 2abe 6bee 9b3d 626e b6be d29e 3cbe
000000e0: 67c9 d5bd 80de 143e 16e2 d6bd f259 083e
000000f0: db8c 0bbe 1c7e 87be 5529 4c3c e59e 15be
00000100: 86a3 29be fe30 46be ed1a 1cbe f17e f0bd
00000110: 435b 40be 22de 03be 1366 c4bd 0d7a 5ebc
00000120: 5016 053e c076 f5bc 2d57 aabd 4943 22bd
00000130: f274 1dbe 33c8 a1bd dc43 e3bd 0315 d3be
00000140: 7d85 793b bdce 53be bf24 c939 bf4b 3c3d
00000150: 7bfc 44be 3c4c e8bd 8b87 3abe 86bb 6b3d
00000160: 0a65 43be 77ef 92be 1ed9 0f3e d96f b5bc
00000170: 9aae 0cbd b424 3cbe 3756 7d3e 60b6 75be
00000180: 6410 61bd bbc1 e63d 4073 46be e13d 89bd
00000190: cbdb 193e a3cf 70be 1161 58be 15aa a0be
000001a0: 81f4 dc3d 2c0d 8fbd 997a a9be 5aa0 82be
000001b0: 70b7 2a3d 201c 2c3d b4a1 0fbe 613d 92bd
000001c0: 23ad f63c 9acc 5abe b3b8 d8bd d429 a63d
000001d0: f020 9fbc 1905 9dbc e156 943c 3aa5 4bbe
000001e0: 06df 3d3e f7c3 d1bd 2070 c2bd 86f0 c4bd
000001f0: eaef 48be f138 2ebe 2d9d 753e b0de a03d
00000200: 77cd 783d 0caa 1a3d 02cc a6be cf0e 973e
00000210: de0e e33d 3760 49be 51fe 483e b9d9 82be
00000220: 3ae2 3e3c d8c4 e0bd bd59 3ebe 53dc 793a
00000230: 7d6b 93bd 8c0b 9f3d 2a94 283e b0c6 243e
00000240: 4225 833e 3630 633e ac68 b33d 3fbc d2bd
00000250: 1e4f 7ebe 4e02 7dbc 8686 113e a48d 05bd
00000260: cfb6 1b3d 00f9 e73c 0887 00bb b9a5 47be
00000270: ca54 c2be f90e e43d a415 683c a384 cdbc
00000280: 3ec5 1d3d 5cce 6dbe 73fc fcbd f953 debc
00000290: a0b6 973d 8c22 c83d 1e41 203e 239d 39bd
000002a0: 9027 d2bc 63c8 99bc c509 bb3e 373d 5cbe
000002b0: 061a 893d efd6 d13d 3656 223e cfe2 9f3e
000002c0: b4e5 91be 5a2d 183e bb44 9cbd 1862 4dbd
000002d0: d7fa 9c3d 40df 80bc 259e 70bd ea24 aabd
000002e0: 344a 423d 5c53 193e c0bd cfbd b335 143e
000002f0: 1a39 a3bd 1764 b2be d722 f53d 1550 023e
00000300: a208 16be 358e aa3e f113 8c3e 72f9 933d
00000310: 0e68 22be 8e3a f23d 8747 fd3d 33d8 123d
00000320: 67e3 47be 1b87 a3bd 2ceb f63d 9b74 2bbe
00000330: 7cfe 803d 3757 49bd 3543 efbd fe16 6abe
00000340: 51b7 1b3e 9ed4 5e3d 17d3 72be f43f 613e
00000350: ddba a1be ebba 08be d8ba 733d 1d34 813d
00000360: 7689 9dbd baff 8dbe 14d2 7c3e db74 a73e
00000370: 193f 173e 1646 69be b99f 0f3e 6e33 8abe
00000380: 8a16 123d a827 873e 30df a9bd 326e 973e
00000390: e060 813e 4f86 c8bc b100 373e f47e 2e3e
000003a0: 458a 0b3e 2999 9c3d 1cec a2be fc52 3abe
000003b0: aead 9e3d 3e91 723d ddaf 6f3e 9b66 bb3d
000003c0: 5ff5 b1bc d71e f1be de24 8a3d 6811 cabd
000003d0: e405 fc3c c081 393d e9ef fabc 5541 05be
000003e0: 1661 033e ee96 c63d 128c 6f3e 6b1e 12bd
000003f0: bd02 d23d 8ba2 ac3d eeaa b73e 9056 923e

actor.bias f4 [7]
-0.5185185 -0.005101521 0.0148619795 -0.046442866 0.09139951 0.028775098 -0.047658876
00000000: a1bd 04bf a92a a7bb a97f 733c e03a 3ebd
00000010: ab2f bb3d c1b9 eb3c f435 43bd

critic.weight f4 [1, 128]
-0.022514993 0.0047290497 0.005361802 0.016911827 -0.11339302 0.013126229 0.0057538114 0.008241381
0.014690973 0.0039273705 0.014389914 0.050665624 -0.026627203 -0.09538436 0.0265573 -0.06312389
-0.023191713 0.016218608 -0.045522 0.0075674104 0.013403471 -0.07757721 0.010208771 0.033480965
0.007525323 0.053956598 -0.12707527 0.02264811 0.0028729609 0.09013004 -0.078302845 0.030329492
0.011406475 0.009625694 -0.10361428 0.108490445 -0.11000493 0.0005708258 -0.022069799 -0.066050716
0.022013182 -0.042295307 0.023284823 0.04964641 0.013297316 -0.05739452 -0.019847667 -0.066163555
0.00764285 -0.07710423 0.02106439 0.0014595937 -0.04186637 0.016137565 0.010409367 0.010274136
0.007854383 -0.050642636 0.12828231 -0.27201226 0.0044856765 0.01651491 -0.110071935 0.020311115
0.00849089 0.018322976 0.0060032667 -0.0545039 0.014682472 0.0074951327 0.015080387 0.053376857
-0.040830933 -0.093831174 -0.06312279 0.0076095867 -0.047654256 -0.14157897 0.0280722 0.006060057
-0.067897215 -0.042446256 0.09929896 0.03874001 0.0066008517 -0.08387291 -0.045067724 -0.09575283
0.022019217 0.0097662555 0.01561327 -0.039549667 -0.020848835 0.0065392707 0.021022229 0.010943291
-0.012105781 -0.104903944 0.011988823 0.013082757 0.0029082121 0.079072215 0.028218359 0.013465445
-0.07781989 -0.062189765 0.0051588835 0.030151516 -0.13511093 -0.092024066 0.03132742 -0.052528698
-0.10028158 0.012318342 -0.036712207 0.023700818 -0.0046041254 -0.092824966 -0.14323251 0.039747696
-0.045999292 -0.051260725 -0.019787017 0.008529044 -0.038607538 -0.042206705 -0.0061407755 0.025375318
00000000: 5d71 b8bc 25f6 9a3b 0eb2 af3b ac8a 8a3c
00000010: 9a3a e8bd 650f 573c 788a bc3b db06 073c
00000020: 68b2 703c 2cb1 803b adc3 6b3c c286 4f3d
00000030: 4b21 dabc e058 c3bd b28e d93c 1947 81bd
00000040: 8cfc bdbc e3dc 843c 4775 3abd 0af8 f73b
00000050: 3b9a 5b3c cde0 9ebd b042 273c 5623 093d
00000060: fc96 f63b 9801 5d3d 0520 02be 8788 b93c
00000070: 4948 3c3b 1996 b83d 3e5d a0bd 8e75 f83c
00000080: 39e2 3a3c 16b5 1d3c b933 d4bd 3d30 de3d
00000090: 444a e1bd 79a3 153a b9cb b4bc 9945 87bd
000000a0: fd54 b43c d83d 2dbd d0bf be3c 095a 4b3d
000000b0: fcdc 593c 8416 6bbd 9397 a2bc c280 87bd
000000c0: df70 fa3b d3e8 9dbd 3a8f ac3c d64f bf3a
000000d0: 127c 2bbd ed32 843c 0d8c 2a3c da54 283c
000000e0: acaf 003c a76e 4fbd 705c 033e 3145 8bbe
000000f0: 95fc 923b 474a 873c 656d e1bd 7f63 a63c
00000100: 601d 0b3c 111a 963c 0db7 c43b 7b3f 5fbd
00000110: c08e 703c bb99 f53b ba13 773c b1a1 5a3d
00000120: 563e 27bd 8f2a c0bd 8546 81bd d759 f93b
00000130: 1c31 43bd 14fa 10be acf7 e53c 7193 c63b
00000140: b20d 8bbd 20dc 2dbd 415d cb3d d8ad 1e3d
00000150: f54b d83b 8fc5 abbd ef98 38bd 0f1a c4bd
00000160: a561 b43c a502 203c cdce 7f3c d5fe 21bd
00000170: 2dcb aabc 6147 d63b cf36 ac3c 7d4b 333c
00000180: 5357 46bc e1d7 d6bd c56c 443c 0f59 563c
00000190: b497 3e3b 9df0 a13d 302a e73c 2b9e 5c3c
000001a0: 0960 9fbd b2ba 7ebd da0b a93b 5000 f73c
000001b0: 855a 0abe 1d77 bcbd 2e51 003d 5528 57bd
000001c0: 6e60 cdbd dfd2 493c 8a5f 16bd 3828 c23c
000001d0: 34de 96bb 041b bebd 8bab 12be 7bce 223d
000001e0: c169 3cbd c4f6 51bd 6218 a2bc 67bd 0b3c
000001f0: f022 1ebd f0e0 2cbd 8f38 c9bb e6df cf3c
