trained_models/PPO/ppo_connect4_model_1_10epochs.pt (torch, 537900 bytes, 9 tensors)

conv1.weight f4 [64, 1, 4, 4]
000000 95 b3 30 be 2e ca 6a 3e 20 22 ba 3d 8e 8c c0 3d
       -0.17256005 0.22928688 0.0908854 0.09401809
000010 ac ce ab 3c 38 37 33 be 3b 5e 5e 3c 8d a7 ad bc
       0.020972572 -0.17501533 0.013572271 -0.021198059
000020 d2 ba 54 3e a9 30 a7 be 00 5d 47 be 14 7a 90 3d
       0.20774391 -0.32654312 -0.1946907 0.070545346
000030 fd d9 e5 bd b8 ee 9e 3d a5 4b 9c 3e ab 0d 36 3d
       -0.112232186 0.07760376 0.30526462 0.04444663
000040 54 ca 89 bc 7e 91 00 3e c0 1c 05 bc 12 9d 89 bd
       -0.01682011 0.12555501 -0.00812453 -0.06719412
000050 38 66 b5 bd 1d 6f b5 3e dc fe 3b be 66 20 74 bd
       -0.08857387 0.35436335 -0.1835894 -0.05960121
000060 9e 4c 1f be 45 03 ae bb e7 6e 8c be bc 57 6d be
       -0.15556571 -0.0053104484 -0.27428362 -0.23178
000070 c8 bb bc 3b 12 23 ed 3d c1 26 1a be 59 7e 3a 3e
       0.00575969 0.11578955 -0.15053846 0.1821226
000080 83 f5 2d 3e a6 b2 a3 bd 57 af c8 bc 29 83 f2 3d
       0.16988187 -0.07993059 -0.024497671 0.11841423
000090 69 cf 41 be 37 dc 86 bd 72 aa 89 be b0 96 5f 3d
       -0.18926777 -0.065849714 -0.26887852 0.054587066
0000a0 66 90 f8 3d f0 c3 43 bd d2 2c 82 3d cd b1 84 3e
       0.12136917 -0.047794282 0.06356205 0.259169
0000b0 22 55 c6 3d 58 47 37 3d 3a a8 97 3d 93 05 91 3d
       0.096842065 0.044745773 0.074051335 0.07081141
0000c0 b3 34 75 3e 18 a8 3e 3e eb 5e 86 bc 1a 7b 83 be
       0.23945884 0.1861881 -0.016402682 -0.25679857
0000d0 eb 17 49 bc 10 e1 20 be 01 1e 15 3d 78 72 78 bd
       -0.012273769 -0.15710855 0.036405567 -0.06065604
0000e0 0d 27 89 bd 64 89 1e 3b ae e9 f4 3d 83 e4 6b 3e
       -0.066969015 0.0024190778 0.11958633 0.23036389
0000f0 36 2c 9c 3d 86 19 6f 3e 04 b2 4b be 31 47 01 be
       0.0762562 0.2334958 -0.19892126 -0.12624814
000100 21 d5 34 3e 00 87 3c 3e 67 62 48 3e 95 c0 ad bd
       0.17659427 0.18410873 0.19568788 -0.08483998
000110 b5 a7 3c 3d b6 15 36 3e 73 e9 42 be bd 14 9f be
       0.046058375 0.1778172 -0.19034366 -0.3107051
000120 03 0b 96 bd 71 41 c8 bc f6 5e c0 be ab d4 21 3e
       -0.07326319 -0.024445267 -0.3757245 0.15803783
000130 d6 80 a3 bd cb 83 c8 bd 38 70 67 be 64 97 94 3e
       -0.07983558 -0.097907625 -0.22601402 0.29021752
000140 37 8f 81 3d f2 9a a9 3c e3 ee 8e bd 5c fc 96 3e
       0.06326144 0.020703766 -0.06979158 0.2948941
000150 e0 33 4a 3e f1 6f ca bd 5b 64 46 be 83 1a d0 3d
       0.19746351 -0.098846324 -0.1937422 0.10161307
000160 fe 2b 59 3e a5 89 e1 bd b6 2a 55 3e e8 ee 6e 3a
       0.21208188 -0.11012582 0.20817074 0.00091145793
000170 c2 f6 63 be 67 6d 91 3d fa 39 02 be 84 0d 15 3d
       -0.222621 0.07100945 -0.12717429 0.036389843
000180 02 29 5d 3e c2 e8 70 3e bd 74 75 bd 5c 89 a2 3e
       0.21597674 0.2352629 -0.059925783 0.31745422
000190 8d 95 5b 3d 10 ab 62 be 3a a5 1d 3e 29 b3 6b 3e
       0.05360942 -0.22135568 0.1539506 0.23017563
0001a0 f8 9b b8 3d 0b ff f6 3d b5 d5 e8 3d ea ce b7 bd
       0.09014124 0.12060364 0.113688864 -0.089750126
0001b0 75 57 7d be dd ff 0e bd a6 86 1f 3e 11 1b 0d 3e
       -0.24740393 -0.03491198 0.15578708 0.13779856
0001c0 46 1d 17 be 25 9c 82 be fb 65 d3 3d 8d d5 6f be
       -0.1475726 -0.25509754 0.103221856 -0.23421307
0001d0 96 e5 98 3d 5e e4 10 be 04 6f 7e be 6c c0 39 be
       0.07465665 -0.14149615 -0.24847037 -0.1813981
0001e0 4a be 03 3c 4c f0 ba bd 85 a9 85 3e 36 57 02 be
       0.008040974 -0.09127864 0.26105896 -0.12728581
0001f0 53 48 84 3e 91 f9 84 bd 2f f1 1b 3e ff cb c5 bc
       0.2583643 -0.064929135 0.15228723 -0.024145124
000200 b2 fe 43 3e cc b5 55 3e b8 00 32 bb 8f 80 7e 3c
       0.19140127 0.20870131 -0.0027161073 0.01553358
000210 3a 8f a0 3d 86 25 88 be 2f 1a ba 3d 83 d3 7b 3e
       0.07839818 -0.26591128 0.090870254 0.24592404
000220 75 80 6c be 87 af 13 3e d0 8f 8b bd 56 c6 53 bd
       -0.23095877 0.14422427 -0.068145394 -0.05170282
000230 c0 9c 8b be 41 dd ce 3d b9 ea 21 3d 62 2a 6c 3e
       -0.27268028 0.101007946 0.03953049 0.23063043
000240 8b 4c 82 3e fb 50 39 be ab 94 6c be dc 1e 8a 3e
       0.25449023 -0.18097298 -0.23103587 0.2697667
000250 c0 e2 9e be 2e 2c f2 bd db 40 bd bd 07 69 8b be
       -0.31032372 -0.11824833 -0.09240886 -0.27228567
000260 0d 8e 76 3d b2 43 4f bd 27 ed 48 3e eb 05 a3 bb
       0.060194064 -0.05060167 0.19621716 -0.0049750707
000270 f5 fb 52 3e 28 a3 cd bd 36 0e bc ba 17 08 1b 3e
       0.20603926 -0.10040885 -0.0014347497 0.15139805
000280 27 e0 04 3e af c2 55 3e ed ba 7d be a9 7e 0b 3e
       0.12976132 0.20875047 -0.24778338 0.13622536
000290 16 a1 cd 3d 05 aa 1b 3e cd a7 1b 3e b9 15 26 3e
       0.1004049 0.15201576 0.1520073 0.16219224
0002a0 2e 2d 0b be 91 d5 d5 3d 3b 82 53 be be 63 62 be
       -0.13591453 0.10441125 -0.20655148 -0.22108361
0002b0 30 de 12 3e 36 cf 51 bd cb 1f 17 bd 0e 38 a3 3c
       0.1434257 -0.051223002 -0.036895555 0.01992419
0002c0 7e 79 dd 3d fe 99 4a be 88 61 44 3d b3 c1 0a be
       0.108141884 -0.19785306 0.047944576 -0.13550453
0002d0 7d a9 05 3e 7f 69 83 bd b6 f0 da 3d 51 d2 6e be
       0.13052936 -0.06416606 0.10690443 -0.23322417
0002e0 45 d5 9f 3d 61 9b f8 bd 32 57 43 3e 87 7d 70 be
       0.0780435 -0.12139011 0.19076231 -0.23485385
0002f0 bd ee 4d 3e 49 af 9b bc 70 de 14 3e f0 aa ac bd
       0.20110603 -0.01900448 0.14537978 -0.08431041
000300 88 41 de 3d 6c 46 2c be 38 e0 d5 3d 04 09 72 3e
       0.10852343 -0.16823739 0.10443157 0.23636252
000310 4e 74 65 3d 19 0c 61 be a3 04 a8 3d f2 79 1e 3a
       0.05601912 -0.21977271 0.082040094 0.0006045393
000320 cc f1 06 be d7 81 94 be 11 3d 8d be 5c 12 14 be
       -0.13178176 -0.2900531 -0.27585652 -0.14460129
000330 73 9e 55 3e f0 3b 9c 3d 24 6d 15 be 5e a4 3b 3e
       0.20861225 0.0762862 -0.14592415 0.1832442
000340 e1 ad 90 bd b4 01 b1 3c f9 2b df bd c5 1d bc 3b
       -0.07064415 0.021607257 -0.10897059 0.0057408535
000350 44 b1 83 3d ae 90 b9 bd 4a d5 2b be 67 2e c8 bc
       0.06430295 -0.090607986 -0.16780582 -0.024436189
000360 7f cf 0b 3e 6e c6 a4 3e 98 9f 97 3e 0b 66 c8 be
       0.13653372 0.3218264 0.29613948 -0.39140353
000370 b8 fc c3 3d 9d de e1 3d 10 84 ea bc 13 fb 58 be
       0.09569687 0.11028788 -0.028627425 -0.21189527
000380 69 09 9b bc 6f 05 93 3e ae d8 4e bd ad 17 28 3e
       -0.018925386 0.28715083 -0.05049961 0.16415282
000390 63 40 52 be df d5 23 3e 46 80 07 be 63 02 fa 3c
       -0.20532374 0.15999554 -0.13232526 0.030518716
0003a0 71 21 1b 3d 4c 32 86 3d 9c 03 1c 3e 9e 67 d7 3d
       0.03787369 0.06552562 0.15235752 0.1051781
0003b0 01 e7 68 be 97 cb 6a bd f3 be 1b be 9b b5 f5 bd
       -0.22744371 -0.057323065 -0.1520956 -0.11997529
0003c0 55 86 80 3e 7f 7e 33 3e f1 b7 87 bd 59 77 8c 3e
       0.25102487 0.17528723 -0.06626881 0.27434805
0003d0 ba 45 4a 3e 62 b1 a3 bd 95 ff 66 be d4 a1 a6 3d
       0.19753161 -0.079928175 -0.22558434 0.08136335
0003e0 46 15 1f be 72 46 56 bd 0b 54 5b 3d 65 70 c6 bd
       -0.15535459 -0.052313276 0.053546946 -0.09689406
0003f0 55 48 44 bc 1b da 2b be e7 2d 27 be e5 b5 ea bd
       -0.011980136 -0.1678242 -0.16326104 -0.11460475

conv1.bias f4 [64]
000000 6a e0 9a 3d f8 a8 8a 3c 71 ef 3e be bb e1 fb bd
       0.07562335 0.016926274 -0.18646027 -0.12298914
000010 d9 65 a8 bd f5 42 16 be 45 df 01 be 39 fe 26 3e
       -0.08222551 -0.1467398 -0.12682827 0.16307916
000020 f5 0d 60 3e c4 d8 66 3d 61 d8 f2 3d 5b 87 08 3e
       0.21880324 0.056359068 0.11857677 0.13332884
000030 7a e5 4c 3e 78 d0 b9 bc f2 fe d0 3c 5f c1 01 be
       0.20009413 -0.022682413 0.025512192 -0.12671421
000040 86 c3 60 be 4b ae 31 be dd a1 70 bd 84 63 29 be
       -0.21949586 -0.17351644 -0.058748115 -0.16541868
000050 55 f6 00 be 99 eb 30 be d7 91 d9 bd d9 2f 32 3e
       -0.12593968 -0.17277373 -0.1062352 0.17401065
000060 c4 2c 79 3e 74 73 17 3d ae 4e 9f bd e7 fa e9 bd
       0.24333483 0.03697534 -0.07778679 -0.11424809
000070 8b 18 90 3e 4b b9 25 be 56 56 8a be 93 93 19 3e
       0.28143725 -0.16183965 -0.27018994 0.14997701
000080 18 da 38 be ef a5 12 3e ce 21 76 3d f1 78 d6 bd
       -0.18051946 0.14321111 0.060090832 -0.104722865
000090 f4 51 2b 3d 9e eb 89 bc c0 21 75 be 8b c3 65 3e
       0.041826203 -0.016835984 -0.23938656 0.22437875
0000a0 95 46 7d be 29 01 5d bb 7a a6 c3 3d 43 a4 6c 3e
       -0.24733956 -0.0033722615 0.09553237 0.23109536
0000b0 77 70 3e be 0e 2c 8b 3e b5 9d 4d be 33 54 b9 3d
       -0.1859759 0.2718205 -0.20079692 0.09049263
0000c0 53 7c d2 3c 19 98 b1 3d 79 37 37 be 78 bf 5c 3e
       0.025694048 0.086715885 -0.17892255 0.21557415
0000d0 73 46 34 3d a8 83 d8 bd 6a 7b 26 3e 4f 99 77 bd
       0.044012498 -0.105719864 0.16258016 -0.06044894
0000e0 b2 c7 0a be 70 ed 06 3e 2e 76 b0 3c 5e 27 f0 3c
       -0.1355274 0.13176513 0.021540727 0.029315647
0000f0 9a 00 0a be bc 9c ff bd 66 d7 78 be db 96 02 be
       -0.13476792 -0.124810666 -0.24300918 -0.1275286

conv2.weight f4 [128, 64, 2, 2]
000000 28 4a 72 bd e4 e4 bc 3c a3 0b 0f 3d d9 8c a5 3d
       -0.059152752 0.023058362 0.034923207 0.08083505
000010 8e ea 06 bd 4a 5e 09 be 09 03 00 3e a4 60 d7 bd
       -0.032938533 -0.13414875 0.12501158 -0.105164796
000020 26 fa 6a 3d 1d ab 9c bd c8 e3 5e 3c f5 4e 73 bd
       0.057367466 -0.07649825 0.013604112 -0.05940147
000030 65 d9 d4 3d 88 61 03 be 4b 38 cc bd c5 d8 fa bd
       0.10393027 -0.12830174 -0.099716745 -0.12248377
000040 b0 b6 3f 3e d8 a8 88 bd 5a 90 a3 3e 76 74 d5 bd
       0.18722034 -0.066728294 0.3194607 -0.10422604
000050 1a 4c 2e 3d 2a 13 c7 bc 8a a2 ee 3c 00 50 4e bd
       0.042553045 -0.02430113 0.029130239 -0.050369263
000060 32 13 07 be a9 9b d3 bb 84 9e c7 bc 86 de 37 bc
       -0.13190916 -0.006457765 -0.024367578 -0.011222487
000070 9f fd 30 3d 95 90 0b bd 04 06 1a bd 0f 2c d3 3c
       0.043210622 -0.03407343 -0.037603393 0.025777845
000080 e5 70 5e bd 34 5d d1 bc 89 3d f0 bc cf c9 15 bd
       -0.054306883 -0.025557138 -0.029326217 -0.036569413
000090 bd 99 3c bb c1 ac b0 bc 1f a4 26 3c 1a 27 34 3d
       -0.0028778159 -0.02156675 0.010170965 0.043982603
0000a0 49 f6 24 bb 37 f4 80 bb b8 01 ad 3c a9 32 e8 bd
       -0.0025171211 -0.0039353627 0.021118984 -0.11337788
0000b0 45 da a0 3c 4b ec 9b bd ad 92 b3 bd 9e 75 18 bd
       0.019635329 -0.07613429 -0.087682106 -0.037221543
0000c0 a1 3f f7 bb aa 0a e1 bd 88 9b 47 3c f9 13 16 bd
       -0.007545427 -0.10988362 0.012183078 -0.03664014
0000d0 cd 06 92 bb 27 bf 4d 3c f8 75 26 be 88 d4 4c be
       -0.004456377 0.012557781 -0.16255939 -0.20002949
0000e0 74 25 8e bd 32 b3 a2 bc 66 4a 7b 3d d6 b3 0d bd
       -0.06940737 -0.019860838 0.06135025 -0.034595333
0000f0 18 65 49 3d 85 c9 bf bd 8e 09 84 3d b0 e3 be bd
       0.049168676 -0.09364609 0.06447135 -0.09320772
000100 55 89 be bd 5f 45 36 bd 7c aa 70 3d 64 eb 94 3d
       -0.09303538 -0.04449975 0.058756337 0.0727146
000110 2e 0e 2b bb 90 df 60 bd 26 4a b5 bd 12 91 84 bd
       -0.002610098 -0.054900706 -0.08852033 -0.064729825
000120 81 5c 9f bd ab 0f 1d 3e 71 01 fb bd f5 d6 b6 3d
       -0.077813156 0.15338008 -0.12256134 0.089277185
000130 5c f4 06 bb f6 48 6d be ef be db 3c 18 f2 36 3c
       -0.0020592427 -0.23172364 0.026824443 0.011166118
000140 8e e2 63 bd f8 51 bf bc 37 3a 3d bd e5 f3 52 bb
       -0.05563598 -0.023354515 -0.046198096 -0.003218883
000150 e6 f2 2e be d4 bd a4 bd 32 4d 49 3d 82 51 bc bd
       -0.17084846 -0.08044019 0.049145885 -0.09195234
000160 29 21 c5 bc fc 14 19 3d 95 3b bf bd a3 2c 22 bc
       -0.024063664 0.037373528 -0.09337536 -0.009898338
000170 60 c3 a4 bd 8b b0 7a bc 29 56 21 be 9e a5 28 be
       -0.08045077 -0.01530088 -0.15755524 -0.16469428
000180 87 db 0d 3d 53 14 de ba 38 59 ce bc f1 f5 fa 3d
       0.034633186 -0.0016943313 -0.025189027 0.12253941
000190 df 9e 7e bd 21 2d 51 3d 9b f3 a6 bd 66 18 eb 3c
       -0.06216323 0.05106843 -0.08151933 0.028698158
0001a0 cb 58 35 3d 17 24 15 be f6 22 a1 3d 13 4e 72 bd
       0.044274133 -0.14564548 0.078679964 -0.05915649
0001b0 25 31 91 bd b0 d1 24 be 0f d4 be bd 9f 85 89 3c
       -0.07089452 -0.16095614 -0.09317791 0.016787348
0001c0 45 15 1c 3e 30 88 1f bd d2 76 2c 3e 4b 51 59 3d
       0.15242489 -0.038948238 0.16842201 0.053056043
0001d0 06 89 88 bd 38 57 47 3e 8e be b6 bd f3 2a 91 3e
       -0.0666676 0.19466865 -0.08923064 0.2835308
0001e0 8d 17 00 3e 0f ee a8 bd e5 6c d5 3d 94 aa 01 bc
       0.12508984 -0.08248531 0.104211606 -0.007914204
0001f0 91 4d 6a bc 17 1e 48 3c 09 21 a9 3b ac 6c eb bd
       -0.01430072 0.012214205 0.005161409 -0.11495337
000200 6d 29 c5 3d 5b 56 dc 3a 2a 56 c1 bc 63 e6 38 3d
       0.09627042 0.0016810404 -0.023600657 0.04514159
000210 38 d8 77 bd e1 1b ec 3d f4 4a e5 bd b9 c7 11 3e
       -0.060508937 0.11528755 -0.11195937 0.14236344
000220 6d cb 85 3c 48 04 84 bd 5a ad 87 bd d8 84 bf bd
       0.016332353 -0.06446129 -0.06624861 -0.0935151
000230 26 87 bf bc 6d f7 06 3d 76 1c 57 bc 0a cb 02 3e
       -0.023379873 0.032950807 -0.013129344 0.12772766
000240 8f 66 8b 3d 8a c0 6f 3d c5 3c 1e 3d 5a 13 e2 bc
       0.06806671 0.05853323 0.038632173 -0.027597118
000250 d7 46 af bc f5 78 ad 3d ec 55 16 3c c1 da 04 bd
       -0.021396084 0.08470336 0.009175759 -0.032435182
000260 5c 3b f5 3d a1 29 7c 3c 05 a6 e5 3d 04 22 4a bd
       0.119742125 0.0153907845 0.11213306 -0.049348846
000270 12 89 15 bc ad 15 0f 3d 7c 28 1f bd 71 b7 42 3d
       -0.009126918 0.03493278 -0.03885697 0.047538225
000280 cc a5 d6 3d de 36 d4 bd df 66 fa bc ae f7 49 bc
       0.10480842 -0.103620276 -0.03056663 -0.012327118
000290 2a b3 0e 3e ff 66 23 be e5 c2 a1 bc 2a 7f 46 be
       0.13935533 -0.15957259 -0.019746253 -0.19384447
0002a0 e9 30 4c 3d 85 d4 9f bd 14 99 bf bd 57 14 56 be
       0.04985133 -0.07804207 -0.09355369 -0.20906197
0002b0 25 b6 bb bc db 10 91 3c 46 36 95 3d ae 5a 0e 39
       -0.022914002 0.017708233 0.072857425 0.00013575956
0002c0 59 1c a0 3d 87 14 0f 3c 91 ec 3b 3d 44 f5 8f 3d
       0.07817907 0.008732921 0.045879904 0.070292026
0002d0 7c 58 92 3d bd 7a 72 bd 56 4c bf 3d d7 9c 94 3c
       0.07145783 -0.059199084 0.09340732 0.018141193
0002e0 66 ab fa bd f7 9a 1d 3d 15 f2 a1 bd f5 22 c9 3d
       -0.12239723 0.038477864 -0.079075016 0.09821121
0002f0 8e 55 95 3c cb 36 01 bd bb db f8 3d 0f 76 64 bd
       0.018229272 -0.031546395 0.12151285 -0.055776652
000300 e3 6f 01 bd 89 75 9f bd 8a da 77 be b9 8f cd bd
       -0.031600844 -0.0778609 -0.2420446 -0.100371785
000310 6f 9b 0f bc 5f 4a 9f 3d ed 9d bf bd 07 86 09 3e
       -0.008765086 0.07777857 -0.09356294 0.13430034
000320 be d9 33 bd ec ea 76 3c cb fe ba bd f4 3e 8a bb
       -0.043908827 0.015070658 -0.09130629 -0.0042189304
000330 d6 2a f5 bc f6 f6 8b ba c7 21 ad 3d da 44 1b 3d
       -0.029927652 -0.0010678458 0.08453708 0.03790746
000340 60 35 67 bd aa 8a db 3d d9 bc 02 bd 35 83 ef bd
       -0.056447387 0.107198074 -0.03191838 -0.11694948
000350 af 31 12 bd 4a 5e 8a bd 3c 23 a3 bd d0 ed 3c bd
       -0.035691913 -0.067562655 -0.07965705 -0.046125233
000360 70 37 02 bd d5 22 1f 3d 0f f2 8c 3c 46 3d c8 bb
       -0.03179115 0.038851578 0.017205266 -0.00611082
000370 7f 75 bf bc 0e 1e 3b bb 54 cb b6 bd 98 83 90 bc
       -0.023371456 -0.002855185 -0.089255005 -0.017640874
000380 4b 42 8c 3c 9a 0c 16 be 7f 77 17 bc 1b a1 9b bd
       0.017121455 -0.14653245 -0.009244799 -0.07599088
000390 54 63 ae 3d 77 8e 2c bd ba 70 69 3b 8f 75 69 bc
       0.08515039 -0.042128053 0.0035620169 -0.01424922
0003a0 5b 83 0d 3d 3f 79 49 bc 86 94 cc 3d d0 f0 cd bd
       0.0345491 -0.012296974 0.09989266 -0.10055697
0003b0 3a e6 ea 3c 43 7c da bd ae 08 8c bd ba 33 c8 bc
       0.028674234 -0.10668232 -0.06837593 -0.024438728
0003c0 46 51 b9 3c c6 26 69 bd 2a 10 7f 3d 4d 82 ea bd
       0.022621762 -0.056921743 0.062271275 -0.11450634
0003d0 35 bf 15 3c 72 ea 49 bd e1 59 ae 3c ed cf 21 bd
       0.009139826 -0.04929585 0.021283092 -0.039504934
0003e0 73 21 8f bc 30 1d 03 3c 0d f8 22 bc c5 4a 9f bc
       -0.017472005 0.008002564 -0.009946835 -0.019444833
0003f0 10 e9 4c bd 30 aa aa 3d 88 6a 5c 3e ae a1 1c bd
       -0.050026953 0.08333242 0.21525013 -0.038240127

conv2.bias f4 [128]
000000 cf 3f 54 bd ea 1e ed bc 76 68 09 3d 1e da de bc
       -0.051818665 -0.028945405 0.033546887 -0.027203616
000010 7d e8 b0 bc 76 5f 5c 3d 59 39 4f bd 6f 46 9a 3b
       -0.021595234 0.053801976 -0.0505918 0.0047081034
000020 90 ec 18 3c 7e 3e 44 3c 6e b2 dc bc cf 98 89 3d
       0.009333745 0.01197779 -0.02694055 0.06718599
000030 36 d4 3d bd 21 ac 3d bd 94 87 d6 bc 13 19 4c 3d
       -0.04634496 -0.046306733 -0.026187696 0.0498286
000040 7b ef 83 bc 3c 8a 06 3d 05 db 3d bd 3a 5b 27 bd
       -0.016105404 0.032846674 -0.04635145 -0.040858485
000050 a7 0d 9b bd d2 e9 52 bd 50 62 d1 3b 7c 8c 61 bd
       -0.07570963 -0.05149252 0.0063898936 -0.055065617
000060 80 42 ee bc 5b c0 af bc 4e 34 c2 3d 9a 62 59 3d
       -0.029084444 -0.021454027 0.094826326 0.05307255
000070 9f 0c 14 3c 9a c7 82 bd 14 b0 5b bd fe 9d 67 bc
       0.009036212 -0.06385727 -0.053634718 -0.014136789
000080 15 a3 95 3b 52 4a 2e bb fb da 5c bd 8c e0 75 3c
       0.00456656 -0.0026594591 -0.053919774 0.015007149
000090 bd cb cb 3b e6 e7 f3 3c 03 22 8b bc d0 52 73 3d
       0.006219356 0.029773664 -0.016983991 0.059405148
0000a0 b4 34 6a bd 41 09 b8 bc e9 41 b3 bc b1 1d 0e 3d
       -0.057179168 -0.02246535 -0.021882014 0.034696285
0000b0 b8 07 de 3b f6 81 40 bd 49 34 a3 bc bb 80 83 bd
       0.0067758225 -0.04699894 -0.019922392 -0.06421038
0000c0 a1 25 50 3d 03 54 5f 3d f4 49 f0 bc 28 9f 2e bd
       0.050817136 0.05452348 -0.029332139 -0.042632252
0000d0 02 50 41 bc 18 7d 58 bc fb 5a d3 3c 6c 65 52 bc
       -0.0117988605 -0.013213418 0.025800219 -0.012841564
0000e0 2a fb 81 bc 1c 70 1c 3d ba 5b 4f 3c 13 20 b3 3d
       -0.015866835 0.038192853 0.012656147 0.08746352
0000f0 dc 0e 2b bb 24 66 a3 ba 75 df 0b bd 9d 06 43 3d
       -0.0026101386 -0.0012466353 -0.034148652 0.04761373
000100 65 42 3c 3d 1c 5b f8 bc 34 d6 3e 3c 7b ba 17 3b
       0.045961756 -0.030316882 0.01164775 0.0023151923
000110 15 5d 99 3d 41 d2 e9 3c 92 39 97 bd 9f 4d 15 3c
       0.07488457 0.02854264 -0.073840275 0.009112745
000120 a6 f7 50 bd a2 90 23 3c f2 2f a4 3c cb 09 33 bd
       -0.051017426 0.009983214 0.020042393 -0.04371051
000130 cb ba a1 3c 92 9d 87 bd 41 97 f2 bc c8 17 99 bd
       0.01974239 -0.06621851 -0.02961314 -0.07475239
000140 1c 75 75 bd 8f ce 8d bc 68 71 14 bd 71 30 b0 bb
       -0.059926137 -0.017310409 -0.036240965 -0.0053768684
000150 45 f7 08 bc 8b 30 33 3d 9c fb e3 3c bb 18 09 3d
       -0.008359735 0.043747466 0.027829938 0.03347085
000160 be 40 c2 bc e5 d6 3b 3d 2c a8 ef bc 36 ba 4f 3d
       -0.023712512 0.045859236 -0.029254995 0.050714694
000170 94 7c ce bc b1 4f 61 3c 2d fd a8 bc fe 97 e3 3c
       -0.025205888 0.01375191 -0.020628536 0.027782436
000180 21 e8 48 bd 95 23 54 3b 08 77 2a bd 9e f5 80 bd
       -0.0490495 0.0032369841 -0.041617423 -0.06296848
000190 33 e6 7b 3c 94 39 39 3c e4 9e 57 3c 75 b2 80 bd
       0.015374708 0.011305232 0.013160441 -0.06284038
0001a0 49 67 07 bd b0 f4 4c bd b4 f6 76 bd 23 bf 9f bc
       -0.033057485 -0.05003804 -0.06029387 -0.01950032
0001b0 ac 0c 36 bd 0a 71 01 3d b7 67 76 bd f5 58 7c bd
       -0.04444568 0.031601943 -0.060157504 -0.061608274
0001c0 81 a3 02 bd 81 e8 09 bc 25 36 5f bd 60 5f 8a bd
       -0.03189421 -0.00841725 -0.054494996 -0.067564726
0001d0 bf a0 3e 3d 39 3e 1e 3d 44 3b 55 3d 89 90 54 bd
       0.04654002 0.03863356 0.052058473 -0.051895652
0001e0 2f 68 2f bc 8c b5 14 bb 46 77 50 3d 06 bc 6f ba
       -0.010705992 -0.0022691218 0.050894998 -0.0009145144
0001f0 64 aa 49 3d 11 37 35 3d 5c c0 2d 3d 42 df 99 3c
       0.049234763 0.04424197 0.042419776 0.018783215

fc_shared.weight f4 [128, 768]
000000 93 b1 93 bc 34 37 a9 3d c4 cb f2 3d 77 67 9f 3c
       -0.01802901 0.08262482 0.118552715 0.019458516
000010 0c 10 f5 3b e3 c5 25 3d 4f 4d 84 3c 60 02 06 bc
       0.0074787196 0.040471923 0.016150145 -0.008179277
000020 9d 0b eb bb ad 43 ff 3c 60 12 a2 3c 73 69 a5 bc
       -0.0071730153 0.0311602 0.019784153 -0.020191884
000030 28 79 7c 3c 6c 10 1f bd 88 29 27 3d 49 3f 89 3c
       0.015409745 -0.03883402 0.04081109 0.01675381
000040 91 00 48 bd ed 0c 25 3d 08 25 fe 3c d0 8b 8f 3b
       -0.048828665 0.04029553 0.031023517 0.0043806806
000050 a5 67 08 3d 7c 1c 90 3d c5 e7 83 bd af 15 4b 3d
       0.033301968 0.07036683 -0.06440691 0.049581226
000060 a7 9e 93 bc 6e f4 4c bc bd dc a7 3c 18 b3 02 b8
       -0.018019987 -0.012509448 0.020490998 -3.116121e-05
000070 d3 08 f1 3c 5d 34 d5 bc b3 7a b7 3c e8 e4 92 3c
       0.029423153 -0.026025945 0.022397375 0.017931417
000080 7f 02 14 3d af f3 7c bb 4f 1d 8e 3d 62 30 ac 3c
       0.036135193 -0.0038597395 0.06939184 0.021019164
000090 34 47 aa bb 72 06 9a 3c e2 34 43 3d 02 67 07 3d
       -0.0051964764 0.018801901 0.047657855 0.03305722
0000a0 9a f6 42 bd f6 2b a2 3c 60 b2 b5 bc aa 1c a7 3d
       -0.04759846 0.019796353 -0.022179782 0.08159764
0000b0 2d fd 9e 3c b0 f9 ec bc 61 cd ea 3c 54 72 65 3c
       0.019407833 -0.028927654 0.028662385 0.014004309
0000c0 78 4d 56 3b d5 25 a8 3d e1 e4 e1 ba 59 d2 36 3c
       0.0032699984 0.08210341 -0.0017234349 0.011158549
0000d0 a5 24 9d 3d ee fa 86 bc 9a 47 42 3b 9d fe 81 3c
       0.07673005 -0.016477074 0.0029644729 0.01586848
0000e0 92 fc 86 bd ce 5b ef bb b6 36 f5 3c 2f 9c ff 3c
       -0.06591143 -0.007304645 0.029933315 0.031202404
0000f0 47 f4 1f 3d 45 35 56 3d c3 d9 65 bc 50 b2 2c bd
       0.03905132 0.052296896 -0.014028969 -0.04216224
000100 b2 fc 61 3d 52 c8 22 bd 1a 48 3d bd 94 fc ea 3c
       0.05517263 -0.03974182 -0.04621134 0.028684892
000110 35 1d 13 bc 47 26 bc 3b 72 d6 5a bc 2a f8 bf bc
       -0.0089791315 0.0057418677 -0.013356792 -0.023433764
000120 6f 75 50 3d bf 8c 87 3d 66 dd 0a 3d 53 57 35 bd
       0.050893243 0.06618642 0.03390255 -0.044272732
000130 19 b8 f5 3c 10 f2 f0 bb 1b b5 e4 3b 46 47 f3 3b
       0.029995011 -0.007353075 0.0069795973 0.007424268
000140 af ae 13 bd 90 a0 9b 3c 08 54 15 bb 60 e5 f8 bc
       -0.036055263 0.01899746 -0.0022785682 -0.030382812
000150 8c 4a b5 3c 99 58 0a bb 0f d6 ce bc 4e 1a 6c 3d
       0.022130273 -0.0021109937 -0.025248555 0.057642274
000160 74 8f 80 bc 43 57 34 bd a7 35 f1 3d eb ef 52 3c
       -0.015693404 -0.04402853 0.117778115 0.012874584
000170 e9 09 d8 bc 5b 97 56 3d c7 4a 3b bc 49 f5 0d bc
       -0.026371913 0.052390438 -0.0114314025 -0.008664438
000180 fa df 49 3d b0 83 ad 3c e0 df 9d bc fc e0 7b 3c
       0.049285866 0.021180958 -0.019271791 0.015373465
000190 ea e9 83 bc 2f 4e c6 bd d5 e5 27 3c bb a7 39 bd
       -0.01610275 -0.09682881 0.010247667 -0.045325976
0001a0 41 fe 81 3c 16 e7 b8 3c 11 69 c0 bc 3b 3b 83 bc
       0.015868308 0.022571128 -0.0234876 -0.016019454
0001b0 c9 58 b2 39 ae 61 1d bd a7 8b 77 3c 41 a6 82 3c
       0.00034016956 -0.038423233 0.015108979 0.015948417
0001c0 3e a0 09 bd 3c a4 2e bd 32 96 a8 3c ab 42 02 bc
       -0.033600084 -0.042637095 0.020579431 -0.007950465
0001d0 e4 8d 1e bd 17 b2 33 bd a9 b2 2c bb 68 ae fc b8
       -0.038709536 -0.04387101 -0.0026351607 -0.00012048782
0001e0 40 79 a8 3c d6 f8 2f bd df 76 87 bd 48 36 8b 3b
       0.020565629 -0.042961918 -0.0661447 0.004248414
0001f0 3c e4 25 3d 76 3a 38 bd f0 2d 9a 3c 82 4e 39 3d
       0.040500864 -0.044977628 0.018820733 0.045240887
000200 5b 7a 4a bd e4 15 48 3c b7 e3 8f 3b db 1a 5d bd
       -0.049433094 0.01221225 0.0043911594 -0.05398069
000210 f8 a7 0e bd 12 d5 8d 3d 4c 98 64 3d 5d ff 50 bd
       -0.034828156 0.069254056 0.055809304 -0.051024783
000220 14 44 ab bb e7 55 6c 3b f5 23 97 bc 0f 5f f9 bc
       -0.0052266214 0.0036061944 -0.018449763 -0.030440835
000230 e8 59 9f 3d 8d d8 65 3c cc 98 07 3d e4 48 1a bd
       0.0778082 0.0140286805 0.033104703 -0.03766717
000240 1d 33 06 3d 4b 23 ef bc 07 7a 1e bc e7 f0 b0 3b
       0.03276359 -0.029191634 -0.009672648 0.0053998115
000250 64 09 bb bc 52 e5 0d bd ca b5 2e bd 58 54 2a bc
       -0.022831626 -0.034642525 -0.042653836 -0.010396086
000260 56 b2 98 3d 3d cb 0a bd 4a 61 6e bb 7f b4 21 3c
       0.0745589 -0.03388523 -0.0036373907 0.009869694
000270 00 6b 65 3d b7 a5 e6 3c 61 02 b3 3c 6c 53 4c bd
       0.056010246 0.02815519 0.02185172 -0.049884245
000280 64 25 e3 3c 17 9c 47 3d bd b2 20 3d ff 9f f9 bc
       0.02772779 0.048732843 0.039232958 -0.0304718
000290 ac 61 0f bd d5 48 aa bc 1b 13 29 bd 53 34 06 ba
       -0.035005257 -0.020786682 -0.041277986 -0.0005119491
0002a0 34 10 7f 3d fb 1f 36 3d 80 e8 5b 3d 54 c5 5f 3c
       0.062271312 0.044464093 0.053688526 0.013657887
0002b0 bb ff ba bc 31 31 70 bb f0 49 d6 3c 87 28 98 bd
       -0.02282702 -0.0036650414 0.026158303 -0.07429605
0002c0 ab e8 86 3d 17 fe ed 3c b6 27 e8 3c c3 be c2 bb
       0.06587347 0.029051824 0.028339248 -0.0059431507
0002d0 e2 e8 db bd f0 de 23 bd fa 36 82 bd 63 cc ac bd
       -0.10737778 -0.04000753 -0.06358142 -0.08437421
0002e0 f7 b4 00 3d c3 46 b1 bc 8d d4 e3 3c ed c1 60 3d
       0.03142258 -0.021640187 0.027811313 0.054872442
0002f0 50 fe 11 bc f1 18 b4 3c e5 36 b4 3c 77 27 6e bd
       -0.0089107305 0.02198455 0.021998832 -0.058143105
000300 bf be 18 3d 43 e0 10 3d bb e5 3c 3b 66 5c 0b 3d
       0.037291285 0.035370123 0.0028823453 0.034023665
000310 f6 6e 5c bc ee f6 63 bd 75 69 9c bd da 0b 13 3b
       -0.0134541895 -0.055655412 -0.07637302 0.0022437484
000320 c3 25 50 3d 15 c5 8e bc 15 1c e7 bc c6 2f ad 3c
       0.050817262 -0.01742796 -0.028211633 0.021140944
000330 57 bc 0c bd 82 28 b5 bc 98 4e c1 bc 3a b0 93 3a
       -0.034359302 -0.022114042 -0.023597047 0.001126773
000340 9a 47 a1 bc 15 a2 b3 bc b7 42 ce 3c 78 8e 4c bb
       -0.019687463 -0.021927873 0.025178296 -0.0031212848
000350 d4 69 fc bb b6 a4 85 3b 2d 40 5a 3d 9e f2 b8 bc
       -0.0077030454 0.004078473 0.05328386 -0.022576626
000360 3f 25 bb bc 91 0d 05 3c 57 7f 0e 3d b3 ff 8d bc
       -0.022844909 0.00812091 0.03478941 -0.017333841
000370 19 c3 25 bb 46 89 c0 3b 02 6d df 3a 8e 90 55 3d
       -0.002529329 0.0058757393 0.0017046037 0.05213981
000380 47 2f 09 bd 90 05 18 39 0b 88 9f 3b 54 49 f5 bc
       -0.033492353 0.00014497922 0.0048685125 -0.029942192
000390 70 d2 7f 3d 44 64 92 3d 2c da f1 b9 f9 ca 1c bb
       0.06245655 0.071480304 -0.00046129653 -0.0023924692
0003a0 cc 61 01 3d 14 ba 17 bd 73 08 85 3d 58 f0 40 3d
       0.031587407 -0.037042692 0.06495752 0.04710421
0003b0 f5 d0 03 bd 86 d4 d4 3c 98 2f 2f 3c 4f 94 8b bc
       -0.0321817 0.025980245 0.0106925 -0.017038492
0003c0 f5 f4 e2 3a 2a f0 28 bd db b7 0b 3d 11 82 7d bc
       0.0017315435 -0.041244663 0.034110885 -0.015472905
0003d0 b4 65 f3 bc 72 76 0c 3d f3 0a b1 3c 0f 78 60 3d
       -0.029711582 0.034292646 0.021611666 0.054801997
0003e0 26 82 f6 3c 4e 1d af bc 48 d1 03 3c c0 c0 e7 3c
       0.030091356 -0.021376278 0.008045502 0.028290153
0003f0 0d f1 3e 3d 40 6f f7 bc 46 7d 44 3d 32 d4 ee 3c
       0.046616603 -0.030204415 0.047971033 0.029153917

fc_shared.bias f4 [128]
000000 4a cf a5 3d 1e 72 ce 3d e9 8c 23 3d dc e3 92 3c
       0.08096178 0.1008036 0.039929304 0.017930917
000010 fc b3 e8 3c ce 1b 29 3d 64 8d 32 bd 70 72 38 3c
       0.028406136 0.041286282 -0.04359187 0.011257753
000020 09 bf b4 3c e2 64 82 3b fe 16 88 3d cc ad 21 3c
       0.022063749 0.0039793113 0.066450104 0.009868097
000030 c3 bc ba 3c 9d ff 8e bd 76 05 f7 3b 10 25 c3 3c
       0.022795087 -0.06982348 0.007538493 0.023821384
000040 6f 16 93 3c 9e 9b 22 bb da 57 9b bb 03 79 57 38
       0.017955033 -0.0024811993 -0.0047406973 5.1372695e-05
000050 4f e1 8c 3b 0f da a3 3c 3f 4f c5 3c 26 d1 f0 3c
       0.00429932 0.02000144 0.024085639 0.029396605
000060 37 26 93 3d 25 87 46 3d 4d 2a fb 3c 1f 29 76 3b
       0.07185023 0.048468728 0.030659819 0.0037561131
000070 dd ce 87 3d 8d e4 3b 3d 6a 57 e3 3c 5f 1c 61 bc
       0.06631253 0.04587226 0.027751643 -0.013739674
000080 fe 0b 5c 3d 85 b6 f6 3c d3 2c 34 3d 1c 5d 38 3d
       0.053722374 0.030116329 0.04398806 0.04501067
000090 52 c1 14 3d 2f 03 26 bd 2d a6 70 3c 12 05 b1 bb
       0.036317177 -0.04053038 0.014688057 -0.0054022158
0000a0 61 0b 6d bc ca 67 56 3b 06 40 42 bc e8 78 dc 3c
       -0.014468045 0.0032715672 -0.011856085 0.026913121
0000b0 62 a8 e0 3c ac 8a 6a bd 11 06 2b 3d 07 05 6f bd
       0.027424041 -0.057261154 0.041753832 -0.058354404
0000c0 3a ce d5 3c 4d 19 2c 3d 71 15 88 3d 14 a0 53 3c
       0.026099313 0.042016316 0.066447146 0.012916584
0000d0 88 4c 31 3b c0 6b 31 3c 69 8e 3d 3d 10 7f 16 bb
       0.0027053673 0.010828912 0.04627839 -0.0022963919
0000e0 72 e9 cb 3c 82 57 f3 bc 6a af a2 bd 79 10 a0 3c
       0.024891589 -0.029704813 -0.07943614 0.019539105
0000f0 d9 ee e4 3b 13 8f 05 3c 45 3b 8b bc 57 6a 33 bd
       0.0069864807 0.008151787 -0.016996035 -0.043802585
000100 41 e6 6c 3c 2e 3f f6 bc af 85 03 bc 12 9f b7 3d
       0.014459194 -0.030059423 -0.008027478 0.08965887
000110 84 b9 7b 3d 31 27 4a 3d 08 02 51 3d f3 35 58 3d
       0.06145622 0.049353782 0.051027328 0.052785825
000120 92 c6 87 3b 89 7f 4e bc 17 04 51 3d 9c ca 7d 3c
       0.0041435445 -0.012603649 0.05102929 0.0154902
000130 66 2a 3d bd b8 4d 29 3d 6b 92 3d 3a 65 76 e9 bb
       -0.046183012 0.041333884 0.0007231596 -0.0071247094
000140 bc e9 28 ba 9a 59 a0 3d 60 e9 10 3c 01 7a 06 3d
       -0.00064435205 0.0782959 0.008844703 0.032831196
000150 09 54 15 3c 46 a4 4e 3d 5f 60 a7 bb d1 10 9d bc
       0.009114274 0.050449632 -0.005107924 -0.019173058
000160 fb 63 c9 3c e8 1d 18 bd 87 1e 0c 3c 24 29 6f 3d
       0.024583807 -0.037137896 0.0085522 0.058388844
000170 53 6a 72 3c 09 11 e8 3c 16 0b ce 3d 38 af b1 bc
       0.0147958575 0.028328435 0.10060708 -0.021689996
000180 13 05 3e bc 81 09 76 3d c0 e7 8d 3d 62 14 85 3b
       -0.0115978895 0.060067657 0.069289684 0.0040612677
000190 3a e3 10 3c 0a bc 1d bc f6 0b 57 3c df 35 c8 bb
       0.0088432375 -0.009627352 0.01312541 -0.0061099376
0001a0 86 4e e1 3b 54 af 14 3d cd 1c ed bb 3f 1b e7 3c
       0.006875816 0.03630002 -0.0072360993 0.028211234
0001b0 4b 69 ee 3c 33 44 20 3d bc 84 d0 bc 71 c9 8f 3d
       0.029102942 0.03912754 -0.025453918 0.07020844
0001c0 ed d8 a9 3c 4b f1 ec 3c fc 42 60 3b 2c bc 45 3c
       0.020733321 0.028923651 0.0034219613 0.012068789
0001d0 03 ea 3f 3d b7 89 f9 3a 2f 91 8f 3d ef 5b 89 3d
       0.04685403 0.0019038235 0.070101134 0.06706988
0001e0 3a 28 2a 3c 42 f9 0e 3d 71 30 d2 3c 19 8f 8c 3d
       0.010385567 0.03490568 0.025657864 0.06863231
0001f0 b5 49 a8 3d 66 e3 1e bc bd 54 61 bd e8 9a 17 3c
       0.082171835 -0.009697771 -0.055012453 0.009253241

actor.weight f4 [7, 128]
000000 6a 92 0b bd 25 ee 38 be b4 28 c9 bd a2 1d 7a 3d
       -0.03407518 -0.18059595 -0.09822217 0.061063416
000010 d8 2f eb bd b3 b8 30 3d 8e 07 44 bc c7 9b 2f bd
       -0.11483735 0.043144893 -0.011964692 -0.04287317
000020 5e 2e 1d 3d d3 1e 33 bd f1 61 2b 3d 3b ff 6b bd
       0.038374297 -0.04373057 0.04184145 -0.057616454
000030 34 02 51 3d 59 f5 51 3d cb ea 5a 3d 50 61 dc bc
       0.05102749 0.051259372 0.053446572 -0.026901871
000040 d9 c1 82 bd e9 06 f4 3c 09 db 81 bd 4b 4b d4 b9
       -0.0638463 0.029788451 -0.06340606 -0.0004049189
000050 c0 6b 20 bd 23 fe 37 be 1e 7d 9e 3d bc 84 af 3d
       -0.03916526 -0.17968039 0.07738708 0.08570239
000060 89 6b 81 bc b2 75 b5 3c 8c 73 8c 3d 67 0b 28 3d
       -0.015798347 0.022150848 0.06857976 0.0410265
000070 3b 03 25 3c 23 d6 d6 3c 09 a4 81 3b 5a d8 27 bd
       0.010071571 0.026225155 0.003956322 -0.040977813
000080 a3 d4 7a 3d 29 02 d0 bd 00 a3 7a 3d 0e 68 a7 3c
       0.061237942 -0.10156662 0.061190605 0.02043536
000090 b7 23 d6 bd 64 6e b6 bd a1 76 0a 3e 88 4b 07 be
       -0.10456031 -0.08907774 0.13521816 -0.13212407
0000a0 9c 32 37 bd 5b c3 26 3c 82 9f 87 be a3 34 8c bd
       -0.044726 0.010178412 -0.26488882 -0.06845977
0000b0 ea b9 60 bd 62 4a af bd af 0b 38 bd 51 a7 a0 3d
       -0.0548648 -0.08559109 -0.044933017 0.07844413
0000c0 2a a8 e6 bd f9 7b 71 3c 2b 64 ef bd 6e 47 88 bc
       -0.112625435 0.01473903 -0.116890274 -0.016635623
0000d0 70 cc 1a 3d 61 4b ba bd 2a 20 f5 bd 7b b2 11 be
       0.037792623 -0.09096409 -0.119690254 -0.14228241
0000e0 c5 1d d6 3c e8 3b 00 be 12 c8 40 3c 09 38 dc bc
       0.026137242 -0.12522852 0.0117664505 -0.026882188
0000f0 5c 19 95 bd 69 58 1a bd e3 17 44 bd 43 01 d6 bc
       -0.072802275 -0.03768197 -0.047874343 -0.026123649
000100 60 fe 23 be 00 8e 27 bd 22 47 02 be 91 0b 0b be
       -0.16015005 -0.040906906 -0.12722448 -0.13578631
000110 ff e5 05 bd c2 c9 ea bb 16 df 35 3c f3 b4 21 3d
       -0.032690044 -0.0071651647 0.011100551 0.039479207
000120 fb 3f 89 3d ed d8 a3 3d 91 42 9b bc 10 af 83 bc
       0.067016564 0.0800036 -0.01895264 -0.016074687
000130 40 10 4e bd 9a f3 04 3d 2e ac 5b bd 1c 06 87 3d
       -0.050308466 0.03245888 -0.053631 0.06592962
000140 bf c1 d7 bd a8 d9 0a be d3 3f 54 bc 7f d3 03 bd
       -0.10535001 -0.13559592 -0.01295467 -0.03218412
000150 76 51 7e 3c 2b 46 70 bd 4a 45 8e 3d 8e 29 81 bc
       0.0155223515 -0.058660667 0.069468096 -0.015766885
000160 ce c8 94 bc 3d 84 ea 3c f6 57 cd bd b9 24 37 bc
       -0.018162157 0.02862751 -0.10026543 -0.011178189
000170 df 0d c0 3d ee 3f 25 be 1e b9 0b be 4b c6 e8 bb
       0.09377646 -0.16137668 -0.13644835 -0.0071037165
000180 6a 2e 67 bd 5d 41 0f be 75 79 27 bd e9 44 87 3c
       -0.05644075 -0.13989778 -0.040887315 0.016512351
000190 c7 e3 81 3d 4f b9 9a 3d d7 4d 80 3d ca b8 91 bd
       0.06342273 0.07554876 0.06264847 -0.07115324
0001a0 98 d9 99 3c bc a4 99 bd 04 c9 27 bc 0f a9 90 bd
       0.018780515 -0.07502124 -0.010240797 -0.07063495
0001b0 f1 d7 81 bd 9c ee 00 3d 4c fe 30 bc af 52 29 be
       -0.06340016 0.031477556 -0.010802817 -0.16535448
0001c0 9a 82 1f bd 8b 9a ee bd a3 b9 7c 3c d3 d0 84 3d
       -0.03894291 -0.116505705 0.015425119 0.064851426
0001d0 69 51 a1 bd 9a 97 79 bc 23 cb d5 bd 2d 8f a8 bd
       -0.07876856 -0.015233899 -0.10439136 -0.082304336
0001e0 2a ea e6 bd 48 31 3f 3c 82 dd 03 bc 32 6a 8f bd
       -0.11275132 0.011669464 -0.008048417 -0.07002677
0001f0 0d 47 0e be a1 7c 45 bd de 1d d3 bd ea 7d 6e 3d
       -0.13894291 -0.04821456 -0.10308431 0.05822555
000200 6d f3 aa bd 65 fc 8e bc 55 3f 80 bd 69 8e 8a 3d
       -0.08347211 -0.017454335 -0.062620796 0.06765444
000210 a3 6c b7 bd 2b ae d1 3d 73 c0 bc bd b4 c5 bb bd
       -0.08956268 0.10238298 -0.09216394 -0.09168568
000220 3a e1 69 bd dd de e3 3c 90 59 02 3d 47 f7 c2 bd
       -0.05709956 0.02781623 0.031823695 -0.09519821
000230 59 88 93 3c 48 c9 cd 3d 8b 71 cc 3b 57 14 56 bd
       0.018009352 0.10048157 0.0062391213 -0.05226549
000240 8e cd 9f bd 22 d7 41 3d 39 bb a0 bc 51 6a c1 3b
       -0.07802878 0.047324307 -0.019620525 0.0059025665
000250 50 dd 8b b9 83 bb d2 bd 0d 27 9a bd 6e 3d c3 3d
       -0.00026677037 -0.10289671 -0.075269796 0.09533201
000260 dc 64 b3 3d 3b 84 b4 3c a9 a7 6a bd 76 ea c4 bc
       0.08759472 0.022035709 -0.0572888 -0.024037581
000270 f0 e1 1c bd fb 95 a4 3d 52 f9 4d bd b9 70 26 3d
       -0.03830141 0.08036419 -0.0502866 0.040634844
000280 9b e5 d3 3d 69 2d 9b 3d 9c 0f a9 3d 13 85 11 bd
       0.10346528 0.07577021 0.082549304 -0.0355273
000290 60 13 5d bd 8b 23 8e 3d 7a 38 aa 3d b0 b0 9b bd
       -0.053973556 0.06940373 0.08311553 -0.0760206
0002a0 bd 50 0c 3d b9 1e 1d bd 24 0c 41 3a 32 d1 b1 3d
       0.034256686 -0.038359378 0.0007364175 0.08682479
0002b0 73 09 f3 3c 31 69 83 3c aa a3 2c 3d 9a c3 14 3d
       0.029667592 0.01604137 0.04214827 0.036319353
0002c0 90 f7 5f bd 56 df 19 bb f9 f0 e9 3d 65 a8 51 bd
       -0.054679453 -0.0023479066 0.11422915 -0.051185984
0002d0 16 b0 24 bd 82 92 12 be b1 d2 6f bd dd 05 5d bb
       -0.04020699 -0.14313701 -0.05855054 -0.0033725419
0002e0 12 b3 c2 bc 37 1b 93 bd e2 d7 a1 3d 66 da 3a 3d
       -0.023767028 -0.07182925 0.079025045 0.045618437
0002f0 85 74 ac bd c5 39 d3 3c 4b 73 a4 bd b5 d1 2d bb
       -0.08420662 0.025784383 -0.08029803 -0.00265227
000300 c9 b7 a3 bb 22 48 bc 3b 69 a5 0e be 76 d3 8f 3d
       -0.004996274 0.0057459036 -0.13930286 0.07022755
000310 7e b4 f0 bb 9e 69 2a bc c0 3f 88 3c e8 c7 92 bd
       -0.007345735 -0.010401158 0.01663196 -0.07167035
000320 89 bb 4e bd 18 f6 82 3d 0a 59 fb bd 46 71 80 3d
       -0.050471816 0.06394595 -0.12272842 0.06271605
000330 00 b5 6d 3d c9 54 f5 3b 0e cc 9d 3d 0b e6 90 3d
       0.058033943 0.007486914 0.07704936 0.07075127
000340 48 f8 44 3c cc b4 b7 3d f2 ad 84 3d 06 36 3c 3d
       0.0120220855 0.08970031 0.0647849 0.04594996
000350 7b f7 0b 3c f3 82 18 be 1b 37 4a 3d ee bb 31 be
       0.008542891 -0.14893703 0.04936896 -0.17356846
000360 f9 54 98 3d 6b d3 a9 3b f3 a4 44 be ee 5b 0a 3d
       0.07438082 0.0051826737 -0.19203548 0.033779077
000370 d1 5d e2 3d 4a a2 0e be c2 26 65 b9 c4 ff 5f 3d
       0.1105305 -0.13929096 -0.0002185358 0.054687276
000380 b0 1e 23 be 8c a6 8b bd e7 33 b2 3d 45 01 59 bd
       -0.15929675 -0.06818876 0.08701306 -0.052979726
000390 07 0c 8e 3d 39 6f 07 3d 1f 28 91 3d cf 97 92 3d
       0.06935888 0.033065055 0.070877306 0.071578614
0003a0 59 3a bd 3d b7 be 26 bd 73 80 27 3d 7a 4e 89 3d
       0.092396446 -0.040709224 0.040893983 0.06704421
0003b0 61 0d 87 3d 5f f1 95 3d 66 b4 05 be ee 08 32 bd
       0.06594349 0.073214285 -0.13057098 -0.043465547
0003c0 51 12 90 3d 21 d3 86 bd e9 4c b4 3d fa d4 69 3d
       0.070347436 -0.065832384 0.08803732 0.057087876
0003d0 77 4f 42 bc 0d 10 12 3e 25 a9 c2 3d 77 2d 9f bc
       -0.011859766 0.14263935 0.09504918 -0.019430859
0003e0 1e 51 18 3d de 06 22 3d 36 f3 97 bd 36 75 0c 3c
       0.037186734 0.03955733 -0.07419436 0.008572867
0003f0 ce 23 99 bd 36 f4 4a bd 65 a8 35 bd d2 c6 54 3a
       -0.07477532 -0.049549304 -0.044350047 0.0008116785

actor.bias f4 [7]
000000 9f fa f3 bd 6b a8 27 3d 13 e3 bb 3d b6 bb 01 3e
       -0.119130366 0.0409321 0.0917417 0.12669262
000010 de 06 ab 3d 3b 58 fa bb a6 88 42 be
       0.08350919 -0.0076399124 -0.1899744

critic.weight f4 [1, 128]
000000 7b 73 ab bc 6b 02 23 3b 8b 86 9b b9 dc 8c ec bc
       -0.020929089 0.0024873267 -0.00029664146 -0.02887576
000010 4a fb 64 bc 8e c2 d3 bc 6d 29 a9 bb c5 9b ad bd
       -0.013975928 -0.025849607 -0.005162409 -0.08476976
000020 31 f6 1e bd 08 11 0a bd 00 4e 24 bd 66 63 d6 3b
       -0.038809005 -0.03370765 -0.04011345 0.006542611
000030 17 b1 9c bd 38 1b 15 3d a0 70 8c 3c 6e 49 3a 3d
       -0.07650965 0.03640291 0.017143548 0.045480184
000040 9c 79 64 3b ee 77 ac 3d 19 eb 85 3b 1a 95 d5 bc
       0.0034862524 0.08421312 0.0040868637 -0.026072074
000050 b0 82 97 bc e9 62 19 3d 5e 74 88 3d 36 19 82 bd
       -0.018494934 0.037447844 0.0666282 -0.06352465
000060 39 32 ff bc e9 8a 58 bd 6c 08 a6 3d 62 5a 83 bd
       -0.031151878 -0.05286685 0.08107075 -0.064137235
000070 31 4f 6c bd ef fc 38 bd 2a cd 0a bd 73 d6 4b 3d
       -0.05769271 -0.04516309 -0.033887066 0.04976506
000080 79 8d 4f bc 31 e7 d8 bc b6 f8 71 bd 67 87 f1 bb
       -0.012668007 -0.026477428 -0.05907508 -0.0073708775
000090 ea 19 ae bb 1c a8 44 3c 39 39 d5 bc 8e 5d 7a 3d
       -0.005313148 0.012002971 -0.026028262 0.061124377
0000a0 d1 d3 e8 3c 1a 91 30 3d d9 d1 a5 3c fb 00 3e 3d
       0.028421314 0.04310713 0.020241665 0.046387654
0000b0 c4 46 5d bd f9 96 e6 3d 8d 6a 21 bd 37 31 d3 3c
       -0.054022565 0.112592645 -0.039408255 0.025780303
0000c0 ec 31 9b 3a 5a 37 6d bd 87 c3 a0 bb 7e b6 97 3d
       0.0011840439 -0.057914115 -0.004906121 0.074078545
0000d0 b2 02 0a bc 9a 08 9f 3c 71 c4 5d 3b f0 ba 6e 3c
       -0.008423494 0.019413281 0.0033839012 0.014570937
0000e0 7a 98 83 3d e4 28 50 3c ca 32 0a 3d 20 3c 15 bc
       0.06425567 0.012705062 0.033739842 -0.009108573
0000f0 57 90 14 3b ce 63 87 3d ff 77 78 3c 9b c4 39 bc
       0.002266904 0.06610833 0.015165328 -0.011338378
000100 a8 aa 04 3c 49 8f a6 3d e1 a8 30 3d ad 7a 9b 3a
       0.008097328 0.08132798 0.043129805 0.0011862122
000110 43 15 31 bd 2a a1 33 bd ac 49 bd bc e3 ac 90 bb
       -0.043233167 -0.04385487 -0.023106419 -0.004415141
000120 de 18 ce 3c c0 db 5a 3d d7 75 17 3c 67 f1 52 bd
       0.025158342 0.053432226 0.009244404 -0.05149975
000130 23 0b 11 3d 11 3e 41 bd bf b3 07 bc 8d 12 be 3d
       0.03541101 -0.04717833 -0.008282601 0.09280882
000140 e8 c2 02 3c 7c ae 7c bc 89 f5 cd 3b f6 f3 ef bc
       0.00798104 -0.01542246 0.0062853736 -0.029291134
000150 ca ff be bb 58 c5 84 3b 35 75 3c 3d b1 de 2d 3c
       -0.0058288323 0.0040518455 0.046010215 0.010612176
000160 db da f7 ba e8 ff 49 3d b6 a2 d5 3b d9 14 6e bd
       -0.0018909829 0.049316317 0.006519641 -0.05812535
000170 b1 f0 26 bd c6 52 af 3d ae a3 64 3b cd a1 cd 3b
       -0.040756885 0.0856071 0.00348876 0.0062753917
000180 60 a5 12 3d 19 22 0c 3c 21 f3 0d 3b 5b c1 a0 3c
       0.035802245 0.008553051 0.0021659809 0.01962345
000190 6e 49 96 bc 59 60 70 3d 00 b6 44 bd 98 29 77 3c
       -0.01834556 0.058685634 -0.04802513 0.0150856
0001a0 f1 c5 19 bd db ab 33 bd f6 d3 52 3d 23 33 06 3c
       -0.037542287 -0.043865066 0.051471673 0.008190903
0001b0 9d ac d3 bb 18 a4 88 bd ec 21 85 3d 35 16 c1 3b
       -0.006459786 -0.066719234 0.06500611 0.00589254
0001c0 57 a3 5b bd 1f 00 ef 3b d8 be c7 bc ae 0a 56 bc
       -0.05362257 0.0072937156 -0.024382994 -0.01306407
0001d0 08 78 17 bd 5a 87 73 3c 00 1a 9c 3b 42 55 02 bd
       -0.036979705 0.014863813 0.0047638416 -0.03181959
0001e0 fe df dc 3b 3a 9b 4f bd e1 e6 63 3d 44 15 81 3b
       0.006740569 -0.050685145 0.055640105 0.0039393026
0001f0 2b c1 dc b9 8b 27 5e 3d a4 29 9c 3c e9 c0 e6 bd
       -0.0004210559 0.05423693 0.019062825 -0.112672634
