trained_models/PPO/ppo_connect4_model_1.pt (torch, 537710 bytes, 9 tensors)

conv1.weight f4 [64, 1, 4, 4]
000000 2d c2 90 3e db 3b bb 3b 8f f0 3e 3e a9 a6 40 3e
       0.28273144 0.0057139224 0.18646453 0.18813576
000010 81 cd 39 3e 35 f8 b0 bd 19 5e 2a 3e f0 bb 98 3d
       0.181448 -0.08641092 0.16637458 0.07457721
000020 f8 f2 05 3e 9a 94 79 bd ca a6 93 3d d2 a2 d4 ba
       0.13080966 -0.060932733 0.07209547 -0.0016222841
000030 36 34 60 3e a0 97 bd 3d 94 d6 e0 3d 0e 23 2d 3e
       0.21894917 0.09257436 0.109784275 0.16907904
000040 e6 51 22 3e 54 74 f8 bd 4b 13 9d bd da 3f 89 3e
       0.15851554 -0.12131563 -0.076696955 0.26806527
000050 8c 5c dd bd f9 f7 6a 3e 70 94 b0 3d 1d 68 56 3e
       -0.108086675 0.22946157 0.08622062 0.20938154
000060 fd b1 22 3d 49 24 a3 bc 6c 5f 12 be 06 9c c6 3d
       0.039720524 -0.019914763 -0.14294213 0.09697728
000070 ab cf 02 be d3 a0 5c 3d 40 b2 48 3e fe 18 8f 3b
       -0.12774532 0.05386431 0.19599247 0.004366993
000080 54 e6 4c 3e 99 e1 11 3d e0 c4 4c 3d 39 81 2a 3d
       0.20009738 0.035615537 0.049992442 0.041627143
000090 7c ee 26 3e 9c 96 1b be d4 a4 fe bd 36 a0 00 3e
       0.16301912 -0.15194172 -0.12433782 0.12561116
0000a0 23 1b 5b 3e b6 73 14 be 2c b9 20 be 5a 6c b8 bc
       0.2139707 -0.14497265 -0.15695637 -0.022512604
0000b0 b0 f3 c1 3b c9 a2 6a 3d 30 47 f4 bd 79 b4 0f bc
       0.0059189424 0.05728415 -0.119276404 -0.008771055
0000c0 f8 2b 31 bd ca 77 1a bc 93 ef 3f 3e 75 81 fa 3d
       -0.043254822 -0.009427974 0.18743734 0.12231723
0000d0 cb cf 8e be c7 b1 f8 bd e3 76 61 3e 05 cf 68 bc
       -0.27892908 -0.12143283 0.22018008 -0.014209514
0000e0 06 44 70 3d d6 f4 72 3e bf 3b 6f bd 10 55 89 3c
       0.058658622 0.2372621 -0.058406588 0.016764194
0000f0 40 59 88 be 9a 39 8d 3d 93 43 4f be be 89 27 be
       -0.26630592 0.06895752 -0.20240621 -0.16361138
000100 4c c5 f4 3d b1 e1 fd 3d 74 07 60 3d b2 a5 73 3e
       0.11951694 0.12396563 0.054694608 0.23793676
000110 23 68 c4 3d 19 75 8a bd 6e c3 4d 3e 74 63 4f be
       0.09590175 -0.06760616 0.20094082 -0.20252782
000120 6e ef 68 3e 1d ea 07 be 6c 28 cd bd 72 bf 7c 3e
       0.22747585 -0.13272901 -0.100174755 0.24682406
000130 66 b5 f3 ba 0b 59 06 3b 00 81 4f be 7c bd ec bd
       -0.001859349 0.002049985 -0.20264053 -0.11559579
000140 83 79 3f 3d 25 ce 71 be dc e2 f3 bc 07 15 5f be
       0.046746742 -0.23613794 -0.02977126 -0.21785365
000150 70 fd 8d bc ac 20 c8 bc 12 8f 8b 3d 1c 93 f3 3d
       -0.017332762 -0.024429642 0.06814398 0.11893293
000160 e3 89 4b 3e 48 44 16 3e fd 1e f4 bd f4 55 73 3e
       0.19876818 0.14674485 -0.11919973 0.23763257
000170 63 9d c5 3c 9f 24 b0 bd 9a be 28 3e 02 f9 18 be
       0.0241229 -0.08600735 0.16478959 -0.14938739
000180 de 1e 26 3e 1d 39 89 bd 80 83 8e bd 3d f6 76 be
       0.16222712 -0.067003466 -0.069586754 -0.2411737
000190 8c f6 19 bd 1c fd 2e be ff bf 00 be 02 8e a1 bc
       -0.03758864 -0.17088741 -0.1257324 -0.019721035
0001a0 77 32 8b be e3 02 3b 3d 5f d3 09 bd db c4 08 3e
       -0.2718694 0.04565705 -0.033648845 0.13356344
0001b0 35 06 69 be f6 3e 0a 3e 19 a1 9d 3c 3a 63 65 3d
       -0.22756274 0.1350058 0.019241856 0.056002833
0001c0 78 d3 9e 3e 92 27 96 3c 78 72 1d be 2f 6b 25 3d
       0.31020713 0.018329415 -0.15375698 0.04038542
0001d0 e1 b0 89 bd 29 dc 15 3e 31 06 6d 3d 8b c7 8b bd
       -0.0672319 0.14634766 0.057867233 -0.06825169
0001e0 99 95 75 3e 27 13 38 3e f7 59 1e 3d c2 46 b7 bc
       0.23982848 0.17976056 0.038660016 -0.022372607
0001f0 6a a8 46 bd 6b 94 c4 bd 17 2b 7f be b4 d7 11 3e
       -0.048500456 -0.09598621 -0.24918781 0.1424244
000200 e6 1f c9 3c b7 54 4d bd fe 94 82 3e 66 bc aa 3d
       0.024551343 -0.05012962 0.25504297 0.083367154
000210 00 74 53 3e d1 e1 19 3e f4 a4 b0 3d 7c a9 3b 3e
       0.20649719 0.15027548 0.08625212 0.18326372
000220 55 08 14 3e e7 59 89 bd c6 98 ce 3d ee 70 23 be
       0.14456303 -0.06706601 0.10087733 -0.15961048
000230 aa ea 59 be 00 80 1a be 0e 78 57 3d ad 06 26 3e
       -0.21280923 -0.1508789 0.052604727 0.16213484
000240 de 45 46 be 61 a1 39 3c d3 e0 f6 3d 85 27 21 3d
       -0.1936259 0.01132998 0.120546006 0.03934433
000250 75 66 40 3e 45 3e 13 3e cc b8 50 3e 4a 91 29 bd
       0.18789084 0.14379223 0.20382994 -0.041398324
000260 2f 64 7e be 0e 62 f5 3d 5b 71 64 3d a4 a3 1a 3e
       -0.24842905 0.11981593 0.055772167 0.15101486
000270 ae 3f 1d be e8 26 29 be 73 21 74 be 2c d1 64 be
       -0.15356323 -0.16518748 -0.23840885 -0.22345418
000280 8d a9 67 bd d0 5f 73 3c 4e f7 58 3e 1e bc f2 3d
       -0.05655818 0.014854386 0.21188089 0.11852287
000290 14 ee 41 3e 9d a4 d2 bd c6 df c2 bc 14 2c cd 3d
       0.18938476 -0.10285304 -0.023788344 0.10018173
0002a0 5f 4c a8 3d f0 68 7f bd f8 47 d3 bd 0a 1e 2d bd
       0.08217692 -0.062355936 -0.10316461 -0.042264976
0002b0 d2 a8 15 39 d5 16 72 bd 72 af e9 bd 69 df 3a 3b
       0.00014272638 -0.059103806 -0.11410417 0.002851451
0002c0 42 17 1e 3e 13 85 4a bd 6e 1e 01 3e e6 db 7a 3e
       0.1543856 -0.049443316 0.12609264 0.24497947
0002d0 b9 e8 87 bb f9 34 2e 3e 12 62 ae 3c 5f bc f0 3d
       -0.0041476157 0.17012395 0.021286998 0.11754679
0002e0 60 18 31 3e 41 05 f6 bd 77 a2 de 3d 7d c5 30 3c
       0.17294455 -0.12012721 0.108708315 0.010789272
0002f0 16 c5 0a bd 05 17 e9 bd 03 29 aa 3d 6f c8 27 be
       -0.033879362 -0.11381344 0.083086036 -0.16385053
000300 a5 5e 46 3e de 39 d7 3c d0 1f 43 be 1b 9a 16 be
       0.19372042 0.02627271 -0.19055104 -0.14707224
000310 e7 82 73 3e 4e fe 7a 3e af ea d0 bd 36 71 20 3e
       0.23780404 0.24511072 -0.10201012 0.15668187
000320 a7 59 f5 3d 80 79 3d 3e 2f 17 4e be e0 42 1f be
       0.119799905 0.1850338 -0.20126031 -0.15552855
000330 98 6e dd bc 72 42 f4 3a 2e 47 98 bd 7e 20 27 bd
       -0.027030274 0.0018635525 -0.074354514 -0.04080247
000340 61 d8 0d 3e 9f 0a 5a 3d 1c a2 d1 bb 01 2d 4e 3e
       0.13852073 0.053232785 -0.006397499 0.20134355
000350 77 22 63 bd b9 df 2a 3e 16 13 b4 3d bf 36 3e 3e
       -0.05545279 0.16686906 0.08792703 0.18575571
000360 ad 7d 77 3e 45 08 c3 bd 53 a5 29 be 3f a8 94 bd
       0.24169035 -0.09523062 -0.16566972 -0.07258653
000370 76 87 6f be 1b fb db 3d 62 1e 22 be c8 15 e7 bd
       -0.23391518 0.10741254 -0.15831903 -0.11283451
000380 b1 2d a0 3d 6d 75 01 bd 90 bb 8e 3c c6 0a 5e 3e
       0.07821215 -0.031606127 0.017423421 0.21683797
000390 73 cc e1 bd c5 28 db bd 07 31 b1 bd 40 06 27 3e
       -0.11025324 -0.107011355 -0.08651929 0.16310978
0003a0 95 0c 56 be 7c 77 cc bd b8 ee e4 bc 54 48 a1 3d
       -0.20903237 -0.09983727 -0.027945861 0.078751236
0003b0 13 2a 0e 3d cc 2d 0b 3d df 2d 93 bd cb 6d 42 be
       0.034708094 0.033979222 -0.071864836 -0.18987195
0003c0 63 52 4c 3e 7b ee 8e 3e f4 34 1d 3d 3b c7 5d bd
       0.19953303 0.2791632 0.03838058 -0.05414508
0003d0 45 cb 1e 3e 34 eb 63 3e ff 02 16 3c 23 fa 17 3e
       0.15507229 0.22257692 0.009155988 0.14841513
0003e0 e8 e9 cc 3c 1e d3 39 3e 44 15 2a 3d 90 15 99 3d
       0.025013879 0.18146941 0.041524187 0.07474816
0003f0 35 54 70 be fd b1 70 3e 96 81 9d 3d f1 90 50 3e
       -0.23469622 0.23505397 0.07690732 0.20367791

conv1.bias f4 [64]
000000 ad 2e 3c 3b fa ba 4b be 36 1d 25 be 43 b7 b9 bd
       0.0028714344 -0.19895545 -0.16124424 -0.090681575
000010 28 da cd 3d b6 ff 95 3d 34 a2 64 3e f6 82 39 3d
       0.10051376 0.073241636 0.223275 0.04529091
000020 84 8d 17 3e a5 ff 43 3e ff 73 30 3e d3 9b 1a 3b
       0.14800078 0.1914049 0.17231749 0.0023591414
000030 91 0b 52 bd 07 9e 77 3e 7a 32 98 bd a5 0a 1d be
       -0.05128056 0.24181376 -0.07431503 -0.15336092
000040 32 91 f5 bc c9 ef 1b bb d2 a1 74 3c 17 da 37 3d
       -0.029976461 -0.0023794046 0.014931159 0.04488572
000050 09 cd 38 be 5d 06 21 3e 14 46 11 3e 3b 23 5a 3e
       -0.18046965 0.15725084 0.14186889 0.21302502
000060 de f8 0c 3c 01 55 66 3e 39 52 31 3e 4b bc 1f 3e
       0.008604256 0.22493364 0.17316522 0.15599172
000070 41 32 d5 bd 55 25 48 3d 30 68 78 be fe 52 51 3c
       -0.10409976 0.048863728 -0.24258494 0.012776135
000080 a3 88 df 3d 33 17 21 3e 2a 6a d4 bd f9 26 1a 3e
       0.10914733 0.15731506 -0.10371812 0.1505393
000090 a7 2f fa bd f0 c1 01 be e7 52 f1 3d 86 07 11 3e
       -0.1221612 -0.12671638 0.117833905 0.14163026
0000a0 a6 9e 27 3e 40 04 36 bd b1 ee 39 be 9e f5 88 bb
       0.16369113 -0.044437647 -0.1815746 -0.0041796705
0000b0 f7 46 37 be e1 f9 e2 bd af be e2 3d 47 03 18 3e
       -0.17898165 -0.11082817 0.11071526 0.14845
0000c0 ef 16 88 3d 34 e7 f5 bd 0b 42 1a be d5 f2 11 3e
       0.06644999 -0.12006989 -0.15064256 0.1425279
0000d0 b7 35 50 bd 30 1a b9 bb b0 cc 57 be 6f 9b 02 3d
       -0.050832476 -0.0056488737 -0.21074176 0.031886514
0000e0 cd fc 2f 3e fb 61 43 be 11 36 92 3d 2c 01 4d be
       0.1718628 -0.19080345 0.071392186 -0.20019978
0000f0 c7 7c ac ba 10 81 ce 3d 2e d7 4f 3e 42 6c fe 3d
       -0.0013159745 0.100832105 0.20296928 0.12422992

conv2.weight f4 [128, 64, 2, 2]
000000 2f 49 6c 3c 1c 6f c1 bd d7 d1 3b bd 83 34 b1 3b
       0.014421745 -0.094450206 -0.045854416 0.005407871
000010 20 52 30 bd 0d 12 82 bc d2 79 fe bc ff ca 86 bc
       -0.04304707 -0.015877748 -0.031063948 -0.016454218
000020 f5 07 02 3c 4d 17 4c bd 5a 06 72 3d 52 d7 cf bc
       0.007936467 -0.04982691 0.05908809 -0.025371227
000030 e1 e6 d9 3c 73 a1 36 bd c0 3e e9 bc f1 ee 38 bd
       0.02659935 -0.044587564 -0.028472304 -0.045149747
000040 89 19 32 bd 02 b0 40 bd fe 54 79 3d c8 59 70 bd
       -0.043481383 -0.047042854 0.06087207 -0.058679372
000050 6d ee 74 bd 7c b1 ee 3c cf bb 9e 3c 66 5d 30 bd
       -0.059797693 0.029137366 0.019376663 -0.04305782
000060 3b ab 5c 3d 11 9c 4e bb 27 4e 5b bd d8 07 5d bd
       0.053874236 -0.0031526128 -0.05354133 -0.05396256
000070 fd 8f 01 bc a9 45 e3 bc 8b 4b 84 bd bd 6a 13 bd
       -0.007907865 -0.027743177 -0.06459721 -0.035990465
000080 37 a6 0e 3d 33 00 30 bd 82 48 6c bc 03 39 3a bd
       0.034826484 -0.04296894 -0.014421584 -0.045464527
000090 f0 8c dd 3c e4 8d 3b bc 49 2e 3c 3d ce e2 b6 3d
       0.027044743 -0.011447404 0.04594258 0.08929978
0000a0 a1 d7 a6 ba ce 24 45 bd c2 03 34 bd 9a 98 38 3d
       -0.0012729057 -0.048130803 -0.043948896 0.045067407
0000b0 7a 5a 2a 3c 26 f3 3a bd 2d 90 c8 bc 22 00 65 3c
       0.010397548 -0.04564204 -0.02448281 0.013977082
0000c0 f2 f3 6d 3d ca b9 2f bd 60 62 de 3c d2 65 f5 3b
       0.058093973 -0.04290179 0.027146518 0.0074889446
0000d0 ab fb 99 3c 24 48 ae bc 52 be 21 bd 81 d8 4c bd
       0.018796762 -0.021274634 -0.039488144 -0.05001116
0000e0 2f ba 3a bd 0b a3 12 bd 81 fe 3d 3d 73 9b 34 bd
       -0.045587715 -0.03580002 0.046385292 -0.04409356
0000f0 ba d4 e4 bc cb 67 f4 b8 16 7f 1f bd 77 ee 11 bd
       -0.027933467 -0.000116541596 -0.038939558 -0.03562781
000100 3f 1b 51 3d cd f0 2c 3c e6 1b e6 bc 81 c2 61 3d
       0.051051375 0.010555458 -0.028089475 0.055117134
000110 d2 b7 c5 bc 21 90 86 bd 34 96 62 3d e3 47 b4 bd
       -0.024135504 -0.06570459 0.055319026 -0.08802774
000120 ce c0 50 3d 26 d5 09 bd 2a 55 2d 3c 14 80 80 bd
       0.050965123 -0.03365054 0.010579387 -0.06274429
000130 7a 32 7f 3c f0 98 cc bc 61 5a 44 bd a0 23 3f bd
       0.015575999 -0.02497527 -0.047937755 -0.046664834
000140 06 47 b2 bc 79 e0 8b 3c 05 9b 63 bd f2 5c 26 3d
       -0.021762382 0.01707481 -0.05556776 0.040615983
000150 df 0b 70 3d bd d4 64 3d 0e 8a 2e bd 7e 5b 86 bb
       0.05860507 0.055866946 -0.042612128 -0.004100262
000160 1b 86 c0 3c 29 c2 ad bd 16 6b 15 3c 2a 7c 78 bd
       0.023501446 -0.08484299 0.00911977 -0.060665287
000170 6e 6f 2a bd 0f 3f 20 bb a0 3a 17 bd 86 69 21 bd
       -0.041610174 -0.0024451648 -0.036921144 -0.039407276
000180 bb 91 8f 3c 16 7a 4e bd 3f 0f a8 bc f7 4c 7e bd
       0.017525544 -0.0504094 -0.020515082 -0.06208512
000190 ec 21 fc 3c 28 31 b3 3c 5c 5e 44 3c e7 58 47 bd
       0.030777894 0.021874025 0.011985388 -0.04866877
0001a0 ab 57 54 3d f3 de 42 3d b2 50 3c bd 79 1a 2b 3c
       0.05184142 0.047575902 -0.045975395 0.010443323
0001b0 c8 da 50 bd 1a ae f1 3c 17 bc 4a bd 46 f3 1a bd
       -0.050989896 0.029501963 -0.049495783 -0.03782966
0001c0 a2 38 9f 39 2d 1c 83 bb 2d 5e 3f bc 92 6a d0 3b
       0.00030369038 -0.0040011615 -0.011680168 0.0063603604
0001d0 5a bf 15 3d c2 1a b0 3c 8d e2 d4 3c c6 75 a0 bc
       0.03655944 0.021497134 0.025986934 -0.019587409
0001e0 02 d7 f8 3c fc 47 17 ba c8 87 05 3d d1 2a d8 bd
       0.030375961 -0.00057709194 0.032600194 -0.105550416
0001f0 2a 13 30 3d 46 38 23 3d 2a a5 16 3d c4 78 cb 3c
       0.042987026 0.03984859 0.036778606 0.024837859
000200 8d d0 4b 3d 8d 18 b7 bb 1c fb ca 3c 56 ec 6b 3c
       0.049759436 -0.0055876435 0.024777941 0.014399609
000210 17 6d ce 3c 4a d1 cd ba 65 23 35 bd 73 fc 48 3c
       0.025198502 -0.0015702632 -0.044223208 0.01226722
000220 46 ea f5 3a 8c a4 4d bd 72 07 77 bd 71 25 c7 bc
       0.0018761836 -0.050205752 -0.060309835 -0.024309846
000230 87 27 92 bc 46 df 08 bd 4e fd 94 bd 83 27 9c bc
       -0.017841114 -0.033416055 -0.072748765 -0.01906181
000240 fb c6 1d 3d 15 92 9e bc 09 e1 97 3c ad d5 6d 3b
       0.03851984 -0.019356767 0.018539922 0.003629069
000250 5a fd 95 3c a4 07 aa bd a5 a8 2d 3d eb b0 df bc
       0.018309284 -0.083022386 0.04239716 -0.02730604
000260 6b 73 1a bc 96 82 47 bb 28 b6 b0 3b 1b 01 b3 bc
       -0.009426932 -0.0030442826 0.0053928085 -0.021851113
000270 09 9e cc 3a 15 e1 90 3c 47 86 2b 3c 60 a8 e3 bc
       0.0015611063 0.017685452 0.010469026 -0.027790248
000280 34 41 38 3c 1d fe 0a 3d f8 4c e8 3c 42 5e 7a 3c
       0.011246014 0.033933748 0.028357014 0.015281262
000290 5a c3 2c ba 79 a4 ec bc f6 ee 19 bd 27 f9 a0 bd
       -0.0006590389 -0.02888702 -0.037581407 -0.07860022
0002a0 02 e4 a5 bd 81 25 1b bd db 29 65 bb ea 87 ff bc
       -0.0810013 -0.037877563 -0.0034967575 -0.031192739
0002b0 a3 ad f8 3c 7a 90 0a bd 06 a9 85 3d 04 0b 6c 3d
       0.030356234 -0.03382919 0.06526379 0.057627693
0002c0 0c ac b5 3c a0 8b 4e bd 8e f3 14 3d 04 de 1f 3d
       0.022176765 -0.050426126 0.036365084 0.03903009
0002d0 05 c8 e5 bc 50 f9 9c bd 14 74 b0 bc ee 5b 93 3c
       -0.028049478 -0.0766474 -0.021539725 0.017988171
0002e0 30 67 a9 3c bb ec 0e bc 30 f3 59 3d 13 01 00 3d
       0.020679086 -0.008723433 0.053210437 0.031251024
0002f0 58 34 83 bd 91 ec 39 3c ca 55 47 bd df 2f a2 3c
       -0.06406468 0.011347906 -0.0486658 0.019798217
000300 90 71 50 bd 32 02 09 3d 43 e5 65 bd 6c cc f6 bc
       -0.05088955 0.03344936 -0.056126844 -0.030126773
000310 55 ba 2e bd 19 fb 24 3d 50 47 a1 bc f5 a2 31 3c
       -0.04265817 0.040278528 -0.019687325 0.010842075
000320 4c 47 09 bd 82 04 0e bd de ba 0f 3c 96 3d ec bc
       -0.03351526 -0.034672268 0.00877258 -0.02883796
000330 bd a4 a4 bd 9c 49 78 bd a5 20 4f bd 63 12 7a 3c
       -0.08039234 -0.060617074 -0.05056824 0.015263173
000340 d5 48 6a 3d e7 ca 99 bd 36 82 27 bd ac 26 3c 3d
       0.057198364 -0.07509404 -0.040895663 0.045935318
000350 e4 67 88 bd 1a 0b a0 bd 40 3d c7 3c 98 33 59 3d
       -0.066604406 -0.078146175 0.024321198 0.05302772
000360 3a 79 8c 3c 59 ca 91 bd 8f ee 3a 3b d6 8b d3 bc
       0.01714765 -0.07118673 0.002852354 -0.025823515
000370 4c 80 a4 bd 57 1a 2b 3b 1d c5 83 3c 41 a6 15 3d
       -0.08032283 0.002610823 0.016085202 0.036535505
000380 72 f9 b0 bc d6 29 51 bc e0 7c 41 bd 34 67 8d 3c
       -0.02160332 -0.012766322 -0.04723823 0.017261125
000390 39 22 93 bd 31 c1 e4 3c 68 51 86 bd 07 32 69 bd
       -0.07184262 0.027924152 -0.06558496 -0.056932475
0003a0 72 2f 2e bd 6c 61 2b bd c1 b8 8b bc 7c 11 0e bd
       -0.042525716 -0.041840956 -0.017055871 -0.034684643
0003b0 44 8a 04 bd 47 e5 58 bd 49 96 2c bd 37 7c b4 bc
       -0.032358423 -0.05295303 -0.04213551 -0.022031887
0003c0 ce cc bd 3c 1a 11 f3 3b 75 ea 51 3d f7 da de 3c
       0.023168948 0.00741781 0.051248986 0.02720402
0003d0 14 7a 19 bd f9 38 3c 3d a2 bd 37 3c e9 c4 55 bd
       -0.03746994 0.04595277 0.011214646 -0.05218974
0003e0 2f 6e 03 bd 50 8a 6b 3d ac d0 6e bd a5 69 43 bd
       -0.0320875 0.057504952 -0.058304474 -0.047708172
0003f0 93 55 53 3d 30 c6 21 3d 59 c6 87 3d aa 2b cf 3c
       0.05159528 0.039495647 0.06629629 0.025289375

conv2.bias f4 [128]
000000 a3 d5 91 bd 5d 4f 5b 3d 33 3f 91 3c 09 d7 bb 3c
       -0.07120826 0.053542484 0.017730331 0.022929685
000010 e0 5f a2 3c cb cd 51 bb f4 eb 7e bd bb e0 bb bc
       0.019821107 -0.0032013531 -0.06223674 -0.022934308
000020 d6 f9 49 bd ef 9e e0 3a cd 98 02 bd 8a 91 6e 3d
       -0.049310528 0.001713721 -0.031884003 0.058244266
000030 ce 64 1e bb 0a 0f b3 3b 5e 96 5d 3d c4 10 8f 3b
       -0.002416897 0.0054644393 0.05409848 0.0043660123
000040 76 71 8d 3c 0c 82 af bc ac 53 36 3d 01 94 a3 3a
       0.017266016 -0.021424316 0.04451339 0.0012480022
000050 12 be b0 3c de eb 1f bc 94 51 57 3c e6 a1 1c bd
       0.021575008 -0.009760825 0.013142008 -0.038240336
000060 7b 89 84 bd 66 10 27 3b d4 76 cf bc 1f aa 44 3d
       -0.06471535 0.0025491952 -0.025325216 0.048013803
000070 a8 15 19 bd de d2 86 bd 3d 2e 6b bc a5 f3 3a bc
       -0.03737417 -0.065831885 -0.014354286 -0.011410628
000080 45 8f dd 3c 37 20 a1 bb d6 0b 5c bd 08 c1 ae bc
       0.027045855 -0.0049171704 -0.053722225 -0.021332279
000090 13 b9 29 3c 2d 5f 9b bc 2b e1 04 bd 39 a3 11 3c
       0.010359067 -0.018966282 -0.0324413 0.008889013
0000a0 aa b1 5b bd 13 bb 86 bc b4 fb 54 3d c3 42 53 bd
       -0.05363623 -0.016446626 0.051997855 -0.05157734
0000b0 c3 6b 44 bd f0 36 0a 3d 0f ed d3 bc a5 c6 81 3a
       -0.047954332 0.0337438 -0.025869874 0.000990112
0000c0 c8 45 5e 3c 40 29 b6 3a 2e 36 7b bd 46 ec 97 3c
       0.013566442 0.0013897792 -0.061330967 0.018545281
0000d0 77 aa e2 3b 73 0c 8b bc 27 c6 59 3c 42 72 05 bd
       0.0069172936 -0.01697371 0.013291872 -0.032579668
0000e0 2a e3 39 bd ba 79 2e bd e8 ec c9 bb ef 29 42 bd
       -0.045382656 -0.042596556 -0.0061622746 -0.047403272
0000f0 f3 11 ba 3c a8 81 95 3c 77 71 10 3d f8 04 20 bb
       0.022713637 0.018250301 0.03526446 -0.0024417024
000100 c9 06 08 bd 2b 91 07 3d 25 17 21 bd 9f 19 72 3d
       -0.033209596 0.033097427 -0.039328713 0.059106465
000110 ad 9d ce bc bf 1c 0d 3d 24 2e 8d bc 0f e3 aa bb
       -0.02522167 0.034451243 -0.017233916 -0.005215056
000120 68 b5 14 3d ac 46 0a 3d 9c 26 50 bd e0 2f da bb
       0.036305815 0.033758804 -0.05081807 -0.006658539
000130 11 00 41 bd 47 10 23 3d 48 2a 0c 3d 64 8b 84 3b
       -0.047119204 0.039810445 0.03422001 0.004044937
000140 b6 80 26 3b 15 ad 9c bd ad f2 c4 bb dd 2c 99 3c
       0.0025406308 -0.076502 -0.0060103745 0.01869815
000150 46 65 84 bc ac 2a 49 bd 1a af 2d bd 44 8e 25 bd
       -0.016161572 -0.04911296 -0.042403318 -0.04041888
000160 1b 95 03 bc 60 18 0c 3b 1d 3b 93 bc ed b1 41 bd
       -0.008031155 0.0021376833 -0.017972523 -0.047288824
000170 ea 21 0d 3d f2 7c 55 3c 23 a6 f9 bc eb f1 16 3d
       0.03445617 0.013030278 -0.030474728 0.036851805
000180 e0 ce a5 bc 54 d7 fc 3c 01 7e 4e 3d ed d7 66 3d
       -0.020240247 0.030864395 0.050413135 0.056358267
000190 30 6c 5a 3c 36 fd f0 3c 72 22 30 3d 65 cf 8f 3c
       0.013331458 0.029417615 0.0430016 0.017554948
0001a0 06 1e 42 3d 2d 85 57 3c f1 35 4f 3d bf e3 09 3d
       0.047391914 0.01315431 0.050588552 0.03366446
0001b0 44 76 b7 bc 02 d5 ae bc df 0c 26 bd 9c 50 28 bd
       -0.02239526 -0.021341804 -0.04053962 -0.0410925
0001c0 72 19 3b bd ba 3c cd 3c 49 dd ea 3c 87 fc c7 3c
       -0.045678563 0.02505337 0.02866997 0.024412407
0001d0 d7 2a 49 bc 84 83 0e 3d de 54 01 bd 2d 86 72 3d
       -0.01227828 0.03479339 -0.031575076 0.05920999
0001e0 26 a3 7f bd ab ae 16 3d d3 b0 3f bc 3c 6a 87 3c
       -0.06241145 0.03678767 -0.011699873 0.016530149
0001f0 c2 d2 59 bd b6 e6 b1 bc c0 9b 56 3c 2c 32 77 3c
       -0.05317951 -0.021716457 0.013098657 0.0150876455

fc_shared.weight f4 [128, 768]
000000 c7 9d 80 3b 6d 07 54 3c 56 46 8c bc c1 19 e8 bc
       0.0039250585 0.012941224 -0.017123383 -0.028332593
000010 f5 ab 05 3d a2 2c 03 3d d6 5f 06 bc 91 da 81 3a
       0.032634694 0.032024987 -0.00820156 0.0009907057
000020 b7 84 a0 3b e2 ba 3f bb e2 3d 7b 3c 67 a8 c5 3c
       0.0048986333 -0.0029255678 0.015334578 0.024128152
000030 b3 44 67 bc 74 75 fd 3c e8 d7 03 3d 18 97 84 3c
       -0.0141155 0.030939795 0.032188326 0.016185328
000040 74 69 93 3b fa 0d 1a bd 0b c5 c9 3b be cf 9b 3b
       0.004498655 -0.037610985 0.0061575226 0.0047549894
000050 dd 3c 03 3d de 12 db 3c c4 ab 2e 3c b6 8d 7c 3c
       0.032040466 0.026742395 0.010661069 0.015414646
000060 f6 cf 15 bd cd fd d0 3b e6 b0 68 bc e8 73 c2 bc
       -0.03657528 0.0063779117 -0.014202332 -0.023736909
000070 c8 1b f9 bc 49 27 c1 3c ab fc 96 bc e9 f8 1d bd
       -0.030408755 0.023578303 -0.018431028 -0.038567457
000080 d0 49 80 3c ff 7d e8 bc 29 df 0b bd 04 c4 06 bd
       0.015660197 -0.028380392 -0.03414837 -0.03290178
000090 44 74 8f bc ec 84 70 3c 6e e3 b2 bb 99 5c 9c 3b
       -0.017511494 0.014680129 -0.0054592406 0.0047717807
0000a0 fd 08 02 3d 03 27 00 3d 93 8d e3 bb 95 9f be 3c
       0.031746853 0.031287204 -0.006944367 0.023269454
0000b0 b3 37 86 bc 3b 78 9f bc d9 59 6d 3c f1 cb 0b bd
       -0.016383981 -0.01946651 0.014486753 -0.03413004
0000c0 d5 3c bd ba 83 bd 0e bd be f5 05 3d 9f 12 18 bd
       -0.0014437685 -0.0348487 0.03270506 -0.037127133
0000d0 26 12 88 3c 10 fd 10 bd 3c a7 03 3d f7 f5 f3 3c
       0.016610216 -0.03539759 0.03214191 0.029780371
0000e0 89 6c 5e bc 8f d4 a5 37 5a b3 02 bd 98 4f 4f 3c
       -0.0135756815 1.9768513e-05 -0.031909324 0.012653254
0000f0 1f 54 2e bc bc c3 0e bd 87 68 91 bb f0 cd d1 bc
       -0.010640173 -0.034854636 -0.0044375095 -0.025610894
000100 9a 1d c3 3c 74 68 f0 bc bf c5 1a bd 65 7b be bc
       0.023817826 -0.029346682 -0.03778624 -0.023252198
000110 61 d6 10 bc d2 df ec bc 53 b8 a5 3b f0 64 84 3b
       -0.008840174 -0.02891532 0.0050573735 0.004040353
000120 db ad 5f 3c a4 87 1c bd c8 cb ba 3c ec 81 d2 bc
       0.01365229 -0.038215294 0.022802249 -0.025696717
000130 50 9c bb 3c 80 3d 3c bc 63 7d ec 3c 16 8b af 3b
       0.022901684 -0.011489272 0.028868383 0.0053571565
000140 8e 9c 0f bd fb 21 dd 3c 2e fa 6a bb 94 d9 a7 bc
       -0.03506141 0.026993742 -0.0035854685 -0.020489492
000150 ea c3 26 bc bb d3 1b bd 7a ee 75 bc 42 75 85 bc
       -0.0101785455 -0.03804372 -0.0150104705 -0.016291264
000160 56 59 00 3c 37 4d c6 bc 74 0d e2 bc b7 01 f6 bc
       0.007833799 -0.02420674 -0.027594306 -0.030030115
000170 9a 78 b1 3c de 8e 41 3c e7 6a 9b 3b 8a 0d f9 3c
       0.021663953 0.011813847 0.0047429684 0.030401964
000180 10 f5 ff b9 b1 9f 9a bc b8 9b d5 bc fa 31 b3 bc
       -0.00048819976 -0.018874975 -0.026075229 -0.021874417
000190 a1 9d 2c 3c 67 af c2 bc 8d d3 70 3c c7 56 c5 bc
       0.010535629 -0.023765279 0.014698875 -0.02408923
0001a0 f6 44 c1 3c f0 b8 88 bc cc 58 8f 3c 3f 6b 03 3d
       0.023592453 -0.016689748 0.017498396 0.0320847
0001b0 fd ae 25 bc bf fb 52 bc 48 42 a1 3c 7c 45 22 3c
       -0.010112521 -0.012877404 0.019684926 0.009904262
0001c0 14 e0 62 3c c7 87 aa 3c cd 7a 02 3d 26 26 10 bd
       0.01384737 0.020816697 0.031855393 -0.03519263
0001d0 1c 40 cb 3c 8e 68 93 3c 75 71 b3 bc 72 6f 0e bc
       0.024810843 0.017994191 -0.021904686 -0.008693563
0001e0 7b 4a 8b bc c0 c4 da bc a8 0a c0 3b c1 8d 16 bd
       -0.017003288 -0.026705146 0.0058606453 -0.03675628
0001f0 09 8a ae 3b d6 7a 09 bd 25 01 30 3c cb ec ff 3b
       0.0053265137 -0.03356441 0.01074246 0.0078102103
000200 ad f1 bf bc 79 9e 2c 3b 02 57 56 3c 69 3a 1b bd
       -0.02343067 0.0026339574 0.013082268 -0.0378975
000210 63 d7 dd bc 1e d8 13 3b cf ca 16 3b 36 e4 2c 3c
       -0.027080243 0.0022559236 0.0023009067 0.010552457
000220 a1 93 4e bc 34 04 b2 3c 33 4f 10 bd f6 91 00 bc
       -0.01260844 0.02173052 -0.03523178 -0.0078473
000230 e4 76 c5 3c 12 6d 01 3d 06 75 32 bc a0 83 f1 bc
       0.024104543 0.03159816 -0.010892158 -0.029481709
000240 18 8e 9b 3c 4f 57 df 3c ce dd 95 bc d5 de 06 3d
       0.018988654 0.027263312 -0.018294241 0.032927353
000250 91 d0 0d 3c cc 38 ac bc 3f 3c 09 3d 44 df e6 bc
       0.008655683 -0.021023177 0.03350472 -0.028182633
000260 03 49 b6 bc 2b a6 43 bc 64 af ad bb ad 35 02 bd
       -0.022251612 -0.011941473 -0.005300449 -0.03178947
000270 f8 1e aa bc e3 6b 28 3c f7 91 db bc f8 09 1b bc
       -0.02076672 0.010279628 -0.026803 -0.009462826
000280 7e d2 96 bc de d5 0d bd a4 ce b4 bc 41 03 c2 3a
       -0.018410917 -0.034627788 -0.02207119 0.0014801995
000290 1b 2a b3 3c e4 bc 08 3d 73 14 2b bc b3 f3 55 3c
       0.021870663 0.033383265 -0.010441887 0.013058591
0002a0 e5 e0 f6 bc 4b 01 84 bc e8 7e b5 bc bc 03 d9 3b
       -0.030136535 -0.016113898 -0.02215524 0.0066227596
0002b0 eb da 51 3b f8 21 c2 3c 26 c8 ec 3c 97 c1 ed 3c
       0.0032021354 0.023697838 0.028904032 0.029022975
0002c0 3e 02 19 bd 9d 74 c7 3c 87 b4 c2 3c 26 93 34 3c
       -0.037355654 0.024347598 0.023767723 0.011021411
0002d0 15 d6 cc bc 47 01 02 bd 12 4d e9 bc 90 2b c1 bc
       -0.025004426 -0.0317395 -0.028479133 -0.023580343
0002e0 47 66 79 bc 20 ec a5 bb 64 5d d6 bc 06 60 f4 3c
       -0.015222139 -0.0050635487 -0.026167579 0.029830944
0002f0 4a e5 51 bc 2e 10 a2 bc ee 0a 08 bc 29 ae d0 bc
       -0.012811014 -0.019783106 -0.008303387 -0.025473671
000300 f0 d2 6c bb a5 cd dd 3c 01 5c ab 3c 0b 19 09 bd
       -0.003613647 0.027075598 0.020917894 -0.03347115
000310 b3 6c 87 3c dd f4 fe bc 0f e7 97 3c f2 67 31 3c
       0.016531324 -0.03112262 0.018542795 0.010828005
000320 0e dc 15 bd 3a e9 04 bc a4 f7 e8 3c 82 33 0e bc
       -0.036586814 -0.008112246 0.028438397 -0.008679273
000330 54 8d 86 3c eb 51 3f bc a6 ae 55 bc a7 32 13 bc
       0.016424812 -0.011677246 -0.013042128 -0.008984244
000340 e9 6a 03 bc 87 ad cf bc ee 33 90 bb c6 02 0c bc
       -0.008021095 -0.025351299 -0.0044007218 -0.008545583
000350 6a ed e6 3c 70 17 f9 3a 7b f4 cc ba 60 e4 1e 3c
       0.02818938 0.0019004177 -0.0015636826 0.0096980035
000360 90 f3 c6 bc 88 00 d2 37 58 97 07 bd 60 0f b9 bc
       -0.024286062 2.5034198e-05 -0.033103317 -0.02259034
000370 9f 46 a7 bc 3e 08 02 3d 95 f9 e0 bc 6e 78 0f bd
       -0.020419417 0.03174614 -0.02746276 -0.03502696
000380 6a 32 e9 3c 33 11 94 bc 76 8a fc 3c 16 a7 d7 bc
       0.028466422 -0.018074607 0.030827742 -0.02632479
000390 63 13 fb 3c f4 85 02 3d 76 30 8c bb 3e af 1e bc
       0.030648893 0.03186603 -0.004278238 -0.009685336
0003a0 d8 b0 fb bc 6b e1 b1 bc 47 ea 08 bc ad 25 e2 bc
       -0.030723974 -0.021713933 -0.008356637 -0.027605856
0003b0 f2 86 36 3b d1 65 88 bc 52 32 7a bc b3 03 54 b9
       0.002785143 -0.016650112 -0.015270786 -0.00020219274
0003c0 f9 58 ca 3c 92 ea 0b bc fd 8f 61 3c 86 93 05 bd
       0.024700629 -0.008539813 0.01376724 -0.032611392
0003d0 86 86 a9 3c 43 09 0a bd 99 e3 ec bc 52 24 1b bd
       0.020694029 -0.03370024 -0.02891712 -0.037876435
0003e0 bf dd 79 bc 77 ca ca bb 3c 6a fc bc 31 92 b1 bb
       -0.015250622 -0.0061886865 -0.030812375 -0.0054190387
0003f0 07 8a 64 3b a9 5b 1b bb 25 e1 7c bc aa 60 57 bc
       0.003487231 -0.0023705757 -0.015434538 -0.013145605

fc_shared.bias f4 [128]
000000 33 60 54 3b c4 b6 e4 3c f8 27 e7 3c 71 81 b4 bc
       0.0032405972 0.02791918 0.0282173 -0.022034379
000010 cf c2 2f 3c bd 17 e8 3c 19 97 c3 3c 2a 29 82 bb
       0.010727598 0.028331632 0.02387576 -0.0039721923
000020 ee de c8 bc 0a bb 62 3b 73 5c 56 bc 8d 1e 89 bc
       -0.024520364 0.0034596347 -0.013083565 -0.0167382
000030 ae 0e 5b bb 45 3c d7 3c d8 51 42 3d 24 e4 62 bc
       -0.0033425498 0.026273856 0.047441334 -0.013848338
000040 22 57 e7 ba fe ed 9e 3c d3 e8 8d 3b e0 5b f1 bc
       -0.0017649869 0.019400593 0.0043307333 -0.029462755
000050 d3 9e bb ba 10 3f 1f 3d 6e 13 01 bc 45 87 88 3c
       -0.0014314301 0.0388785 -0.007878168 0.016666064
000060 27 67 8a 3c bf db c0 3c 9d 20 f5 3b 0f b2 b7 3c
       0.01689489 0.023542283 0.0074806944 0.022423772
000070 c9 92 09 3c 54 6d 2a bd 72 7c 3a 3d cf da 93 bc
       0.008396813 -0.04160817 0.045528837 -0.018048672
000080 2b c5 96 3c a1 6a 0f bc e8 65 50 bc 2a 4a bc bc
       0.018404564 -0.00875345 -0.012719609 -0.022984583
000090 41 40 06 bd 47 3f c3 bc 91 58 1a 3d 4b 79 1b 3c
       -0.03277612 -0.023833884 0.03768212 0.009489368
0000a0 ba 66 96 3c 00 b0 a9 3c 44 28 30 3c a8 91 0f bd
       0.01835953 0.020713806 0.010751788 -0.035051018
0000b0 93 6a 81 3c 93 f8 82 bb 0c 33 6a 3c 23 29 93 bb
       0.015797889 -0.0039969175 0.014294397 -0.004490988
0000c0 10 bc 91 3b fa 9c 56 bc 9d ca a2 ba e5 ec c3 3c
       0.0044474676 -0.01309895 -0.0012420003 0.023916671
0000d0 68 c9 a1 3c 42 fa 06 bc ee 86 d4 3c 9c 6a 75 bc
       0.019749358 -0.008238377 0.025943246 -0.014979031
0000e0 b5 29 e2 3c 4f b2 8b 3b 4a 49 da bc ae 53 3d 3c
       0.027607778 0.0042631994 -0.026646275 0.011555595
0000f0 4a 80 a0 3b 14 3d 05 3d bd 5a 81 3c c1 c1 b2 bc
       0.0048981057 0.03252895 0.015790338 -0.021820905
000100 aa ac a8 3c 41 76 9f ba f2 2e 11 bd 06 ac 16 3d
       0.020590145 -0.001216598 -0.03544516 0.036785148
000110 e4 b5 e2 3b ab f2 4c 3d d3 f3 fe bc f7 23 0e 3d
       0.0069186557 0.050036114 -0.031122124 0.034702267
000120 e7 9b ed 3c df dc 46 3d 9c 97 18 3d e2 57 a2 3c
       0.029005004 0.048550483 0.03725396 0.019817296
000130 00 23 b4 3c 5c 9a 6d 3c 80 d5 1e 3d cd 80 44 bc
       0.021989346 0.014502134 0.03877783 -0.011993599
000140 f1 e0 62 3c fc 8c be bb 90 d9 1e 3d 7d 21 14 bd
       0.0138475755 -0.0058151465 0.038781703 -0.03616475
000150 65 0d 96 bc f5 56 0f bd 92 bd d0 ba fd c1 cc 3c
       -0.018316934 -0.034995038 -0.0015925637 0.024994845
000160 c0 ca 1e bd 7b b5 17 3c ab 92 59 3c 7f 9e 3a 3a
       -0.038767576 0.009259577 0.013279597 0.00071189547
000170 b8 13 e8 bc a1 8c df bc 1a 0a 9d bc 18 d5 9a 3c
       -0.028329715 -0.027288737 -0.019169856 0.01890044
000180 ca 0c b9 3c 7c 97 cc 3c ea 75 71 3c a5 f9 5d bb
       0.022589106 0.024974577 0.014737586 -0.0033870724
000190 0e e4 19 bb 97 32 95 bc 87 7c 47 3c 1d 04 2c 3d
       -0.0023481878 -0.0182126 0.012175686 0.04199611
0001a0 a6 fb 96 39 f4 b8 33 bc 2f 85 1a bd ca e9 cc 3c
       0.00028797722 -0.010969389 -0.03772467 0.025013823
0001b0 7c 89 d2 bb e6 21 3f bc 2f 57 ec 3c ec fe 82 3c
       -0.006425081 -0.011665797 0.028850166 0.015990697
0001c0 7a 0f 14 bc b0 e9 8b bc 1a 71 06 bc 11 04 29 bb
       -0.009036893 -0.017079204 -0.008205676 -0.0025789777
0001d0 70 8a 53 3d e0 70 6e ba d0 a0 ff ba 34 43 4b bc
       0.051645696 -0.0009095799 -0.0019502882 -0.012406159
0001e0 10 80 23 3c 9e 04 77 3b 11 a3 a5 3c ee 0b 21 bc
       0.009979263 0.003769196 0.020219358 -0.009829504
0001f0 dd 85 28 bd fd cc 2e 3c c9 48 b2 3b 6e f9 8a bc
       -0.041143287 0.01066899 0.0054408056 -0.01696464

actor.weight f4 [7, 128]
000000 90 e0 29 3d 16 a8 fb ba 06 91 14 3b 36 5e 28 3c
       0.041473925 -0.0019199874 0.0022669449 0.010276368
000010 28 83 8d bc 69 2d 56 bd b8 d9 76 bd 7a e4 79 3d
       -0.017274454 -0.0522894 -0.060266227 0.061008908
000020 c2 27 47 bd 0d f7 8e 3c 23 d1 95 bc 01 c8 5c bc
       -0.0486219 0.017451787 -0.0182882 -0.013475419
000030 4f b1 cf 3c 79 cf a2 3d 41 fd bf 3c cd 65 06 b9
       0.025353102 0.079497285 0.02343619 -0.0001281716
000040 e6 55 62 bb ba 94 0c 3c 90 13 da bc 94 66 f0 3c
       -0.0034536063 0.008580381 -0.026620656 0.029345788
000050 a3 72 d5 bc d0 22 ff bc 65 5a 88 bb 54 f0 94 bc
       -0.02605564 -0.03114453 -0.0041611665 -0.018181004
000060 43 45 b8 bd da 9a 38 bd fe 84 73 bd 51 3b 21 bd
       -0.089975856 -0.045069553 -0.059453003 -0.03936321
000070 72 99 11 3d 8e 81 55 3d de cb ac 3b 45 bc b6 bd
       0.035546727 0.052125506 0.0052733263 -0.08922628
000080 fa 70 72 bd ec 2d c9 3a d3 1c 47 bd 6d 54 5f bd
       -0.059189774 0.0015348769 -0.048611473 -0.054523874
000090 b4 70 5e bc ec b3 ba 3d b4 61 22 3d d4 07 54 3c
       -0.013576675 0.091163486 0.03964396 0.0129413195
0000a0 51 73 26 3c 96 aa a1 bd 0e c7 ec 3b 69 90 0f 3d
       0.0101593295 -0.07893865 0.0072258776 0.03504983
0000b0 12 48 1c bb 0e 15 a9 3d 97 fe ce bc 3e 38 5c 3d
       -0.0023846668 0.08255969 -0.025267882 0.053764574
0000c0 89 98 28 bd 7a 9d 59 3d 5b ec 52 bd ca 75 27 3d
       -0.041161094 0.053128697 -0.051494937 0.040883817
0000d0 17 23 73 bd 30 a9 2b bd a8 8a dd bc 27 10 8a bd
       -0.059359636 -0.041909397 -0.027043656 -0.06741362
0000e0 68 17 b1 bb d3 9c 13 bd 27 2f 22 bd ed cf 97 3d
       -0.0054044016 -0.03603823 -0.03959575 0.074127056
0000f0 2c a4 97 3c 37 66 00 bd 52 b2 fc 3c 49 d8 9c bd
       0.0185109 -0.03134748 0.030846749 -0.076584406
000100 50 b5 8b bc 94 66 23 bd 47 0d 4e bd a2 43 77 bd
       -0.01705423 -0.039892748 -0.05030563 -0.060367234
000110 5c f4 5d 3c 56 45 75 3d fd de 44 bc 50 e0 42 3c
       0.013547029 0.059880577 -0.012016055 0.011894301
000120 4a 27 27 3d 68 28 1a bd f7 05 9d bd 90 2d 9f bd
       0.040808953 -0.03763619 -0.07667153 -0.07772362
000130 0c a2 d6 3b 30 12 45 bd fc 68 6a bd 50 c0 90 b9
       0.006550079 -0.048113048 -0.057229027 -0.00027609104
000140 01 39 9f 3c 86 ea a9 3d a4 f1 6b 3d f8 4b 1c 3b
       0.019436361 0.08296685 0.057603493 0.0023848992
000150 74 40 88 3d 12 ec 95 bd c2 ab 29 bb 38 01 be bc
       0.066529185 -0.073204175 -0.002588973 -0.02319394
000160 7a 0d 39 bd 5c 00 03 bd 2e 53 4d 3c 3b af 57 bb
       -0.045178868 -0.031982765 0.012532039 -0.0032910842
000170 1e dc ac 3c 8d 0c 6f bd d4 34 8c bd 39 e8 90 bd
       0.021101054 -0.05836158 -0.06846014 -0.07075543
000180 6e f5 f4 bc 02 79 2c b8 b5 59 26 bd 0f e5 74 3d
       -0.029902186 -4.1120693e-05 -0.040612895 0.05978876
000190 07 0d 50 bc aa c5 a6 ba de 38 96 bc 86 98 65 bc
       -0.012698418 -0.0012723703 -0.018337663 -0.014013415
0001a0 29 6b 4c 3d fb 46 6e bd c7 f1 84 3d 75 8b 41 bd
       0.049906883 -0.05817316 0.06491428 -0.047252137
0001b0 be a0 90 bc f1 3e ad 3d 2e 69 1f 3b 7a 5c c2 3c
       -0.017654773 0.08459271 0.0024324167 0.023725737
0001c0 0d 8e c8 3b 9f 6b d1 3c b3 3d 23 3d 39 7c 22 3b
       0.0061204494 0.025564013 0.039853763 0.002479328
0001d0 f1 14 52 bd a0 23 4a 3d b2 45 7d 3d e9 dc 87 3d
       -0.051289503 0.04935038 0.061834045 0.06633932
0001e0 7a 3e b3 3d a1 84 4f bd 44 b5 0f 3a 1a f6 4f 3d
       0.08752151 -0.050663594 0.0005482028 0.05077181
0001f0 66 b4 71 bc 35 91 6e bc 73 73 ee 3c 96 5c b6 bd
       -0.014752483 -0.014560987 0.029107785 -0.08904378
000200 20 67 b4 3d 2b f4 ca 3b e8 85 ef 3a 61 a7 23 3d
       0.08808732 0.006193658 0.001827416 0.039954547
000210 e7 77 1b 3d bf 80 56 bd 61 9c 40 bc 41 ac 12 3d
       0.037956145 -0.052368876 -0.011756034 0.035808805
000220 f1 01 3f 3d 47 6c 7c bd f5 1a be bd ba fc 94 3d
       0.04663271 -0.0616267 -0.092824854 0.07274766
000230 ba 10 79 bc 0f a4 a3 3d db 6c 23 3b 28 fc bd bc
       -0.015201742 0.07990276 0.002493671 -0.023191527
000240 43 c9 74 bd ea cf b5 bd 56 7b a9 3d 17 9a b3 3d
       -0.05976225 -0.08877547 0.082754776 0.08769625
000250 05 ef 11 3c da 78 91 3d 32 d8 7b 3d e9 e6 db bd
       0.008907084 0.07103129 0.061485477 -0.10737402
000260 33 42 8a bd af e2 53 3c a3 03 29 bc f7 69 80 3d
       -0.06750908 0.012932464 -0.0103158085 0.06270211
000270 fb 27 54 3d 3e 6d 2d bd 87 16 86 bd 6f 62 9a bd
       0.05179594 -0.04234051 -0.065472655 -0.07538306
000280 e2 60 4c bd f2 5b a1 3d 81 f4 8f 3d d7 68 30 3d
       -0.049897082 0.07878865 0.07029057 0.043068733
000290 a8 dc 48 bd 5c 34 ce 3d b8 a2 3a 3d 71 ca b1 bd
       -0.04903856 0.100685805 0.045565337 -0.08681191
0002a0 4b e0 ff 3c c9 83 e7 bc 0c ec 5a bb 00 9c e1 bc
       0.03123488 -0.028261082 -0.0033404855 -0.027540207
0002b0 a1 08 26 bd 2b f3 15 3d a2 15 47 bd 0b e4 a7 3d
       -0.040535573 0.036608856 -0.048604615 0.081977926
0002c0 92 41 8a bd 11 b7 a1 bd 29 f6 a2 3d c1 74 2f 3d
       -0.06750788 -0.07896245 0.079571076 0.042835955
0002d0 c5 8b 80 3d 84 47 90 bc d2 5f a3 bd e2 6b 9c bd
       0.06276659 -0.017612226 -0.07977261 -0.076377645
0002e0 c9 1e 7b bc 24 93 13 bd 5c 95 92 bd 5e 1b 9f bc
       -0.015327164 -0.036028996 -0.07157394 -0.01942223
0002f0 66 ab 21 3d 5e 7b 90 bc 61 b1 c5 bd c4 21 77 bd
       0.0394701 -0.017636951 -0.09652973 -0.060334936
000300 3d b0 26 bb 78 0e 90 3d 15 e6 9a 3b d7 3e b7 bc
       -0.0025434636 0.0703401 0.004727135 -0.022368832
000310 e7 c4 98 3d 62 e7 c9 3c 36 a1 45 bd c9 e2 47 3d
       0.07459431 0.024646465 -0.048249446 0.048800264
000320 58 ca fe bb 81 d0 20 3d 72 7e af 3d 04 64 d9 bc
       -0.007775586 0.039261345 0.085690394 -0.026536949
000330 bd 67 99 3d 23 6b 5e 3d 41 a5 22 bd 27 fc b1 3c
       0.0749049 0.054301392 -0.03970838 0.02172668
000340 2a ae 9d bd 46 7e b7 3d 08 83 8a bc f3 ea c7 3c
       -0.07699235 0.089596316 -0.016908184 0.024404025
000350 e4 3c ac 3d bc ef c9 bc 02 4a ad 3d fb 32 9b 3d
       0.084100515 -0.024650447 0.084613815 0.07578083
000360 5f 2f 1b bd dc 70 89 3d 54 3c 6b bd 9b 10 86 3c
       -0.037886973 0.06710979 -0.05743058 0.01636534
000370 92 b6 33 bd ba ff 7e bd 90 1d 62 bc aa 01 4c 3c
       -0.043875284 -0.0622556 -0.013800994 0.012451569
000380 74 65 8d bd b9 b8 e4 3c 73 57 ce bd bc dd 48 3d
       -0.06904116 0.027920114 -0.10075273 0.049039587
000390 63 b9 a3 bc 90 a3 82 3d ef 16 93 3d fb 92 65 3d
       -0.01998586 0.06378853 0.071821086 0.056048375
0003a0 f4 93 19 3d 77 4f dc bc ea 62 07 3d d0 f6 dc ba
       0.037494615 -0.02689336 0.033053316 -0.0016858224
0003b0 dc 47 98 3b 87 88 cb bc 40 71 68 bc 08 04 9e bb
       0.004647238 -0.024845375 -0.014187157 -0.004822258
0003c0 96 3c 42 3d fc 88 be bd 55 63 48 3d b1 54 1d 3d
       0.04742106 -0.093034714 0.048922855 0.038410846
0003d0 03 1e 8f 3d 52 ca f1 3c b3 8d 3f bc 65 0f b0 bd
       0.06988146 0.02951542 -0.011691499 -0.08596686
0003e0 6d b5 c9 bb 7c 64 22 3d fc 2c 86 bc 22 6f 33 bd
       -0.006155661 0.03964661 -0.016378872 -0.043807156
0003f0 5c 53 d5 bd a5 4b 25 3d e2 a1 55 bd 59 0a 94 3d
       -0.1041629 0.040355343 -0.052156337 0.07228536

actor.bias f4 [7]
000000 f3 3d 5b bd ea 0d 66 3c af fe 32 bd d5 13 df 3c
       -0.053525876 0.014041403 -0.043699916 0.027231136
000010 37 dd 86 3d 14 3d 88 3d 49 85 88 bc
       0.06585162 0.06652275 -0.016665118

critic.weight f4 [1, 128]
000000 ff e8 85 3d 56 bb 01 bd 3e 64 43 bd 2e d8 b7 3c
       0.06538581 -0.031672798 -0.04770302 0.02244195
000010 38 b8 0f bd d8 12 07 3d e5 08 89 3d e9 70 4b bd
       -0.035087794 0.032976955 0.066911496 -0.049668226
000020 a2 77 a1 3d bf ec 9d bc 53 e6 27 bb b6 40 82 3d
       0.07884146 -0.019277928 -0.0025619462 0.06359999
000030 d0 64 a2 bc 2c 5d 61 3d 95 27 8e bd 20 80 7a bc
       -0.019823462 0.055020496 -0.069411434 -0.015289336
000040 ad 65 56 3d 8e b5 26 bc 7d 00 c2 bc 5e bc 6c 3d
       0.05234306 -0.010175122 -0.023681873 0.05779683
000050 11 cb 1d bd 6f c4 ec bb c4 8f 6a 3d 3f 67 92 bb
       -0.038523737 -0.007225565 0.05726601 -0.0044678743
000060 96 00 cf bc f6 7c 74 bd fe c6 92 3d 2d b2 cd 3c
       -0.025268834 -0.059689485 0.07166861 0.025109375
000070 bf 2e 98 3d 93 67 ef 3c 58 40 ad bd ca 43 02 bd
       0.07430791 0.029224193 -0.08459538 -0.03180293
000080 c7 4f 29 3d 9e 79 08 bd e3 a5 95 3d 4a 6f 3a 3d
       0.041335847 -0.03331911 0.07307031 0.04551629
000090 77 d6 90 3d 16 89 4e bc 4c da ce bc 34 fe 7a 3d
       0.07072156 -0.012605926 -0.025250576 0.061277583
0000a0 c2 e9 02 3d c9 56 32 bd ec 72 81 bd 4e 28 a3 3c
       0.03196121 -0.043539796 -0.06320748 0.01991668
0000b0 5d dd 51 bd eb ca fb 3c 82 92 bc 3c 42 59 aa bd
       -0.0512365 0.030736407 0.02301908 -0.08317806
0000c0 a4 2f 9c bd 1e 3c 89 bc a2 7f 86 bc 09 78 8f 3c
       -0.07626274 -0.016752299 -0.016418282 0.017513292
0000d0 c8 76 da bc 05 5d 14 3d 93 e2 1a bc c5 1f 68 3d
       -0.026667967 0.036221523 -0.009453434 0.056670923
0000e0 72 8d df bc f9 9e 7c bd ec 64 9f 3d 9c 51 7b 3d
       -0.027289126 -0.061675046 0.07782921 0.061357126
0000f0 f3 87 c0 bc 48 32 93 bd 9e 83 40 bc 3c e5 4f 3d
       -0.023502326 -0.07187325 -0.01175013 0.050755724
000100 00 af 99 bd e8 48 7a bd 1d 2b 2d 3c f1 13 93 bc
       -0.07504082 -0.061104685 0.010569361 -0.017953845
000110 2d ce 31 3d 2d 2e 44 bd e6 a6 3c 3d 17 22 7d bd
       0.043409515 -0.0478956 0.046057604 -0.06180009
000120 9a 22 d0 bc 92 85 95 bd d2 4b 63 bd f8 f6 43 3c
       -0.025407124 -0.07300867 -0.05549223 0.011960737
000130 01 3b 81 bd ba 87 97 bc 88 c7 97 bd 0f 8f 6e bd
       -0.06310082 -0.018497337 -0.074111044 -0.0582419
000140 95 33 9d 3d e7 41 af 3c 4b a0 9d bd 20 36 e5 bc
       0.07675854 0.02139373 -0.07696589 -0.02797991
000150 bc 30 84 bd b1 1e ac 3d e0 2d 12 3c 4e 8a 74 bd
       -0.06454608 0.084042914 0.00892207 -0.05970221
000160 06 69 7d bb d6 e9 0f bd 0c 0f 3c 3d a2 b6 7a bd
       -0.0038667335 -0.035135113 0.045912787 -0.06120933
000170 b8 59 5e 3d 0f 79 95 ba 7d 66 ef bb 93 54 2e bd
       0.05428478 -0.0011403876 -0.0073059187 -0.042561125
000180 c0 36 21 bd 15 f4 bc 3c 60 2f 47 bc b5 d5 64 3d
       -0.039358854 0.023065606 -0.012157291 0.05586787
000190 85 b3 9b bd 93 48 ec 3c fe a4 df bc 17 1e 67 bd
       -0.076026 0.0288432 -0.027300354 -0.05642518
0001a0 71 23 fa 3c c1 23 8a 3d ef da 25 3c 62 7f 1c 3d
       0.030534478 0.06745101 0.010122999 0.03820742
0001b0 80 28 69 bd 7f 4e ad 3c 2c 1e 61 3d 2d 18 87 bd
       -0.05692339 0.021155594 0.054960415 -0.06596408
0001c0 9d 3c 08 3d 38 11 18 bd e0 51 ef bc 18 2d fe bc
       0.03326093 -0.037125796 -0.029213846 -0.031027362
0001d0 21 c0 3f bd 56 28 59 bd b1 2b a3 3d 01 83 6b 3d
       -0.046814088 -0.053016983 0.07967318 0.057497982
0001e0 50 56 5b bb 3f 34 77 3d 43 4c 1b 3d 36 fa 81 bc
       -0.0033468194 0.06035256 0.037914526 -0.01586638
0001f0 a5 37 99 ba 37 2d 90 bd 56 d1 35 bd 39 ef 72 3d
       -0.0011689557 -0.07039874 -0.04438909 0.05931017
