trained_models/PPO/ppo_connect4_model_1_8epochs.pt (torch, 537886 bytes, 9 tensors)

conv1.weight f4 [64, 1, 4, 4]
-0.07548065 0.29871473 0.22211942 0.15271711 0.10969369 0.028447444 0.041529715 0.2602042
-0.07372729 0.15996891 0.016712306 0.10949652 -0.062086917 -0.06676315 0.03978331 -0.07963411
-0.20458277 0.002143751 -0.17867064 -0.2953799 0.011543834 0.007501867 -0.16652271 -0.069296755
0.14315626 0.031710293 0.008553912 -0.048704404 -0.22031939 0.09996057 -0.27098548 0.11971544
-0.047557633 -0.24897091 -0.045450006 -0.15366042 -0.17293093 -0.15811001 0.2220666 -0.22101048
-0.105792955 -0.085966535 -0.118043564 -0.21290205 -0.22546132 -0.24280527 0.18917032 -0.031962566
-0.3568521 0.2485923 0.17127383 -0.17024182 -0.18349119 0.07190846 0.06994787 -0.23288745
-0.0019651027 -0.045086794 -0.13862723 0.010899861 -0.15159497 0.1984967 0.18417631 -0.014373934
-0.07844073 0.16725492 -0.16772375 -0.08398999 -0.023838252 0.32342616 0.008733508 -0.04205017
0.10052995 -0.12393914 0.24222232 -0.15239239 -0.06928576 0.059433382 -0.25960514 -0.3469298
-0.27286714 -0.32149813 0.03044155 0.23810619 -0.04164796 -0.23178524 0.36745566 0.12006516
-0.015650267 -0.21174681 0.0291132 -0.002906404 0.10406089 -0.26627174 0.14717907 -0.076996036
-0.2666447 0.25884834 -0.25067642 -0.069479406 -0.044672158 -0.061277654 0.11125959 0.18092464
-0.23941796 0.11076727 -0.2842632 -0.14905463 0.19121192 -0.24107116 0.20857553 0.16277072
0.023223912 -0.19241649 0.19199067 -0.15529746 0.00097450515 0.07680315 0.09604175 -0.093446516
0.2718621 -0.27643725 0.0073896293 -0.21104476 0.036572173 -0.08858466 0.25455806 -0.058881026
0.047215257 0.19243173 0.26142287 -0.013116948 -0.20763569 0.031568766 0.25453043 -0.050202563
-0.079930715 -0.043061975 -0.09941136 -0.14505161 0.17606983 -0.24519575 -0.03148881 -0.093806334
-0.32277703 0.17463337 0.0697917 -0.10835807 0.043515794 0.054925367 0.15443355 0.124220565
-0.30051216 0.13145092 -0.13248695 0.015859988 0.11462552 -0.21182442 0.0941795 -0.024118101
0.059201486 -0.2080656 0.1193279 -0.04879449 -0.14570898 0.22429392 0.088576525 0.09704226
0.04672353 -0.029663386 0.056655966 -0.14018811 0.20156536 0.14216408 -0.17394085 -0.19114609
0.04314619 0.23625712 0.041297976 -0.24731246 0.06419152 -0.13897657 -0.10791665 0.03818823
0.012849529 0.1513011 -0.23966967 0.2699325 -0.17748386 0.04516371 -0.14429772 -0.089833334
0.12270053 -0.26737297 0.0045805112 0.22429916 -0.034647472 -0.28238443 -0.002045259 -0.105274394
-0.20963855 -0.20903222 0.07097456 0.21656793 0.04005747 0.13363831 0.23799162 0.092401445
-0.1138923 0.024346836 -0.17694952 0.27006564 0.22647178 -0.22871321 -0.3389861 0.118405394
-0.13100849 0.17891952 -0.07161635 -0.053863358 0.23462366 -0.008235399 0.050587296 -0.18941976
0.015944114 0.14307828 -0.05403005 0.07102454 -0.14245887 -0.07041138 -0.048985787 0.23725852
-0.2463634 0.19545372 0.23754068 -0.13352399 0.14365561 -0.27768695 0.046818595 0.086637296
0.2909077 0.36171564 0.018418467 -0.35538432 -0.07736554 -0.044937346 -0.016366428 -0.33447254
0.13703257 -0.10218821 0.061003976 -0.10918671 -0.108018614 0.11074113 -0.010665694 0.042013705
00000000: 9995 9abd 23f1 983e 4673 633e e061 1c3e
00000010: 16a7 e03d 9d0a e93c 101b 2a3d 7c39 853e
00000020: 55fe 96bd e4ce 233e 3fe8 883c b63f e03d
00000030: da4e 7ebd 1ebb 88bd d3f3 223d 3517 a3bd
00000040: 257e 51be 2c7e 0c3b 70f5 36be 093c 97be
00000050: 5922 3d3c 39d2 f53b ee84 2abe 75eb 8dbd
00000060: 8e97 123e a7e2 013d b525 0c3c 457e 47bd
00000070: 689b 61be 21b8 cc3d 9cbe 8abe 5e2d f53d
00000080: cbcb 42bd 3bf2 7ebe c929 3abd 2859 1dbe
00000090: ce14 31be 97e7 21be 6d65 633e 9250 62be
000000a0: faa9 d8bd 390f b0bd d3c0 f1bd ff02 5abe
000000b0: 55df 66be f2a1 78be ddb5 413e 2eeb 02bd
000000c0: 52b5 b6be fb8e 7e3e 6862 2f3e df53 2ebe
000000d0: 1de5 3bbe be44 933d d440 8f3d 0c7a 6ebe
000000e0: f4c8 00bb eeac 38bd 4cf4 0dbe 5595 323c
000000f0: b63b 1bbe b842 4b3e b798 3c3e a680 6bbc
00000100: 89a5 a0bd e044 2b3e c6bf 2bbe f202 acbd
00000110: 7048 c3bc 1d98 a53e fd16 0f3c cd3c 2cbd
00000120: a5e2 cd3d ced3 fdbd 2109 783e c00c 1cbe
00000130: b1e5 8dbd 6b70 733d f7ea 84be c8a0 b1be
00000140: 3eb5 8bbe 679b a4be 8f60 f93c 1cd2 733e
00000150: 0d97 2abd 1c59 6dbe 2623 bc3e b9e4 f53d
00000160: fd34 80bc 28d4 58be ce7e ee3c 5e79 3ebb
00000170: e01d d53d c554 88be 1cb6 163e 19b0 9dbd
00000180: a785 88be c587 843e a958 80be 384b 8ebd
00000190: 27fa 36bd 47fe 7abd 11dc e33d 4f44 393e
000001a0: fb29 75be f3d9 e23d f28a 91be c7a1 18be
000001b0: 0fcd 433e 5cdb 76be d394 553e 5ead 263e
000001c0: 1340 be3c d408 45be 3499 443e 4c06 1fbe
000001d0: ef75 7f3a f84a 9d3d 89b1 c43d e360 bfbd
000001e0: 8231 8b3e 2f89 8dbe b424 f23b 1e1c 58be
000001f0: b4cc 153d e06b b5bd 6f55 823e 3b2d 71bd
00000200: c964 413d d30c 453e 38d9 853e 78e8 56bc
00000210: 739e 54be 404e 013d d051 823e 34a1 4dbd
00000220: b7b2 a3bd c161 30bd 2f98 cbbd 6988 14be
00000230: a64b 343e 9814 7bbe 69fa 00bd 891d c0bd
00000240: 0843 a5be 17d3 323e f3ee 8e3d d6ea ddbd
00000250: 9e3d 323d 6cf9 603d d423 1e3e 5a67 fe3d
00000260: bbdc 99be 129b 063e a9aa 07be ceec 813c
00000270: c9c0 ea3d 80e8 58be 2fe1 c03d 5393 c5bc
00000280: 427d 723d 260f 55be 3062 f43d bbdc 47bd
00000290: bc34 15be 4ead 653e 9c67 b53d 18be c63d
000002a0: 2c61 3f3d a100 f3bc 1610 683d 798d 0fbe
000002b0: 2667 4e3e 7693 113e 8d1d 32be cdbb 43be
000002c0: 0fba 303d 63ed 713e 1128 293d 7a3f 7dbe
000002d0: d876 833d e04f 0ebe 6803 ddbd 436b 1c3d
000002e0: d586 523c adee 1a3e f76b 75be 9834 8a3e
000002f0: 54be 35be 95fd 383d c8c2 13be 8afa b7bd
00000300: 6a4a fb3d 1ce5 88be 1d18 963b aeae 653e
00000310: 82ea 0dbd b194 90be c109 06bb 1a9a d7bd
00000320: 7dab 56be 8b0c 56be 1c5b 913d fcc3 5d3e
00000330: 4d13 243d 7bd8 083e 13b4 733e f83c bd3d
00000340: 5e40 e9bd 0473 c73c 4132 35be 0b46 8a3e
00000350: 38e8 673e cc33 6abe 968f adbe 877e f23d
00000360: 1727 06be ae36 373e 98ab 92bd d39f 5cbd
00000370: 2f41 703e c4ed 06bc a034 4f3d 41f7 41be
00000380: 3b9d 823c 1d83 123e 9d4e 5dbd 5075 913d
00000390: bde0 11be d733 90bd 52a5 48bd e6f3 723e
000003a0: b046 7cbe 0525 483e dd3d 733e 83ba 08be
000003b0: 751a 133e fc2c 8ebe dbc4 3f3d e56e b13d
000003c0: dbf1 943e cb32 b93e 53e2 963c eff4 b5be
000003d0: d371 9ebd 3910 38bd e312 86bc fc3f abbe
000003e0: 4452 0c3e 0d48 d1bd 4edf 793d 489d dfbd
000003f0: dd38 ddbd 3fcc e23d 2abf 2ebc 9016 2c3d

conv1.bias f4 [64]
-0.09401192 0.16949232 0.23572841 0.079858094 -0.0596341 -0.17477018 0.026719484 -0.002132172
0.1763406 0.075847544 -0.013097497 -0.0026337386 -0.035842948 0.13003062 0.023710197 -0.15228045
-0.18285184 0.09115134 -0.07705962 -0.005249817 -0.115680434 -0.12819067 -0.117299154 0.041757666
0.14593935 -0.12764001 0.2077763 0.16442582 -0.15743501 0.03535368 0.05169263 -0.059631236
0.26606858 -0.03751152 0.018152393 -0.14228424 -0.014294014 0.069047555 0.0509328 -0.26323777
0.15652028 0.23930727 0.21598382 0.07637313 -0.15990709 -0.09074921 -0.11070527 -0.121756375
-0.04133649 0.108905345 0.14605613 -0.030304896 -0.06540089 0.24856631 -0.16296823 0.045796327
-0.21225652 0.1494762 -0.20534894 0.17119344 -0.0302573 -0.11657476 0.042285923 -0.14640594
00000000: 5289 c0bd 658f 2d3e ca62 713e a48c a33d
00000010: e342 74bd f4f6 32be d2e2 da3c e9bb 0bbb
00000020: a192 343e f555 9b3d e296 56bc cd9a 2cbb
00000030: 0ed0 12bd bf26 053e e33b c23c 68ef 1bbe
00000040: 833d 3bbe 8ead ba3d 6fd1 9dbd a806 acbb
00000050: dde9 ecbd 6a44 03be 8a3a f0bd 160a 2b3d
00000060: 2071 153e 10b4 02be 4fc3 543e 3e5f 283e
00000070: a536 21be 05cf 103d a7bb 533d e23f 74bd
00000080: 243a 883e aea5 19bd 54b4 943c f6b2 11be
00000090: 7131 6abc ce68 8d3d e99e 503d 1ac7 86be
000000a0: da46 203e f70c 753e dd2a 5d3e 8469 9c3d
000000b0: afbe 23be b9da b9bd 72b9 e2bd 685b f9bd
000000c0: 7450 29bd c409 df3d bd8f 153e f941 f8bc
000000d0: e7f0 85bd 2b88 7e3e 25e1 26be ee94 3b3d
000000e0: c659 59be 4a10 193e fe46 52be 554d 2f3e
000000f0: 28de f7bc bfbe eebd 0134 2d3d 70eb 15be

conv2.weight f4 [128, 64, 2, 2]
-0.008492553 0.018066589 -0.03281744 0.012928879 -0.038944542 0.007902598 0.09110873 0.116496064
-0.014412437 0.013053533 -0.030394392 0.0018466912 0.08368518 0.04980249 0.049736828 -0.003388352
-0.064026274 0.03903133 -0.072289266 -0.18205723 -0.09552301 0.043496475 -0.007270052 -0.032934383
0.054385535 -0.020729516 -0.10145629 0.08175112 0.076268695 -0.0152367 -0.033690672 -0.072869144
0.095637195 -0.013025163 -0.05327842 -0.038417187 0.005235637 0.015471073 -0.08610301 0.01655493
0.058932334 -0.07001552 -0.07873235 -0.021264559 0.0073274905 -0.0058160825 0.103549 -0.00692023
-0.080182575 0.033136293 -0.03833578 0.05577163 -0.040434718 -0.038539767 0.043472107 -0.070109785
-0.06820709 0.04420644 -0.022609202 0.009521442 0.014884942 0.03294577 0.03764437 -0.019088807
0.03641655 -0.0026915343 0.001761189 0.00784207 -0.0087391855 -0.0038251786 0.028509956 0.015691616
0.12032287 0.1149438 -0.018649213 0.049579956 0.022220794 0.058996353 -0.058923945 -0.03958537
-0.08098228 -0.06370851 -0.008209128 0.10939385 -0.10906285 -0.033801407 -0.026314057 -0.026571536
0.009286033 0.028433662 0.014355314 0.11193288 -0.043536324 0.06999759 0.16800925 0.06732452
-0.06010767 0.002132825 0.016933983 0.0025929196 -0.008493789 0.0008548014 0.03245844 -0.019953858
-0.021798924 -0.053385273 -0.014561265 0.054143038 -0.031188691 -0.0009002055 -0.02505656 -0.038942564
-0.019392548 0.04396213 -0.07370629 -0.056748517 0.07536127 -0.06906248 0.07063478 -0.05081802
0.03834841 0.029594898 0.050406333 0.005319073 -0.023492768 -0.046098154 0.007162073 -0.08977501
0.014187975 0.018261533 0.06706604 -0.048413724 -0.10167099 -0.0037755645 -0.13585703 0.054564215
-0.024432508 0.028022349 0.041066967 0.047070358 -0.085522085 -0.017950408 -0.051759284 -0.0009921142
-0.049819186 0.041288912 0.095749214 0.05529293 -0.053866908 -0.09452733 0.07702655 -0.012826157
-0.04564764 0.025318472 -0.026822656 -0.033870384 0.024489567 -0.06198999 0.03939494 -0.0666066
-0.06854061 0.035001703 -0.08852433 0.043293603 -0.0019223483 0.037031647 0.02872789 -0.107147895
-0.075748734 -0.02871911 -0.008166886 0.056823343 -0.012848487 0.018478032 0.07799418 0.015746765
-0.03416437 0.055089585 -0.0823263 -0.060792714 0.11114557 0.07162549 -0.0025984808 -0.0020842433
0.04563764 -0.018721193 0.09070577 -0.026816055 0.1392544 0.106526576 -0.03921925 -0.09942668
0.055369504 -0.047988843 0.06390486 0.10493187 -0.022910744 -0.018667873 -0.06999317 -0.03862511
0.040951494 0.043309234 0.016684981 -0.010154499 0.03642712 0.021481154 0.024317238 0.014271657
0.024911793 -0.02349273 -0.08280809 0.019791856 0.020133264 0.019592073 -0.009037876 -0.06845559
-0.097727545 -0.087057136 0.014540432 -0.0676579 0.0064987163 0.07471714 -0.055140782 -0.09918905
0.004880157 0.0065854792 -0.021726763 -0.009921667 -0.06437352 0.038558066 -0.02930076 0.18173262
-0.04874653 -0.01641815 0.02127086 0.032594725 -0.0024958774 -0.0008294499 0.010686249 0.066248715
0.012974223 -0.0170325 -0.0028858338 -0.066015035 -0.040583592 -0.11302653 -0.07727465 -0.08073586
-0.036737774 -0.03676466 -0.0099095525 -0.005700943 0.100045905 0.12838916 -0.014729787 0.043139435
00000000: 5924 0bbc 6200 943c 946b 06bd a6d3 533c
00000010: 5084 1fbd e679 013c 3797 ba3d 7d95 ee3d
00000020: 2422 6cbc 7cde 553c a9fd f8bc ad0c f23a
00000030: 2363 ab3d b2fd 4b3d d8b8 4b3d 1d0f 5ebb
00000040: 3520 83bd 51df 1f3d 650c 94bd 366d 3abe
00000050: 91a1 c3bd 5c29 323d 9e39 eebb 34e6 06bd
00000060: 5ec3 5e3d f2d0 a9bc 51c8 cfbd 226d a73d
00000070: c332 9c3d 5aa3 79bc 3bff 09bd 6b3c 95bd
00000080: 6fdd c33d 7e67 55bc 793a 5abd 575b 1dbd
00000090: b58f ab3b 627a 7d3c c656 b0bd 349e 873c
000000a0: 0863 713d 4c64 8fbd 6d3e a1bd 0333 aebc
000000b0: 721b f03b d694 bebb 8011 d43d 19c3 e2bb
000000c0: c336 a4bd ecb9 073d fb05 1dbd cb70 643d
000000d0: e09e 25bd e0db 1dbd cf0f 323d b895 8fbd
000000e0: 29b0 8bbd d011 353d ef36 b9bc d3ff 1b3c
000000f0: f9df 733c 25f2 063d fc30 1a3d 2160 9cbc
00000100: 8529 153d 7464 30bb b2d7 e63a 077c 003c
00000110: cd2e 0fbc d9af 7abb b68d e93c b48b 803c
00000120: d66b f63d a867 eb3d 3cc6 98bc 5a14 4b3d
00000130: 6208 b63c 29a6 713d 3c5a 71bd 4524 22bd
00000140: 0ada a5bd 9b79 82bd 947f 06bc e209 e03d
00000150: 585c dfbd 5873 0abd 9490 d7bc 8dac d9bc
00000160: 7224 183c b6ed e83c 8d32 6b3c 113d e53d
00000170: 2553 32bd e55a 8f3d 9e0a 2c3e 70e1 893d
00000180: 7633 76bd dec6 0b3b 23b9 8a3c f9ed 293b
00000190: 8829 0bbc c014 603a 24f3 043d 4676 a3bc
000001a0: a893 b2bc 84aa 5abd 5f92 6ebc 17c5 5d3d
000001b0: 6d7f ffbc c5fb 6bba 6a43 cdbc 3d82 1fbd
000001c0: 1fdd 9ebc a211 343d 53f3 96bd 2271 68bd
000001d0: 0257 9a3d a170 8dbd f8a8 903d 8e26 50bd
000001e0: 3913 1d3d 0071 f23c df76 4e3d 9e4b ae3b
000001f0: e873 c0bc 6bd1 3cbd d3af ea3b f6db b7bd
00000200: ae74 683c 3699 953c ec59 893d 784d 46bd
00000210: e138 d0bd 766f 77bb 1b1e 0bbe ba7e 5f3d
00000220: af26 c8bc 208f e53c d635 283d d9cc 403d
00000230: 3426 afbd bc0c 93bc 8b01 54bd d409 82ba
00000240: 340f 4cbd 901e 293d 2a18 c43d d77a 623d
00000250: 8ca3 5cbd 8b97 c1bd 19c0 9d3d cd24 52bc
00000260: 05f9 3abd af68 cf3c 30bb dbbc acbb 0abd
00000270: 589e c83c 37e9 7dbd 975c 213d 0b69 88bd
00000280: 055f 8cbd f25d 0f3d 3e4c b5bd a254 313d
00000290: 4ef7 fbba 7fae 173d c156 eb3c 5b70 dbbd
000002a0: 2722 9bbd 5744 ebbc 67ce 05bc 98bf 683d
000002b0: 7682 52bc 3e5f 973c 6abb 9f3d 5cff 803c
000002c0: f0ef 0bbd 9ea5 613d b19a a8bd c801 79bd
000002d0: 4aa0 e33d 63b0 923d 464b 2abb cd97 08bb
000002e0: 89ee 3a3d 305d 99bc f2c3 b93d 58ad dbbc
000002f0: b598 0e3e 9b2a da3d 5da4 20bd 37a0 cbbd
00000300: 22cb 623d f38f 44bd 8de0 823d 85e6 d63d
00000310: 50af bbbc 5eed 98bc 9458 8fbd 5d35 1ebd
00000320: c1bc 273d 0665 313d f1ae 883c 0e5f 26bc
00000330: 9b34 153d 3ff9 af3c f234 c73c abd3 693c
00000340: d113 cc3c d373 c0bc 4a97 a9bd 8822 a23c
00000350: 84ee a43c 8e7f a03c 9913 14bc 7232 8cbd
00000360: 6125 c8bd 034b b2bd fe3a 6e3c 3a90 8abd
00000370: 2ff3 d43b 4d05 993d 4ddb 61bd a123 cbbd
00000380: b9e9 9f3b 01cb d73b 53fc b1bc 7d8e 22bc
00000390: 44d6 83bd 10ef 1d3d 2608 f0bc 1e18 3a3e
000003a0: 71aa 47bd 5b7f 86bc 3a40 ae3c 0c82 053d
000003b0: e091 23bb 716f 59ba 6015 2f3c 68ad 873d
000003c0: d691 543c be87 8bbc 4220 3dbb e432 87bd
000003d0: fb3a 26bd 747a e7bd 2c42 9ebd d858 a5bd
000003e0: 597a 16bd 8a96 16bd ad5b 22bc face babb
000003f0: dee4 cc3d 7378 033e 3455 71bc fab2 303d

conv2.bias f4 [128]
0.03607454 0.08269951 0.03757073 0.05825173 -0.0623823 -0.036863472 0.049210437 -0.033969693
0.010269349 0.052966524 0.04528357 -0.053294033 0.05457714 -0.062197234 -0.055175755 0.014659418
-0.037096806 0.01610168 -0.012535021 0.041077968 0.0416758 0.06213047 0.047319584 -0.046355184
-0.045182776 -0.06434812 0.044667672 -0.032236576 0.07351118 0.0040069656 -0.05019323 -0.045796458
0.04125483 0.0037678226 0.053102255 -0.015506487 -0.03208453 -0.038042713 0.02112221 -0.059959043
0.040260065 0.026665302 -0.023117092 -0.037562247 0.06050699 0.022707937 -0.06464502 0.014778928
-0.07342188 0.06218064 0.08201976 -0.06646143 -0.024957877 -0.035178125 0.027627477 0.0017121239
-0.042242527 0.020958276 0.030924331 0.04223521 0.029625932 0.06581531 0.04005914 -0.029939704
-0.025751112 0.026907457 -0.05240311 0.007152814 0.05116979 0.036381878 0.05602756 0.022947745
-0.04110582 -0.05005928 -0.046709903 -0.0018140561 -0.009009492 0.048440434 -0.05288194 0.03302841
-0.06442547 -0.013834848 0.004603638 -0.019433675 -0.031572383 -0.059532624 0.051648337 0.037849937
-0.0657761 -0.041696448 0.018810531 -0.010372725 -0.042675264 0.00548124 -0.050869547 -0.0058554416
0.018050393 0.044314384 0.08555301 -0.026790593 -0.0477968 -0.07474012 -0.041707773 -0.024083866
0.070630945 0.034263402 0.00019399403 0.06424822 0.024006762 -0.039693803 0.026974946 -0.046839956
0.043852538 0.061604563 -0.013811244 -0.01194698 -0.027570093 -0.048324678 -0.05912432 0.060206003
-0.01406045 0.007260102 -0.03335549 0.08523025 -0.018674463 -0.058054786 -0.06320263 0.0030340205
00000000: e6c2 133d 5c5e a93d c4e3 193d 5e99 6e3d
00000010: 9584 7fbd 27fe 16bd e290 493d ce23 0bbd
00000020: c640 283c 6df3 583d 447b 393d d84a 5abd
00000030: 478c 5f3d 87c2 7ebd f9ff 61bd 0e2e 703c
00000040: d2f2 17bd ace7 833c b05f 4dbc 5f41 283d
00000050: 3eb4 2a3d 857c 7e3d 2ed2 413d efde 3dbd
00000060: 9311 39bd f2c8 83bd 73f5 363d 800a 04bd
00000070: 088d 963d dd4c 833b 6b97 4dbd 1195 3bbd
00000080: d3fa 283d 93ed 763b c081 593d ec0e 7ebc
00000090: 116b 03bd add2 1bbd 7c08 ad3c 9d97 75bd
000000a0: bde7 243d 3171 da3c 0e60 bdbc dfda 19bd
000000b0: 2dd6 773d ff05 ba3c 9c64 84bd 5123 723c
000000c0: 365e 96bd 20b1 7e3d faf9 a73d ee1c 88bd
000000d0: 7674 ccbc f016 10bd 0553 e23c 5869 e03a
000000e0: 8006 2dbd b1b0 ab3c 0655 fd3c d4fe 2c3d
000000f0: 15b2 f23c 2dca 863d 0e15 243d 1c44 f5bc
00000100: fff3 d2bc 076d dc3c a5a4 56bd 2762 ea3b
00000110: 6a97 513d 2a05 153d 287d 653d e9fc bb3c
00000120: 945e 28bd f60a 4dbd e252 3fbd 9fc5 edba
00000130: 8c9c 13bc 7a69 463d bc9a 58bd cc48 073d
00000140: 80f1 83bd 8fab 62bc 1dda 963b 5f33 9fbc
00000150: 0b52 01bd 7bd8 73bd 358d 533d 8908 1b3d
00000160: 9fb5 86bd e5c9 2abd 8b18 9a3c 5df2 29bc
00000170: 42cc 2ebd f99b b33b 965c 50bd 01df bfbb
00000180: 6bde 933c 0083 353d 6b36 af3d f277 dbbc
00000190: 94c6 43bd 5911 99bd c5d5 2abd 874b c5bc
000001a0: f5a6 903d c857 0c3d e06a 4b39 9294 833d
000001b0: d4a9 c43c f895 22bd 90fa dc3c 41db 3fbd
000001c0: b89e 333d 1155 7c3d 8e48 62bc 44bd 43bc
000001d0: adda e1bc 19f0 45bd 582c 72bd 929a 763d
000001e0: cd5d 66bc 26e6 ed3b c49f 08bd 338d ae3d
000001f0: 30fb 98bc dbca 6dbd 6170 81bd 6bd6 463b

fc_shared.weight f4 [128, 768]
0.039574537 0.06179436 -0.054819144 0.07651789 0.028881382 -0.017535033 0.06449063 0.053429082
0.07881663 0.045700055 0.052196935 0.100033805 0.024585756 0.021957455 -0.013693399 0.016225237
-0.01794823 -0.034790445 -0.02362143 0.053606138 0.040118605 0.032625135 0.07683151 0.07218576
-0.032967083 -0.04789895 0.0049596443 -0.12520997 -0.041372206 0.02262251 0.002451683 -0.005109908
-0.0076644057 0.0059594284 -0.015815219 0.0036396482 0.08257321 0.034021262 0.047627077 0.03503411
-0.002410161 0.0031642958 -0.06082366 -0.0046039415 0.032405097 -0.046315387 0.023238344 -0.02237424
-0.028213495 0.023779534 0.011867915 -0.041344654 -0.025079437 -0.02219481 0.061458763 0.03314722
0.017899571 -0.0041238423 8.000889e-06 0.0026704157 0.014608348 -0.0014625847 0.0231825 -0.0031219628
-0.0021172583 -0.02468829 -0.0173083 0.019747987 -0.023314292 0.004182118 0.0006784129 0.007591287
0.13140427 0.0042656986 -0.10423299 0.07102432 -0.001246927 -0.06945663 -0.027837444 -0.020288026
0.035402153 -0.017214071 -0.038303707 0.026062215 0.00071653986 -0.025518263 -0.04298258 -0.029061455
-0.014711346 -0.011723864 0.09247161 0.057013128 -0.084239 0.013000335 -0.031092443 -0.057372604
0.03126958 0.07212651 -0.070975184 0.031748842 0.057899315 -0.010345216 -0.037350014 -0.045565818
0.06074294 -0.03952859 -0.04484118 0.004622996 0.014142585 0.05785503 -0.028327508 0.012956401
0.034215674 -0.015404776 -0.019157112 -0.07252128 0.03607587 -0.014890717 -0.05215383 -0.011769634
0.07909867 0.044306714 -0.02392914 0.099399686 -0.009235795 -0.0017910838 0.031075368 -0.018745447
-0.0048980946 0.059538685 -0.029440345 0.011552357 0.03600121 -0.04534305 0.006427432 0.012665015
-0.04358245 -0.033834405 -0.0066594584 0.06606267 -0.042726275 0.031722393 0.008013946 -0.04564295
0.025164338 -0.0142619815 0.008113269 -0.04068377 -0.035661694 -0.008284268 -0.040287085 0.025479086
-0.00035060017 -0.01575351 -0.010398873 0.025366336 0.11041514 0.07587954 -0.022255844 0.030606426
0.010382846 -0.024432013 -0.008562335 -0.019593269 0.027016645 -0.0159728 0.017542807 -0.033425875
0.08762149 0.14941113 0.047441386 0.122376665 0.038740795 0.034622982 0.0018949857 0.0025279613
0.036573693 0.049766365 0.03786071 0.046577223 0.054252222 0.023974357 0.0131210275 0.0020112197
-0.010019158 -0.004534223 0.095059514 0.020353328 -0.083497144 0.0023810258 -0.03001933 -0.114697434
0.12343404 -0.018319111 -0.035047743 0.013032317 -0.027127648 -0.015465919 0.03265113 -0.028617356
0.03213513 -0.03593119 -0.02759897 -0.02013731 0.060019292 0.009458779 0.07445189 0.05762739
0.029483587 0.046421155 -0.033528354 0.054441914 0.027616834 -0.0010403785 0.05347802 0.0011945349
-0.039165348 -0.16021097 0.05626651 -0.035007086 -0.123110585 -0.013068723 0.019371962 -0.023434624
-0.015981639 -0.021739693 0.008843169 0.007991371 -0.0023467105 -0.03823024 0.029563805 0.00028018065
-0.050995547 -0.035049397 0.007136598 0.008082208 -0.012410906 0.01986392 -0.021466518 0.032712787
0.029815655 0.01167272 0.00075212226 -0.0062169232 0.026671898 -0.007124786 0.016956598 0.03609726
0.040155753 -0.00028033915 0.038569853 -0.014109479 0.060178023 0.02123189 -0.014162538 0.031403176
00000000: e918 223d 151c 7d3d 0a8a 60bd 69b5 9c3d
00000010: a698 ec3c a1a5 8fbc aa13 843d 74d8 5a3d
00000020: 9d6a a13d fb2f 3b3d 74cc 553d 86de cc3d
00000030: 1168 c93c 1fe0 b33c 475a 60bc caea 843c
00000040: 2b08 93bc 6d80 0ebd bb81 c1bc 1c92 5b3d
00000050: 6853 243d efa1 053d d759 9d3d 21d6 933d
00000060: 7e08 07bd b031 44bd 8384 a23b 0b37 00be
00000070: e775 29bd d852 b93c 6aac 203b 0471 a7bb
00000080: b225 fbbb 4f47 c33b eb8e 81bc 2a87 6e3b
00000090: 251c a93d e159 0b3d 9c14 433d ed7f 0f3d
000000a0: cbf3 1dbb 1360 4f3b 3b22 79bd a9dc 96bb
000000b0: 35bb 043d 34b5 3dbd 575e be3c 2f4a b7bc
000000c0: fd1f e7bc 4ccd c23c a571 423c 0359 29bd
000000d0: 6473 cdbc e4d1 b5bc 2fbc 7b3d 61c5 073d
000000e0: 1fa2 923c 4c21 87bb 8e3b 0637 2402 2f3b
000000f0: da57 6f3c 33b4 bfba 3ae9 bd3c d899 4cbb
00000100: b3c1 0abb 193f cabc 23ca 8dbc 88c6 a13c
00000110: 9dfd bebc 260a 893b 85d7 313a 55c0 f83b
00000120: d78e 063e 46c7 8b3b 1b78 d5bd 3375 913d
00000130: ed6f a3ba 473f 8ebd 5a0b e4bc 1333 a6bc
00000140: d901 113d 8604 8dbc 59e4 1cbd 6d80 d53c
00000150: 2dd6 3b3a ad0b d1bc 800e 30bd 4a12 eebc
00000160: db07 71bc 7315 40bc c161 bd3d 9986 693d
00000170: 7f85 acbd 5bff 543c 94b5 febc 89ff 6abd
00000180: 8814 003d 10b7 933d 705b 91bd 130b 023d
00000190: d527 6d3d fb7e 29bc 54fc 18bd 39a3 3abd
000001a0: 97cd 783d bbe8 21bd 63ab 37bd 807c 973b
000001b0: 4db6 673c 65f9 6c3d 170f e8bc 1647 543c
000001c0: bc25 0c3d 5064 7cbc 60ef 9cbc 0986 94bd
000001d0: 4bc4 133d 32f8 73bc 419f 55bd 6cd5 40bc
000001e0: 7cfe a13d f57a 353d 0b07 c4bc 1092 cb3d
000001f0: bb51 17bc cdc2 eaba c591 fe3c 0d90 99bc
00000200: 3280 a0bb d6de 733d e12c f1bc 1946 3d3c
00000210: 0176 133d a2b9 39bd 359d d23b ec80 4f3c
00000220: 8383 32bd f295 0abd 9637 dabb dd4b 873d
00000230: bf01 2fbd 57ef 013d ed4c 033c 1af4 3abd
00000240: 7125 ce3c 16ab 69bc 84ed 043c 06a4 26bd
00000250: ff11 12bd bdba 07bc 1204 25bd 84b9 d03c
00000260: c2d0 b7b9 810d 81bc 0960 2abc 10cd cf3c
00000270: 5521 e23d bb66 9b3d e351 b6bc 54ba fa3c
00000280: d01c 2a3c a525 c8bc 0949 0cbc 1082 a0bc
00000290: 0352 dd3c 64d9 82bc efb5 8f3c 92e9 08bd
000002a0: e572 b33d 3bff 183e e651 423d 9ea0 fa3d
000002b0: abae 1e3d d4d0 0d3d 2b61 f83a 27ac 253b
000002c0: 4cce 153d d1d7 4b3d d513 1b3d c2c7 3e3d
000002d0: 9437 5e3d df65 c43c 94f9 563c abce 033b
000002e0: 6527 24bc d293 94bb 90ae c23d 06bc a63c
000002f0: 8d00 abbd fc0a 1c3b 19eb f5bc 7de6 eabd
00000300: fcca fc3d f611 96bc 398e 0fbd 8085 553c
00000310: cd3a debc c464 7dbc 31bd 053d f26e eabc
00000320: 20a0 033d 952c 13bd 3c17 e2bc 00f7 a4bc
00000330: cad6 753d fff8 1a3c 3c7a 983d b30a 6c3d
00000340: 9087 f13c 1c24 3e3d 0755 09bd 7cfe 5e3d
00000350: b33c e23c 4f5d 88ba c50b 5b3d f191 9c3a
00000360: d86b 20bd 580e 24be b677 663d 9763 0fbd
00000370: 6721 fcbd 321e 56bc f3b1 9e3c f8f9 bfbc
00000380: edeb 82bc 7117 b2bc f0e2 103c 3dee 023c
00000390: 45cb 19bb 5097 1cbd cb2f f23c 36e5 9239
000003a0: b5e0 50bd f58f 0fbd 20da e93b 3d6b 043c
000003b0: 1d57 4bbc a9b9 a23c 8dda afbc d8fd 053d
000003c0: f63f f43c f03e 3f3c 122a 453a 55b7 cbbb
000003d0: 067f da3c 0977 e9bb 90e8 8a3c b8da 133d
000003e0: 5c7a 243d 7cfa 92b9 6cfb 1d3d 722b 67bc
000003f0: 3b7d 763d 80ee ad3c fd09 68bc 9ea0 003d

fc_shared.bias f4 [128]
0.067892596 -0.038838714 0.041562326 -0.0023145152 0.027570706 -0.006635564 0.017693596 0.014940424
0.04604429 -0.03787799 0.023284333 0.0271576 0.038100835 -0.02227883 0.028041178 0.07474913
0.05034275 0.022989897 -0.076960504 0.031132085 0.03247906 -0.0046440894 -0.047543436 -0.0110307215
0.005734249 -0.006764722 -0.030226966 -0.02156771 0.019023448 0.004389247 0.029398438 0.025918258
-0.03298793 0.0019592 -0.0033671723 0.059351616 0.06539343 -0.0030480127 0.03283428 0.03794348
0.037617438 -0.02259775 0.05453039 0.049710132 0.010454422 -0.0031473516 -0.0057232426 0.049315076
0.061385933 -0.0052366373 -0.04017268 -0.02308967 -0.0317781 -0.002346382 0.04215376 0.006807475
0.019663213 0.029077196 0.001012322 0.015484634 0.016322833 0.010019497 -0.015791653 0.005200357
0.058056843 0.09245158 -0.020009136 -0.010642873 0.044200655 -0.027946416 0.08028723 0.046606075
0.027511643 0.002641974 -0.032425024 0.02724209 0.02201606 0.02728582 0.061162915 -0.010845556
-0.021346742 0.09128169 0.05478832 -0.014997638 0.07375609 0.029831871 0.018438485 -0.0032499412
0.015707027 0.055888936 -0.016868051 0.06051804 0.053800236 0.015014295 -0.015116154 0.020452457
-0.023740742 0.038407218 0.014240448 0.023392871 0.0054479535 0.050430562 -0.09383601 0.052713454
0.011266478 -0.009594979 0.04523526 0.062210493 0.030518038 0.002164214 0.0734952 -0.011861836
-0.00025018974 -0.0035469932 0.010275577 0.019716443 -0.013353233 0.0049453387 0.0035661836 0.0482945
0.0055664596 -0.006504063 0.013251377 -0.0031843304 -0.059309486 0.06589281 0.06433272 -0.007992805
00000000: 460b 8b3d 5815 1fbd 423d 2a3d 1faf 17bb
00000010: f6db e13c 256f d9bb 29f2 903c aec8 743c
00000020: f098 3c3d f425 1bbd c9be be3c 9d79 de3c
00000030: 9f0f 1c3d 1882 b6bc 9db6 e53c 1216 993d
00000040: 3334 4e3d 4f55 bc3c 789d 9dbd b708 ff3c
00000050: c308 053d 722d 98bb e8bc 42bd 33ba 34bc
00000060: 5ee6 bb3b 9aaa ddbb 8b9e f7bc c4ae b0bc
00000070: 10d7 9b3c acd3 8f3b fed4 f03c 8752 d43c
00000080: 5a1e 07bd ec65 003b c7ab 5cbb ae1a 733d
00000090: feec 853d 2bc1 47bb 3d7d 063d 9f6a 1b3d
000000a0: be14 1a3d eb1e b9bc 425b 5f3d da9c 4b3d
000000b0: 0649 2b3c cc43 4ebb 0a8a bbbb 9bfe 493d
000000c0: d16f 7b3d 1998 abbb 1c8c 24bd 8c26 bdbc
000000d0: c129 02bd c2c5 19bb 6ca9 2c3d 3d11 df3b
000000e0: bf14 a13c 4d33 ee3c e4af 843a 43b3 7d3c
000000f0: 76b7 853c d128 243c 7f5d 81bc c267 aa3b
00000100: 03cd 6d3d 4157 bd3d 33ea a3bc 725f 2ebc
00000110: bf0b 353d e2ef e4bc a26d a43d 03e6 3e3d
00000120: 1960 e13c f824 2d3b 1ad0 04bd ce2a df3c
00000130: 065b b43c 8386 df3c f785 7a3d 8fb1 31bc
00000140: 5ddf aebc e5f1 ba3d b869 603d a7b8 75bc
00000150: 6f0d 973d f861 f43c 4e0c 973c f7fc 54bb
00000160: 06ac 803c cceb 643d de2e 8abc c4e1 773d
00000170: a35d 5c3d 84fe 753c bfa9 77bc e98b a73c
00000180: f27b c2bc e350 1d3d c550 693c 68a2 bf3c
00000190: bf84 b23b 4790 4e3d 182d c0bd 10ea 573d
000001a0: 0997 383c 4234 1dbc 9c48 393d 6ed0 7e3d
000001b0: f700 fa3c 7cd5 0d3b a784 963d 2558 42bc
000001c0: e62b 83b9 ac74 68bb e55a 283c 6184 a13c
000001d0: 85c7 5abc 820c a23b a2b6 693b 74d0 453d
000001e0: d966 b63b 0920 d5bb 4e1c 593c 33b0 50bb
000001f0: 81ee 72bd cff2 863d e0c0 833d 41f4 02bc

actor.weight f4 [7, 128]
-0.05043934 0.0023363803 -0.013561564 -0.04667991 -0.01006045 -0.06151035 -0.20718032 -0.06305162
0.008932773 0.00038769783 0.04221753 0.0006849767 -0.021213718 0.038669102 0.008126384 -0.067508124
-0.00028962124 -0.07199841 -0.13114212 -0.051778477 -0.08513962 -0.05618884 0.04220205 0.015526772
0.026070938 -0.0905428 -0.0713937 0.02519037 -0.06371964 0.032920036 0.009190499 -0.020776115
-0.022672594 0.08337041 -0.059258822 -0.0433868 -0.0028167765 -0.024660053 -0.07767536 -0.05460723
0.017762054 -0.024315475 -0.10194225 -0.003576938 0.018321339 -0.03841107 0.059575193 0.005540501
-0.07846907 0.04368401 -0.03718158 -0.10743054 -0.018623488 -0.08459005 -0.077498026 -0.033390764
0.011404249 -0.06838768 0.004446769 0.043010756 0.08114135 -0.020767348 0.025473386 -0.035379916
-0.0782732 -0.09035008 -0.10215868 -0.01540297 -0.026624577 0.103820905 -0.054109182 -0.1229566
-0.06355095 -0.07908125 -0.02805544 0.006744442 -0.07916576 -0.038034007 -0.08859115 -0.06661428
-0.016176805 -0.12458318 -0.04737207 -0.06622535 -0.055551946 -0.072847486 -0.11696027 -0.050250392
0.03294893 -0.088825025 0.065061316 -0.07192961 -0.016826635 0.009141155 -0.056120772 -0.079320714
-0.1841008 -0.044916756 -0.079087645 0.000515071 -0.028659038 0.023328006 0.075536296 -0.04084821
-0.035595283 -0.055891857 -0.060475793 -0.0007856156 0.08478948 -0.07833175 -0.11429088 -0.02707977
-0.021619083 0.025735278 0.016370697 -0.008834211 -0.07933785 0.010444823 0.07009595 -0.004674081
-0.077883415 -0.15607175 -0.057573423 -0.042968806 -0.1574524 -0.0102276085 -2.088399e-06 0.0074538565
-0.12018075 0.085152246 -0.028438699 0.066245474 0.14332713 0.041621797 -0.06426151 0.07190979
-0.0187131 0.04639683 0.027226804 -0.04132052 -0.03182236 -0.014353418 -0.0672736 -0.12582795
0.012176038 0.11792684 0.088091545 -0.053083334 0.09302352 0.11892288 -0.047261916 -0.017773917
0.057701956 -0.011162278 0.007651794 0.1944745 -0.001627042 0.07541147 -0.030290768 0.05736637
0.10448687 0.13377589 0.040361013 0.14563587 0.07010841 0.07132354 -0.11960083 0.06815971
0.033188313 0.05432829 -0.05919009 -0.12769474 0.0018790129 -0.06125759 0.12138499 -0.05500272
0.082794994 0.037306126 -0.04749393 0.18678696 -0.042248767 -0.07342725 -0.054728918 -0.011450912
0.06545701 0.025736468 0.0090796305 0.09000271 -0.106102064 0.014753001 -0.029340908 0.07641088
0.103062555 -0.02393718 0.061834894 -0.022357233 -0.045989897 0.09609142 0.08930484 -0.018542355
0.08089008 -0.17438072 0.015672978 -0.0025260875 0.089265615 -0.028662909 -0.049154013 0.112482466
0.072297655 -0.113223515 -0.15171894 -0.07035354 -0.03261595 0.06032398 -0.115129024 0.0248638
0.015049175 -0.072857834 -0.05269685 0.009235814 0.06659329 0.15335959 0.018454285 -0.07215196
0.13362445 -0.08912338 -0.083463304 0.0012562227 0.015831342 -0.03682579 0.18960126 0.059377518
-0.048649006 -0.008508234 0.004668551 -0.0032744142 0.04171496 -0.026897414 -0.13581504 0.1233967
-0.0016336974 -0.017248735 0.016396724 -0.07327412 -0.010177058 0.011746648 0.0040428657 0.072725154
0.007530221 0.008342293 0.14856735 0.19862542 0.12599602 -0.14163361 -0.00036901637 -0.06635948
00000000: 7b99 4ebd f51d 193b 5231 5ebc 6f33 3fbd
00000010: 96d4 24bc 47f2 7bbd 1427 54be 3521 81bd
00000020: c45a 123c ec43 cb39 4aec 2c3d 0290 333a
00000030: 64c8 adbc 7e63 1e3d 8624 053c b341 8abd
00000040: 4ed8 97b9 e773 93bd 1f4a 06be ab15 54bd
00000050: ae5d aebd 4526 66bd 0fdc 2c3d 0064 7e3c
00000060: b892 d53c 816e b9bd dc36 92bd 095c ce3c
00000070: 717f 82bd 29d7 063d bf93 163c ac32 aabc
00000080: e0bb b9bc 1bbe aa3d 61b9 72bd 5bb6 31bd
00000090: ab99 38bb e103 cabc 4214 9fbd d5ab 5fbd
000000a0: ba81 913c 3f31 c7bc 19c7 d0bd 106b 6abb
000000b0: a216 963c ed54 1dbd 1e05 743d 178d b53b
000000c0: 64b4 a0bd 01ee 323d b64b 18bd 8b04 dcbd
000000d0: 4990 98bc 8c3d adbd 49b7 9ebd c1c4 08bd
000000e0: e3d8 3a3c d70e 8cbd 34b6 913b 0c2c 303d
000000f0: 702d a63d 4920 aabc 90ad d03c 88ea 10bd
00000100: b34d a0bd 7609 b9bd 9238 d1bd bd5c 7cbc
00000110: c91b dabc 0ea0 d43d 97a1 5dbd abd0 fbbd
00000120: 0027 82bd 5af5 a1bd 86d4 e5bc 7b00 dd3b
00000130: a821 a2bd 8cc9 1bbd 476f b5bd 116d 88bd
00000140: 3885 84bc 7725 ffbd 3709 42bd 28a1 87bd
00000150: 708a 63bd 1031 95bd de88 efbd 5bd3 4dbd
00000160: 75f5 063d e5e9 b5bd de3e 853d d54f 93bd
00000170: 03d8 89bc c8c4 153c e5de 65bd e672 a2bd
00000180: ec84 3cbe a2fa 37bd b4f8 a1bd d405 073a
00000190: 5cc6 eabc 601a bf3c c6b2 9a3d 7450 27bd
000001a0: 5ccc 11bd dcee 64bd 77b5 77bd c5f1 4dba
000001b0: 1ba6 ad3d 666c a0bd 5611 eabd 65d6 ddbc
000001c0: 811a b1bc cad2 d23c d71b 863c 5ebd 10bc
000001d0: e27b a2bd c320 2b3c 778e 8f3d 0929 99bb
000001e0: 5781 9fbd 46d1 1fbe 1cd2 6bbd 0f00 30bd
000001f0: 343b 21be b391 27bc 6c26 0cb6 7b3f f43b
00000200: 5321 f6bd 4d64 ae3d 46f8 e8bc b5ab 873d
00000210: 59c4 123e 9e7b 2a3d 8a9b 83bd 7145 933d
00000220: 374c 99bc 9a0a 3e3d bf0a df3c b53f 29bd
00000230: 2a58 02bd 992a 6bbc bec6 89bd 0bd9 00be
00000240: 017e 473c a183 f13d 5769 b43d e96d 59bd
00000250: 1e83 be3d d78d f33d b695 41bd 9b9a 91bc
00000260: e358 6c3d fde1 36bc e6bb fa3b 5324 473e
00000270: 7842 d5ba 5471 9a3d 5824 f8bc 00f9 6a3d
00000280: 36fd d53d 8cfc 083e 9751 253d 9221 153e
00000290: 0095 8f3d 1312 923d 48f1 f4bd 5197 8b3d
000002a0: 78f0 073d 5787 5e3d 4f71 72bd 69c2 02be
000002b0: 3649 f63a 3de9 7abd b298 f83d 884a 61bd
000002c0: 6c90 a93d 4fce 183d ff88 42bd 1545 3f3e
000002d0: 0b0d 2dbd 0761 96bd 6e2b 60bd 9b9c 3bbc
000002e0: 530e 863d 49d5 d23c bbc2 143c 5753 b83d
000002f0: 0a4c d9bd 92b6 713c 585c f0bc 4f7d 9c3d
00000300: 7612 d33d e817 c4bc 9646 7d3d 8426 b7bc
00000310: e75f 3cbd 94cb c43d 75e5 b63d 23e6 97bc
00000320: b3a9 a53d dc90 32be 9e64 803c b78c 25bb
00000330: e4d0 b63d 7ace eabc b855 49bd 355d e63d
00000340: cb10 943d bbe1 e7bd 365c 1bbe 8415 90bd
00000350: 4d98 05bd 4716 773d c4c8 ebbd 2baf cb3c
00000360: d190 763c 7d36 95bd a7d8 57bd d051 173c
00000370: 1062 883d 4c0a 1d3e 712d 973c 68c4 93bd
00000380: d9d4 083e 5286 b6bd cfee aabd d7a7 a43a
00000390: bbb0 813c a4d6 16bd d526 423e d735 733d
000003a0: 2e44 47bd 1f66 0bbc a5fa 983b 8e97 56bb
000003b0: 4edd 2a3d f757 dcbc 1913 0bbe 69b7 fc3d
000003c0: ca21 d6ba 384d 8dbc 6c52 863c be10 96bd
000003d0: adbd 26bc 0375 403c 047a 843b edf0 943d
000003e0: 12c0 f63b 1dae 083c 0a22 183e 7664 4b3e
000003f0: 1a05 013e 6708 11be 8a78 c1b9 7be7 87bd

actor.bias f4 [7]
-0.15918835 -0.118606396 0.024357215 -0.02040522 0.07858387 0.03324818 -0.045979917
00000000: 4502 23be e9e7 f2bd c888 c73c d928 a7bc
00000010: 94f0 a03d 3e2f 083d 7055 3cbd

critic.weight f4 [1, 128]
0.005415112 0.04151871 -0.058602337 -0.025686702 0.00994296 0.027345475 0.07240107 -0.02922354
-0.07172811 0.082184084 0.056505013 0.00031953314 -0.05792083 0.010717425 0.050969005 0.0071292226
-0.02920035 -0.06145364 0.031063348 -0.05818812 -0.021673746 -0.0025536362 0.03345125 0.004039075
-0.05303898 0.036288444 0.009748396 0.03161384 0.012764117 -0.04108776 0.040784273 0.05192871
0.0020434726 0.061070982 -0.07809383 0.010711161 -0.07015067 -0.06342619 -0.0040393495 -0.028718498
-0.056446895 -0.01616436 -0.033845067 -0.0054812855 0.07998835 0.017968878 -0.034208275 -0.032925006
-0.002016618 -0.06494821 -0.0018398551 0.012308605 0.0032895282 -0.045628488 -0.007120602 0.015917659
-0.07685164 -0.0741435 -0.052885678 0.008018489 0.012814929 0.005655441 0.017754335 -0.024338005
0.0031088977 0.0058772992 0.005903115 0.07811989 0.004746403 0.010501944 -0.00092564046 0.019045165
0.076759025 0.026925234 0.09309155 0.08073497 0.0018469247 -0.040569175 -0.024718968 -0.0059672305
0.08648265 0.005045953 0.0004512985 -0.00041284307 -0.011186871 -0.04791295 0.038922545 0.11376023
-0.05888018 -0.019068941 0.062458683 -0.013394369 -0.036021493 0.0029656526 0.056082934 -0.0001720923
0.006603683 -0.066089846 -0.04751542 0.054332875 -0.03900827 -0.021493345 0.04406166 -0.012115325
0.014717745 0.058705565 -0.06872629 -0.07860123 0.07003142 0.06859952 -0.0009506681 -0.0032925429
0.071730636 0.014073961 0.06526347 0.006842046 0.073026225 -0.067630626 0.073684774 -0.043310933
-0.032558627 0.03888329 0.03757678 0.046263594 0.04591582 -3.4421828e-05 -0.054071616 0.078087516
00000000: 4071 b13b 860f 2a3d 0109 70bd eb6c d2bc
00000010: cce7 223c 9e03 e03c 0347 943d 3566 efbc
00000020: 30e6 92bd 2150 a83d cd71 673d 0387 a739
00000030: 643e 6dbd 2398 2f3c e0c4 503d 419c e93b
00000040: 9335 efbc d0b6 7bbd 9078 fe3c ab56 6ebd
00000050: 248d b1bc e85a 27bb 2e04 093d 385a 843b
00000060: 673f 59bd 31a3 143d bdb7 1f3c 847d 013d
00000070: 9620 513c a44b 28bd 690d 273d 33b3 543d
00000080: c8eb 053b 9125 7a3d a8ef 9fbd de7d 2f3c
00000090: 28ab 8fbd 97e5 81bd 855c 84bb 0e43 ebbc
000000a0: dc34 67bd 1f6b 84bc 20a1 0abd 5b9c b3bb
000000b0: efd0 a33d 7833 933c fa1d 0cbd 5fdc 06bd
000000c0: 3c29 04bb 9103 85bd 4b27 f1ba 08aa 493c
000000d0: 2095 573b f0e4 3abd f053 e9bb c065 823c
000000e0: 6564 9dbd 8cd8 97bd a79e 58bd fb5f 033c
000000f0: b5f5 513c 4751 b93b 8a71 913c 7f60 c7bc
00000100: a6be 4b3b 5c96 c03b eb6e c13b 52fd 9f3d
00000110: b787 9b3b 5910 2c3c aea6 72ba 9b04 9c3c
00000120: d633 9d3d 4f92 dc3c c8a6 be3d 6058 a53d
00000130: 8214 f23a dd2b 26bd 6f7f cabc c288 c3bb
00000140: d11d b13d 8658 a53b 429c ec39 dc72 d8b9
00000150: 2349 37bc 5f40 44bd 3f6d 1f3d 20fb e83d
00000160: 582c 71bd 7836 9cbc add4 7f3d 0e74 5bbc
00000170: 468b 13bd 655b 423b 38b7 653d ad73 34b9
00000180: b563 d83b 1d5a 87bd 879f 42bd 268c 5e3d
00000190: 23c7 1fbd d012 b0bc 007a 343d 5b7f 46bc
000001a0: b222 713c 3f75 703d 5ec0 8cbd aff9 a0bd
000001b0: a26c 8f3d e87d 8c3d 4236 79ba b4c7 57bb
000001c0: 83e7 923d 7996 663c dba8 853d 3e33 e03b
000001d0: c68e 953d ed81 8abd 0be8 963d ce66 31bd
000001e0: 325c 05bd 1644 1f3d 1cea 193d e57e 3d3d
000001f0: 3a12 3c3d 2860 10b8 337a 5dbd 59ec 9f3d
