trained_models/PPO/ppo_connect4_model_1_32batch.pt (torch, 537886 bytes, 9 tensors)

conv1.weight f4 [64, 1, 4, 4]
00000000: 7305 f2bd e2d8 7d3d c418 53be 8978 9b3e
00000010: 3c69 48be a0a2 543e 2880 1fbe e637 5f3e
00000020: 02e7 afbd 32fd bc3d bddd 80be 4119 b43d
00000030: dc88 fe3d 5b29 1f3e 5c02 88bd f065 c0bc
00000040: a20a 3fbe 2557 84be c447 1b3e e019 fb3d
00000050: 0129 1d3d fc7f 39bd 6852 d63c 2a8d 623e
00000060: 0990 723d 6ce8 75be d2a0 38be b354 cb3d
00000070: 7fb8 0b3d d6f8 5fbd 6045 4cbd 6152 363e
00000080: b6c3 24be fd3c 893d 4f08 283e 575d 873e
00000090: 87ea 4b3e c12b 95bd 6e0b 6bbe c301 f5bc
000000a0: 6dca c63d eb62 32be abe2 7ebe 61e8 093e
000000b0: f3bb 243e 332f b1bd 2f59 133e 981a 653e
000000c0: a8ec 653e c9ea 4e3e d994 7ebe 542d 4fbe
000000d0: 69e9 14bd 3867 5a3e 085c 02be a375 3bbd
000000e0: 1cb6 d6bd 7a33 6c3e dbc1 75be 260f 383e
000000f0: fa62 183e 98dc 503d ecc9 f43c e84d 2fbe
00000100: 5624 573e a80b dd3d 6bcc e8bc ea0c 513e
00000110: cabb 313e db0f 34be 253b 0a3e 41b7 6d3e
00000120: 8a8c 673e a129 4ebe d70d b13d a901 1ebd
00000130: a578 d4bd eeb1 853c 7417 03bd 5ce8 2f3e
00000140: 1970 0a3e 5afb c23d a59e a63c 4aa6 963d
00000150: 594c 1cbd 67d7 99bd ef4f edbd bc81 1d3e
00000160: b3b1 943d 49b9 b23d 8549 c2bd 8a3c 0fbe
00000170: a5fb 0abe d4e4 05bc aa02 40be b95e f6bd
00000180: ea0b 7a3e 4ea4 353e 56bf 333e ce1f 9a3e
00000190: 7369 40bd 386a d93d e35a 153e 8826 5dbd
000001a0: 8b15 b6bd 871f 333e 6c1c fb3d e4e3 31be
000001b0: c9bd 18be adad 51be 465b 14be 694a 213d
000001c0: 97d7 883e e1b5 1e3e efee e3bd 5ff5 26be
000001d0: cbc4 043e 6323 a6bd 169a eb3c 76ca 3b3d
000001e0: e09f 853e 7453 b73d ce8a 49be 6660 253c
000001f0: f62a 5abe 522c 38be cb6a 26be 456e 0cbe
00000200: ece7 07bd 20c8 8b3c 67d5 6a3d 188f 623e
00000210: fa7f 043e 5392 113d 2852 1c3e 0d69 e43d
00000220: 36eb 313d 8e6f 0a3e ad82 d8ba fbc5 edbc
00000230: a921 0cbe ee18 cfbd da1d 513b 5c1e 9b3c
00000240: 67e5 843e 2262 533d 0d2a 4d3e ce92 e7bd
00000250: d0bb cdbd 3b6f 22bd 279f ae3d 0bcf 443e
00000260: 435f db3c 0a0d 9abc 6992 313d cd68 d7bb
00000270: 2418 2c3e c3aa bbbd e18a 14be b98f 10be
00000280: dfb1 b53e 5d6a a6bd 1d12 cfbd a6d4 d9bd
00000290: f0d6 3d3e 387f ab3c 79d3 c3bd db72 ffbd
000002a0: 4f81 063e 1468 3dbe 90cc 353e 8606 03be
000002b0: d557 ab3d 5544 1f3c 9b30 82bd 6542 33be
000002c0: 9557 503e 8db9 593e affa 63bc 0c93 e73d
000002d0: a8a6 58be 5967 2c3e 5c08 843e eba3 a6bd
000002e0: 1026 f8bd 3dd4 883e b7ee 583e d40e 5abe
000002f0: 9e61 46be b70f 41be d1af 28be fff2 47be
00000300: 1950 8dbe 0098 b1bd db40 4c3e a127 49be
00000310: 9c81 5cbe 94df cfbb 2e14 35be fe4d 6fbe
00000320: 9458 053a 66d1 173e 4977 a8bd 42eb 7d3e
00000330: aaef 313e 27e8 3ebe c581 0a3e d577 6a3e
00000340: 9b84 15be 7cf2 763e 6eaf c9be 22b6 d83c
00000350: 683d 353c 3f65 afbd 9bfb 65be 7f44 64be
00000360: 4667 e9bd aca0 c63d 685d 683c d19f 51be
00000370: 3cd6 4e3e 3fd3 4d3e c30a e83d 5283 2ebd
00000380: abb5 babd 8ae1 37be 15d0 9c3d e695 eebd
00000390: 628d 6f3e 7c77 1ebb ef8b 13be a8d1 463e
000003a0: f8f9 9f3d 6df7 57bd 48c5 8f3d 2fbc b1bd
000003b0: 4f02 21be e265 87be 8009 933d 9eeb 5cbc
000003c0: 7b13 2fbd d3e8 e8bd dd67 38be e67c a23e
000003d0: 6042 84bd bdd2 c23d cb04 80bd 30b2 efbc
000003e0: 1747 4dbe d29a bbbd 4661 a53d dc67 483e
000003f0: b0aa edbd d4ce 69bc 93c8 9e3d 8b9c 703e
-0.118174456 0.061974414 -0.20614916 0.303654 -0.19571394 0.20765162 -0.15576231 0.21798667
-0.08588983 0.09227981 -0.25169173 0.08793879 0.124284476 0.1554312 -0.06641075 -0.023486108
-0.186564 -0.25847736 0.15164095 0.12260795 0.038369182 -0.04528807 0.026162341 0.22124162
0.059219394 -0.24014443 -0.18030098 0.099282645 0.034111496 -0.054680668 -0.04987085 0.17804863
-0.16090283 0.06701086 0.1640942 0.264384 0.19913684 -0.07283736 -0.22953579 -0.029908067
0.097065784 -0.17420547 -0.24891154 0.13467552 0.16087322 -0.08651581 0.1438949 0.22373426
0.22453558 0.20206751 -0.24861468 -0.20232135 -0.03635541 0.21328437 -0.1273042 -0.045766484
-0.10483953 0.23066512 -0.23999731 0.17974529 0.14881507 0.050991625 0.02988144 -0.17119563
0.21009955 0.10793239 -0.028417787 0.20415083 0.17356792 -0.17584173 0.13499124 0.23214437
0.22612205 -0.20133068 0.08645218 -0.038575802 -0.103745736 0.016320195 -0.03200479 0.17178482
0.13519324 0.09520598 0.02033932 0.07355936 -0.03815875 -0.07511788 -0.11587512 0.15381521
0.07260456 0.087267466 -0.09486679 -0.13987938 -0.13572557 -0.008172233 -0.18751016 -0.12029786
0.24418607 0.17738459 0.17553458 0.3010239 -0.046975564 0.10615963 0.14585452 -0.053991824
-0.08890828 0.17492495 0.122612804 -0.1737209 -0.14916147 -0.20476408 -0.14487943 0.039377604
0.26726982 0.15499069 -0.11129557 -0.16304539 0.12965696 -0.08112218 0.028759997 0.04584738
0.26098537 0.08951464 -0.19681856 0.010093784 -0.21305451 -0.17985657 -0.16251676 -0.1371394
-0.033180162 0.0170632 0.057332423 0.22124898 0.12939444 0.035539936 0.15265715 0.11152849
0.043437205 0.13519117 -0.0016518437 -0.029025069 -0.13684715 -0.10112177 0.0031908662 0.018935375
0.2595627 0.05160726 0.20035572 -0.11307298 -0.10045588 -0.03965686 0.0852645 0.19219606
0.026778823 -0.018805046 0.04335252 -0.0065737725 0.16806084 -0.091634296 -0.14506103 -0.14117326
0.35487267 -0.08125756 -0.10110877 -0.106362626 0.18539023 0.020934686 -0.095618196 -0.12473079
0.13135265 -0.18496734 0.17753816 -0.12795457 0.08366362 0.0097208815 -0.06356927 -0.17505796
0.2034591 0.21262188 -0.013914748 0.11307344 -0.21157324 0.16836299 0.25787628 -0.081367336
-0.12116635 0.26724425 0.21184812 -0.21294719 -0.19373176 -0.18853651 -0.16473319 -0.1952629
-0.27600172 -0.0867157 0.19946615 -0.19644023 -0.21533817 -0.0063437913 -0.17683479 -0.23369595
0.00050867465 0.14825973 -0.08225877 0.24796775 0.17376581 -0.18643247 0.13526066 0.22897275
-0.14601366 0.24115938 -0.39391655 0.026454035 0.011062004 -0.08564233 -0.22459261 -0.22291754
-0.11396651 0.096986145 0.014182426 -0.20471121 0.20198911 0.20100115 0.11330178 -0.042605706
-0.09116682 -0.1795713 0.07656876 -0.116496846 0.23393777 -0.0024180105 -0.14408849 0.19415915
0.0781135 -0.052726198 0.0702005 -0.08678471 -0.15723537 -0.26444918 0.07179546 -0.01348391
-0.042743187 -0.11372533 -0.1800837 0.31735915 -0.064579725 0.095128514 -0.06250914 -0.029259771
-0.2004665 -0.09160389 0.08075194 0.19570869 -0.11604822 -0.014270503 0.077531 0.23497216

conv1.bias f4 [64]
00000000: 7adc ffbd f66d c3bd 722c 7e3e c4c2 333e
00000010: 11ff 233d d638 26be aef6 b3bd 506d ecbc
00000020: 8520 293e e86f e63d f0c2 003d 4867 15bd
00000030: 4f5e fabd 28b6 123e 8e68 c63d 3d2f 75bd
00000040: 31e5 113e 03cf 2cbb 81c1 4c3c 15c7 143e
00000050: 5d94 373e 08a0 26be 7932 413d ac26 4dbd
00000060: 17a6 a4bd 9006 8abe 4055 613e abba 023d
00000070: 2542 b13d 0538 63be a346 033e ea7e 453e
00000080: c628 4fbe 907c 043e 825b 48be 79f2 fd3d
00000090: 1455 4abe 656d c4bb f3ee dcbd 27da 593e
000000a0: 5f6b ebbd 488d 063e 8cf8 98bd f53b 153e
000000b0: 7e6f 563e 878b 51be a1ea 64bd 856d 63be
000000c0: ad2a d63d f131 1dbe 2097 17be a512 ef3d
000000d0: d36b bb3d 363d f8bd babb cf3d d67a bdbb
000000e0: bcba 3fbe e8b7 b73d e8ce 943d ceee c5bd
000000f0: d516 a6bb 0aa8 ba3d 7c6f 78be ae10 463e
-0.124932244 -0.09542458 0.24821642 0.17554766 0.040038172 -0.16232619 -0.08787285 -0.028860718
0.16516311 0.11251813 0.031435907 -0.03647545 -0.12225019 0.143273 0.09687911 -0.059859503
0.14247586 -0.0026368506 0.012497307 0.14529069 0.1792769 -0.16271985 0.047167275 -0.05008571
-0.080394916 -0.26958132 0.22005177 0.0319163 0.08655194 -0.22189339 0.12819915 0.19286695
-0.20230398 0.12938142 -0.19566157 0.123997636 -0.19759017 -0.005994486 -0.107877634 0.21274625
-0.11495089 0.13139832 -0.074692816 0.14573653 0.20940968 -0.20463382 -0.055887822 -0.22209747
0.104573585 -0.15351082 -0.14803743 0.11673478 0.09151425 -0.1212105 0.10143228 -0.0057824655
-0.18723577 0.08970624 0.07266027 -0.09664689 -0.0050686398 0.09114082 -0.24261278 0.193423

conv2.weight f4 [128, 64, 2, 2]
00000000: 09df 5fbc c4a7 8a3c 364a 9f3c db10 7e3c
00000010: f07c 843d 533a 443d f66e 87bb 2524 d03c
00000020: 7ea8 18bd 6052 123b 28ac 403d 1529 183d
00000030: ba7c 3e3c 1f07 4b3c e98c 383d 98f9 8bbc
00000040: afa8 263d 68c6 c83d ae49 f5bc 8f2e 18bd
00000050: a558 713c eac4 aa3d 4508 a83d dc92 a03d
00000060: 95ba 7b3d f382 2f3d d31a 24bd 4763 513d
00000070: b16d d73d e173 7d3d c2c1 70ba f46f 3f3c
00000080: 76e7 8dbc 0a49 f83c ec44 66bc 1316 933d
00000090: 9f46 1bbb ca31 36bd 3d6f e53c 7cb9 683c
000000a0: 399e e1bc 5249 853c 2b01 efbc 67cb 163d
000000b0: 99d4 673d 8d0d f5bc cf15 b0bc 30e6 92bd
000000c0: 2c34 d63b 946b 303c 5bbd 1f3d 3e4a 50bd
000000d0: de13 04ba c83e 94bd c24a b43c d3ce 12bc
000000e0: 0e16 44bc 9f60 b83c bb34 d7bc 962a 80bd
000000f0: 8c41 833c a9dc b63d 06a6 58bd bc6e f73c
00000100: bd41 f33c db8d 853d fffc 0b3c 0c6c 0d3d
00000110: 2f62 1c3c 8354 0a3e 4922 bf3c 1e11 a13d
00000120: 78e5 833c ffde 97bb 6eb2 17bc 6433 eb3c
00000130: 996d 9abd aa00 bdbd 8ffd efbc dbc1 99bd
00000140: 18c1 0cbc 6ac9 28bc ddde 313c fde5 b4bc
00000150: 3a8e 3f3d 1002 b93d eb11 e3bc c12c 71bd
00000160: 5b9e 88bd 4e46 893b 65ad 4ebd 69d2 f53c
00000170: 9dca a5bd 584b 4fbc 0286 76bc 5798 84bd
00000180: d2ae 7cbd bf06 263c 11f6 7b3c d4e7 eabc
00000190: 4ad3 32bd e2eb 303d b035 8e3c eff2 093c
000001a0: 72c4 853b a3b3 b33b 12e0 48bd 039b ec3c
000001b0: 6449 b6bb 6c14 45ba d2cb 6dbc a5d9 93bc
000001c0: f43a 003d f35c aabd f402 aebc 9ca5 2abc
000001d0: c150 bdbb 1c07 853d f618 673d e4ea bc3d
000001e0: fa01 333d 4399 eabc cc2f a83b 8795 39bd
000001f0: 16be 5dbd 3b6d 643c 1143 933b c8ba d03b
00000200: 9883 123d 1724 293c 21d6 2fbb 4e71 bd3c
00000210: ebbc 2d3d 1e76 5d3d c3f0 dfba acfc c63c
00000220: 6721 723d d48e 1d3c 3233 c7bc 9ad1 80bc
00000230: 07c6 4bbc b526 d03d 9b5a 1c3c 8cfb d43d
00000240: e4cd f3bc 05ca 07bd 8910 edbc 492c 1e3c
00000250: 7d13 763d 1360 e9bc 2598 ccbc af46 85b9
00000260: 265f 69bc 4b07 d3bc d060 6ebd 8879 93bc
00000270: 34e6 273d 5cd5 39bd e7c1 72bc eb1f 85bd
00000280: 906a 603c 0f20 87bd c847 1cbc 4db0 5fbd
00000290: c675 e1bb 2a42 f8bb 97aa 2f3b 62cf b4bc
000002a0: d4b4 ae3c 751e e83b f826 f33c 912d 0abd
000002b0: d239 90bc 45b3 123b 07af 2abd cd3b fa3c
000002c0: 0b37 12bd 7501 ad3d 86df 82bd 9108 97bc
000002d0: 4c04 83bd f697 89bd d519 d5bc 601f 483b
000002e0: c80e 90bc 2675 d2bc fe68 72bd 1eda d1bc
000002f0: 026d 3abd c51a 31bd 5dee 8ebd 711d 2d3d
00000300: fadb 24bd 69b6 1fbd 3b6c 59bd 1722 273d
00000310: aa57 94bb c176 233e f13c aebd d192 0c3d
00000320: 0741 903d 8c5f 793c 19b0 96bc 6c37 19bd
00000330: 4ab4 7f3b b255 c93b 9660 4ebd f6c1 633d
00000340: 8a24 6a38 653f 74bd df1c 7a3d 631a 7cbd
00000350: 4a9a 68bd c8e4 663c 7afe 19bd fb5c 10bd
00000360: 47b7 273c adae 06bd 1e5b 3d3d 01f3 893b
00000370: 2007 7e3d f8a3 2ebd bdfc 5ebd 2674 61bd
00000380: 4af0 773d e982 7f3d d32a a13c 62b4 543d
00000390: dae3 d6bc fd7d 6ebd 971e d1bc 70c8 9b3d
000003a0: 7c47 3cbd fdf8 b63d d684 8c3c b0a0 c63a
000003b0: a515 6fbd 5073 0ebd f910 7e3b e26f 84bc
000003c0: 40de 13bd c013 9cbd 3d58 393d c8e5 033d
000003d0: 8498 19bd f4e1 92bd 0ee9 7e3d 1fbc 333d
000003e0: ecb4 af3c 5445 2c3c 2514 ed3b e5ab 86bd
000003f0: 4305 c83c cda4 8bbd ed82 f63c f428 023d
-0.013664016 0.0169257 0.019444566 0.015506948 0.064691424 0.047907185 -0.0041331006 0.02540786
-0.03727006 0.0022326931 0.04703918 0.037148554 0.011626417 0.0123918345 0.045056257 -0.017086789
0.040688213 0.09803468 -0.02994236 -0.037153777 0.014730607 0.083383396 0.08204702 0.07840511
0.061457235 0.042849492 -0.040064644 0.05112007 0.10518969 0.06187809 -0.00091841456 0.011684407
-0.017322283 0.030308265 -0.014054518 0.07181945 -0.0023693216 -0.044481076 0.028007144 0.014204379
-0.027541267 0.016270313 -0.029175362 0.036815073 0.056599233 -0.029913688 -0.021494774 -0.07172811
0.006536981 0.010767836 0.038998943 -0.050852053 -0.0005038361 -0.07238537 0.022008304 -0.008960444
-0.011968149 0.02250701 -0.026270261 -0.062581226 0.016022466 0.08928806 -0.052892707 0.03020417
0.029694432 0.065211974 0.008544206 0.03452687 0.009544893 0.13508801 0.023331778 0.07864593
0.01610063 -0.0046347375 -0.00925885 0.028711028 -0.07540435 -0.09228642 -0.02929571 -0.07507678
-0.008590959 -0.010301927 0.010856357 -0.022082323 0.046766497 0.090335965 -0.027718505 -0.05888057
-0.06670829 0.004189289 -0.05045833 0.030007558 -0.08095286 -0.012652241 -0.015046598 -0.06474369
-0.06169016 0.010133444 0.015378491 -0.028674997 -0.043658532 0.043193705 0.017359585 0.008419736
0.004082256 0.005484061 -0.049041815 0.02888251 -0.005562948 -0.0007517997 -0.014513927 -0.018048117
0.031306222 -0.0831851 -0.021241643 -0.010415461 -0.005777449 0.06495497 0.05642029 0.09224489
0.043703057 -0.028637534 0.005132651 -0.045308616 -0.05413636 0.013942058 0.004494079 0.0063699223
0.03577003 0.010323546 -0.0026830512 0.023125317 0.042416494 0.054067723 -0.0017085302 0.024290405
0.059113886 0.009616572 -0.024316404 -0.015724946 -0.01243735 0.10163633 0.009543086 0.10399541
-0.029761262 -0.033151645 -0.028938549 0.009654113 0.06007718 -0.028488195 -0.024974892 -0.000254204
-0.014243877 -0.025760313 -0.058197796 -0.018002287 0.040991023 -0.04536949 -0.014816738 -0.065002285
0.0136972815 -0.065979116 -0.009538598 -0.054611493 -0.0068804948 -0.0075762467 0.002680456 -0.022071544
0.02132646 0.007083709 0.029681668 -0.03373486 -0.017605696 0.0022384685 -0.041670825 0.030546093
-0.035697024 0.084475435 -0.0639029 -0.018436702 -0.06397304 -0.067184374 -0.026013294 0.003053628
-0.017585173 -0.025690626 -0.05918216 -0.025616702 -0.045514114 -0.04323842 -0.06979058 0.042264406
-0.04024885 -0.03899232 -0.053081732 0.040803995 -0.004527052 0.1596327 -0.085077174 0.034319703
0.07043653 0.015220534 -0.018394517 -0.03740637 0.0039017373 0.006144249 -0.05038508 0.055604897
5.5823977e-05 -0.05963077 0.06106269 -0.0615486 -0.056787767 0.014092632 -0.037596203 -0.035244923
0.010236568 -0.032881428 0.046229474 0.0042098765 0.062018514 -0.04263684 -0.05444025 -0.05504241
0.060531892 0.062380705 0.01967374 0.05192984 -0.026231695 -0.05822562 -0.025527282 0.0760659
-0.04596661 0.089342095 0.017153185 0.001515409 -0.05837025 -0.03477794 0.003876744 -0.016166631
-0.036100626 -0.076209545 0.045250166 0.03220156 -0.037498966 -0.071720034 0.062233977 0.043880578
0.021448575 0.010514576 0.0072350674 -0.06575755 0.024416571 -0.06818543 0.030091727 0.031777337

conv2.bias f4 [128]
00000000: cf9b 4bbd 90d9 2f3a 5a64 3fbd 2cb2 5f3d
00000010: e59b 44bd 6e16 5dbc 4615 f23c 6a39 a23c
00000020: 8683 4d3d 1242 183d babf 4abd c76d 813d
00000030: 6d02 8b3c 51a3 493d 715d ab3d 296f 43bd
00000040: aa5f 86bc 8ca5 e7bc 0ae7 3f3d 0853 193d
00000050: 3cf6 dabc 3765 79bd 9bd5 c0bc eeb7 f7bc
00000060: d40c 8c3b 44c0 503d 06d1 ddbc 9d2d 7f3d
00000070: be71 313d 1e3f 90bc 7845 3fbd 1092 93bb
00000080: ee71 d1bb 3dc1 383d 1b56 213c 094b 6e3d
00000090: 8930 be3b b46c 02bd 4f74 823c 7686 58bd
000000a0: 5361 f63c 4270 22bc 0384 e5bc ae80 413d
000000b0: 2536 c5bc d7ff 71bd 3a6e f13c 3b22 873b
000000c0: d5d1 043d c53a 62bc 79e0 903c 0751 97bc
000000d0: 6e28 ea3b f8a8 793c 0b98 2d3d 0cb1 9ebc
000000e0: b1fa 303d 9b21 23bd d7bb 3e3d 9039 273d
000000f0: bcc4 003b bc49 0f3c 2e84 3f3d cff1 20bd
00000100: ad33 f33c 524f de3c 0ef7 be3c 9c39 36bd
00000110: d42e 363d c409 9fbc e7a8 543d b621 75bd
00000120: 9549 c33c fdee 1dbc 19ff f5bc 1a85 5bbd
00000130: 63cb b1b9 eea3 eebc ea99 e9bc 56a7 783d
00000140: 1186 82bc 8afa 1b3d fa17 8c3d 70b6 8c3d
00000150: b9f1 55bd 8c9e 523d ed57 743d 9539 48bd
00000160: 9c68 15bd 0fb6 6a3d 703f f0bb 2bea 5d3d
00000170: 232e cfbc 8d49 0dbd 3ce6 9c3a 72cb 52bd
00000180: aa98 74bd cd34 d13b 2b08 743d f7b3 17bd
00000190: 1ded 533d 11d7 5ebd 28c8 b9bc 794c 3e3d
000001a0: 0257 adbc af9d 73bd 3791 e6bc f576 98bc
000001b0: 423d 29bd d41f 7e3d 8661 fe3b d078 8a3c
000001c0: 430a 8a3b c6ee f93c 12f9 973c 10c8 27bd
000001d0: 6b6a 443c 93b4 50bd 341a 68bd c4be 2dbd
000001e0: 3b31 52bd 7541 84bd 9d6b 443d 121f 89bc
000001f0: ba0c ed3c 7be6 813c 18a0 cb3c fa29 35bd
-0.049709138 0.00067081396 -0.046726562 0.054613277 -0.048000235 -0.013494117 0.02955116 0.019802768
0.05017426 0.037172385 -0.04949925 0.063197665 0.01696893 0.049228016 0.08367432 -0.047713432
-0.016403038 -0.028277181 0.046851195 0.0374327 -0.026728742 -0.06088754 -0.023539355 -0.030239072
0.00427399 0.05096461 -0.02707721 0.06229936 0.043321364 -0.017608222 -0.04669711 -0.004503496
-0.0063917553 0.04510616 0.009847189 0.058177028 0.0058041257 -0.03184195 0.0159246 -0.052862607
0.030075705 -0.00991446 -0.02801705 0.04724186 -0.02407367 -0.05908188 0.029471505 0.0041239536
0.032426674 -0.013807957 0.017685162 -0.018471254 0.007145933 0.015238039 0.042381328 -0.019371532
0.043207828 -0.03982697 0.046565857 0.04082638 0.0019648513 0.008745607 0.046756916 -0.039293107
0.029687727 0.027137432 0.023311164 -0.044488534 0.044478253 -0.019413836 0.05191889 -0.059846602
0.023838798 -0.009639499 -0.030028867 -0.053593732 -0.00033911606 -0.029130902 -0.028515775 0.06070646
-0.015933068 0.03808073 0.06840511 0.06870735 -0.052232478 0.051420733 0.059654165 -0.04888304
-0.036476716 0.05730253 -0.007331781 0.054178398 -0.025290554 -0.03449397 0.0011970471 -0.05146355
-0.059715904 0.006384468 0.059578102 -0.037036862 0.0517398 -0.054404322 -0.02267845 0.04645965
-0.021159653 -0.05947655 -0.028145416 -0.01861141 -0.041318186 0.062042072 0.0077630905 0.016903311
0.004212649 0.030509364 0.018551383 -0.04096228 0.011988263 -0.05095346 -0.056665614 -0.042418256
-0.05131648 -0.064577974 0.04795419 -0.016738448 0.028936733 0.015856972 0.024856612 -0.044229485

fc_shared.weight f4 [128, 768]
00000000: a75b 65bb 5bfc 90bc d013 9b3d 4be7 e5bc
00000010: 77fa e9bc 8a1f 04bc 76b5 80bc 51fb 8e3c
00000020: 1e2a 8b3d d986 80bc 45e5 e33c cd9a 4539
00000030: aa30 4d3d 6fc4 b73c ddcb a5bc 2ae0 ef3b
00000040: 5176 813c f3f1 9c3c ac40 3a3d 9eed 5c3c
00000050: fa10 14bc bed3 1e3d 7d57 5b3d 99ca 06bd
00000060: ac13 123c 8082 8c3b 1f53 e73c f3df ce3c
00000070: 74f3 d23b 5f8b 1fbc 0759 643d 7179 acbc
00000080: c3f4 483c d4f6 a3bc cec7 f3bc c62b 573c
00000090: 67b3 233d c53b 64bd daac 323d c228 e43c
000000a0: 793e 69bd 1463 323c 452b 523d 3919 1b3d
000000b0: 5d1a 7e3d 614b fcb9 1e7a 7abb 1ece 863d
000000c0: f3ea acbd 0c75 97bc 8c22 cd3d 9ca6 8cbd
000000d0: 17fb d9bc 2724 843d f7b4 91bb 7fc2 b5bc
000000e0: 01e6 973c b870 d83a 5294 a7bc f595 85b8
000000f0: 8f64 663d ff20 afbd d588 cbbc 4abb 003b
00000100: ee2f 6ebd 22b6 e1bc aabe 8abc c5d3 9b3c
00000110: fe46 293d 366f ca3b 15c1 2c3b a305 0d3d
00000120: 33b9 8fbb f1b2 0a3d 4c7f 743c 52d2 8b3c
00000130: 1366 653d eaf8 873d baca e2bc 2046 ecbc
00000140: e631 dc3b a4dc e73c 4978 06bd 3f82 473c
00000150: 3963 66bc 0c73 873d d2f6 7c3d 7d73 3fbd
00000160: dcfd 6f3c e775 253d 8ecd bb3c d8de 023c
00000170: b81a 763c 0470 783c e8c4 de3c 96ba eabb
00000180: 93dc 973b 5b46 5fbd 9395 84bd 36ab e83c
00000190: ff67 cf3b e2f6 66bb 4c55 093d 30f0 043d
000001a0: b398 fcbb 806c 2abd 418e be3c 9d76 60bb
000001b0: d1d4 24bd 33c9 513d 7762 953d 0364 11bd
000001c0: 6442 baba a050 3d3d 711f 033d e201 013d
000001d0: 281f e13c f76a 6abc 2c3e f83c 743c 05bd
000001e0: ab0e c43c a9cf 85bc 6019 2f3d f494 1d3c
000001f0: ab3f b6bc 209d 98bb a7dc 09bd 3ad9 bfbc
00000200: c300 a0bc 4d7b 03bd 077c 00bd 97e1 60bb
00000210: aea5 f8bc 8c7d 333d 9c70 7f3d 7c3d 4bbd
00000220: dd89 0bbd 9495 b93b beba c13c 0275 21bb
00000230: 6e46 c03c e563 063d 0dc8 d13c a786 90ba
00000240: 66e1 d5bc 230d a33c 4f6e 28ba ccab d03b
00000250: 2b73 d03c 3e23 1d3d 2eac 0abd c182 ad3c
00000260: 7598 183c 68cd 0bbd c6d3 183c 1ce8 f8bc
00000270: 4d40 9dbd 9686 7cbc f4d9 de3c 0e62 00bd
00000280: a56e 8c3c 1e77 643d 8c89 58bb c779 93bc
00000290: d958 3e3d f1f3 37bc 4d60 d53b 6f63 8b3c
000002a0: 257b 743c cdea 30bd cd09 d2bc 2ace 173d
000002b0: 6184 b6bc fdbd 813c 6e6d 90bc 14a4 6ebd
000002c0: b243 d3bc 5a79 8e3c 4250 21bd 1080 8b3b
000002d0: 937f 643c 9343 5b3c 224f 683c a081 313d
000002e0: 8e7b a63c 454f 2d3b 3847 3ebc 00fc c6bc
000002f0: 4e10 243c c060 40bc 7a4f c03c a92f efbb
00000300: c913 b63c 0ba0 56bc 6084 7e3c 6f49 1cbc
00000310: 3efa 27bc 4339 8fbc 9dc9 7b3c a5f6 36bd
00000320: 1da8 843d 23df 48bd dacb 54bd 3d47 2f3d
00000330: c6fb 4e3d c058 4b3d 4093 86bb ae2b c1bc
00000340: a669 1c3d 31d9 b73c d381 383d 8c15 ee3c
00000350: 6d9a abbc be75 343b d168 c43b 1dda e23b
00000360: a720 723c 5cc4 e53c ff62 01bc d0a0 983c
00000370: 2cd2 dc3b 1168 f83a b4df 043d 72db dbbb
00000380: 16c7 a03c 1cf8 ca3c 366e bd3c 04d3 403c
00000390: 5ee7 19bd 0986 3cbb edac 6a3d ad47 2bbd
000003a0: e567 03bd b5f1 6dbb b3b7 d73d 5b57 d0bc
000003b0: a49b 05bd 2e13 ae3d 4fde 12bb 0df2 bcbc
000003c0: ccda f2bc a28e 463c 3383 b1bb e06e 333b
000003d0: 5d1c e83b e3fd 933c 0f56 2f3d c07e f43c
000003e0: 592c e53b 361b b13b 349c df3c 6e9d b6bb
000003f0: 0c99 a8bc c093 6f3b 0990 babc 405b a5bb
-0.0034997256 -0.017698457 0.07572138 -0.02806439 -0.028561814 -0.00806416 -0.015711527 0.017453821
0.067951426 -0.0156893 0.027819285 0.00018845052 0.050095238 0.022432534 -0.020238811 0.0073204236
0.015803488 0.01915834 0.045471832 0.013484387 -0.009037251 0.03877615 0.053550232 -0.032908056
0.008915823 0.0042880177 0.028237877 0.025253272 0.0064377133 -0.0097378185 0.055748966 -0.021054002
0.012265387 -0.020015158 -0.02975836 0.013132995 0.039966013 -0.055721063 0.043621875 0.027851466
-0.056944344 0.01088788 0.051310796 0.03786585 0.06203686 -0.00048121347 -0.003821976 0.065822825
-0.084432505 -0.01848843 0.10016355 -0.06867716 -0.026608987 0.06452208 -0.0044466215 -0.02218747
0.018542292 0.0016513085 -0.020456467 -6.369866e-05 0.056248244 -0.085512154 -0.02484552 0.0019642883
-0.058151178 -0.027552668 -0.016936619 0.019021878 0.04132747 0.006177808 0.0026360203 0.034429204
-0.004386091 0.033862058 0.014922928 0.017068062 0.05600555 0.066392735 -0.027684558 -0.028842032
0.0067198155 0.028303452 -0.032829557 0.012177049 -0.014061742 0.0661374 0.061758824 -0.046740998
0.014647927 0.040395644 0.022925165 0.0079877 0.015021019 0.015163425 0.027193502 -0.007163356
0.004634449 -0.054510456 -0.064738415 0.028401952 0.006329536 -0.0035242368 0.03352861 0.032455623
-0.007708633 -0.04160738 0.023261191 -0.0034250387 -0.04024202 0.05121727 0.07294171 -0.03549577
-0.001421046 0.046219468 0.032012407 0.031495936 0.027480677 -0.014307729 0.030303083 -0.032528356
0.023932775 -0.016334372 0.04274881 0.009618033 -0.022247156 -0.0046574026 -0.033657696 -0.023419011
-0.019531613 -0.03210001 -0.03136828 -0.003431415 -0.03035244 0.043820903 0.062363252 -0.049619183
-0.034067024 0.005663583 0.023648616 -0.0024636392 0.023471083 0.03281011 0.025608087 -0.0011026458
-0.026108455 0.019903725 -0.00064251287 0.006368136 0.025445541 0.038363688 -0.03385561 0.021180512
0.009313692 -0.034131438 0.0093278345 -0.030384116 -0.0767828 -0.015412947 0.027203538 -0.031343512
0.017142603 0.05577766 -0.0033040969 -0.018002404 0.04647145 -0.011227594 0.006511724 0.017015187
0.014921938 -0.043192673 -0.025639439 0.037061848 -0.02227992 0.015837664 -0.017630305 -0.058261946
-0.025789116 0.01739185 -0.03938318 0.0042572096 0.013946432 0.01338281 0.014179023 0.04333651
0.020322587 0.0026444953 -0.01161366 -0.024290085 0.010013653 -0.011741817 0.023475397 -0.0072993827
0.022226231 -0.013099681 0.01553449 -0.009538992 -0.0102525335 -0.01748336 0.015367893 -0.044668812
0.064773776 -0.049040925 -0.05195222 0.042792547 0.05053308 0.049645185 -0.004106909 -0.023580398
0.03818669 0.022442432 0.045045685 0.029063009 -0.02094766 0.0027536 0.0059939404 0.006922974
0.014778293 0.028047733 -0.007897138 0.018631369 0.0067389216 0.0018951913 0.032439902 -0.0067095095
0.019626182 0.02477651 0.023123842 0.01176906 -0.037574165 -0.0028766415 0.05729382 -0.041816402
-0.032081503 -0.0036307399 0.10533085 -0.02543228 -0.032619134 0.08499752 -0.0022410338 -0.023064638
-0.029645346 0.012118967 -0.0054172515 0.002737932 0.0070834593 0.018065399 0.04280668 0.029845595
0.006993812 0.005404855 0.027296163 -0.0055729663 -0.020580791 0.0036556572 -0.02277376 -0.0050462782

fc_shared.bias f4 [128]
00000000: bbd8 d33a 7d16 263c bc41 123d 536b 773c
00000010: f130 143d ef6d 5ebc 6fa1 d3bb 3c82 35bb
00000020: bd76 553c c063 0dbd 11a1 b83c 69f3 fcbc
00000030: d1d2 473d 3cac 8e3c 4ce0 983c 3cfb a83c
00000040: 978c 4c3c ee19 ef3c d8a3 fe3c 16fe 8e3c
00000050: 972f 0abc 1c88 c13c 29f3 4c3d dcef 16bd
00000060: 7e66 9ebc 6ca2 c63a c2e7 fc3c 9fd8 7bba
00000070: 3c6c a13c 66e9 89bc 7746 513a 693c 053c
00000080: b8ac 98bb f0a6 a5bc dbce acbc 7375 27bc
00000090: 3b3b 47bd ce9a b63c f0ea 433d 257f f13c
000000a0: 771d c93c 89fc 943c 58c2 1d3d ad7d 9d3c
000000b0: 5167 21bd 1079 ef3c 7365 b0bc 3a7e bf3c
000000c0: 4212 88bb 9856 363a 0a4d b9ba f48e d63c
000000d0: e5e1 fabc 6157 51bc 6a89 5e3d db75 acbb
000000e0: a30c f2bc acb9 2e3b 30f4 523c 0838 c4bc
000000f0: 5fe1 abbb cb8d 253d baa8 833c fd23 fcbc
00000100: 50f8 72bc 319d 57ba ab93 983c 6508 2dbc
00000110: e7b3 993c 968e 18bc 8bcc 97bb 0ec3 f4bc
00000120: 3f2f 27bd 083e 343c f3f5 1a3d 8bf7 41bc
00000130: 1cc7 a1bc 499a c5bc 34f6 d33c 1515 05bd
00000140: 381b 15bc a8a1 10bd 7bae 983c 462f 623d
00000150: aa7e 173b b6f8 183d 5ced 343d 4ea6 aa3a
00000160: 67de 0fbd 1ebe c33c c1cb 953b e602 db3c
00000170: e4ef 2e3c c629 223c ba44 b5bb 5e80 7dbc
00000180: dd9f fc3c 1a77 c9bc a5b4 093d ee1e debc
00000190: 808f aebc f2dd 003d 548b 88bb 7657 243d
000001a0: 776e c33c 46d6 26ba 49ee 5b3d b676 143d
000001b0: 1c17 d83c bf80 a43c 6834 a6bc 3a66 a8bc
000001c0: 323e f7bc 2270 a33b 4c8c 5b3d 30a0 f6bb
000001d0: 7707 c73c 15e9 d73c d2ff 93bc a1ae 4e3d
000001e0: 16cd c2bc 96b6 973b 07f2 7f3c 4075 5e3d
000001f0: 18ab bd3b 2b4c ff3c 6df0 543b f327 803c
0.0016162613 0.010137198 0.03570722 0.015101272 0.036179487 -0.013576015 -0.0064584534 -0.0027696034
0.013028798 -0.034518957 0.02253774 -0.030877786 0.048785035 0.017416112 0.01866164 0.02062761
0.012484691 0.029187169 0.031083986 0.017455142 -0.008434198 0.023624472 0.050036583 -0.03684984
-0.019335981 0.0015154607 0.03087223 -0.0009607169 0.01970493 -0.016834926 0.00079832174 0.008132079
-0.0046592616 -0.020221204 -0.02109473 -0.010220873 -0.04864047 0.022290614 0.047831476 0.029479573
0.024550183 0.018186824 0.03851542 0.019224966 -0.03940517 0.029232532 -0.02153275 0.02337562
-0.004152567 0.00069556525 -0.0014137339 0.026191212 -0.030625293 -0.01277718 0.054330267 -0.005263073
-0.029547041 0.0026660962 0.012875602 -0.023952499 -0.005245372 0.040418427 0.016071666 -0.03077888
-0.01482971 -0.00082250225 0.018625101 -0.010561083 0.018762542 -0.009311339 -0.0046325377 -0.029878166
-0.04081654 0.0110011175 0.03783221 -0.011838804 -0.019748263 -0.02412142 0.025874235 -0.03249081
-0.009100728 -0.035310417 0.018637886 0.055220865 0.002311627 0.037346564 0.044171676 0.0013019533
-0.03512421 0.023894366 0.0045714085 0.02673478 0.010677312 0.009897655 -0.0055318745 -0.0154725
0.030837948 -0.024592925 0.03361954 -0.027114358 -0.02130866 0.031461664 -0.004167 0.04012247
0.023856385 -0.00063643267 0.053694043 0.036246024 0.026378207 0.020080922 -0.020288661 -0.020556558
-0.030181024 0.0049877325 0.053600594 -0.00752642 0.024295552 0.02635626 -0.01806632 0.050459508
-0.023779433 0.0046299202 0.015621669 0.054311037 0.005788218 0.03116425 0.0032491938 0.01564405

actor.weight f4 [7, 128]
00000000: 754b a7bd c40f 2cbd c0fe 04bd de41 8abc
00000010: 2be2 b7bd 09bb 173d 4478 83bd 43de 36bc
00000020: bd03 fc3c 174b abbd de3c b9bc 3ccd 13bd
00000030: f0e8 89bc 3866 413d 2df7 95bd 084c 27bd
00000040: b674 3d3d 9755 e1bc c4dd 80bc cf4c 8ebd
00000050: e1bb e4bc b4aa 3dbd 34de 73bd 2f2c eb3c
00000060: 93ab d53d 1d89 4bbd bf90 f93c 61e4 b43c
00000070: d357 59bd 484f 9b3d 8322 983d 1705 313d
00000080: 0c12 37bd 81f3 bb3d 7b41 8bbd 4722 a23c
00000090: 757e 2abc 5fe3 7cbd 20a1 96bd f481 6a3d
000000a0: 2f7d 21bd 0909 04bc 516d e8bd ee12 a73d
000000b0: 5306 ba3c 9df0 4cbd 11c4 b5bd de30 8dbd
000000c0: 991d 0e3d 9fa8 59bd 4293 c93b 9f76 3b3d
000000d0: 3f88 913d 079b 833d 03f4 2b3d 0f0c 58bd
000000e0: f996 053d b42f 803d 9cc0 54bc 791e f9bc
000000f0: 25d0 91bd 497e 273d edb3 e1bd b772 1fbb
00000100: 8bcb a0bd a087 febd bb45 443d 835f 333d
00000110: c071 f63c fe83 da3c 42c3 083e 94d1 8abd
00000120: 9fea fabc f72d 20bd 2631 66bd 3bbb 243b
00000130: b72b febd d5b1 383d 625c 123a e370 3c3d
00000140: 1028 3e3c 157b 953b 3421 60bd 7ef3 8d3d
00000150: cb02 7a3c f461 26bd 242b 243d f0d4 2cbd
00000160: bb34 673d f0e6 c73c 8bd2 a1bb 2f3a a63c
00000170: d160 8dbd 4d25 e33c 9635 f7bc 6c24 723d
00000180: af38 a5bd 1bd1 923d c50c d63c 7137 3e3d
00000190: 1a14 063d 1778 4d3d 6974 97bc 10af 8d3c
000001a0: c239 283d a388 bfbc 9259 bd3c 5ff6 b7bc
000001b0: b92a 82bd 881e 09bd 158c 9b3d 2e1c b13b
000001c0: 5140 ccbc c4da 153d 9deb 36ba 755f 82bd
000001d0: 71a5 3cbd 5268 b13c 8fa5 01bd 8c1b 8bbd
000001e0: 2da5 4f3d ca6b 9abd 26e2 b23c af0c 00bd
000001f0: 3831 e83b 33f2 823d 90e1 3e3d a6da e7bc
00000200: 0251 ebbc 4557 a0bd 040e eebb af41 67bd
00000210: 0e7e 89bd f5b8 ebbc 6021 99bc 7839 973d
00000220: 8800 dbbc 5353 b0bc 924f f0bc de61 bebc
00000230: 04f0 1e37 a425 0b3e 923e 05bd 3f6b 4ebb
00000240: 0bc7 bcbd 3296 4abc 186a 903d 5252 83bd
00000250: 1390 1b3a 773c a83d cac8 2dbd d98d 08bc
00000260: 5b40 b03b 8c98 5f3c d019 1dbc 51f0 82bc
00000270: 496d f0bb adf8 a83d b34d b73c 8b32 183d
00000280: 1f93 9a3d 01bc 58bd 230a 1c3d 543e c6bb
00000290: 47a8 8cba abc2 b73d ebb7 27bd bc94 5ebd
000002a0: e05e 9bbd e7fc ce3d a7ed c5bd d8d7 4abd
000002b0: bd9d 9dbc a70a 96bc 911f 4e3d 4419 503d
000002c0: e64f 7bbc aa0f 313d 8978 943d e66e 143d
000002d0: 194e 1dbe 589b 9bbd 8267 063d 92b1 1abc
000002e0: 2b7a 08bd 225a 1abd 02f5 a3bb 8c59 863d
000002f0: c2d4 9bba 318a 783c c9f0 29bd 9cfd 9bbd
00000300: 5ca1 aa3d e360 b53c a7f2 4abd 4329 963c
00000310: 8875 143b 4f79 6a3b 0231 0e3b 9edc 103c
00000320: dbeb eb3d d6d1 a5bd 0a26 a5bc 275c 0b3d
00000330: 6d9a 2a3d a159 6dbd d81b 07b9 6992 33bc
00000340: b354 78bd 1451 693d 246a 623d e638 383d
00000350: bb38 453d 0c91 2abc df05 313d 7476 a7bd
00000360: f41b ba3d ca4c 863d dbeb 143d a2fd 533b
00000370: 6b50 a43d 53c6 4cbc 952b 88bc de6a d93c
00000380: d1ae a73d 1374 6c3d d54a dc3d 23cd ea3c
00000390: 7af9 83bd 8a3e a4bd 6039 a03d 2f45 433c
000003a0: 7150 90bd 8758 293d 1b85 403d da7c 6d3d
000003b0: 6d52 99bc d228 7cbd e1fb acbc 65ee 17bd
000003c0: 2fc7 e4bc dacd d53d 3c6c 803d 1b91 cbbc
000003d0: ede8 9abd 9142 f1bc 826d 7c3b cfef 3abe
000003e0: 7f12 51bd a69b 04bd 727d 8c3c 0fb2 393d
000003f0: e56d 6bbd 562f 82bd 567c 843d 39b7 24bd
-0.08168689 -0.042007223 -0.03246951 -0.016877111 -0.08978685 0.037043605 -0.06419423 -0.01116139
0.030763501 -0.083639316 -0.022612032 -0.0360844 -0.016834706 0.047216624 -0.07322536 -0.040843993
0.046253882 -0.027506633 -0.015730746 -0.06948244 -0.027921619 -0.046305373 -0.05953808 0.028707592
0.10433116 -0.04969131 0.030464528 0.022081556 -0.05306227 0.07583481 0.074284576 0.043217745
-0.044694945 0.09177304 -0.06799599 0.019791735 -0.010406126 -0.061740275 -0.07354951 0.05725284
-0.039426025 -0.008058795 -0.113489754 0.081579074 0.022708094 -0.050034154 -0.08875287 -0.06894086
0.034696195 -0.053139325 0.0061515877 0.045767423 0.07106065 0.064260535 0.041980755 -0.052745875
0.032614682 0.06259099 -0.012985375 -0.030410038 -0.071197785 0.04089192 -0.11020646 -0.002432985
-0.07851323 -0.12428212 0.047918063 0.04379226 0.030083537 0.026674267 0.13355735 -0.06778255
-0.030629454 -0.039106335 -0.056199215 0.0025136012 -0.12410682 0.04509147 0.0005583224 0.046006095
0.011606231 0.0045617917 -0.054719165 0.06931208 0.015259455 -0.04062076 0.040080205 -0.04219526
0.056446772 0.024402112 -0.0049384288 0.020291416 -0.06903232 0.027727747 -0.030176919 0.059116766
-0.08067452 0.0716879 0.026129136 0.04643959 0.032734014 0.050163355 -0.018488126 0.01729539
0.041070707 -0.023380583 0.023114 -0.022456346 -0.06355805 -0.033476382 0.07595078 0.0054049706
-0.024933012 0.036585584 -0.0006977858 -0.06365863 -0.046056215 0.02165619 -0.03165203 -0.067923635
0.050694633 -0.075400904 0.021836352 -0.031262096 0.0070859455 0.06393852 0.046601832 -0.028302502
-0.028725151 -0.07829145 -0.0072648544 -0.056459125 -0.06713496 -0.028774718 -0.018692672 0.07384008
-0.026733652 -0.021524107 -0.029334817 -0.023240026 9.473417e-06 0.13588578 -0.032530375 -0.003149703
-0.09217652 -0.012364911 0.07051486 -0.06412186 0.00059342495 0.08214658 -0.042427815 -0.0083346
0.0053787655 0.01364721 -0.009588674 -0.015983732 -0.0073372466 0.08250556 0.022375917 0.037157577
0.07547592 -0.05291367 0.038095605 -0.0060499106 -0.0010731303 0.08972677 -0.040946882 -0.054341063
-0.07586455 0.10106831 -0.09664469 -0.04952225 -0.019240255 -0.018315626 0.050323073 0.050805345
-0.0153388735 0.04322783 0.07249553 0.036238573 -0.15361823 -0.07597989 0.032813556 -0.00944175
-0.033319633 -0.037683614 -0.0050035724 0.065600485 -0.0011888968 0.015169666 -0.041489396 -0.076167315
0.08331558 0.022140926 -0.049547818 0.018330222 0.0022653062 0.0035777872 0.0021696691 0.008841662
0.11519595 -0.08096664 -0.02015974 0.03402343 0.04165118 -0.057946805 -0.00012884976 -0.0109602
-0.06062765 0.056962088 0.055277005 0.044976138 0.048149806 -0.010410558 0.04321849 -0.0817689
0.09087363 0.06557615 0.03635774 0.0032347222 0.08023151 -0.012498456 -0.016622344 0.026540216
0.081876405 0.057727885 0.107564606 0.02866227 -0.06444068 -0.08019741 0.078234434 0.01191835
-0.07046593 0.041344192 0.04700194 0.057980396 -0.018716061 -0.061562367 -0.021116199 -0.037092585
-0.02792701 0.10439654 0.06270644 -0.024849465 -0.07563958 -0.029450687 0.003851742 -0.18255542
-0.05104303 -0.032375 0.01714966 0.045335826 -0.05747785 -0.06356685 0.06469028 -0.040213797

actor.bias f4 [7]
00000000: 0e2d 323d 7349 8dbd a329 4ebd 4a5c 4f3c
00000010: 5e54 823d f2d4 203c d780 903c
0.0435 -0.06898775 -0.050332677 0.012656281 0.06363748 0.009816395 0.01763956

critic.weight f4 [1, 128]
00000000: 1593 04bd 02e5 22bd 144e 28bd 4e2c b33c
00000010: 27e8 dfbc 195c 123d 8215 7dbd d173 bb3c
00000020: 4762 a8bd 35b0 623d e235 3fbb af33 133d
00000030: 6e98 2cbd 653b a6bb ad0e 4fbd 653c 4f3d
00000040: 48f7 223d 7531 4fbd 78ae b23c 3c62 a03d
00000050: 44f9 70bd fa6e 813c aa0d 09bd c6ff 413c
00000060: 541f cbba 9c35 93bd 77c2 843d 6440 58bd
00000070: 0df4 3abd 3d6c 11bc 6b01 8d3d 7cbc 53bd
00000080: e13e 8a3c e15b a53b 9e5f c7bc b542 093c
00000090: 308f 5e3d 38a5 353d 896d 41bd 708a 923c
000000a0: 063e 3d3b 7870 cebc ccce 02bc 860b 9c3c
000000b0: 7ac2 533d 3e8a 593d 7e3c 953d a01a d73b
000000c0: 6a08 9bbd 8395 38bd 3001 68bd c708 18bd
000000d0: a4c7 b23b f37b aa3d f513 9abd 7a16 90bd
000000e0: 955f 9a3c f3ad 263d 4165 9c3d eda4 253d
000000f0: d3f1 2e3d 4c92 40bd b413 be3a a569 033d
00000100: e8ea 0b3d 723d 5f3c aad2 d83b 1c8a 9f3d
00000110: c315 143b 5665 263d 1c35 d4bc 5af6 cc3c
00000120: b2ea 8e3d 3ae8 603d d606 e6bc fec2 133d
00000130: b727 3fbb b76a 2db9 f14f 71bd 044d 063d
00000140: 3fc2 40bd 3c4b 933d a75b 5a3d 60a9 58bd
00000150: 7e1d d7ba 01ec 3dbd 7ced 46bd 557d c4bc
00000160: e7f9 153d 6533 8f3d ade7 893d d3b5 553d
00000170: 9a69 21bc 17b5 6d3d 92af 9b3d bba0 47bc
00000180: 5a72 253d f629 9a3d f5e3 91ba 7ca0 733d
00000190: 2a9b 343d c955 873c 7f89 443c ba8e 6ebd
000001a0: 7819 173d 1d66 4fbd 16b2 17bd 5985 98bd
000001b0: eb11 613d d94e 96bd 3d28 8a3d b303 aa3d
000001c0: 0a8b a33d dff0 9bbc 3d2e 28bd 92c6 6a3d
000001d0: c7ee 4a3c 5321 a4bd 7ad3 b3bc aa51 80bc
000001e0: db82 733d 1bd3 77bc e5bf c93c d6df 9cbd
000001f0: 538b 4a3d cab4 afbd b43e b6bc 389d 10bd
-0.03236683 -0.03976918 -0.041090086 0.021871712 -0.027332379 0.035732362 -0.06178809 0.022882374
-0.0822187 0.055343825 -0.0029176404 0.03593796 -0.042137556 -0.0050729983 -0.050551105 0.050594706
0.039786607 -0.050584275 0.021811709 0.07831237 -0.05883147 0.015799988 -0.033460297 0.011840766
-0.0015497007 -0.071879596 0.06482404 -0.052795783 -0.0456429 -0.008875904 0.06885036 -0.051693425
0.016875686 0.005046353 -0.024337586 0.008377721 0.054335773 0.044347018 -0.0472236 0.017888278
0.002887608 -0.025200114 -0.0079838745 0.019048464 0.05169914 0.053110354 0.072869286 0.0065644532
-0.07569964 -0.04506446 -0.056641757 -0.037117746 0.005455928 0.08324423 -0.07523338 -0.07035537
0.018844405 0.040693235 0.076365 0.04044049 0.04271109 -0.04701452 0.0014501722 0.032083172
0.03415957 0.01362549 0.00661691 0.07790014 0.0022595979 0.040623985 -0.02590423 0.025019813
0.06978358 0.05490897 -0.028079432 0.03607463 -0.002916796 -0.0001653832 -0.05891413 0.03278829
-0.047060248 0.07192084 0.053310063 -0.052895904 -0.0016411988 -0.04636765 -0.048566326 -0.023985544
0.03661528 0.069922246 0.06733642 0.052175354 -0.0098518375 0.05803403 0.07601847 -0.012184317
0.040392257 0.07527535 -0.0011130559 0.05947922 0.04409329 0.016520398 0.011995672 -0.058241583
0.036889523 -0.050634492 -0.03703507 -0.07447309 0.05494873 -0.07339258 0.06745956 0.08301487
0.07985504 -0.019035755 -0.04105972 0.057318278 0.0123860305 -0.080141686 -0.021951426 -0.01566394
0.059450965 -0.015126015 0.024627635 -0.07659881 0.049449276 -0.08579405 -0.022246696 -0.035306185
