trained_models/PPO/ppo_connect4_model_1_128batch.pt (torch, 537900 bytes, 9 tensors)

conv1.weight f4 [64, 1, 4, 4]
-0.08498267 -0.26880655 0.09394258 -0.21548954 0.2378494 -0.15685868 -0.12863132 0.23319249
0.16279097 0.1325205 -0.22776818 -0.1879448 0.16238578 -0.27152765 0.1146326 0.20409945
0.09801853 0.16713426 -0.21337374 -0.006577537 -0.06661973 0.09947183 -0.007994422 -0.15131202
0.092192814 0.14040542 -0.19468334 0.04745077 0.22693221 -0.07223868 -0.1322543 -0.048764538
0.038707774 -0.19964442 -0.21891646 0.20637676 -0.11984261 -0.11890634 -0.050588433 0.14749715
-0.013991896 -0.01579908 0.04796754 -0.13534465 0.22704817 -0.20501754 -0.21228684 -0.23775953
-0.2552076 -0.27637342 -0.02262554 0.07204664 0.0030317507 0.0818517 0.21179073 0.23103444
0.17636512 -0.25050506 0.067636654 -0.20134476 -0.16109176 -3.2152268e-05 0.18554944 0.20481561
0.28540033 -0.04319126 0.033189386 0.2850003 0.21538323 0.021338958 0.0052860975 0.0670935
0.06700756 0.06408957 0.039469004 -0.050296187 -0.20036721 0.23120457 -0.19474813 -0.15484801
-0.1424271 0.10679941 0.18927826 -0.1859134 -0.30620438 0.1814684 -0.2027943 -0.07598857
-0.24665347 -0.18038768 0.17681046 0.013731551 0.17338932 0.2462055 0.048762344 0.2147646
-0.13143766 0.29758635 0.027687868 0.280862 0.16182157 -0.124452695 -0.001026487 0.041182313
-0.004998571 -0.08529727 0.1768766 0.03672254 -0.11000497 -0.11188624 -0.12508346 -0.013018612
-0.048813146 0.031177133 -0.23426956 0.24929996 -0.124435395 -0.17824474 0.022179602 0.006286355
0.099601135 0.24241292 -0.28423387 -0.20756909 -0.09838248 -0.03063357 -0.2187882 -0.18409316
0.19036315 0.20809494 -0.018251006 -0.021333724 0.05040898 -0.047471985 -0.03983426 0.23267032
-0.012863442 0.21450324 0.16694507 -0.03469128 -0.07553999 -0.24277456 -0.09830432 -0.23399222
-0.14614542 0.17989464 -0.13057426 0.073455 -0.13969363 -0.078139156 0.11666316 -0.05017991
-0.12129806 0.09610507 0.074889325 -0.0854419 0.18741243 0.033736184 0.031679813 -0.27733526
-0.09879662 -0.25824946 0.16763096 -0.017427186 0.14939383 -0.18211934 0.1308096 -0.26564515
-0.057937946 0.13443206 0.081693895 -0.22627988 -0.19707285 0.22934434 -0.00764263 0.18316887
-0.1747246 -0.24160133 -0.14549239 0.033122476 -0.12616292 -0.035861753 -0.08681692 -0.18858485
-0.13171358 -0.033598144 0.16203026 0.15459889 0.03695378 -0.26916757 -0.041178875 -0.05817138
0.14039604 -0.16643102 -0.18794496 0.21889657 0.11392162 -0.1210613 0.041972905 0.06621482
0.03521755 -0.11295705 -0.23854466 0.036095284 -0.0074176113 0.11971346 0.19045179 -0.06185275
0.17460541 0.095384955 -0.021575818 0.17951216 -0.026942944 -0.035172466 -0.22830077 0.11744366
-0.2392611 0.1753927 0.040888667 0.2258516 0.19435427 -0.0783826 0.01920913 0.18245335
0.04423807 -0.2575541 -0.28848803 0.08982541 -0.020334564 -0.10071577 -0.26173654 0.24183936
-0.16115668 0.14413199 0.099295855 0.065357 -0.018768422 0.22106312 -0.15035532 -0.12663104
0.30822358 -0.15913612 0.18047725 0.038553078 0.18884595 0.060929846 -0.13444906 0.18514165
0.24576166 -0.18186872 0.019267919 0.031708777 0.1448442 0.19591147 0.023858825 0.03625297
00000000: 650b aebd 03a1 89be f864 c03d 4aa9 5cbe
00000010: cb8e 733e 909f 20be eeb7 03be 03ca 6e3e
00000020: adb2 263e 74b3 073e 103c 69be 9a74 40be
00000030: 7548 263e ac05 8bbe 7fc4 ea3d 72ff 503e
00000040: f0bd c83d 3e25 2b3e a57e 5abe 6188 d7bb
00000050: ed6f 88bd e3b7 cb3d 09fb 02bc 8af1 1abe
00000060: 96cf bc3d 70c6 0f3e 125b 47be bd5b 423d
00000070: eb60 683e e0f1 93bd ac6d 07be 53bd 47bd
00000080: 0b8c 1e3d 966f 4cbe a32b 60be 6e54 533e
00000090: 0b70 f5bd 2b85 f3bd d135 4fbd 7e09 173e
000000a0: 443e 65bc 126d 81bc 9c79 443d ca97 0abe
000000b0: 517f 683e 1ef0 51be b961 59be 3c77 73be
000000c0: 92aa 82be d180 8dbe 3259 b9bc 308d 933d
000000d0: 56b0 463b dda1 a73d abdf 583e 4b94 6c3e
000000e0: 0f99 343e 3342 80be 1685 8a3d 522d 4ebe
000000f0: 3df5 24be 3cdb 06b8 ac00 3e3e 2fbb 513e
00000100: fe1f 923e 52e9 30bd 98f1 073d 8feb 913e
00000110: 6c8d 5c3e 0acf ae3c 0037 ad3b 5168 893d
00000120: 423b 893d 6441 833d 40aa 213d 6003 4ebd
00000130: 102d 4dbe e4c0 6c3e 0e6c 47be 7a90 1ebe
00000140: 69d8 11be a6b9 da3d 29d2 413e 1560 3ebe
00000150: d2c6 9cbe dad2 393e 4fa9 4fbe e59f 9bbd
00000160: ba92 7cbe 8cb7 38be cd0d 353e 4dfa 603c
00000170: f88c 313e 4b1d 7c3e 06bb 473d 40eb 5b3e
00000180: 9897 06be 3d5d 983e abd1 e23c 25cd 8f3e
00000190: 8eb4 253e 0ee1 febd 308b 86ba c9ae 283d
000001a0: 0dcb a3bb 56b0 aebd 241f 353e 606a 163d
000001b0: 494a e1bd 9d24 e5bd e115 00be 044c 55bc
000001c0: 4bf0 47bd 3067 ff3c 5ce4 6fbe 7d48 7f3e
000001d0: fcd7 febd ca85 36be ffb1 b53c c5fd cd3b
000001e0: aefb cb3d 183b 783e 1a87 91be fe8c 54be
000001f0: c17c c9bd 41f3 fabc 040a 60be eb82 3cbe
00000200: 8fee 423e d716 553e 2283 95bc 10c4 aebc
00000210: a679 4e3d fc71 42bd 4029 23bd 2141 6e3e
00000220: 30c1 52bc bda6 5b3e a6f3 2a3e 7218 0ebd
00000230: b6b4 9abd e599 78be c653 c9bd a89b 6fbe
00000240: 25a7 15be 4d36 383e 42b5 05be 936f 963d
00000250: d90b 0fbe 6c07 a0bd 18ed ee3d 7389 4dbd
00000260: 1e6b f8bd bcd2 c43d 935f 993d 2afc aebd
00000270: 0be9 3f3e f42e 0a3d b1c2 013d e3fe 8dbe
00000280: e255 cabd 4639 84be 73a7 2b3e 75c3 8ebc
00000290: b2fa 183e 7e7d 3abe f4f2 053e a402 88be
000002a0: 5750 6dbd 8fa8 093e 214f a73d eab5 67be
000002b0: 77cd 49be 3ed9 6a3e 076f fabb 9f90 3b3e
000002c0: 01eb 32be 5766 77be f5fb 14be 6fab 073d
000002d0: da30 01be c6e3 12bd 12cd b1bd 631c 41be
000002e0: eddf 06be 359e 09bd 43eb 253e 2c4f 1e3e
000002f0: d95c 173d 55d0 89be 2eab 28bd 1d45 6ebd
00000300: fbc3 0f3e e56c 2abe a574 40be 6c26 603e
00000310: bd4f e93d fdee f7bd c8eb 2b3d a39b 873d
00000320: 4740 103d 0756 e7bd 0d45 74be a6d8 133d
00000330: 6f0f f3bb 552c f53d cb05 433e 4f59 7dbd
00000340: c3cb 323e 3059 c33d c5bf b0bc 09d2 373e
00000350: 73b7 dcbc 0111 10bd adc7 69be 4d86 f03d
00000360: dd00 75be 259a 333e e07a 273d a445 673e
00000370: ce04 473e 0e87 a0bd 775c 9d3c 0dd5 3a3e
00000380: fa32 353d 22de 83be b4b4 93be 62f6 b73d
00000390: ac94 a6bc 1244 cebd 5502 86be bda4 773e
000003a0: 4206 25be 5697 133e a05b cb3d e4d9 853d
000003b0: 3cc0 99bc 5f5e 623e bff6 19be 91ab 01be
000003c0: 7bcf 9d3e 94f4 22be 07cf 383e d5e9 1d3d
000003d0: d560 413e 9391 793d 04ad 09be c695 3d3e
000003e0: f2a8 7b3e cb3b 3abe c1d7 9d3c 10e1 013d
000003f0: 0a52 143e 049d 483e 9573 c33c ff7d 143d

conv1.bias f4 [64]
0.0359096 -0.028952623 0.044353038 0.17893998 -0.1253788 -0.17033264 -0.11071297 -0.0006823276
0.1741167 0.2103199 -0.049941357 0.07198401 0.12454672 -0.0042868834 -0.027595162 -0.17156866
-0.12237662 -0.14410862 0.21302417 0.05370848 0.04653938 0.041030217 -0.17171966 -0.03273755
-0.10546764 0.20017534 -0.10707359 -0.11628502 -0.031835295 0.1340893 -0.032246497 -0.023403946
0.031578496 0.00078140304 0.07889407 -0.04262407 -0.1270613 -0.22300756 0.10131617 0.15083596
-0.17082919 -0.1136243 -0.088564 -0.028119382 -0.24319184 0.23196615 0.134298 -0.11724259
0.11418207 -0.05344262 0.08566859 0.11590921 0.056391977 -0.17087175 0.16779077 -0.13974202
0.08218635 -0.09393117 0.23402977 -0.012308685 0.020799965 0.22216153 0.018237613 0.06819197
00000000: f215 133d 0d2e edbc 88ab 353d 0b3c 373e
00000010: 4d63 00be ae6b 2ebe 7bbd e2bd 3bde 32ba
00000020: a64b 323e 1a5e 573e 4f8f 4cbd 5a6c 933d
00000030: 5a12 ff3d fc78 8cbb 400f e2bc b2af 2fbe
00000040: 98a0 fabd 3691 13be 0223 5a3e 6cfd 5b3d
00000050: 14a0 3e3d 4d0f 283d 47d7 2fbe cf17 06bd
00000060: 6bff d7bd c4fa 4c3e 6649 dbbd d726 eebd
00000070: ba65 02bd b54e 093e e714 04bd a2b9 bfbc
00000080: 7458 013d 12d7 4c3a 3793 a13d 9496 2ebd
00000090: 5c1c 02be 185c 64be da7e cf3d be74 1a3e
000000a0: d9ed 2ebe dbb3 e8bd 0b61 b5bd 9e5a e6bc
000000b0: 4807 79be 8988 6d3e 6a85 093e e21c f0bd
000000c0: 4ad8 e93d a6e6 5abd 0473 af3d cf61 ed3d
000000d0: 46fb 663d 01f9 2ebe 58d1 2b3e 8818 0fbe
000000e0: 5151 a83d fc5e c0bd 80a5 6f3e 5eaa 49bc
000000f0: b064 aa3c 507e 633e 0c67 953c 3ba8 8b3d

conv2.weight f4 [128, 64, 2, 2]
-0.028460218 -0.07635254 0.0048996857 -0.0059740935 0.03569154 -0.068605304 0.01891921 -0.029728862
0.06841196 0.01632943 -0.035579987 -0.05514195 -0.03578666 0.034977566 -0.03976769 -0.03381845
0.08124685 -0.013108683 0.0036030747 0.033527587 0.030790519 -0.022643583 -0.018378118 -0.06878098
0.019459466 0.13976131 -0.021809142 -0.015002915 0.012093592 -0.08854534 -0.039708756 0.010405662
-0.0014960354 0.061123125 0.07269609 0.06634212 -0.009611872 0.047058843 -0.041525587 -0.027677849
-0.06226951 -0.020453176 -0.022400659 0.03450104 -0.0048142844 0.014254009 0.01668091 0.054767597
0.012777123 0.07535594 -0.03904711 -0.03573155 -0.003979039 0.077054486 -0.010893633 -0.011032508
-0.0015735156 -0.033459015 -0.042147774 0.048526235 -0.0010835422 0.027991101 0.004066274 -0.00096118986
-0.06826328 -0.029742682 -0.0005112633 -0.05904803 -0.076320894 -0.023576364 -0.022071011 -0.045345474
-0.0458943 -0.00045608662 -0.03223349 -0.00523479 0.054029267 0.05365243 -0.048138097 -0.008042054
-0.049173944 -0.040411655 -0.0031923673 0.07405984 -0.012666388 -0.013383523 -0.03142423 0.017139578
-0.039318968 -0.10320586 0.013794201 -0.0028633839 0.0274871 0.00948974 0.011759914 0.018949402
-0.04107551 -0.035637707 -0.12288877 -0.09225969 0.030806795 -0.02706903 0.057220552 -0.004507137
-0.079085276 0.04674007 -0.01802669 -0.046027064 0.039622907 -0.053993564 -0.05532841 -0.047337502
0.03564684 0.05164232 0.024374811 0.0029733796 -0.029548813 0.03359098 -0.044289723 0.03526916
0.045436297 0.024191294 -0.02564599 0.030668221 -0.046214122 0.0004560112 0.009063426 0.014361774
-0.028052444 -0.012204994 0.009560407 0.00982395 0.024221769 -0.0014081195 0.0072967177 0.022731436
-0.023419505 0.053333223 -0.0047354214 0.06089694 0.027838724 0.047842707 -0.03928771 0.013742137
0.067493066 0.0854299 -0.063252054 -0.04530188 -0.0009315431 0.016525164 -0.00687815 -0.025569487
0.058315787 0.048411287 -0.047857165 -0.034019846 0.05455992 0.066426404 -0.0036111907 -0.037711598
-0.026184337 -0.06368418 -0.048991814 0.04574706 0.0024319072 -0.06935066 -0.02606304 0.010914753
-0.043382432 -0.07082563 -0.055724453 -0.05344407 0.029045552 -0.015699407 -0.06868999 0.015850987
0.028725814 0.0012457119 -0.008209568 -0.04269116 -0.008375527 -0.01825006 -0.011327101 0.053853583
0.05339315 0.023326052 0.03401266 -0.009439538 0.015494319 -0.003205819 -0.076014474 -0.10297455
0.032247547 0.023442117 -0.036951475 0.043769855 -0.057262603 -0.057517983 0.050639667 0.0061414023
0.058893107 0.032566935 0.021382067 0.05058424 -0.03714557 -0.04806741 -0.0030489243 -0.038399972
-0.024586275 0.013863443 0.02433653 0.06343037 0.019012073 0.05494166 -0.0025767898 -0.044008434
0.04214147 0.023056975 0.017116552 -0.00400813 0.014068002 0.0466786 -0.046220258 -0.07822898
-0.017389547 -0.044226456 0.022798952 -0.042090982 -0.022023411 -0.04173795 -0.061543792 0.016775303
0.0017412426 -0.003191593 0.052888867 0.054114774 -0.026501086 0.008197494 0.011933299 0.050677545
-0.076015934 0.0152456 -0.013023547 -0.021991413 -0.006228746 0.061573524 0.035233967 0.013680146
-0.0055785323 -0.084565535 -0.02214723 -0.10126549 -0.05163881 -0.009140373 0.030806597 -0.014923548
00000000: 6725 e9bc b85e 9cbd 8b8d a03b 54c2 c3bb
00000010: 4b31 123d f080 8cbd 76fc 9a3c f189 f3bc
00000020: 921b 8c3d 4cc5 853c 52bc 11bd 86dc 61bd
00000030: 0895 12bd a344 0f3d 72e3 22bd 3785 0abd
00000040: c064 a63d cdc5 56bc 9021 6c3b 3954 093d
00000050: 663c fc3c 097f b9bc b58d 96bc 0bdd 8cbd
00000060: 7569 9f3c 971d 0f3e 16a9 b2bc c9ce 75bc
00000070: 3424 463c 4257 b5bd a6a5 22bd 827c 2a3c
00000080: 9e16 c4ba 3e5c 7a3d b0e1 943d 61de 873d
00000090: 1d7b 1dbc c6c0 403d bc16 2abd a8bc e2bc
000000a0: 500e 7fbd 6b8d a7bc 9681 b7bc f650 0d3d
000000b0: 25c1 9dbb a689 693c 67a6 883c fd53 603d
000000c0: 2357 513c 3754 9a3d ddef 1fbd 3f5b 12bd
000000d0: 9962 82bb bece 9d3d 357b 32bc b1c1 34bc
000000e0: 6c3e ceba 520c 09bd 25a3 2cbd 72c3 463d
000000f0: a505 8eba 984d e53c 613e 853b 5cf8 7bba
00000100: 9ecd 8bbd eda6 f3bc 4d06 06ba 59dc 71bd
00000110: 214e 9cbd 3823 c1bc 44ce b4bc 2dbc 39bd
00000120: a9fb 3bbd e91e efb9 4407 04bd 9a88 abbb
00000130: cb4d 5d3d a7c2 5b3d 742c 45bd d2c2 03bc
00000140: 9e6a 49bd b186 25bd 0937 51bb afac 973d
00000150: af86 4fbc 9046 5bbc b2b6 00bd 4d68 8c3c
00000160: ed0c 21bd 985d d3bd 1301 623c 9ca7 3bbb
00000170: a02c e13c db7a 1b3c a8ac 403c c73b 9b3c
00000180: cb3e 28bd d8f8 11bd 1cad fbbd a6f2 bcbd
00000190: 885e fc3c dfbf ddbc 1960 6a3d 9bb0 93bb
000001a0: 76f7 a1bd 8472 3f3d b6ac 93bc e086 3cbd
000001b0: a14b 223d 5b28 5dbd 0ba0 62bd f8e4 41bd
000001c0: 6c02 123d e686 533d afad c73c 08dd 423b
000001d0: 5a10 f2bc b296 093d 2469 35bd 6576 103d
000001e0: 691b 3a3d d22c c63c 8a17 d2bc ec3b fb3c
000001f0: 054b 3dbd ca14 ef39 c47e 143c a54d 6b3c
00000200: 3dce e5bc 75f7 47bc 41a3 1c3c a2f4 203c
00000210: bb6c c63c a690 b8ba 4e19 ef3b 4737 ba3c
00000220: 43da bfbc f073 5a3d 982b 9bbb 126f 793d
00000230: 090e e43c b7f6 433d 26ec 20bd b326 613c
00000240: ce39 8a3d dff5 ae3d 4b8a 81bd 778e 39bd
00000250: cd32 74ba c85f 873c 1b62 e1bb 1a77 d1bc
00000260: 89dc 6e3d ea4a 463d e005 44bd 6558 0bbd
00000270: 397a 5f3d 910a 883d baa9 6cbb 7a77 1abd
00000280: 8980 d6bc da6c 82bd a4ab 48bd 4561 3b3d
00000290: a260 1f3b b807 8ebd 2882 d5bc cbd3 323c
000002a0: c7b1 31bd 070d 91bd 533f 64bd 2be8 5abd
000002b0: f0f0 ed3c 0b9c 80bc 56ad 8cbd eed9 813c
000002c0: 6652 eb3c 2847 a33a 6d81 06bc eddc 2ebd
000002d0: 8239 09bc 2681 95bc 4e95 39bc 9395 5c3d
000002e0: c7b2 5a3d 4716 bf3c dc50 0b3d 4ba8 1abc
000002f0: e2db 7d3c b818 52bb 7aad 9bbd 52e4 d2bd
00000300: 0116 043d af09 c03c 6e5a 17bd 0548 333d
00000310: 318c 6abd fa97 6bbd 8a6b 4f3d d13d c93b
00000320: e639 713d e864 053d 7229 af3c 6c31 4f3d
00000330: f425 18bd 55e2 44bd 76d0 47bb 4a49 1dbd
00000340: 2869 c9bc 7f23 633c 675d c73c c8e7 813d
00000350: 35bf 9b3c 820a 613d 5cdf 28bb 3042 34bd
00000360: 899c 2c3d fbe1 bc3c 0338 8c3c a256 83bb
00000370: 7a7d 663c 0f32 3f3d 7451 3dbd 8436 a0bd
00000380: 8674 8ebc cd26 35bd dec4 ba3c 9867 2cbd
00000390: 716a b4bc 6af5 2abd 5815 7cbd 5c6c 893c
000003a0: 683a e43a 0c2a 51bb ffa1 583d 74a7 5d3d
000003b0: ce18 d9bc c84e 063c e283 433c 4293 4f3d
000003c0: 3eae 9bbd aec8 793c b760 55bc 5627 b4bc
000003d0: 821a ccbb 8534 7c3d 7e51 103d b122 603c
000003e0: 1fcc b6bb b230 adbd 1c6e b5bc 4864 cfbd
000003f0: 3883 53bd 81c1 15bc 1e5e fc3c e681 74bc

conv2.bias f4 [128]
0.03706631 -0.014112522 -0.058550246 -0.018037653 0.009324675 -0.030354071 0.016074108 -0.0007384263
0.038935687 0.021400644 0.039441723 0.003383418 0.01828197 0.06169084 0.020887652 0.052590817
-0.028302431 -0.014717827 0.06312326 -0.04477493 -0.060020167 0.03296547 -0.010921869 -0.03133931
-0.00831869 0.04400606 -0.008101086 -0.006134115 -0.039643463 0.0020145967 -0.0135956025 0.05504789
-0.04779625 0.03988379 0.024933157 0.07186631 -0.016987575 0.06133404 -0.023748657 -0.013749435
-0.06535448 -0.058180723 0.060211364 0.056131627 0.051948875 -0.04683639 0.0017307819 -0.0031069638
-0.065249406 0.044095438 0.009509864 -0.003305227 -0.013487153 -0.037421543 -0.048760965 -0.050758127
-0.052711647 -0.035460055 -0.059355717 -0.02784588 0.025972547 0.059191205 -0.03588437 -0.06705477
0.012790877 0.038376663 0.046671264 0.025327457 -0.0071397237 0.047171492 -0.025428003 0.04103111
0.040300902 -0.025666306 0.03224907 0.030224008 -0.04857687 0.05621618 -0.047047663 0.024185283
-0.06962444 0.051232867 -0.034233533 0.05621818 0.027568296 -0.0020247332 0.015082938 -0.03728549
0.0704578 -0.032222364 0.03293113 0.055487998 0.05231689 0.052797962 0.005922613 -0.004876323
0.0019642445 -0.02059038 0.037755348 0.042201884 0.061312787 3.7262926e-05 0.027025728 0.059295934
-0.04569401 -0.042780716 -0.010202698 -0.030166076 0.0072749844 0.030440412 0.06298479 -0.01985143
0.06862607 0.058433205 0.019856514 0.06413704 -0.009856398 -0.04679249 0.052317385 -0.0096958205
0.04054956 0.008859208 0.027870355 -0.041050542 0.05300456 -0.009087256 0.059988927 0.02231247
00000000: d8d2 173d 3538 67bc 62d2 6fbd b3c3 93bc
00000010: 86c6 183c 1aa9 f8bc d9ad 833c f392 41ba
00000020: 077b 1f3d 6750 af3c a58d 213d 56bc 5d3b
00000030: 12c4 953c 89af 7c3d 951c ab3c 7869 573d
00000040: 80da e7bc 0a23 71bc c546 813d eb65 37bd
00000050: b5d7 75bd cd06 073d a4f1 32bc a65d 00bd
00000060: 1d4b 08bc b33f 343d 6bba 04bc b000 c9bb
00000070: 2f61 22bd 5307 043b 17c0 5ebc e579 613d
00000080: 00c6 43bd 2f5d 233d 9f40 cc3c a52e 933d
00000090: 8729 8bbc 6739 7b3d 8b8c c2bc 4f45 61bc
000000a0: 92d8 85bd e94e 6ebd 31a0 763d 47ea 653d
000000b0: 58c8 543d 84d7 3fbd 67db e23a 349e 4bbb
000000c0: 7ba1 85bd 6b9d 343d 43cf 1b3c 829c 58bb
000000d0: 38f9 5cbc 5547 19bd 94b9 47bd c1e7 4fbd
000000e0: 2be8 57bd 903e 11bd fb1e 73bd 0b1d e4bc
000000f0: 61c4 d43c 7a72 723d 7dfb 12bd 0354 89bd
00000100: d490 513c d930 1d3d 5e2a 3f3d 877b cf3c
00000110: 58f4 e9bb e536 413d 634e d0bc 3d10 283d
00000120: 8f12 253d 2542 d2bc 9a17 043d 5798 f73c
00000130: 8af8 46bd f042 663d 0db5 40bd 3720 c63c
00000140: 4297 8ebd 8ed9 513d 7638 0cbd 0945 663d
00000150: e8d6 e13c 63b1 04bb 6d1e 773c acb8 18bd
00000160: 2e4c 903d 99fb 03bd cbe2 063d 6247 633d
00000170: 3c4a 563d ad42 583d 7b12 c23b 90c9 9fbb
00000180: 8eba 003b 28ad a8bc 5aa5 1a3d e2db 2c3d
00000190: 1e23 7b3d c34a 1c38 0f65 dd3c 4be0 723d
000001a0: a429 3bbd d53a 2fbd 3829 27bc d91e f7bc
000001b0: fe62 ee3b 2c5e f93c 2bfe 803d 779f a2bc
000001c0: d38b 8c3d a857 6f3d 21aa a23c 485a 833d
000001d0: bb7c 21bc 7ba9 3fbd c14a 563d 38db 1ebc
000001e0: 4c17 263d 3626 113c 5f50 e43c 9d24 28bd
000001f0: 4f1b 593d b7e2 14bc f3b6 753d a4c8 b63c

fc_shared.weight f4 [128, 768]
0.0055426387 0.0038358867 0.019837754 0.018572386 -0.0006893769 -0.025253074 -0.0029928621 0.013506286
-0.00021443111 0.027883256 0.0005570506 -0.016163997 -0.014634755 -0.027132923 0.02129085 -0.008735014
-0.0071037505 0.017558815 0.006020468 -0.015790362 0.0014415832 -0.032149058 -0.0263954 -0.018171376
-0.0010919546 -0.031689372 0.016992558 -0.0016207065 0.020172782 -0.009973228 0.021151863 -0.019888455
0.0033790607 0.027368624 -0.013478985 0.018864887 0.023496823 -0.012096028 0.020201148 -0.007887133
0.030050006 -0.020676615 -0.00092782645 -0.0011719252 0.027065892 0.010264284 -0.0073439092 0.019060181
0.0068174056 0.029759381 -0.024263125 -0.029745566 0.023800893 -0.025398957 0.025540225 -0.034317162
-0.028545748 0.015959268 -0.016894557 -0.020664373 0.013451112 0.02032579 -0.027618436 0.0116261495
0.020050554 0.024938794 -0.02852334 -0.03386207 -0.03295138 0.010394408 0.024450988 0.021032495
-0.016871383 -0.009493917 0.00084097264 0.007949757 0.007633918 0.013094866 0.019547023 0.0024004881
-0.035040487 -0.017801175 -0.0044645593 0.010007062 -0.026183005 -0.019206919 0.015782874 0.01866616
0.022594342 0.0110011585 -0.03355318 -0.004053765 0.009753057 -0.03631376 -0.029459571 0.021562975
-0.014226885 0.027755106 0.0015527733 -0.023160357 -0.00095208327 0.012949881 -0.013440762 0.019077629
0.001324642 0.012475773 0.030738147 -0.030359024 -0.002503174 -0.011427959 0.013845463 -0.00555247
-0.034205668 -0.038187902 -0.00800458 -0.013187985 -0.039371707 -0.007226395 0.022454737 -0.0069625713
0.02230065 0.019045062 0.020431904 -0.0042350013 -0.0029002456 0.027425818 0.0138840275 0.011279246
-0.039133195 0.02439381 -0.015287512 -0.036332842 -0.032311387 -0.007883387 -0.019367713 -0.03448175
-0.019778803 0.03139369 0.0020422386 0.006871804 -0.0155437365 0.026016189 0.0107237585 -0.018176904
-0.029074933 0.022574387 -0.022524865 -0.007338997 0.025736134 0.007844479 -0.019732144 0.021016354
-0.032310084 0.021964973 -0.002052111 0.030124152 -0.00048605833 0.02598101 -0.00765029 0.010412446
-0.016636727 0.009173708 -0.0058434214 0.017347107 0.014501825 -0.020082572 -0.0011777482 -0.0016965388
-0.03382442 -0.024695426 -0.012212207 -0.0006123763 -0.01886326 -0.015203672 0.017126655 0.02523743
0.003966937 0.024732688 0.031364754 0.00045137072 -0.026225304 0.030086363 0.011254315 -0.030487556
-0.022545123 0.015845936 -0.037525456 -0.02144222 -0.038248807 0.0052974387 0.012227045 -0.037430797
0.018995676 0.025748063 -0.007392911 -0.041880876 0.019286253 0.00014430215 -0.013261888 0.022487044
-0.03931371 -0.0020900865 0.026614837 0.015907643 -0.03319716 0.004558471 0.031116644 -0.010253007
-0.004529901 -0.039421696 -0.009389979 0.0025992922 -0.022754887 -0.008562675 -0.025458857 -0.035168044
0.023246428 -0.010422206 0.02670064 0.023771316 0.009996288 -0.017945362 -0.03475565 -0.0019588696
-0.017088482 -0.018220572 -0.03837093 -0.03748777 -0.03602409 -0.011526899 -0.025980616 0.009764762
-0.016967703 -0.036204945 -0.036850516 -0.021320574 -0.038208894 -0.004434085 -0.019556774 -0.025479196
-0.015444636 -0.015447732 -0.0044774925 -0.016325995 -0.02700165 0.020605518 0.017301226 -0.03492646
0.027047802 -0.028839348 0.013453023 0.026608821 -0.012115514 -0.019734578 0.002261246 -0.017288184
00000000: 069f b53b 8063 7b3b c982 a23c 1e25 983c
00000010: 4db7 34ba 89df cebc e523 44bb 7849 5d3c
00000020: ead8 60b9 6d6b e43c 0807 123a 5c6a 84bc
00000030: 9dc6 6fbc dd45 debc 266a ae3c 4e1d 0fbc
00000040: 94c6 e8bb 81d7 8f3c 5947 c53b ca5a 81bc
00000050: 81f3 bc3a bbae 03bd 2a3b d8bc 23dc 94bc
00000060: eb1f 8fba b7cc 01bd fa33 8b3c e36d d4ba
00000070: 6441 a53c c066 23bc ac46 ad3c 1ded a2bc
00000080: 3b73 5d3b 2a34 e03c f6d6 5cbc 898a 9a3c
00000090: 697c c03c 6b2e 46bc e17c a53c 0939 01bc
000000a0: 6e2b f63c 0162 a9bc 6139 73ba 499b 99ba
000000b0: 4ab9 dd3c 872b 283c 2da5 f0bb 1924 9c3c
000000c0: 8b64 df3b f2c9 f33c 76c3 c6bc f9ac f3bc
000000d0: 17fa c23c 7911 d0bc bc39 d13c 2790 0cbd
000000e0: c6d8 e9bc 03bd 823c 7466 8abc 5548 a9bc
000000f0: 0e62 5c3c 4582 a63c 0f40 e2bc 9b7b 3e3c
00000100: 0f41 a43c 714c cc3c c8a9 e9bc f4b2 0abd
00000110: 07f8 06bd 4f4d 2a3c 704d c83c 574c ac3c
00000120: db35 8abc 608c 1bbc b874 5c3a b33f 023c
00000130: f225 fa3b d98b 563c 1421 a03c 8251 1d3b
00000140: 9d86 0fbd c5d3 91bc 704b 92bb a9f4 233c
00000150: be7d d6bc d457 9dbc 164b 813c c6e9 983c
00000160: c517 b93c 343e 343c 0f6f 09bd 72d5 84bb
00000170: 49cb 1f3c bdbd 14bd 3355 f1bc d6a4 b03c
00000180: e117 69bc ad5e e33c 6d86 cb3a caba bdbc
00000190: 3a95 79ba bd2b 543c a436 5cbc b048 9c3c
000001a0: 9c9f ad3a 2f67 4c3c 91ce fb3c 7db3 f8bc
000001b0: 4a0c 24bb 563c 3bbc 15d8 623c 7ff1 b5bb
000001c0: 3e1b 0cbd eb6a 1cbd a425 03bc 6b12 58bc
000001d0: 3a44 21bd 65cb ecbb fff2 b73c 4826 e4bb
000001e0: daaf b63c 6404 9c3c cf60 a73c c4c5 8abb
000001f0: 0c12 3ebb 1cac e03c d579 633c 96cc 383c
00000200: 214a 20bd 87d5 c73c 7978 7abc bfd1 14bd
00000210: f258 04bd 5229 01bc 0aa9 9ebc bc3c 0dbd
00000220: 2807 a2bc ab96 003d 14d7 053b df2c e13b
00000230: 28ab 7ebc e71f d53c b4b2 2f3c bbe7 94bc
00000240: 8e2e eebc eced b83c 1186 b8bc f87b f0bb
00000250: 96d4 d23c 2186 003c 4ea5 a1bc 7d2a ac3c
00000260: 9457 04bd e3ef b33c b67c 06bb edc6 f63c
00000270: a5d5 feb9 21d6 d43c 49af fabb f798 2a3c
00000280: bf49 88bc 524d 163c 2c7a bfbb 851b 8e3c
00000290: 1099 6d3c 3584 a4bc ac5e 9aba 655e deba
000002a0: 7a8b 0abd 104e cabc b515 48bc e187 20ba
000002b0: 2087 9abc d318 79bc 334d 8c3c babe ce3c
000002c0: 14fd 813b 359c ca3c 5478 003d f4a5 ec39
000002d0: 73d6 d6bc ad77 f63c 0564 383c 0ac1 f9bc
000002e0: 8db0 b8bc 56cf 813c 4bb4 19bd 98a7 afbc
000002f0: c8aa 1cbd 2396 ad3b f253 483c 0951 19bd
00000300: d29c 9b3c 9aed d23c 3b40 f2bb 488b 2bbd
00000310: 34fe 9d3c d04f 1739 6448 59bc c036 b83c
00000320: 6a07 21bd d5f9 08bb 5c07 da3c bf50 823c
00000330: bff9 07bd 3a5f 953b 55e8 fe3c 3afc 27bc
00000340: 906f 94bb a578 21bd 6dd8 19bc e358 2a3b
00000350: 7568 babc 764a 0cbc 188f d0bc 5e0c 10bd
00000360: 4b6f be3c e6c1 2abc 4dbb da3c 10bc c23c
00000370: 79c7 233c 2702 93bc f15b 0ebd 6160 00bb
00000380: 25fd 8bbc 4f43 95bc d62a 1dbd c78c 19bd
00000390: ff8d 13bd 52db 3cbc 4dd5 d4bc 61fc 1f3c
000003a0: daff 8abc a34b 14bd 91f0 16bd 7ca8 aebc
000003b0: ee80 1cbd cd4b 91bb 8735 a0bc bfb9 d0bc
000003c0: 800b 7dbc 7c18 7dbc eeb7 92bb 18be 85bc
000003d0: 9032 ddbc e7cc a83c 4dbb 8d3c 0c0f 0fbd
000003e0: 5a93 dd3c 7f40 ecbc 116a 5c3c befa d93c
000003f0: 2680 46bc 69aa a1bc 6a31 143b f39f 8dbc

fc_shared.bias f4 [128]
0.028290443 0.019256027 0.0040951096 -0.009364513 -0.026068067 -0.0007847584 0.027713273 0.054856874
0.019089367 0.004994559 -0.0034135953 0.021742769 0.022309417 0.037638284 0.016636683 -0.009672899
0.027186334 0.00014591843 0.05437875 -0.013617681 -0.02505888 -0.0099917725 0.045336645 0.030718988
0.023110637 0.013777369 -0.038416248 -0.0042723827 -0.017336566 0.0012210766 -0.037270308 0.024177887
0.054538164 0.0013416857 0.021184027 -0.025574543 -0.01938744 0.016271431 0.0010876418 0.028554076
0.030444907 0.027093336 0.008155928 -0.0059062154 0.020868683 0.034761567 0.021441523 -0.0061114156
-0.018772278 0.00971363 0.030843344 -0.028156847 0.012737028 0.00013052132 -0.0030701014 0.02308338
-0.015321175 -0.025357429 0.014389762 0.0041144993 0.020448547 -0.016912695 -0.011990473 0.0016150922
0.022721307 0.026240937 -0.02292296 0.04847876 -0.03703283 0.018202232 0.005543311 0.052993365
0.011951996 0.005096789 0.051357143 0.0337424 0.027053153 0.030377321 -0.018591603 0.04175005
0.0036747581 -0.0070621367 -0.009669279 -0.0140728755 -0.034125004 -0.025216697 0.03965399 0.030923637
-0.033906423 0.058485504 -0.037793666 -0.025363808 0.070362404 0.04631767 0.02814995 -0.013765733
-0.023405159 0.01777109 0.0029648093 -0.0007246084 -0.0150836725 0.020719407 -0.019730382 -0.036842994
0.00785977 0.011847636 0.008502968 0.0020641852 0.02234012 -0.011811807 0.024086548 -0.009431116
-0.0128888525 0.039643753 0.0060114525 0.04405275 0.015931163 0.05236619 0.016753452 -0.02421837
0.02393155 0.0019486223 0.0070438003 0.018451845 0.04833138 0.030416243 -0.0022902603 -0.03276627
00000000: 5cc1 e73c d1be 9d3c 4530 863b 9d6d 19bc
00000010: b38c d5bc 3fb8 4dba f206 e33c 9ab1 603d
00000020: 4e61 9c3c 66a9 a33b a0b6 5fbb e41d b23c
00000030: 3dc2 b63c 9a2a 1a3d a749 883c 147b 1ebc
00000040: e0b5 de3c ae01 1939 41bc 5e3d b21c 5fbc
00000050: 4848 cdbc 88b4 23bc ebb2 393d 63a6 fb3c
00000060: 8552 bd3c 79ba 613c 5b5a 1dbd 58ff 8bbb
00000070: 6a05 8ebc 880c a03a c0a8 18bd b410 c63c
00000080: 6963 5f3d 80db af3a 208a ad3c b481 d1bc
00000090: 69d2 9ebc aa4b 853c 348f 8e3a 3dea e93c
000000a0: 9967 f93c d8f2 dd3c 71a0 053c ed88 c1bb
000000b0: cdf4 aa3c 2562 0e3d 22a6 af3c 4542 c8bb
000000c0: 52c8 99bc eb25 1f3c 2eab fc3c 30a9 e6bc
000000d0: f8ae 503c 8ddc 0839 c133 49bb 5b19 bd3c
000000e0: aa05 7bbc 62ba cfbc 09c3 6b3c ecd2 863b
000000f0: b683 a73c 7e8c 8abc b073 44bc 80b1 d33a
00000100: 0922 ba3c 3cf7 d63c eec8 bbbc aa91 463d
00000110: bdaf 17bd d91c 953c aaa4 b53b 920f 593d
00000120: 4ed2 433c f702 a73b de5b 523d 7935 0a3d
00000130: 939e dd3c dcd9 f83c 6b4d 98bc 1a02 2b3d
00000140: 36d4 703b 7f69 e7bb e56b 1ebc eb91 66bc
00000150: a9c6 0bbd 3f93 cebc 396c 223d 9153 fd3c
00000160: 76e1 0abd 7f8e 6f3d 88cd 1abd c3c7 cfbc
00000170: 2a1a 903d 99b7 3d3d b99a e63c ab89 61bc
00000180: 2dbc bfbc ad94 913c 3f4d 423b a6f3 3dba
00000190: 8221 77bc bfbb a93c 9ca1 a1bc aee8 16bd
000001a0: 44c6 003c 961c 423c 0850 0b3c 4847 073b
000001b0: a102 b73c 4f86 41bc 2751 c53c f884 1abc
000001c0: c42b 53bc 7d61 223d b8fb c43b a870 343d
000001d0: 1282 823c ee7d 563d 893e 893c 9a65 c6bc
000001e0: 190c c43c ea68 ff3a aecf e63b 5328 973c
000001f0: 20f7 453d 7c2b f93c 3118 16bb ed35 06bd

actor.weight f4 [7, 128]
-0.015871631 -0.0139188655 -0.0697149 0.0066310056 -0.009569216 -0.09964445 -0.10634998 -0.07356355
-0.079077706 -0.08794202 0.0077582384 -0.015360238 0.08132265 0.0026642794 0.0020527728 -0.028307982
-0.08914519 -0.052985925 -0.0009212598 -0.00010359223 -0.01043097 0.0073077157 -0.13003674 0.047130197
0.036900073 -0.010140066 0.0807324 0.002054343 0.013444181 0.018966723 0.022936113 0.012063489
-0.0845134 -0.043165915 0.07181121 0.0038696928 0.10735977 -0.014768192 -0.047254253 -0.070063554
0.046082377 0.02037251 0.09880796 0.05767877 0.08004263 0.035657473 0.045042597 -0.054914396
-0.08075521 -0.036198918 0.04967148 0.06846698 -0.033647828 -0.0013288088 0.041898582 0.070156366
-0.027655452 0.06380106 0.0684183 0.017032979 0.074166596 0.061675612 0.06969276 -0.06285519
-0.023028068 -0.031063683 0.09008609 -0.0944901 -0.08379039 -0.00064927037 -0.0063612903 0.022798782
0.057509094 -0.04733336 0.04420844 -0.070017956 -0.046409957 -0.042121597 0.036591534 0.022485713
-0.066781364 -0.08096359 0.0179157 -0.056942444 0.020596353 0.09263677 -0.06868599 0.045715954
0.0017121042 -0.038812887 0.09251585 0.015359974 -0.018287137 -0.0101638995 0.055909295 0.004898311
-0.023004226 -0.080645315 0.0365915 0.0020472745 -0.12312207 -0.05884824 -0.079606906 -0.082012594
-0.085870616 -0.010291471 0.050506946 0.0517713 -0.03666862 0.0524328 -0.07866756 0.018538903
-0.07490772 0.022121638 0.025773624 -0.09633603 -0.07647862 -0.08934073 -0.04013701 0.020884084
-0.1035522 -0.050102826 -0.09230037 0.004811837 0.015226832 0.07973145 0.01110856 0.016320325
-0.051117055 0.014121469 0.0125910975 -0.013633804 -0.032701846 0.044093292 -0.07851448 0.041825496
0.06383474 -0.15995741 0.08170921 -0.078038044 0.09220307 -0.0708035 0.07820608 -0.029525824
0.032268066 -0.0019253714 0.09331349 0.09199203 -0.06236923 0.0569765 -0.07079459 0.108305596
-0.04609513 -0.029277192 -0.03722277 -0.06460648 -0.0568785 0.051128175 0.0719595 0.034974806
0.06284757 -0.08918321 0.018527914 0.014389024 0.028539184 -0.08079852 0.052120246 0.08095349
0.09111691 -0.0143031785 0.053389955 0.05421888 0.07087678 0.09485574 -0.029353324 0.06854333
0.06692654 -0.0011932313 0.09510379 -0.0037290456 -0.041271087 -0.008835796 -0.030890476 0.09827688
0.009332749 0.03404301 0.0776942 0.07844111 -0.051636674 0.04476094 -0.02829802 -0.12173082
-0.012512155 -0.0028887556 -0.05843672 -0.053655848 -0.039820533 -0.03179977 0.08273219 -0.07831565
0.008804581 0.0803844 0.02364186 -0.044176728 -0.0431539 0.095106326 0.015969418 -0.04318601
0.084872946 0.0018584378 0.04246462 -0.012555712 0.057738684 0.07604662 -0.08105367 0.019460317
0.01854729 0.10608699 -0.030231366 0.078121565 0.01135303 -0.07621821 -0.06588801 0.037473876
0.026445094 -0.04520749 0.0134101715 0.011264998 -0.04742427 0.05354994 -0.083875805 0.0822882
-0.09164758 0.09492411 0.06954012 0.08524355 0.058021743 0.077357575 -0.14352152 0.0024220739
0.05945162 0.012626403 0.08810287 0.02751312 -0.11920346 -0.0014731195 -0.05141253 0.050012123
-0.024670133 -0.041539896 0.08808793 -0.05542592 0.024526047 0.066522166 -0.087406024 -0.034482438
00000000: 3905 82bc f40b 64bc afc6 8ebd e848 d93b
00000010: 33c8 1cbc 6412 ccbd 05ce d9bd 7da8 96bd
00000020: 7ef3 a1bd f21a b4bd d238 fe3b 82a9 7bbc
00000030: 7d8c a63d 319b 2e3b d087 063b 24e6 e7bc
00000040: c191 b6bd c507 59bd b380 71ba a83f d9b8
00000050: a9e6 2abc 9075 ef3b 5a28 05be 980b 413d
00000060: 8824 173d 8522 26bc 0757 a53d 28a2 063b
00000070: fb44 5c3c 1a60 9b3c 84e4 bb3c f1a5 453c
00000080: 5d15 adbd bece 30bd c111 933d ac9a 7d3b
00000090: 70df db3d 49f6 71bc ad8d 41bd 7b7d 8fbd
000000a0: e0c0 3c3d 40e4 a63c d45b ca3d 9340 6c3d
000000b0: 64ed a33d 920d 123d 967e 383d ebed 60bd
000000c0: fd62 a5bd 5145 14bd 5274 4b3d 6a38 8c3d
000000d0: 4ed2 09bd 6d2b aeba d99d 2b3d 24ae 8f3d
000000e0: b08d e2bc 21aa 823d e51e 8c3d bf88 8b3c
000000f0: a8e4 973d 919f 7c3d 14bb 8e3d 39ba 80bd
00000100: 5ca5 bcbc 4479 febc 0e7f b83d 0784 c1bd
00000110: 4c9a abbd cc33 2aba 5f72 d0bb 83c4 ba3c
00000120: a88e 6b3d a0e0 41bd e913 353d 9365 8fbd
00000130: 5e18 3ebd b287 2cbd 01e1 153d f533 b83c
00000140: abc4 88bd 3dd0 a5bd f2c3 923c 7b3c 69bd
00000150: afb9 a83c 59b8 bd3d 3eab 8cbd a740 3b3d
00000160: af68 e03a 43fa 1ebd f378 bd3d 66a8 7b3c
00000170: e8ce 95bc 7c86 26bc 2501 653d 0382 a03b
00000180: 5c73 bcbc 5f29 a5bd f8e0 153d 912b 063b
00000190: 6d27 fcbd da0a 71bd f208 a3bd 38f6 a7bd
000001a0: efdc afbd 8f9d 28bc 5fe0 4e3d 250e 543d
000001b0: d631 16bd c7c3 563d 751c a1bd e6de 973c
000001c0: 3869 99bd 7038 b53c 3523 d33c d34b c5bd
000001d0: d3a0 9cbd 46f8 b6bd b566 24bd 1915 ab3c
000001e0: 2d13 d4bd 9f38 4dbd fa07 bdbd 9dac 9d3b
000001f0: f679 793c 3e4a a33d ad00 363c 34b2 853c
00000200: 1e60 51bd bc5d 673c e44a 4e3c 5260 5fbc
00000210: 5ff2 05bd 2b9b 343d 33cc a0bd 3651 2b3d
00000220: cabb 823d e0cb 23be 2957 a73d 69d2 9fbd
00000230: f7d4 bc3d 6d01 91bd 822a a03d 24e0 f1bc
00000240: 852b 043d be5c fcba 251b bf3d 5166 bc3d
00000250: e176 7fbd 3160 693d c1fc 90bd 53cf dd3d
00000260: 3fce 3cbd b9d6 efbc e776 18bd 6750 84bd
00000270: 6ef9 68bd c76b 513d 815f 933d be41 0f3d
00000280: 3ab6 803d b0a5 b6bd dac7 973c f1bf 6b3c
00000290: 02cb e93c b279 a5bd 0a7c 553d f2ca a53d
000002a0: 819b ba3d e157 6abc 6daf 5a3d 9e14 5e3d
000002b0: d827 913d ba43 c23d 6276 f0bc 7260 8c3d
000002c0: c810 893d 3366 9cba c7c5 c23d 0163 74bb
000002d0: df0b 29bd 04c4 10bc 060e fdbc 6445 c93d
000002e0: 63e8 183c af70 0b3d 231e 9f3d bca5 a03d
000002f0: fa80 53bd 3f57 373d 40d1 e7bc 024e f9bd
00000300: c8ff 4cbc 4751 3dbb 585b 6fbd 3cc6 5bbd
00000310: db1a 23bd 7a40 02bd 7f6f a93d f563 a0bd
00000320: 1741 103c 94a0 a43d 93ac c13c a8f2 34bd
00000330: 25c2 30bd 1bc7 c23d 4cd2 823c d0e3 30bd
00000340: ded1 ad3d d396 f33a 62ef 2d3d 79b6 4dbc
00000350: 667f 6c3d 55be 9b3d 77ff a5bd 3e6b 9f3c
00000360: 7cf0 973c 2344 d93d c5a7 f7bc 33fe 9f3d
00000370: 0f02 3a3c 4b18 9cbd 4bf0 86bd 357e 193d
00000380: 62a3 d83c 7d2b 39bd 56b6 5b3c d390 383c
00000390: f43f 42bd 2f57 5b3d 14c7 abbd b786 a83d
000003a0: bab1 bbbd 9267 c23d 0d6b 8e3d 2c94 ae3d
000003b0: 35a8 6d3d a66d 9e3d 4ef7 12be a8bb 1e3b
000003c0: 8b83 733d f9de 4e3c 476f b43d 3263 e13c
000003d0: f220 f4bd b015 c1ba f295 52bd 83d9 4c3d
000003e0: 0519 cabc bd25 2abd 7267 b43d 4a06 63bd
000003f0: d9ea c83c c63c 883d ee01 b3bd 753d 0dbd

actor.bias f4 [7]
-0.10801858 0.046851054 0.10328944 -0.029753748 0.08419846 -0.032870635 -0.024186656
00000000: d838 ddbd e4e6 3f3d 6a89 d33d 22be f3bc
00000010: 3e70 ac3d 5ca3 06bd 1823 c6bc

critic.weight f4 [1, 128]
0.04415957 -0.048174925 -0.048129376 0.037241183 0.058168467 0.0045810677 -0.042424098 -0.05131787
-0.024125418 -0.008884486 0.055949613 0.026202912 0.028998753 -0.05472465 -0.008808276 0.007908507
0.06684507 -0.03934307 -0.04984431 -0.072123915 -0.005498587 0.04798588 0.0012985113 -0.0054673273
-0.06695588 0.0071228235 0.024999334 -0.06593446 0.0074194665 -0.05940414 0.04828125 -0.020369606
-0.06420624 -0.069239415 0.085348964 0.011438994 0.0072389925 0.037996896 0.04285764 0.06793436
0.07234349 0.06659705 0.044596802 -0.059479028 0.039371934 -0.008968868 -0.024723215 0.079656854
0.07691426 0.070678 -0.03188762 0.001809773 0.031604394 -0.01711115 -0.05969008 -0.009598281
0.0666964 0.06950337 -0.055591907 0.041034564 -0.00094696344 -0.048846137 0.06088711 -0.0070661623
0.080959626 -0.056320917 0.0605215 -0.013120018 0.008679327 0.042144347 -0.025544526 -0.04296182
-0.066998005 0.010990582 -0.06596273 -0.07207175 0.06330847 -0.06151713 0.0628226 -0.068314
0.010715503 0.07623547 0.060036894 0.07566222 0.051948246 -0.015052832 -0.0039003748 -0.06561662
0.05856094 -0.013114805 0.035045777 -0.005185114 -0.015081912 -0.07487162 -0.043486793 -0.06258901
0.07330106 -0.07395816 -0.07367227 -0.012041095 0.021497007 -0.05234363 0.041154254 0.06712121
-0.016915008 -0.010081624 -0.05426831 0.009307796 -0.008609257 -0.051845733 0.02178117 -0.050825994
0.051316693 -0.056164205 0.02553949 -0.028026747 -0.022680866 -0.012740062 0.031456932 0.015119104
-0.0007089862 0.054840077 -0.06670485 -0.050554417 -0.027271284 0.03646588 -0.059847306 0.01760945
00000000: aae0 343d 1253 45bd 4f23 45bd 368a 183d
00000010: 0f42 6e3d c81c 963b e4c4 2dbd b032 52bd
00000020: aba2 c5bc 3c90 11bc 6c2b 653d 7da7 d63c
00000030: cb8e ed3c f426 60bd 9650 10bc af92 013c
00000040: 11e6 883d 3326 21bd 8c29 4cbd b4b5 93bd
00000050: 7e2d b4bb d88c 443d cf32 aa3a 4427 b3bb
00000060: 2a20 89bd 9366 e93b 67cb cc3c a508 87bd
00000070: ff1e f33b c151 73bd 8fc2 453d 29de a6bc
00000080: 907e 83bd 65cd 8dbd 70cb ae3d 9e6a 3b3c
00000090: 1235 ed3b a2a2 1b3d 7e8b 2f3d 2b21 8b3d
000000a0: d328 943d 0964 883d 23ab 363d 48a0 73bd
000000b0: 7744 213d 29f2 12bc 5788 cabc 2223 a33d
000000c0: 3985 9d3d a1bf 903d 989c 02bd e835 ed3a
000000d0: 9c73 013d af2c 8cbc 967d 74bd 1c42 1dbc
000000e0: 1f98 883d c857 8e3d 57b4 63bd dc13 283d
000000f0: a43d 78ba e312 48bd c364 793d 448b e7bb
00000100: 29ce a53d c3b0 66bd 64e5 773d 58f5 56bc
00000110: bc33 0e3c 8d9f 2c3d c142 d1bc bcf8 2fbd
00000120: 4036 89bd d811 343c 7817 87bd 5b9a 93bd
00000130: dfa7 813d 63f9 7bbd 23a9 803d 36e8 8bbd
00000140: 1490 2f3c 5821 9c3d 3fe9 753d cbf4 9a3d
00000150: afc7 543d 27a0 76bc 6e9d 7fbb 0262 86bd
00000160: 99dd 6f3d 7bdf 56bc 298c 0f3d e4e7 a9bb
00000170: 201a 77bc 4b56 99bd 351f 32bd ab2e 80bd
00000180: de1e 963d 6077 97bd 7de1 96bd 0348 45bc
00000190: 7e1a b03c 4666 56bd 5d91 283d d876 893d
000001a0: 5891 8abc 652d 25bc 7348 5ebd ba7f 183c
000001b0: d70d 0dbc 315c 54bd 6d6e b23c eb2e 50bd
000001c0: 7431 523d 700c 66bd 3138 d13c 5998 e5bc
000001d0: 39cd b9bc b1bb 50bc fcd8 003d 1eb6 773c
000001e0: 42db 39ba fd9f 603d 8d9c 88bd 2612 4fbd
000001f0: 0768 dfbc 3f5d 153d 7322 75bd b141 903c
