trained_models/PPO/ppo_connect4_model_1_2epochs.pt (torch, 537886 bytes, 9 tensors)

conv1.weight f4 [64, 1, 4, 4]
000000 a5 59 5b 3e 49 38 50 be 7e 6e 2f be 55 c8 62 be
       0.21420915 -0.20333971 -0.17131993 -0.22146733
000010 34 72 d5 3d 1e a9 09 be 9b 9d 57 be 63 f6 26 3e
       0.10422173 -0.1344342 -0.21056215 0.16304927
000020 35 04 69 bc 7e f2 b9 3c 13 81 e1 3d aa e4 5e be
       -0.014222194 0.022698637 0.11010947 -0.21766916
000030 57 47 6c 3e 68 1c 43 bd 12 ef 07 3e 0c 3f 5d 3e
       0.23074089 -0.047634512 0.13274792 0.21606082
000040 17 f7 a7 bd f0 11 4f 3e 47 d2 81 bd 5d db 9b 3e
       -0.082014255 0.20221686 -0.06338935 0.30440798
000050 02 ae e7 3c 43 95 16 3e f1 0c c8 3d 4b 13 00 3e
       0.028281216 0.14705376 0.097680934 0.1250736
000060 bb 49 f8 bd 42 44 9c 3d 74 28 09 be 07 a5 f2 3d
       -0.12123438 0.07630207 -0.13394338 0.11847883
000070 6c ec 81 bd 08 ee 70 be 13 aa f7 3c 3f 01 b7 3c
       -0.06343922 -0.23528302 0.030232465 0.022339461
000080 d4 4e 7a be 41 b1 b6 3c 50 9e 66 3d 09 24 aa 3c
       -0.24444133 0.022301318 0.056303322 0.020769136
000090 78 78 34 3e 23 7e 72 3e 15 f5 f7 bd 80 e9 1e 3e
       0.1762408 0.2368093 -0.121072926 0.1551876
0000a0 90 36 3c 3b d9 96 77 3d 1e c2 1a 3e 3c bc 69 3e
       0.0028719045 0.060446594 0.15113112 0.22825712
0000b0 cf de cd 3d 84 3e a5 3d 2b d4 0a 3e 37 2c 3e 3d
       0.10052263 0.080685645 0.13557498 0.046428885
0000c0 fa d7 68 be bf 86 50 be a7 2c d0 3c fd df a5 3e
       -0.22738639 -0.20363902 0.025411917 0.32397452
0000d0 b2 c6 1d be 56 69 55 bd 8d b1 0e 3e da 10 2c 3e
       -0.15407827 -0.05210241 0.13934918 0.16803303
0000e0 49 2d 04 3d 52 0c 90 bd 89 8f d2 3c 8e 37 42 be
       0.03226975 -0.070336 0.025703209 -0.18966505
0000f0 83 5c bc 3d 55 b1 d5 bd de ee 8f bd 8b 32 aa 3d
       0.09197333 -0.10434214 -0.07027982 0.083104216
000100 00 44 3a 3e b4 12 74 3e 03 b8 eb 3d 08 a3 a9 3d
       0.18190002 0.2383526 0.11509707 0.08283049
000110 65 7e 23 be 50 0f 89 3c 02 87 51 3e de 1f 0e be
       -0.15966184 0.016730934 0.20461658 -0.13879344
000120 5f dc 1a be 75 bc 25 3e fd 43 1e 3e e2 77 e6 bd
       -0.15123127 0.16185172 0.15455623 -0.112533346
000130 97 a9 81 bd 25 e5 b8 bd 73 41 12 3e 15 88 28 be
       -0.06331175 -0.09028081 0.1428278 -0.16458161
000140 92 aa 21 3e 6b c4 09 be d3 12 87 bc bf 92 2a 3e
       0.15787724 -0.13453834 -0.016488468 0.16657542
000150 eb cf 3f 3e 97 49 5a 3e dc 36 23 3d 64 2c be bb
       0.18731658 0.21317135 0.03984724 -0.0058036316
000160 c4 76 e0 bb a0 5d e3 bd 05 9d c2 3d 9f e6 82 bd
       -0.0068500955 -0.11101842 0.09502605 -0.06391644
000170 03 c3 0d 3d 61 ee 56 be de a4 a0 3c 10 1c 7f 3e
       0.034609806 -0.20989372 0.019609865 0.24913049
000180 22 c0 cd 3d c8 6e d4 3d a2 cb 0a be 0c ee ac 3d
       0.10046412 0.10372692 -0.13554242 0.08443841
000190 7a 2c d6 3d e1 cf 36 bd 2f 85 fb 3d d7 0a 1b 3d
       0.10457702 -0.044631843 0.12281262 0.037852135
0001a0 d9 9a 7f 3e 6f ac 91 bd 91 68 74 3e 22 b3 5f 3e
       0.24961413 -0.07112967 0.23868014 0.21845677
0001b0 6c 00 ba bd 52 f9 41 3e 15 3d 41 bd fe 71 0b bd
       -0.09082112 0.18942764 -0.047177393 -0.03404426
0001c0 33 6c ab 3c a8 78 24 be ff b4 1e bd 66 1e 6f be
       0.020925617 -0.16061652 -0.03874683 -0.2335144
0001d0 b3 62 6b bc e6 95 1a be 87 54 19 3e cc 89 4b be
       -0.014366793 -0.15096244 0.14973651 -0.19876784
0001e0 10 b5 30 3e 46 14 90 3d 28 e7 ff 3c 0b 5c 54 be
       0.1725657 0.07035117 0.031238154 -0.20738237
0001f0 b9 c2 45 be f3 37 71 be d1 b7 7a bd b8 3d 54 3e
       -0.19312562 -0.23556499 -0.061210457 0.20726669
000200 cd 23 a3 3d a7 dd 5a 3e bc 80 3c be 56 8f 96 bd
       0.07965813 0.21373616 -0.18408483 -0.07351558
000210 ac 1f 39 3e ec fb 3c bd 38 25 24 3e 31 40 3c 3e
       0.18078488 -0.04613869 0.16029823 0.18383862
000220 b1 68 49 3e 96 e5 53 be 96 2f 5d be 87 a9 d1 bc
       0.19668843 -0.20693049 -0.21600184 -0.025593532
000230 ff 72 96 bd 63 47 61 be 25 67 d1 3a 42 4b 55 3e
       -0.073461525 -0.21999888 0.0015976174 0.2082949
000240 7b 21 ae 3d c9 b3 ae bc 84 36 84 3e 24 e2 ed bd
       0.0850248 -0.021325963 0.25822842 -0.116153985
000250 de 32 e3 3d 30 41 27 3e bc 31 d5 3b c9 71 3a 3e
       0.110936865 0.16333461 0.006506173 0.18207468
000260 3c a4 2e 3c 67 85 eb 3a 2b a6 24 3e e5 61 6a be
       0.010659274 0.0017968834 0.16079013 -0.22888906
000270 fc e2 10 be e3 4e 80 3d ed 9c 6d 3e ec e4 31 3e
       -0.14149088 0.062650464 0.23204394 0.17372483
000280 19 b4 75 3e 52 97 cd bd 19 84 e5 3d 7c 2f 39 3e
       0.23994483 -0.10038628 0.11206836 0.1808452
000290 d0 4c 00 be d2 90 6b be 59 bc 52 3d 1b 28 2c 3e
       -0.12529302 -0.23004463 0.051449154 0.16812174
0002a0 4c 98 c4 3d d0 82 ef bd 1d 2f 3a be 45 6e 17 3e
       0.09599361 -0.116948724 -0.18182035 0.14788158
0002b0 73 ef f0 bd 25 44 f4 3d 57 0a db 3c 34 85 41 be
       -0.11764421 0.1192706 0.026738329 -0.18898469
0002c0 23 62 ba bd 1f c7 25 bd 78 b2 63 be c5 94 51 be
       -0.09100749 -0.0404731 -0.22236049 -0.20466907
0002d0 3d 79 35 3d 76 a0 73 3e 1e 17 26 bd 53 6c 4c 3e
       0.044305075 0.2379168 -0.04054939 0.19963197
0002e0 fd 85 f8 bd 1e 96 e4 3d 2a 0d 99 3d 33 4e 6b 3e
       -0.12134931 0.11161445 0.07473214 0.2297905
0002f0 f2 7e 22 3e 41 4b 38 be 11 c5 ff 3d 58 00 aa 3c
       0.15868738 -0.17997457 0.12488759 0.020752117
000300 e3 bf 78 3d da e1 5c 3e 19 33 18 bc dd 08 3b be
       0.060729872 0.2157053 -0.009289526 -0.182651
000310 c6 7e 7a 3e 29 be df 3d 23 46 4f 3d 87 4f 02 be
       0.24462423 0.10924942 0.050603997 -0.1272565
000320 39 5d 21 3d 3e 05 2c be 8d b6 f8 bd c7 e3 30 3e
       0.039395545 -0.16798875 -0.12144194 0.1727439
000330 d2 15 ca 3c 39 aa 6a 3e 60 45 8b bd e1 9e 51 3e
       0.024668608 0.22916497 -0.068003416 0.20470764
000340 7f e0 e1 bd 46 dd 9b 3e e5 a1 b8 bd fa d6 a7 bd
       -0.11029147 0.30442256 -0.09015254 -0.081953004
000350 a0 64 98 3d 32 01 28 3d 0e 04 58 bd ff dd 6b be
       0.07441068 0.041016765 -0.05273824 -0.23033904
000360 83 99 ae bd 64 e2 2b 3d 43 74 c9 bd 2f fd f9 3d
       -0.08525374 0.04196395 -0.09836628 0.12206494
000370 e8 f9 5f 3e 2f 9d 2f be 10 36 b4 3c 91 5f e3 bd
       0.21872675 -0.17149805 0.021998435 -0.11102212
000380 eb 7f a8 3e 82 f5 91 3e 5d 22 2c 3e 4e 5a d5 3d
       0.32910094 0.2850762 0.16809984 0.10417615
000390 d4 26 68 3e 62 5c 28 3e 21 a6 6f 3e 21 ea 29 be
       0.22671062 0.16441491 0.23403217 -0.1659322
0003a0 b1 fb 48 3e df 6f 48 be a5 41 5a 3e a3 e4 1c be
       0.19627263 -0.19573925 0.21314104 -0.15321593
0003b0 40 70 bd 3d 60 95 31 3e 4a 7a f7 bd bc d2 18 be
       0.092499256 0.17342138 -0.12083872 -0.14924139
0003c0 86 a9 46 bd e1 20 42 be e6 80 57 3e fc fb 2e 3e
       -0.048501514 -0.18957855 0.21045265 0.17088312
0003d0 29 06 cf 3d 09 fa 08 3b 2c fe 10 be 95 f0 53 be
       0.10108597 0.0020900986 -0.14159459 -0.20697244
0003e0 cc e1 5e 3e b5 7d b8 bd f2 c4 d5 3c c1 bf ab 3d
       0.21765822 -0.09008352 0.026094887 0.083861835
0003f0 31 98 2f bc 15 d7 47 be 68 8e f8 bc 31 f3 7f be
       -0.010717438 -0.19515641 -0.030341342 -0.24995114

conv1.bias f4 [64]
000000 b7 4c c1 3d cc 9d 10 3e 3a 2c 11 3e 76 8f 34 be
       0.0943846 0.14122695 0.14177027 -0.17632851
000010 00 80 46 3d ef 76 42 be 93 61 42 be 09 fe 4b be
       0.048461914 -0.18990682 -0.18982534 -0.19921125
000020 8d 89 bd 3d e7 4c 04 be 69 c7 0e bc be 6c 46 3e
       0.09254751 -0.12919961 -0.008714535 0.1937742
000030 65 ad 3c be b5 61 fc 3d b3 fd 39 be ec fd cd b9
       -0.1842552 0.12323324 -0.18163185 -0.00039289834
000040 e4 47 69 3e fd ff 27 3e ae 8f 7f bd 71 99 89 ba
       0.2278133 0.16406246 -0.062392883 -0.0010498
000050 e7 b1 4b be 77 f1 77 be d7 73 07 be ef ac 1d 3e
       -0.19892083 -0.24213205 -0.13227783 0.15398
000060 08 bc a9 bd 77 61 9f bb 37 53 05 3e db b3 17 3e
       -0.08287817 -0.0048639136 0.13020025 0.14814703
000070 ca fc 17 be 15 f7 7d 3e cb 32 1e be a9 0a ea 3c
       -0.14842525 0.24801286 -0.15449063 0.028569536
000080 4d 53 41 be 1b 07 fc 3d cc d1 e8 3d df c2 7f bc
       -0.18879433 0.12306043 0.113681406 -0.015610426
000090 49 9a 23 3e 7c 89 5a be e3 d0 29 bd 08 4a fc bd
       0.15976824 -0.21341509 -0.041458976 -0.12318808
0000a0 c6 fc 60 3d 03 7d 44 3e 5d ae 5d 3e 96 96 fb bc
       0.054928564 0.19188313 0.21648546 -0.030711453
0000b0 5c e1 ee 3b fb cb 17 3e 27 65 3d be 97 0c ca 3d
       0.0072900485 0.14823906 -0.18495618 0.098656826
0000c0 96 e7 63 3e 62 a1 66 3e 5c d9 11 be de 0d 29 3d
       0.22256312 0.225225 -0.14243072 0.04127299
0000d0 3c 0a c5 bc c4 0f 34 3e 8b a4 74 be 11 7a 17 3e
       -0.024052732 0.17584139 -0.23890893 0.14792658
0000e0 13 71 9c 3d c3 70 47 3e 89 14 4c 3d 86 52 19 3e
       0.07638755 0.19476609 0.04982427 0.14972886
0000f0 c6 5d 06 be 69 fa 62 bd 4f 17 e6 3d 52 dd 08 be
       -0.13121709 -0.05541459 0.112349145 -0.13365677

conv2.weight f4 [128, 64, 2, 2]
000000 d6 5d 10 3a 08 01 5e bd 68 27 f4 3c bc 62 b6 3c
       0.00055071467 -0.054200202 0.029803947 0.022263877
000010 5d 4e 13 bd c4 34 d3 3b b9 53 80 bd 56 5b 2e 3d
       -0.035963405 0.006445499 -0.06265969 0.042567573
000020 1d cd bf bc e9 bb 0b 3d 2c 1a 3b ba 91 45 4f bc
       -0.023413235 0.034114752 -0.0007137384 -0.012650863
000030 4b 26 11 3d 45 18 94 3d c1 64 14 bd 9d 6e 08 3d
       0.03543691 0.072311915 -0.0362289 0.033308614
000040 43 0a 9d 3a 4b 20 6d bd 37 5f 1a 3d f5 3f 57 bd
       0.0011981208 -0.057892125 0.03768846 -0.05255123
000050 c8 56 24 bd 34 74 f1 3c 13 31 c9 3c 21 c9 5b bd
       -0.040121824 0.029474355 0.024559533 -0.05365861
000060 a8 03 1d 3d f7 e1 14 3d 16 aa de bb 2d a8 03 bd
       0.038333565 0.03634831 -0.006795178 -0.032142807
000070 4a 54 61 bd ae ef 03 3d ac bc b4 bc 58 13 46 bd
       -0.055012025 0.032211 -0.022062622 -0.04835829
000080 36 ad a1 bc b7 99 40 bd 58 78 da 3a 6f 99 4e bd
       -0.019735914 -0.047021594 0.0016667945 -0.050439294
000090 ab 47 50 3d 7b 13 f5 bb 98 5f 1d 3d 89 e3 1b 3d
       0.050849598 -0.007479129 0.038421243 0.03805879
0000a0 3b f4 68 3d 5c 12 d6 3d 5c 9d 52 bd 8b 70 22 bc
       0.05687354 0.104527205 -0.0514196 -0.009914528
0000b0 f3 70 21 ba da 81 30 3d 0e b6 cc 38 f5 a8 4c bd
       -0.00061584933 0.043092586 9.761388e-05 -0.049965817
0000c0 ac 5e c5 3c 34 89 02 bd 04 c3 71 bd 8f 21 41 3c
       0.024092995 -0.03186913 -0.059023872 0.011787786
0000d0 7d be 48 bd 61 8f 79 3d 65 71 61 3d b6 8a 08 bd
       -0.04900979 0.060927752 0.055039782 -0.03333541
0000e0 c4 25 c4 3d d0 87 25 bb dd 1e 94 3c 36 c5 85 bd
       0.09577516 -0.0025257953 0.018081123 -0.065317556
0000f0 42 d6 8c 3c 56 c7 75 bd 22 5a 32 bc c8 b3 14 3d
       0.01719201 -0.060004555 -0.010885747 0.036304265
000100 76 61 00 bd 7a a8 5c bd ba 3b 91 bc 37 e1 4a bd
       -0.031342946 -0.05387161 -0.017728675 -0.049531188
000110 17 e2 11 bd 21 bf 22 bb 76 f1 02 bd 94 41 80 3d
       -0.035616007 -0.002483316 -0.031968556 0.06262508
000120 91 bd 83 3c 6a 62 34 bd 83 fe 20 3c 57 b8 ef b9
       0.016081603 -0.044039167 0.009826305 -0.00045722976
000130 88 9e 80 bd d5 07 2f 3d 6d 09 15 3d ad 32 4d bd
       -0.062802374 0.04273208 0.036385942 -0.050097156
000140 e3 70 72 bd 28 ad 63 3c 53 75 02 3d eb 63 8d bd
       -0.05918969 0.013896264 0.03185017 -0.069038235
000150 fd 57 ed 3c a0 41 6f bd c4 d2 80 bb f3 61 28 3d
       0.02897262 -0.058412194 -0.003931375 0.041109037
000160 a4 2f 59 bd 1a 12 67 bd bd 7a 7a bd f3 a6 a7 bb
       -0.05302395 -0.056413747 -0.06115221 -0.0051163374
000170 40 bc 40 3d d2 de 6d 3d 27 0e 22 3d 4c 7f cc bc
       0.04705453 0.058073826 0.039564278 -0.024963044
000180 36 58 69 3d 28 33 29 3d ac ab da bb 4d 32 74 bd
       0.05696889 0.041308552 -0.006673297 -0.059618283
000190 e4 bb a3 3c 17 d1 8d 3a 3f 91 1f bc 10 2f 25 3d
       0.019987054 0.001081976 -0.009739219 0.040328085
0001a0 c8 2b 94 3d e6 8c 9d 3d 6d c9 3e 3d a6 b9 26 3d
       0.07234913 0.0769289 0.046578813 0.040704392
0001b0 63 85 a8 ba 1b bc e5 bc c3 0b 9f bc f7 83 3d 3d
       -0.0012857135 -0.028043797 -0.019414788 0.04626843
0001c0 38 65 f4 3c e5 b8 70 3d 43 44 5f 3d de 1f ab 3c
       0.029833421 0.05877008 0.05450846 0.020889219
0001d0 eb 45 c0 3c 07 69 10 bc f2 23 32 bd cb d7 36 bd
       0.02347084 -0.008814103 -0.04349131 -0.04463939
0001e0 79 f3 60 3d 96 9b 9d 39 3e 66 98 3c 46 e1 3a ba
       0.054919694 0.00030061294 0.01860344 -0.0007128905
0001f0 fa 54 e8 3c 3d a0 5c bd 02 2e bf bc 06 47 40 bd
       0.028360832 -0.053863753 -0.023337368 -0.046942733
000200 05 7d 63 bb c6 01 54 bd d3 09 b0 3b ad ca 5b bd
       -0.0034711969 -0.051759504 0.005372265 -0.053660084
000210 65 09 d6 bc fc c0 8a 3d 7c e6 9a 3c fd dd a9 ba
       -0.026127527 0.0677509 0.018908732 -0.0012959834
000220 a9 ae 4b bd 93 ee 59 bd 9b 55 55 3d ee 4c 6d 3d
       -0.049727116 -0.053206038 0.052083593 0.057934694
000230 93 fc c5 3c 41 c7 9d bc e3 94 8c 3d c8 8a c2 bc
       0.024168288 -0.01926005 0.068643354 -0.023747817
000240 30 da fd bc bc 25 9a ba 6e fe da 3c 21 8f e4 bb
       -0.030987829 -0.0011760513 0.02673265 -0.00697507
000250 70 8b 57 3d c6 16 e7 3b 70 be 87 bc 0f 5e 81 bc
       0.052623212 0.0070522754 -0.0165703 -0.015791921
000260 45 12 ff bc 30 1c cf 3d 4e e5 3b bd 6c fb 67 3c
       -0.031136641 0.10112798 -0.04587298 0.014159065
000270 42 02 43 bc 33 c8 65 bb cb da 74 bb 71 14 18 bd
       -0.011902394 -0.0035061955 -0.0037361856 -0.03712887
000280 7b c4 32 3d 06 ad 5f 3a 43 51 86 3d b1 27 02 bd
       0.04364441 0.00085325574 0.06558468 -0.031776134
000290 30 c0 8a bc 20 34 3d bd f9 2f 5e 3d 4a 04 9f bc
       -0.016937345 -0.04619229 0.05424497 -0.019411225
0002a0 64 d4 87 3d 79 e9 47 3a 5f 6e 29 bb cb 50 1d 3d
       0.06632307 0.00076260377 -0.002585314 0.03840713
0002b0 0c b8 21 bd 6d 6a 1d bc 73 15 c2 3c 67 02 2f 3d
       -0.03948216 -0.009607893 0.023691868 0.0427269
0002c0 9c 62 df 3c 02 68 90 3b d4 37 90 bc 9f 87 db 3c
       0.0272687 0.00440693 -0.017604746 0.026798068
0002d0 0a 95 14 bd a1 58 3e 3c ea dd a2 3c 46 2e c9 ba
       -0.036274947 0.01161781 0.019881207 -0.0015348874
0002e0 ab 8b e8 bc 59 7c 4f bb e2 86 4c 3c d9 58 55 3b
       -0.028386911 -0.003165981 0.01248333 0.0032554178
0002f0 88 bc fd bc 0f f2 12 bd f0 01 c0 bb 19 1f 42 3d
       -0.030973688 -0.035875376 -0.005859606 0.04739294
000300 ed 7c 9a ba 29 e6 58 3d 57 b6 11 bd ca b6 17 3d
       -0.0011786498 0.052953873 -0.035574283 0.037039556
000310 1a fb 41 3d 04 30 88 3d 4e 34 6d bd 75 2d cf 3c
       0.04735861 0.06649783 -0.05791121 0.02529023
000320 93 79 de 3c ce 0a c0 3b 9e 13 1b bd 26 2a 83 3d
       0.02715758 0.005860663 -0.037860505 0.064045236
000330 4f 7d 06 bc f6 90 8b 3b 92 31 af 3b 99 2c 1c 3d
       -0.008208587 0.004259224 0.0053464854 0.03812847
000340 97 d1 2f bd f2 c8 1f 3d ac 9a 02 3d 82 37 0b 3b
       -0.04292449 0.039009996 0.031885788 0.0021242802
000350 36 f1 93 bc 21 4d f1 bc ac d9 22 bd f5 7f 7e 3d
       -0.018059354 -0.029455723 -0.03975837 0.062133748
000360 7b 6b 5b 3d fe c5 4a bd d3 2c ce 3c 62 ac 5f bd
       0.0535693 -0.049505226 0.025167858 -0.054607756
000370 1b 06 42 3b 50 c0 91 3d 73 37 91 bc 49 b6 0f 3d
       0.002960569 0.07116759 -0.017726636 0.03508595
000380 1a 9f 2d bd 95 b0 20 bd aa dc 98 bd 96 10 ef 3c
       -0.04238806 -0.0392309 -0.07463963 0.029182713
000390 66 da 55 bd 3b 89 4a 3d fd 61 1b 3b b3 0b b8 bc
       -0.052210234 0.04944728 0.0023709529 -0.022466516
0003a0 78 5a 23 bd 00 7b 27 3d 15 b5 04 39 e0 44 c1 3c
       -0.0398812 0.040888786 0.0001265596 0.023592412
0003b0 d9 e5 35 bd 26 60 39 3b 6e 53 01 3d 3b e3 e2 bc
       -0.044408653 0.0028286069 0.031573705 -0.027696243
0003c0 63 bc 20 3d f2 62 65 bb 8c 3e 02 3d 9a 63 3e bd
       0.03924216 -0.0035001603 0.03179793 -0.046481706
0003d0 a8 ef 87 3b 3d a7 75 3d 5f 34 b5 bc a5 2b ff 3c
       0.0041484423 0.059973944 -0.022119699 0.031148741
0003e0 92 ea e2 bc b6 c3 ea bc 5e 95 18 bd 19 23 65 3d
       -0.027699742 -0.028657775 -0.037251823 0.055941675
0003f0 6a a6 26 3d 4c 35 24 bd 3f 0b de 3c 8e ad 42 bc
       0.04068605 -0.04008989 0.027104972 -0.011882199

conv2.bias f4 [128]
000000 14 1f 40 bd fb e8 9c bb 2b ae 51 bb ff d1 9b 3c
       -0.04690464 -0.0047885156 -0.0031994681 0.019021032
000010 c8 ad 4c bc 90 04 8f bd 5d c4 7e 3d 0b b1 34 3d
       -0.012492605 -0.06983292 0.062198985 0.044114154
000020 d8 cf a7 3a 96 29 d2 3c 2e 5a 52 3a b0 ee b3 bc
       0.0012803031 0.025654595 0.0008024302 -0.021964401
000030 c9 0f 1c bd e0 46 77 bd 00 04 ca bc 8c d6 ce 39
       -0.03810099 -0.060370326 -0.02466011 0.00039451232
000040 8e dc 0f 3d 6e cc e0 bc 73 b7 7f 3d c3 60 1c bd
       0.035122447 -0.02744123 0.06243081 -0.038178217
000050 84 96 19 bd 79 79 b0 3c bb bd b5 bc be da 08 3d
       -0.03749706 0.021542298 -0.022185197 0.033411734
000060 56 77 f8 bc b2 2b 15 3d 3e 79 0b 3c ee 4e a1 bc
       -0.030330341 0.036418624 0.008512793 -0.019690957
000070 e1 89 16 bd 9e 62 df bc 7c fd e2 3c e7 46 6d bd
       -0.036752585 -0.027268704 0.027708761 -0.057928946
000080 88 14 1e bd cd 13 6e 3c f5 b9 78 3c b5 54 59 bd
       -0.0385938 0.014531088 0.015181054 -0.0530593
000090 c6 8c aa 3c 39 17 ab 3b 4f 07 82 bd 55 bd 5f 3a
       0.02081908 0.005221274 -0.0634905 0.00085349876
0000a0 5a 5f 2c 3d 28 09 89 3d 96 ea 55 3d 8d 9b 0f 3c
       0.04208312 0.066911995 0.05222567 0.008765114
0000b0 4b 66 1c bd 64 88 16 b9 03 82 40 3d 45 38 12 3c
       -0.03818349 -0.00014355924 0.04699899 0.0089245485
0000c0 64 da b5 3a 24 a5 dc 3c 6b 26 44 bd 76 c8 83 3c
       0.001387429 0.026934214 -0.0478882 0.016086798
0000d0 e6 a5 d6 bc d8 03 53 bd ec 5b 01 3d cf 56 08 3c
       -0.026202153 -0.051517338 0.031581804 0.008321478
0000e0 9e d7 d5 bc 0b 31 8c 3c 23 9d 76 bc 9c e0 57 bb
       -0.02610379 0.01711323 -0.015052113 -0.0032940274
0000f0 c2 78 79 ba 59 c5 1d 3d 9e ba f9 bb 09 02 3d bd
       -0.00095165905 0.038518284 -0.0076211235 -0.04614452
000100 7f 86 18 3d db d7 49 3d ef 2d 50 3c 70 17 61 3d
       0.03723764 0.04927812 0.012706264 0.054953992
000110 d2 cf 45 bb 81 19 5f bd c6 f9 01 3c 30 ab b0 bb
       -0.0030183685 -0.05446768 0.007933086 -0.005391501
000120 61 f9 fd 3c e0 5c 5c 3d 74 ba c4 bb 38 69 06 bd
       0.031002702 0.05379951 -0.0060036723 -0.03281519
000130 3d e5 e8 3c a6 ab a0 ba 43 6b 5b bc 07 42 4e bc
       0.028429622 -0.0012258186 -0.013392272 -0.012588984
000140 2a ff 65 bd 16 3c 82 bc ad 23 db 3b 65 ae 3e 3c
       -0.056151547 -0.015897792 0.0066876025 0.011638259
000150 07 2b 06 3d 0a 9f 08 bd 3f a8 03 3c 48 0c 1d bd
       0.032755878 -0.033354796 0.008035718 -0.03834179
000160 c3 af cc bc a7 50 f3 3c c2 12 32 bd 85 23 17 3d
       -0.024986153 0.029701544 -0.04347492 0.03689911
000170 38 3d ef 3c 5f 7e 12 3c 17 9a 28 bd b6 f9 62 bb
       0.029203996 0.008941262 -0.041162577 -0.0034633703
000180 c0 a1 a9 3c 1f 2f be 3c 53 c9 8a 3d 1c 6f b0 3c
       0.020707011 0.023215828 0.06776681 0.021537356
000190 68 1e 5e bd 61 ba c7 bc da 69 72 3d a8 a3 7a bc
       -0.054228216 -0.024380865 0.05918298 -0.015297808
0001a0 62 02 3a bd 6d 7d 87 3d 12 52 26 3d 4c 79 41 3d
       -0.04541243 0.0661572 0.040605612 0.04723482
0001b0 03 f8 88 3d a2 e9 81 bc 2c 3c f2 3c 16 e7 d2 bc
       0.066879295 -0.015858475 0.029569708 -0.025744956
0001c0 d4 bc ae bc ea 6d 3f bd 51 db d7 3c 28 cd 04 3d
       -0.021330275 -0.04673568 0.026349695 0.032422215
0001d0 69 23 bf 3c 01 3d 04 3d c2 4e 46 3d de 67 86 3d
       0.023332315 0.03228474 0.048414953 0.0656278
0001e0 08 d2 08 bd 8c 7a f7 3b 98 d4 43 bc 63 94 2b bd
       -0.033403426 0.0075524505 -0.011952542 -0.04188956
0001f0 98 b3 f9 3a 89 3f 17 bc 80 a2 49 3d 09 8a 24 bd
       0.0019050715 -0.009231457 0.049227238 -0.040170703

fc_shared.weight f4 [128, 768]
000000 8d 22 8f 3d c1 99 b2 3c c4 30 be 3c 1a d1 e9 3c
       0.06989012 0.021801831 0.023216613 0.02854209
000010 96 21 2f bc 07 08 df 3c e5 c0 86 3c e0 31 fc ba
       -0.01068916 0.027225507 0.016449401 -0.0019240938
000020 01 5b e9 bb e8 91 2f b9 23 ee 08 3d 9d eb b7 b9
       -0.007121444 -0.00016743655 0.03343023 -0.00035080026
000030 9a 82 83 3d 52 8d 29 bc e4 dc ad bc 1c 90 20 3d
       0.06421395 -0.010348635 -0.021223493 0.039199933
000040 82 8d 73 bd 72 87 90 bc d3 41 aa bb f7 be 3f bc
       -0.059461124 -0.01764271 -0.005195835 -0.011703244
000050 33 c6 d1 bb 0c c9 2a 3c 02 96 c2 ba 85 31 87 3a
       -0.006401801 0.01042391 -0.0014845731 0.0010314441
000060 0e ef 3e 3d cd 6b 24 ba 93 b5 ca bc 40 06 4d 3d
       0.0466147 -0.0006272167 -0.024744784 0.05005479
000070 e9 00 0d bd e0 71 32 bd 79 c1 94 bd 9e fe 0e 3d
       -0.034424696 -0.04356563 -0.072634645 0.03491079
000080 c6 28 d6 3c c9 f6 6e bd 3c 06 0e 3d ab 3a 89 3c
       0.02614249 -0.05834082 0.034673914 0.016751608
000090 6a f8 db 3c 8a 27 32 bc c0 a6 30 bc f3 30 b6 3b
       0.026851851 -0.010873685 -0.010781944 0.0055600344
0000a0 bb fa f9 3c 2a 14 4d bb 68 80 41 3d 28 d8 1a 3c
       0.030515065 -0.0031292536 0.0472416 0.00945095
0000b0 6c 6a 1e bd 93 6f 7f 3c 89 c7 ef bc 6b bb 78 bb
       -0.03867571 0.015590566 -0.02926995 -0.0037953507
0000c0 5c e0 ea 3c 83 c9 8d 3c 26 0c 52 bd fb 83 87 bc
       0.028671436 0.017308002 -0.051281117 -0.016542425
0000d0 29 76 68 bc ca 02 85 bb 8a ed a1 3c 1e ca 8b 3c
       -0.014188328 -0.0040591704 0.019766588 0.01706415
0000e0 71 5e 15 bd 55 10 cf bc ad ef 18 3d 19 6c 30 bc
       -0.03646702 -0.025276342 0.037337948 -0.01076796
0000f0 b7 27 51 3d 27 73 ae 3c a1 1e ff bc 31 83 4a bd
       0.051063266 0.021295143 -0.031142535 -0.04944152
000100 00 d8 c5 bc e6 66 10 bd 84 e6 32 3d 86 9d 55 bd
       -0.024150848 -0.03525438 0.043676868 -0.05215218
000110 f2 63 09 bd 0b b0 29 3d 70 27 ac bc 00 71 14 bd
       -0.03354258 0.041427653 -0.021014899 -0.036240578
000120 cb 23 0c 3b 83 0c db bb 75 11 a4 bc fd fa 6f 3c
       0.002138364 -0.006684841 -0.020027855 0.014647243
000130 a9 76 7d bb c9 11 ff 3c 61 a8 a5 3d 99 11 53 3c
       -0.0038675463 0.03113641 0.08088756 0.012882614
000140 5e 92 4c 3c 8f 5c 9d 3d f1 d3 3b 3d a1 30 3c bd
       0.0124860685 0.0768367 0.04585642 -0.045944814
000150 f9 d6 bf 3c b8 a8 44 3c 10 6d 50 3d e8 45 2d bc
       0.023417937 0.012003116 0.05088526 -0.010575749
000160 67 da 66 bc c4 43 06 3d 0b de 8c 3c 16 b4 81 bd
       -0.014090157 0.03277947 0.017195722 -0.06333177
000170 6b 7d 7c bc 00 5e f6 3c 02 f7 cf 3b e6 ff 23 3c
       -0.015410761 0.03007412 0.0063465843 0.010009741
000180 90 9f fa 3c 3d 75 17 bd 0b a2 61 bd d1 55 42 3c
       0.030593663 -0.03697704 -0.055086177 0.011861281
000190 e5 cf b1 3c 29 59 3e bd 97 04 a9 bc 35 36 4f ba
       0.021705577 -0.04647175 -0.020632071 -0.0007904501
0001a0 2d 23 1b bb c8 dd bd bc 06 5f 0a 3d 60 35 73 bd
       -0.002367209 -0.023177043 0.033782028 -0.059377074
0001b0 78 6e d9 3c 41 0e 1e bb 1f bb aa 3b 5c 7f 82 3d
       0.026541933 -0.0024117383 0.005210295 0.06371948
0001c0 54 6a b8 3c 7f a4 51 bc 74 de 73 3c b7 c3 7b bc
       0.022511639 -0.012795567 0.01488458 -0.015366486
0001d0 39 a8 03 3c 82 75 38 bd 59 a6 c9 bb d2 9f 73 3d
       0.008035713 -0.04503394 -0.0061538634 0.05947859
0001e0 f6 2a 91 3d b3 e0 c8 3c b5 c9 93 3b 1e b3 12 3d
       0.07088272 0.024521207 0.0045101293 0.03581535
0001f0 d2 93 f9 3c 78 d9 f4 bb 1b f9 4d 3c 4c 1b 41 3d
       0.030465994 -0.0074722134 0.012571598 0.047145173
000200 b1 bd 49 bc bc 22 2b 3d a9 0e 38 3c 81 8f 62 3c
       -0.012313292 0.041781172 0.011233964 0.013828159
000210 cf 8b f5 bc 6c 06 7b 3b 33 16 81 3d 45 43 93 bd
       -0.029973892 0.0038303388 0.06303062 -0.07190565
000220 5f 6c 8a bc f1 30 07 3d 90 f0 1b bc 44 fc a7 bb
       -0.016897378 0.03300566 -0.009517804 -0.005126508
000230 54 82 0a 3d 12 34 88 3c 76 93 b3 bc 6d 21 13 3d
       0.033815697 0.016626392 -0.0219209 0.03592055
000240 e5 e9 10 3d 63 71 f9 bb 8b ce 86 bd 3c 01 84 3d
       0.03537931 -0.0076123937 -0.06582364 0.06445548
000250 d1 89 30 3c 2f 94 6c bd 94 81 00 3d c1 57 5a bc
       0.0107750455 -0.057758506 0.031373575 -0.013326586
000260 fb aa 92 bd e0 a1 1b 3d d2 14 5d bc 5d 64 aa bc
       -0.07161518 0.037996173 -0.0134937335 -0.02079981
000270 9a 03 88 bb f5 5d 17 3d 9d ab 82 3c 40 83 4d b8
       -0.00415082 0.03695484 0.015950972 -4.8998045e-05
000280 14 5f 10 bc 9c 61 86 ba 89 91 2c 3c 8c c2 8e 3b
       -0.008811731 -0.0010252479 0.010532745 0.004356688
000290 3c 4c 07 bd 8d 2a 31 3d a6 82 06 bd 23 00 51 3c
       -0.033031687 0.04325347 -0.03283944 0.01275638
0002a0 00 65 98 ba 19 fd d1 bc d8 c9 0a bc 54 3e 41 bd
       -0.001162678 -0.025633382 -0.008470975 -0.04717858
0002b0 98 7b 0a bd e0 f6 a8 ba e6 8c 92 3d de c0 9a 3c
       -0.033809274 -0.0012890957 0.071557805 0.018890794
0002c0 8a e6 78 bd 13 8a c6 3d 44 34 82 3d 7d 66 94 bd
       -0.060766734 0.09694304 0.06357625 -0.072461106
0002d0 46 e8 e8 3d af ad 34 bc ed 2f 00 bd f5 50 2d 3d
       0.11372428 -0.0110277375 -0.031295706 0.042313535
0002e0 81 23 c4 bc 05 fe 5e bd b8 9b 8f 3b f7 f9 65 3c
       -0.02394271 -0.05444147 0.004382577 0.014036647
0002f0 a1 9e 06 3c 4e 5c 5a bb d4 02 29 3c 5b ed a2 3b
       0.008216531 -0.0033319178 0.010315616 0.0049721426
000300 04 16 5a bc a2 d8 21 3d 88 c5 bf bc 15 f9 88 3c
       -0.013310913 0.039513238 -0.02340962 0.016720334
000310 e9 e7 6b 3d 93 ea 58 bd dc 20 da 3c cc bd 13 3d
       0.057594214 -0.052958082 0.026626997 0.036069676
000320 7e 7c 02 bd e7 42 57 39 33 78 c7 bc d5 fb fd 3c
       -0.031857006 0.00020528921 -0.024349308 0.031003872
000330 cc 3e 4d 3d 93 1b a5 3b 9b 62 a8 bb 1c 30 85 3d
       0.050108716 0.0050386875 -0.005138708 0.06503317
000340 3e 00 30 bd b1 d9 9c bc 62 c7 60 3d 7e ec a8 bd
       -0.04296898 -0.019146772 0.054877646 -0.08248232
000350 bc a2 01 bd 1b 5b e4 3c 82 fb 9d bc d9 bf 6a 3c
       -0.031649336 0.027875474 -0.019284967 0.014327967
000360 0b ec db bb 98 aa 3b 3b ac 5e 0b bc 45 2b 0b 3d
       -0.006711488 0.0028635617 -0.008506458 0.033976812
000370 6c 4e 97 3d c1 4e 85 3a cb 2e 2a bd 6f 43 4f bc
       0.07388005 0.0010170565 -0.04154853 -0.012650355
000380 1e ad 3d 3b 7d 7b 84 bc a8 db fa bb 94 90 c0 3c
       0.0028942297 -0.016172165 -0.0076555796 0.02350644
000390 2a f9 28 3c 28 8d 80 bc 6e f2 0c 3d bf d8 d2 3c
       0.010313312 -0.015692309 0.034410886 0.025738118
0003a0 56 4a a1 3c f8 b2 81 3d f9 f5 13 bd 4a 68 aa 3b
       0.019688766 0.06332964 -0.03612325 0.0052004205
0003b0 60 7f a0 3b 0b c0 ff 3b 8a f8 d0 bb aa fc 54 3c
       0.004897997 0.0078048757 -0.0063772844 0.012999693
0003c0 b1 16 f7 3c 56 e2 e1 bb b9 0d fa 3b 2b c9 c3 3c
       0.030162187 -0.0068934364 0.0076310304 0.023899635
0003d0 e7 29 c0 bc aa fa 05 3d e3 08 76 3d d7 82 98 bc
       -0.02345748 0.032709755 0.06006707 -0.018617077
0003e0 af 30 a1 3b 28 48 33 3d 64 3c d7 3b 08 01 4c bb
       0.0049191336 0.043769985 0.0065684784 -0.0031128544
0003f0 08 2e 85 3b 37 5d 48 3c 71 42 14 bd f5 7f 26 bd
       0.0040643252 0.012229255 -0.036196176 -0.040649373

fc_shared.bias f4 [128]
000000 2f df cb 3c 40 4b 88 3c 5e 0e df 3c e6 94 fa bc
       0.024886696 0.016637444 0.02722853 -0.030588578
000010 c9 e9 08 3d e1 1b db bc 14 c2 b7 3b 6c 5c 2d bb
       0.03342608 -0.026746692 0.0056078527 -0.0026452793
000020 e8 8a 32 3d b4 93 72 3b a2 ac a3 bc 4b 7f 90 bc
       0.043589503 0.0037014307 -0.019979779 -0.017638823
000030 49 16 0f 3d d1 1d 24 3d c6 2a b0 3b 9b 49 31 3d
       0.034933362 0.040067498 0.0053761927 0.043283086
000040 3f 69 c5 bb 5d ac 08 bd a7 84 a3 bc 81 43 c2 39
       -0.006024509 -0.033367503 -0.019960715 0.00037052858
000050 49 43 2a 3d fe f2 95 bc d1 87 05 3c 09 5c 75 3c
       0.041568074 -0.018304344 0.008150057 0.014975556
000060 93 b6 3c 3b 35 f5 32 3d 01 4c c4 bc 04 3e 53 3b
       0.0028795346 0.04369088 -0.023962023 0.003223301
000070 68 a0 18 bd 39 b7 95 3c 63 f3 df 3a 18 07 3b 3d
       -0.03726235 0.018275844 0.0017086085 0.045661062
000080 95 26 a4 bc b8 cc 06 3d 5f 8d 6b bc 9c 9a 0c bd
       -0.020037929 0.03291008 -0.014376967 -0.034327134
000090 eb 41 0c 3d 6f c5 71 bc 51 c1 80 bc 06 95 bf 3b
       0.03424255 -0.0147565445 -0.01571718 0.0058466224
0000a0 1f ea 67 bb 3e 86 0f 3c 1a 27 22 3d d0 14 22 bd
       -0.003538735 0.008760033 0.03958807 -0.03957063
0000b0 47 6e b2 3c ed 74 d7 bb 21 f7 08 bc fc 88 c9 3c
       0.0217811 -0.006575218 -0.008359701 0.024601452
0000c0 15 81 b9 b8 18 b6 3f 3d 37 6a b1 bc 08 02 b7 3a
       -8.845531e-05 0.046804518 -0.021657092 0.0013962397
0000d0 90 eb 85 3c a5 f7 9a 3c 66 e6 f9 3c 96 ee 9d bc
       0.016347677 0.018916914 0.03050537 -0.019278806
0000e0 f2 aa df 3c 0e 7e 89 3b c5 4d 54 bc 8c 24 c7 bb
       0.027303193 0.004195935 -0.012957995 -0.006077355
0000f0 4d c3 95 3c 52 33 88 3c ef f7 a2 3c d7 b8 e6 3b
       0.018281603 0.016626034 0.019893615 0.0070410776
000100 23 f7 d8 3c 3e 7a 02 3d 32 47 26 3d 1f 52 20 3d
       0.026485031 0.03185486 0.04059524 0.039140817
000110 39 af 03 3c 56 70 aa 3c b9 bc a9 3c 9f 73 21 3d
       0.008037382 0.02080552 0.020719873 0.039416905
000120 97 27 4a 3d 46 cc b6 bc b4 47 17 bd 8f 81 b4 3c
       0.049354162 -0.022314202 -0.036933616 0.022034435
000130 18 fe 0d 3c 10 a0 b5 bb 08 c7 83 3c 74 ea 5c 3c
       0.008666538 -0.0055427626 0.016086116 0.013483632
000140 ca 4e 24 3c 85 1a fa 3a 14 f9 08 3d ec 69 d2 3c
       0.01002855 0.001908139 0.033440664 0.025685273
000150 34 2a 18 bd 03 42 42 3c 83 22 26 3d 94 d7 4f bc
       -0.037149623 0.011856559 0.040560257 -0.012685675
000160 2c f1 25 3d dd 00 fb 3c c5 02 40 3d e4 a8 9f bb
       0.040513203 0.03064006 0.04687764 -0.0048724283
000170 6e 3e 7e bc 89 94 23 bc cd 32 db bb 87 5d 0a bd
       -0.015517814 -0.009984144 -0.0066894055 -0.0337806
000180 f5 f1 53 3c 09 46 f4 3c 5f c1 dd 3c 06 a8 c8 3c
       0.012936105 0.029818552 0.027069746 0.024494182
000190 f2 ef ee 3c 4b 9e 89 bc cb fa 62 bc 1e 90 ae 3b
       0.02916715 -0.016799113 -0.013853739 0.0053272387
0001a0 d5 38 1c 3d 60 4f 69 3a 8e a5 30 bb a8 c4 8c bc
       0.038140137 0.00089000724 -0.0026954147 -0.017183617
0001b0 67 30 21 3d e2 ab 65 3c a4 8c 10 bc a3 0f d9 bc
       0.0393528 0.014018031 -0.008822594 -0.026496714
0001c0 b1 cf 5c bc 6e 46 d4 3c 47 32 da b7 ad 9a 07 bd
       -0.013477252 0.02591249 -2.6011037e-05 -0.033106495
0001d0 42 b5 c7 bc 2b f1 08 3d 66 bd 02 bc 56 2c 68 bc
       -0.024378423 0.03343312 -0.007979726 -0.014170727
0001e0 5a b8 09 3d e1 13 ec ba 94 c9 a9 3c 69 51 fd 3c
       0.033623077 -0.0018011295 0.020726003 0.030922608
0001f0 84 b7 a6 3c 03 d2 a2 bb d3 7d 33 3d 1c 1b ba bc
       0.020351179 -0.004968883 0.043821167 -0.022718005

actor.weight f4 [7, 128]
000000 6e 22 36 bc 95 d3 9b bd e2 e7 e8 bd 4b 62 87 bd
       -0.011116607 -0.076087154 -0.11372353 -0.06610545
000010 99 39 92 bc 47 41 98 bd 39 10 4f bd 11 bc 22 3d
       -0.01784973 -0.07434326 -0.05055258 0.039730135
000020 dd bd 8e 3d 27 dc 21 bc 34 8a 56 bc 96 3b 5a 3c
       0.06969807 -0.009879149 -0.013094474 0.01331987
000030 25 cb 10 3d 01 9d 79 3d e9 bf d9 3c 9d 1f 0d bd
       0.035349984 0.060940746 0.026580768 -0.034453977
000040 14 a3 bb 3b 89 2f ad bb 09 55 53 3d 18 3e ba bc
       0.0057262275 -0.0052852076 0.051594768 -0.022734687
000050 8d d5 e5 3c a3 ba 46 bd 36 0e af 3c 8e ca 51 3d
       0.02805593 -0.048517834 0.021369081 0.05121856
000060 7e 7d 8a bd 8e d5 50 bd 6a 69 51 3d 39 77 40 3c
       -0.06762217 -0.05098491 0.05112592 0.011747175
000070 e5 cc 03 bd 76 3f 37 3d 79 03 0c bd e1 d6 9d bd
       -0.032177825 0.044738255 -0.034183 -0.077070005
000080 4a 9a 28 3d 59 b8 55 3d d5 ad 4e bd 0f 98 91 bd
       0.041162767 0.05217776 -0.050458748 -0.07109081
000090 39 32 67 bc ef 77 b3 3b 00 e8 c6 bc 94 3d 0d 3d
       -0.014111095 0.0054769437 -0.024280548 0.034482554
0000a0 b7 8a 90 bd b0 e5 f3 3c 19 81 49 3c 38 e9 9a bd
       -0.07057708 0.02977261 0.012298846 -0.07564014
0000b0 be fc 27 3d 4d 95 14 bd 3f 97 68 bd 89 b0 5e 3b
       0.041012518 -0.036275197 -0.056784865 0.0033979735
0000c0 40 a7 3b 3d 99 a7 c2 bc 8f 60 9d 3d 2a 00 a3 3d
       0.0458138 -0.023761557 0.07684433 0.07959016
0000d0 9e 11 26 3d e5 eb b5 3d 4a f5 b1 3c 11 be 9c bd
       0.040544145 0.08882884 0.021723408 -0.0765344
0000e0 1c e5 b8 bd 49 59 16 3b d3 ee 50 3d 02 05 33 bd
       -0.09028074 0.0022941402 0.05100901 -0.043705948
0000f0 ed da 88 bc e3 23 c6 bc c5 7a 15 3d c7 f7 2d 3d
       -0.016705954 -0.024187034 0.036494035 0.042472627
000100 5d 6f 80 bd dd 4f 6a bd e6 90 4c 3c 13 c0 4c 3d
       -0.06271241 -0.05720507 0.012485718 0.049987864
000110 f9 39 7d 3b 7f cd 33 bd 27 a7 a5 bd 4c b7 55 bd
       0.003863929 -0.04389715 -0.080885224 -0.05217676
000120 cc ed b6 bd 57 91 66 3c cc b7 97 3b a9 b6 09 ba
       -0.08932075 0.014072738 0.0046300646 -0.0005253354
000130 3b cd 98 bc 7c a7 b7 3b 08 6a 30 3c 01 3b 89 bd
       -0.018652549 0.0056046825 0.010767467 -0.06700707
000140 a1 4e 6a 3d fc f0 37 bd 26 90 43 3d 98 5f ad 3c
       0.057203893 -0.044907555 0.047744893 0.021163747
000150 29 3e 24 3d a7 4a e5 bc 64 fa 4a bd 6c 38 86 3d
       0.040098343 -0.027989699 -0.049555197 0.0655373
000160 a0 42 46 bd 1f 32 2e 3d ec 97 ae bd 0c 9f ea 3c
       -0.048403382 0.042528268 -0.085250705 0.028640293
000170 16 e0 99 bd d8 75 d2 bc 5a 85 ba 3c 85 1b c2 3d
       -0.07513444 -0.025690958 0.022768665 0.09477905
000180 75 8f 48 3d 59 95 05 bd 01 e6 66 3b 2a 1d 16 bd
       0.048964936 -0.032613132 0.0035232308 -0.036648907
000190 d4 f9 be 3c 32 95 9a 3d 91 ce d6 bd f1 b3 30 bd
       0.023312487 0.07547988 -0.10488618 -0.043140355
0001a0 c1 22 7d 3c a2 a7 64 bc 45 e4 a5 3d 41 2e ba 3b
       0.0154501805 -0.013955982 0.081001796 0.0056817834
0001b0 06 36 9e 3c 47 c6 4d bc bd a3 9e 3d 70 56 8b 3d
       0.01931287 -0.01255948 0.07746074 0.06803596
0001c0 87 fd 54 3d cc 46 d7 3c 4e cc 68 bc 31 b4 f3 bc
       0.051999595 0.026278876 -0.014208866 -0.029749008
0001d0 ac 56 80 3c ee ac 56 bd 40 11 e6 3b af 16 80 3c
       0.015666328 -0.052411012 0.0070210993 0.015635816
0001e0 ad 9a 27 3d b1 82 9a bd d6 64 ba bb 6a ac 8a 3d
       0.040918995 -0.07544459 -0.00568829 0.067711666
0001f0 46 60 38 bd f6 9a 81 3d d3 e1 12 3d 75 c6 9a bd
       -0.04501369 0.063283846 0.035859894 -0.07557384
000200 62 90 8f bd 59 90 ee 3b 11 b8 c0 bd 1f b6 17 bd
       -0.07009961 0.007280391 -0.09410108 -0.03703892
000210 9a 16 09 3c 1e d0 16 3d 39 65 0d 3b 1f 11 cd 3c
       0.008367205 0.03681957 0.0021575226 0.025032578
000220 99 59 3b 3d 6b f7 c7 bd 49 49 0f 3a 83 a5 2f 3d
       0.045739744 -0.09763988 0.00054659374 0.042882454
000230 1f 5f b7 bc 46 25 a3 3d 68 ea 11 bd 37 6d 8b 3b
       -0.022384224 0.07966094 -0.035623938 0.004254963
000240 ff 6a e9 3c 47 a2 fa 3c b7 2b 90 3d 64 9d 01 3c
       0.028493403 0.030594958 0.07039588 0.00791106
000250 06 bb 04 3d e8 ef 92 3d d9 d0 9f 3d 2a 00 1d 3c
       0.032404922 0.07174665 0.078035064 0.009582559
000260 15 c1 b0 3c 3c 11 42 bb fc 87 bb 3d 66 f8 37 bb
       0.021576444 -0.0029612323 0.09156796 -0.002807164
000270 31 4c ad 3d 78 f5 ed bd fb 3f 6b bd ff a2 11 bd
       0.08461798 -0.11619085 -0.057434063 -0.035555836
000280 bf df 2d 3d 14 b8 cd 3d 68 85 f2 3d e3 9a 95 bd
       0.04244971 0.10044876 0.118418515 -0.07304933
000290 ac 0c 99 bd 60 b7 bc bb 65 61 a4 bc fa a0 83 3b
       -0.0747312 -0.0057591647 -0.020065973 0.0040169926
0002a0 ca 46 5f 3d 24 5f 82 3c f3 51 e0 bd 76 4f 9c 3d
       0.05451087 0.015914507 -0.109531306 0.076323435
0002b0 51 bc 4f 3d 12 22 12 3c c7 ae a0 3d 6b a8 8d 3d
       0.050716702 0.008919256 0.07845836 0.06916889
0002c0 2b 2d 39 bd 76 3b 89 3d 89 8b 63 3d 85 46 6a bd
       -0.04520909 0.067007944 0.055552993 -0.05719616
0002d0 da 3e 00 bd a3 16 3e bd 66 22 77 bd 8a 39 e0 bc
       -0.03130994 -0.046408307 -0.06033554 -0.027371187
0002e0 64 cf 24 bd 2e 29 f7 bc eb a7 ad 3d c9 e4 3a 3b
       -0.040236846 -0.030171003 0.084792934 0.0028517714
0002f0 40 f7 ab 3b 23 8c bc 3c 9e 93 35 ba 3b 73 ad 3d
       0.0052479804 0.023016041 -0.0006926599 0.08469244
000300 e8 06 6e bc e4 9f 3f bd 22 1d bb bd 31 3c 51 bd
       -0.014528014 -0.046783343 -0.09136416 -0.051082794
000310 1a d2 a1 3c 13 b3 4b bc 6c d9 df 3b 71 75 b4 bd
       0.019753505 -0.012432831 0.0068313386 -0.08811463
000320 f9 17 3d 3c 2a 11 89 3d 29 fe a3 3b d2 1a a3 bd
       0.01154136 0.06692727 0.0050046635 -0.079641
000330 e8 66 9c 3d 4c a6 a7 3d 08 ac 78 bd 4f 38 af bd
       0.07636815 0.081860155 -0.060710937 -0.08555662
000340 ee c9 3f bb e3 f0 89 3d 5a 4e 98 3c c3 f1 fc 3c
       -0.0029264647 0.067353986 0.018592048 0.030877
000350 2a 55 d0 3c 9d 7b b3 3d c6 4b 76 3c 2a 94 42 3d
       0.025431234 0.08763812 0.015032714 0.04750458
000360 59 01 94 3d 45 07 6e 3d 75 82 af bd 98 3b 19 bd
       0.072268195 0.0581124 -0.085698046 -0.03741035
000370 b2 a4 2e bc 88 5a bb bb 49 75 b4 3d c0 a6 92 3d
       -0.010659384 -0.0057175793 0.08811433 0.07160711
000380 7c 9d ae bd a1 38 97 bd d8 0e 5a bd 6b ae 57 bc
       -0.085261315 -0.07383848 -0.053236812 -0.013164143
000390 cd 3c e0 bc 4f 99 8d bd f6 66 8f bd 9f 90 3a bd
       -0.027372742 -0.06914007 -0.0700206 -0.045548078
0003a0 4b 4f 65 3c de 93 26 bc 3f 42 53 bd f3 2c 50 3d
       0.013995956 -0.01016709 -0.05157685 0.050824117
0003b0 b2 9b 5d 3d 74 62 88 bd 32 94 ac 3c aa 5a b6 3b
       0.05410356 -0.066594034 0.021066759 0.005565007
0003c0 9d 0a 93 bc 8a 7c 99 3b 21 9f a5 bd c7 ae a3 bc
       -0.017949397 0.0046840357 -0.08086992 -0.019980801
0003d0 7f c4 58 3c 56 9f 3b bc 15 cb 17 bd ca 02 83 bd
       0.013230442 -0.011451563 -0.03705891 -0.06397016
0003e0 32 04 9b 3c 81 d0 c1 3d 40 9a 1e bd 1d be ea bc
       0.018922899 0.09463597 -0.038721323 -0.028655106
0003f0 a5 f9 9c 3d 7e b9 5d bc 71 c7 91 bc 7d 5e c7 3c
       0.076648034 -0.013532994 -0.017795296 0.024337048

actor.bias f4 [7]
000000 5f 8a 56 3c 35 ba c7 3b 8b 04 bd 3d 7c 8a 62 3d
       0.013094514 0.0060951957 0.09229382 0.05530785
000010 d2 cf 88 3d e5 a8 88 3b 17 54 5c bc
       0.066802636 0.0041705244 -0.013447783

critic.weight f4 [1, 128]
000000 56 55 ab 3a 3b d6 82 3d 1a 6f 01 bc 43 56 62 3c
       0.0013071697 0.063885175 -0.007900024 0.013814512
000010 12 91 cf bc 1c f1 18 3d c1 88 30 3b 0d 93 03 3d
       -0.02533773 0.037339315 0.002693698 0.03212266
000020 3e 8a 58 bd bf 44 50 bc 31 a4 84 bd a7 55 95 3c
       -0.052866213 -0.012711703 -0.064766295 0.018229319
000030 1f b0 99 bd 3d af 8c bd 2b 09 94 3d 08 6b 9b bd
       -0.075042956 -0.068693615 0.07228311 -0.07588774
000040 28 d3 86 3d dc a4 cb 3c 9e 43 4b 3b 3f 0e 85 3d
       0.065832436 0.024858885 0.0031015645 0.06496858
000050 f8 76 c0 bc fb 84 f9 bc 86 c1 3c bd 91 7c 91 3d
       -0.023494229 -0.030458918 -0.046082996 0.07103837
000060 fb 61 72 bd 00 d5 3a bd 14 ce 8e bd cf 6f 8d bd
       -0.059175473 -0.04561329 -0.069729 -0.069060914
000070 93 34 39 bb cb aa fb bc 68 3d a1 bd f8 a2 29 bd
       -0.0028260096 -0.030721089 -0.078730404 -0.041415185
000080 53 7f cd 3c 72 6d 1e bd 4a 0a 16 bb c3 57 9e 3d
       0.025085127 -0.038678594 -0.0022894316 0.07731583
000090 42 ff ad bd f7 2e 4a bd d5 ab 0e 3c 2e a3 9c 3d
       -0.08495952 -0.049361195 0.00870796 0.076483116
0000a0 a5 53 90 bd 79 bb 12 3c 4d 79 ac bc ac 65 a2 3d
       -0.07047204 0.00895583 -0.021053934 0.079295486
0000b0 ec 6e 51 3c 39 83 d5 3c 34 99 11 3d 2a 96 ab 3c
       0.0127827935 0.026063548 0.035546497 0.020945627
0000c0 03 4b 71 bd c8 e9 90 bd 9a cd 99 bd 8d 9e cc 3c
       -0.058909427 -0.0707584 -0.075099185 0.024977947
0000d0 80 51 91 3d 23 37 28 bb 4f 35 9a 3d 06 27 1b bd
       0.07095623 -0.002566763 0.07529699 -0.037879013
0000e0 fe 36 a1 3d 49 07 d3 bb 91 73 6d 3d 02 48 3f 3c
       0.07871817 -0.0064400774 0.05797154 0.011674883
0000f0 43 e0 e4 bc 9c 99 82 bd 6e a5 99 bd 33 5e 35 bd
       -0.027938968 -0.06376955 -0.07502256 -0.04427929
000100 b4 29 96 3c 79 46 76 bd 55 da 9d bd d2 c4 8c bd
       0.018330432 -0.0601258 -0.07707659 -0.06873478
000110 21 12 c5 bb 82 b8 8a bd 10 78 0d bd ee f8 7b bd
       -0.006014124 -0.06773473 -0.03453833 -0.061516695
000120 fb bb 8b bc 94 dd 4a 3d 18 19 54 3c a1 44 98 3d
       -0.01705741 0.04952772 0.012945436 0.07434965
000130 73 64 39 3d fd c9 b0 3c a9 47 94 3c 7b b3 06 bd
       0.04526181 0.02158069 0.018100576 -0.03288601
000140 c0 f4 23 bd 2f cc 28 3c 94 b2 76 bd 1f 49 61 bd
       -0.040028334 0.010302587 -0.0602289 -0.055001374
000150 8b e7 62 bc 7b 65 84 3c 47 0e d8 bc f0 a8 10 bd
       -0.013849149 0.01616167 -0.026373995 -0.03531736
000160 6f 6e 70 bd 70 97 34 3b e0 ad 4c bd b8 3e 9f 3d
       -0.058699068 0.0027556084 -0.049970508 0.077756345
000170 29 44 7a bd df cf 8c 3d 28 d6 fd 3c 33 bf 18 3d
       -0.06110016 0.06875586 0.030985907 0.037291717
000180 79 40 14 3d c8 d0 79 3c 2a 96 72 bd 05 a9 2e bd
       0.0361943 0.015247531 -0.05922524 -0.04264166
000190 ed be 0b 3d c7 89 27 bd 4f 93 7d bb e1 97 63 bd
       0.034117628 -0.04090288 -0.003869254 -0.055564765
0001a0 24 2d 4b bd 7f 9f 99 bd 62 33 67 3d f6 2c 8c bd
       -0.049603596 -0.075011246 0.056445487 -0.06844513
0001b0 29 81 a5 bd 2a e3 c3 3b d8 e1 b7 3a c8 90 1e 3c
       -0.08081276 0.005978008 0.0014029099 0.009678073
0001c0 c2 ec 7c 3d 82 c1 61 3d 29 b4 c2 3c 5c 91 90 bd
       0.061749227 0.055116184 0.023767548 -0.07058975
0001d0 2d 99 89 3d 8b 9b 67 bd b3 92 84 3d 8e ed 99 3d
       0.06718669 -0.05654482 0.06473293 0.07516013
0001e0 24 81 91 bd 8a fe dc bb 99 f2 a4 bc 69 a8 88 bd
       -0.0710471 -0.0067442106 -0.02013521 -0.06672747
0001f0 55 ed a1 3d 5a 4f 91 bd 38 d2 97 bd af 0a 92 3d
       0.079065956 -0.07095213 -0.07413143 0.07130944
