trained_models/PPO/ppo_connect4_model_1f.pt (torch, 537724 bytes, 9 tensors)

conv1.weight f4 [64, 1, 4, 4]
000000 f8 b7 02 3e 29 1c 85 3b 78 88 71 be 66 a4 b2 bd
       0.12765491 0.004062195 -0.23587215 -0.08722763
000010 cf b5 8d be ab 9e f4 bd c1 69 09 3e cf a5 1c 3e
       -0.2767777 -0.11944326 0.13419248 0.15297626
000020 9b 6a e5 3d 23 e2 98 be ee 38 48 be 31 02 85 be
       0.11201974 -0.2986003 -0.19552967 -0.25978234
000030 19 e0 61 3e a2 41 01 3e 66 e3 76 3e bd f2 63 3a
       0.22058143 0.12622693 0.24110183 0.00086955336
000040 38 fc 1a 3e 61 a0 ac bd 09 ca 3a 3e 94 00 d5 3d
       0.15135276 -0.08429027 0.18241133 0.10400501
000050 ca ba 63 3e 11 f5 38 3e 26 83 ff 3d d2 de fd bc
       0.22239223 0.18062235 0.124761865 -0.030990038
000060 fd 1f 36 bd cf c5 1a be 1a 1a 46 3e 57 28 01 3d
       -0.0444641 -0.1511452 0.19345894 0.03153261
000070 d7 80 16 3a 47 28 91 be 6a 17 2d 3e d3 f3 9c bd
       0.00057412445 -0.28351042 0.16903463 -0.07663693
000080 c6 1b 9b 3e d3 43 bc bd 41 c6 a6 bd 64 9f 02 be
       0.30294627 -0.09192624 -0.08143283 -0.12756115
000090 72 e7 b6 3d 9b 57 04 be cf 3d 90 3d be 43 04 be
       0.089308634 -0.12924044 0.07043039 -0.12916467
0000a0 21 46 42 be 27 52 6b be 2f c0 27 bd 67 24 03 3d
       -0.18972065 -0.22980557 -0.040954765 0.032017138
0000b0 e5 34 ba bd 14 f5 95 be a5 cb 00 3e 80 79 8c 3e
       -0.0909212 -0.29288542 0.12577684 0.27436447
0000c0 d2 57 a7 3d 61 ce 9f 3d 74 ae 24 3e 70 ec e5 3d
       0.08171047 0.078030355 0.16082174 0.112267375
0000d0 98 ed f4 3d 61 7f 30 3e 43 7a f4 bd 1a b6 89 3e
       0.1195938 0.17236091 -0.11937382 0.26896745
0000e0 03 15 1e 3d ee f1 01 bd 54 5e cd 3d 24 ca 7c 3c
       0.038594257 -0.031724863 0.10027757 0.015429053
0000f0 b5 b7 89 3d 52 4c 8c be 40 70 45 be cc ff 0d be
       0.067244925 -0.27401978 -0.19281101 -0.1386711
000100 04 8d 02 be e2 26 f8 b9 72 96 99 bd f8 6c 6c 3b
       -0.12749106 -0.00047331216 -0.07499398 0.0036075693
000110 cf f2 2a bd d3 30 eb bd 2f 25 e1 3d 0c 32 29 3e
       -0.041735467 -0.11483922 0.1099342 0.16522998
000120 aa 50 f3 3c f3 39 3a 3e 61 fe 5b 3e 3c 7f 18 be
       0.02970155 0.18186168 0.21483757 -0.14892286
000130 77 19 b2 be 36 80 b6 3d 0c 71 b0 3e 85 f5 88 be
       -0.34785053 0.08911173 0.34461248 -0.26749817
000140 d8 57 50 be 9d 40 8a 3e ac 56 89 3e 24 5a bd bd
       -0.2034601 0.2700242 0.26823938 -0.092457086
000150 86 38 ec bd 92 2e 5c 3e b2 0d 0c 3e 74 2c 66 be
       -0.115342185 0.2150214 0.136771 -0.22477895
000160 05 fd 69 be 4b 2a 44 3b b2 6d 88 be 10 19 8e be
       -0.22850426 0.0029932435 -0.2664619 -0.27753496
000170 8c 30 47 3d dc 50 bb 3d 09 92 b4 bc 08 30 3a 3e
       0.048630282 0.09146282 -0.022042291 0.18182385
000180 92 bc a1 bd 99 1d 6b 3d 08 db 24 be e2 34 5b 3e
       -0.07897295 0.057401273 -0.16099179 0.21406892
000190 95 12 06 3e 09 fc 12 3d 74 b7 99 3c 3b 52 69 3d
       0.13093026 0.03588489 0.018764235 0.056963187
0001a0 7d 09 c9 3d a2 72 4d 3d b1 bd 94 3c af b7 1f bd
       0.09816263 0.05015815 0.018156858 -0.038993534
0001b0 fb 59 4b 3e 7c eb 75 be ae bd 64 3e b6 dd a8 bc
       0.19858544 -0.24015611 0.22337982 -0.020613533
0001c0 25 2f 06 be f3 5c 21 3e 4d 61 dc 3d 18 33 78 3c
       -0.13103922 0.15758114 0.10760746 0.0151489
0001d0 61 bc f7 3c 4b 26 d9 bd e7 e4 74 be 1c 2d 28 be
       0.030241193 -0.10603007 -0.23915444 -0.16423458
0001e0 18 1e ab 3e ee ee 21 bd 81 ec 21 be 9d 2a 86 3c
       0.33421397 -0.0395345 -0.15812875 0.016377741
0001f0 16 06 27 3e 31 f7 4a bd 4d e8 10 be 50 9e cf 3c
       0.16310915 -0.049552146 -0.14151116 0.025344044
000200 6d 84 8b be af a0 20 be 7c cb 8c 3d 03 0e a1 3e
       -0.2724947 -0.15686296 0.06874749 0.31456003
000210 8c e9 62 3d dc b7 02 3e 57 94 0a be bf 24 ee bd
       0.05539851 0.1276545 -0.1353315 -0.116281025
000220 fa d4 ed bd 7b 6d 13 be c2 90 08 3e ce 46 54 3e
       -0.11612888 -0.14397232 0.1333647 0.20730135
000230 fb d7 77 3e 8d 35 25 bc b3 1d 92 bc 1d 84 7e 3e
       0.24203484 -0.010083568 -0.017836427 0.24855085
000240 20 59 99 3e 66 54 8f 3d ce 22 dc bb 2d cd a6 bb
       0.2995081 0.069985196 -0.006718016 -0.005090377
000250 01 55 88 3c c6 27 11 bd 7c 45 f8 3d 16 c3 20 3e
       0.016642096 -0.03543832 0.12122628 0.1569942
000260 f8 f2 1f be 2a 1d 4c 3e ff c1 40 3c 8f 07 98 3d
       -0.15620029 0.19933 0.011765002 0.07423317
000270 e1 e8 3e be a5 5a 7e 3e ac 98 cb bd 7e bb 1f 3e
       -0.18643524 0.24839266 -0.09941229 0.15598866
000280 b2 91 36 be f9 4d 94 ba 0f b4 10 be 68 0e 7d 3e
       -0.17829016 -0.0011314742 -0.14131187 0.24712527
000290 a4 3f 63 3d 5a ad 68 3e 7f e5 8a 3d 46 fa 5f 3e
       0.055480614 0.22722378 0.06782054 0.21872815
0002a0 44 c7 5a be 70 4e f6 3d 03 ee 80 3d 40 20 8c 3e
       -0.21365076 0.120266795 0.06295397 0.27368355
0002b0 4d 81 25 3d c6 a8 cf bd fe a3 36 be b4 f4 e0 3d
       0.040406514 -0.10139613 -0.17835996 0.109841734
0002c0 ad d6 02 3e 56 84 97 3c 29 f2 1b be 3b 7c 62 be
       0.12777205 0.01849572 -0.15229096 -0.22117703
0002d0 11 0b 8f 3d a9 df 48 3e 7d 0b a1 3d 91 61 aa be
       0.069845326 0.1961657 0.07863519 -0.33277562
0002e0 43 61 83 3e 8a 0e 98 3e 0a ea 08 be 9b 7f 41 be
       0.25660142 0.29698592 -0.13370529 -0.18896334
0002f0 4e f1 08 3e d8 d7 6f be 57 23 02 3e 5e 07 52 be
       0.133733 -0.23422182 0.12708794 -0.20510623
000300 39 60 6b 3e d9 6a 89 be 99 7a 08 be b4 68 44 be
       0.22985925 -0.2683933 -0.13328017 -0.19180566
000310 39 26 1d 3e 75 61 82 be 4e 13 0e 3e 79 ec d7 3c
       0.15346612 -0.2546498 0.13874552 0.026357876
000320 29 e4 04 3d 80 b0 9a 3c 1e db 88 be c3 a3 1a 3e
       0.032444153 0.01888299 -0.26729673 0.15101533
000330 0b bb bf 3d ca 5c 38 be c5 74 47 ba c8 08 c2 3d
       0.093618475 -0.18004146 -0.00076086476 0.09474331
000340 2b 0d 15 3d 9e 53 e4 3d 57 1d e7 3d 8c 1a 5c be
       0.03638951 0.11148761 0.11284893 -0.21494502
000350 64 89 b8 b9 d1 a6 c1 bd 80 f5 91 bd 1c 1b b2 3d
       -0.0003519758 -0.09455646 -0.071269035 0.08696577
000360 fa df 9b be 3c 57 ec 3d a8 84 fa 3d 60 0c 2b be
       -0.30444318 0.11540076 0.122323334 -0.1670394
000370 06 04 7b 3e fb e1 36 3d 56 3e 84 be a8 fe 2e 3e
       0.24513254 0.044649106 -0.2582881 0.17089331
000380 30 62 8c 3e ce 05 5e be 11 0b 8d be 61 d9 d4 bd
       0.2741866 -0.21681902 -0.27547505 -0.10393024
000390 70 17 79 3e 5f 2b ac 3d a8 98 35 be 0d 94 a2 bd
       0.24325347 0.0840671 -0.17734015 -0.07938395
0003a0 88 f4 46 be d0 44 1a 3e b3 7f 3c be 02 0f c7 bd
       -0.19429219 0.15065312 -0.18408088 -0.097196594
0003b0 1d 70 ff bd 32 51 52 3b 67 04 95 bd 29 5d 2c be
       -0.12472556 0.0032091853 -0.0727623 -0.16832413
0003c0 50 8a 82 be 04 22 86 bd f5 9d 00 3e e0 98 e1 3d
       -0.2549615 -0.06549457 0.12560256 0.11015487
0003d0 74 53 4c 3d 60 85 a9 3e fc 75 d4 bd 68 6f ac bd
       0.049884275 0.3310957 -0.10374066 -0.084196866
0003e0 26 e7 49 3e e7 32 c8 bc 3c 37 6e be ee ed 6d be
       0.19717082 -0.024438335 -0.23263258 -0.23235294
0003f0 4f cf 33 be a2 5f a9 3e 03 6e 81 be 45 16 ab 3e
       -0.1755955 0.33080775 -0.25279245 0.33415428

conv1.bias f4 [64]
000000 a9 17 86 3e 0f 62 8d be b0 11 1f 3e 5d 8b 64 3e
       0.26189926 -0.27613875 0.15534091 0.22318788
000010 eb 29 76 bd 38 7a 33 be 48 30 0d be fd 24 31 bd
       -0.06009857 -0.17527092 -0.13787949 -0.043248165
000020 33 9a 6b be a6 b2 40 be 13 d5 71 be cd 2d e4 bd
       -0.23008041 -0.18818149 -0.23616438 -0.11141548
000030 1e e6 e2 3d 6b e2 0a 3e a0 1e 90 3e 0b e8 86 bd
       0.110790476 0.13562934 0.28148365 -0.065872274
000040 41 54 34 be e0 83 cc 3d 5f db 1a 3e fc 59 c1 bd
       -0.17610265 0.09986091 0.15122746 -0.09440991
000050 3d 3c fb 3d 17 7d 58 3d f8 b0 33 be db 56 d3 bd
       0.12267349 0.05285367 -0.17547977 -0.10319301
000060 6d d3 fc bd e0 7c 86 be da f2 29 bb 52 57 68 3d
       -0.12345014 -0.26267147 -0.0025932104 0.0567239
000070 80 22 66 3d f4 b3 71 be 11 30 48 3c bd bb 66 3e
       0.056185246 -0.23603803 0.012218491 0.22532554
000080 f1 a1 eb 3d f7 79 29 bd ef 74 82 be 0f ca 23 bd
       0.11505497 -0.04137608 -0.25479838 -0.03998762
000090 7d 74 9e bd 54 0b 90 3d 1c 6b 6c bc 79 64 3c be
       -0.07737062 0.07033411 -0.014429834 -0.18397702
0000a0 2c e4 80 3d 08 60 e1 3c 91 f3 05 bd 64 f9 e7 3d
       0.0629352 0.027511612 -0.032702986 0.11326864
0000b0 9a d5 a1 bc b3 98 ed bd 00 c4 e5 bc 5a 76 6c bd
       -0.019755173 -0.11601391 -0.028047562 -0.057730056
0000c0 20 92 5b 3d b0 89 8b be 41 40 13 be 75 21 6b 3e
       0.053606153 -0.27253485 -0.1437998 0.22961982
0000d0 49 64 15 be a9 e8 94 3e 47 ab 05 3e 3a 0b 10 3e
       -0.14589037 0.29083756 0.13053618 0.14066783
0000e0 01 62 4a 3d 9a 27 60 3c d2 43 e0 3d 46 98 61 3e
       0.04940987 0.013681317 0.10950436 0.22030744
0000f0 05 50 1a be fd a4 39 bb 28 ad 0c be 9f ef 11 be
       -0.15069588 -0.00283271 -0.13737929 -0.14251564

conv2.weight f4 [128, 64, 2, 2]
000000 b0 4b eb bd ac 4d 16 bc 92 29 76 3d 90 46 d3 bc
       -0.114890456 -0.009173792 0.06009824 -0.025790483
000010 ed 49 a9 3d 23 5c 7e bd 6e b1 0e 3c b6 ad 06 3d
       0.08266053 -0.062099587 0.008709295 0.032880507
000020 a0 3b 04 bd 68 97 5e bb 10 e1 9e bc f6 55 7b 3d
       -0.032283425 -0.0033964757 -0.019394428 0.061361276
000030 f3 d2 ac 3d 15 8f 05 3c 68 14 9a 3d 6a be 34 3d
       0.08438673 0.008151789 0.075234234 0.044126906
000040 19 c7 16 be 4b c7 53 bd 7d 98 f6 3d cf 40 03 be
       -0.14724387 -0.051703732 0.120408036 -0.12817691
000050 15 f8 3a be ba b2 86 bd 20 b5 b9 bd ce c5 41 be
       -0.18258698 -0.06577058 -0.0906775 -0.18923113
000060 35 3c 61 bc 92 cf 7e 3d 16 3a 3b 3d 0c 7f 6f bc
       -0.013747265 0.062209673 0.045709692 -0.014617693
000070 e0 ac 28 be f8 0a b2 bd ca 6a 3c be a2 82 86 bc
       -0.16472197 -0.086934984 -0.18400112 -0.016419712
000080 06 c1 31 3c 8e c3 80 bc 7d a5 ae bd 16 59 7d bb
       0.010849243 -0.015718248 -0.08527658 -0.0038657836
000090 57 71 62 bb 85 40 c8 3c bf 51 04 3d 7f 43 9d 3a
       -0.003455242 0.024444828 0.03230452 0.0011998265
0000a0 55 86 10 3d 9e af d7 3c 67 d7 49 bc 5d da df bc
       0.03528436 0.026328858 -0.012319422 -0.027325803
0000b0 24 1c 9d bd c6 63 41 bd 60 29 91 3d 8e 2d 5e be
       -0.07671383 -0.047214292 0.0708797 -0.21697065
0000c0 ad a3 36 3d 5e 69 11 3c 0e f8 b5 bc d2 2d 2c bd
       0.044589687 0.008875219 -0.022213008 -0.042035885
0000d0 6b 1a 3f 3d 19 3c d6 bc 31 02 87 bd aa c3 f3 bc
       0.046656054 -0.026151704 -0.06592215 -0.029756386
0000e0 89 d7 4a 3c e5 7d f6 3c 70 d4 4a bd 60 d4 a2 3d
       0.012380489 0.030089328 -0.049519002 0.079506636
0000f0 a9 34 4a bd ad e0 c9 3c b3 1d d8 bd 9a 24 85 3d
       -0.049366627 0.024643267 -0.1055254 0.06501122
000100 02 84 5a bd 04 42 6a 3d 67 f6 c6 bd 01 01 c6 3d
       -0.05334855 0.057191864 -0.09714966 0.0966816
000110 cc a7 96 3b 4f 5b 36 bd 33 dd 53 3d f6 e8 6d 3c
       0.0045976397 -0.044520672 0.051724624 0.014520874
000120 d8 46 05 bd cb fd 4f bc b0 8a 20 bd c9 9c ba bd
       -0.032538265 -0.012694786 -0.039194763 -0.09111936
000130 d6 6b e0 bb e2 18 fc 3c 4e 1b 7e bd 4a 07 4d bd
       -0.0068487925 0.030773584 -0.06203776 -0.05005578
000140 ec 15 3f 3b 62 1b 13 3d 73 4c 86 3d 68 a5 38 bd
       0.0029157354 0.035914786 0.0655755 -0.04507962
000150 6d 77 cf bd 13 90 8f bd 5c 38 c1 bd a0 10 c6 bc
       -0.101302005 -0.07009902 -0.09434578 -0.02417785
000160 ad 62 bc bc a6 b1 fb bc a1 72 84 3d 06 0a 0f 3e
       -0.022996271 -0.030724358 0.06467176 0.13968667
000170 e5 a0 15 be fc 81 65 bd 67 87 ce bd a6 11 10 3d
       -0.14612158 -0.056032166 -0.1008442 0.03517308
000180 47 90 24 3c fe 25 49 3d 8a 1e 15 bd 4d b6 d0 3c
       0.010044164 0.049108498 -0.036406077 0.025477553
000190 77 07 2d 3d f3 93 0a 3d cb b8 91 3d 3c ef 99 3b
       0.042243447 0.0338325 0.071153246 0.0046977084
0001a0 26 bc 35 bc fa ed 22 bd 3e f1 bd bd 5e 82 10 3d
       -0.011092221 -0.039777733 -0.09274529 0.035280578
0001b0 4f 03 89 bd 11 da cd 3c ca 64 7a bd d3 9a 2f 3d
       -0.06690084 0.025128396 -0.061131276 0.04287226
0001c0 c0 7d 2f bd f4 e6 0b be e4 a5 1a 3e 0f ab 66 be
       -0.042844534 -0.1366232 0.15102345 -0.22526191
0001d0 fa 88 6d 3d 22 35 e1 bc 5e ca fc 3c 43 f7 1b bc
       0.05799196 -0.027491156 0.030858215 -0.009519401
0001e0 7a 97 5c 3d c7 79 7f 3d f7 82 05 bc 1d 87 a3 bb
       0.053855397 0.062371995 -0.0081489 -0.004990472
0001f0 66 d4 14 be ef ba 81 3b 5e 71 bd bd c2 5e 71 3d
       -0.14534149 0.003959052 -0.09250139 0.05892826
000200 37 eb 7d 3d a3 3a 84 3c 9f 11 5b bc 7d d7 ce 3c
       0.061991896 0.016141241 -0.0133709 0.025249237
000210 df 70 2f bb 01 ed d5 bb eb 82 47 bd e6 b3 02 3c
       -0.0026770157 -0.006528497 -0.048708837 0.007977461
000220 5e cf 13 3d 14 d1 18 3d 1c 12 81 bc 77 9e 09 3d
       0.036086433 0.037308767 -0.015755706 0.03359839
000230 a9 3e 01 3d 16 28 a4 3d 47 3a 73 bd 35 e1 2f bd
       0.031553898 0.08015458 -0.05938175 -0.042939384
000240 4d df 26 3d 56 1f 4e bb e7 5c 0b 3d ac cb 8d bc
       0.0407403 -0.0031451783 0.034024145 -0.017309032
000250 df 2a b7 3c 8c 81 2e bd 48 51 6c bc d9 c7 a7 3d
       0.02235931 -0.042604014 -0.014423676 0.08192415
000260 0d e7 72 3c 4d 82 84 bd cc 4b c1 3c c3 f1 4c 3e
       0.014825595 -0.064701654 0.023595713 0.200141
000270 1b 74 75 3d cb c1 a5 3d 70 b3 9b bd 5b 5f 19 be
       0.05992518 0.08093604 -0.07602584 -0.14977781
000280 70 bb f5 3d 0c b4 8a 3d 0b 98 a4 3d 5d 3a 82 3d
       0.119986415 0.067726225 0.080368124 0.06358788
000290 37 e9 e3 bc 0d 65 a6 bd 0e ba 48 3d 49 95 5e 3d
       -0.027821166 -0.08124743 0.04900556 0.05434159
0002a0 97 05 2b bd 69 64 1d 3d 6c 07 bc 3d 5a 9b 8f 3c
       -0.041753378 0.038425837 0.09181103 0.017530132
0002b0 8d c4 dd 3b 28 26 a5 bc 04 f1 f0 3c b4 13 86 bd
       0.0067678154 -0.020159796 0.0294118 -0.06546727
0002c0 fa 86 6d 3d a2 e4 4d 3d 2d e7 b2 3d 7b b6 b6 bc
       0.05799005 0.05026687 0.087354995 -0.02230381
0002d0 0d 99 78 bd 67 1a 86 bd 1e 8e b8 bb 42 4e a7 bd
       -0.060692836 -0.065480046 -0.005632176 -0.08169223
0002e0 d5 a8 80 bd 14 3c b4 ba be a6 35 3d 56 3d 3d bb
       -0.06282202 -0.0013750815 0.04434847 -0.002887567
0002f0 be 67 c5 bd ca f7 2b bd 6f e1 27 be 16 bb ef 3c
       -0.09638928 -0.041984357 -0.1639459 0.029264014
000300 f4 b2 ac 3c d9 08 48 3d 85 f9 66 3d 42 5d 6a bc
       0.021081425 0.048836563 0.056390304 -0.014304461
000310 11 fd c3 3c 9c c5 18 3d cb 96 59 bd b2 df 82 3d
       0.023924382 0.03729783 -0.053122323 0.06390323
000320 a2 7d 63 3d d1 e1 92 bc f7 30 f8 3d 1d fa cf bd
       0.055539735 -0.017929943 0.12118714 -0.10155127
000330 e1 8d 2e bd eb 5e b6 bc fc 2e d3 bd 31 91 05 bc
       -0.042615775 -0.022262057 -0.10311696 -0.008152292
000340 6a 8d a4 bd b4 6d 09 3d d2 85 02 be 32 a3 a9 3d
       -0.08034785 0.033551887 -0.12746361 0.0828308
000350 94 a5 bf bd 75 9b c7 bd 11 3e 1a be 60 67 bd bc
       -0.093577534 -0.09746448 -0.15062739 -0.023120582
000360 12 fe 6c bd 54 4d f3 bc 38 cb 3c bd 2a 22 b4 3c
       -0.057859488 -0.029699959 -0.046092242 0.021988947
000370 a8 b4 5d 3c cb a4 0f be 50 82 06 bc c6 87 ea bc
       0.013531841 -0.14027707 -0.00820978 -0.028629195
000380 51 c6 3d bd e5 8f f8 bb e8 67 db 3d 32 20 6a 3d
       -0.046331707 -0.007585513 0.10713178 0.05715961
000390 f7 37 81 bd e0 44 e3 bc 67 57 61 bc 87 97 46 3d
       -0.063095026 -0.027742803 -0.0137537485 0.04848435
0003a0 ea ec 89 3c 72 c5 2b 3d 1e ff cc bd c4 38 a4 3d
       0.016836602 0.041936345 -0.10009597 0.0801864
0003b0 c1 88 b8 bd 11 a5 0c 3b 04 02 72 bc f4 80 9d bd
       -0.09010459 0.0021460692 -0.014770988 -0.076906115
0003c0 7d d1 70 bd e9 51 81 bd 32 f3 72 3d 24 61 03 3c
       -0.058793534 -0.06314451 0.05931396 0.008018766
0003d0 be 88 dd 3c 28 48 17 bc 25 8e c5 3d d3 15 22 bd
       0.027042743 -0.009233512 0.096462525 -0.039571594
0003e0 73 76 3c be da ee 41 3d b8 cd 15 39 6f 3c 60 be
       -0.1840456 0.047346927 0.00014286384 -0.21898054
0003f0 44 31 a7 bd 79 c7 f8 3c de 88 b7 bd 80 af c9 bc
       -0.081636935 0.030368553 -0.08961652 -0.024619818

conv2.bias f4 [128]
000000 6c 8f 68 3d 2a fe 97 3c 51 4e ad 3d 46 a8 7a 3d
       0.056777403 0.018553812 0.08462203 0.061195634
000010 3f 43 47 3d fe 58 ad ba 6e cf 07 bc a6 0f 22 ba
       0.048648115 -0.0013225374 -0.008289201 -0.00061821414
000020 a9 04 34 3d df 92 5c 3c 8b 96 44 bd d3 2c 03 3d
       0.043949757 0.013462751 -0.04799513 0.03202517
000030 70 28 09 3c ad 2b 30 3d b0 84 16 3d a0 44 9c bc
       0.008371457 0.043010402 0.036747634 -0.019075692
000040 f4 49 60 3d 64 98 69 bc 01 81 18 bd 63 67 62 bd
       0.054758027 -0.014257524 -0.037232403 -0.05527438
000050 26 97 24 bc e7 4f 81 3d f5 01 2d bc fa e4 58 bd
       -0.010045802 0.06314068 -0.010559549 -0.052952744
000060 20 76 b0 3d 66 67 58 3d 1e 41 1e 3b 27 55 80 bd
       0.086162806 0.052832983 0.00241477 -0.062662415
000070 f9 ca 96 bd e8 6f e4 bc db 1a 25 bc 83 90 68 bc
       -0.07362933 -0.027885392 -0.010077204 -0.0141946105
000080 e2 37 09 3d 3b 5c 94 bd ba 35 a1 3d d2 f3 0c 3d
       0.03350056 -0.07244154 0.07871576 0.034412213
000090 b2 57 46 3c 1b a1 5f bd 55 8b 00 bd 77 71 46 3d
       0.012105869 -0.054597 -0.031382877 0.048448052
0000a0 f4 34 af 3c 5e 95 3e bd aa 27 83 3d 9a f0 83 bd
       0.021387555 -0.046529166 0.0640405 -0.064423755
0000b0 97 eb 0e 3d 22 ec fd bc b6 e7 30 bd 8f b3 d6 3c
       0.034892645 -0.030996386 -0.043189727 0.026208667
0000c0 5e 44 36 bc 9d cc 6d bc e5 66 32 3d 24 15 92 3d
       -0.011124698 -0.014514116 0.04355516 0.071329385
0000d0 3d 34 4f 3d 15 f5 83 bc 2d 2f a4 bc 90 40 bd bb
       0.050586928 -0.016108075 -0.020042026 -0.0057755187
0000e0 fa 91 cb 3d 4e 9f 53 3c 60 b1 05 bd 0f f0 c2 bb
       0.09939952 0.012916399 -0.03263986 -0.0059490274
0000f0 25 5a a4 bc b8 73 65 bd 13 56 0d bd f9 63 56 bd
       -0.020062516 -0.05601856 -0.034505915 -0.052341435
000100 b7 3a 59 bc 70 6a 05 3d 6d c7 22 3d 8b 86 ce 3d
       -0.013258628 0.03257221 0.03974097 0.10084256
000110 88 cc 69 bb e6 f7 b0 3d 2e 40 e5 bb 27 64 84 bd
       -0.0035674889 0.08641033 -0.006996176 -0.06464415
000120 f7 c3 1e 3d e6 84 16 3d 78 a8 82 bd 1b c6 d9 3d
       0.038761105 0.036747836 -0.06379789 0.10633489
000130 14 1b 82 3d 8b 57 a3 bd c2 1f 9a 3c 11 1b a7 bc
       0.06352821 -0.07975682 0.018813971 -0.020398648
000140 fc b9 b4 3c 4a e6 aa 3c 3f 6a 9b bd 90 2d b7 bd
       0.02206134 0.020861764 -0.07588624 -0.08944237
000150 bb 0d 22 bd 14 e9 06 bd e0 f2 b8 bc a7 7b 8b bc
       -0.039563876 -0.032937124 -0.02257675 -0.017026735
000160 21 84 40 3d 99 4f a9 3c 4b 25 66 3d df 6b 0b 3d
       0.047001008 0.020667838 0.05618791 0.03403842
000170 b7 30 3f bd 52 8b 4d bd 4a a6 bd 3c 71 22 c3 3d
       -0.046677317 -0.050181694 0.023150582 0.095280536
000180 e6 97 3c 3d f4 e8 26 bd 6b 98 a8 3c 64 c2 a9 3d
       0.0460433 -0.040749505 0.020580491 0.0828903
000190 b7 fe 06 3d aa cb cf 3c e4 eb 68 bd 5a e8 2e bd
       0.03295776 0.02536567 -0.056865588 -0.042702056
0001a0 76 a2 e3 3c 01 c4 42 bd 55 13 75 bd 0c bd 39 3d
       0.027787428 -0.047550205 -0.05983289 0.045346305
0001b0 f7 d2 39 3d 27 14 33 bc 5c 7a 48 3c 81 0f b7 3c
       0.045367207 -0.010930098 0.012236204 0.02234626
0001c0 5c 1a a0 ba 0b 7c 8a bb 03 de 27 bc f5 40 e7 bc
       -0.0012214887 -0.004226213 -0.010245803 -0.028229216
0001d0 38 fc 51 3d 31 5e 5d 3c 9d fd 00 3d e4 55 3b bd
       0.051265925 0.0135112265 0.031491864 -0.04573621
0001e0 bf f7 da 3c 2e 4f 86 bc d9 c4 15 bd ec 3f 31 3d
       0.026729463 -0.016395178 -0.03656468 0.04327385
0001f0 82 37 91 bd 01 84 eb bc 76 7e 1f 3c b8 b7 2d 3d
       -0.070906654 -0.028749468 0.0097347405 0.042411536

fc_shared.weight f4 [128, 768]
000000 36 a9 82 3c 2c e9 91 3b f5 c7 5c 3d 10 65 5c 3c
       0.015949827 0.004452845 0.05390163 0.01345183
000010 92 20 3d bd 74 6f 39 bc 3b 34 0c 3d 81 be e0 bc
       -0.04617364 -0.011318076 0.0342295 -0.02743459
000020 95 70 91 bc 10 aa b8 3d 74 ed 61 3d 44 71 64 bd
       -0.017753879 0.09016812 0.055158094 -0.05577208
000030 20 55 04 3e ed 05 27 bd 15 03 ea 3c 0c f4 dd 3d
       0.12923098 -0.040777136 0.028565923 0.10837564
000040 65 ed 99 bc 38 06 1a 3d 9e 7f 33 3c 45 c4 50 3d
       -0.018789956 0.037603587 0.010955719 0.050968427
000050 52 2d 05 3e ff 7d e7 bb 78 81 f9 bc 26 b2 a4 3d
       0.1300557 -0.0070645805 -0.030457243 0.080417916
000060 e1 16 96 3c 1c fc 2d 3d 59 86 63 3d a5 b7 22 3d
       0.018321456 0.04247676 0.055548046 0.03972592
000070 73 fc 92 3c 84 cb 3b 3c 75 e7 23 bc 63 f7 ea 3c
       0.017942643 0.011462096 -0.010003914 0.028682416
000080 06 b9 16 3d 6c e0 16 3d ac c2 22 3a 40 9d 9e bc
       0.036797546 0.03683512 0.0006208818 -0.019362092
000090 55 1c d0 3b 70 d7 f8 bc b2 02 66 bc 4f 23 9b bc
       0.0063510337 -0.030376166 -0.014038729 -0.018937735
0000a0 57 86 8d bc 5b 9e e9 3c 81 96 1c 3d 2b 2b 0a bd
       -0.017275972 0.028517893 0.03822947 -0.033732574
0000b0 7d 9e 55 3d 69 d4 04 3d e2 f5 aa bd 18 b2 db 3c
       0.0521531 0.032429133 -0.0834768 0.02681832
0000c0 a3 1a c5 bc 02 80 f3 bc 21 22 2f bd f6 20 a2 bc
       -0.024060553 -0.029724125 -0.042757157 -0.019791108
0000d0 fb e9 0c 3c de 24 d9 bc e7 30 74 3d ee 00 3c 3d
       0.008600707 -0.026506837 0.05961695 0.045899324
0000e0 1a d1 1a 3d 1a 1c 8b 3c 0d a0 92 3d 2c 66 19 bd
       0.03779707 0.016981173 0.071594335 -0.037450954
0000f0 5f 32 d8 bd 59 7f e9 bb 82 89 38 3e 59 e9 27 bd
       -0.105564825 -0.0071257767 0.18021205 -0.040994022
000100 58 f4 af bd f6 d3 db 3d d8 c4 68 3d 8c 1c 03 bc
       -0.08591527 0.10733788 0.05682835 -0.008002412
000110 29 12 04 bd 02 e6 1f 3d e0 73 80 3c b8 03 c2 bd
       -0.03224388 0.039037712 0.015680254 -0.094733655
000120 0f 34 71 3b 12 6f 11 3b bd 86 62 3c 3e 67 32 3b
       0.003680471 0.0022191447 0.013826069 0.0027222182
000130 01 04 89 bc 1a 61 db 3c 7a 03 90 bd 0c a1 d0 3d
       -0.016725542 0.0267797 -0.07031913 0.10186967
000140 30 df 89 3d 32 87 7f bd fa 50 66 3d c0 1a 8d 3d
       0.06732023 -0.06238479 0.05622957 0.06889868
000150 3a 99 63 3d b3 1c 43 3d 9e 0a 88 3d a8 f0 73 3d
       0.05556605 0.04763479 0.0664265 0.05955568
000160 db 96 ed 3c 45 30 f1 3c 21 8a 83 3d 4a 88 a4 bc
       0.029002598 0.029441962 0.064228304 -0.020084519
000170 3a cf 3f 3d 27 e0 40 bb d9 a8 2f bd 8d 3f 3b bc
       0.046828486 -0.002943048 -0.042885635 -0.011428726
000180 bc 4e 75 3c be 2d 65 bd fd cf c0 3c 33 aa 4b 3d
       0.014972385 -0.055951826 0.023536677 0.04972286
000190 d9 18 93 3b 24 00 8c bc 4e 33 23 3c 16 64 c3 3b
       0.004489046 -0.01708991 0.009960962 0.005962859
0001a0 41 a1 e7 3c a5 cb 6a 3c 73 fa 8d bc c7 e7 ed bc
       0.028275134 0.014330779 -0.017331338 -0.029041184
0001b0 e1 67 bb 3c 88 fd 65 bd 59 02 72 3d dd 5b a8 3d
       0.022876682 -0.05614999 0.05908427 0.082206465
0001c0 e3 e2 11 bc c0 09 89 bc 22 48 68 3d 25 ee 91 bd
       -0.008904192 -0.016728282 0.056709416 -0.071255006
0001d0 89 0d cb bc f4 87 a7 3d 2a 92 1b bd 33 76 42 bb
       -0.024786728 0.08180228 -0.03798119 -0.0029672503
0001e0 12 ca b1 3d b8 48 30 3d 86 8a 36 3d 09 a3 a1 3c
       0.0868112 0.0430381 0.0445657 0.019731062
0001f0 f2 a7 39 3c a6 03 05 bd 27 a2 f1 3d 5f b3 ac bc
       0.011331545 -0.032474183 0.11798506 -0.021081625
000200 bf f9 3e 3d 9d 21 6c 3d 19 ac f5 3c 24 c8 23 3d
       0.046624895 0.057649244 0.02998929 0.03998579
000210 47 9a 60 3d 34 ea 90 bd f7 01 4d 3c 57 ca 76 3d
       0.05483463 -0.07075921 0.0125126755 0.06025156
000220 ee 7b 71 bd 2b 23 a8 bd 21 03 72 bc 1f d2 61 bd
       -0.05895608 -0.08209833 -0.014771254 -0.055132028
000230 d2 59 ab bc bf 97 11 3d ad 2c 4b bb 2a 29 c7 bb
       -0.020916853 0.035545107 -0.003100197 -0.006077905
000240 d1 d5 3a 3d fb 9f f2 3d b5 dc a3 3c 37 0b e5 3c
       0.045614067 0.1184692 0.020002702 0.02795945
000250 9e e7 1d 3d c7 71 15 3d a6 38 a9 3d 0c fc 97 3d
       0.038550965 0.03648546 0.08262758 0.07421121
000260 b1 61 c8 bc 55 3a 12 3c 4e 57 73 3d 8a 37 4e bd
       -0.024460645 0.00892504 0.059409432 -0.050345935
000270 c5 24 0b bc 11 88 0d 3d 7e 85 fb 3c c9 72 87 3c
       -0.008492653 0.03455359 0.030703302 0.016534226
000280 06 b3 1b bd 7c 3a bb 3d c7 83 60 bd 44 a8 4e 3d
       -0.038012527 0.091420144 -0.054813173 0.05045344
000290 61 b3 97 bd 4a b4 c8 bd 46 d2 c8 3c d3 55 30 3c
       -0.07407261 -0.098000124 0.024514329 0.01076265
0002a0 79 6d 9f 3d 98 04 8e 3c 9b 02 8a bd b3 41 9a 3d
       0.07784552 0.017336175 -0.06738778 0.075320624
0002b0 36 dc 18 3d 98 4e fa 3b ad 93 5c bd c2 de 18 3d
       0.037319385 0.0076387636 -0.053851772 0.037321813
0002c0 ab ef bc 3d 42 55 7a bc 27 0b be bd 82 cc 27 3d
       0.092254005 -0.015279116 -0.09279471 0.04096652
0002d0 84 71 eb 3c ea 5a 00 bc 66 3e 85 3d 54 1a ab 3c
       0.028740652 -0.007834176 0.06506042 0.020886578
0002e0 4b 38 25 3d 88 8b 05 bd f9 9a a5 bc 3b 16 0d 3d
       0.04033689 -0.03260377 -0.020215498 0.03444503
0002f0 1e 9c d2 3d 01 e7 69 bc 4c 03 52 bb de 5b 3c ba
       0.10283683 -0.014276267 -0.0032045422 -0.000718532
000300 c6 a1 4e bd 5e ad eb bc d1 6e cc 3c b7 2d 0f 3d
       -0.050447248 -0.028769191 0.024955185 0.034955706
000310 d4 01 e5 bb 5e 8c 9d bc 21 83 28 3d f3 8d ba 3c
       -0.0069887433 -0.019231971 0.04114068 0.022772765
000320 a4 12 d0 bc db ab 9f 3c 9b 1d 33 3d e3 41 42 bd
       -0.025399514 0.019491127 0.043729406 -0.047426116
000330 b0 7d dc 3d 61 31 9e 3d 4f 46 17 3e df ac bd 3c
       0.107661605 0.07724262 0.14772914 0.02315372
000340 79 ae 36 bd 4b fd 63 3d 52 23 8e 3d 14 52 bd 3d
       -0.044599984 0.05566148 0.069403306 0.09244171
000350 ba 60 c9 bc f2 60 05 3d 7e 5c 63 3d 4c 67 53 3d
       -0.024582256 0.032563157 0.05550813 0.051612183
000360 0b 57 0f 3d 84 87 df 3c 3f 36 54 3d 0e 01 5c bd
       0.03499512 0.027286299 0.051809546 -0.053711943
000370 51 d0 33 bd c8 02 d8 3d 69 87 8b bb bf 90 e0 3b
       -0.043899838 0.105474055 -0.0042580855 0.0068531926
000380 bf db 76 bc a8 1a 25 3b 5d 9f e5 3c 9e 3d fa 3c
       -0.01506704 0.002519289 0.028030092 0.03054696
000390 f1 db a6 3d 6f 2d bc bc f8 e1 7d 3c 1d b8 73 3d
       0.08147419 -0.022970883 0.01549577 0.059501756
0003a0 81 28 5e bc a2 49 a0 3c 88 8a 46 3d 87 4c 0a 3e
       -0.013559462 0.01956636 0.048471957 0.13505755
0003b0 c1 1c 5d bd 1a cb 40 ba 48 bc a5 3d d1 cf e2 bc
       -0.0539825 -0.0007354483 0.080925524 -0.027686985
0003c0 14 91 44 3c e1 91 12 bd f6 1f 38 3b e2 5f 2e 3d
       0.01199748 -0.035783652 0.0028095222 0.04257191
0003d0 91 d9 8a bd b8 e8 03 3d cf 71 8d bc f8 4a 19 bd
       -0.06779779 0.03220436 -0.017266182 -0.03742501
0003e0 97 f9 63 3c 06 00 2a 3c a7 ee 46 3d 84 5b 46 bc
       0.013914487 0.010375982 0.04856744 -0.01210678
0003f0 76 23 a2 3d e2 c2 e4 3d c9 23 49 3d 70 b7 83 bb
       0.0791692 0.111699834 0.049106393 -0.00401967

fc_shared.bias f4 [128]
000000 94 65 a0 3d c9 93 ce 3c 7a c5 2b 3c 36 f0 39 bd
       0.078318745 0.025216954 0.010484094 -0.0453951
000010 f4 2d 2b 3d 5c e5 3c 3d c8 17 c9 3c a1 1d 3d 3d
       0.04179187 0.04611717 0.024547473 0.046170834
000020 9f bb fc bc e2 a1 45 3c 7f d3 07 bd dc 40 05 3c
       -0.030851183 0.012062522 -0.033160683 0.008133139
000030 10 5b 91 3c 9a 5e be bc 72 0c fc 3c 23 62 1f bc
       0.017743617 -0.023238469 0.030767653 -0.009727987
000040 95 43 5d 3c 07 79 ee bb a9 ec 63 3d 2e d4 49 3d
       0.013504882 -0.007277611 0.05564562 0.049274616
000050 00 3c 6e bc 6f 69 69 3c b5 8c 34 3d ea ec 3a bd
       -0.014540672 0.014246329 0.0440795 -0.045636095
000060 93 f3 bf 3c 21 08 12 bd 40 85 73 bc cb e4 2a 3d
       0.023431575 -0.035652284 -0.014863312 0.0417221
000070 eb a0 df bc 63 6d 9c 3c 95 b8 92 bc 6b 12 c7 bc
       -0.027298411 0.019095128 -0.017910281 -0.024300775
000080 9c 9c a3 bb df d3 86 3b 2f 86 48 3d c7 8d b6 3c
       -0.0049930345 0.0041146125 0.048956092 0.022284402
000090 21 ad da 3b b0 53 00 3d db 8b 8f 3c 0e 4c f3 bc
       0.0066734706 0.03132981 0.017522743 -0.029699352
0000a0 cc 90 b4 bc bc 8b a0 bc 87 47 0a bc 85 82 34 bb
       -0.0220417 -0.01959788 -0.008439905 -0.0027543616
0000b0 27 e8 58 bc af 8e aa 3c 1a 4b b9 3c 4c a3 b1 bc
       -0.013238943 0.02081999 0.022618819 -0.021684311
0000c0 79 64 72 bc 21 af ab bc 18 81 ed 3b 25 09 c5 3c
       -0.014794462 -0.020957531 0.007248055 0.024052212
0000d0 47 55 c8 bc 6f ba 06 bc 7f 20 a7 bc af 6c 0b 3d
       -0.024454726 -0.00822316 -0.020401238 0.034039196
0000e0 9b e0 84 bc f0 f0 22 3d e7 a4 e6 bb 82 cf 16 3a
       -0.016220381 0.039780557 -0.007038701 0.0005752967
0000f0 57 3b 27 3d cf fe 1f 3d 0d 08 12 3b ac 6d 0f bc
       0.040828075 0.039061364 0.002228263 -0.008754175
000100 74 4a 70 3d aa bf ac 39 e0 71 b4 3c 91 17 04 bc
       0.058664754 0.00032949197 0.022026956 -0.008062259
000110 c0 5c 45 bc 2c 4c b5 3c 77 c0 d0 3c b0 69 06 bb
       -0.012046039 0.022131048 0.0254824 -0.0020509772
000120 6f b8 bd 3c 6f 82 34 3d e8 bc e2 bb b9 3f d3 3b
       0.023159234 0.044069704 -0.006919492 0.0064468053
000130 9d 23 20 bb 65 86 37 3d bd 19 b3 3c 8f 69 46 bd
       -0.002443529 0.044805903 0.021862859 -0.048440512
000140 3e 66 5c 3d de 9a 3c 3c b8 30 45 3d 68 74 9e bc
       0.053808443 0.011511533 0.048142165 -0.019342616
000150 25 ec 0b 3d ee 23 11 3c b9 eb ed 3c 92 88 1d 3d
       0.03416075 0.008858664 0.029043065 0.03846032
000160 08 0d f9 bc e3 a8 10 bd fe f1 46 3c 99 43 94 bc
       -0.030401722 -0.035317313 0.012142656 -0.01809864
000170 33 71 a2 bc fd 7a 29 3d ca cb e7 3c 28 f5 9d 3c
       -0.019829368 0.041377056 0.028295416 0.019281939
000180 e1 58 33 3d 74 d9 01 bd 16 d3 3f 3d 1b 6c aa 3d
       0.043785933 -0.03170152 0.046832167 0.08321401
000190 1e 3a f0 3c 7c 63 2c 3d cb 2a 73 bc a9 3c 01 3d
       0.029324587 0.042087063 -0.014841746 0.03155199
0001a0 1d cf c3 bc d5 0b cc 3c 10 ec 5c 3b 65 24 26 bd
       -0.02390247 0.024907986 0.003371004 -0.040562052
0001b0 09 94 0d 3c 1e 0e 3c 3c 5c 55 e7 39 69 f9 06 3c
       0.008641251 0.011477975 0.0004412335 0.008238175
0001c0 27 33 b1 bb 5a 47 14 bd 4d 2c 97 bc 91 b4 44 3d
       -0.005407709 -0.03620086 -0.018453741 0.048023764
0001d0 f8 3a 2c 3d 73 40 36 3c 94 76 50 3d f0 0d 09 bc
       0.042048424 0.011123764 0.050894335 -0.008365139
0001e0 0a 8c f7 bc 00 37 01 bd 13 5e 85 3c 36 06 fc 3c
       -0.030218143 -0.031546593 0.01628021 0.03076468
0001f0 21 5c 7f 3d c4 83 5d 3c 0a 27 22 bc 03 18 c1 3c
       0.06234372 0.013520185 -0.009897003 0.02357102

actor.weight f4 [7, 128]
000000 3a c2 d6 bd da 27 28 be b3 97 3e bd b6 88 60 3d
       -0.104862645 -0.16421452 -0.04653139 0.054817878
000010 75 9c 0e 3e c8 52 b0 bd 45 a0 5d be f9 eb cf 3c
       0.13926871 -0.08609539 -0.21643169 0.025381075
000020 f3 ec f3 bc d9 0e 5c bc cb f7 ae 3d 0a 1e f2 bd
       -0.029776072 -0.013431274 0.085433565 -0.11822136
000030 4b f0 bf bd c2 08 b1 3c c9 3c bb 3d 8b a1 fd bd
       -0.09372004 0.021610621 0.09142453 -0.123843275
000040 0a 1d 65 3d 7b dd e2 bc 58 34 70 3d 34 70 e8 3d
       0.055935897 -0.0276935 0.05864367 0.11349526
000050 33 e5 ca 3d a3 26 10 bc cf ca 05 bd 43 57 95 3d
       0.099069975 -0.008798274 -0.032664116 0.072920345
000060 2b 0a 94 3d d3 16 61 bd e6 52 0f bc eb 04 ec 3d
       0.07228502 -0.054953407 -0.008747792 0.115243755
000070 65 21 fe bc 07 4f a7 bd b4 16 68 3d 15 55 10 bd
       -0.031021783 -0.0816937 0.056662276 -0.03523739
000080 0d e7 7a bd 36 bf bf bc a0 32 2e be cc 30 2b 3d
       -0.061255503 -0.023406606 -0.170115 0.041794583
000090 41 f4 69 bd 22 48 a7 3d 96 fa 0c 3d c9 75 b1 3d
       -0.057117704 0.08168055 0.034418665 0.08665044
0000a0 ff af 51 3d 88 25 48 3d db 64 a1 bd 47 b7 f0 bc
       0.051193234 0.048863918 -0.07880565 -0.029384268
0000b0 f2 75 89 bd 94 b3 5a 3d f5 54 cf bc 76 93 c5 3c
       -0.067119494 0.053393915 -0.025309065 0.024118166
0000c0 f6 67 b6 3d 47 12 51 bd 69 35 41 3b f1 b4 eb 3c
       0.08906548 -0.05104282 0.0029481298 0.028772803
0000d0 7b 08 32 3d 7f e7 18 be ee d1 22 bd 57 74 ae bd
       0.04346512 -0.14932059 -0.039750986 -0.08518284
0000e0 22 17 69 3d 81 aa ed bd c7 7b e8 bc d1 62 df 3d
       0.056906827 -0.11604787 -0.028379334 0.109075196
0000f0 f5 6a 93 bd 1f 1c b6 bd 30 66 e2 bd 75 02 f7 bc
       -0.07198135 -0.088920824 -0.11054647 -0.030152539
000100 be ac 60 3d 63 98 37 be d7 ed 96 bd d5 26 37 3d
       0.05485224 -0.17929225 -0.07369583 0.044714767
000110 56 61 5d 3c 63 12 99 bc 7c 27 17 bc 00 7c 43 3d
       0.013511976 -0.018685525 -0.009225722 0.047725677
000120 88 f0 b7 bc cd 2c d8 3d 25 dc a0 3d 48 f4 de bd
       -0.022453561 0.1055542 0.07854489 -0.10886437
000130 eb 2e 0e bd 3e c3 b8 3c 4a c5 61 bd 27 32 18 3e
       -0.034712713 0.022554036 -0.05511979 0.14862882
000140 4e d5 ab 3d b0 51 f6 3d 3f 2e ca bc f6 59 f8 3c
       0.08390294 0.120272994 -0.024680255 0.030316334
000150 88 36 bd bd 99 e1 6e 3d 75 aa b5 3c d9 c0 14 be
       -0.09238917 0.058320615 0.022176007 -0.1452669
000160 41 76 84 3d cf b1 61 bd a8 f5 12 3d 1e 9a a8 b9
       0.06467868 -0.055101212 0.035878807 -0.00032158283
000170 f0 a1 69 bd df 5b ab 3d eb 1c f2 3d 23 a1 71 3d
       -0.0570392 0.083671324 0.11821922 0.058991563
000180 30 eb 68 3d 2e 5d a3 3d bc c2 fe 3c 7a 1e ab bd
       0.056864917 0.07976757 0.031098716 -0.08355422
000190 70 4c d9 3c 46 14 0c 3d 3f 33 9b 3d b1 60 ff 3d
       0.026525706 0.03419902 0.07578134 0.12469614
0001a0 a1 9f 3f bd d3 6c db bd d8 f0 e0 3d 3a 74 b7 bd
       -0.046783093 -0.10714116 0.10983437 -0.08957715
0001b0 37 26 dd bd a0 39 84 be 8d fa c5 3c af 78 13 bd
       -0.107983045 -0.25825214 0.024167323 -0.036003765
0001c0 80 19 24 be 59 e7 06 3c 9c 39 93 3d c2 f4 7b 3d
       -0.16025352 0.0082338685 0.071887225 0.061512716
0001d0 d2 f7 fa bd aa ee ea 3c 14 f3 d8 3d bc ca 9d bd
       -0.12254299 0.028678257 0.105932385 -0.07704684
0001e0 c1 93 89 bc fe 85 00 bd 85 6b 1c be 8f 0e ee 3d
       -0.016794087 -0.031377785 -0.1527539 0.116238706
0001f0 da 75 c8 3d cb 15 dd bc ec 1d 96 bd bb f9 4b be
       0.097881034 -0.02698793 -0.07329926 -0.19919483
000200 3d 0e d4 bd 7a 05 d5 bd 20 a9 92 bd 6f 0b 81 bd
       -0.10354278 -0.10401435 -0.07161164 -0.06301009
000210 55 1a a4 3d ba 88 ad bd 92 47 2c be 07 a5 15 3d
       0.08012835 -0.08473344 -0.16824177 0.036534335
000220 45 bf 58 3c 49 76 e2 3d ef 91 96 bd cb 3f 83 bd
       0.013229196 0.11057717 -0.073520534 -0.06408652
000230 bf ba 07 bd 8f 92 4f 3d 4d 5d ab 3d fd a2 75 bc
       -0.03313708 0.05067688 0.08367405 -0.014992473
000240 4c 21 99 3d c7 8e a7 3c a4 f6 60 3d db ed ce 3d
       0.07477054 0.020453824 0.054922715 0.10103961
000250 95 0c 7c 3b 7f eb 99 bd e8 fd c8 3b 5f c4 17 3e
       0.0038459648 -0.075156204 0.0061337836 0.14821003
000260 75 03 81 3d fb f3 44 3d c1 24 db 3d 3f b9 82 3d
       0.062994875 0.04808424 0.107003696 0.06382989
000270 96 1b ac 3d 83 b7 cd bd 3e f9 8a bd 85 4f 8e bc
       0.08403699 -0.10044768 -0.067858204 -0.017371902
000280 d5 14 bf 3c 84 4b 2e be 9b f9 17 be 09 fa 9d 3d
       0.023325363 -0.17020994 -0.1484131 0.07713706
000290 d2 8d 6e 3d 9d c7 c8 3d ca fa 05 3d 6c 6c 39 3d
       0.05824072 0.09803698 0.032709874 0.045269415
0002a0 bb 14 ac bc 1a d7 86 3b 97 20 e2 bb 1f ed a1 bd
       -0.021005979 0.0041149976 -0.0069008577 -0.079065554
0002b0 64 b4 39 be 85 6f 22 bd 73 7d a7 bd b8 aa 22 bc
       -0.1813522 -0.039657135 -0.081782244 -0.009928398
0002c0 5d 38 ca 36 94 90 a6 3d 56 3b 27 be 0b 21 49 3c
       6.0266307e-06 0.08133045 -0.16331229 0.012275944
0002d0 be 21 8d bd 45 9a 0c be cc 5e 56 bd 9f f1 3f 3d
       -0.068912014 -0.13730724 -0.0523365 0.046861287
0002e0 8d 0f b5 3d 48 0b ce bd 54 5a b8 3d 15 6e 8b bd
       0.08840857 -0.100607455 0.09001604 -0.06808106
0002f0 6a 82 91 3d e1 49 7e bd b3 e6 7c 3d 5f df 8c bd
       0.07104953 -0.062082175 0.06174345 -0.06878542
000300 59 81 be 3d 6e a6 33 be 16 ae c5 3c a1 00 bb 3d
       0.09302015 -0.17543957 0.024130862 0.09130979
000310 a1 10 25 bb ef 32 a4 3d 3d 79 ab bb 01 5d 03 3d
       -0.0025186914 0.08017527 -0.0052329586 0.032071117
000320 71 43 a8 3d a9 7d 1f bc d9 3c d5 bc 7a bb ca bd
       0.082159884 -0.00973455 -0.026029991 -0.098990396
000330 9e d1 14 bd e0 6c b3 3d c8 b3 3f bd 47 e5 8e 3d
       -0.03633272 0.08761001 -0.046802312 0.06977325
000340 e8 fe a8 3d 67 6f 83 3a e6 8d 8d bd e7 cb 65 3d
       0.082517445 0.0010027707 -0.069118306 0.05610266
000350 16 97 cc 3c d3 76 de bd 3a 89 65 3d 56 0c e2 3b
       0.024974387 -0.10862508 0.056039073 0.006898443
000360 83 a6 35 3d 88 56 96 3b 82 34 2f 3d 8e dd 06 bd
       0.04434825 0.004587952 0.042774685 -0.032926135
000370 2f 31 9a 3c 6b f6 8a 3d 18 d4 cc 3d 2f 5a a4 bd
       0.01882228 0.06785282 0.10001391 -0.08025014
000380 ad 23 b1 3d 6a 99 ab bd 34 cf ea 3c a9 4c c8 3c
       0.08649383 -0.08378871 0.028663255 0.024450617
000390 31 dd 23 3d 30 17 13 be 2d 9d 83 bd 54 ac a5 3d
       0.040005866 -0.14364314 -0.06426463 0.080895096
0003a0 f6 0c a7 37 2c 0a 0c be e9 3d 8f bb 66 2d fd bb
       1.9913987e-05 -0.13675755 -0.004371394 -0.007726359
0003b0 7c 88 82 3d 15 27 c4 bd 51 e2 09 be dc 99 39 bd
       0.063736886 -0.09577767 -0.13465239 -0.045312747
0003c0 95 ee b4 bd ba 2c cd bd 0e 80 54 3d 7e 36 f7 3c
       -0.088345684 -0.100182965 0.051879935 0.030177351
0003d0 93 1d 18 bd 2b c5 00 3d aa 24 d7 3d c4 36 95 bd
       -0.03713758 0.031438034 0.1050504 -0.07285836
0003e0 b8 01 b6 bc b3 a6 c4 bb 7d 33 0b 3d 79 c9 3f bc
       -0.022217616 -0.0060013174 0.03398465 -0.01170575
0003f0 e1 ff a2 3d 30 63 21 be c4 fd 0a be 52 b3 57 3d
       0.07958961 -0.15760493 -0.13573366 0.052661248

actor.bias f4 [7]
000000 63 c3 4b be 17 91 a7 bb 20 05 e9 3d d5 af 39 3d
       -0.19898753 -0.0051137316 0.11377931 0.045333702
000010 e5 e3 e4 bb fe cb 12 bd 4a b6 c4 bd
       -0.006985175 -0.035839073 -0.096050814

critic.weight f4 [1, 128]
000000 08 f1 23 3b e1 ed 57 3b c7 27 c9 3d ed bf 88 3d
       0.0025015492 0.0032948183 0.0982204 0.06677232
000010 94 cd b8 bd d5 d4 8b 3b 9b d6 bd 3d 54 dd 2b 3b
       -0.09023586 0.004267315 0.09269448 0.002622445
000020 85 ee 1b 3d 76 d0 cd bd fe ae e6 3b dd b2 b3 3b
       0.038069267 -0.100495264 0.0070399037 0.0054839686
000030 7a c4 ef 3a d2 9a ed bd f6 84 3a bd e5 d5 eb bd
       0.0018292808 -0.11601795 -0.045536958 -0.115154065
000040 f5 71 49 bd af a9 02 3b 28 a7 25 bd bd 1e 69 bd
       -0.049180944 0.0019937565 -0.040442616 -0.05691408
000050 fe fb 65 3d 09 0b bb 3b 5e b0 b4 bd 2f ad ef 3c
       0.05614852 0.0057081026 -0.08822702 0.029257385
000060 45 6d d6 bc 57 98 df 3b 3e 91 75 3c 85 76 24 bd
       -0.02617515 0.0068235802 0.014988242 -0.04015209
000070 fa f5 4a 3d ba 84 3b 3b 44 b5 4d 3d e7 ef d7 3d
       0.049550988 0.0028613047 0.050221696 0.105438046
000080 1c 0c c2 3c 2f d5 72 3b b9 95 ae 3b f3 bf 6a bd
       0.023687415 0.0037053337 0.005327907 -0.057311963
000090 29 c3 4c 3b 4c b6 83 bd e7 62 8a bd 83 64 d9 3c
       0.0031244254 -0.06431255 -0.067571454 0.026537186
0000a0 9e 1e 94 3d 48 57 82 3c c8 71 8f 3d 1c c4 96 3c
       0.07232402 0.01591076 0.07004124 0.01840406
0000b0 e0 cd a4 3b 8f 1a 4f 3d 0c 4e 46 3b a4 ef a9 3d
       0.005029425 0.050562438 0.0030258922 0.08297661
0000c0 77 45 60 bb 36 f5 45 bb 40 c0 84 3a b9 7e 05 3c
       -0.0034221092 -0.0030205972 0.0010128096 0.008147889
0000d0 9e f2 a2 3c 08 2a 93 3b 4c c3 4e 3d 7f 8d 9d 3b
       0.01989108 0.0044910945 0.05047922 0.0048081274
0000e0 75 96 8b 3b 82 a1 2e 39 90 76 7c 3d 59 72 90 bd
       0.0042598792 0.000166541 0.061636508 -0.0705306
0000f0 b0 64 94 bd 88 3d 23 be be c3 08 be 19 df 11 3d
       -0.07245767 -0.15941441 -0.1335592 0.035613153
000100 9e 6b 75 bd eb c8 c4 3d 7a d5 51 bd 96 91 bb 3c
       -0.059917085 0.096086346 -0.051228978 0.02289657
000110 26 2d ab 3d b3 ba a2 3c 8f e7 93 3b 88 af 8a 3d
       0.08358221 0.019864416 0.004513688 0.06771761
000120 91 94 4e 3b 0a ff 54 b8 8e ff 70 3d c7 1d 8b 3d
       0.0031521658 -5.0782262e-05 0.058837466 0.06792789
000130 9d 41 33 3c 4a 2d 4b bd bb 53 39 3c 3b 56 b5 39
       0.010940936 -0.049603738 0.011311467 0.00034587257
000140 0c b8 d6 b8 5a 1c d2 3d 44 95 b5 3b 5e 09 65 3c
       -0.000102385966 0.10259314 0.0055414755 0.013979284
000150 a1 53 c3 3a 4a 71 12 bd d8 4a 1c bb 7c 1a 19 3b
       0.0014902243 -0.035752572 -0.0023848321 0.0023361733
000160 da 52 ef 3a b7 75 90 3d ea ce 5f bd 6b 39 85 3d
       0.0018258945 0.07053702 -0.054640688 0.06505092
000170 6b c4 e5 3c 8d 98 3b bd c6 79 6c bd af 3d 4c 3d
       0.028047761 -0.04579978 -0.05773332 0.049863514
000180 a7 d8 51 bc a2 d6 de 3c db de 33 bd 4e 1b b7 3a
       -0.012808002 0.027201954 -0.043913703 0.001396993
000190 94 20 65 3d 76 60 b9 3b a6 2f 04 be 4e 0b 4e bd
       0.055939272 0.005657251 -0.12908801 -0.05030375
0001a0 5b 24 a7 3d 8d 4a f9 3a 6d 80 89 bd 02 a1 98 3d
       0.08161231 0.001901941 -0.067139484 0.07452585
0001b0 ad 63 2a 3b 7a d6 85 3b 98 69 ed bd c7 c1 3d 3b
       0.0025999353 0.0040844055 -0.11592406 0.0028954612
0001c0 7a 7a 29 3b d3 57 c8 3d 3b 45 09 3c 9c 48 a0 bd
       0.0025860355 0.09782376 0.008378322 -0.07826349
0001d0 a8 25 b8 bd 58 31 32 bd e2 c5 fe bc a9 6c 1f 3e
       -0.08991557 -0.04350409 -0.031100217 0.15568794
0001e0 72 bf b2 3c d0 71 5a 3d 0f 3d 42 3b 78 b6 f7 3a
       0.021819804 0.053331196 0.0029638445 0.0018898984
0001f0 3b 32 69 bd 44 4f ae 3c be 0c e1 3c 3a 8e c7 3b
       -0.05693267 0.021278031 0.027471896 0.006089953
