trained_models/PPO/ppo_connect4_model_1_6epochs.pt (torch, 537886 bytes, 9 tensors)

conv1.weight f4 [64, 1, 4, 4]
00000000: 9734 653e f32c 27bc 4dce 193e 40cb 603e
00000010: 48c3 163e 17cc 1dbe 2023 663e a0d1 f23d
00000020: ae79 0ebe 0a37 99bd 2cf1 a53a 6236 b03c
00000030: b72e 3a3e fe38 dc3d 701c 5abe 2c0e 3fbe
00000040: 31df 263e cff5 4d3e 0b3a 30be 993b 63be
00000050: 167f ee3d e74a cabd 866e c5bc 6c2c ca3d
00000060: cf42 34be 1b95 b4bd dd97 a83c 42aa 39bd
00000070: 56d2 6eba ca28 b2bd 8ea1 9b3c 051d 35be
00000080: 7df6 9bbd 031e 4ebd 12f3 a9bd 28f2 86be
00000090: 1051 803e f741 d63d 6c6c f2bd 7280 dc3c
000000a0: 1c8c 0fbe e70b 97bd 3f77 a7bd c244 f4bd
000000b0: 34ca 723d 31ad 84bd 41e9 663e 9bb5 873d
000000c0: b3a6 a73e fadf 2d3e 890f 9ebe 7a01 54be
000000d0: 6e00 2e3e d100 e3bd 6bee 03bc d380 fdbd
000000e0: b9f7 2cbd 30d6 083e f0ea 63be 4e94 863e
000000f0: c448 c43b 2555 c53d dab7 6d3e e857 cc3d
00000100: 5e30 1ebe 8b89 38be 0c73 203e f763 983e
00000110: 9ab5 8d3d 0d86 e7bd 766d 8cbd 0f8c 11bd
00000120: a168 0c3e 5f0c 36be 9f04 acbd 7c92 b03d
00000130: 51e6 0f3e 398b 2dbe 46f1 a9bd 7b23 763e
00000140: e9f8 8f3d d5a6 10bd 874b 6a3e e72b 1dbe
00000150: 1444 003e 32d7 1ebe c3bb 66bd 33f2 053e
00000160: fc43 6e3e cdb0 73be 48c6 3fbe f9ec 10be
00000170: c057 843d 9ea9 17bd 2da6 a23d 237a 21be
00000180: 17be 8cbe c398 ecbc b2af ffbd 9ae4 ec3d
00000190: f6ba afbd 974e f4bd 0ea7 963d 7cbe aa3d
000001a0: e0ff a13c 761e 2d3d 591f 093e dde4 603e
000001b0: 1ccc 66be 2153 1abc fad6 a1bc 9503 313e
000001c0: d940 f2bd eb0c b7bd 2d04 433e df60 753e
000001d0: 9673 113d 5cb9 f23d de4b 1a3e 1561 2b3d
000001e0: d3ce 4b3e e484 41be d31a 1fbd a1fd 703e
000001f0: 60ee 4b3d 4ce6 6a3e dcef 7e3c 00a8 20bd
00000200: dd30 a93e e9ca 61be b5b5 483e d15a 37be
00000210: d0e0 13be d7a9 afbd 4cf0 013e 2202 54be
00000220: 43af 993d 7546 0a3d 42d8 193e c3a1 48be
00000230: 4b55 09bc 714a 38be 77f7 313e 0a1f 073d
00000240: 2c7c d53d 0c53 4cbe 8625 103e 2c45 0e3d
00000250: 1803 1b3e 0c9e 24be 8703 483d 8b83 a4bd
00000260: fe27 18be 46ed e0bc 03c7 28be 0152 67bc
00000270: 6353 623e 7c09 61be aff9 663e 79c8 dc3d
00000280: 3c91 803d 432f 553e f967 893e 455c 7b3e
00000290: e37c 07be fa87 af3d f5e0 2a3e 2ef8 303d
000002a0: 4c7a 2abe 7572 9abd 96dd 21bc 6d1b 123d
000002b0: e29b b7bd 4dc5 d93b 651d 1c3e e5c2 163d
000002c0: 7b3d 803d 6c9c 6abc bc33 87be 430e 8f3e
000002d0: 7bb7 6e3e 1bc2 353e 3403 34be 0cb4 d93d
000002e0: 91e8 5bbd 966f 1bbe 782b ac3c dad5 21be
000002f0: 392f 603c 756f 093c dfda e3bc 9bac 26bd
00000300: 5d20 cd3a effb 39be 517e 3bbe 1429 93bd
00000310: 27d4 05ba b565 2b3e 7a09 81be 745f 18be
00000320: f4bd 763e 0553 6cbb bf62 6c3d afba 473e
00000330: 7a43 983d 94ff d5bd e908 82bc 6b6f 1abe
00000340: 83e6 4f3d 075f be3d a882 343e 68bb 803e
00000350: e5fb 303d 66b3 cfbd 1929 f7bd 991d e13d
00000360: f626 40be 25ba 3f3e bf74 5cbe 5e32 24be
00000370: fb88 d33d 84db 96bd 517c c7bd aebd 163d
00000380: 828a cf3d c282 67be 3ec2 42bd 34be 60be
00000390: 655b 9ebd 6cc4 d8bc 43aa 9f3d 394a b7bc
000003a0: 1c57 cf3d 30a5 44be f7d5 8bbd 5646 713d
000003b0: ffcb ec3d cad9 b63c 449b b03c 4883 933d
000003c0: 6df5 b4be 30a6 61be 70b8 c43b 32a7 ef3c
000003d0: 5133 13bd b4de 44be 48c5 603e 78ad de3d
000003e0: 1f57 b1bd ed79 3d3e daa8 b4bd c5f3 42be
000003f0: b0d7 a6bd 7925 9cbd 8841 573e a3c0 603e
0.22383343 -0.010203588 0.15020104 0.21952534 0.14722931 -0.15409885 0.22474337 0.11856389
-0.13913605 -0.07481201 0.0012660376 0.021510307 0.18181883 0.10753058 -0.2129991 -0.1865775
0.16296078 0.201133 -0.17209642 -0.22190703 0.116453335 -0.09877568 -0.024100553 0.09871754
-0.1760361 -0.08817502 0.020580227 -0.045328386 -0.0009110322 -0.08699186 0.018997934 -0.17686851
-0.07615373 -0.05032159 -0.08298315 -0.26356626 0.25061846 0.104618005 -0.11837086 0.026916716
-0.14018291 -0.07375317 -0.08177041 -0.11927177 0.059274867 -0.06478346 0.22549917 0.06626435
0.3274437 0.16979972 -0.30871227 -0.20703688 0.16992351 -0.1108414 -0.008052449 -0.12378087
-0.042228434 0.13362956 -0.2225759 0.26285022 0.0059901197 0.09635381 0.23214665 0.09977704
-0.15448138 -0.18021218 0.15668887 0.29763767 0.069194034 -0.11304865 -0.068568155 -0.03553396
0.13711788 -0.17778157 -0.08399319 0.0862169 0.14052702 -0.1694764 -0.082979724 0.24036972
0.07029898 -0.035315353 0.22880374 -0.15348779 0.1252597 -0.15511778 -0.056331407 0.13080673
0.23268121 -0.23797913 -0.18727982 -0.14152898 0.064620495 -0.037026994 0.07941852 -0.15769248
-0.27488777 -0.028881436 -0.12484683 0.1156704 -0.08580582 -0.11929052 0.07356082 0.08337113
0.019775331 0.042265378 0.13390864 0.21962304 -0.22538799 -0.009419234 -0.01975583 0.17286523
-0.11828775 -0.08938011 0.19044562 0.23962735 0.035510622 0.11851761 0.15068004 0.04184063
0.19903116 -0.1889835 -0.03884394 0.23534252 0.04978788 0.22939414 0.015560117 -0.039222717
0.33045092 -0.2205006 0.19600566 -0.17905737 -0.14441228 -0.08577316 0.12689322 -0.20703939
0.07504132 0.0337586 0.15023902 -0.19592957 -0.008382152 -0.17997147 0.17379557 0.032988586
0.104240745 -0.19953555 0.14076814 0.034733936 0.15137899 -0.16075915 0.04883149 -0.08032902
-0.14859006 -0.02745689 -0.16482167 -0.014118672 0.22102122 -0.21976274 0.22556184 0.107804246
0.06277701 0.2081881 0.26837137 0.24546917 -0.13231234 0.08570857 0.16687377 0.043205433
-0.16648215 -0.07541362 -0.00987949 0.035670687 -0.08965279 0.0066458345 0.15245588 0.03680696
0.062617265 -0.01431952 -0.26406658 0.27940568 0.2331218 0.17749827 -0.17579347 0.10630044
-0.05368859 -0.15179285 0.021016821 -0.15804234 0.013683134 0.00838839 -0.027814327 -0.040691953
0.0015649904 -0.18162511 -0.18309905 -0.071855694 -0.00051051605 0.16738017 -0.25202543 -0.14880162
0.24095899 -0.0036060226 0.05771136 0.19504808 0.07434745 -0.10449138 -0.01587339 -0.15081565
0.050756942 0.09295469 0.17627966 0.2514298 0.043208975 -0.101416394 -0.12068386 0.109919734
-0.18764862 0.18723352 -0.2152891 -0.16034839 0.10328861 -0.07366088 -0.09740508 0.036801986
0.1013384 -0.22608474 -0.047548525 -0.21947557 -0.07732276 -0.026460849 0.07796147 -0.02237426
0.10124037 -0.19203639 -0.0682792 0.05890497 0.11562347 0.022320647 0.021558411 0.07202774
-0.35343495 -0.22036052 0.006003432 0.02925453 -0.03593761 -0.1922558 0.21950257 0.1087293
-0.08659195 0.18503542 -0.088212684 -0.19038303 -0.08146608 -0.07624335 0.21021092 0.21948485

conv1.bias f4 [64]
00000000: 23eb 1d3d 71cb d43c 8a97 2ebe 3822 78be
00000010: b5a8 73be 6b81 4e3e d805 323e 922a c53d
00000020: d015 113a fde0 d3bd 7810 46bd 73ae 02bd
00000030: 5977 c83d f4fc 673e 7518 e53c 9e79 363e
00000040: 7011 94bd 8e3b ddbd cdb8 03be 95ce 2abe
00000050: 8047 23be 493c cabc 2fec 433e 6339 33bd
00000060: f263 20be ddc6 d53d f89a 3abe 6a67 5cbe
00000070: 2e5f a3bb cab8 f6bd de63 033e 3e44 43be
00000080: 0186 483e 2947 26be b802 38be 2d1b e9bd
00000090: 4881 a23d 8ce5 a53d 8ed1 073d a3ac 32be
000000a0: 2338 423e 478f f23d 0362 fc3d e450 6a3e
000000b0: 133b 64be c794 f8bb d415 563d c34a 35be
000000c0: 3216 99be 7d96 f13d 97df 153d d6b3 df3d
000000d0: e5aa 5dbe a456 80be 1a8e 633e cd92 423e
000000e0: 0a29 54bc b0b2 653e f256 263e 4bec 4d3e
000000f0: ea4f 95bc b02a 763e e634 373d d141 443e
0.038554322 0.025975915 -0.17049995 -0.24231803 -0.23794825 0.20166557 0.17385042 0.0962726
0.00055345614 -0.103456475 -0.04835555 -0.03190465 0.09788389 0.22655088 0.027965764 0.17819831
-0.072298884 -0.10802375 -0.12863465 -0.16680367 -0.15945244 -0.02468695 0.19133066 -0.0437559
-0.15663126 0.10438321 -0.18223178 -0.21523824 -0.0049857115 -0.120469645 0.12831065 -0.19069001
0.19582368 -0.16238083 -0.17969787 -0.113821365 0.07934815 0.08100423 0.03315883 -0.17448668
0.18966727 0.11843734 0.12323382 0.2288242 -0.2228816 -0.007586095 0.05226691 -0.177043
-0.29899746 0.117962815 0.036590185 0.10922973 -0.21647222 -0.25066102 0.22222176 0.19001313
-0.012949238 0.22431445 0.16244105 0.2010967 -0.018226583 0.24039721 0.044728182 0.19165732

conv2.weight f4 [128, 64, 2, 2]
00000000: a898 e43c 7afd 21bc 0396 773d 045f 61bd
00000010: 71d0 a43d a2c2 a63d 44cf 8f3d a364 efbc
00000020: f3be 0fbd a776 563d c8e6 8dbc e424 c7bb
00000030: d1d6 c73c 4e32 aebc 4f1a 17bc e392 69bd
00000040: 9e0e 2bbd da81 2f3d 23f9 f83b 3dbe 0a3d
00000050: e2c8 4a3d bad0 0e3b 2eea 8c3d 407d c93c
00000060: 12ee 0f3a 7c36 8a39 e468 823d 6f3a f8bc
00000070: 7395 45bc 776f e6bc 48b5 403d a4e5 65bd
00000080: 552c 43bd cd06 273c 5fd5 333d 4e79 abbc
00000090: 70cb 073d b0ed 273d ce83 86bb 66a7 423c
000000a0: 7ed6 123d a62f f4bc 8122 e1bc f30c 3abd
000000b0: 73ed b43c ca9f 523d fa2e dc3c 704b 1cbd
000000c0: 1809 e33c 7a81 833d a63a 3c3d f891 3fbd
000000d0: f5d4 773c 7dad b83b b55e 6e3d 3f8e f83c
000000e0: 93f9 2d3b 547e 36bd 841a 843c 1a62 ff3c
000000f0: 7c09 913d 0c3b 8c3d a081 1cbd a3d1 f03c
00000100: 90cd 19bd 3207 05bd 5612 b53c 2996 e5bc
00000110: ae59 823d 96ba 5a3c a411 f03c b287 f73b
00000120: 4483 11bc 45ee 63bd 46c4 07bc 758f a7bc
00000130: 9412 08bd d687 3dbd c761 b8bc 823e b13c
00000140: 80bb 1bbb cd3a d53c a5c3 21bb ab4b 863c
00000150: 1d03 8e3c 4278 973c e4e4 793d d981 97bd
00000160: c47d 203d 4fd8 ca3c fd24 1b3d 2ea5 11bc
00000170: 6b13 3cbc 0f17 3dbc 8fe2 81bc e452 21bd
00000180: bb7a c2bd 656a 1fbd 6dd3 e33b ac7d 073d
00000190: d452 993d 3968 2bbc 8531 18bd 38ad 133d
000001a0: 75bc a73a f0fa 94bc 3c5b 973c 4106 afbc
000001b0: 90fe 9dbc 66e2 f2bc 24b3 a03a 383d 43bd
000001c0: 2c2e 623c a06e 053d 63fb 833d ead3 d2bb
000001d0: 787d 13bd 7293 0fbd 30ac 05bc 050b a63c
000001e0: c709 02bc 19c5 21bd 05fa 98bb e08b 6bbd
000001f0: 6286 7abd 4891 94bb e9f4 5ebd bc5a 123c
00000200: 811e ab3d 1f41 dd3b f685 003d 23b9 fcbc
00000210: 2bc7 8cbc e3ce 4b3c 0ff1 053c 0376 423c
00000220: 7028 11bd 85db 853d 46c0 bfbb eb80 9f3b
00000230: 8410 64bd d4f1 92bd 8e40 9b3d be10 cfba
00000240: 54c8 743d 9cb9 32bd 9b3b 403c 53cb 94bc
00000250: e78c 78bc a687 723d 226b 09bd 8970 5abd
00000260: 240c 213d 2946 1c3d 2c01 56bc d9b8 71bd
00000270: de86 edbb 14c1 55bd 267f 7ebc 3841 7c3c
00000280: ae1d 1a3d 67c1 b13a 58cd ab3d 51ae ca3c
00000290: 6752 103d f03b d43a 7940 1cbd 51a1 bcbc
000002a0: d64f d7bc 21ba 36bd d937 0bbd 0f9e 09bd
000002b0: b885 8e3d 6878 943d 69bb 923d cee0 673d
000002c0: 2b0e 053d fb1d 03bd 937b 79bc b42a 85bc
000002d0: c237 053d 0a9d 96bd a5ef 80bd a52a 353d
000002e0: 2d67 41bd ac74 903c ee95 5c3d c189 08bd
000002f0: 69e1 2cbd 1526 efbc 3cae a63c 30a8 0e3d
00000300: a386 14bd 2a00 d9bc 8d17 2c3d b105 573d
00000310: c4db 89bc 60b6 723d 4094 06bd a4cf 39bc
00000320: 0a9c 04bd fdb0 4bba 85d7 5abd ab73 d33c
00000330: a5b2 853d 3bd8 473c 79f3 45bc cda9 1f3c
00000340: 9acd 043c 9784 073d 39e7 8d3c 0c51 b13c
00000350: aba1 c8bb 8a58 8abd 8414 9cbd 8a4a c93a
00000360: 8a4a d6bb 557e 9d3d f13e 6d3c 7428 87bb
00000370: 1a91 c83a a4b0 ae3d 35db d43c 8051 573d
00000380: 0882 38bd 7582 d73c 2eae 65bb 1a93 9c3c
00000390: 4832 37bd 69a8 183c b63a 2ebd 9ce4 4cbc
000003a0: e233 9f3d a1be b83c b28c 6f3d 28c4 a03d
000003b0: a3b3 3cbc a6d7 00bd d428 f33c 46ba 85bc
000003c0: 4bba a3bc 1f8f 87bd d497 4bbd 8d38 84bd
000003d0: 7e00 323c 26ea 8d3d a4af 32bc d093 2bbc
000003e0: cb63 8d3d 3074 013d 6e37 47bd 505a 42bd
000003f0: f61f 053c cbc2 1bbd 7173 b03c afd9 f53b
0.027904823 -0.009887094 0.060445797 -0.055022255 0.080475695 0.08142592 0.07021955 -0.029222792
-0.035094213 0.05235925 -0.01732196 -0.0060773958 0.024394425 -0.021264222 -0.009222581 -0.057024848
-0.041761987 0.042848445 0.007598059 0.03387283 0.049507983 0.0021791891 0.06880604 0.024595857
0.00054904923 0.00026362005 0.063676625 -0.0303013 -0.012059557 -0.028129322 0.047047883 -0.056127205
-0.0476497 0.0101944925 0.04390466 -0.020931866 0.033152997 0.04099816 -0.004105068 0.011880731
0.035849087 -0.029807877 -0.027482273 -0.045422506 0.02208588 0.051421918 0.026877869 -0.03815788
0.027714297 0.0642118 0.04595437 -0.046770066 0.0151264565 0.005635916 0.05819579 0.030341266
0.0026546463 -0.04455407 0.016125925 0.031174708 0.07081887 0.068472 -0.038209558 0.029396838
-0.037549555 -0.032477565 0.02210347 -0.028025704 0.06364761 0.01335015 0.029305287 0.007554018
-0.008881394 -0.055647153 -0.008286541 -0.020454148 -0.033220842 -0.04627212 -0.022507561 0.021636251
-0.0023762882 0.026029015 -0.0024683264 0.016393503 0.017335469 0.01848996 0.061009303 -0.07397813
0.03918244 0.024761347 0.03787707 -0.00888948 -0.011479239 -0.011541142 -0.015855102 -0.03938569
-0.09496065 -0.038919825 0.006952694 0.033078834 0.07486501 -0.01046186 -0.0371566 0.036053866
0.0012797253 -0.018186063 0.018476121 -0.021365287 -0.019286424 -0.02964897 0.0012260419 -0.047665805
0.013804954 0.032576203 0.064444326 -0.0064339535 -0.03600833 -0.035052724 -0.0081587285 0.020268926
-0.007936901 -0.039494608 -0.0046684765 -0.057506442 -0.061163314 -0.0045339204 -0.054432783 0.008932766
0.083554275 0.006752148 0.031377755 -0.030849999 -0.017184814 0.012439462 0.008175149 0.0118689565
-0.035438955 0.06536011 -0.005851778 0.004867663 -0.055679813 -0.07175031 0.07580672 -0.0015797836
0.05976136 -0.043634042 0.011732961 -0.018163359 -0.0151703125 0.059211396 -0.033549435 -0.05332998
0.03931822 0.038152847 -0.013061803 -0.059014175 -0.0072487434 -0.052186087 -0.015533244 0.015396409
0.03762596 0.0013561667 0.083887756 0.024741324 0.035234835 0.0016192179 -0.038147423 -0.02302614
-0.026283186 -0.0446111 -0.033988807 -0.033598002 0.069590986 0.07249528 0.07164652 0.056610875
0.032484215 -0.032011013 -0.015227216 -0.016255714 0.032523878 -0.073541716 -0.062957086 0.044230122
-0.047217537 0.017633758 0.05385392 -0.033334497 -0.042207155 -0.029192964 0.020346753 0.034828365
-0.036261212 -0.026489336 0.042014647 0.052495662 -0.016828425 0.059255958 -0.032856226 -0.011341009
-0.032375373 -0.0007770209 -0.05342819 0.02581199 0.06528214 0.012197549 -0.012081974 0.0097450735
0.00810566 0.033085432 0.01732217 0.021645091 -0.006122788 -0.06755169 -0.076211005 0.0015357297
-0.0065396475 0.076901115 0.014480338 -0.0041246954 0.0015302033 0.08529785 0.025983432 0.05256796
-0.045045882 0.026307324 -0.0035046446 0.019113112 -0.044725686 0.009317496 -0.04253646 -0.012505677
0.07773568 0.022551836 0.058483787 0.07849914 -0.011517438 -0.03145566 0.029682554 -0.016324174
-0.019986292 -0.06619095 -0.04970534 -0.06456099 0.010864375 0.06929426 -0.010906134 -0.010472253
0.069037996 0.031604946 -0.048636846 -0.04744941 0.008125296 -0.038027566 0.021539422 0.0075027565

conv2.bias f4 [128]
00000000: 1a59 e2bc aa3d 14bc 6727 3ebc 1922 87bc
00000010: e11f 893d 2843 8d3c fc4e 04bd 70a2 763d
00000020: d45e 0ebc 9659 86bd d9bc 463d 1751 b8bc
00000030: b217 5e3c 8168 42bc e36e 82bd 07a9 a4bc
00000040: 07db 70bd 5d67 5cbc 7af7 2d3c 4e7b 823b
00000050: a554 0cbd 795d 993c 7a4c 60bd 20c7 1bbd
00000060: f2b1 083d b9bb 713d a898 31bc dc9b 95bd
00000070: 85e4 04bd 1281 393d d9f3 afbd 2ced 823c
00000080: daa4 e53b a10f b7bc a3bd 813c ae37 bfbc
00000090: d80b 6ebd 244f 35bd c3b8 8bbc 6f40 d8bc
000000a0: 9d1d 023d 5542 f3bb d42d c3bc f36a cbbb
000000b0: cb71 be3c 4ad3 c03c 1181 253d 6590 a73c
000000c0: 6e9e ed3a 6b3f 1f3d c7d5 67bd aabe 89bc
000000d0: 1bb5 2a3d a4e5 833d f144 37bd ed2d 533c
000000e0: 58e5 37bd 5ba4 453d 374e a73c 6bb2 a3ba
000000f0: 199b 3b3b 4d02 5f3d a27b 2fbd bbca 83bc
00000100: e34d 353d 8e12 1abd 06b4 4ebd cf46 24bd
00000110: 673f fe3c 3b24 543d 1468 05bd 9196 c13b
00000120: cd94 443d 3d1c 073d 461b 593c e063 4abd
00000130: 36e7 80bd 592b 83bd 5933 e2bc d170 9c3c
00000140: caf3 23bc 1faf 9cbd a02b e93c dbac 19bd
00000150: 7d37 2cbc 8bb0 e8bc ef30 d53c e26b 863c
00000160: 2136 4e3d 7ad8 68bd 18b9 883d 23ee 733c
00000170: 5e55 873c c0e9 20bd 1831 6a3c 06fa 87bd
00000180: 70c9 d7bc 9382 793b 1020 e1bc c7d6 7d3c
00000190: eed5 46bc 2b5e 6b3d 5104 6f3c 2e30 14bd
000001a0: a874 85bc b3d6 503d 1901 bbbc 2e0d f0bb
000001b0: 60da 50bb a2c5 13bd 0386 3a3d f675 29bd
000001c0: 7560 c03b 26da 33bd 8940 d6bc e35f 0b3d
000001d0: 5d66 cc3c d596 1abd db12 75bc 12d7 6dbd
000001e0: ec79 373c e93f 683c e985 873d b5d8 e33c
000001f0: a4df 0cbd 4da4 5a3c 5c17 88bc 5882 0f3d
-0.027630378 -0.009047905 -0.011606074 -0.016495751 0.066955335 0.017243937 -0.032301888 0.060213506
-0.008689601 -0.06560056 0.048519943 -0.022499604 0.013555454 -0.011865736 -0.06368806 -0.02010013
-0.05880263 -0.013452378 0.010618085 0.003981984 -0.03426041 0.018721329 -0.054760434 -0.038031697
0.033372827 0.059016917 -0.010839619 -0.073051184 -0.032444496 0.045289107 -0.08591432 0.015982233
0.007008177 -0.02234632 0.015837496 -0.02334198 -0.058116764 -0.044264928 -0.017055875 -0.026397912
0.031766523 -0.007423679 -0.023825563 -0.0062078177 0.02324762 0.02353825 0.04040629 0.020454595
0.0018128881 0.03887884 -0.05660036 -0.016814549 0.041676622 0.06440285 -0.044743482 0.0128893675
-0.044896454 0.048252445 0.020423038 -0.0012489086 0.002862638 0.054445554 -0.042842515 -0.01608788
0.04426373 -0.03761535 -0.050464652 -0.04010659 0.031036092 0.051792365 -0.03256996 0.0059078415
0.04799347 0.032985914 0.013251131 -0.049411654 -0.062941 -0.06404752 -0.027612375 0.019096764
-0.010006854 -0.07650589 0.028463185 -0.037518363 -0.010511276 -0.028404495 0.02602431 0.016408864
0.05034459 -0.056847073 0.06675929 0.014888319 0.016520198 -0.03928542 0.014293931 -0.06639485
-0.02634117 0.0038072213 -0.027481109 0.015493101 -0.012135966 0.057462852 0.014588431 -0.03617876
-0.016290978 0.050986003 -0.022827672 -0.00732579 -0.0031868443 -0.03607715 0.04553796 -0.041372262
0.0058708736 -0.043909214 -0.02615382 0.03402699 0.024951154 -0.0377415 -0.014958109 -0.058066435
0.011198502 0.014175394 0.06617338 0.027813295 -0.034392968 0.013344836 -0.016612701 0.035036415

fc_shared.weight f4 [128, 768]
00000000: 4a38 fd39 1b75 1b3c b9b4 92bd 2d5a 203d
00000010: f42e 3dbd 4fb2 d1bc 0ffc 51ba c9c9 c3bc
00000020: cf40 2c3c 7874 0cbd 2044 1abd 5041 70ba
00000030: 40f0 553b c4b9 283c 8c46 f43c 61e4 ab3c
00000040: ba6b 3f3c 73a5 853c 16a7 89bc 04f2 423c
00000050: d038 71bb b063 df3c 1ce0 fb3c e81c e83c
00000060: b0d0 d4bc 8c13 233c ce57 ecbc 1373 21ba
00000070: 317f b23b 32cc 293c 347e 26bd 3e25 28bd
00000080: 2b9c 773d fe3d 77bd 4314 47bd 122e 82bb
00000090: bfa2 23bd 78cf ee3c 15f4 ee3c e7d9 c63b
000000a0: e00e 38bd 83cb 3dbb dc93 033d 4579 1b3c
000000b0: 26f8 8bbd 6edf 383d be71 34bc 338b 9cbc
000000c0: 19a4 933d fa29 28bc 4ed4 d439 a049 cf3c
000000d0: 3d81 4abd 240f dbb9 976a 223d dcbd d63d
000000e0: 4497 4f3d 1a30 5dba d07b bc3d 308b 3f3d
000000f0: 5e15 1dbd 212c 8d3d c886 e2bc 33f1 8abc
00000100: d1e9 923c 7ba3 4e3c b7bf 5cbb 875e d2bc
00000110: 8a93 3abb cc99 51bc b163 bcbb f63a 9dbc
00000120: 297c 263d 2bc4 80bc 9fd0 d13c dcee 0f3d
00000130: 057c 1dbd f210 38bc 1c37 aabc c23b 563d
00000140: 19cf 4dbb eedb babd 4928 87bd 92cd 2fbd
00000150: 7b9f b43d 444a 11bd 330a ea3c dad4 143d
00000160: 43e4 c8bc f0e0 9e3d 3dcd 843d fe34 48bc
00000170: 6fe8 7abc 7e4a 553d e9a3 9d3c 5591 79bd
00000180: 3bfb 063d e6e7 93bd 55f1 85bc 54ad 503d
00000190: b1a4 fa3c bac9 3dbd d5b1 cabc 1e90 15bc
000001a0: 6598 923d e42f 36bc b4dc 53bd 4b2f 9d3d
000001b0: 7193 9d3a d32d 8dbc e995 b63d 6784 7bbd
000001c0: 3f77 99bd ff7c 3d3d 29de e3bc f968 a5bd
000001d0: 1a0e 37bb 8f85 7cbc af06 53bd 7260 f8bc
000001e0: 93d6 2dbd 8a09 3d3d 1c65 90bd 52f0 7ebc
000001f0: 28e9 cd3a d0fc 19bd 7a5c 1abd 439f a43c
00000200: 83d2 bdbd e303 33bb c147 3d3d bc1b 63bd
00000210: 7b22 9d3c 2654 62bb 108f b9bd 24e6 ae3c
00000220: 54a1 b33c d397 89bd 547d 8b3c 66b1 453b
00000230: afbf 17bd 07aa 713d 4bd2 c43c 7936 82bd
00000240: 87d3 2bbd 405b 6dbd ef8f 66bc 2e4c 13bd
00000250: cc51 9fbd 4c1e 90bc db7d 5e3b dc07 35bd
00000260: 3525 ae3b e8ee 3bbd 498e 7cbb a263 33bd
00000270: 40ee 0bbd 5437 013d c836 79bd 2127 b8bc
00000280: b684 7b3c 8a5f 8abd 477a 313b dde9 ac3b
00000290: 3fa3 073d 0cc3 00bc dea8 573d 931c 29bd
000002a0: 3f07 4a3c 2876 c3bd fe15 2e3d 3a1a efbc
000002b0: 7820 82bd b8e4 813d b9d5 9f3c d9cd bb3c
000002c0: c558 af3c 7e53 cebc 3467 15bd e236 cb3c
000002d0: 0dc5 743c 535a 8d3d 564d 96bc a958 993c
000002e0: 9e6e d33c b61e 593d da4d ca3c 69e1 1e3b
000002f0: 8aa2 f4bc dad4 1f3d 1ff6 44bd 63a0 51bd
00000300: 8b48 83bc 7da1 b63c 48cb 253c a07f 73bd
00000310: b7dd 383d 16b3 993b c45d 5e3c 219f 1c3d
00000320: abe7 4abd 7421 743d 8fc5 9f3d 9e45 41bd
00000330: 4339 9ebb b8bc e93b 3696 b83b b284 14bd
00000340: 2b87 6bbd 5a9d 30bc 5b33 e33d c2db aa3d
00000350: c38f d23c e1ed 7b3d a5cd 953d 8b32 1c3d
00000360: 48bb 363c 886b 08bd fe1f 7bbc cefd b03c
00000370: 6e0d 9c3c f86f 5bbc d34d d6bc 888a ec3d
00000380: 8e41 17bd 13e6 60bd 2f83 0e3e 561b 4abc
00000390: 259b 823d 3e55 4bbc 3972 50bd e664 453c
000003a0: f996 6e3d 219e 8bbd b394 563d cd8c 0d3d
000003b0: d3b5 37bd e821 8b39 462f 96bc 0041 70bc
000003c0: a8da cdbc 794e 95ba 8484 b43c 85e6 1ebd
000003d0: 38e5 00bc 025f e23c cf12 49bd 00b4 013d
000003e0: e64f 84bd 182a 93bd 9404 d53d 86d1 25bd
000003f0: 5c60 1bbc 3995 b03c f751 463d f978 67bc
0.0004829786 0.009488369 -0.07163376 0.0391485 -0.046187356 -0.02559772 -0.0008010277 -0.02389993
0.010513498 -0.03429076 -0.037662625 -0.0009165006 0.003264442 0.010298196 0.029818796 0.020982923
0.011683399 0.016314244 -0.016803306 0.011898521 -0.0036807545 0.027269214 0.030746512 0.028334096
-0.025978416 0.009953391 -0.028850462 -0.000615881 0.0054472913 0.010363625 -0.0406477 -0.041051142
0.060451668 -0.060361855 -0.048603307 -0.003972777 -0.03995013 0.029151663 0.029169122 0.0060684565
-0.04493606 -0.0028960414 0.03212343 0.009489362 -0.0683444 0.045134954 -0.011013446 -0.019109344
0.072090335 -0.010263914 0.0004059397 0.025303662 -0.049439657 -0.00041782216 0.039652433 0.104854316
0.050681368 -0.00084376486 0.09203303 0.0467636 -0.038350455 0.068931825 -0.02765216 -0.016960716
0.017933758 0.012612219 -0.0033683607 -0.02567984 -0.0028469288 -0.012793016 -0.005749189 -0.019193154
0.040645752 -0.01571854 0.025612174 0.035139903 -0.038448352 -0.011234509 -0.020778231 0.052303083
-0.0031403957 -0.091239795 -0.06599481 -0.042920657 0.08819481 -0.035471216 0.028569316 0.036335804
-0.024522906 0.07757747 0.064844586 -0.012219666 -0.015314206 0.052072994 0.019243198 -0.060929615
0.032954436 -0.072219655 -0.016350428 0.05094655 0.03059611 -0.04633496 -0.024743 -0.0091285985
0.07157973 -0.011119816 -0.05172415 0.07675036 0.001202209 -0.017233765 0.08915312 -0.061405566
-0.074934475 0.046261784 -0.027815895 -0.080766626 -0.002793199 -0.015412702 -0.051520046 -0.030319426
-0.042440962 0.046151675 -0.07050535 -0.0155602265 0.0015709745 -0.037594616 -0.03768585 0.020095473
-0.092686675 -0.002731555 0.046211008 -0.05544637 0.01918148 -0.003453502 -0.0906049 0.021349974
0.021927513 -0.06718411 0.017027535 0.0030165552 -0.037048038 0.05900004 0.024026057 -0.06358046
-0.041949775 -0.05794835 -0.014072402 -0.035961322 -0.077792734 -0.017592572 0.0033949527 -0.04419695
0.005314494 -0.045882136 -0.0038536957 -0.04379619 -0.03416276 0.031546906 -0.06084326 -0.022479596
0.015351465 -0.06756504 0.002708094 0.005276902 0.033114668 -0.007859003 0.05265128 -0.041287016
0.012330829 -0.09544021 0.042501442 -0.02918731 -0.06353849 0.06342453 0.01951109 0.022925304
0.021404633 -0.025186297 -0.036475375 0.024806444 0.014939559 0.069019936 -0.018347424 0.018719034
0.025809582 0.053007804 0.024695326 0.0024243242 -0.02986266 0.03902135 -0.048086282 -0.051178347
-0.016025802 0.0222938 0.010119267 -0.059447885 0.04513332 0.004690538 0.01357216 0.038237695
-0.049537342 0.059602216 0.07801353 -0.047185533 -0.0048286035 0.0071330927 0.005633141 -0.03625936
-0.057501953 -0.010779703 0.1109378 0.08342697 0.025703317 0.061506156 0.07314614 0.03813414
0.01115305 -0.033305675 -0.015327452 0.021605399 0.019049373 -0.013393395 -0.026160156 0.1154986
-0.036927752 -0.054906916 0.1391723 -0.012335619 0.06377248 -0.01241046 -0.05089018 0.012047982
0.058249447 -0.0681727 0.052387904 0.034558106 -0.044851135 0.00026537408 -0.018333089 -0.014663935
-0.025128677 -0.0011391185 0.022035845 -0.03879406 -0.00786715 0.027633194 -0.049090203 0.031665802
-0.06460552 -0.07185763 0.10401264 -0.04048302 -0.009483423 0.02155553 0.04841801 -0.014127963

fc_shared.bias f4 [128]
00000000: 2b47 3abd d107 aebc 30cb efba 7bd3 5c3d
00000010: 82f4 e43a e710 22bd cd08 723c e836 7e3c
00000020: 6fb8 48bd 9ad1 debc 8703 dc3c 6ce3 ba3c
00000030: 1dee 443d dd0b 553b 06c7 9fbc 2a52 483c
00000040: 4f95 69bd 056c ddbb 33f6 babc 7f7c a03c
00000050: 90ba 473d edd5 403d 34ed d13c a27f 453d
00000060: 8605 e33c 39c0 1ebc b69e 1bbd 53b0 b33d
00000070: b27f c33c 72d3 ea3c be54 bc3c 6b98 063d
00000080: 8e48 883d a491 163d 468b 1f3c bfc3 f03c
00000090: 0362 f03a 23b2 f03b d2a5 393c 185a 903c
000000a0: 784a 8a3d a0a4 1cbc c5f5 4abd 7bf0 0bbd
000000b0: 2904 203d c6a1 8c3c 685e 103c 291c 9a3c
000000c0: 1742 febc caf7 423d 4446 bebc a83c b33c
000000d0: 64a2 cfba 9fbf 1d3d d41b f53b 9177 693c
000000e0: 147b af3c c10a eabc 16e1 6b3d d077 423d
000000f0: 2166 db3c 6c07 b2bc 1fca fd3c f122 403b
00000100: 18ea 94bc 7ae9 ce3a 53d6 543d da4d 49bc
00000110: 2bc5 5e3c 9a90 743d b640 84bc 8192 d33a
00000120: fe60 80bc 1957 d63c 29bd 153d 8280 02bd
00000130: f5e5 383c f791 48bd 8824 083d 0a46 3e3d
00000140: 20d5 083d e40d 2ebc e33b 603c 8c3d 3f3c
00000150: 1a72 c03b 20ec 783d 8e7f f6bc ab8a d03b
00000160: 9bd6 923c 7de8 bdbb ee28 7e3d 2889 c0bc
00000170: 5c5d 933d ac9f 8c3c 6b9f 003d 1f04 0d3d
00000180: 7f83 943c d309 803c 48f3 5a3d e28e 143d
00000190: 7535 a8b9 896a 33bb 0d01 1fbd bf0a fbbb
000001a0: 3cd2 ae3c f4ac b43c 1600 22bd 643d 943c
000001b0: 66b2 01bd 60cd 693d 3ecf 293c 4267 963d
000001c0: 1bc3 45bd 5060 b03c 3b62 f03c 495c 6f3d
000001d0: 717d 8e3d 2a9f 00bb e52b ec3a 387f 1abd
000001e0: 9392 17bc 2b4d f9bb d800 a6b9 c31c 00bd
000001f0: 235a 0f3d cfa0 c13a 0aaa 03bd c7f0 103d
-0.045478027 -0.021243962 -0.0018294808 0.05391262 0.0017467889 -0.0395669 0.014772606 0.01551602
-0.049004015 -0.027199555 0.02685715 0.022813521 0.048078645 0.0032508292 -0.019504081 0.012226621
-0.057027157 -0.0067572617 -0.022822475 0.019590614 0.048761904 0.047079016 0.025625803 0.048217423
0.027712595 -0.009689384 -0.037993155 0.087738656 0.0238646 0.028665278 0.022989627 0.0328602
0.06654464 0.036759987 0.009737795 0.029390214 0.0018339757 0.0073454543 0.011331039 0.017621085
0.06752485 -0.009560734 -0.04955079 -0.034164887 0.039066467 0.017166983 0.008811571 0.018812256
-0.031037373 0.04759959 -0.023226865 0.02187951 -0.0015841243 0.038512822 0.007480124 0.014249698
0.021420993 -0.028569581 0.057587706 0.047477543 0.026782097 -0.021732055 0.030980168 0.0029317702
-0.01817803 0.0015786134 0.051962208 -0.012286628 0.013596813 0.059708215 -0.016144138 0.0016141684
-0.01567125 0.026164578 0.03655735 -0.031860836 0.011285295 -0.048967328 0.033237964 0.046453513
0.033406377 -0.010623429 0.013686153 0.011672389 0.005872977 0.06077206 -0.03009012 0.0063641868
0.017924597 -0.005795537 0.062050752 -0.023502901 0.07195541 0.017165981 0.031402033 0.03442776
0.018129108 0.015629685 0.053454667 0.036269076 -0.00032083286 -0.0027376732 -0.03881936 -0.007661193
0.021340482 0.022055127 -0.039550863 0.01809568 -0.031664275 0.057080626 0.010364352 0.073439136
-0.04828177 0.0215303 0.029343715 0.05843762 0.0695752 -0.001962612 0.0018018453 -0.03771898
-0.009251255 -0.007608076 -0.00031662616 -0.03127743 0.03499807 0.0014772656 -0.032144584 0.035385873

actor.weight f4 [7, 128]
00000000: be02 0fbe 74a1 83bc 6d23 f0bc f256 9bbc
00000010: 1993 eebd 18f9 37bd f491 97bd 4046 573d
00000020: 9386 6abd c378 903c 5092 96bd d9ee a63d
00000030: 6dbb d53b 3c35 58bc d994 1b3d be00 213d
00000040: 5b3c 243d 54e6 a43c 3d43 773d 2c9e 653c
00000050: cd03 903c f9d5 513d d899 b1bc 9954 9fbd
00000060: a9fb 163d a4a2 c43b a8cb 97bc c74d a9bd
00000070: a590 4dbc 5957 abbd fa38 29bd 210d 8f3d
00000080: 18d8 debc 62be 943d 49b8 2c3c 95ab 16bb
00000090: 7260 a6bc ee28 cc3d 56a4 c6bd f87b 39bd
000000a0: 19d0 90bd 1762 163d f461 d83a 21ed 6ebd
000000b0: bcde c83c 19bc 043d e617 8d3c 7379 833d
000000c0: a015 79bb ee9c a4bd 8bb3 85bd fe59 8c3d
000000d0: f9dd 3cbd ef44 6d3c 753a 553d 3d6a 9e3d
000000e0: 866b 7e3d 8fc3 35bc ee81 243d bf00 9dbd
000000f0: 0348 ce3d e339 a63d 9e9a 88bd 2fa6 9a3d
00000100: 4f7b 483d 9a5c bbbd 4fa3 663d 0d3e 023d
00000110: 6106 adbd 7ce2 02be 1f5d de3c 7474 b9bd
00000120: 5540 5d3d 4091 873d a5db 05bd e276 923d
00000130: 48e8 233d c93a 7f3d a0b5 253d 5a62 ec3b
00000140: 06d7 843c 90a6 a93d d831 52bd b934 8d3c
00000150: 14df 413c e87b 223d 2ba7 313d bb93 57bd
00000160: 77e8 38bd 1f49 813d a70f 59bd 4280 103d
00000170: 1a22 34bd ad0a b53d bbdf cf3c 2452 36bd
00000180: 3848 7e3d 78e1 cabd fa2f dabc d643 8f3d
00000190: 3063 97bc 8cdb 593d d9fd b5bc ec73 53bd
000001a0: 1e0f 923d fda2 08bd bb8e dcbc 642e 353c
000001b0: 1d42 8abd cc78 0bbe e275 f0bc 9207 12be
000001c0: a543 433c 760d 13be 4581 b7bc fbb2 593c
000001d0: afed c5bd 4c76 bbbc ff85 39bd db95 25bd
000001e0: d5f2 9e3d 8291 973d dc2e 30bd 914f 20bd
000001f0: ea4a 23bd b043 48ba d4a7 e6bb 622c 3abe
00000200: 35d7 38bc 3a31 8bbd 3c0b 883d e482 41bd
00000210: 1c9b 76bd d81a 373d 1b5c 9c3d b529 1dbb
00000220: c891 fe3b d3ad 983d 6d33 c5bd b9b2 213d
00000230: 7a3a a73c 54d6 47bd e4f5 23bc 1d80 84bc
00000240: 854a 413c e154 3fbd 740a 97bd 685c 953c
00000250: daab 923d 7edc c9bd f9cf b73d 147a f43c
00000260: bccd 98bb 0eda 6cbd 6d60 4a3d 1733 79bd
00000270: b16d 19bd f84f 083d 4247 8bbd 99d5 09be
00000280: 4bdd 5abd 792f 6fbd 3700 7d3d 3668 1cbb
00000290: d395 b2bd a654 57bd e0f5 ab3d cf4c b8bc
000002a0: 3f07 9a3d 7462 da3b 0dab dc3c 248d b43b
000002b0: 85a5 81bd 9dc9 b43d b483 7abc 7547 a4bd
000002c0: a73b 963d df4d 97bc 2b7f 06bc 0df8 1f3d
000002d0: 95e3 efbc bb3c 3b3d 16ae 083d 829c 203d
000002e0: 0a88 5d3d 98ec 66bd 14cf aa3d 71d3 983d
000002f0: 0cf9 763d 5825 a93d a59f 2cbd 87d9 953d
00000300: ebd7 7a3c 22b5 033c 74dc eb3c d3f2 b5bc
00000310: 814a b7bd 5c3a 9a3c 8739 a4bd 5171 223d
00000320: 5c0b 113d 3f10 35bd b117 54bd 7797 88bc
00000330: 31e7 8cbc fdbb f2bd 3bbb 42bd 7777 bb3c
00000340: a9e9 053d 5046 c63c 1025 33bc 4798 aabc
00000350: 0ca9 eebc 3fff 4c3d 172c 843d abcc 95bc
00000360: 1b20 b03c a700 8d3d 38f6 42bc b8f6 27be
00000370: 5f9b 2d3d 2a09 823d 2c4e 7c3d 9287 d2bd
00000380: 66be 523d 6dc0 82bd 5136 c3bd e0a0 4d3d
00000390: 5d5b 92bd 62ea 4b3d 439f 4dbd 494c ed3d
000003a0: e48f 633d 8566 abbd 7843 323d 8a51 b43d
000003b0: 085f 153c 2451 afbd f3a5 093d d139 a4bc
000003c0: 5283 57bd bf88 06be 6614 853c b887 43bd
000003d0: 465d eebc 5706 eb3c 2e3a 973d 2a32 a13d
000003e0: a6ae 2b3d 09ce 933d 1c7f c2bc 87de 613c
000003f0: 3c4f 833a b45c e53a ee81 91bd ad26 5abd
-0.1396589 -0.016068198 -0.029313767 -0.018962357 -0.116491504 -0.04491529 -0.07400885 0.05255723
-0.057257246 0.017635709 -0.07352126 0.08151025 0.006522587 -0.013196286 0.03798375 0.03930735
0.040096622 0.02012936 0.060366858 0.014014762 0.017579937 0.05122945 -0.021679804 -0.077798076
0.036861096 0.0060008336 -0.018529728 -0.08266788 -0.012546693 -0.083662696 -0.041314103 0.06984926
-0.02720265 0.07262875 0.010541984 -0.0022990454 -0.02030966 0.09968744 -0.09699313 -0.04528424
-0.070709415 0.03671464 0.0016508684 -0.058331612 0.02452027 0.032405946 0.01722331 0.06419649
-0.0038007274 -0.080377445 -0.06528386 0.06853102 -0.046110127 0.014481767 0.052057702 0.07735107
0.06211426 -0.011093988 0.040162973 -0.07666158 0.10072329 0.0811651 -0.06670116 0.07551228
0.04894572 -0.09148522 0.056308087 0.031797457 -0.08448482 -0.1278171 0.027144013 -0.09055415
0.05401643 0.06619501 -0.032680172 0.07151581 0.040016443 0.06231192 0.040456414 0.007213873
0.016215812 0.082837224 -0.051317066 0.017237054 0.011832971 0.039668947 0.043372314 -0.05263112
-0.04514357 0.06312775 -0.052993443 0.035278566 -0.043977834 0.08839927 0.025375238 -0.04451193
0.062080592 -0.09906286 -0.026634205 0.069953606 -0.018479913 0.05318789 -0.02221577 -0.051624224
0.071317896 -0.033358563 -0.026923528 0.011058424 -0.06750891 -0.13620299 -0.029353086 -0.142607
0.011917983 -0.14360604 -0.022400508 0.013287301 -0.09664475 -0.022883557 -0.045293804 -0.040426116
0.0776116 0.074008 -0.04301344 -0.03913838 -0.039866365 -0.0007639481 -0.0070390496 -0.18180993
-0.011281778 -0.067964986 0.06642768 -0.047243968 -0.060206518 0.044703335 0.07634755 -0.0023981158
0.0077688433 0.07455029 -0.09628949 0.039477084 0.020413626 -0.048788384 -0.010007355 -0.01617437
0.011797552 -0.046711806 -0.07375041 0.01823254 0.07161684 -0.09856509 0.089752145 0.029843368
-0.0046631973 -0.05782514 0.049408365 -0.06083974 -0.037458126 0.03327939 -0.06800701 -0.13460387
-0.053433698 -0.058394883 0.061767783 -0.0023865825 -0.08719983 -0.05257096 0.08396506 -0.022497563
0.07520913 0.0066645686 0.026937032 0.0055099893 -0.063303985 0.08827517 -0.01529019 -0.08021442
0.073355965 -0.018469749 -0.00820903 0.03905492 -0.029283324 0.045712214 0.033369146 0.039211757
0.054084815 -0.056377977 0.08340278 0.07462204 0.060296103 0.08259076 -0.042144436 0.07316881
0.015310268 0.008038791 0.028791644 -0.022210514 -0.08949757 0.018826656 -0.08018785 0.03965885
0.035411224 -0.044204947 -0.051780406 -0.016673787 -0.017200084 -0.11852262 -0.04754184 0.022884114
0.03269354 0.02420345 -0.010934129 -0.020824565 -0.029133342 0.05004811 0.06453722 -0.01828607
0.021499684 0.0688489 -0.011899523 -0.1640271 0.0423845 0.06349404 0.061597988 -0.10279764
0.05145111 -0.063843586 -0.095318444 0.05020225 -0.071463324 0.04978407 -0.050200712 0.11586816
0.055557147 -0.083691634 0.043521374 0.08804615 0.0091168955 -0.08560398 0.033605527 -0.0200471
-0.05261547 -0.13138102 0.016245078 -0.047736853 -0.02909721 0.028689547 0.07384144 0.07870896
0.041914605 0.072170325 -0.023742251 0.013785965 0.001001812 0.0017498941 -0.0710486 -0.05325954

actor.bias f4 [7]
00000000: 8ab2 ecbd a5ef 243d c582 a43c 9307 4e3d
00000010: b81d 0e3e c293 b4bd 7cbb 6bbd
-0.11557491 0.040267605 0.020081887 0.050300192 0.13878524 -0.08817245 -0.057551846

critic.weight f4 [1, 128]
00000000: e15d 943c c3cb 983d 1787 003d 1c51 adbc
00000010: 7d97 2fbc c28e 9ebb 4cb6 013d 66e4 aabc
00000020: a2fb 873d 1050 583d 0739 9dbd 71f0 0fbd
00000030: 0e94 55bd 9a39 4fbd ec2b 483d d3f1 12bd
00000040: 799d 913d e769 55bd 09b7 333d 40cc d739
00000050: a17b c1bc 403a 9cbc c56d b43c f9e5 48bd
00000060: 31fe 8c3d 9815 403d ddab f93c 8718 d839
00000070: 92f2 19bd bb63 7ebc 113c 30bc 5593 3dbc
00000080: 3b25 16bd 2756 99bc 649e 1d3c bb48 17bd
00000090: 14f5 19bd c07c 403d 03e9 adbc 8071 5fbd
000000a0: 0c96 0abd 70db 753d 5610 4b3d dd0b a63d
000000b0: 6f80 91bd 3b32 343b 8bef 50bd 7783 e23c
000000c0: cb1a 083d 3757 87bd 7ae1 77bd a355 90bd
000000d0: 5f28 83bd 4606 23bd c878 c5bc 8126 593d
000000e0: b7a2 143d be7c 303d f37b 38bd debc 75bc
000000f0: 5869 81bc 58b4 d7bc 2b77 1b3c 419c 343d
00000100: dc4c 393d 476d b0bc df47 64bc 996e 8a3b
00000110: e89a 313c 22c3 4bbc d3fd ad3d d901 853d
00000120: caa6 483c 4bd2 2f3b 3f38 52bd caba 9c3d
00000130: 1caf abbb fbd5 24bb 95ba 78bd adba fdbc
00000140: 75fd fcbc c76b 483d 101f a43d b116 073d
00000150: 432a 7cbd ad87 06bc 4d8b cbbb 4d9c 663b
00000160: 1bea 10bd 3fa2 7bbd cf75 8bbd 83e4 343c
00000170: 5ec0 debb 61cd 05bc c364 14bc 386c ec3a
00000180: b8c7 79bc abea cfbc 1d7e e5ba 2464 9bbc
00000190: 6eb6 883c 0d13 8b3d bbf1 a03d 08f2 4d3d
000001a0: d5d6 b43b a80a 9a3d 93c8 893c c40f a93d
000001b0: 6ced 463d 3907 5f3c 8f5d 783d a7eb 70bc
000001c0: c311 7a3d 5011 70b7 75ba 1a3c fe06 0bbd
000001d0: 2921 b5bc dfe2 53bd f8ea d6bc c389 68bd
000001e0: a112 1abc fe53 5ebd a6b6 8a3d 91bd 2d3d
000001f0: 7321 68bd 8040 2dbd 6db6 6b3d a2e7 8a3c
0.018111171 0.074607395 0.03137883 -0.02115684 -0.01071727 -0.0048387954 0.031667992 -0.020860862
0.06639792 0.05281073 -0.07676893 -0.035141412 -0.05214315 -0.050592043 0.048870012 -0.035875153
0.07110114 -0.05210295 0.043875728 0.00041160174 -0.023618521 -0.019070745 0.022024998 -0.049047444
0.06884421 0.046895593 0.030477459 0.00041217005 -0.03758485 -0.015526707 -0.010756508 -0.011570771
-0.0366566 -0.018717838 0.009620283 -0.036934596 -0.03758724 0.04699397 -0.021229273 -0.0545516
-0.033834502 0.060023725 0.049576126 0.081077315 -0.07104575 0.002749576 -0.051009696 0.027650578
0.033228677 -0.06608432 -0.060517766 -0.07047584 -0.064041846 -0.039800905 -0.024105445 0.053015236
0.03628799 0.043087713 -0.045040082 -0.014998643 -0.015797302 -0.026331112 0.009488861 0.044094328
0.045239314 -0.021536482 -0.013933151 0.00422461 0.010840155 -0.01243666 0.08495679 0.06494493
0.012246797 0.0026828225 -0.05132317 0.07652815 -0.0052393805 -0.0025151956 -0.060724813 -0.030972803
-0.030882576 0.04893091 0.08013737 0.032980625 -0.06156374 -0.008211059 -0.0062116743 0.0035188377
-0.03537951 -0.061434027 -0.068095796 0.01104081 -0.0067978343 -0.008166642 -0.009057227 0.0018037623
-0.015245371 -0.025380453 -0.0017508898 -0.01896865 0.016688552 0.06790743 0.078586064 0.050279647
0.005518774 0.07521564 0.016819274 0.0825496 0.048566267 0.013612562 0.0606361 -0.014704621
0.061052095 -1.4309146e-05 0.009443869 -0.033942215 -0.022110539 -0.051730033 -0.026235089 -0.056772005
-0.009403856 -0.05427932 0.06773119 0.042417113 -0.056672525 -0.04229784 0.05754702 0.016956154
