trained_models/DQL/double_dql_b1g_1M_episodes.pt (torch, 536740 bytes, 8 tensors)

conv1.weight f4 [64, 1, 4, 4]
-1.5059153 0.05263444 0.16427529 -0.065577656 0.11507866 1.4505368 -0.15161315 0.0019529035
0.21595162 0.27425462 0.14261883 0.11430504 0.04069369 -0.0017627903 0.24991238 0.26536322
-1.694641 0.23650274 0.82877326 0.30194312 -2.2531245 -0.43741432 -0.19922972 -0.09899556
0.2774353 0.6388991 -0.46934935 0.9195123 0.30661145 -0.2793738 -0.15861672 -1.1775626
0.073875576 0.029135749 0.07879786 0.03640988 -0.009008795 0.05964982 -0.0023401855 -0.20379038
-0.002758639 -0.030791525 0.04269602 0.1453704 -0.084149875 1.434094 -0.2821621 -0.15057302
0.0097979745 -1.6910028 -0.02981277 -1.9110368 -0.003363327 0.0906352 -0.16020349 0.008889231
-0.030240705 0.098874524 -0.081877194 -0.091129206 0.02218404 0.08087654 -0.13819988 -0.036121435
0.5350535 -0.027198484 0.011448694 0.117948376 -0.9355476 -0.01774805 0.09720381 0.005338663
-0.8535019 0.018778652 -0.041605417 -0.067285895 -0.74481946 0.76339716 0.89128673 0.8272197
0.10442471 0.12304805 -0.0037186607 -0.1866417 -0.067404315 -0.094194256 0.26676622 -0.12719482
0.26789954 -0.11810234 0.19555725 0.14239024 -0.14939086 0.1955687 -0.85974413 0.093823135
1.0827405 -0.60420495 0.1527881 0.033808548 -0.44508466 -2.0692413 0.045035236 -0.10260635
-0.2881526 0.23621745 1.1458894 -0.09130292 -0.15990153 0.0064653778 -0.12980407 0.95817876
1.1059577 -0.09346121 -0.1265832 -0.0368785 0.7050213 -0.17045224 -0.04931908 -0.092840545
-0.005296284 0.1772271 0.11494 0.06211181 -1.7949628 -0.08156987 -0.032133374 0.13147035
-1.1600966 0.19790648 0.020668143 0.17948198 -0.74105483 -0.22397117 0.39577723 0.38504827
0.24255572 0.08505976 -0.40008682 -0.48586223 0.30423427 0.2588027 0.21263483 -0.2347443
0.89439535 -0.06867068 0.0033603841 -0.58377343 -0.10784184 0.9188469 0.17639384 0.052477032
-0.2015304 -0.1535704 0.81342065 0.058785938 -0.22341295 -0.1029294 -0.09215047 -1.7461121
0.5985866 0.13887252 0.08539153 0.058591686 0.17901458 0.19171403 -0.02759426 -0.27589968
-0.3959981 -0.12104146 -0.08731146 0.6140623 -0.1520546 -0.4228226 0.052019075 -1.132128
0.060524628 -0.41194853 0.16430978 -0.4024084 0.8829298 -2.2447994 0.72964096 0.93937474
-0.08457693 0.21869352 -0.122814745 -0.30255023 0.011824428 -0.10123016 0.04668028 -0.24219118
-0.09550221 0.36192536 0.012135985 0.45178363 0.025107304 -0.15573664 0.48648712 -0.03969178
-0.10288424 -0.576926 -0.11140881 -0.5485166 0.21791719 0.004512729 -0.23905113 -0.12908939
0.36049986 0.19911839 -0.2449379 -1.0774891 -0.07822565 -0.23229869 -1.5716206 -0.9619724
-0.18447371 0.44683564 0.23573792 -1.454528 -0.19742657 -0.62899095 0.03568702 0.3799354
-0.13007927 0.05726964 -0.73049164 -0.4331222 0.12467609 0.18893352 -3.4294407 0.64139026
0.010105066 0.20561135 0.17865048 0.28515556 0.089330055 0.083101876 0.20250738 0.04931897
0.21687157 0.48347387 0.7409879 -2.8327596 0.0979986 0.40379956 -0.76759315 0.2624423
0.8491517 -0.45657742 0.09216806 0.15908754 -0.73248464 0.41836792 0.25114307 0.2165549
00000000: d5c1 c0bf 3697 573d c837 283e 944d 86bd
00000010: 5cae eb3d 31ab b93f 7a40 1bbe 91f8 ff3a
00000020: 6c22 5d3e 1a6b 8c3e ac0a 123e c318 ea3d
00000030: 6dae 263d 6d0d e7ba 08e9 7f3e b0dd 873e
00000040: ffe9 d8bf c62d 723e 7c2a 543f 4a98 9a3e
00000050: 3133 10c0 c5f4 dfbe e002 4cbe 2fbe cabd
00000060: 000c 8e3e e48e 233f 8f4e f0be 2865 6b3f
00000070: 2dfc 9c3e 150a 8fbe 6c6c 22be 5fba 96bf
00000080: 144c 973d 18ae ee3c c660 a13d 8722 153d
00000090: a099 13bc 5f53 743d cc5d 19bb 6dae 50be
000000a0: 48ca 34bb 823e fcbc 06e2 2e3d fadb 143e
000000b0: c556 acbd 6490 b73f 8d77 90be d02f 1abe
000000c0: af87 203c c872 d8bf e939 f4bc db9c f4bf
000000d0: 436b 5cbb f39e b93d 620c 24be 23a4 113c
000000e0: 5bbb f7bc ba7e ca3d 3baf a7bd f3a1 babd
000000f0: 4ebb b53c 99a2 a53d 4584 0dbe 12f4 13bd
00000100: 44f9 083f 5bcf debc 4e93 3b3c eb8e f13d
00000110: 0c80 6fbf 5c64 91bc cb12 c73d f3ef ae3b
00000120: 1a7f 5abf b0d5 993c 716a 2abd 30cd 89bd
00000130: 7dac 3ebf ff6d 433f 5e2b 643f acc4 533f
00000140: 9fdc d53d 9e00 fc3d c6b4 73bb 001f 3fbe
00000150: 460b 8abd ebe8 c0bd 9595 883e 5c3f 02be
00000160: 212a 893e a4df f1bd 2940 483e bfce 113e
00000170: ebf9 18be 2943 483e 3118 5cbf 5826 c03d
00000180: 3e97 8a3f 2dad 1abf 7c74 1c3e d57a 0a3d
00000190: 23e2 e3be 736e 04c0 de76 383d 4723 d2bd
000001a0: bd88 93be fde2 713e 81ac 923f 06fd babd
000001b0: 3abd 23be 85db d33b 5ceb 04be 344b 753f
000001c0: 0690 8d3f 9768 bfbd 079f 01be e90d 17bd
000001d0: 477c 343f 088b 2ebe ce02 4abd 2f23 bebd
000001e0: 738c adbb 057b 353e aa65 eb3d f468 7e3d
000001f0: 57c1 e5bf 1b0e a7bd 499e 03bd 2aa0 063e
00000200: 0c7e 94bf ffa7 4a3e 3d50 a93c 20ca 373e
00000210: c5b5 3dbf b358 65be 50a3 ca3e 0c25 c53e
00000220: 8760 783e d033 ae3d 2ed8 ccbe efc2 f8be
00000230: 98c4 9b3e ca81 843e f2bc 593e cf60 70be
00000240: 18f7 643f 37a3 8cbd e439 5c3b 2d72 15bf
00000250: 2fdc dcbd 8d39 6b3f 96a0 343e 28f2 563d
00000260: fc5d 4ebe 8f41 1dbe 563c 503f 86c9 703d
00000270: 5dc6 64be a6cc d2bd 63b9 bcbd 9a80 dfbf
00000280: f93c 193f 9934 0e3e c1e1 ae3d d6fd 6f3d
00000290: 994f 373e af50 443e 5c0d e2bc b942 8dbe
000002a0: 43c0 cabe 96e4 f7bd 5ad0 b2bd 3033 1d3f
000002b0: 33b4 1bbe 347c d8be f411 553d 92e9 90bf
000002c0: ace8 773d ebea d2be d340 283e 7908 cebe
000002d0: b007 623f cbaa 0fc0 c0c9 3a3f dd7a 703f
000002e0: ab36 adbd 32f1 5f3e 4c86 fbbd dde7 9abe
000002f0: 3fbb 413c c251 cfbd d233 3f3d f700 78be
00000300: aa96 c3bd 484e b93e 03d6 463c 2f50 e73e
00000310: d5ad cd3c 6d79 1fbe d714 f93e d993 22bd
00000320: f9b4 d2bd 6cb1 13bf 4d2a e4bd 956b 0cbf
00000330: af25 5f3e 84df 933b d2c9 74be 0230 04be
00000340: 7093 b83e b1e5 4b3e 00d1 7abe 2aeb 89bf
00000350: c534 a0bd b5df 6dbe dd2a c9bf d343 76bf
00000360: ade6 3cbe a4c7 e43e 4865 713e f92d babf
00000370: 312a 4abe 8d05 21bf 8d2c 123d e586 c23e
00000380: 8033 05be 9293 6a3d 8001 3bbf 31c2 ddbe
00000390: 2e56 ff3d ca77 413e f57b 5bc0 2732 243f
000003a0: b88f 253c c88b 523e 27f0 363e e9ff 913e
000003b0: adf2 b63d 5131 aa3d 185e 4f3e b002 4a3d
000003c0: 9513 5e3e e389 f73e 62b1 3d3f ef4b 35c0
000003d0: 7db3 c83d d1be ce3e fc80 44bf d65e 863e
000003e0: 0162 593f 84c4 e9be 9cc2 bc3d d8e7 223e
000003f0: 1d84 3bbf 5234 d63e d395 803e 91c0 5d3e

conv1.bias f4 [64]
-3.7098422 -3.3885784 -1.7246621 0.37817878 -4.261825 -1.7020181 -4.466274 -2.8278358
-3.1347244 -3.7751043 -1.4596003 -3.7365897 -1.330636 -2.014526 -1.7269278 -2.8147302
-1.8779186 -0.9487768 -1.4999777 0.07468918 -2.5499725 -2.044971 -1.4557445 -0.32102677
0.5541982 -1.8681692 -4.277615 -4.3558083 -4.102142 -1.0515226 -0.4267554 -1.2095582
-3.5241067 -0.21098578 -0.96491075 -1.7194874 -3.8148873 -0.6170919 0.36910713 -1.7012485
-2.873954 0.1535082 -1.5733577 -2.0980027 10.491306 -0.66564375 -2.6286492 -2.454773
-1.320579 -2.3374047 -1.0907171 0.3272234 -2.9149978 -1.7252442 -2.6497402 -3.6312125
-2.5045855 -1.3477196 -1.365329 -3.4158106 -1.7258897 -2.6793911 -0.15438387 -0.8811434
00000000: 0e6e 6dc0 78de 58c0 bac1 dcbf a6a0 c13e
00000010: df60 88c0 bbdb d9bf b7eb 8ec0 43fb 34c0
00000020: 539f 48c0 4f9b 71c0 2fd4 babf 4924 6fc0
00000030: 4852 aabf feed 00c0 f80b ddbf 8a24 34c0
00000040: a35f f0bf 09e3 72bf 45ff bfbf a4f6 983d
00000050: c032 23c0 cee0 02c0 d655 babf 9f5d a4be
00000060: efdf 0d3f 2b20 efbf 39e2 88c0 c862 8bc0
00000070: bf44 83c0 4b98 86bf af7f dabe ced2 9abf
00000080: f78a 61c0 a80c 58be 6404 77bf 2a18 dcbf
00000090: 1d27 74c0 bcf9 1dbf 9cfb bc3e 83c2 d9bf
000000a0: ddee 37c0 4131 1d3e c963 c9bf ad45 06c0
000000b0: 64dc 2741 a167 2abf ca3b 28c0 001b 1dc0
000000c0: bc08 a9bf 0a98 15c0 9e9c 8bbf d389 a73e
000000d0: 538f 3ac0 cdd4 dcbf 5895 29c0 c965 68c0
000000e0: 214b 20c0 1382 acbf 1ac3 aebf a49c 5ac0
000000f0: f4e9 dcbf 257b 2bc0 ce16 1ebe 9d92 61bf

conv2.weight f4 [128, 64, 2, 2]
0.1961679 -2.9013011 0.22243974 2.0715234 -0.032936666 2.9440866 2.6125154 1.5193998
-1.7913585 -3.7543 -3.1918411 -1.0310254 -0.077502176 2.0481472 0.22670518 0.2722093
-1.0996525 0.55027646 3.3105 3.060459 -0.80585426 0.33216444 0.80224293 0.2348149
1.680075 -1.9176042 1.7477627 -0.28617102 1.6658428 0.43406218 -0.33035278 0.66493225
0.9848235 -1.3989666 1.11229 -0.45306024 0.88122445 -0.35514784 0.6499821 0.48343295
0.84795886 0.25293133 -0.06585085 5.2956905 2.5253913 -1.0848683 0.45275286 3.2712374
-1.5370944 1.6118959 1.9174324 1.3244736 0.9597734 2.3883164 -0.6103718 0.9527188
-1.5586282 1.3564061 0.35493487 1.8531511 1.3426945 -0.3218698 0.30177444 1.1799206
-0.32007483 -0.023818437 0.5661835 0.74540126 1.6547277 1.1809312 0.6583216 0.68765974
0.29358268 1.885896 -0.08870488 1.7499061 1.6075404 2.8950632 1.1374314 2.4078748
2.6125278 -1.5446827 -1.1629024 1.0145044 1.1918906 1.015055 -0.13566273 3.2193756
2.7921023 1.1872865 1.8004979 0.22168507 1.3119102 2.3641403 0.06621575 1.0201484
0.77548 0.51661515 0.11704709 0.6447994 -0.48525408 1.6687907 0.8186397 -0.76548
0.6251733 0.9450381 1.3704109 3.5990884 1.6113529 1.5991338 -1.0748796 2.6246884
4.307239 1.604971 1.345898 0.43270713 1.3624427 0.71515775 0.75802076 -0.3041388
-0.03542183 -0.034053072 0.15105516 1.1616659 2.35632 0.775342 0.603344 -1.7472711
2.484429 -2.2340443 2.8658686 1.4532683 0.059843436 0.0031708404 0.04651963 -0.0048412904
4.3894835 0.22428088 2.4437761 -0.008080504 -0.74380255 3.1260083 -0.05277342 -0.71234167
-0.8171203 0.9826719 3.2926455 0.8526257 2.831652 3.355021 1.5617516 -1.4318385
-0.6891845 -1.8679463 1.350156 0.7849161 -0.10493347 0.47700685 1.5713334 0.5288414
-2.5822968 1.025191 0.74912065 1.9238966 -0.30144623 2.3284626 0.94195753 2.5824635
-2.344183 -2.8838987 0.3304882 0.5560143 -1.6885102 1.7714837 -0.5992542 1.3397746
0.3486519 -0.27646825 -1.0162132 -0.45191258 -0.3253389 1.4125403 2.364593 1.6273822
1.3429556 0.757008 2.0581388 0.3238202 0.41481516 2.9819257 -0.20682935 1.2412822
1.0734856 0.982496 2.5289516 -1.5427659 1.8156041 0.7822258 0.5878229 -0.6317856
-0.42090797 0.10377857 0.26663592 0.84560794 1.8619674 0.49347386 1.8700061 1.0400686
-0.43200746 2.3190162 3.486614 2.7159343 0.24477908 3.5385375 2.5163755 1.2952074
-2.2584186 1.267639 1.1875885 1.0217555 0.117761314 0.4326367 -0.8482796 1.324744
1.3558913 1.372521 0.4460281 -0.98256576 1.0191637 -0.61505073 0.30936483 0.81318533
-2.3380506 -1.077724 2.6874099 0.11198054 -3.2035441 3.1400135 -0.13244285 -0.8054224
1.5386006 2.826751 2.0962858 0.500799 -0.060436033 0.27950796 0.5560447 -0.2645133
-0.061765634 -0.038535178 -0.025266744 -0.0019089505 0.92068887 -0.9286053 -1.1801901 -0.25219998
00000000: 3de0 483e ebae 39c0 3ec7 633e d793 0440
00000010: 99e8 06bd ea6b 3c40 7433 2740 b17b c23f
00000020: 3c4b e5bf 7446 70c0 2047 4cc0 a4f8 83bf
00000030: 76b9 9ebd d814 0340 6725 683e 045f 8b3e
00000040: 6ac1 8cbf ebde 0c3f 3bdf 5340 8fde 4340
00000050: 774c 4ebf 7511 aa3e cb5f 4d3f 5173 703e
00000060: b30c d73f 0e74 f5bf b0b6 df3f 0285 92be
00000070: 563a d53f 663d de3e 0024 a9be 0039 2a3f
00000080: 651d 7c3f 5611 b3bf 855f 8e3f 83f7 e7be
00000090: ed97 613f f0d5 b5be 3a65 263f 8684 f73e
000000a0: d513 593f 3780 813e cfdc 86bd 4c76 a940
000000b0: 03a0 2140 f7dc 8abf 39cf e73e f45b 5140
000000c0: 82bf c4bf 9b52 ce3f 6d6e f53f 5a88 a93f
000000d0: b6b3 753f 2dda 1840 5441 1cbf 61e5 733f
000000e0: 2181 c7bf b79e ad3f 06ba b53e 0e34 ed3f
000000f0: 6add ab3f 1ecc a4be 2e82 9a3e a307 973f
00000100: d9e0 a3be e21e c3bc 67f1 103f 9ed2 3e3f
00000110: 1ece d33f c128 973f c487 283f 780a 303f
00000120: 7850 963e 0a65 f13f e7aa b5bd ecfc df3f
00000130: e2c3 cd3f b748 3940 5a97 913f 9f1a 1a40
00000140: a833 2740 2ab8 c5bf fcd9 94bf 48db 813f
00000150: df8f 983f 52ed 813f 2ceb 0abe 400a 4e40
00000160: ceb1 3240 01f9 973f b776 e63f 6901 633e
00000170: acec a73f 134e 1740 209c 873d 3994 823f
00000180: db85 463f e440 043f 62b6 ef3d 9311 253f
00000190: 3973 f8be ef9a d53f 5f92 513f 7ff6 43bf
000001a0: 5b0b 203f 04ee 713f a069 af3f 7757 6640
000001b0: d040 ce3f 6bb0 cc3f a895 89bf e5fa 2740
000001c0: e7d4 8940 b16f cd3f 6346 ac3f ca8b dd3e
000001d0: 8664 ae3f 9414 373f a60d 423f 15b8 9bbe
000001e0: 7b16 11bd 3c7b 0bbd 34ae 1a3e 78b1 943f
000001f0: f2cd 1640 d07c 463f c174 1a3f 94a6 dfbf
00000200: e200 1f40 95fa 0ec0 646a 3740 b204 ba3f
00000210: 641e 753d e0cd 4f3b 5e8b 3e3d b0a3 9ebb
00000220: a676 8c40 e3a9 653e d466 1c40 1764 04bc
00000230: d869 3ebf 8510 4840 f128 58bd 065c 36bf
00000240: cc2e 51bf 6390 7b3f b4ba 5240 ae45 5a3f
00000250: c939 3540 aab8 5640 7ae7 c73f 7c46 b7bf
00000260: 656e 30bf dd18 efbf e9d1 ac3f 43f0 483f
00000270: 5ce7 d6bd 3e3a f43e 7421 c93f 2662 073f
00000280: 5a44 25c0 7539 833f 5fc6 3f3f 3e42 f63f
00000290: 2957 9abe 8805 1540 2124 713f 1547 2540
000002a0: 1807 16c0 cc91 38c0 c035 a93e f456 0e3f
000002b0: 1a21 d8bf fabf e23f b968 19bf bc7d ab3f
000002c0: 8082 b23e 3f8d 8dbe 4613 82bf 1661 e7be
000002d0: d292 a6be 1fce b43f 7e55 1740 0f4e d03f
000002e0: f8e5 ab3f 47cb 413f 8cb8 0340 c3cb a53e
000002f0: a762 d43e dfd7 3e40 13cb 53be 56e2 9e3f
00000300: fa67 893f dc84 7b3f 58da 2140 5a79 c5bf
00000310: b765 e83f f33f 483f 907b 163f b3bc 21bf
00000320: 4081 d7be dc89 d43d 8184 883e c379 583f
00000330: f354 ee3f 9ba8 fc3e 5c5c ef3f f820 853f
00000340: 1530 ddbe c36a 1440 af24 5f40 ded1 2d40
00000350: 5ea7 7a3e 6677 6240 4c0c 2140 5bc9 a53f
00000360: ee89 10c0 ff41 a23f e602 983f e2c8 823f
00000370: d82c f13d 8f82 dd3e da28 59bf 3691 a93f
00000380: d98d ad3f c5ae af3f cc5d e43e 6e89 7bbf
00000390: f573 823f f773 1dbf 1165 9e3e ea2c 503f
000003a0: 9fa2 15c0 dcf2 89bf 86fe 2b40 0e56 e53d
000003b0: de06 4dc0 fbf5 4840 199f 07be 2a30 4ebf
000003c0: ddf0 c43f 7de9 3440 8c29 0640 5d34 003f
000003d0: c68b 77bd ab1b 8f3e f258 0e3f 4a6e 87be
000003e0: f6fd 7cbd 10d7 1dbd 34fc cebc c035 faba
000003f0: 44b2 6b3f 14b9 6dbf 7810 97bf 5b20 81be

conv2.bias f4 [128]
-0.45542827 -2.4601452 -1.4654965 -1.5852729 -1.840779 -2.9754376 -0.008607521 -3.8646078
-0.9232505 -8.222844 -1.815846 -2.9231753 -1.2775095 -3.8734093 -4.806584 -2.1028972
-2.0276513 -2.346104 -1.8433897 -2.6667018 -2.9006212 -5.293612 -1.6703134 -1.9822115
-2.387643 -1.7438687 -2.5391586 -1.1465602 -2.2185726 -2.112093 -4.117166 -1.8846046
-0.049716383 -1.9019531 -1.840106 -2.1640255 -1.3985039 -2.0464072 -2.230298 -4.2344694
-1.686438 -2.2785249 -1.387696 -1.1705018 -1.4525981 -1.6073745 -1.8294721 -4.3959403
-2.0481353 -1.6329966 -2.6863668 -0.016195185 -2.6187317 -1.1874018 2.2418945 -1.4035393
-2.0819237 -0.16620758 -1.1808611 -2.743933 -1.0373613 -0.10719109 -1.9897372 -1.8812238
-1.3948776 -4.6573105 0.83240736 1.5473125 -2.2298317 -1.7180494 -1.9209381 -3.8202484
-0.27258822 -1.6615067 -3.6867406 -3.7512782 2.8398314 -0.049661953 -2.1293666 -1.7874197
-2.3143446 -3.983317 -3.5367882 -4.549966 -1.8242061 -3.3355172 -1.5791703 -1.2527245
-5.1899023 -3.4721172 -2.226121 -1.8926235 -2.7104416 -2.0422368 -2.286868 -1.79822
-1.3263047 -4.821772 -1.9795642 -3.3170726 -0.10715303 -3.76662 -3.7535539 -4.8022566
-2.8127284 -2.9161847 -1.846567 -1.074456 -1.5810804 -4.531089 -1.9248862 -2.7408729
-1.978266 -1.4293236 0.0043748883 -1.9101892 -0.7841993 -4.38699 -2.0199983 -1.9670247
-1.6807038 -1.7421255 -0.92910504 -1.3045195 -1.8654284 -6.6500535 -3.2694612 -2.1879046
00000000: e52d e9be 0573 1dc0 6495 bbbf 39ea cabf
00000010: a59e ebbf 926d 3ec0 8f06 0dbc bc55 77c0
00000020: 255a 6cbf c590 03c1 a46d e8bf 4e15 3bc0
00000030: 6e85 a3bf f0e5 77c0 89cf 99c0 de95 06c0
00000040: 0ac5 01c0 9126 16c0 32f4 ebbf 3eab 2ac0
00000050: c7a3 39c0 4565 a9c0 d4cc d5bf 1bb9 fdbf
00000060: 25cf 18c0 1737 dfbf 9381 22c0 7cc2 92bf
00000070: 18fd 0dc0 882c 07c0 d3bf 83c0 b93a f1bf
00000080: 68a3 4bbd 3373 f3bf 9888 ebbf 657f 0ac0
00000090: 2d02 b3bf 56f8 02c0 34bd 0ec0 c680 87c0
000000a0: 33dd d7bf 5ad3 11c0 06a0 b1bf 01d3 95bf
000000b0: bcee b9bf 73be cdbf 242c eabf 8bab 8cc0
000000c0: a614 03c0 0806 d1bf 6fed 2bc0 c4ab 84bc
000000d0: 4d99 27c0 c8fc 97bf 337b 0f40 2da7 b3bf
000000e0: 3d3e 05c0 5232 2abe 7526 97bf 999c 2fc0
000000f0: 41c8 84bf 0187 dbbd b5af febf f1cb f0bf
00000100: 598b b2bf b008 95c0 a618 553f 560e c63f
00000110: 90b5 0ec0 0be9 dbbf 4de1 f5bf f37e 74c0
00000120: af90 8bbe 40ac d4bf 8ff3 6bc0 f114 70c0
00000130: ccbf 3540 556a 4bbd 8b47 08c0 2bca e4bf
00000140: 391e 14c0 aaee 7ec0 bd5a 62c0 5299 91c0
00000150: 967f e9bf 1d79 55c0 4122 cabf 4759 a0bf
00000160: ae13 a6c0 2b37 5ec0 c478 0ec0 7d41 f2bf
00000170: e077 2dc0 02b4 02c0 0c5c 12c0 132c e6bf
00000180: 5ac4 a9bf f54b 9ac0 5c62 fdbf eb4a 54c0
00000190: 0c73 dbbd 4d10 71c0 3a3a 70c0 16ac 99c0
000001a0: be03 34c0 c5a2 3ac0 4f5c ecbf c687 89bf
000001b0: d860 cabf aefe 90c0 ac62 f6bf 766a 2fc0
000001c0: d237 fdbf 13f4 b6bf 395b 8f3b 1481 f4bf
000001d0: 49c1 48bf 3962 8cc0 a747 01c0 77c7 fbbf
000001e0: 4d21 d7bf f8fd debf d4d9 6dbf 7ffa a6bf
000001f0: 5cc6 eebf 3dcd d4c0 da3e 51c0 a106 0cc0

fc1.weight f4 [128, 768]
-1.9335374 -2.0857985 -1.8956361 -1.340631 -0.7708392 -1.0631058 0.18622743 -1.3435212
-0.4537637 0.25293937 -0.5186374 -1.0777051 -1.0455855 -0.8995507 -0.06246856 -0.21173798
-1.3452429 -3.0114157 -1.914429 0.66246134 -2.7576666 -0.2910917 -1.3436757 0.18229917
-1.2008549 -1.0308495 -0.5479141 -1.0307308 0.039820503 -0.07910823 -0.2366171 -0.82814145
-0.24450125 -1.1287506 -1.2880207 -1.7060162 -1.764689 0.5556331 1.360462 -0.97331643
0.02761429 -0.2217989 -1.8745664 -1.176718 -1.0628995 -1.1670662 -0.23774461 -0.0933885
-6.0555305 -6.688159 -3.3273666 -1.5668267 -3.1204653 -2.2821147 -0.011811199 -0.21712354
-0.2857777 -0.58744925 -0.48469913 -0.6908528 -1.7311748 -0.4767929 -0.29664862 -0.6474363
-0.54137987 -1.2880934 -0.7309726 -0.49878174 0.2088748 -1.7243654 -2.1094515 -0.5971089
-0.7106857 -1.5153494 0.37772802 -1.497531 -1.0018882 0.6074259 -1.8587177 -2.3542626
-0.58726066 -1.2610563 -1.202265 -0.33054477 -0.28592414 -2.0604286 -0.380887 -0.6147176
-0.73966223 -0.7380302 -0.920146 -1.9702935 0.07878018 -0.9115542 -1.6074626 -0.4861825
-0.4473984 -0.5118181 -1.3187709 -0.15137081 0.6905775 -1.2333117 -9.352345 -2.364685
-0.1653386 -3.1791584 -2.9860775 -1.3106914 -0.651239 -0.40244094 -1.5398948 -0.7844202
-1.5317026 -0.5103648 -1.5848671 -1.0986766 0.6318443 -0.6569055 -1.5602683 -0.082980156
-0.31332543 -1.6160338 -0.65674496 -0.76396805 0.61894554 -0.5199589 -0.52729535 -1.7490836
-1.7655433 -0.5086492 -2.5221071 -1.4007506 -2.6141918 -5.182504 -3.6028166 -1.8101829
-4.03523 -3.7272513 -0.17150049 0.78270787 -1.7422276 0.11400955 -0.030522823 -1.6385169
-1.4811493 0.690692 -1.3734324 -2.7460325 0.93952817 -0.5914064 1.0585763 -0.21744582
-0.41458797 -0.7884514 -2.2741656 0.19360669 -2.3585298 0.020753913 -1.9810746 -1.2306122
-1.045321 -0.91430604 -0.2627017 -1.4274468 -1.0040834 -0.11495305 -0.56869394 -0.6405154
-1.2405382 -0.47844175 0.95907366 -0.4521066 -0.4636179 -0.13947894 -2.0793025 0.1351761
0.32893193 -0.6682036 -1.6117398 -0.999539 -2.1871285 -1.1675463 -1.6803057 -2.3215353
-3.3638241 -1.0844377 -1.8625844 -0.2976742 -0.66413474 0.76636684 -0.8147283 -1.270084
0.034540296 -0.031852752 -0.0067290273 -0.016708756 0.0012043751 -0.019969223 1.0494431 -0.085607804
-2.0874023 0.39967424 0.845395 -0.5607426 -1.0788244 -0.49638087 -2.3094168 1.0020889
-1.1416616 -1.5763295 0.2639251 -1.5491841 -0.4164099 -0.73409504 -1.8843285 0.5675095
-0.021114118 -1.1903757 -1.5996813 -0.16981038 -0.40062094 -1.3434316 -1.7976832 -0.528492
-0.0033850397 -1.8614821 -0.52571183 0.9399494 0.51548994 -0.5697922 0.22106607 -0.8143828
-1.1770923 -0.41432014 0.15567161 1.4633956 -2.318887 -1.5566003 -2.0850003 -4.545985
-1.109011 -0.90219253 -2.0724158 -0.0841583 -2.0714276 -0.03863927 0.159765 -0.3336793
-1.4778273 0.49134928 -1.6366596 -1.1397084 -0.768393 0.8520674 -0.0559968 0.087144636
00000000: 277e f7bf b97d 05c0 34a4 f2bf cc99 abbf
00000010: b855 45bf da13 88bf 67b2 3e3e 81f8 abbf
00000020: b753 e8be 4581 813e 6cc5 04bf 3ef2 89bf
00000030: bfd5 85bf f448 66bf 08df 7fbd d7d1 58be
00000040: eb30 acbf 09bb 40c0 020c f5bf 1197 293f
00000050: 9c7d 30c0 f909 95be 91fd abbf a2ac 3a3e
00000060: 9db5 99bf e0f2 83bf 1944 0cbf fdee 83bf
00000070: d31a 233d 7f03 a2bd c14b 72be 1401 54bf
00000080: 895e 7abe e67a 90bf dddd a4bf bd5e dabf
00000090: 54e1 e1bf f93d 0e3f 9e23 ae3f 442b 79bf
000000a0: 5d37 e23c 401f 63be cbf1 efbf b29e 96bf
000000b0: 170d 88bf 6d62 95bf 5373 73be 7842 bfbd
000000c0: e8c6 c1c0 6605 d6c0 93f3 54c0 c78d c8bf
000000d0: b4b5 47c0 2b0e 12c0 c283 41bc a255 5ebe
000000e0: 7451 92be 1363 16bf 7c2a f8be bbdb 30bf
000000f0: 2397 ddbf 331e f4be 54e2 97be 63be 25bf
00000100: df97 0abf 3fe0 a4bf 0521 3bbf 5260 ffbe
00000110: 47e3 553e 01b8 dcbf 4101 07c0 21dc 18bf
00000120: 7fef 35bf f8f6 c1bf 9165 c13e 19af bfbf
00000130: df3d 80bf 4480 1b3f 76ea edbf 3dac 16c0
00000140: b756 16bf 4b6a a1bf d2e3 99bf 2a3d a9be
00000150: a664 92be 10de 03c0 9f03 c3be 225e 1dbf
00000160: 815a 3dbf 8cef 3cbf b08e 6bbf 9432 fcbf
00000170: 8157 a13d 9e5b 69bf 56c1 cdbf eaec f8be
00000180: 6711 e5be 8306 03bf 7ccd a8bf f300 1bbe
00000190: b0c9 303f 28dd 9dbf 35a3 15c1 0057 17c0
000001a0: 864e 29be 5577 4bc0 e51b 3fc0 bcc4 a7bf
000001b0: 99b7 26bf bd0c cebe 461b c5bf c3cf 48bf
000001c0: d50e c4bf 44a7 02bf eddc cabf 6fa1 8cbf
000001d0: 8cc0 213f f52a 28bf dfb6 c7bf 80f1 a9bd
000001e0: 316c a0be 32da cebf 7020 28bf 6993 43bf
000001f0: 3773 1e3f 071c 05bf d4fc 06bf f9e1 dfbf
00000200: 53fd e1bf d536 02bf 346a 21c0 cc4b b3bf
00000210: eb4e 27c0 13d7 a5c0 8c94 66c0 13b4 e7bf
00000220: 9b20 81c0 498b 6ec0 d39d 2fbe 8b5f 483f
00000230: 5001 dfbf d77d e93d 000b fabc ecba d1bf
00000240: 4d96 bdbf 31d1 303f a2cc afbf ffbe 2fc0
00000250: eb84 703f 6966 17bf 6e7f 873f 1eaa 5ebe
00000260: e044 d4be f3d7 49bf ee8b 11c0 d540 463e
00000270: 27f2 16c0 1c04 aa3c da93 fdbf b384 9dbf
00000280: 14cd 85bf f60f 6abf d680 86be 94b6 b6bf
00000290: ce85 80bf 816c ebbd ed95 11bf d1f8 23bf
000002a0: f5c9 9ebf 51f6 f4be da85 753f 847a e7be
000002b0: 535f edbe 91d3 0ebe 4b13 05c0 9b6b 0a3e
000002c0: c469 a83e 640f 2bbf 7d4d cebf cae1 7fbf
000002d0: eaf9 0bc0 2872 95bf 4214 d7bf 0994 14c0
000002e0: e548 57c0 dbce 8abf 2a69 eebf c168 98be
000002f0: bc04 2abf 9e30 443f 0992 50bf 1d92 a2bf
00000300: 207a 0d3d 0878 02bd 2c7f dcbb cde0 88bc
00000310: 1fdc 9d3a 7f96 a3bc 2754 863f 2553 afbd
00000320: 0098 05c0 1aa2 cc3e cf6b 583f d48c 0fbf
00000330: eb16 8abf a225 febe 7ccd 13c0 7344 803f
00000340: f821 92bf 2ac5 c9bf 3121 873e aa4b c6bf
00000350: ae33 d5be a7ed 3bbf ad31 f1bf 4d48 113f
00000360: 84f7 acbc 3b5e 98bf 5bc2 ccbf c6e2 2dbe
00000370: 301e cdbe 91f5 abbf 7c1a e6bf 404b 07bf
00000380: 8bd7 5dbb 0c45 eebf 0d95 06bf 86a0 703f
00000390: 26f7 033f e7dd 11bf 255f 623e 647b 50bf
000003a0: f6aa 96bf c521 d4be 6168 1f3e 8c50 bb3f
000003b0: a568 14c0 ae3e c7bf a570 05c0 b678 91c0
000003c0: 13f4 8dbf 17f6 66bf 76a2 04c0 305b acbd
000003d0: 4592 04c0 3644 1ebd 7099 233e 03d8 aabe
000003e0: 7229 bdbf 2292 fb3e 107e d1bf f7e1 91bf
000003f0: 67b5 44bf 1721 5a3f e75c 65bd e378 b23d

fc1.bias f4 [128]
-3.7649667 -3.507384 -2.6886137 -0.6330731 -0.51040286 -0.67419696 -2.0019233 -0.44083467
-0.47607803 4.0930114 -1.4593785 1.0966206 -2.1282086 -2.2531168 -2.4566236 -2.7349963
1.9963174 -3.2571795 -3.7159507 -3.4711263 -2.314125 0.36771834 -3.1183345 0.0021466138
-1.4075654 -4.476632 -3.90942 1.233278 6.165565 0.4620604 -2.3085895 -3.0832272
-2.0415316 -3.3740463 -1.9755061 -3.710897 -2.4843287 0.18384041 -3.6065264 -3.0999565
-0.6378658 -0.1756704 -1.792629 -3.8154445 -1.43349 0.59762424 -1.9077902 -2.3770883
-0.8173994 0.90145975 -0.31962013 -1.8342643 -0.03754912 -2.9689438 -2.6764226 0.8110072
-2.3851817 -2.71625 -0.17608851 -2.0034695 -2.5863988 1.9987137 -3.646954 -1.203946
5.925435 0.55134034 -2.3026354 -3.824551 0.095817566 -1.6988344 -3.1579118 0.22793475
-2.3679013 -0.0698631 -2.7968695 -1.7454448 -3.2169268 -3.582547 -2.2590716 -4.2086053
-2.7894702 -0.58994526 -0.7685245 -1.8613805 -0.12025238 -1.9854472 -1.2601787 -2.5319784
-3.2554317 -0.81837064 -1.7338631 -1.2788992 -2.3745644 -2.3676898 -3.1558738 -2.397382
-0.037254117 -2.0931897 -3.3633337 -1.2421587 -4.4361296 -1.4661859 -0.20838597 -1.2394606
-2.4691 -4.152961 -3.719287 -2.1643775 -0.6087626 -0.8378425 -0.71862155 2.7919858
-5.1960006 -0.99746424 0.32415822 -0.7043895 -1.838486 -7.678003 -3.9142306 -1.1122429
6.0321307 -0.8929215 -3.3416991 -2.2274554 -1.172515 -2.5407302 -0.590995 -1.665553
00000000: 37f5 70c0 fb78 60c0 3f12 2cc0 1411 22bf
00000010: c3a9 02bf 2c98 2cbf 831f 00c0 15b5 e1be
00000020: 80c0 f3be f3f9 8240 eacc babf 105e 8c3f
00000030: 9234 08c0 1133 10c0 5239 1dc0 2e0a 2fc0
00000040: 5487 ff3f a175 50c0 23d2 6dc0 ef26 5ec0
00000050: a01a 14c0 9445 bc3e cb92 47c0 34ae 0c3b
00000060: 1a2b b4bf 9240 8fc0 f033 7ac0 0edc 9d3f
00000070: 4f4c c540 2e93 ec3e eebf 13c0 9853 45c0
00000080: 74a8 02c0 60f0 57c0 62dd fcbf 567f 6dc0
00000090: 3eff 1ec0 a940 3c3e 54d1 66c0 b065 46c0
000000a0: 2c4b 23bf f1e2 33be de74 e5bf 3e30 74c0
000000b0: 9a7c b7bf e7fd 183f 7832 f4bf 3722 18c0
000000c0: 1641 51bf 11c6 663f 40a5 a3be 2cc9 eabf
000000d0: 1bcd 19bd 2d03 3ec0 824a 2bc0 2b9e 4f3f
000000e0: d1a6 18c0 0ad7 2dc0 8c50 34be d838 00c0
000000f0: 8f87 25c0 dad5 ff3f b267 69c0 e71a 9abf
00000100: 2a9d bd40 a424 0d3f 615e 13c0 72c5 74c0
00000110: 003c c43d 6873 d9bf 3a1b 4ac0 ba67 693e
00000120: b28b 17c0 6314 8fbd e9ff 32c0 bc6a dfbf
00000130: 21e2 4dc0 7348 65c0 a194 10c0 e5ac 86c0
00000140: ae86 32c0 a706 17bf 06be 44bf b741 eebf
00000150: e146 f6bd 2223 febf 894d a1bf ef0b 22c0
00000160: fe58 50c0 bd80 51bf 3aef ddbf f8b2 a3bf
00000170: ddf8 17c0 3b88 17c0 d6f9 49c0 b56e 19c0
00000180: c697 18bd d2f6 05c0 dc40 57c0 0eff 9ebf
00000190: c6f4 8dc0 fbab bbbf 2263 55be a5a6 9ebf
000001a0: bc05 1ec0 0ee5 84c0 cc08 6ec0 2985 0ac0
000001b0: ded7 1bbf d97c 56bf 95f7 37bf e5af 3240
000001c0: a345 a6c0 d159 7fbf 11f8 a53e df52 34bf
000001d0: 8253 ebbf 33b2 f5c0 c182 7ac0 fa5d 8ebf
000001e0: 3707 c140 8196 64bf 66de 55c0 a18e 0ec0
000001f0: f914 96bf 539b 22c0 734b 17bf d730 d5bf

fc2.weight f4 [7, 128]
0.032076195 0.0422033 -0.0427784 -0.17956597 0.004855948 0.031318307 0.0010276805 -0.07666785
-0.044154976 -0.09216898 -0.056305725 -0.0081239175 -0.17804223 0.09395203 -0.15848705 0.01969978
0.059987307 -0.024104549 -0.078255534 0.083810605 0.09309481 0.0069349534 0.08949718 -0.0051363017
-0.0047895755 -0.07068155 0.047109812 -0.04939658 -0.00326447 0.033434786 0.005781401 -0.077839844
-0.044992924 -0.09690547 0.00990436 -0.030425273 0.006847632 -0.0033381097 0.045170516 0.054107446
0.014442132 0.003062384 0.030092666 -0.030169621 -0.07872253 -0.038281187 0.07967999 0.0701676
0.046822507 0.08900464 -0.044714566 -0.04619279 -0.0033145342 0.04659502 -0.18935698 -0.043110583
-0.021469887 -0.006992598 0.020591268 -0.3226785 -0.11891748 -0.008178617 0.027901642 -0.048393115
0.010629232 0.025722897 -0.20565863 -0.014512137 -0.012045176 0.05469459 0.0068580476 0.114557
-0.1075883 -0.010498364 -0.026578592 -0.014048234 -0.030483894 -0.040245645 -0.011785693 -0.30994576
-0.004561561 0.008855682 0.08656754 -0.063369654 -0.007591561 0.06989607 -0.028706754 -0.0403359
0.093024746 0.01666916 -0.1888584 0.08991793 0.07383646 0.052030124 -0.005014047 -0.20252626
-0.0022683432 -0.014255987 -0.012747595 -0.036570933 -0.08863591 0.013046562 -0.040457457 0.012559459
-0.004537214 0.30416045 -0.19696024 0.010814553 0.007936135 0.09724469 -0.06132941 0.03272742
0.08258499 -0.16730131 -0.0042710216 0.021875422 0.05481254 -0.15150522 -0.00016259505 -0.08636267
-0.03275415 -0.047307786 -0.015857745 -0.16577028 0.0033121712 0.0060356585 -0.10536966 0.06414864
0.0005247432 -0.018551188 0.0038368788 -0.0826457 0.11340873 0.003260117 -0.04921093 -0.07505046
0.046970766 0.007579629 -0.07992589 0.09892547 0.06264819 0.047699377 0.06703575 -0.10941316
-0.023561558 0.029045388 0.02465605 0.048195757 -0.046004932 0.040167592 -0.17234915 -0.085667215
0.0030600624 -0.07018811 -0.11723789 -0.25008902 -0.018688472 -0.008693538 -0.0795891 -0.05961023
-0.028045604 0.0058371234 0.010094976 -0.2629003 -0.08317448 -0.00023696464 -0.12075689 0.12926988
-0.055700004 -0.0019274424 0.02415931 -0.04259101 -0.1226585 0.00961353 0.20700273 -0.067627855
-0.013126429 0.102613285 0.021497361 0.038522173 0.015437554 -0.11376283 -0.022874564 -0.01983841
0.009912762 -0.06692322 -0.046560537 0.06810574 -0.07853235 0.0003168236 -0.11541874 -0.01968857
-0.0045629144 -0.0005157183 -0.14076468 -0.0020093184 -0.021047765 0.042552944 0.012562504 -0.0047647664
-0.01980804 -0.003463582 0.0042351256 -0.06985731 -0.028970536 -0.04534418 0.008694893 0.045357447
-0.011940413 -0.057628397 0.043956764 -0.080648296 -0.040491838 0.073543385 -0.06320932 -0.060285952
-0.2159298 -0.00013772998 0.10635224 -0.0018229134 -0.053750332 0.0150416205 0.034500692 -0.099029936
-0.004864065 -0.0046738023 -0.0037152001 -0.09027661 -0.011913617 -0.3230917 -0.09378432 0.11046184
-0.032642942 0.14027937 0.030983819 0.106200494 0.026007503 -0.12221765 -0.050349936 0.019089798
0.029048534 -0.23690882 -0.010023939 0.09931549 -0.0098785665 -0.008206957 -0.043393124 0.011606991
-0.01032135 -0.1307315 0.011644689 -0.04175334 -0.005504522 -0.20523645 -0.07642211 0.006482477
00000000: 5462 033d 5edd 2c3d 6738 2fbd 24e0 37be
00000010: a51e 9f3b a047 003d 3cb3 863a 0904 9dbd
00000020: d9db 34bd 17c3 bcbd d5a0 66bd 2e1a 05bc
00000030: b450 36be ec69 c03d 6e4a 22be 6f61 a13c
00000040: 40b5 753d e776 c5bc 7044 a0bd e5a4 ab3d
00000050: 7ea8 be3d 9b3e e33b 4c4a b73d 6c4e a8bb
00000060: dff1 9cbb 7dc1 90bd 38f6 403d 1154 4abd
00000070: b8f0 55bb eaf2 083d e871 bd3b 7f6a 9fbd
00000080: 804a 38bd 6076 c6bd e645 223c 6c3e f9bc
00000090: 1a62 e03b 30c4 5abb b804 393d c59f 5d3d
000000a0: b19e 6c3c 47b2 483b e584 f63c 4826 f7bc
000000b0: 4739 a1bd bccc 1cbd 432f a33d 08b4 8f3d
000000c0: f5c8 3f3d 1148 b63d 9f26 37bd a734 3dbd
000000d0: a838 59bb 6bda 3e3d cce6 41be b994 30bd
000000e0: 9ee1 afbc 2a22 e5bb 05af a83c 1e36 a5be
000000f0: 028b f3bd 9bff 05bc fc91 e43c dc37 46bd
00000100: 3b26 2e3c d3b8 d23c 2d98 52be 50c4 6dbc
00000110: 2159 45bc 6f07 603d 79b9 e03b dc9c ea3d
00000120: 4157 dcbd 5501 2cbc 59bb d9bc 902a 66bc
00000130: 5cb9 f9bc 9ed8 24bd c718 41bc 36b1 9ebe
00000140: 2679 95bb 6c17 113c 534a b13d f3c7 81bd
00000150: a1c2 f8bb ac25 8f3d 6d2a ebbc 4237 25bd
00000160: c283 be3d c38d 883c 1964 41be e426 b83d
00000170: 9237 973d 8a1d 553d e04c a4bb 0b63 4fbe
00000180: 7ca8 14bb f191 69bc 4adb 50bc 67cb 15bd
00000190: be86 b5bd 3fc1 553c b8b6 25bd 30c6 4d3c
000001a0: e9ac 94bb ebba 9b3e f2af 49be 862f 313c
000001b0: 9006 023c 3928 c73d 8c34 7bbd 300d 063d
000001c0: 5222 a93d 0951 2bbe edf3 8bbb 1634 b33c
000001d0: 1d83 603d 2f24 1bbe 477e 2ab9 e9de b0bd
000001e0: 3729 06bd cfc5 41bd 1ae8 81bc afbf 29be
000001f0: 0311 593b c6c6 c53b 0ccc d7bd 5d60 833d
00000200: ec8e 093a a9f8 97bc 2574 7b3b 2642 a9bd
00000210: d642 e83d b0a7 553b 6691 49bd 0eb4 99bd
00000220: 6b64 403d 895e f83b 2fb0 a3bd 7099 ca3d
00000230: b24d 803d 6c60 433d 0a4a 893d 0214 e0bd
00000240: 2b04 c1bc 98f0 ed3c 7cfb c93c ea68 453d
00000250: ab6f 3cbd c686 243d 4c7c 30be 4b72 afbd
00000260: 548b 483b c9be 8fbd 6b1a f0bd ab0b 80be
00000270: 9118 99bc 576f 0ebc 9cff a2bd db29 74bd
00000280: e5bf e5bc 5745 bf3b 6665 253c de9a 86be
00000290: 6257 aabd b679 78b9 634f f7bd 535f 043e
000002a0: b025 64bd 3ca2 fcba bfe9 c53c e973 2ebd
000002b0: 6134 fbbd 1182 1d3c 86f8 533e 7980 8abd
000002c0: 3c10 57bc ea26 d23d 3c1b b03c 6dc9 1d3d
000002d0: cbed 7c3c 7dfc e8bd 7063 bbbc 2984 a2bc
000002e0: 2369 223c 0b0f 89bd 43b6 3ebd 067b 8b3d
000002f0: 92d5 a0bd 581b a639 a960 ecbd ed49 a1bc
00000300: 8084 95bb 4531 07ba 9e24 10be c5ae 03bb
00000310: 5d6c acbc ff4b 2e3d f6d2 4d3c c221 9cbb
00000320: 7844 a2bc 43fd 62bb cfc6 8a3b 5911 8fbd
00000330: 9e53 edbc d2ba 39bd 0675 0e3c bbc8 393d
00000340: b9a1 43bc c10b 6cbd 020c 343d ef2a a5bd
00000350: c5da 25bd ea9d 963d e373 81bd 67ee 76bd
00000360: b41c 5dbe 9c6b 10b9 34cf d93d d3ee eeba
00000370: 4f29 5cbd 2171 763c 9950 0d3d 35d0 cabd
00000380: bc62 9fbb b226 99bb b77a 73bb f1e2 b8bd
00000390: 5531 43bc 466c a5be fe11 c0bd d139 e23d
000003a0: 9bb4 05bd 65a5 0f3e c7d1 fd3c a57f d93d
000003b0: b00d d53c 3f4d fabd bc3b 4ebd 3562 9c3c
000003c0: 31f7 ed3c 3a98 72be 733b 24bc eb65 cb3d
000003d0: b6d9 21bc 7976 06bc fdbc 31bd 402b 3e3c
000003e0: e11a 29bc 7ade 05be 5ec9 3e3c 8d05 2bbd
000003f0: 475f b4bb 8129 52be 3283 9cbd f56a d43b

fc2.bias f4 [7]
0.13475646 0.39588284 0.45203745 0.45106536 0.4789049 0.47904855 0.5073094
00000000: 99fd 093e 28b1 ca3e 7471 e73e 0af2 e63e
00000010: 0633 f53e da45 f53e 07df 013f
