trained_models/DQL/double_dql_connect4_model_1_64batch.pt (torch, 536848 bytes, 8 tensors)

conv1.weight f4 [64, 1, 4, 4]
-0.17817777 0.2783181 0.24506375 -0.13063714 0.5966426 -0.2503088 0.06268354 0.18544707
-0.5352303 0.20557429 -0.177235 -0.5140113 -0.3655639 -0.047179494 0.27819467 -0.8032422
0.046371546 -0.15683702 -0.12929356 0.2898834 0.365723 -0.53671867 -0.2089115 0.0041302517
-0.54830074 -0.084132574 0.15325353 -0.48072174 0.05269789 0.0933113 -0.16701911 0.041079648
-0.59893525 0.06324069 0.04398766 0.083597586 0.068999685 -0.42503512 0.24471046 0.027309943
-0.055448737 -0.5237399 0.073782764 0.14247333 0.14905423 0.14530817 -0.6734325 -0.606209
0.11298415 -0.19669929 -0.13084465 -0.25760058 0.5715582 0.5006724 0.5452345 -0.3641084
-0.11676575 -0.4485429 0.03686207 0.121300936 -0.28751794 0.21860532 -0.3934968 -0.37709308
0.39041215 -0.7406882 -0.16166772 0.5808139 -0.16892175 -0.4620337 0.57909465 -0.17501701
0.037309222 -0.26625577 -0.08984633 -0.30453327 -0.52018666 -0.7052674 -0.059845936 0.3089415
0.2654835 -0.107271366 0.48321623 -0.11823188 -0.044557504 0.07730637 -0.23294327 0.08800856
-0.29499355 0.24311055 -0.013793077 -0.27480426 0.24164559 -0.5505006 -0.53059465 0.023155203
-1.1825947 0.09471729 -0.046628654 -0.040799934 0.10864389 -0.017269729 0.23359501 0.12572998
0.28976196 0.28549376 -0.16498339 0.37391686 0.034692515 0.01456663 -0.11544075 -0.2568121
0.0015219499 0.0385222 0.029205577 0.18326563 0.018089008 0.04971011 0.018910656 -0.48178795
-0.012978975 0.021416683 0.02860956 0.45038676 0.01699779 0.023838382 0.017546007 0.4712106
-0.95184386 -0.19043209 0.23247208 0.14411154 0.2920489 0.018989772 0.13656417 -0.097619735
-0.19734377 0.35013077 -0.012297892 -0.20356509 0.14877242 -0.83915794 0.040034108 0.2047194
0.38074383 0.08368247 -0.48907435 0.1976598 -0.17606747 0.23525453 -0.25405723 0.03697754
-0.21623892 0.3816514 -0.0670432 -0.383521 -0.13411552 -0.7534476 -1.0760748 0.052049793
0.23959783 -0.3353329 0.32690826 0.07903054 -0.23529172 0.0076122414 -0.34053025 0.02795107
0.10800791 -0.3876003 -0.19046481 -0.31279847 0.22127648 -0.057388976 -0.025119422 -0.011457242
-0.05055513 -0.17450339 0.049947124 -0.15288596 0.0360568 0.21115027 -0.18425024 0.10437629
0.27842748 -0.06126741 0.17283228 0.009768881 -0.16767925 0.41563317 0.28495026 0.25439048
0.03306446 -0.04564202 0.011791301 -0.5092244 0.015454395 0.06585374 0.084326014 -1.6377586
-0.02709942 0.0135157835 0.19733082 -1.9170972 -0.0050098523 0.11407229 -0.18228574 0.10958558
0.31061077 0.25878263 -0.022681395 0.1025955 0.4070847 -0.19733232 0.15062091 0.13226439
-0.28930986 -0.25020045 -0.48822796 -0.56200933 -0.5747662 -0.34858814 -0.6689757 0.1202558
-0.19936723 -0.11558411 -0.059446946 0.19156249 -0.16820833 0.13606864 0.034240767 0.7557678
0.1215639 0.00034149858 0.15412949 0.49543974 -0.15215766 -0.020220319 0.071423166 -1.2008585
0.32714945 0.18197255 -0.32621682 -0.10034358 0.07669786 -0.040739693 0.2998266 0.08794479
-0.07063677 -0.09715163 -0.33614123 -0.096731685 -0.44834104 -0.23086336 -0.09857724 -0.3040875
00000000: 3c74 36be b67f 8e3e fef1 7a3e bec5 05be
00000010: 92bd 183f 7a28 80be 3a60 803d d6e5 3d3e
00000020: da04 09bf 1182 523e 187d 35be 3f96 03bf
00000030: 312b bbbe 493f 41bd 886f 8e3e 48a1 4dbf
00000040: 17f0 3d3d e299 20be 8865 04be 996b 943e
00000050: 0c40 bb3e 6566 09bf e5ec 55be 1057 873b
00000060: 705d 0cbf b34d acbd 7eee 1c3e 2921 f6be
00000070: bed9 573d ff19 bf3d 0f07 2bbe 2243 283d
00000080: d253 19bf 5684 813d 682c 343d 3635 ab3d
00000090: b54f 8d3d 349e d9be 6195 7a3e 1ab9 df3c
000000a0: 371e 63bd d113 06bf 6b1b 973d 87e4 113e
000000b0: aca1 183e aacb 143e 1366 2cbf 8330 1bbf
000000c0: 3c64 e73d 8a6b 49be 24fc 05be 39e4 83be
000000d0: a351 123f 112c 003f 7d94 0b3f 6b6c babe
000000e0: e222 efbd 6aa7 e5be affc 163d a06c f83d
000000f0: 8d35 93be 13da 5f3e 6a78 c9be 5812 c1be
00000100: 1ae4 c73e be9d 3dbf 398c 25be 38b0 143f
00000110: d3f9 2cbe ae8f ecbe 8c3f 143f a937 33be
00000120: 8ed1 183d ad52 88be 5a01 b8bd c9eb 9bbe
00000130: f42a 05bf 688c 34bf 0321 75bd 952d 9e3e
00000140: 74ed 873e 17b1 dbbd 1e68 f73e 8e23 f2bd
00000150: ee81 36bd cd52 9e3d ae88 6ebe d53d b43d
00000160: 6509 97be f9f1 783e 5cfc 61bc 25b3 8cbe
00000170: f171 773e 9bed 0cbf 0dd5 07bf fbaf bd3c
00000180: 435f 97bf 23fb c13d b0fd 3ebd d51d 27bd
00000190: b080 de3d 3f79 8dbc 8833 6f3e 5cbf 003e
000001a0: ae5b 943e 3d2c 923e 68f1 28be 0872 bf3e
000001b0: bd19 0e3d e0a8 6e3c 336c ecbd e07c 83be
000001c0: 2a7c c73a 74c9 1d3d 8940 ef3c fca9 3b3e
000001d0: 662f 943c d49c 4b3d 85ea 9a3c e9ac f6be
000001e0: c4a5 54bc 0a72 af3c 995e ea3c 1899 e63e
000001f0: f33e 8b3c b648 c33c a5bc 8f3c 8442 f13e
00000200: 0aac 73bf a100 43be 290d 6e3e fa91 133e
00000210: 6f87 953e 7090 9b3c 7ad7 0b3e dbec c7bd
00000220: 7c14 4abe 5744 b33e 197d 49bc 5e73 50be
00000230: cc57 183e 0ed3 56bf cefa 233d f6a1 513e
00000240: dbf0 c23e b761 ab3d f467 fabe 5567 4a3e
00000250: 084b 34be 90e6 703e ca13 82be c375 173d
00000260: bc6d 5dbe d067 c33e f24d 89bd dd5c c4be
00000270: 9455 09be f1e1 40bf d2bc 89bf 2a32 553d
00000280: 2259 753e c1b0 abbe 8560 a73e c4da a13d
00000290: 50f0 70be 1c70 f93b fb59 aebe a4f9 e43c
000002a0: 4033 dd3d 8c73 c6be 3509 43be 1f27 a0be
000002b0: 4d96 623e b410 6bbd 3fc7 cdbc 28b7 3bbc
000002c0: e512 4fbd 04b1 32be 5b95 4c3d 238e 1cbe
000002d0: 4cb0 133d c737 583e 18ac 3cbe 3dc3 d53d
000002e0: 0c8e 8e3e 89f3 7abd f2fa 303e a80d 203c
000002f0: 1cb4 2bbe dfcd d43e 00e5 913e 783f 823e
00000300: 996e 073d 20f3 3abd 4d30 413c 885c 02bf
00000310: 6e34 7d3c 53de 863d 1eb3 ac3d 13a2 d1bf
00000320: 9aff ddbc 4e71 5d3c 1711 4a3e 7163 f5bf
00000330: b029 a4bb bc9e e93d 1da9 3abe 686e e03d
00000340: 6008 9f3e 287f 843e 55ce b9bc 971d d23d
00000350: 686d d03e 7c11 4abe 5e3c 1a3e 5170 073e
00000360: 6c20 94be 461a 80be 04f9 f9be d8df 0fbf
00000370: e123 13bf 257a b2be fe41 2bbf ac48 f63d
00000380: ec26 4cbe 5db7 ecbd a47e 73bd f528 443e
00000390: ce3e 2cbe 9455 0b3e 0c40 0c3d 007a 413f
000003a0: 7ef6 f83d 2a0b b339 1fd4 1d3e 47aa fd3e
000003b0: 38cf 1bbe 15a5 a5bc 4f46 923d bbb5 99bf
000003c0: 2280 a73e 0357 3a3e e405 a7be ef80 cdbd
000003d0: c513 9d3d aade 26bd df82 993e 661c b43d
000003e0: 03aa 90bd 6ff7 c6bd b41a acbe 431b c6bd
000003f0: f58c e5be 7267 6cbe dde2 c9bd 5bb1 9bbe

conv1.bias f4 [64]
-1.1166339 -0.9580891 -0.8668384 -1.338791 -1.2477217 -0.94850767 -0.35727304 -1.537761
-0.5737466 -0.9995127 -1.0808274 -1.5652455 -0.072903536 -0.82000643 -1.0349633 -0.5526809
-0.7336476 -0.85447603 -0.8072745 -1.3525013 -1.2085537 -0.49378207 -0.6783371 0.7539708
-0.5876283 -1.2696029 -0.55841583 -1.0089391 -0.9860298 -1.714366 -1.2921351 -1.7319158
-1.0031456 -1.5216588 -1.3152039 -1.3199373 -1.0400006 2.4130418 -0.7953693 -1.1120145
-1.5469645 -1.1402236 -1.1503732 -1.3398515 -0.03223129 -1.0270729 -1.5642821 -0.76934665
-0.9882155 0.9780024 -0.5609748 -1.0068823 -1.5765148 -0.24155135 -0.7911368 -0.8851392
-1.4018548 -1.2614156 -0.3950469 -0.9516051 -0.94802123 -0.6356546 -0.9402092 -0.92994404
00000000: dced 8ebf 5445 75bf 1fe9 5dbf 815d abbf
00000010: 58b5 9fbf 66d1 72bf 7eec b6be 5ad5 c4bf
00000020: 0fe1 12bf 10e0 7fbf 8d58 8abf f759 c8bf
00000030: 734e 95bd f1eb 51bf ad79 84bf 7f7c 0dbf
00000040: 54d0 3bbf f1be 5abf 8ba9 4ebf c31e adbf
00000050: e3b1 9abf 01d1 fcbe 80a7 2dbf 3b04 413f
00000060: cf6e 16bf 5982 a2bf 57f4 0ebf eb24 81bf
00000070: 736c 7cbf 5870 dbbf af64 a5bf 6baf ddbf
00000080: 1367 80bf b7c5 c2bf 9a58 a8bf b5f3 a8bf
00000090: bd1e 85bf 476f 1a40 539d 4bbf 7e56 8ebf
000000a0: ef02 c6bf d9f2 91bf 6e3f 93bf 4180 abbf
000000b0: f504 04bd 2077 83bf 653a c8bf e7f3 44bf
000000c0: b1fb 7cbf 5e5e 7a3f 0b9c 0fbf 85e1 80bf
000000d0: 3dcb c9bf 3d59 77be f187 4abf 7c98 62bf
000000e0: fa6f b3bf 1176 a1bf 9643 cabe 649c 73bf
000000f0: 85b1 72bf 43ba 22bf 8db1 70bf d010 6ebf

conv2.weight f4 [128, 64, 2, 2]
-0.55175483 0.74448633 0.85533977 -0.52579564 0.255418 0.53943586 -1.1516695 -0.7040766
0.18061629 0.68832093 0.035107516 0.16083682 1.1931013 0.8254299 1.1235394 -0.7291953
-0.0026708671 0.12635808 0.44466507 0.35990617 0.5165124 0.044530276 -0.6511072 -1.0045806
0.48525426 -0.14347054 0.7471129 0.5252589 -0.85271037 -0.6482485 -0.5076441 0.92535883
-0.7540773 0.8786738 1.2654334 -0.33250138 0.3796843 0.5892937 -0.08647943 -0.6003145
1.0220264 0.7377407 -0.1821921 -0.6005884 0.24363664 0.15573375 1.235682 -0.18096805
-1.1803248 0.66979235 -0.3093318 0.13832588 1.0864115 0.4489226 -0.048685405 -1.2984807
-0.5613726 0.70147353 0.68506557 1.1930225 -0.37563208 0.13872546 0.38204396 -0.054550093
0.22753637 0.08981986 0.41536248 -0.83743596 1.5403966 -0.30706778 -0.114419155 -0.09974608
0.59632766 1.3993634 -0.8302972 -0.51706976 -1.1617091 0.9342901 -0.21086098 -0.24523431
0.7028345 -0.35691547 -0.3581766 0.192644 0.018778361 0.027480017 0.03024659 0.14902057
0.0071062357 -0.45435563 -0.49609023 0.33466753 0.20923874 0.52088535 -0.3557514 -0.10849037
0.037064992 -0.2604289 0.33833233 -0.45172116 0.5536263 0.5435057 1.2180372 0.10656543
0.0086138565 0.62972933 -0.15025166 -0.3881416 1.1700969 0.89398885 0.17330062 0.45681915
-0.6110976 -0.4170972 1.9661865 -0.15662277 0.96496177 0.3939781 0.475133 0.7127992
-0.048643924 0.23683591 0.2197969 -0.027062451 0.20229341 -0.07212223 -0.9221127 1.6780994
-0.2241213 1.3589817 -0.9536365 0.3988491 0.42630002 0.29497457 1.8155307 0.0068477234
0.4252044 0.53859407 -0.16262336 -1.7281449 0.6997403 -0.22366472 0.78586715 -0.93948144
-0.74552923 0.17018668 1.0274562 1.6868412 -0.08452682 -0.087509155 -0.2196123 -0.34189758
0.6987201 0.10047448 0.02286186 0.49417362 1.3999597 -0.34273466 -0.35050675 2.035164
0.41717884 0.6814031 -0.17552602 -0.7119763 -0.5090729 -0.2574035 0.1818537 0.36749965
-0.978126 1.0848727 -0.64820755 0.45514995 1.4236443 0.7711485 -0.06350672 0.03086112
0.6488822 -0.11583138 -0.50903016 0.7784767 0.6757404 -0.058258872 0.43605226 0.8601647
0.64666826 0.39691103 0.29613224 0.75758797 -0.34826696 0.4327608 1.0427674 1.1882166
-0.15224884 1.4577459 1.5363287 -0.07585121 -0.53475577 -0.39816073 -0.60692847 0.004384178
0.22717944 0.03199671 -1.5494342 0.85147005 -0.5974757 0.95874614 0.3493678 -0.92284924
0.4943789 0.79440033 0.4358499 0.95687985 0.443704 1.0586842 0.1529812 0.74285036
0.983276 -0.40618512 0.41391084 -0.91305923 1.2675083 1.1334895 0.47958648 -0.10255162
0.9579422 -0.67563504 -0.04644164 -0.0955943 -0.46467263 1.143598 0.3086796 1.3055301
-0.020403482 -0.097415075 0.0906268 0.6066252 -0.4352518 1.2256649 0.9621022 0.26073393
-0.2376334 1.1920117 0.22329246 2.079087 0.45768875 1.6066309 0.4608158 0.92319316
-0.755285 0.12976006 0.5447519 -0.48862445 -0.4452334 0.10871019 -1.1846625 2.650728
00000000: ce3f 0dbf a896 3e3f 8cf7 5a3f 8b9a 06bf
00000010: 26c6 823e 7818 0a3f e869 93bf 5d3e 34bf
00000020: 7af3 383e cd35 303f e6cc 0f3d 68b2 243e
00000030: 8bb7 983f 604f 533f 24d0 8f3f 8bac 3abf
00000040: b709 2fbb 0364 013e 24ab e33e 9f45 b83e
00000050: 283a 043f 6165 363d f6ae 26bf 1996 80bf
00000060: 3f73 f83e f1e9 12be ca42 3f3f 5e77 063f
00000070: 3a4b 5abf 9df3 25bf f7f4 01bf 51e4 6c3f
00000080: 360b 41bf c4f0 603f b9f9 a13f 9f3d aabe
00000090: fb65 c23e f4db 163f 211c b1bd 36ae 19bf
000000a0: c3d1 823f 93dc 3c3f 9190 3abe 29c0 19bf
000000b0: e27b 793e ab78 1f3e d42a 9e3f b04f 39be
000000c0: e214 97bf 8377 2b3f bd60 9ebe 4da5 0d3e
000000d0: 880f 8b3f 2fd9 e53e 596a 47bd 9e34 a6bf
000000e0: 1db6 0fbf c593 333f 7560 2f3f f6b4 983f
000000f0: d952 c0be 0c0e 0e3e 449b c33e eb6f 5fbd
00000100: 4bff 683e 7af3 b73d 64aa d43e 3462 56bf
00000110: b72b c53f fd37 9dbe 9754 eabd ac47 ccbd
00000120: eea8 183f 571e b33f 5b8e 54bf af5e 04bf
00000130: e2b2 94bf a32d 6f3f f1eb 57be b41e 7bbe
00000140: f6ec 333f a0bd b6be ec62 b7be 7844 453e
00000150: 14d5 993c c61d e13c b2c7 f73c d998 183e
00000160: 6ddb e83b 4da1 e8be 8aff fdbe 8b59 ab3e
00000170: ae42 563e be58 053f 0c25 b6be 3330 debd
00000180: 76d1 173d f056 85be e539 ad3e ff47 e7be
00000190: 74ba 0d3f 3123 0b3f a5e8 9b3f fa3e da3d
000001a0: 2221 0d3c f135 213f 92db 19be 7fba c6be
000001b0: bcc5 953f 74dc 643f b875 313e 33e4 e93e
000001c0: e470 1cbf c48d d5be 00ac fb3f b861 20be
000001d0: bc07 773f 7fb7 c93e a244 f33e 027a 363f
000001e0: da3e 47bd 1d85 723e 7012 613e 13b2 ddbc
000001f0: 0126 4f3e d2b4 93bd 940f 6cbf f6cb d63f
00000200: 0e80 65be 1df3 ad3f 8621 74bf f335 cc3e
00000210: ff43 da3e e806 973e 4f63 e83f de62 e03b
00000220: 64b4 d93e 4de1 093f bd86 26be da33 ddbf
00000230: 2e22 333f 5d08 65be 972e 493f db81 70bf
00000240: 01db 3ebf 6b45 2e3e af83 833f 6aea d73f
00000250: 661c adbd 0038 b3bd 0ce2 60be 330d afbe
00000260: 52df 323f 90c5 cd3d cc48 bb3c 5304 fd3e
00000270: e131 b33f eb7a afbe 9f75 b3be 2140 0240
00000280: 7798 d53e 6f70 2e3f 18bd 33be 1444 36bf
00000290: 9a52 02bf 64ca 83be db37 3a3e ea28 bc3e
000002a0: 7766 7abf 1cdd 8a3f eef0 25bf 6a09 e93e
000002b0: fa39 b63f fd69 453f d00f 82bd 76d0 fc3c
000002c0: 251d 263f 0139 edbd cd4f 02bf 404a 473f
000002d0: 53fd 2c3f dba0 6ebd 3e42 df3e c133 5c3f
000002e0: 0d8c 253f ec37 cb3e a59e 973e 49f1 413f
000002f0: 0c50 b2be d392 dd3e 6779 853f 7b17 983f
00000300: 1fe7 1bbe 6b97 ba3f 6ba6 c43f e157 9bbd
00000310: c1e5 08bf b9db cbbe aa5f 1bbf 27a9 8f3b
00000320: baa1 683e fb0e 033d dc53 c6bf f1f9 593f
00000330: 2bf4 18bf 6370 753f 56e0 b23e d93f 6cbf
00000340: 3b1f fd3e d25d 4b3f b827 df3e 14f6 743f
00000350: 2c2d e33e f782 873f 1ba7 1c3e 712b 3e3f
00000360: fab7 7b3f 7ff7 cfbe 1fec d33e 40be 69bf
00000370: b63d a23f 2f16 913f 5c8c f53e 9506 d2bd
00000380: b33b 753f 6bf6 2cbf 9739 3ebd f2c6 c3bd
00000390: 92e9 edbe 6b61 923f 410b 9e3e 9c1b a73f
000003a0: 3425 a7bc 8e81 c7bd 8b9a b93d ca4b 1b3f
000003b0: 53d9 debe 96e2 9c3f 544c 763f eb7e 853e
000003c0: 2c56 73be d793 983f c7a6 643e c30f 0540
000003d0: 2e56 ea3e 15a6 cd3f 0cf0 eb3e 6356 6c3f
000003e0: 5c5a 41bf d2df 043e dc74 0b3f fc2c fabe
000003f0: a2f5 e3be 73a3 de3d 05a3 97bf 87a5 2940

conv2.bias f4 [128]
-0.71236455 -0.6734857 -0.7125656 -0.3288753 -0.35685995 -0.6837665 -0.95138395 -0.64667124
-0.8234622 -0.7200887 -0.07673965 -1.1741557 -0.56448174 -0.5576449 -0.6356498 -0.72851294
-0.6305542 -0.584402 -0.62062 -0.080565244 -0.56015044 -0.8075203 -0.7747396 -0.6062048
-0.8824281 -0.5731858 -0.05462069 -0.58202535 -0.49422774 -0.80286986 -0.8585424 -0.7509116
-0.7430652 -0.78933257 -0.7401845 -0.7042053 -0.78702396 -0.7485113 -0.73020023 -0.74242073
-0.72597665 -0.84420925 -0.89899623 -0.32515275 -0.52559096 -0.82193965 -0.8194336 -0.9405526
-0.66750324 -0.8050695 -0.66147596 0.8381607 -0.64908147 -0.530982 -0.51956093 -0.44096786
-0.5865898 -0.7393158 -0.6006886 -0.6995875 -0.71135414 -0.38101554 -0.51707196 -0.89195347
-0.40952823 -0.26788688 -0.58454823 -0.5740706 -0.07299942 -0.9007534 -0.73900944 -0.39788547
-0.8814305 -0.9581538 -0.362078 -0.57064253 -0.47655323 -0.64920664 -0.46308962 -0.24272494
-0.723088 -0.8393001 -0.7122359 -0.5865318 -0.87753695 -0.3355442 -0.5194373 -0.65567094
-0.52966475 -0.4485334 -0.62819326 -0.65968233 -0.26897368 -0.5377161 -0.46017435 -0.5543028
-0.67803526 -0.573727 -0.81114316 -0.44044152 -0.66017175 -0.71283543 -0.45497456 0.6895788
-0.27112952 -0.7481189 -0.704697 -0.8601486 -0.054785702 -0.5898312 0.9299321 -0.57506853
-0.4441225 -0.053099148 -0.8124115 -0.10139579 -0.66392547 -0.3964635 -0.6584452 -0.5239039
-0.6919217 -0.082613766 -0.8563628 -0.8457991 -0.6967838 -0.771112 -0.6191037 -0.35142922
00000000: 865d 36bf 8f69 2cbf b36a 36bf 5862 a8be
00000010: 59b6 b6be 520b 2fbf e68d 73bf 3f8c 25bf
00000020: 6bce 52bf bc57 38bf ad29 9dbd bc4a 96bf
00000030: e081 10bf d1c1 0ebf f2b9 22bf d37f 3abf
00000040: 006c 21bf 5f9b 15bf f4e0 1ebf 64ff a4bd
00000050: 0566 0fbf a6b9 4ebf 5655 46bf 3d30 1bbf
00000060: cfe6 61bf 4ebc 12bf f2b9 5fbd 9dff 14bf
00000070: 6b0b fdbe e188 4dbf 6fc9 5bbf be3b 40bf
00000080: 8539 3ebf b311 4abf bb7c 3dbf cc46 34bf
00000090: 677a 49bf 709e 3fbf 67ee 3abf 490f 3ebf
000000a0: 9bd9 39bf 191e 58bf 9e24 66bf 6c7a a6be
000000b0: 218d 06bf a36a 52bf 67c6 51bf 0ec8 70bf
000000c0: 7ee1 2abf 0919 4ebf 7d56 29bf b391 563f
000000d0: 342a 26bf 70ee 07bf f201 05bf 8ac6 e1be
000000e0: c02a 16bf cd43 3dbf bac6 19bf 2b18 33bf
000000f0: 4e1b 36bf 7814 c3be d45e 04bf 1057 64bf
00000100: afad d1be 7828 89be f4a4 15bf 4af6 12bf
00000110: b880 95bd c697 66bf b92f 3dbf a5b7 cbbe
00000120: 6ea5 61bf 9149 75bf 4a62 b9be a115 12bf
00000130: c9fe f3be 6832 26bf 151a edbe e38c 78be
00000140: 4c1c 39bf 5fdc 56bf 1855 36bf f326 16bf
00000150: 43a6 60bf 73cc abbe d8f9 04bf 0dda 27bf
00000160: 1c98 07bf 2ba6 e5be 46d1 20bf f1e0 28bf
00000170: ebb6 89be c3a7 09bf f99b ebbe cae6 0dbf
00000180: b893 2dbf c6df 12bf 14a7 4fbf 8d81 e1be
00000190: 0401 29bf 627c 36bf 6df2 e8be 3c88 303f
000001a0: 7dd1 8abe b884 3fbf 0667 34bf b332 5cbf
000001b0: f966 60bd 2dff 16bf 0810 6e3f b137 13bf
000001c0: 0664 e3be 7e7e 59bd 33fa 4fbf 99a8 cfbd
000001d0: 05f7 29bf 44fd cabe dd8f 28bf 911e 06bf
000001e0: c821 31bf 6831 a9bd 983a 5bbf 4a86 58bf
000001f0: 6c60 32bf 9967 45bf 957d 1ebf 88ee b3be

fc1.weight f4 [128, 768]
0.104077965 -2.4787738 -1.11525 -1.4781232 -0.9900256 -1.1919488 0.07915129 -0.45615667
0.087031975 -1.0134104 -1.1053745 -0.3502804 0.5386626 0.100385204 -0.08383891 -1.0580151
0.44672152 1.4114387 -0.8826066 0.11664186 -0.13932358 -0.8031497 -0.2555657 -0.08666263
-0.5759854 -0.90969884 0.73087895 -0.37889478 -0.50136536 -0.7897574 0.65060204 0.24172482
-0.3103681 -0.81776136 -1.8423924 -0.8801175 -0.50410783 -0.32898167 -0.37631425 -0.2005757
-0.7805716 0.22912733 -1.440785 -0.34923443 -0.7322069 -0.660809 -0.7577153 0.15308984
0.62415206 -3.0322688 0.29895654 -1.1145234 -1.6643165 -1.7127153 -0.31036544 0.11945122
0.36058077 0.34905338 -0.2698237 -0.8560678 -0.893982 -0.27015692 -0.28885037 -1.9547192
0.030723725 -1.4982419 -0.9102516 -0.84002095 -1.3662454 -0.8244843 -1.3938025 -0.86834276
-0.21845531 -1.1721826 -0.09753823 -1.4154143 -0.06477937 -0.26442915 0.178322 0.3480654
0.0014048503 -1.1662179 -0.93647754 -0.6790278 -0.52759814 -1.0517884 -0.68500054 -0.5895939
-0.7777503 -0.24258387 -0.67364544 -0.4971744 0.05580888 0.11795248 -0.41020694 0.011996251
0.8398819 -0.21236108 0.17558439 -0.6585246 -1.211757 0.59267896 -0.72446305 -0.05209229
-0.21283531 -1.2606609 -1.0479501 -0.2676917 0.40161154 0.5279567 -1.0630887 0.6269241
0.32605734 -0.5719953 -0.02493973 0.031566 -0.025702894 -0.010278227 0.006136723 -0.019657448
-0.014581944 -0.42334393 -0.38850242 -0.17953004 -0.86907405 -0.907338 -0.8743177 -1.2735546
0.58315116 0.17122848 -0.89643127 0.11283988 -0.18866569 -0.27696168 -0.19495074 -0.49081203
-0.21660006 -0.8107989 0.32273623 -1.006786 0.14821172 -0.22898592 -0.8817508 0.06390735
-1.231034 -2.3128057 -0.78635025 -0.7879777 -1.4996092 -1.0298811 -0.0045608743 -1.2685558
-0.24357624 0.68763626 -0.18598232 0.126723 0.0020866627 0.08812587 0.083868235 0.054304436
0.010903146 0.010735726 1.0038539 -1.1757194 -2.375888 -1.229628 -1.8662784 -1.7746786
-1.1539185 -0.2252326 -0.106242485 -0.8920033 -0.32386 -0.20622122 -0.7520081 0.4177511
-1.1720247 0.2568382 -1.7504845 -0.4941477 -1.0120708 -0.66090554 -1.3097415 -1.6399492
-0.7770412 -0.34408006 -1.4595888 0.081233524 -0.9146693 -2.7256246 -0.657408 -0.04332402
-0.7474406 -1.4348527 -0.3550307 -0.60413516 -1.420197 -0.17123751 -0.1118194 -1.4844103
-0.7848922 -0.17887226 -0.49198183 -1.0524321 -0.87825906 0.107551135 -0.9486254 -0.80769473
0.090481736 -0.33979368 0.09608206 -1.0707428 -0.4987363 -2.0277605 -0.30523598 0.12006811
-0.45956126 -0.30377424 -0.5419649 -0.34597978 0.013917245 -0.17722005 0.47296518 -0.16079281
-1.1058861 -0.6475503 -0.1896516 0.12989473 -0.4832434 -0.98687243 -0.8083147 0.20560353
-1.1735617 -1.1300567 0.26815417 -0.49065426 0.16397814 0.15876478 0.060163293 0.03463794
-1.2599874 0.12248973 0.038062815 -1.2716619 -0.34654456 -0.51179874 0.07189863 -1.4170519
0.5188957 -1.6717856 -0.52713007 -0.61464757 -1.2529424 -1.9641858 0.3177506 -2.6199908
00000000: d426 d53d 3ba4 1ec0 83c0 8ebf 2433 bdbf
00000010: 5172 7dbf c791 98bf 121a a23d 5e8d e9be
00000020: d23d b23d 6fb7 81bf e97c 8dbf f457 b3be
00000030: cbe5 093f c296 cd3d bcb3 abbd 0a6d 87bf
00000040: afb8 e43e 06aa b43f 82f2 61bf ede1 ee3d
00000050: d7aa 0ebe 389b 4dbf 82d9 82be 2d7c b1bd
00000060: c773 13bf 06e2 68bf e21a 3b3f 7ffe c1be
00000070: 7b59 00bf 8a2d 4abf db8d 263f b686 773e
00000080: 91e8 9ebe cf58 51bf 84d3 ebbf 614f 61bf
00000090: 360d 01bf 4970 a8be 43ac c0be b763 4dbe
000000a0: 8ad3 47bf 5ba0 6a3e a56b b8bf dbce b2be
000000b0: e971 3bbf c72a 29bf a1f9 41bf 95c3 1c3e
000000c0: 6ec8 1f3f b110 42c0 d510 993e b4a8 8ebf
000000d0: 5308 d5bf 413a dbbf 38e8 9ebe d7a2 f43d
000000e0: 0b9e b83e 20b7 b23e 5526 8abe 4227 5bbf
000000f0: 01dc 64bf 0252 8abe 32e4 93be 3d34 fabf
00000100: 52b0 fb3c 64c6 bfbf 4006 69bf 9d0b 57bf
00000110: 21e1 aebf 6711 53bf 1f68 b2bf b64b 5ebf
00000120: c0b2 5fbe 140a 96bf 20c2 c7bd 4c2c b5bf
00000130: 0cab 84bd 4263 87be 0b9a 363e a135 b23e
00000140: f422 b83a a146 95bf febc 6fbf c4d4 2dbf
00000150: ac10 07bf 01a1 86bf 325c 2fbf a0ef 16bf
00000160: a51a 47bf e867 78be 0774 2cbf a58d febe
00000170: da97 643d 1291 f13d a506 d2be ec8b 443c
00000180: 8002 573f 2f75 59be 65cc 333e 1195 28bf
00000190: da1a 9bbf cfb9 173f 6976 39bf ba5e 55bd
000001a0: 80f1 59be 565d a1bf 3b23 86bf e30e 89be
000001b0: 07a0 cd3e 2c28 073f 4a13 88bf 197e 203f
000001c0: fdf0 a63e 496e 12bf 684e ccbc 5a4b 013d
000001d0: e08e d2bc 0266 28bc 9016 c93b a808 a1bc
000001e0: 1be9 6ebc 89c0 d8be cae9 c6be b9d6 37be
000001f0: a37b 5ebf 4e47 68bf 49d3 5fbf d603 a3bf
00000200: 6549 153f 8556 2f3e 857c 65bf 9818 e73d
00000210: 9431 41be eccd 8dbe 2ba1 47be b74b fbbe
00000220: 68cc 5dbe 8490 4fbf af3d a53e 5dde 80bf
00000230: d0c4 173e 497b 6abe 6cba 61bf dbe1 823d
00000240: 8692 9dbf 0205 14c0 404e 49bf e8b8 49bf
00000250: 32f3 bfbf 25d3 83bf 6373 95bb 0960 a2bf
00000260: 0d6c 79be ee08 303f 2672 3ebe adc3 013e
00000270: 64c0 083b 567b b43d 1cc3 ab3d 546e 5e3d
00000280: 1ca3 323c e6e4 2f3c 497e 803f f97d 96bf
00000290: 8d0e 18c0 7364 9dbf 36e2 eebf ab28 e3bf
000002a0: 9ab3 93bf 60a3 66be a995 d9bd 545a 64bf
000002b0: fad0 a5be a82b 53be 9a83 40bf 79e3 d53e
000002c0: e804 96bf 4c80 833e e00f e0bf ed00 fdbe
000002d0: 898b 81bf 1b31 29bf 9ca5 a7bf dbe9 d1bf
000002e0: 2cec 46bf 432b b0be ced3 babf c35d a63d
000002f0: c427 6abf a270 2ec0 e44b 28bf 8774 31bd
00000300: 4458 3fbf 41a9 b7bf 95c6 b5be 9aa8 1abf
00000310: 04c9 b5bf e358 2fbe 9201 e5bd 2801 bebf
00000320: b2ee 48bf 4a2a 37be 0be5 fbbe 18b6 86bf
00000330: 96d5 60bf c543 dc3d 1dd9 72bf 15c5 4ebf
00000340: 7d4e b93d 70f9 adbe acc6 c43d 1a0e 89bf
00000350: 5d5a ffbe d4c6 01c0 e447 9cbe 45e6 f53d
00000360: 9d4b ebbe 4c88 9bbe 36be 0abf 4324 b1be
00000370: 2805 643c 2c79 35be 7e28 f23e dfa6 24be
00000380: ad8d 8dbf dbc5 25bf 0734 42be 2003 053e
00000390: ae6b f7be aca3 7cbf b6ed 4ebf bb89 523e
000003a0: 4537 96bf b3a5 90bf 814b 893e 0937 fbbe
000003b0: e3e9 273e 3c93 223e c96d 763d 83e0 0d3d
000003c0: 4447 a1bf e5db fa3d c1e7 1b3d d1c5 a2bf
000003d0: 4a6e b1be 3e05 03bf 973f 933d f561 b5bf
000003e0: 59d6 043f 12fd d5bf fff1 06bf 8b59 1dbf
000003f0: 6b60 a0bf 716a fbbf 35b0 a23e eead 27c0

fc1.bias f4 [128]
0.44876233 0.17071936 -0.79247224 0.10331023 -0.5642616 -0.87061113 0.44811186 -0.5310446
0.100203335 -0.17925958 -0.8044307 -0.5015463 -0.07222322 0.028267026 0.91295725 0.41148525
-0.18451251 0.11172961 -0.6392252 -0.66389287 -0.32244357 -0.24573775 -0.0882031 0.6710338
0.11028353 -0.19773835 -0.61241966 -0.080503196 -0.48361742 -0.3282024 -0.45042267 -0.6426956
0.015437928 -0.346936 -0.72130036 0.26071346 0.12302504 -0.66052526 0.09391085 0.3161516
0.082895875 -0.070999175 -0.16476662 0.055984143 -0.1682203 -0.62774825 -0.041496463 -0.5427706
-0.28242072 0.21345909 -0.46193245 0.2556529 -0.17002745 -0.3642031 -0.22814651 -0.10532499
-0.64966446 -0.10614632 -0.58228564 -0.30071935 -0.23200232 -0.33813646 -0.116566904 -0.05517475
-0.72391695 -1.3008034 -0.21680318 -0.030320322 1.0751389 1.2386479 -0.29842982 -0.36560515
0.12166738 0.84953487 -0.40177938 -0.15433249 -0.6196651 1.005094 -0.36427385 -0.3904065
-0.88952935 -0.4903519 -0.13246001 -0.31717142 -0.6811038 -0.009692233 0.037918814 0.21470694
0.092247084 -0.35695755 0.26035652 0.7250682 -0.12671477 0.97702765 -0.24842718 -0.08528669
0.22415827 1.1671153 -0.10408228 -0.36472178 -0.07873034 -0.8244867 -0.7414959 -0.056086574
-0.56503713 0.17468452 -0.021770867 0.082839146 0.29216927 -0.11103277 -0.3750909 0.08228293
-0.16423565 -0.51189107 -0.33921605 0.4140623 -0.5871211 -1.0787652 -0.65153325 0.3493676
-0.43145365 -0.6210276 -0.07461741 0.122494526 -0.046080947 -0.5199335 -0.095291376 -0.23140082
00000000: 2dc4 e53e 0ed1 2e3e 76df 4abf 5094 d33d
00000010: 7373 10bf 5fe0 5ebf eb6e e53e 8af2 07bf
00000020: 6837 cd3d d38f 37be 2cef 4dbf 5765 00bf
00000030: c4e9 93bd 4090 e73c 91b7 693f 32ae d23e
00000040: d9f0 3cbe 7ed2 e43d 43a4 23bf e2f4 29bf
00000050: 5317 a5be ada2 7bbe d4a3 b4bd dfc8 2b3f
00000060: 55dc e13d ec7b 4abe 89c7 1cbf dcde a4bd
00000070: b49c f7be 250a a8be cd9d e6be b387 24bf
00000080: 5def 7c3c 98a1 b1be 24a7 38bf 3c7c 853e
00000090: 8df4 fb3d 2f18 29bf 5554 c03d 9fde a13e
000000a0: 50c5 a93d 0468 91bd 95b8 28be a14f 653d
000000b0: f141 2cbe 1cb4 20bf 32f8 29bd 04f3 0abf
000000c0: 7399 90be 0595 5a3e 6982 ecbe f0e4 823e
000000d0: ad1b 2ebe d478 babe 3d9f 69be a1b4 d7bd
000000e0: 6950 26bf 3e63 d9bd ac10 15bf e3f7 99be
000000f0: 0492 6dbe 3920 adbe a1ba eebd ebfe 61bd
00000100: 9f52 39bf ba80 a6bf a701 5ebe 5362 f8bc
00000110: 279e 893f 048c 9e3f cbcb 98be 9930 bbbe
00000120: bf2c f93d 1e7b 593f 07b6 cdbe 5609 1ebe
00000130: 5fa2 1ebf eca6 803f 1a82 babe 5ce3 c7be
00000140: 32b8 63bf 670f fbbe 99a3 07be 4b64 a2be
00000150: d25c 2ebf 2ccc 1ebc c250 1b3d 23dc 5b3e
00000160: 0aec bc3d 24c3 b6be 734d 853e 129e 393f
00000170: 84c1 01be 7c1e 7a3f b263 7ebe caaa aebd
00000180: bf89 653e 0964 953f 1729 d5bd d0bc babe
00000190: 5f3d a1bd 8f11 53bf add2 3dbf 09bb 65bd
000001a0: 46a6 10bf 80e0 323e d158 b2bc 92a7 a93d
000001b0: 3697 953e 2665 e3bd ea0b c0be f483 a83d
000001c0: 642d 28be 4b0b 03bf baad adbe f9ff d33e
000001d0: 924d 16bf fa14 8abf e2ca 26bf 4fe0 b23e
000001e0: 7ee7 dcbe aafb 1ebf 03d1 98bd 69de fa3d
000001f0: 60bf 3cbd 5d1a 05bf 2028 c3bd 56f4 6cbe

fc2.weight f4 [7, 128]
0.019050108 0.046217028 -0.17716387 0.1257517 0.0023144684 -0.18902735 -0.0011981584 0.09730475
0.007487758 0.077176265 -0.008965876 0.0087731965 -0.13747057 -0.009839205 0.006781339 0.008985993
-0.0070565073 0.0006835899 0.08159914 0.0067154667 -0.11164374 -0.015109976 0.07515133 -0.016304152
-0.55148906 -0.0013929289 0.07041009 -0.0978798 0.072732106 0.12493018 -0.051848274 0.021748627
0.0022177799 0.0083263675 0.025358755 -0.114417754 0.010544778 -0.3228331 0.018853009 0.032775614
-0.0036258486 -0.18670854 0.07892949 0.0069808755 0.007263387 -0.04377977 -0.05487682 0.025343793
0.04586516 0.010328046 0.009783444 -0.05109259 0.0021341057 0.0020269388 0.07830547 -0.12262638
-0.09290399 -0.0034613844 -0.00955908 -0.6105217 0.026888113 -0.03473789 -0.05929144 0.061741304
-0.003306109 0.09967629 0.009276501 -0.0182818 0.007328651 0.004965297 -0.14351232 -0.20676571
0.018282004 -0.017855722 -0.08786157 -0.17169061 0.065825246 0.011781813 -0.1457103 0.030269166
-0.062787704 -0.4324468 0.015470958 -0.010375219 -0.0037289301 -0.06386586 0.1444493 -0.025357623
0.026874298 -0.14761424 -0.13492057 -0.003828927 -0.14896227 -0.03320557 -0.02685707 -0.015618285
0.0110568665 -0.0031615533 -0.08255482 -0.02668043 0.044289872 0.0118349455 -0.0354442 -0.06893565
0.074831836 -0.0041372925 -0.020428289 -0.018993715 -0.017555334 -0.0515558 -0.04183967 -0.08345337
-0.053463854 -0.113539375 0.048632137 -0.0049062115 -0.39130524 -0.014990628 -0.055925947 0.02923448
-0.10723626 0.03203329 -0.05321197 -0.0009650869 -0.06135643 0.0936719 -0.07828931 -0.012954801
-0.07066969 0.027119417 -0.12725645 -0.10704866 -0.01313634 -0.005743311 0.015466416 0.04818884
-0.003683556 -0.18861148 -0.06196672 -0.11360823 -0.05934604 -0.3593202 0.002316976 0.023979584
0.015627595 0.007053003 0.046059217 -0.022541652 0.10551505 0.020498626 0.03144725 -0.071426034
0.018065358 -0.021436589 -0.021917934 -0.19577198 -0.23549357 0.17010485 -0.0008561989 0.047085896
-0.0029261878 -0.3454577 -0.067323744 0.016279634 0.012401341 -0.18264349 0.010719641 -0.06781652
-0.28764546 0.06653286 0.09683141 -0.0037820865 -0.08110018 -0.23076111 -0.044198632 0.047265537
-0.42849228 -0.09169963 -0.003918499 -0.040149428 -0.022289066 0.005239591 0.08817223 -0.08355622
0.06815115 0.0057053524 0.008642968 -0.022348035 0.05292954 -0.44468406 -0.18179211 -0.036534093
0.018081563 0.10770346 0.0047270455 -0.018072998 0.0036138736 -0.0013694988 -0.008733245 0.05865834
0.017844751 -0.0026552915 -0.062655084 -0.2546061 -0.20042388 0.0034830163 -0.122077994 -0.030559812
0.06459884 -0.10880363 -0.0014960113 -0.051815305 -0.088944584 0.13680293 0.14324886 -0.060669936
-0.18226701 0.0622691 -0.01726594 0.033082865 0.045959484 -0.057847463 -0.18681777 -0.017796405
0.0037159934 0.017458279 0.015012298 0.015918387 -0.3243772 -0.016113907 0.13202591 -0.017578864
0.0502704 -0.0118398275 -0.08972501 0.0049411086 0.015027832 0.0679088 -0.059336044 -0.056028366
0.035813496 -0.08955161 0.015841536 0.0012960575 -0.1651861 0.031348314 -0.024329253 -0.02342436
0.10003156 -0.0016273734 0.012981194 -0.277262 -0.038509186 -0.34895074 -0.09232966 -0.023035642
00000000: f90e 9c3c 114e 3d3d 726a 35be 0ec5 003e
00000010: 56ae 173b 6390 41be 860b 9dba b647 c73d
00000020: de5b f53b 970e 9e3d 9ce5 12bc 74bd 0f3c
00000030: 16c5 0cbe 9e34 21bc ff35 de3b fd39 133c
00000040: 463a e7bb f132 333a 731d a73d 6b0d dc3b
00000050: 79a5 e4bd d58f 77bc f1e8 993d 4990 85bc
00000060: 632e 0dbf f092 b6ba 2a33 903d 3475 c8bd
00000070: 92f4 943d 65db ff3d db5e 54bd 2d2a b23c
00000080: 2c58 113b 516b 083c 2abd cf3c db53 eabd
00000090: 01c4 2c3c 614a a5be a071 9a3c b93f 063d
000000a0: a59f 6dbb 8630 3fbe c9a5 a13d d4bf e43b
000000b0: b501 ee3b 6b52 33bd 84c6 60bd c99d cf3c
000000c0: 1bdd 3b3d f736 293c bd4a 203c 7746 51bd
000000d0: 5adc 0b3b 64d6 043b 9e5e a03d 8a23 fbbd
000000e0: 7244 bebd 65d8 62bb b09d 1cbc 264b 1cbf
000000f0: 7644 dc3c 5149 0ebd 95db 72bd 73e4 7c3d
00000100: 4eab 58bb 1523 cc3d 77fc 173c b7c3 95bc
00000110: 2e25 f03b eeb3 a23b e5f4 12be 64ba 53be
00000120: 24c4 953c 2a46 92bc c4f0 b3bd aacf 2fbe
00000130: 63cf 863d 8108 413c 1535 15be 0bf7 f73c
00000140: d796 80bd ab69 ddbe e779 7d3c d3fc 29bc
00000150: 1161 74bb 1bcc 82bd 84ea 133e caba cfbc
00000160: 7d27 dc3c 3028 17be 9e28 0abe bcee 7abb
00000170: 9189 18be 9002 08bd 5c03 dcbc d6e3 7fbc
00000180: dc27 353c 1032 4fbb 8012 a9bd eb90 dabc
00000190: 4c69 353d 5ce7 413c f02d 11bd 222e 8dbd
000001a0: 6f41 993d 2092 87bb 3a59 a7bc b598 9bbc
000001b0: 34d0 8fbc 2d2c 53bd 1360 2bbd 9ae9 aabd
000001c0: eafc 5abd 5587 e8bd 7e32 473d 49c4 a0bb
000001d0: 2959 c8be 409b 75bc 9b12 65bd 267d ef3c
000001e0: af9e dbbd 5735 033d cbf4 59bd e3fd 7cba
000001f0: e150 7bbd 0ed7 bf3d 2556 a0bd 6040 54bc
00000200: 45bb 90bd 8a29 de3c 844f 02be 543c dbbd
00000210: ce39 57bc 6232 bcbb da66 7d3c a961 453d
00000220: d167 71bb 5e23 41be d1d0 7dbd 6fab e8bd
00000230: d514 73bd d1f8 b7be 68d8 173b d570 c43c
00000240: 7105 803c e11c e73b 97a8 3c3d 45a9 b8bc
00000250: 4618 d83d bcec a73c d5ce 003d d047 92bd
00000260: cdfd 933c c99b afbc 3d8d b3bc 7378 48be
00000270: 3a25 71be f72f 2e3e 8972 60ba 24dd 403d
00000280: 49c5 3fbb d5df b0be 08e1 89bd de5c 853c
00000290: ff2e 4b3c e506 3bbe 6fa1 2f3c 63e3 8abd
000002a0: 4446 93be 6142 883d 8c4f c63d e2dc 77bb
000002b0: da17 a6bd a44c 6cbe a009 35bd 8299 413d
000002c0: 5763 dbbe 04cd bbbd c166 80bb ba73 24bd
000002d0: 8f97 b6bc e0b0 ab3b a493 b43d 861f abbd
000002e0: d592 8b3d f7f3 ba3b 3c9b 0d3c 3a13 b7bc
000002f0: a5cc 583d a1ad e3be b627 3abe c6a4 15bd
00000300: c91f 943c a293 dc3d 55e5 9a3b d30d 94bc
00000310: bdd6 6c3b c180 b3ba e215 0fbc ba43 703d
00000320: 282f 923c 6604 2ebb 4f51 80bd bb5b 82be
00000330: eb3b 4dbe 5143 643b 0704 fabd 9258 fabc
00000340: 664c 843d 70d4 debd cf15 c4ba 493c 54bd
00000350: 9428 b6bd 1116 0c3e d4af 123e 0a81 78bd
00000360: 34a4 3abe e20d 7f3d 4d71 8dbc e681 073d
00000370: 0340 3c3d 76f1 6cbd 284d 3fbe c4c9 91bc
00000380: 0688 733b aa04 8f3c 24f6 753c 4767 823c
00000390: c514 a6be 5001 84bc cd31 073e 8d01 90bc
000003a0: 56e8 4d3d d6fb 41bc bfc1 b7bd 06e9 a13b
000003b0: 4c37 763c c513 8b3d 5a0a 73bd 007e 65bd
000003c0: 2cb1 123d d666 b7bd 1cc6 813c 79e0 a93a
000003d0: 8c26 29be 1767 003d 244e c7bc 72e4 bfbc
000003e0: 59dd cc3d 974d d5ba 13af 543c 49f5 8dbe
000003f0: cfbb 1dbd aca9 b2be 5517 bdbd 3eb5 bcbc

fc2.bias f4 [7]
0.022469003 0.12498619 0.18519296 0.21282126 0.14769709 0.11477461 0.12674844
00000000: ea10 b83c c2f8 ff3d 39a3 3d3e d1ed 593e
00000010: e83d 173e f30e eb3d 58ca 013e
