trained_models/DQL/double_dql_connect4_model_1_32batch.pt (torch, 536848 bytes, 8 tensors)

conv1.weight f4 [64, 1, 4, 4]
000000 b0 0c 8c ba c3 ba 7a 3e 29 1d 25 be f9 3e 1d be
       -0.0010684934 0.24485306 -0.16124405 -0.15356053
000010 bb cb 2c bd 9f ca 5b be b3 59 83 bb ba ee fe bd
       -0.04218648 -0.21464013 -0.0040084957 -0.12447877
000020 b5 7c 0d 3e 6b 34 15 be 23 59 44 3e 8f a7 38 3e
       0.13817103 -0.14570777 0.19174628 0.18032669
000030 1e 87 17 bd 4b 8d 07 be c5 7c 4b be c3 cf d5 bd
       -0.036994092 -0.13237493 -0.19871815 -0.10440018
000040 1e 20 1d be 38 16 89 3d 94 0b 0c 3e dd 17 4e bd
       -0.15344283 0.06693691 0.13676292 -0.050315727
000050 d8 a6 4f 3e ae 0f 00 3d 86 5a f5 3d 96 58 8f 3d
       0.2027849 0.031264953 0.119801566 0.06999318
000060 24 31 8e bc f3 79 a0 3e cc 07 2d be e8 0e ed 3d
       -0.017357416 0.3134304 -0.16897506 0.11575109
000070 f5 d6 2b 3e 16 fd 8d 3e a3 c6 83 3e 6f 0f 06 be
       0.16781218 0.27732152 0.25737485 -0.13091825
000080 d5 a6 04 be 53 40 9f bb 62 f6 9d 3c 6f b4 28 3b
       -0.12954266 -0.004859963 0.019282524 0.0025742312
000090 ab 6b 84 3d 8c 84 b1 3d 40 73 0c 3d cc f2 03 3d
       0.064658485 0.086678594 0.0342896 0.03221397
0000a0 3b 77 04 3f 47 1c c4 3d 3c f9 14 bd c5 1b 35 bd
       0.5174443 0.09575706 -0.0363705 -0.044215936
0000b0 d5 4d e8 3e ff e1 81 bd b8 01 32 3d 91 11 fd 3c
       0.4537188 -0.063419335 0.04345867 0.030892165
0000c0 f9 ef 4e 3e 87 06 83 bd 4d ee 3a 3e 61 a3 8d 3c
       0.2020873 -0.06397729 0.18254967 0.01728982
0000d0 f3 c8 28 bd 87 5a a1 3d e3 52 76 be 45 ab de bc
       -0.041207265 0.07878595 -0.24055056 -0.027181277
0000e0 47 78 6e bd b3 b0 62 be d3 32 1b be 07 d7 a5 bd
       -0.058220174 -0.22137718 -0.15156107 -0.08097654
0000f0 5e 7e b9 3e d8 92 a2 be 47 88 60 3e cd b2 be 3e
       0.36229223 -0.31752658 0.21926986 0.3724579
000100 3f 1c 19 bf ef 16 4e 3e 10 6f 9f 3e 01 d9 aa 3d
       -0.59808725 0.20125936 0.3113942 0.083421715
000110 f7 22 71 bf c9 11 33 3e 63 84 5f be f3 b2 9f bc
       -0.9419398 0.17487253 -0.21827845 -0.01949451
000120 94 f2 6d bc ac 58 b7 be 72 d5 42 3e 18 f8 86 ba
       -0.014523167 -0.3580984 0.19026735 -0.0010297326
000130 4f 86 dd bc 10 5c df bd b0 eb 08 bf e6 68 7e 3b
       -0.027041582 -0.109062314 -0.5348463 0.0038819849
000140 b2 3b 8a 3c c5 8c fc 3b 31 03 2f bd 6c 66 28 bd
       0.016874168 0.0077072107 -0.042727653 -0.041113302
000150 01 21 07 be c2 a4 35 3d 2c f7 6c 3d 03 63 ca 3c
       -0.13196184 0.04434658 0.05785291 0.024705416
000160 13 07 a1 3c 3d dc 97 bd 13 8b 48 3d 4a 1e 56 3c
       0.019656694 -0.07415054 0.048960757 0.013068745
000170 a7 02 27 bc fa fe c1 3d ee a5 3b 3f e2 81 b2 3d
       -0.010193503 0.09472461 0.73300064 0.087161794
000180 6e 45 b0 be 4f a0 38 3d 3e 8d 02 be 0b 53 8d 3d
       -0.3442797 0.045074757 -0.12749192 0.06900605
000190 69 7c 8b bf 2c 97 e8 bd bf b6 bb bc 2e c6 ff ba
       -1.0897342 -0.11356959 -0.022914289 -0.0019514018
0001a0 64 92 e3 bd fc 0d e0 3e 7f 8a 3e 3d 88 18 93 3e
       -0.11111906 0.4376067 0.0465188 0.28729653
0001b0 f3 04 58 bc 25 c5 b9 be 05 61 8b 3d b6 c1 a1 bd
       -0.013184774 -0.36283222 0.068056144 -0.078982756
0001c0 10 77 08 3e b7 3b f4 be ef 8d 91 3d e2 c9 3c 3e
       0.13326669 -0.4770181 0.0710715 0.18436387
0001d0 59 b8 80 3d d2 ba 61 bf b9 29 bc 3e 50 29 12 3e
       0.062851615 -0.8817569 0.36750582 0.14273572
0001e0 a4 84 de 3c c0 84 31 bf 1b e5 98 be c7 2b 5a be
       0.027162857 -0.69343185 -0.29862294 -0.21305762
0001f0 7b 81 f8 3e 8a c7 72 3e b6 4c a4 3d ad d4 65 3c
       0.48536286 0.2370893 0.08022444 0.014027757
000200 be 58 8d bd ca 8b 7b 3d 45 52 76 3f 9a 2a 2b 3e
       -0.06901692 0.06141261 0.96219283 0.1671547
000210 0d 97 37 bc 34 53 b1 be 0c ea 0a bf f9 18 68 be
       -0.011205447 -0.3463379 -0.5426338 -0.22665776
000220 80 78 f3 3c c6 55 4d 3c 71 0f 12 bf 64 65 38 3d
       0.029720545 0.012532657 -0.5705481 0.04501857
000230 16 a5 10 3e 72 d6 9e bb f5 bb b5 be b5 76 7a be
       0.14125475 -0.004847341 -0.35494962 -0.24459346
000240 e4 ef 62 ba d3 9c 61 be 8d c2 1e bd 0b 6e 4d 3e
       -0.00086569623 -0.2203248 -0.038759757 0.2006151
000250 1d 24 18 be 48 b4 de 3d e2 b0 88 bc 3e fb 8b be
       -0.14857526 0.1087423 -0.016685907 -0.2734012
000260 2f 05 a5 be 22 49 8e be 15 d7 d9 3d ad 26 2f be
       -0.32230517 -0.2779017 0.10636727 -0.17104597
000270 8b 0d 33 bf 8b 58 75 3d 32 9f 0a be 1f 6d 69 be
       -0.6994254 0.059898894 -0.1353729 -0.22795533
000280 99 bd 8b 3d e9 bd ec 3d 2c 1f c3 3d 3c aa 52 3d
       0.06823272 0.1155966 0.0952743 0.05143188
000290 9f e4 82 3e 62 8d ef 3b 1f db d7 bd e0 35 60 bd
       0.2556505 0.0073105553 -0.10539841 -0.05473888
0002a0 5c 9b d7 be f8 23 68 3c 0b 80 f7 3b a3 13 ef 3e
       -0.42110717 0.014168732 0.0075531057 0.4669467
0002b0 80 2f 46 bd a1 8b 50 be 3a ba e5 bd 28 33 4e bf
       -0.048385143 -0.20365764 -0.112171605 -0.8054681
0002c0 69 a2 12 c0 db 5c cb 3d 21 42 bc 3c 97 62 ec 3d
       -2.2911627 0.0992982 0.022980751 0.11542242
0002d0 08 ad c6 3e 33 53 77 bd 14 60 0b 3d a3 2a 83 bc
       0.38803887 -0.06038208 0.034027174 -0.016011542
0002e0 d8 15 4a 3c 89 7f ce 3c 8d eb 3d bc c8 ec a7 3d
       0.0123343095 0.025207298 -0.011591804 0.08199459
0002f0 8f a1 62 3d fa 30 33 3d fb bd 26 3c 96 bf e3 bc
       0.055329856 0.04374788 0.010177131 -0.027801316
000300 f1 ea 89 3f df 92 8d 3f 75 79 89 3f d2 56 44 3f
       1.0774823 1.1060447 1.0740191 0.7669498
000310 84 3c 8b 3f bf 54 1c 3f 3a 11 0e 3f 13 03 ee 3e
       1.0877843 0.6106681 0.55495036 0.4648672
000320 85 1f 21 3f e5 4f e5 3e b0 77 b9 3e 68 50 0a 3f
       0.6293872 0.44787517 0.36224127 0.5402894
000330 79 43 0a 3f 45 bc 1f 3f 84 c3 15 3f 50 e3 01 3f
       0.54009205 0.6239665 0.5850146 0.50737476
000340 2a c3 61 3e 0a 45 8a be db 22 97 bd da b9 2f bb
       0.22047105 -0.27005798 -0.07379695 -0.0026813657
000350 97 68 8b be f2 0c 00 bf fa 7a bb 3e 3f 2e 79 be
       -0.27228233 -0.5001975 0.3661726 -0.24334048
000360 ff 15 3f 3e 31 93 66 3e f8 ec 69 bd 65 1d ca 3d
       0.18660735 0.22517087 -0.057110757 0.09868888
000370 b4 de c9 be 30 ce e5 bd 3b 0f c1 be 55 24 ea bd
       -0.39427722 -0.11220968 -0.37706932 -0.11432711
000380 1f 9e 59 3d 7f 1e e3 3d 39 7e 6a bd 9d 96 fc be
       0.05312931 0.11089801 -0.05724928 -0.4933366
000390 6b d2 8a be 3a 13 69 be 6a 3b f2 3d 9d e3 d5 3d
       -0.2711366 -0.2276124 0.118277386 0.104438044
0003a0 76 e0 66 be 5b 8e 1b 3e c3 d3 85 bd 61 e5 20 3e
       -0.22546563 0.15191023 -0.06534531 0.15712501
0003b0 2b b6 b2 be c3 d4 87 be c9 3d 07 bd f8 d4 d9 bd
       -0.34904608 -0.26529512 -0.033017907 -0.10636324
0003c0 9a ac 7f bc 97 ff b3 bd 2f e1 c7 bd 89 e5 f0 3d
       -0.015605116 -0.08788984 -0.09759747 0.1176253
0003d0 6d a7 8f be f3 38 74 bd 07 bd 51 bd fe d0 48 be
       -0.28057423 -0.059624624 -0.05120566 -0.19610974
0003e0 35 d5 02 3e 02 07 6c 3d 9f 42 21 be 87 61 20 bd
       0.12776645 0.05762387 -0.1574807 -0.03915551
0003f0 e8 77 b7 be 8a 50 c3 3e b6 fa 74 3e 53 a4 84 3e
       -0.3583367 0.38147384 0.23923764 0.2590662

conv1.bias f4 [64]
000000 93 4e 65 bf 76 7d c4 bf 07 12 c9 bf 5a f9 bf bf
       -0.8957302 -1.5350788 -1.5708627 -1.4997971
000010 62 7b 5f bf d4 03 a7 bf 54 b7 a5 bf b8 b7 c3 bf
       -0.8729764 -1.3048043 -1.2946572 -1.5290442
000020 10 d0 5c bf 73 03 4a be 8c 89 cf be 44 fc f5 3e
       -0.8625498 -0.19727878 -0.40534627 0.48044026
000030 7d 79 19 40 01 36 64 bf ab 32 43 bf fd 41 a6 bf
       2.39804 -0.89144903 -0.7624919 -1.2988888
000040 e1 e6 3e bf a9 2d c9 bf 3e 3a e1 bd 88 66 ac bf
       -0.74571043 -1.5717059 -0.10997437 -1.346879
000050 2c 73 bc bf af 76 09 bf 1a c6 40 bf 46 36 51 bf
       -1.4722648 -0.5369672 -0.7530228 -0.8172344
000060 26 9c a2 bf c6 fd dd be 7c 59 cd bf 3f 09 de 3e
       -1.2703903 -0.43357676 -1.6042933 0.4336643
000070 59 90 b6 bf b0 17 5f bf 27 44 d3 bf 9d 37 89 bf
       -1.4262801 -0.8714552 -1.6505173 -1.0720097
000080 c1 47 b8 bf 5a df 39 bf 7b 12 d9 bf c6 eb 32 bf
       -1.4396898 -0.7260643 -1.6958765 -0.6989101
000090 3e 69 08 bf 3a 91 22 bf 4f 6a 30 bf b0 3b 84 bf
       -0.53285587 -0.6350285 -0.68912214 -1.0330715
0000a0 b0 09 21 3e 80 40 e6 bf ee 57 7c bf 9d 5f bc bf
       0.15726352 -1.7988434 -0.9857167 -1.4716679
0000b0 40 61 e8 be fb e1 4c bf 17 bc 97 bf b0 7b ae bf
       -0.45386696 -0.8003232 -1.1854275 -1.3631496
0000c0 8e 99 6f bf a5 36 5a bf 0e 46 32 bf 9a 73 85 bf
       -0.9359368 -0.8523963 -0.69638145 -1.0425904
0000d0 67 08 8e bf 9a e9 52 bf 56 c7 a6 bf 38 9f 3c bf
       -1.1096314 -0.823877 -1.3029583 -0.7368045
0000e0 ca 59 ec be e1 36 19 bf ab ca 6d bf 35 b2 69 bf
       -0.46162254 -0.59849364 -0.9288737 -0.9128755
0000f0 6d af 9d bf a0 67 a9 bf cb 61 af bf 2c ca 55 bf
       -1.2319161 -1.3234749 -1.3701719 -0.83511615

conv2.weight f4 [128, 64, 2, 2]
000000 ce c6 ae bd 41 4c a2 3d fc 55 a7 be bf 22 b1 be
       -0.08534013 0.079247005 -0.32682788 -0.34596822
000010 df 20 06 bf 69 52 2a bf 1d 1a bb 3f a2 0c 83 bf
       -0.5239391 -0.66532 1.4617344 -1.023823
000020 66 a1 a4 3f 66 46 2e 3f fb 9b 90 3e bd e4 9e 3f
       1.2861755 0.6807617 0.28244004 1.2413555
000030 17 9c 48 3e b6 99 8d 3f 6c 04 76 3f 47 93 c7 3f
       0.19590794 1.1062534 0.961005 1.559182
000040 94 09 03 be e2 19 c0 3e 81 6e 1f 3e ae 0a e2 3e
       -0.12796623 0.37519747 0.15569498 0.44148773
000050 84 a6 b0 bf dd 0c a5 3f ea 09 28 40 a8 55 77 bf
       -1.3800817 1.289455 2.625605 -0.96615076
000060 26 b7 0f bf e7 18 30 bf aa 60 42 3f ec 3c 33 bf
       -0.5613884 -0.68788 0.7592875 -0.70014834
000070 78 6d 8b 3f 60 81 48 be c9 38 96 3f 31 21 8c 3e
       1.0892782 -0.19580603 1.173608 0.27369073
000080 8c 87 ff 3e 4c 4b 5a be 86 da 3a 3f 1e e3 fe 3e
       0.49908102 -0.21317786 0.7298969 0.49782652
000090 e2 43 81 bf 89 cb 6e be 27 16 4f be eb 3d 65 3f
       -1.0098841 -0.2331983 -0.20223294 0.89547604
0000a0 ee 93 2a 3f fc e6 71 be ad e2 ec bd 65 5a 4f bf
       0.6663197 -0.2362327 -0.115666725 -0.80997306
0000b0 c0 06 8d be c4 ad 32 3e 73 09 f8 3d 62 49 b1 3e
       -0.27544212 0.17449099 0.12111177 0.346263
0000c0 54 c0 be bd 7c 28 73 bc 4a 9c 45 be bc c1 fd bc
       -0.093140274 -0.014841195 -0.19297901 -0.030976169
0000d0 c8 92 0c be fd 00 5c 3e 74 23 94 3e fa a2 bc be
       -0.13727868 0.21484752 0.289333 -0.3684309
0000e0 38 3d 43 3c 49 ee 22 bf 5b c1 50 be e7 af b2 be
       0.011916451 -0.63644844 -0.2038626 -0.34899828
0000f0 87 b9 87 bc 93 b8 b2 bf 74 d6 48 3d f4 5b e9 bf
       -0.016567959 -1.3962578 0.049032643 -1.8231187
000100 8d 9c bd 3e fb 73 a5 3f fa ad e7 3e 0c 12 eb 3e
       0.370335 1.292602 0.4524992 0.45912206
000110 f6 8f 8c be c0 e8 79 3e b4 ea 71 bf 73 fb 93 3d
       -0.27453583 0.24405193 -0.94498754 0.072256945
000120 7d 12 64 bf 01 c9 e6 3d 53 8f 0d be 8b 10 93 bf
       -0.8909071 0.11268807 -0.13824205 -1.1489424
000130 e2 73 8a be 19 e8 cf 3d d9 9a 2f be 8e eb 4f 3f
       -0.27041537 0.10151691 -0.17148913 0.812188
000140 dd af 65 bf c4 30 8e bf fb 1b 5b 3f cd 9b 16 be
       -0.8972147 -1.1108632 0.8558957 -0.14707871
000150 01 39 77 3e 80 89 56 3e a4 dc 04 bf d7 7c 71 be
       0.24142839 0.2095089 -0.5189917 -0.23582779
000160 03 4f c4 be d4 8a 99 3f 82 24 e0 3f 5a ce 69 bc
       -0.3834153 1.1995492 1.7511141 -0.014270389
000170 d3 87 12 be 63 70 07 3d 41 09 ae 3d 1e ce a4 3e
       -0.14309625 0.033066165 0.08497859 0.32188505
000180 17 78 07 be 35 ac 69 3e b6 91 de bf b8 9f cf bc
       -0.13229404 0.22819598 -1.7388217 -0.025344715
000190 c2 ea d4 3e 06 f0 2a 3d 00 03 c1 be 9f b8 ea be
       0.41585356 0.04173281 -0.376976 -0.4584398
0001a0 2a c0 16 3d 8c 04 a4 be 9f 60 2f 3f 15 d6 91 be
       0.036804356 -0.3203472 0.6850681 -0.28483644
0001b0 be fd 63 3e 13 a2 9f bd ea 96 7a 3e be 8e 58 bb
       0.22264764 -0.07794585 0.24471632 -0.0033044065
0001c0 8c a9 28 bf 50 f3 c5 3f d3 64 0b 3f d4 f8 ca bf
       -0.6588371 1.5464878 0.5445072 -1.5857186
0001d0 23 70 07 3f 56 42 d1 be d3 4c 3e bf cc 2c b3 bd
       0.5290548 -0.40870923 -0.74335974 -0.08748779
0001e0 83 92 9b bf aa e5 95 bf a1 4e d8 3c 41 26 7f be
       -1.2154087 -1.1710713 0.02640468 -0.24916936
0001f0 6b e6 8a be 0d c5 39 be 7b 9b 9b 3e 37 f7 3a bf
       -0.2712892 -0.18141575 0.3039206 -0.7303347
000200 e3 f8 81 bf 38 b9 74 bf 9a e1 75 40 0e e5 24 c0
       -1.0154079 -0.9559512 3.8418946 -2.5764804
000210 72 6b 40 3f 6c a1 11 bf f9 db 5d bf f1 c2 60 3e
       0.7516395 -0.56886935 -0.86663777 0.21949364
000220 59 1c 93 be 7f f0 52 be 7a 4c 3d bf 29 b3 d6 3e
       -0.28732565 -0.20599554 -0.7394482 0.41933563
000230 54 ce 37 3f b0 2b 28 3f 67 7d 7d bf 97 e5 57 be
       0.71799207 0.6569166 -0.99019474 -0.21083675
000240 5e f4 2f be de 7b 68 3e 49 53 56 3e fe 27 90 3e
       -0.17183062 0.22703502 0.20930208 0.28155512
000250 38 c7 17 bf ae 8b d7 3c 29 4d 3b 3d 8a bf 4b 3e
       -0.5928836 0.026311722 0.045727883 0.19897285
000260 49 a6 f9 be 4b b7 9f 3e c7 a7 cc 3f b2 1b 21 bf
       -0.48759678 0.3119453 1.5988702 -0.62932885
000270 e0 14 d2 3e 27 b5 39 3f bd b0 0c 3f 9d cc e6 be
       0.4103155 0.7254204 0.5495718 -0.45077983
000280 55 d1 90 3e 4e 13 ee 3e cd ef 95 3f f0 f4 59 c0
       0.28284708 0.46499103 1.1713806 -3.4055748
000290 20 49 9c bf be 5e 20 3f af ed 7e bf 1d 7f b2 3f
       -1.2209816 0.62644565 -0.99581426 1.3945042
0002a0 2f 2d 37 3f 04 33 65 3d 77 c3 22 3f bd 0f 88 40
       0.7155332 0.055956855 0.63579506 4.251921
0002b0 9a 19 01 bf 27 a2 59 be 84 b9 bc 3e c5 8f aa be
       -0.5042969 -0.21253262 0.36860287 -0.33312812
0002c0 0a c2 64 3e 54 16 5a bf 0e 91 43 be f2 fb f2 bb
       0.22339645 -0.8519032 -0.19098303 -0.007415288
0002d0 77 bb bf 3f 23 88 1a 3e 95 5a 40 be e2 0b 88 3f
       1.4979085 0.15090995 -0.18784554 1.0628626
0002e0 0c 45 d8 3e 71 da 18 3d 82 a0 95 3f b1 ba 03 c0
       0.4224018 0.037317697 1.1689608 -2.0582697
0002f0 63 3d bc bd ff d2 6b be 7d b5 1b 3e 20 2b f8 3e
       -0.09191396 -0.23029707 0.15205951 0.48470402
000300 01 3e 84 3e 2d 2a 85 bf f6 06 29 3f 34 f8 86 bd
       0.25828555 -1.0403496 0.66026247 -0.0659031
000310 fd a8 39 3f e5 fc ec be 96 29 6f 3f 7c 6f b2 3f
       0.7252348 -0.46286693 0.9342283 1.3940272
000320 a6 da b0 3f c4 b4 e1 bd 80 2b f1 3e cd dc 01 be
       1.3816726 -0.110208064 0.471035 -0.12681885
000330 bd 7a 1a bf bb da 05 bf 7a 33 c2 bf 70 8a 39 3f
       -0.60343534 -0.5228688 -1.5171959 0.72476864
000340 9d c1 bd be cc 58 d1 3e 68 59 89 3e ae 40 48 3e
       -0.37061778 0.4088806 0.26826024 0.19555923
000350 bd fa 7e bf ae 68 9b 3e db 91 87 be 63 b6 05 3f
       -0.99601346 0.30353302 -0.26478466 0.52231425
000360 cc dc 72 3e 89 b7 21 bf 99 2e 71 be 04 ad d2 be
       0.2371704 -0.6317068 -0.23552932 -0.41147625
000370 f2 5c 39 3f f9 b2 34 3f a6 d7 0e bf 8f ff b9 be
       0.7240745 0.7058559 -0.55797803 -0.36327788
000380 37 88 15 bf 86 a3 9e 3f a1 1c aa 3e 06 3f 7f 3f
       -0.5841097 1.2393653 0.33224967 0.9970554
000390 bf 63 c8 bd df 02 02 bd a9 a4 85 3e c1 c3 6e be
       -0.0978465 -0.03174102 0.26102188 -0.23316862
0003a0 1d 86 15 3f a6 62 40 bf 79 74 91 bf 1e 23 90 bf
       0.58407766 -0.75150526 -1.136367 -1.1260717
0003b0 56 96 4d 3f 9c 68 80 3f 90 78 be bf 0d 7e aa bf
       0.8030752 1.0031924 -1.4880543 -1.3319718
0003c0 58 4c ce bf 34 dd d0 be 1c bf 56 bf b7 3c 94 be
       -1.6117048 -0.40793765 -0.8388536 -0.28952572
0003d0 66 1a a6 bf a2 4f 29 3e bf 6b c3 be 50 6a 18 bf
       -1.2976806 0.16534284 -0.3816814 -0.5953722
0003e0 38 d0 43 bf 98 f8 05 3f 0f ff b2 3e fa be 4d 3f
       -0.7648959 0.5233245 0.3496022 0.8036953
0003f0 a9 d0 54 bf a9 f3 ab 3f 4b 11 04 bf 1b 40 01 bf
       -0.8313089 1.3433734 -0.51588887 -0.5048844

conv2.bias f4 [128]
000000 e0 82 ee be 51 d9 04 bf 0d 1c e2 be 6e a3 3f bf
       -0.46584225 -0.518941 -0.44162026 -0.7485875
000010 d9 58 9f be 25 a5 b5 be 3c 5b 35 3b d2 12 f6 be
       -0.31122473 -0.35477558 0.0027672788 -0.48061234
000020 d8 f5 44 be 83 36 06 bf ee b6 ec be 38 c8 66 bf
       -0.19234407 -0.5242693 -0.46233314 -0.9014926
000030 99 d0 99 be 7e 58 12 bf 69 53 1e bf 02 e9 ea be
       -0.3004196 -0.5716628 -0.61846024 -0.45880896
000040 ae 35 3c bf 02 e5 0f bf 79 1a 09 bf c6 cd 73 bf
       -0.7351941 -0.56208813 -0.5355602 -0.9523586
000050 1a 0c 96 be 7c bb 25 bf e8 c2 5b be 92 ab 59 be
       -0.29306108 -0.64739203 -0.2146107 -0.21256855
000060 a1 04 a0 be b6 7e 08 bf 81 03 d8 be 28 dd b2 be
       -0.31253532 -0.53318346 -0.42190173 -0.34934354
000070 43 3f 16 bf ff 1e cc be a1 7e 22 be 6f e3 2a bf
       -0.5869028 -0.39867398 -0.15868618 -0.66753286
000080 68 47 12 bf 26 b1 9b bf fa 93 5a bd 3d cd f3 3e
       -0.5714021 -1.2163436 -0.053363778 0.47617522
000090 25 6e 2f 3e 4a b3 24 bf 6f 10 72 bd ca 8d 8a be
       0.1713186 -0.64336073 -0.059097704 -0.270613
0000a0 30 a0 20 bf 01 7c 03 bf 48 5a 96 3f ac 8c f1 be
       -0.62744427 -0.5136109 1.1746302 -0.47177637
0000b0 72 e0 a3 be b2 87 72 bf 62 c0 22 bf 02 d7 99 bd
       -0.32007176 -0.94738305 -0.635748 -0.075117126
0000c0 0d 58 fe bd 33 e1 0a bf 8c 93 3e bf 0f 8f de be
       -0.12419138 -0.54249877 -0.7444389 -0.4346852
0000d0 cf d3 ae be 13 1d 09 bf 82 3e 0b bf d3 1d e0 be
       -0.34145972 -0.5355999 -0.54392254 -0.43772754
0000e0 82 8d 86 bd 83 a7 06 bf fa c5 2d bf bc 31 3c bf
       -0.06569959 -0.5259935 -0.67880213 -0.7351339
0000f0 8b 2f 24 bf 8e 42 14 bf d6 45 b7 bc 11 a9 4c bf
       -0.64135045 -0.57914054 -0.022372168 -0.79945475
000100 ca da 71 bf a0 a4 07 3f 9b 3f 21 bf 37 c7 95 bf
       -0.9447447 0.5298557 -0.6298768 -1.170142
000110 54 05 ca be d3 3d 5d bf 23 79 3a bf 8f 01 7f be
       -0.3945719 -0.8642246 -0.7284109 -0.24902938
000120 fb b0 10 bf 40 a1 07 bf d3 7a 8d bf 1d 3c 88 bf
       -0.5652005 -0.5298042 -1.1053108 -1.0643345
000130 66 63 aa be a6 e8 1a bf db 7f 21 bf a5 a0 38 bf
       -0.3327896 -0.60511243 -0.63085717 -0.72120124
000140 30 dd 00 bf cb 95 27 bf a7 e2 b2 be 54 fb 27 bf
       -0.50337505 -0.6546294 -0.34938547 -0.6561787
000150 da 53 de be a3 e5 ca be 30 c3 e5 be 0f 2b 25 bf
       -0.4342335 -0.39628324 -0.4487548 -0.6451883
000160 93 3b d8 be d6 75 42 bf b4 3e f9 be 37 2e cb be
       -0.42232952 -0.75961053 -0.4868065 -0.39683697
000170 0b 9f 14 be 6f d4 57 bf 40 94 42 bf 51 e0 04 bf
       -0.14513795 -0.8430852 -0.7600746 -0.5190478
000180 70 2a 86 3d f8 fb 26 bf f7 eb 05 bf 7a a2 96 bd
       0.06551063 -0.65228224 -0.5231318 -0.07355209
000190 69 b3 dc bd e5 aa aa be 29 6e 2a bf 24 a3 78 bd
       -0.10776407 -0.33333507 -0.6657434 -0.060702458
0001a0 9e ae 8f be f5 ae 81 3d d4 aa 1b bf ca 96 c8 be
       -0.2806291 0.063321985 -0.6080754 -0.39177543
0001b0 af e1 2a bf d2 51 18 bf f3 94 bf be af 1a 1f bf
       -0.66750616 -0.5949985 -0.37418327 -0.6215009
0001c0 76 b4 17 bf cd 57 2a bf c5 4b f9 be df d4 14 bf
       -0.59259737 -0.66540223 -0.4869062 -0.58137316
0001d0 4b 6f 04 bf bb 61 2c bf b5 28 da be a0 69 17 bf
       -0.5173232 -0.67336625 -0.42609182 -0.59145546
0001e0 01 ae 4a 3f 48 6f 3f bf c0 a5 b7 3e 36 94 50 bf
       0.7917176 -0.74779177 0.35868645 -0.8147615
0001f0 77 07 11 bf 09 2f 56 bf ae 69 40 bf 85 05 0d bf
       -0.56652015 -0.8366552 -0.75161254 -0.5508655

fc1.weight f4 [128, 768]
000000 23 ab a5 bf 92 90 e8 bf ef fd 0e be 58 3e 87 bf
       -1.2942852 -1.8169119 -0.13964055 -1.0565901
000010 ea c4 5b bf d4 53 1d bf 2f a9 7c bf da 22 cd bc
       -0.8584734 -0.61456037 -0.98695654 -0.025041033
000020 6f 0a 86 be a4 74 30 bd 57 bb cf 3d be 1b 1a bf
       -0.26179835 -0.043079987 0.10143154 -0.6019858
000030 86 a1 98 3e 11 8e 7e bd 62 f8 57 bf 58 f3 25 be
       0.29810733 -0.062147204 -0.8436338 -0.1620611
000040 73 f0 56 bf f2 96 e7 bd bf ef 91 bf 89 66 42 bf
       -0.83960646 -0.113080874 -1.140129 -0.75937706
000050 fe 65 bd 3e d2 e1 34 bf 88 66 2e bf 0f f0 65 be
       0.36991876 -0.70657074 -0.681252 -0.22454856
000060 3f b8 ae be bc 61 2c 3f fc ca fa be 1d 74 8f bf
       -0.34124944 0.6733663 -0.4898299 -1.120731
000070 e0 f0 16 3f e2 e2 37 bf c9 c6 ac be 8c b7 dd bd
       0.58961296 -0.7183057 -0.3374541 -0.108260244
000080 f8 f8 02 bf 41 a6 3c bc 2e f1 19 be e0 3f 6b bf
       -0.51161146 -0.011514247 -0.15033409 -0.9189434
000090 9b cb df bc 6d 91 23 bf a8 72 44 bf c3 40 10 bd
       -0.027318766 -0.6389378 -0.7673745 -0.03521801
0000a0 fb 92 5f be 42 d9 04 3e 36 75 fb bf 78 33 57 bf
       -0.21833412 0.12973502 -1.9645145 -0.8406291
0000b0 6d b1 3c bf ad 2f 10 bf 36 dd 41 bf 19 72 8d bf
       -0.7370823 -0.5632275 -0.75728166 -1.1050445
0000c0 00 ee a7 bf 07 47 b6 be 32 33 ef 3e 28 0a 2a bf
       -1.3119507 -0.35601065 0.46718746 -0.6642175
0000d0 d6 82 cc bd 5e 47 13 bf 9e c5 33 bf f8 b9 0f bf
       -0.099858925 -0.5753077 -0.70223415 -0.5614314
0000e0 2a 9a 3b bf 8a 2d 00 bf e9 be e0 be 8c 85 af be
       -0.7328211 -0.5006949 -0.43895653 -0.34281576
0000f0 b3 68 8e bc 04 d6 90 be 27 5b ea be 4f b2 80 be
       -0.017383909 -0.2828828 -0.4577267 -0.2513604
000100 7e 45 91 be 67 e3 90 3d 1b dc 8f bf 64 d8 3f bf
       -0.2837333 0.070746236 -1.1239046 -0.7493956
000110 2c bb 20 bf 4d fc 71 bf e4 b9 5d bf 13 2d 80 bf
       -0.627856 -0.94525605 -0.8661177 -1.0013756
000120 cb 1c 42 bf 35 cc a2 bd 0d 41 83 3e ea 0b a6 3e
       -0.75825185 -0.07949106 0.25635567 0.32430965
000130 1e 6b 22 bf 61 cf 93 bf 4f 46 bd 3d c5 54 fd 3c
       -0.634447 -1.1547662 0.09241926 0.03092421
000140 12 71 ec be 7d 5d ee be c4 7c 31 bf 7d 23 29 3d
       -0.46180016 -0.465557 -0.69331 0.04129361
000150 07 c8 b4 be b9 c1 84 bf 35 59 2d 3f 71 92 74 3e
       -0.3530886 -1.037162 0.67714244 0.23883988
000160 45 20 61 bf 2b 49 8c bf 21 dd 9a be 88 30 e6 be
       -0.87939864 -1.0959829 -0.30246833 -0.449589
000170 12 1e c6 be e6 e0 bd bd 55 3a fc be a7 5f 01 bf
       -0.38694817 -0.092714116 -0.49263254 -0.5053658
000180 7d 03 4d 3e 16 f2 82 be dd b8 cc 3e 1c b6 04 bf
       0.20020862 -0.25575322 0.3998479 -0.51840377
000190 cd ca 8b bf 74 7c ef be df b8 cd be 27 be 43 bf
       -1.0921265 -0.46774638 -0.40180108 -0.76462024
0001a0 23 ab 2c bf ae d5 ce be cb 8e 33 bf 3d 14 85 be
       -0.67448634 -0.403974 -0.7013976 -0.25992003
0001b0 e1 06 b5 be 57 3a 99 be 18 95 1a be 9f 67 4f bf
       -0.3535681 -0.29927322 -0.15095937 -0.8101749
0001c0 26 93 bf be c9 54 20 bf d8 e0 86 bf 08 b0 b6 bd
       -0.37416953 -0.6262937 -1.0537367 -0.08920294
0001d0 1a 5b a0 bf 09 dc 87 bf 79 c3 a3 bf 56 6d 83 3d
       -1.2527802 -1.0614024 -1.2794029 0.064173386
0001e0 44 aa 1f bc ca 64 e3 be 5f 8c 2f bc 0a 9f 86 3e
       -0.009745184 -0.44412833 -0.010714619 0.26293212
0001f0 3a f9 06 bf f6 26 84 bf b5 7e 33 bf b1 1d da be
       -0.5272404 -1.032439 -0.70115215 -0.42600778
000200 c9 2a 40 bf 69 45 4d bf ba 7a ec be b3 fa 6f bd
       -0.75065285 -0.80184036 -0.46187383 -0.058588695
000210 60 16 3e bf 4f d4 c2 bf 84 8f 9f bf 5f 44 c6 bf
       -0.7425289 -1.5221041 -1.2465672 -1.5489615
000220 0e 05 16 bf c8 2c 2b bf 54 85 a3 3d 9a d1 e1 bf
       -0.5860146 -0.66865206 0.07984415 -1.764209
000230 95 86 ef bd 51 e0 c2 be 0e b5 07 3f 70 68 13 bf
       -0.11695591 -0.38061765 0.5301064 -0.57581234
000240 e2 bc 79 3e 52 ec 51 bf d6 e7 78 3e 95 24 b2 be
       0.2438846 -0.8200122 0.24307188 -0.34793535
000250 87 b5 1f 3f bc a4 3a bf 3b 5b 6a be 8f 13 9d bf
       0.62386364 -0.72907615 -0.22886364 -1.2271594
000260 c5 7d ec be 78 bc 38 bf b9 a8 fe be f1 d6 21 bf
       -0.46189705 -0.7216258 -0.497381 -0.632186
000270 da 2e 1d bd b0 3d 12 be 8f 81 5d bf ac 6c 76 bd
       -0.03837476 -0.14281344 -0.86525816 -0.06016223
000280 e5 a4 ca bf 41 2d 53 bf 66 85 08 3f e1 99 da bf
       -1.5831572 -0.82490927 0.5332855 -1.707821
000290 20 19 cc 3d 1d f2 8b be 35 df f1 bf a7 c4 91 bf
       0.0996573 -0.27333155 -1.8896242 -1.1388139
0002a0 9b 33 39 bf 5f 47 35 be bd d5 85 bd 69 f8 9d bf
       -0.7234437 -0.17703007 -0.06534908 -1.2341434
0002b0 cf 58 2f 3f 96 61 a1 bf 9a fb 47 bf eb bb 0d be
       0.68494886 -1.2607906 -0.7811829 -0.13841216
0002c0 54 cc ed bc 1c bb 2f bf 82 19 80 3e 14 69 41 be
       -0.029028095 -0.6864488 0.2501946 -0.1888774
0002d0 9c 46 de bf bf 1e 90 3d ec df 40 bf 73 50 9d bf
       -1.7365298 0.07037114 -0.7534168 -1.2290176
0002e0 f7 25 45 bf f3 ed 8e bd 8c 44 b7 bf 97 c8 04 be
       -0.77011055 -0.06978979 -1.4317794 -0.12967144
0002f0 e1 39 1e be 74 12 43 be 35 83 af be 14 1c bc be
       -0.15451767 -0.19050008 -0.3427979 -0.36740172
000300 e4 c2 fd be 0b 7c 52 bf 0d 73 7e bf 55 b8 19 bf
       -0.49562752 -0.82220525 -0.99394304 -0.60046893
000310 a5 d1 f2 3e b0 b0 59 bf 5d 1a 3c bf b7 c5 0e 3f
       0.4742557 -0.8503523 -0.7347773 0.5577044
000320 ca 04 00 bf e1 47 45 be d1 3d 73 be 47 8a 45 bf
       -0.5000731 -0.19265701 -0.2375405 -0.7716412
000330 30 45 1d 3d d5 df 9b bc dc 55 75 3c 8e 32 81 3c
       0.03839606 -0.01902763 0.014974084 0.015771177
000340 f6 73 ea bc 1a c0 e0 3c ff 88 97 bf 9d e4 6e bf
       -0.028619748 0.027435351 -1.1838683 -0.93317586
000350 ba 55 e4 bd 9e 8c 57 bf ca 39 6b bf 6c 32 47 3c
       -0.111491635 -0.8419894 -0.91885054 0.012158018
000360 d4 fb bb 3e 71 83 4e bf be f9 b1 bf 67 64 30 be
       0.36715567 -0.80669314 -1.390434 -0.172258
000370 b0 95 e1 bd 3e af 36 bf 76 6b 36 bf 7d 91 e5 be
       -0.11014879 -0.7136115 -0.7125772 -0.4483756
000380 be c3 4e bd af c1 35 be 6e c5 99 3e 41 a5 72 bf
       -0.050479643 -0.17749666 0.3003344 -0.9478341
000390 5c 0a 90 bc c6 42 3e 3c e1 0d 02 bd 51 29 3f bd
       -0.017583065 0.0116126 -0.031751517 -0.04667026
0003a0 d2 16 7d 3c 2a 36 46 3b 86 4d 4c be 16 0f ea bd
       0.015447335 0.0030244687 -0.19951448 -0.11428659
0003b0 d3 72 8e 3d ae b0 79 be cb db d1 be 03 cc 62 bc
       0.06955495 -0.24383804 -0.40988 -0.0138425855
0003c0 50 89 e7 bf 0c 7b 41 bf 32 4b 79 bf 63 f2 02 be
       -1.808878 -0.7557838 -0.97380364 -0.12787776
0003d0 5b 8b cf bf 77 19 94 bf 6f de 88 be 95 26 68 be
       -1.6214403 -1.1570271 -0.26732203 -0.22670968
0003e0 d1 5a 62 3c ce 60 b6 3d f7 94 81 be 21 c5 1d bf
       0.013815598 0.08905183 -0.25308964 -0.6162892
0003f0 58 17 f5 be 02 68 1a bf 1c f3 c5 be 8c 72 2a bf
       -0.47869372 -0.60314953 -0.3866204 -0.66581035

fc1.bias f4 [128]
000000 2e 01 c3 be 44 e8 8c be 43 7c 22 bf 51 be fb bd
       -0.38086838 -0.27520955 -0.6347086 -0.12292159
000010 82 1e 82 be 5f 75 d6 be fa 77 e5 bd cb 72 15 be
       -0.254139 -0.41886422 -0.11204524 -0.14594571
000020 55 2a e1 be 39 aa 9e bf 8c ea a7 be e7 57 6c be
       -0.4397761 -1.2395698 -0.32796133 -0.23080407
000030 5e d8 a1 be 5a 49 52 3e 78 e6 9c 3e 67 12 2f bf
       -0.31610388 0.20535794 0.30644584 -0.68387455
000040 d7 cf 0a be d2 3d 44 be c7 c4 04 bf 1d d8 9f 3d
       -0.13555847 -0.19164208 -0.5186276 0.07804892
000050 e2 a8 b3 be f2 24 20 be 31 2f 4a bf 3d a7 89 be
       -0.35089785 -0.15639094 -0.7897826 -0.26885405
000060 7b 47 d0 bd 22 19 15 3b e2 13 fd be 38 e2 14 3e
       -0.10169884 0.0022750576 -0.49429232 0.1453942
000070 f8 f9 42 bf 8d b8 20 bf b5 6e e8 3d 23 c7 23 bf
       -0.7616267 -0.627816 0.11349241 -0.63975734
000080 4b 51 11 bd 4e 75 dd be b2 64 77 be 2e a7 97 bf
       -0.035477918 -0.4325356 -0.24159506 -1.1847894
000090 2e 2a a9 be 22 82 ab be 6e 27 28 bf 85 f7 ef be
       -0.33039993 -0.3349772 -0.65685165 -0.4686853
0000a0 6e 13 6e be 2f bb ce 3d 46 bd 35 bf b6 a0 65 bf
       -0.232496 0.10094296 -0.70991933 -0.8969835
0000b0 02 8d 16 3f 7e 06 8c be bc f4 89 be 55 2d e0 be
       0.5880891 -0.27348703 -0.2694453 -0.43784586
0000c0 2c c7 03 bf d4 2f 97 be d9 3b 56 bd e3 ea bf bf
       -0.5147579 -0.29528677 -0.05230317 -1.4993557
0000d0 56 36 08 be d0 86 56 bf 8f e4 68 bf 0e 87 92 be
       -0.13301978 -0.8379946 -0.9097375 -0.28618664
0000e0 3e 93 4b 3e fa 71 ed 3d 6b 4b 2a bf d3 80 1d be
       0.19880387 0.11594005 -0.6652133 -0.15381174
0000f0 12 b6 d6 be 64 af 7c be c8 c1 11 bf 7e c6 0b bf
       -0.41935784 -0.24676281 -0.5693631 -0.5459975
000100 1e 91 b7 bf 53 85 1e be f9 fc b8 3d 87 8f 77 be
       -1.4341161 -0.15480547 0.09032626 -0.24175845
000110 68 36 65 be 63 c1 0d bf 01 a1 6f 3d d3 c5 69 bf
       -0.22384036 -0.5537321 0.058503155 -0.9131748
000120 f1 1c 90 bd 57 75 21 bf 43 50 96 be a8 23 f8 3d
       -0.0703677 -0.6306967 -0.2935811 0.12116176
000130 10 33 05 be dd 7c 83 bf 74 fa 36 bf 46 39 5e 3e
       -0.1300776 -1.027248 -0.7147591 0.21701536
000140 f4 5a 49 bf f0 42 01 bf 3d 34 52 3e d4 d5 e5 be
       -0.7865441 -0.50492764 0.2052774 -0.448897
000150 f8 d2 20 bf 11 c6 eb bd d1 1c 28 3f 84 4e 9a be
       -0.6282191 -0.115123875 0.6566897 -0.30138028
000160 96 85 3d bf ac db 33 bf 59 d5 b8 be 59 51 2d be
       -0.7403196 -0.7025707 -0.3610027 -0.16925563
000170 89 ff 92 be 9c 63 00 bf 5f 9a 6d bf f5 8d 02 be
       -0.28710583 -0.5015199 -0.92813677 -0.12749465
000180 ff 91 01 bf ed 49 82 be 72 5c a0 3d 73 96 6c bf
       -0.506134 -0.25447026 0.078301325 -0.9241707
000190 1b 07 04 bf 10 90 a7 be 65 30 dc bc 39 13 4a bf
       -0.5157334 -0.32727098 -0.026878545 -0.7893558
0001a0 1b cd 08 bf 94 ce 82 be c6 6f 9e be 78 d3 63 bd
       -0.53437966 -0.25548232 -0.3094465 -0.055621594
0001b0 53 fd ad 3c 95 b2 aa be 99 9d 22 bf c0 f9 fd be
       0.021238958 -0.33339372 -0.63521725 -0.49604607
0001c0 76 c4 c4 be db 94 20 bf 35 6b f8 be 66 67 16 bf
       -0.38431138 -0.62727135 -0.48519292 -0.58751523
0001d0 a3 c1 a2 be fe aa ba be 74 d1 92 3e 42 91 e7 be
       -0.31788358 -0.36458582 0.28675425 -0.4522801
0001e0 fe 6a 14 bf 0a bd 90 3e 38 cc 63 bf 04 8e 94 be
       -0.5797576 0.28269225 -0.8898349 -0.290146
0001f0 4a ab 49 bd e4 be 33 bf b1 8e da 3d 6c be a6 be
       -0.04923562 -0.7021315 0.106717475 -0.32567155

fc2.weight f4 [7, 128]
000000 6e 5d a8 be b1 f4 22 3e 2d 59 21 39 ad 4b 51 bc
       -0.3288378 0.15913655 0.00015387377 -0.01277439
000010 b9 fd ac bd 6e ef 2c bd b3 a4 0d 3c 7a 91 1c 3d
       -0.08446831 -0.042220525 0.008645224 0.038224675
000020 3b 48 6e 3b c2 68 20 3b 26 6a d1 ba 1b a0 73 be
       0.003635897 0.0024476503 -0.0015977069 -0.23791544
000030 46 d2 b5 3c bd 70 e6 bd 8b b9 13 bc ca 4b 0a bd
       0.022194993 -0.11251972 -0.009016405 -0.033763684
000040 c7 24 89 bd ee 35 a8 ba 7d 42 1f 3d 21 fb 3d be
       -0.06696468 -0.0012833455 0.038881768 -0.1855283
000050 3e 51 3f 3e bd 68 7e 3d e1 03 d1 be c3 8f 1c 3c
       0.18683335 0.062111605 -0.40823272 0.00955576
000060 1e db 45 3d ff 9c b0 3d 8d 4c 12 bd 44 08 4a bc
       0.04830467 0.08623695 -0.035717536 -0.012331072
000070 3c 50 95 3d 6d 32 94 3d 03 0a 9f 3d eb 28 b6 3d
       0.07290694 0.072361805 0.077655815 0.08894523
000080 23 c0 2c 3e 6c 5c 80 3d 22 49 10 3c 97 7f 95 bd
       0.1687017 0.06267628 0.008806499 -0.072997265
000090 bf d4 02 be ed 8a 9e bc b8 20 3d bd 1d e5 d3 3c
       -0.12776469 -0.019353354 -0.04617378 0.025866086
0000a0 2b 4c 95 bc e8 08 ee bc a3 f2 8d 3d 39 7f 81 be
       -0.018224796 -0.029056981 0.06931045 -0.25292376
0000b0 9b 85 b3 bc 02 9a bb 3d c4 26 a6 bd 0c 48 96 3c
       -0.021914294 0.09160234 -0.08112863 0.018344902
0000c0 5a 9f 55 3d 7f 6a b6 3d 17 22 c2 bc e7 d0 fa 3b
       0.052153923 0.08907031 -0.023697896 0.0076542976
0000d0 f0 62 24 3c 5f ba d1 be b2 b2 1f 3d cc 9b 02 bd
       0.010033354 -0.40962502 0.038988777 -0.03188686
0000e0 9a bf 2f 3b e8 c8 bb 3d a4 f4 69 bc 9e 05 4b 3b
       0.0026817084 0.09169179 -0.014279518 0.003097869
0000f0 99 3b 98 bc 16 5d be 3d 5c dc 57 bd 6f b6 5f bb
       -0.018583106 0.092950985 -0.052700385 -0.0034135839
000100 ee 44 09 3d ed ee c6 3c c2 70 6a 3c 4a 5b 0b 3c
       0.033513002 0.02428385 0.01430911 0.008505652
000110 1c fc 1b 3d 90 03 4f 3d d5 4d 11 bd eb 9c 2a 3d
       0.038082227 0.050540507 -0.035474617 0.041653555
000120 73 9d aa bd aa ac 16 bd 7c cf a6 3c 78 56 93 3d
       -0.08330812 -0.03678576 0.020362608 0.07194227
000130 cf fc 20 bd ef 3e 63 bd 8c c9 52 bc ae 32 87 3b
       -0.039303597 -0.05547994 -0.012865435 0.0041259145
000140 11 08 9d 3b a6 50 81 bc 88 c1 fe 3b 14 bf dd bc
       0.0047922214 -0.015785526 0.0077745356 -0.027068652
000150 ee 8c 39 bf 6c b3 fc ba b8 97 26 3c 04 fc a3 bc
       -0.72480667 -0.0019279546 0.0101680085 -0.020017631
000160 21 59 19 3e 58 4a 85 bd 76 1d 84 3a 9b c6 5c 3d
       0.14975406 -0.065083206 0.0010079581 0.053900342
000170 b6 12 a4 bc 49 e7 8c 3d 71 01 15 be c1 a7 71 bd
       -0.020028453 0.06880052 -0.14551331 -0.058997873
000180 6d d2 37 3d c3 79 a8 3d 50 8e 56 bc 99 db b7 be
       0.044878412 0.08226349 -0.013095453 -0.35909727
000190 ff 55 7d be 5c ba 27 3d 68 bd 5f 3d d8 c5 1b 3c
       -0.24739836 0.04094921 0.05462399 0.009507619
0001a0 42 ea b1 3d 29 d0 08 3e d7 1e 0a bd 73 2f ad 3c
       0.08687259 0.13360657 -0.033720817 0.02114079
0001b0 c9 5a a2 3d 78 5f 57 bc ae 8a 37 b9 26 9a 30 be
       0.07927472 -0.01314532 -0.00017503902 -0.17246303
0001c0 87 df 92 3a 2e 0d 05 3d d5 5f f7 3d 11 79 9f b9
       0.0011205532 0.032483272 0.120788254 -0.00030417045
0001d0 22 b8 cf 3d 7b 4d d2 3a f3 47 f4 3c 66 3d 88 3d
       0.101425424 0.001604482 0.029819464 0.06652336
0001e0 b4 ed d6 bb 86 70 d7 bd 74 2c 9c 3c fc d0 c1 bc
       -0.006559098 -0.10519509 0.019064166 -0.023659222
0001f0 78 f0 f2 3d cc 8d 82 bd 8b 6f b3 3b ac a3 74 3e
       0.11862272 -0.06374702 0.0054759434 0.23890561
000200 ee 01 90 3d cb b5 ea 3c ab cd 13 bf 12 83 04 3d
       0.07031618 0.028651139 -0.577357 0.03235156
000210 1a 07 21 be 8b c6 60 ba 72 20 46 bd 00 8f 09 bd
       -0.15725365 -0.0008574507 -0.048370786 -0.03358364
000220 6f 28 99 3c 53 f6 c2 3c 46 21 6f bc 26 d0 31 3d
       0.018696038 0.023799097 -0.014595335 0.043411396
000230 0a 79 c6 bb 8f 7b cd bc 38 08 19 ba 69 59 bf bd
       -0.0060569094 -0.025083331 -0.00058377115 -0.093432255
000240 ae 84 1f 3d 40 7d e6 bc ec f9 94 3c 5c 4b 96 3c
       0.038944893 -0.028135896 0.018185578 0.018346481
000250 d8 31 08 be 41 80 9b bd 6b a1 12 bc 8e f9 1e bc
       -0.13300264 -0.07592822 -0.008949618 -0.009703053
000260 c6 8d 18 3d 0c 24 58 bb 0c 9c 16 be 17 44 01 bc
       0.03724458 -0.003298047 -0.14707965 -0.007889769
000270 0e 7d 9e be 0a 9d 2c 3c c9 d0 eb bb 38 42 69 bc
       -0.30954784 0.010535488 -0.00719652 -0.014236979
000280 65 9d 98 3c e8 d8 c1 3d 0d 13 ef bc 0f 16 8b bd
       0.018629739 0.094652 -0.029183889 -0.06791317
000290 fe de c7 3c 67 05 1b bc 4d 7a 9f 3d a8 74 0b be
       0.024398323 -0.009461737 0.07786999 -0.1361872
0002a0 a4 e7 84 bd 39 19 5c 3d 7a d3 66 3d 1b 3c c0 bd
       -0.064894944 0.05373499 0.056354024 -0.09386464
0002b0 14 81 a5 3c 92 18 69 3d 6a da fd 3c ee 69 49 bc
       0.02020315 0.056908198 0.030987937 -0.012293322
0002c0 3b a1 7f 3d 53 3e da 3d 62 a8 69 be c3 9a a4 3c
       0.06240962 0.10656419 -0.22818139 0.020093327
0002d0 e7 3e 0f 3c f9 9f 20 3c 96 a1 1d be 2f 91 61 be
       0.008743024 0.009803765 -0.15393671 -0.2202804
0002e0 dc 70 1f 3b b3 d1 0b bb 3e 96 f1 be 0d eb 43 3d
       0.0024328744 -0.0021334707 -0.47184938 0.047831584
0002f0 95 dc d6 3d 3e d6 b2 3c 27 cf 1c bd ba 0c 76 bd
       0.104912914 0.021830674 -0.038283493 -0.06007073
000300 48 c4 8c bc 9e bb 78 3d 35 32 b0 bb 4d f4 87 bc
       -0.017183438 0.0607258 -0.005377079 -0.016595984
000310 a0 83 be ba 09 73 72 3d e2 c6 ac bd 01 5c c4 be
       -0.0014535077 0.059191737 -0.084363714 -0.38351443
000320 e3 fe fb bd ce d9 19 be f4 2b bd 3d 5c 0f ae 3c
       -0.12304475 -0.15024492 0.09236899 0.021247558
000330 14 40 71 bd 4f dc 2d bd 62 21 76 3c c1 aa fc bc
       -0.058899 -0.04244643 0.0150226075 -0.03084314
000340 39 9d d1 3d 93 cf 44 bd 43 2f 0e 3c e0 5d 81 be
       0.10235066 -0.04804952 0.00867826 -0.25266933
000350 06 d9 cc 3b c4 b0 8e bb cc f0 0b bd 85 87 5f 3c
       0.006251457 -0.004354568 -0.03416519 0.01364315
000360 3a 05 96 3d ce 0d 93 3d cb d2 73 bd c1 15 a3 be
       0.07325216 0.071803674 -0.0595272 -0.31852534
000370 cb c1 de bd 72 db 20 3d e5 e5 f8 3d df 0d 57 bd
       -0.10876807 0.03927178 0.12153224 -0.052503463
000380 df 10 1f be 5e d1 fc bc 6e 14 9f 3c 06 5b 52 bd
       -0.1553378 -0.030861553 0.019418921 -0.051356338
000390 bc b6 a1 3d 7a 98 a6 3d 65 37 9a 3d 98 51 f8 be
       0.07896182 0.08134551 0.07530097 -0.4849975
0003a0 5c af 02 bd 87 fd a9 3c 85 fa 24 bd b2 02 be 3d
       -0.031905517 0.020750774 -0.040277977 0.09277858
0003b0 4b 70 de bc 24 91 11 3d b1 22 f2 be c8 96 fe bd
       -0.027153155 0.035538808 -0.47292092 -0.12431103
0003c0 d0 e2 46 bd 86 2f 85 3d 50 3e 95 be 9a 55 01 3d
       -0.04855615 0.06503205 -0.29149103 0.031575777
0003d0 68 84 a1 bd 8c 0f 88 3e b2 aa f9 bd eb 96 b3 bd
       -0.078865826 0.2657436 -0.12190761 -0.0876902
0003e0 e5 68 b9 bb e2 4a 74 bd b2 30 79 be af fe 8d bb
       -0.0056582564 -0.059641726 -0.24334982 -0.004333339
0003f0 fb d8 16 3c 93 6a c1 3c 2f 8b 49 3c f1 1f 93 3e
       0.009207006 0.023610389 0.01230125 0.28735307

fc2.bias f4 [7]
000000 21 c0 91 be 3f d4 58 be ed 26 5e be 47 4a 37 be
       -0.28466895 -0.21174715 -0.21694537 -0.17899428
000010 06 07 41 be f5 df 5f be 47 2f 88 be
       -0.18850335 -0.21862777 -0.2659857
