trained_models/DQL/double_dql_connect4_model_1_128batch.pt (torch, 536860 bytes, 8 tensors)

conv1.weight f4 [64, 1, 4, 4]
0	0x3cb01148	0.021492615
1	0x3eb30d3f	0.34971043
2	0x3e83e821	0.25763038
3	0xc033197f	-2.7984312
4	0x3cbd9cd1	0.023146065
5	0xbe0ca21f	-0.1373372
6	0x3d2af59b	0.041738134
7	0x3d9273ab	0.07150968
8	0x3e3b3f09	0.18285765
9	0x3dfc16d4	0.123090416
10	0x3df3f0cc	0.11911163
11	0x3d65f1e4	0.056138888
12	0xbd674f42	-0.05647207
13	0xbd2ab33d	-0.04167484
14	0x3cbf9cac	0.023390137
15	0x3d0c300c	0.03422551
16	0xbca48c01	-0.02008629
17	0xbee413c4	-0.4454633
18	0xbf5e03bf	-0.86724466
19	0x3dd9ec98	0.1064083
20	0x3e6361bb	0.2220525
21	0xbf735d23	-0.9506399
22	0xbdb68c60	-0.08913493
23	0xbe969982	-0.29413992
24	0xbe818872	-0.25299412
25	0x3e02b4e0	0.12764311
26	0x3e18bd51	0.14915968
27	0x3dcd3d11	0.10021413
28	0xbc2ef246	-0.01067788
29	0xbe5c2d6d	-0.21501704
30	0xbe6b975d	-0.2300696
31	0xbe14f665	-0.14547117
32	0x3ded67f2	0.115920916
33	0xbe77a955	-0.24185689
34	0xbf372dad	-0.7155407
35	0xbdac5cd0	-0.0841614
36	0x3e62fb8e	0.22166273
37	0xbd769c85	-0.060207862
38	0x3e3e6b01	0.18595506
39	0x3d111f16	0.035430036
40	0xbeceb3f7	-0.40371677
41	0xbe30daa9	-0.17270912
42	0x3db1963a	0.086712316
43	0x3de11fc2	0.109923854
44	0xbea5babc	-0.3236903
45	0xbd2a211e	-0.04153549
46	0x3d26c929	0.040719185
47	0x3d987dbf	0.07445859
48	0xbe6561f2	-0.22400644
49	0xbc422a46	-0.011850899
50	0xbe4316f7	-0.19051729
51	0x3ee647f9	0.44976786
52	0xbf03d04c	-0.5148971
53	0x3ec5bb60	0.38619518
54	0xbce697c0	-0.028148532
55	0xbe703d34	-0.23460847
56	0x3dbec531	0.09314955
57	0xbd860629	-0.06544144
58	0x3d973998	0.07384032
59	0xbe53f7cd	-0.20699997
60	0xbf370e0e	-0.7150582
61	0xbe929f1b	-0.28637013
62	0xbe68c477	-0.22731195
63	0xbedb4d56	-0.4283244
64	0x3d99b69c	0.07505533
65	0x3e5371fd	0.20648952
66	0xbe96afe9	-0.29431084
67	0xbe0c3c4d	-0.13694878
68	0x3e1c4ed5	0.15264447
69	0x3c9f2018	0.019424483
70	0x3da32c20	0.079674006
71	0xbd4b7667	-0.049673464
72	0xbe07fc2e	-0.13279793
73	0xbe5915cf	-0.21199726
74	0x3ecb1060	0.3966093
75	0x3eb0b437	0.34512493
76	0xbdb2b40c	-0.087257475
77	0xbda43e6e	-0.0801972
78	0xbf0cd0a7	-0.5500588
79	0xbea289e8	-0.3174584
80	0x3d759008	0.059951812
81	0xbf3ef201	-0.7458802
82	0x3e8ef25c	0.2791928
83	0xbe2befd6	-0.16790709
84	0x3e33c4ee	0.17555591
85	0x3dd94567	0.106089406
86	0xbe5751b2	-0.21027258
87	0x3e036fee	0.12835667
88	0xbd04d36c	-0.03242819
89	0xbe24f215	-0.16107972
90	0x3e3890d8	0.18024004
91	0xbdf6693e	-0.12031792
92	0xbda60fe8	-0.081085026
93	0x3d8b9285	0.06815056
94	0xbf207621	-0.6268025
95	0xbc1d786c	-0.00961123
96	0x3da9774f	0.082747094
97	0x3ebc6f0b	0.3680347
98	0x3dc9e780	0.09858608
99	0xbe92a164	-0.28638756
100	0x3e5840a8	0.21118414
101	0xbe5d0109	-0.21582426
102	0x3d6192fa	0.05507181
103	0xbe311414	-0.17292815
104	0xbe07b588	-0.13252842
105	0xbe738c51	-0.23783995
106	0x3e64c634	0.22341233
107	0xbfad3583	-1.3531955
108	0xbdd7a723	-0.10529926
109	0xbd529d78	-0.051419705
110	0xbed71090	-0.42004824
111	0x3e41a318	0.18909872
112	0x3d88987d	0.0666971
113	0xbeb31ff8	-0.34985328
114	0xbde40844	-0.11134389
115	0x3ea7607a	0.32690793
116	0x3b89d766	0.0042065857
117	0xbe3e84e7	-0.18605386
118	0x3dee17ef	0.11625659
119	0xbf000770	-0.5001135
120	0x3eb2cc8c	0.34921682
121	0x3d58ec60	0.0529598
122	0xbe920ff4	-0.28527796
123	0xbe566ad6	-0.20939192
124	0xbef59f29	-0.47972992
125	0xbe806eac	-0.25084436
126	0xbcb010ad	-0.021492327
127	0x3e3ccc6e	0.18437359
128	0xbe4e6f8e	-0.20159742
129	0x3d62e8ef	0.055397924
130	0xbf04f623	-0.51938075
131	0x3ed83b2b	0.42232642
132	0xbe460177	-0.19336496
133	0xbe40ba99	-0.18821181
134	0xbdd74a44	-0.10512212
135	0xbe4d2ddd	-0.20037027
136	0xbf4943f9	-0.78619343
137	0x3e524805	0.20535286
138	0x3dafde29	0.085872956
139	0xbbb997db	-0.0056638545
140	0xbfbe1533	-1.485022
141	0x3d2ba0be	0.041901343
142	0xbc92fec8	-0.017943755
143	0xbdfc294f	-0.123125665
144	0x3ed03635	0.40666357
145	0xbdc0678f	-0.09394752
146	0xbe64f5c0	-0.22359371
147	0xbeb1da62	-0.34736925
148	0x3ddaa722	0.10676409
149	0xbd092fa4	-0.0334927
150	0x3e0b6c40	0.13615513
151	0xbc2eae7a	-0.010661716
152	0xbf128aea	-0.57243216
153	0x3d3aaac8	0.045573026
154	0x3e85aa33	0.26106414
155	0x3de36f10	0.11105168
156	0xbe149a53	-0.14511995
157	0xbd81aa59	-0.06331319
158	0xbf0d4a4c	-0.55191493
159	0x3b8132fd	0.003942846
160	0x3e2b36ea	0.16720167
161	0x3e757ac3	0.23972611
162	0x3d753355	0.059863407
163	0x3f1f2935	0.6217225
164	0xbe5e6f3b	-0.21722119
165	0xbdc077c7	-0.09397846
166	0x3dea8d68	0.11452752
167	0xbcc93fc2	-0.024566535
168	0x3d0def78	0.034652203
169	0xbe755f8d	-0.23962231
170	0xbf051cdb	-0.51997155
171	0xbe8ac776	-0.27105302
172	0xbc54fdd8	-0.012999974
173	0xbd5a3e20	-0.053281903
174	0xbea08357	-0.31350204
175	0xbf2f7aa0	-0.68546486
176	0xbeafc9a6	-0.34333533
177	0x3ca4e1c0	0.020127177
178	0x3e377daf	0.17919038
179	0x3e9ffad4	0.31246054
180	0x3df5c45f	0.120003454
181	0x3e33fea3	0.17577605
182	0xbe9157d2	-0.28387314
183	0x3d20b698	0.039236635
184	0xbd9d405c	-0.07678291
185	0x3d89365c	0.06699821
186	0x3d66a459	0.056309078
187	0xbec2322b	-0.379289
188	0xbde132a1	-0.10995985
189	0x3ce61784	0.028087385
190	0x3d970eca	0.07375868
191	0xbda95b90	-0.08269417
192	0x3e84ac4d	0.25912705
193	0x3e3cc865	0.1843582
194	0xbe240459	-0.16017283
195	0xbdc3867a	-0.09547134
196	0x3d29e7fc	0.041481003
197	0xbdd80074	-0.105469614
198	0xbd20e003	-0.039276134
199	0x3e5051f9	0.2034377
200	0x3e4a3809	0.19747938
201	0x3d2538ca	0.04033736
202	0x3cbbccf5	0.02292488
203	0x3e90df5f	0.2829542
204	0xbf8a5426	-1.080693
205	0xbe66c01f	-0.22534226
206	0x3d0f973c	0.035056338
207	0xbee66b50	-0.45003748
208	0xbf7c2e7d	-0.98508435
209	0x3e9fdaed	0.31221715
210	0x3e5be5a9	0.21474327
211	0x3e8d2ae2	0.2757178
212	0x3e1868c8	0.14883721
213	0xbdb40540	-0.08790064
214	0x3e46323b	0.19355099
215	0xbe34194a	-0.17587772
216	0xbca3cdbc	-0.019995563
217	0xbe6553a5	-0.22395189
218	0x3d984843	0.07435658
219	0xbcb98677	-0.022647126
220	0xbe0d39da	-0.137916
221	0xbcc6e8cb	-0.024280926
222	0xbf06123d	-0.5237158
223	0xbe90d648	-0.28288484
224	0x3e8181ea	0.2529443
225	0x3ebceae7	0.36897966
226	0xbf8ad573	-1.084639
227	0xbf5c0d19	-0.85957485
228	0xbd3318a1	-0.04372466
229	0xbe138bf4	-0.14408857
230	0xbd87f6a1	-0.066388376
231	0xbeddefa0	-0.43346882
232	0xbe6d7e9d	-0.2319283
233	0xbe9c0935	-0.30475774
234	0x3d0e52ab	0.034746807
235	0xbce743e6	-0.028230619
236	0xbe0e17dd	-0.1387629
237	0xbe34b215	-0.17646058
238	0x3e2a7867	0.16647492
239	0xbd142747	-0.03617027
240	0x3ebecfd3	0.37267932
241	0x3dd7bfb1	0.10534609
242	0x3dd7c067	0.10534745
243	0xbede325a	-0.4339779
244	0x3d569299	0.0523859
245	0x3e8a8b29	0.27059296
246	0xbebad783	-0.36492547
247	0xbed65051	-0.41858152
248	0xbdea0ded	-0.114284374
249	0xbe73ea5d	-0.23819871
250	0xbe1a0c6a	-0.15043798
251	0x3e8c9957	0.2746074
252	0xbe9c3aa4	-0.3051349
253	0xbe3a4841	-0.18191625
254	0xba564715	-0.0008174044
255	0xbe97c9d9	-0.29646185

conv1.bias f4 [64]
0	0x3f7f7b53	0.9979755
1	0xbeee42dd	-0.46535388
2	0xbf870a81	-1.055008
3	0xbee78846	-0.45221156
4	0xbf83e393	-1.0303825
5	0xbf648fdf	-0.8928203
6	0xbfa0b44b	-1.2555021
7	0xbf64c6b7	-0.89365715
8	0xbf94fd5f	-1.1639823
9	0xbf7d9eb5	-0.9907029
10	0xbf092a60	-0.53580284
11	0xbfa8b903	-1.3181461
12	0xbf44f89a	-0.76941836
13	0xbf8a2feb	-1.0795873
14	0xbf27ccf4	-0.6554711
15	0xbf89417f	-1.0723113
16	0xbf170aff	-0.59001154
17	0xbe2fcbe9	-0.1716763
18	0xbf8bd22f	-1.0923518
19	0xbf029d28	-0.5102105
20	0xbf654e3f	-0.8957252
21	0xbfa27caa	-1.2694294
22	0xbf631cc1	-0.8871575
23	0xbe9bd855	-0.30438486
24	0x3f10bcfc	0.5653837
25	0x3fd26d5b	1.6439623
26	0xbf8952c5	-1.0728384
27	0xbf030f72	-0.5119544
28	0xbf0f0e82	-0.5588151
29	0xbf38cbf0	-0.72186184
30	0xbf9c4eeb	-1.2211584
31	0xbe3d20c1	-0.18469526
32	0xbf0b0be6	-0.5431503
33	0xbf3ff93e	-0.7498969
34	0xbed9fd91	-0.42576268
35	0xbeb2ca9b	-0.349202
36	0xbf452a89	-0.7701803
37	0xbf31daaa	-0.6947428
38	0xbf760501	-0.96101385
39	0xbf7e7ab7	-0.99406
40	0xbe017ffb	-0.12646477
41	0xbef7c5e8	-0.48393178
42	0xbf3fb283	-0.7488176
43	0xbf81280b	-1.0090345
44	0xbf0eac93	-0.5573208
45	0xbf10df3b	-0.5659062
46	0xbf56db14	-0.83928037
47	0xbf2eefc6	-0.68334615
48	0xbf653417	-0.8953261
49	0xbf3179da	-0.69326556
50	0xbf1d838c	-0.6152885
51	0xbf20ef33	-0.6286499
52	0xbfbe4aac	-1.4866538
53	0xbfa34e63	-1.2758297
54	0xbfa5409d	-1.2910343
55	0xbf5abee7	-0.85447544
56	0xbf43a2fb	-0.76420563
57	0xbedc59d1	-0.43037274
58	0xbf3eb087	-0.7448811
59	0xbf22ca2c	-0.6358974
60	0xbf125076	-0.57154024
61	0xbf70c854	-0.94055676
62	0xbfa08013	-1.2539085
63	0xbed7c320	-0.42141056

conv2.weight f4 [128, 64, 2, 2]
0	0xc0001a28	-2.0015965
1	0x3daa4e18	0.083156765
2	0xbf86590a	-1.0495923
3	0x3cf5eb50	0.030019432
4	0xbf7240b5	-0.94629985
5	0xbe5e16cf	-0.21688388
6	0xbf6627bc	-0.8990438
7	0x3f73431c	0.95024276
8	0xbdee77cb	-0.116439424
9	0xbfdef155	-1.7417399
10	0x3f1501e6	0.5820602
11	0x3e5f6d53	0.21819048
12	0xbe241011	-0.16021754
13	0x3cd5bfce	0.026092436
14	0x3e8dc305	0.2768785
15	0xb8bd1a88	-9.017164e-05
16	0xbfac2cd5	-1.3451182
17	0xbea87ed4	-0.32909262
18	0xbfb8fd83	-1.4452366
19	0x3e01c676	0.12673363
20	0x3e2ccd52	0.16875198
21	0xbe952ac7	-0.291342
22	0x3e4c2784	0.19936949
23	0xbeb8e48d	-0.3611187
24	0x3e24dea9	0.16100563
25	0xbda6f8b1	-0.08152903
26	0x3f99b0a3	1.200703
27	0xbefff64a	-0.4999259
28	0x3dc4e74d	0.096144296
29	0x3e2aba5a	0.1667265
30	0x3d9e9378	0.07742971
31	0xbe31b9be	-0.17356011
32	0xbe81f8af	-0.25385043
33	0x3db312eb	0.08743843
34	0xbfae0649	-1.3595668
35	0xbf757fb0	-0.9589796
36	0x3f3db14a	0.74098647
37	0xbf3ee905	-0.7457431
38	0xbea9b745	-0.33147636
39	0xbf6b7259	-0.91971356
40	0x3995d0ad	0.0002857497
41	0xbd909485	-0.07059578
42	0x3d72faac	0.05932109
43	0xbe1b7ad6	-0.15183577
44	0x3f0a2b04	0.53971887
45	0xbf0ad582	-0.5423204
46	0x3d49d57d	0.049275864
47	0x3f2dd523	0.67903346
48	0xbe6668cf	-0.22500919
49	0xbf3e4821	-0.7432881
50	0x3e21dae8	0.15806162
51	0xbf22a3f4	-0.6353142
52	0x3e4f173f	0.20223711
53	0x3ef52cf1	0.4788585
54	0xbe0251d8	-0.12726533
55	0x3e4e1a8f	0.20127319
56	0xbe552383	-0.20814328
57	0xbf08f06f	-0.5349187
58	0x3d6a64dc	0.057225093
59	0xbe51d309	-0.2049066
60	0x3d8a9af7	0.067678384
61	0xbf110722	-0.5665151
62	0x3e539e20	0.20665789
63	0xbf08590d	-0.5326088
64	0xbeda3acb	-0.4262298
65	0xbee28d5e	-0.4424848
66	0x3d39df3e	0.045378916
67	0xbe96e44f	-0.2947106
68	0x3ebb888a	0.3662761
69	0x3e297771	0.1654947
70	0xbe633ee6	-0.22191963
71	0x3e0f35c9	0.13985361
72	0xbe7ceb55	-0.24699147
73	0xbf76b2a0	-0.9636631
74	0xbf5ac144	-0.8545115
75	0xbfa79664	-1.309277
76	0xbf306bca	-0.68914473
77	0xbeba5d4b	-0.36399302
78	0xbe6da33b	-0.23206799
79	0xbec44ff9	-0.38342264
80	0x3ed600a5	0.41797367
81	0xbf686ae3	-0.90788096
82	0xbd3939c2	-0.045221098
83	0xbeaa9a08	-0.33320642
84	0xbfb6d76a	-1.4284489
85	0xbf9ebc2b	-1.2401174
86	0xbfe76e4a	-1.8080533
87	0xbecd03f4	-0.40042078
88	0x3e463c33	0.19358902
89	0xbe8ad778	-0.27117515
90	0x3f11f561	0.57015043
91	0xbe34044a	-0.17579761
92	0x3de5514f	0.11197149
93	0x3c8d0dbb	0.017218461
94	0x3ed69d3a	0.4191683
95	0x3e3b0ed3	0.18267374
96	0x3f024029	0.5087915
97	0xbfd0c2d7	-1.630946
98	0x3e213635	0.15743335
99	0xbeeec7d4	-0.46636832
100	0x3d59085e	0.052986495
101	0xbd88b7ca	-0.0667568
102	0x3d0c8cd6	0.034314
103	0x3d80e5ce	0.06293832
104	0xbf64a96e	-0.8932103
105	0xbf776c75	-0.9664987
106	0xbe27a538	-0.1637162
107	0xbeabffcf	-0.33593604
108	0x3f0ad92a	0.54237616
109	0x3f749cf3	0.95551986
110	0xbf020a51	-0.5079699
111	0x3dc16deb	0.09444793
112	0x3e6880db	0.22705404
113	0xbeab2607	-0.3342745
114	0x3e09a5e9	0.13442196
115	0xbea41b20	-0.32051945
116	0x3e9ed8c0	0.31024742
117	0xbf1c20b9	-0.6098743
118	0xbe1d0171	-0.15332581
119	0x3ec9a3bb	0.3938273
120	0xbf2b8c22	-0.670107
121	0xbf5d3bd6	-0.8641943
122	0xbf4b0c13	-0.793153
123	0xbf8071cc	-1.0034728
124	0x3e3b2022	0.18273976
125	0x3f52e047	0.8237347
126	0x3caafe04	0.020873077
127	0x3f36dafb	0.7142789
128	0x3e5cd26c	0.21564645
129	0xbc6e5441	-0.014546455
130	0x3eb4da8e	0.35322994
131	0xbe8648c7	-0.262274
132	0xbf0f5c41	-0.56000143
133	0x3eff52e9	0.49867943
134	0xbea24b85	-0.31698242
135	0x3ee7c5d4	0.45268118
136	0x3ef36562	0.47538286
137	0x3e019d21	0.12657596
138	0xbe1e3758	-0.154508
139	0x3ebfce1c	0.37461936
140	0x3db03f70	0.0860585
141	0xbf458b03	-0.7716524
142	0x3e6df62e	0.23238441
143	0xbe96e023	-0.29467878
144	0x3ea08f26	0.31359214
145	0x3f282e7b	0.65695924
146	0xbdf22b6f	-0.118246906
147	0xbe6ac7c5	-0.22927769
148	0xbedaf763	-0.42766866
149	0x3e8193f4	0.25308192
150	0xbf5f4520	-0.8721485
151	0x3e9d84f4	0.30765498
152	0xbf5203a9	-0.82036835
153	0xbfc35cd6	-1.5262706
154	0xbf88333a	-1.0640633
155	0xc0135153	-2.3018386
156	0xbeac92bd	-0.33705702
157	0xbbd7ab79	-0.0065817204
158	0xbeb09c91	-0.3449445
159	0xbf0cea41	-0.55044943
160	0xbf3ac333	-0.729541
161	0xbeb0ce01	-0.34532169
162	0x3f3e519b	0.7434327
163	0x3d2e5115	0.042557795
164	0x3e7fd32c	0.249829
165	0xbe7f3ef6	-0.24926361
166	0x3dc403b2	0.09571017
167	0x3d81a957	0.06331127
168	0x3f25dcf4	0.6479027
169	0x3f10766b	0.5643069
170	0xbd4905ca	-0.049077787
171	0x3dbe443e	0.0929036
172	0x3f0fa79e	0.5611514
173	0xbfda8ce8	-1.7074251
174	0xbe0812d7	-0.13288437
175	0xbf280210	-0.6562815
176	0xbe20f750	-0.15719342
177	0xbf9cb9c9	-1.2244197
178	0xbf3cdd72	-0.737754
179	0xbf7e8728	-0.9942498
180	0xbf094dbb	-0.5363423
181	0x3ec6c7f6	0.38824433
182	0xbed3152b	-0.41227087
183	0xbbcdc814	-0.0062799547
184	0xbed9e6c1	-0.42558864
185	0x3f18d454	0.59698987
186	0x3f099eae	0.5375775
187	0x3e57bb9b	0.2106766
188	0x360f4247	2.134724e-06
189	0xbd9911ff	-0.074741356
190	0xbeff79c2	-0.4989758
191	0x3e842eaa	0.25816852
192	0x3dee60ec	0.1163958
193	0x3d0a5f1c	0.03378211
194	0xbf766f3f	-0.962635
195	0xc006092b	-2.0943096
196	0xbeae80c0	-0.34082603
197	0xbf2af2e3	-0.66776866
198	0x3eb9aa40	0.36262703
199	0x3e938bb7	0.2881753
200	0xbef4e027	-0.47827265
201	0x3e0a7d01	0.13524248
202	0xbefd690c	-0.49494207
203	0xbe00f0c5	-0.12591846
204	0xbdd346d2	-0.10316242
205	0xbf46a72f	-0.7759885
206	0x3d97868f	0.07398712
207	0x3edb27eb	0.42803892
208	0x3e1246f9	0.14284886
209	0x3d8be223	0.068302415
210	0x3ea900e0	0.3300848
211	0xbf449842	-0.76794827
212	0xbec7778c	-0.38958395
213	0xbe08818f	-0.13330673
214	0x3d8ebb9b	0.06969377
215	0xbec96a71	-0.3933902
216	0xbfa6f8dc	-1.3044696
217	0xbf01fd84	-0.5077746
218	0xbf212d5b	-0.6295983
219	0x3f21823e	0.6308936
220	0xc02d2c1a	-2.7058167
221	0xbe40f3cf	-0.18843006
222	0xbfb9db3a	-1.4520028
223	0xbe011034	-0.12603837
224	0x3eedb0a6	0.46423835
225	0x3f496fd6	0.78686273
226	0xbef2d6ba	-0.47429448
227	0xbe84ca8d	-0.25935784
228	0xbd5f5dc0	-0.054532766
229	0xbe2c7a9c	-0.16843647
230	0x3ec7ae79	0.390003
231	0x3e30753e	0.17232224
232	0x3e7bd32c	0.24592274
233	0xbe8dad5d	-0.27671328
234	0x3e19ea26	0.15030727
235	0x3edd326d	0.43202534
236	0xbf3a398e	-0.7274407
237	0xbe626ba0	-0.22111368
238	0xbfd28a92	-1.6448538
239	0xbeffe82f	-0.4998183
240	0xbf93dc5c	-1.1551623
241	0xbd6b4d20	-0.0574466
242	0xbfb5e9de	-1.4211996
243	0xbf2702c4	-0.65238595
244	0xbdd8a0d2	-0.10577549
245	0xbee5ecc8	-0.44907212
246	0xbfb328a3	-1.3996776
247	0xbe65f3ae	-0.22456238
248	0xbd1c577f	-0.03816938
249	0xbe7460fc	-0.23865122
250	0x3f75af3d	0.9597052
251	0x3e681066	0.22662506
252	0x3f6c5ae4	0.9232619
253	0xbf9d21fe	-1.2275999
254	0x3e1b5879	0.15170468
255	0xbfe6522f	-1.799383

conv2.bias f4 [128]
0	0x3f854a9c	1.0413394
1	0xbebcf21d	-0.36903468
2	0xbedc8e04	-0.430771
3	0xbeb1bae6	-0.34712905
4	0xbef98c5c	-0.48739898
5	0xbf279ff6	-0.65478456
6	0xbe907866	-0.28216857
7	0xbf06117d	-0.52370435
8	0xbec00b90	-0.3750882
9	0xbee8c9ea	-0.45466548
10	0xbed47890	-0.41498232
11	0xbf21503c	-0.6301305
12	0xbedae28d	-0.4275097
13	0xbed56fc1	-0.41686824
14	0xbe8a2f7e	-0.2698936
15	0xbebfb629	-0.37443665
16	0xbecd8613	-0.40141353
17	0xbee994d6	-0.45621365
18	0xbf1812b3	-0.5940353
19	0xbef966ef	-0.48711345
20	0xbedfdd9e	-0.43723768
21	0x3efdb25f	0.4955015
22	0xbf285134	-0.65748906
23	0xbee04a6c	-0.4380678
24	0xbecd312c	-0.40076578
25	0xbe603093	-0.2189353
26	0xbebd2207	-0.36940023
27	0xbedeff01	-0.43553928
28	0xbeafce2f	-0.34336993
29	0xbe9bdd2e	-0.30442184
30	0xbf0cf558	-0.55061865
31	0xbee6f6b4	-0.45110095
32	0xbf0be316	-0.5464338
33	0xbd1235e4	-0.035695925
34	0xbead9a99	-0.3390701
35	0xbee8f4dd	-0.45499316
36	0xbeff5829	-0.49871948
37	0xbf0a1dc0	-0.53951645
38	0xbf0be827	-0.5465111
39	0xbf081cf4	-0.5316918
40	0xbefea5d5	-0.49735895
41	0xbf363632	-0.71176445
42	0xbedd8aee	-0.43270057
43	0xbecee37f	-0.4040794
44	0xbd2f58ab	-0.04280917
45	0xbee62da5	-0.449567
46	0xbec6815f	-0.38770577
47	0xbe5eed2d	-0.21770163
48	0xbee05948	-0.43818116
49	0xbe923160	-0.28553295
50	0xbeff0e0e	-0.4981541
51	0xbcd2c4d1	-0.025728615
52	0xbf090b6a	-0.5353304
53	0xbe8cecf1	-0.27524522
54	0xbecc9392	-0.39956337
55	0xbeef3ff6	-0.46728486
56	0xbeba4208	-0.36378503
57	0xbe49d73a	-0.19711009
58	0xbeca3b3c	-0.39498317
59	0xbebf4729	-0.37358978
60	0xbf0cfd37	-0.55073875
61	0xbe9d9429	-0.307771
62	0xbee2970f	-0.44255874
63	0xbef635f2	-0.48088032
64	0xbefb01a2	-0.49024683
65	0xbec753f3	-0.38931236
66	0xbe726084	-0.2366963
67	0xbd5762c4	-0.052584425
68	0xbeebc6f4	-0.46050227
69	0xbe8a16ab	-0.2697042
70	0xbf1bf4be	-0.6092032
71	0xbedc7d10	-0.43064165
72	0xbd8d6b3c	-0.06905219
73	0xbf039447	-0.5139813
74	0xbedc7713	-0.43059596
75	0xbef45796	-0.47723073
76	0xbeeb6d2c	-0.4598173
77	0xbee74839	-0.4517229
78	0x3ebf1339	0.37319353
79	0xbea48a8a	-0.32136947
80	0xbed9a67a	-0.42509824
81	0xbf255ee4	-0.64597917
82	0xbf2e8812	-0.68176377
83	0x3e2439d1	0.1603768
84	0xbeb273a8	-0.34853864
85	0xbee06690	-0.4382825
86	0xbebf68cf	-0.3738465
87	0xbebcd702	-0.36882788
88	0xbed4fdf5	-0.41600004
89	0xbeb9b3fc	-0.3627013
90	0xbf11368f	-0.56723875
91	0xbeef6667	-0.46757814
92	0xbeef1b75	-0.46700636
93	0xbf223b11	-0.6337138
94	0xbe5d18c8	-0.21591485
95	0xbf22bb1b	-0.6356675
96	0xbf0436e2	-0.51646245
97	0xbf3e41e3	-0.74319285
98	0xbe9722f9	-0.2951887
99	0xbeebc77c	-0.46050632
100	0xbe80bdf2	-0.25144917
101	0x3e9a9f36	0.30199593
102	0xbed3d8c5	-0.4137632
103	0xbef91097	-0.4864547
104	0xbef2f29a	-0.47450715
105	0xbe42b0ae	-0.1901271
106	0xbf0f41f7	-0.5596003
107	0xbf22b757	-0.63561004
108	0xbe378394	-0.17921287
109	0xbebd5758	-0.369807
110	0xbe912822	-0.2835093
111	0xbeeb69dc	-0.45979202
112	0xbf1a9b82	-0.60393536
113	0xbd525f6e	-0.05136054
114	0xbe95fc3e	-0.29294008
115	0xbf0a0ebb	-0.53928727
116	0xbeee7b80	-0.46578598
117	0xbe9dc0aa	-0.30811054
118	0xbefdd7f2	-0.49578816
119	0xbd561f68	-0.052276045
120	0xbf0250ea	-0.50904715
121	0xbed528b6	-0.41632622
122	0xbeb7b75a	-0.35882074
123	0xbf0a4222	-0.5400716
124	0xbeea5072	-0.457645
125	0xbeebac5e	-0.46029943
126	0xbec4fd08	-0.38474298
127	0xbf03663e	-0.51327884

fc1.weight f4 [128, 768]
0	0xbdb83767	-0.08994942
1	0xbe6b4002	-0.22973636
2	0x3e0e3b9f	0.13889931
3	0xbb5dc6dc	-0.0033840453
4	0xbe3753a4	-0.17903
5	0xbc1ca517	-0.009560845
6	0x3e0208ca	0.12698665
7	0x3d429d40	0.047513247
8	0xbe407562	-0.18794778
9	0xbeb441a5	-0.35206333
10	0xbe50db87	-0.20396243
11	0xbc49443f	-0.012284338
12	0x3de7ea98	0.11324042
13	0xbe0d7523	-0.13814215
14	0x3f3cdbb6	0.7377275
15	0x3dcf6497	0.10126608
16	0xbea702b3	-0.32619247
17	0x3e7bb529	0.24580826
18	0xbdd4b095	-0.10385243
19	0xbd6e82ae	-0.058230095
20	0xbcaf1745	-0.0213734
21	0xbea8e90f	-0.3299031
22	0xbd243b9d	-0.040095914
23	0xbe3297a0	-0.17440653
24	0x3de1a51a	0.11017819
25	0xbba5a8d9	-0.0050555286
26	0x3c28b0b6	0.010296037
27	0xbde8d1bd	-0.113681294
28	0xbd5a3644	-0.053274408
29	0xbe59b563	-0.212606
30	0xbec24118	-0.37940288
31	0xbf79209e	-0.97315395
32	0xbe40878c	-0.18801707
33	0x3d893b30	0.06700742
34	0xbe64faf7	-0.2236136
35	0xbeb2ae06	-0.34898394
36	0xbe08ad34	-0.13347322
37	0xbe2257b2	-0.15853766
38	0xbe89d827	-0.26922724
39	0xbe296559	-0.16542567
40	0x3e4be5ff	0.19911955
41	0xbe5194ec	-0.20466965
42	0xbc0b301a	-0.008495355
43	0xbeeaa317	-0.45827553
44	0xbecc26ca	-0.39873344
45	0xbf242080	-0.6411209
46	0xbda5b611	-0.08091367
47	0xbeea8a41	-0.45808604
48	0x3db02228	0.08600265
49	0xbeaddf20	-0.33959293
50	0xbdc09214	-0.09402862
51	0xbf195b98	-0.59905386
52	0xbe26d871	-0.16293503
53	0xbe031a2e	-0.12802956
54	0xbe7e16b9	-0.24813356
55	0xbd44ddb3	-0.04806299
56	0xbf0ec0a6	-0.5576271
57	0xbdadd0e0	-0.08487105
58	0xbe6d65ae	-0.23183319
59	0x3b9b9adb	0.004748685
60	0x3d8a82f7	0.06763261
61	0xbe8f1d80	-0.27952194
62	0x3c60984d	0.013708186
63	0xbd22fda5	-0.039792676
64	0x3d819c80	0.06328678
65	0xbf0b3c8a	-0.5438925
66	0xbdb1720e	-0.08664332
67	0x3cdc812f	0.026917068
68	0xbea84001	-0.3286133
69	0xbe59d666	-0.21273193
70	0x3d819b79	0.06328482
71	0xbe9b8fb0	-0.30383062
72	0xbdd1bac3	-0.102407
73	0xbf1d3673	-0.6141121
74	0xbf137512	-0.5760051
75	0xbe2dace7	-0.16960488
76	0xbe748629	-0.23879303
77	0xbf03f32f	-0.51542944
78	0x3d4475a9	0.047963772
79	0x3d8a1828	0.06742889
80	0xbd6ee705	-0.058325786
81	0xbda7d570	-0.08195007
82	0xbf0e0195	-0.55471164
83	0xbd6adaa4	-0.05733742
84	0xbe9a1e7b	-0.3010138
85	0xbe948f72	-0.2901569
86	0xbdad8375	-0.08472339
87	0x3e19e59f	0.15029
88	0xbee0dc57	-0.43918106
89	0xbe5c8786	-0.21536073
90	0xbd0aabed	-0.033855367
91	0xbe93f2c0	-0.2889614
92	0xbec2e86a	-0.38067943
93	0xbe79c5de	-0.24391887
94	0xbf0d9a8b	-0.5531394
95	0xbe254db3	-0.16142921
96	0xbe608a5c	-0.2192778
97	0xbdef40e7	-0.11682301
98	0x3eda3ecc	0.42626035
99	0xbdc99a2d	-0.0984386
100	0xbe3a6afd	-0.18204875
101	0xbc89c428	-0.016817167
102	0xbf6d3ba7	-0.9266915
103	0xbe844785	-0.25835815
104	0xbe5add23	-0.2137342
105	0xbe8041f6	-0.25050324
106	0xbc5cc2d1	-0.013474182
107	0xbdc26ce2	-0.09493424
108	0xbdfbfb0d	-0.123037435
109	0x3c6b7079	0.014370077
110	0x3e001ed9	0.12511767
111	0xbefe8027	-0.49707147
112	0xbdcb1619	-0.09916324
113	0xbe8d7000	-0.27624512
114	0x3cf3e372	0.02977154
115	0xbf172a9b	-0.59049386
116	0x3e8ee779	0.27910975
117	0xbe2f8b83	-0.17143063
118	0xbdd1eb22	-0.10249926
119	0xbe7ee803	-0.24893193
120	0xbe998e69	-0.29991463
121	0xbe8070fd	-0.25086203
122	0xbe96d042	-0.29455763
123	0xbdd2ebc3	-0.10298874
124	0xbecd61b1	-0.40113595
125	0x3d3b717d	0.045762528
126	0x3de94a5c	0.11391136
127	0xbb1e2446	-0.0024130507
128	0x3df1bad2	0.11803211
129	0x3d9ef74e	0.077620134
130	0xbe50e02e	-0.20398018
131	0xbeb3b0d7	-0.35095856
132	0x3e279f9b	0.16369478
133	0x3c617541	0.013760866
134	0x3e1323a0	0.14369059
135	0xbbd4f01b	-0.0064983494
136	0x3abc8734	0.0014383555
137	0xbc8e65b0	-0.017382473
138	0xbe86edc7	-0.26353285
139	0xbd311ad8	-0.04323849
140	0xbd909990	-0.0706054
141	0xbd975567	-0.07389336
142	0xbef15055	-0.471316
143	0xbef35f91	-0.4753385
144	0xbeeac57d	-0.45853797
145	0xbdd1de0f	-0.102474324
146	0x3e95572c	0.2916807
147	0xbe189280	-0.14899635
148	0xbe6f82fd	-0.23389812
149	0xbed1440f	-0.40872237
150	0xbe845630	-0.25847006
151	0x3dd90d0a	0.1059819
152	0x3dd94ed2	0.10610737
153	0xbe176e57	-0.14788185
154	0xbf42c4e2	-0.7608167
155	0xbf1ad26c	-0.6047733
156	0xbf0ead4d	-0.55733186
157	0xbea4b167	-0.32166597
158	0x3dd3a193	0.10333552
159	0xbe8a3019	-0.2698982
160	0x3e840e4f	0.25792167
161	0xbeb61e96	-0.3557021
162	0xbca28ae6	-0.019841623
163	0x3eba8401	0.36428836
164	0xbc1d79e9	-0.009611585
165	0x3c94bb79	0.0181558
166	0xbe413517	-0.18867908
167	0xbeab3157	-0.3343608
168	0xbe2a7bb2	-0.16648749
169	0xbefb8024	-0.491212
170	0x3c65aaa8	0.014017738
171	0x3e53a897	0.2066978
172	0xbf7ee5f6	-0.9956964
173	0xbb9d2bc6	-0.004796478
174	0x3e0be5e2	0.13661912
175	0xbe6205ef	-0.22072576
176	0x3dd6fe6d	0.104977466
177	0xbdb785a5	-0.089610375
178	0xbcd68b0c	-0.02618935
179	0xbd8c1d1b	-0.06841489
180	0xbf14cbe3	-0.58123606
181	0xbe91139a	-0.28335267
182	0xbf27917e	-0.6545638
183	0x3f0c3073	0.5476143
184	0xbe9a421f	-0.3012857
185	0xbe1bd434	-0.15217668
186	0x3e64b1fb	0.22333519
187	0x3e0ea624	0.13930565
188	0x3e384c92	0.1799796
189	0xbe9efc1a	-0.31051713
190	0x3cd6fd17	0.02624373
191	0xbe950793	-0.2910734
192	0x3e3d13a8	0.1846453
193	0xbdf161e9	-0.11786253
194	0xbe4ac1c6	-0.19800481
195	0xbed75604	-0.42057812
196	0xbdc0e08e	-0.094178304
197	0x3e1d5d83	0.15367703
198	0x3b8206d8	0.003968101
199	0x3d240427	0.040043022
200	0xbc90ec06	-0.01769067
201	0xbcd1509c	-0.025551133
202	0x3cc02936	0.02345715
203	0xbce217ec	-0.027599297
204	0xbeb2fff9	-0.34960917
205	0xbe5e82e7	-0.21729623
206	0xbe35827f	-0.17725562
207	0xbe716f41	-0.23577596
208	0xbf0ccd7b	-0.5500104
209	0xbefbe198	-0.49195552
210	0xbe17983d	-0.14804168
211	0x3eb26e29	0.3484967
212	0xbeb7d4e3	-0.35904607
213	0xbe1daea8	-0.15398657
214	0x3e086973	0.13321476
215	0xbd3d6b24	-0.046244755
216	0xbe4b6ad2	-0.19864967
217	0x3eaf9ac7	0.34297773
218	0xbea96bd5	-0.33090082
219	0xbd000a51	-0.03125984
220	0xbe5c6519	-0.2152294
221	0x3db3c2ff	0.08777427
222	0xbe2042d0	-0.15650487
223	0xbd1683bf	-0.036746737
224	0xbe157b5e	-0.14597842
225	0xbe514160	-0.20435095
226	0xbdad0f65	-0.08450202
227	0xbedcf42c	-0.43155038
228	0xbf0c7281	-0.5486222
229	0x3ed8f4dd	0.42374316
230	0x3e56d623	0.20980124
231	0xbf06bdd6	-0.52633417
232	0x3dac07a7	0.08399897
233	0xbe638dff	-0.22222136
234	0x3e73577d	0.23763843
235	0xbe4406f0	-0.19143271
236	0x3de2c0ba	0.11071916
237	0xbe1ad719	-0.15121116
238	0x3e46a2a1	0.19397976
239	0xbba84858	-0.005135577
240	0xbe3773fc	-0.17915338
241	0xbf22714a	-0.63454115
242	0xbe8862ab	-0.26637778
243	0xbebf6cc7	-0.37387678
244	0xbe9020c7	-0.28150007
245	0xbed1a7cd	-0.40948334
246	0xbec11911	-0.37714437
247	0xbdc050aa	-0.093903854
248	0xbf37d3da	-0.71807635
249	0xbdb804e2	-0.08985306
250	0xbdebff52	-0.11523308
251	0xbe86c6cc	-0.26323545
252	0xbf1657f3	-0.5872795
253	0x3e549ecd	0.20763703
254	0xbef01461	-0.46890548
255	0xbe2c5a16	-0.1683124

fc1.bias f4 [128]
0	0xbc3516c7	-0.011052794
1	0xbf277483	-0.6541216
2	0xbf07d5c8	-0.5306058
3	0x3ef7a983	0.48371515
4	0xbd52834e	-0.051394753
5	0x3ec3035e	0.38088506
6	0xbdcf33bc	-0.101172894
7	0xbec16b6c	-0.3777727
8	0xbe41ed70	-0.18938231
9	0xbf5897b2	-0.8460647
10	0xbe59c1de	-0.2126536
11	0x3e83d344	0.2574712
12	0xbe19bf7e	-0.15014455
13	0xbdb45478	-0.08805174
14	0xbce436ec	-0.02785822
15	0xbf72f2d6	-0.9490179
16	0xbdfa2511	-0.12214101
17	0xbdb94cdc	-0.09047863
18	0xbe99d147	-0.30042478
19	0x3f0fa134	0.5610535
20	0xbf16c8bb	-0.5890004
21	0xbe13229b	-0.1436867
22	0xbe2bee79	-0.16790189
23	0x3dac7c32	0.08422126
24	0xbd6dc936	-0.058053218
25	0x3e6df59c	0.23238224
26	0x3e60f3c6	0.21967992
27	0xbef48c1e	-0.4776315
28	0xbe1afc48	-0.151353
29	0xbd05d527	-0.03267398
30	0xbe02347e	-0.12715337
31	0xbdf8d033	-0.12149086
32	0xbd890410	-0.06690228
33	0xbd0f0996	-0.03492125
34	0x3e077634	0.13228685
35	0xbf675ce6	-0.90376127
36	0xbf2a93bb	-0.6663167
37	0xbe86b8b4	-0.26312792
38	0xbe38116f	-0.179754
39	0xbe3e0495	-0.18556435
40	0xbe48470d	-0.19558354
41	0xbe143fe7	-0.14477502
42	0xbf3a98a0	-0.7288914
43	0xbebccb8f	-0.36874053
44	0x3ed33bcc	0.4125656
45	0xbd04e0b1	-0.032440845
46	0xbeaa799b	-0.33295903
47	0xbd91f1c9	-0.07126195
48	0xbdbc9316	-0.09207742
49	0xbd9ebd50	-0.07750952
50	0xbcf95ee6	-0.030440759
51	0x3eabb84b	0.33539042
52	0xbe9fb409	-0.31192043
53	0xbee49e12	-0.44651848
54	0xbe334bc0	-0.17509365
55	0x3ef931bb	0.48670754
56	0xbe8b2ebb	-0.2718409
57	0xbd9ac246	-0.07556586
58	0xbdcd3cf7	-0.10021394
59	0xbf7d17cb	-0.9886443
60	0xbdc788be	-0.097428784
61	0x3eaa6a87	0.332844
62	0xbf041954	-0.5160115
63	0xbe66d472	-0.22541979
64	0xbdc3edb6	-0.09566824
65	0xbe6a6091	-0.228884
66	0x3f031140	0.51198196
67	0xbf1c2e36	-0.6100801
68	0xbea661e4	-0.3249656
69	0xbca6110c	-0.0202718
70	0xbdbfb943	-0.09361508
71	0xbe90ca30	-0.28279257
72	0xbd9fdc2a	-0.07805665
73	0xbeb250a3	-0.34827146
74	0xbd7a1b89	-0.061061416
75	0xbdaabacf	-0.08336412
76	0xbd6c392a	-0.057671703
77	0xbf2a7f81	-0.66600806
78	0xbebb38a1	-0.36566642
79	0xbe07c1e2	-0.13257554
80	0xbd7d6f35	-0.061873633
81	0xbef2df8d	-0.4743618
82	0x3e3473a2	0.17622235
83	0xbf02d342	-0.51103604
84	0xbd6e9447	-0.058246877
85	0xbdacee77	-0.08443921
86	0xbdd7a103	-0.105287574
87	0xbed46afa	-0.41487867
88	0xbd01a66e	-0.03165286
89	0xbd91fd62	-0.07128407
90	0xbe73209d	-0.2374291
91	0xbf11ba48	-0.5692487
92	0xbd89305c	-0.06698677
93	0xbd3f9145	-0.0467694
94	0x3e78e39c	0.24305576
95	0xbd8040f0	-0.06262386
96	0xbe762f99	-0.24041595
97	0xbe18affb	-0.14910881
98	0xbe072515	-0.1319774
99	0xbdd686e0	-0.10474944
100	0xbe5c999a	-0.2154297
101	0xbdbd325d	-0.09238122
102	0x3e0de030	0.13855052
103	0x3d626b3d	0.05527805
104	0xbd97901e	-0.07400535
105	0xbe3c8ee5	-0.18413885
106	0xbe32f65d	-0.17476793
107	0xbd87ddde	-0.06634115
108	0xbee75d03	-0.4518815
109	0x3eabdc15	0.33566347
110	0xbdacf510	-0.084451795
111	0x3ad389ef	0.001613913
112	0x3ebf3103	0.3734208
113	0xbe2bbff5	-0.16772445
114	0xbe7a3c44	-0.24437052
115	0xbe01512e	-0.12628624
116	0xbe883664	-0.26603997
117	0xbd815aca	-0.06316145
118	0xbe1825df	-0.14858197
119	0xbec25370	-0.37954283
120	0xbebe496a	-0.37165385
121	0xbe8462f6	-0.2585675
122	0xbd00eaed	-0.031474043
123	0x3f4f9ed3	0.8110172
124	0x3d81971f	0.06327652
125	0xbe93ff66	-0.2890579
126	0xbe65ef90	-0.22454667
127	0xbe0b80c8	-0.13623345

fc2.weight f4 [7, 128]
0	0x3e44a512	0.19203594
1	0x3d88ded2	0.066831246
2	0xbc564948	-0.013078995
3	0xbb5f279f	-0.0034050716
4	0x3d9abeec	0.07555947
5	0xbbdaf3b8	-0.0066818856
6	0xbdf58bc3	-0.11989548
7	0x3eea917c	0.4581412
8	0x3e1677bd	0.14694114
9	0xbf29f4c5	-0.66389114
10	0x3e3dd135	0.18536837
11	0x3e1808be	0.14847085
12	0x3dc4f592	0.09617151
13	0x3e8465b1	0.25858834
14	0x3d0ff1e3	0.03514279
15	0x3c76744b	0.015042375
16	0x3e76a31b	0.24085657
17	0x3c8ca2ba	0.017167438
18	0x3ec1fd06	0.37888354
19	0x3c1e342c	0.009655993
20	0x3e4eb718	0.20187032
21	0xbe3187c3	-0.17336945
22	0x3ebb3751	0.3656564
23	0xbc3bb0a8	-0.011455692
24	0xbd01640c	-0.031589553
25	0xbb1ffd28	-0.0024412367
26	0xbac220d8	-0.0014810814
27	0x3e24d578	0.16097057
28	0x3e832254	0.25612128
29	0xbb176789	-0.0023102483
30	0xbce33e9c	-0.027739815
31	0x3e3a87d1	0.18215872
32	0xbd893c5f	-0.06700968
33	0x3b936188	0.0044977106
34	0x3d35edff	0.044416424
35	0x3c283579	0.010266655
36	0xbd663b0c	-0.056208655
37	0x3e36593c	0.17807478
38	0x3eaff1c7	0.3436415
39	0x3e547b25	0.20750101
40	0xbeab9deb	-0.3351892
41	0x3e4364d3	0.1908143
42	0xbf21f34f	-0.63261884
43	0xbdf23512	-0.118265286
44	0x3a3f94db	0.0007308253
45	0x3d586979	0.05283496
46	0xbe3c15f0	-0.18367743
47	0x3d7e6fa2	0.06211818
48	0x3e51c0af	0.20483659
49	0x3dfe3719	0.12412853
50	0xbbdd5c3b	-0.0067553795
51	0xbc9b0d36	-0.018927198
52	0xbe0ff7bb	-0.14059345
53	0xbbf9fc85	-0.0076289796
54	0x3f1405c4	0.578213
55	0x3c09f9c0	0.008421361
56	0x3ea57a0a	0.3231967
57	0x3d5e2f2f	0.054244217
58	0x3e6179d3	0.22019129
59	0x3bec0563	0.0072027906
60	0x3e24559e	0.16048285
61	0xbc21471f	-0.009843617
62	0x3d56d2f3	0.05244727
63	0x3e80a03b	0.25122246
64	0x3e4f43ae	0.20240662
65	0x3debc518	0.11512202
66	0x3c1c9a27	0.009558237
67	0x3ca7d5ba	0.020487655
68	0x3d6eee38	0.05833265
69	0x3e417ae2	0.18894532
70	0x3e86edb0	0.26353216
71	0x3e0340f0	0.1281774
72	0x3eec637c	0.4616965
73	0xbf4ee591	-0.8081904
74	0xbd0cc77f	-0.03436994
75	0x3e896d39	0.26841143
76	0x3ead22d7	0.33815643
77	0xbc1ec740	-0.00969106
78	0x3e2ac38d	0.16676159
79	0x3e5f68b4	0.21817285
80	0x3e6b8883	0.23001294
81	0xbbceaaaf	-0.006306968
82	0x3a2ed8a9	0.0006669858
83	0xbe960dce	-0.29307407
84	0xbd9208e6	-0.071306035
85	0x3d808a5d	0.06276391
86	0x3e4b72c8	0.19868004
87	0xbf0450d2	-0.5168582
88	0xbc30e446	-0.010796612
89	0xbb922d8a	-0.004460995
90	0x3eb1fc48	0.34762788
91	0xbf17f965	-0.5936492
92	0x3b737d3b	0.00371535
93	0x3dc4273e	0.09577797
94	0x3daaae15	0.08333985
95	0xbd5a45cb	-0.053289216
96	0x3f0dad26	0.5534233
97	0x3e6c94d3	0.23103647
98	0xbe4498f8	-0.19198978
99	0x3ec17fcb	0.3779281
100	0x3d7b3d62	0.061337836
101	0x3e4d8566	0.20070419
102	0x3e27f5e6	0.16402397
103	0xbb9f5a89	-0.0048630876
104	0xbd8ea40c	-0.06964883
105	0x3e6e8cb3	0.2329586
106	0xbe93af90	-0.2884488
107	0x3d89a643	0.06721165
108	0xbdec6515	-0.11542717
109	0x3c03f664	0.00805435
110	0xbd1bcad9	-0.038035247
111	0x3e2d83c4	0.16944796
112	0xbb0a2c20	-0.002108343
113	0x3eb393a2	0.35073572
114	0xbd8d179a	-0.06889267
115	0x3dfaa0a7	0.12237673
116	0x3e0ca3c1	0.13734342
117	0x3eb5380e	0.3539433
118	0x3e09bfe1	0.13452102
119	0xbdca7a7a	-0.09886642
120	0x3cf51727	0.029918266
121	0x3e6f30a3	0.23358397
122	0xbb2426f0	-0.0025047623
123	0xbb0b523c	-0.0021258732
124	0x3d928933	0.07155075
125	0x3c4418c2	0.011968793
126	0x3cf7b737	0.03023873
127	0xbee5cc0b	-0.44882235
128	0x3e98876c	0.2979082
129	0x3e532308	0.20618832
130	0xbf36fa40	-0.714756
131	0x3b242d12	0.0025051278
132	0xbcf33983	-0.02969051
133	0x3aa7cbd6	0.0012801837
134	0xbde56f7c	-0.112029046
135	0x3e578c2c	0.21049565
136	0x3de4b6eb	0.11167701
137	0x3c20a75b	0.009805526
138	0x3deb4b72	0.114889994
139	0x3e122132	0.14270476
140	0xbcced6db	-0.025248935
141	0x3eea8701	0.45806125
142	0xbcac9334	-0.021066286
143	0x3cb345db	0.021883896
144	0x3e622a10	0.22086358
145	0xbd20bb7f	-0.03924131
146	0x3f04cf0c	0.5187843
147	0x3c297a7f	0.010344147
148	0xbec496eb	-0.3839639
149	0x3e6a6a99	0.22892226
150	0x3e57c860	0.21072531
151	0xbcef8909	-0.029240148
152	0xbcca8b29	-0.02472456
153	0xbd52c242	-0.05145479
154	0xbc69be32	-0.0142665375
155	0x3ec1262e	0.3772444
156	0xbe765405	-0.24055488
157	0x3c9cc762	0.019138042
158	0x3e35f992	0.17770985
159	0x3e82cac1	0.25545314
160	0x3d5ead4b	0.054364484
161	0xbd518aeb	-0.051157873
162	0x3e0a0a1d	0.1348042
163	0x3df8add6	0.121425316
164	0xbe5bac5b	-0.21452467
165	0x3eb3d879	0.35126093
166	0xbd35467d	-0.044256676
167	0x3ea90b90	0.33016634
168	0x3d62a325	0.055331368
169	0x3dada436	0.084785864
170	0xbd487877	-0.04894301
171	0x3eca2147	0.39478514
172	0x3ce43f1a	0.02786212
173	0xbd1f6084	-0.038910404
174	0x3e9b73e7	0.30361864
175	0x3d7d88c6	0.061898015
176	0x3e9e1ced	0.30881444
177	0x3e81001e	0.25195402
178	0x3c66cb4c	0.014086556
179	0xbd056adc	-0.032572612
180	0xbdcc15b6	-0.099650785
181	0xbdcfc0f5	-0.101442255
182	0xbdb566e9	-0.08857519
183	0x3c8b880d	0.017032648
184	0x3f0b9c32	0.5453521
185	0x3d1e4d06	0.038647674
186	0x3e77d3ef	0.2420194
187	0x3c42dc58	0.011893354
188	0x3f0fb83b	0.5614049
189	0xbcc42859	-0.02394502
190	0xbc450657	-0.012025437
191	0x3e2d7788	0.16940129
192	0x3e7d7fd1	0.2475579
193	0x3db45642	0.08805515
194	0x3cd5780c	0.02605822
195	0xbd6352eb	-0.055499
196	0x3e82a939	0.25519732
197	0x3ef446f8	0.47710395
198	0x3e9d6002	0.3073731
199	0x3e9b6f9b	0.30358586
200	0x3eb0e945	0.3455297
201	0x3d11997a	0.035546757
202	0x3d353f23	0.044249665
203	0xbc441c14	-0.011969585
204	0x3e9f12ec	0.31069124
205	0xbee877a4	-0.4540378
206	0x3f249772	0.6429359
207	0x3ee5afe0	0.44860744
208	0x3ed71f0b	0.4201587
209	0xbef9db45	-0.48800102
210	0xbc870666	-0.016482543
211	0x3d08419e	0.033265702
212	0x3e734a2c	0.23758763
213	0xbc1d1952	-0.009588556
214	0x3e889a72	0.26680332
215	0x3ed5d09b	0.41760716
216	0xbce8fe7e	-0.028441664
217	0x3d4ba86d	0.04972117
218	0x3ee6ffcc	0.45117033
219	0x3bc77ed3	0.0060881167
220	0x3d32fc7f	0.04369783
221	0x3dc47a76	0.0959367
222	0x3e00c160	0.12573767
223	0x3baa7b29	0.00520267
224	0x3ed74788	0.42046762
225	0x3ea7193d	0.32636443
226	0x3ed4211c	0.4143151
227	0x3eec3a2d	0.46138135
228	0x3ea7b14b	0.3275245
229	0x3e8869f1	0.26643327
230	0x3e08710f	0.13324378
231	0xbdb43a5f	-0.08800196
232	0xbd313fa0	-0.04327357
233	0x3e7094dd	0.23494287
234	0xbc3fc7f6	-0.011705389
235	0x3cce782a	0.025203783
236	0xbd95e343	-0.07318737
237	0x3cd17f48	0.025573388
238	0xbc840626	-0.016116213
239	0x3e4c89e5	0.19974478
240	0xbb855f6f	-0.0040702145
241	0x3eff3d9b	0.4985169
242	0x3e7ed082	0.24884227
243	0xbe01749c	-0.12642139
244	0x3de23f59	0.11047239
245	0x3df4c970	0.11952484
246	0x3e29642e	0.16542122
247	0x3ec09686	0.3761484
248	0x3bd9c41d	0.006645693
249	0x3f3576c7	0.70884365
250	0x3d305c34	0.04305668
251	0x3bd27a1f	0.0064232494
252	0x3e018ee8	0.1265217
253	0x3aa8b7db	0.0012872176
254	0x3e620093	0.22070532
255	0xbdc645c5	-0.09681276

fc2.bias f4 [7]
0	0xbf440018	-0.76562643
1	0xbf478cd6	-0.77949274
2	0xbf3ff3fd	-0.7498167
3	0xbf466cd7	-0.77509826
4	0xbf43728b	-0.76346654
5	0xbf41a2ca	-0.7563902
6	0xbf41bdc2	-0.7568017
