trained_models/DQL/double_dql_connect4_model_1_256batch.pt (torch, 536860 bytes, 8 tensors)

conv1.weight f4 [64, 1, 4, 4]
00000000: 9bcf da3d ed76 df3e fc1a a4be e9e7 3c3e
00000010: 7744 3a3e b5cb a8be 1c51 333f e8a2 2a3e
00000020: 3f2f 083f e723 8e3e 06ee febe 037e 39be
00000030: 019c 55bf 16f7 bcbe 9873 d0be a248 bcbd
00000040: 3d12 3e3f 4256 00be 1503 61be e2d8 dcbd
00000050: f685 fe3e cedc 4cbd da94 163f 79a7 8bbf
00000060: 406a e3be ed27 4bbe 5f64 e2be deeb 093e
00000070: b4f2 cabe 2f7c d8bd 6c22 39be 4494 c6bf
00000080: a6a8 a93d 7093 46bf b329 31bf 34fb 333f
00000090: f78b c23b ac59 54bd d207 2abe 2869 ff3e
000000a0: 8a7c 8a3e 894a 80bf 4aba 923d 21b8 b5be
000000b0: 1580 fb3d 5335 ef3e 9707 9abc fd77 35bf
000000c0: 640a 46bf 54eb c93e ab59 e7be 8ac1 86bf
000000d0: 858b 7b3e 7188 d53e 1184 37be 1889 7dbf
000000e0: 8d66 f2be 14d4 053d 695e 8b3e 702a d1bf
000000f0: 7840 b6be 00f0 e2be 66fb 5b3d 779a 9c3e
00000100: deb3 783e c86e ca3e ed8e 583d 60bd edbd
00000110: 1a4f 86be 8e80 84be 6698 e83e 7fa1 a0bf
00000120: 65a6 b33e be76 b4bd aa3a eabe 4288 1d3f
00000130: d7d6 acbe 1513 eb3d beb8 f0be 3721 3bbf
00000140: 90dc c4bd 05b0 46be 624e a03d 2dad 3dbf
00000150: 65c3 df3e 33a8 b93d f019 d7be e03e 8a3e
00000160: c4b7 74bf 2d11 eabe f48c 523e b467 a43d
00000170: 58e6 223f 1b60 7cbe a172 053e 5994 cb3e
00000180: 9338 dabf 7856 c73d 9e14 adbe 766f 04be
00000190: 3c37 863f b692 023e dd81 8fbf 0586 84be
000001a0: f8a9 bdbe 83fd 16bf 5025 4abf ae76 183e
000001b0: 0e36 31bf 3c90 a33d 11d6 0e3e afe4 b9bd
000001c0: 8e29 d8bf 1924 183e 4cb4 34bf 7d37 53bf
000001d0: 694c 903d 37c5 8cbe e361 e2bd 31c7 31bf
000001e0: e1c4 5e3f 1e3d 04be 65ae 0d3f a6e8 6a3e
000001f0: 7ffb 89be 180f 4e3e 4735 86be 6319 973d
00000200: 5585 123f 6d62 fa3d c910 963e 52f0 cc3d
00000210: a502 123f f795 e0bc 19bb 143e 6a39 8d3e
00000220: ddc7 47bf cb4c 243e a60d 9d3a 5ca6 193e
00000230: 0ff3 413f a12e 65be 0e4e 83be 7704 413d
00000240: 1627 9f3e 98b4 5e3e 88dc 543e 7de4 1d3f
00000250: 345a 0f3e 7a19 133d c9c1 18bf ea6f 833e
00000260: b079 763e bf71 e9bc ab71 46bf 7e98 c5bd
00000270: c767 643c 9a7d 8a3d 1097 03bd 2d5a c23e
00000280: 4e27 8ebf 21e9 5a3e f4a4 f63e 29b8 e1be
00000290: 9dc8 f4be 9abd febd 0a4e 333f 67b0 92be
000002a0: 7c79 d3be 6d0f 85be 4efb 3b3e 01de 423e
000002b0: d1ac ec3e 29ca 913e 46a1 fdbe 6fa2 bc3d
000002c0: 174d 363e d618 1f3f 7095 b23d 91ab b33e
000002d0: a743 a63d 9412 debe 28bc 853d 7a1e 213f
000002e0: 224a b63d a24e 3cbe e634 d3bd f345 4ebf
000002f0: 4a7c b63e 0cd4 21bf b606 ee3e d7ed c03d
00000300: 9cbb 1bbf 3288 21be 3631 d4be 7a75 b13e
00000310: 6ad1 72be b7b6 033f c551 7cbf 500e 733d
00000320: 8563 80be 563e 863d 5019 03bf 3a0c ff3e
00000330: 0146 ba3e cbb1 2dbf 9e2e 37be 65f5 25bf
00000340: 6512 67bf ba22 4a3e 88a7 253f 2f50 3b3d
00000350: fd46 f3ba 9e62 88bc 58c5 1abe 97f0 64bd
00000360: 9dd0 2d3f e6d6 91bd f0b6 6c3e e812 68bf
00000370: 7262 6abf c8be b5bd df83 58bf 787e 7a3e
00000380: a562 aa3e 0ece ffbe aa70 debe 2c1c ebbe
00000390: d9ef 4f3f dbd8 c13e 5d46 803e 2f3f d73c
000003a0: 0233 27bf 1183 63bc 1c65 10be dfe0 9f3e
000003b0: d8fd 90be 9e69 6cbe d72e 23bf f3bc 16be
000003c0: 72ea 6e3e 8381 b1be e36d 1a3e 6ac3 9d3e
000003d0: bc64 f93c 8a94 9f3c f2fe 1c3f 15c0 4a3e
000003e0: 2660 88bc 4242 14bd 448a e03e d3ee 5dbf
000003f0: 2982 af3e 7ee2 65be 8f9a 89bf 1c41 123e
0.10684129 0.4364542 -0.32051837 0.18447842 0.1819018 -0.32967916 0.7004564 0.16663706
0.5319709 0.27761766 -0.49790972 -0.18114476 -0.8344117 -0.36907262 -0.4071319 -0.09193541
0.7424658 -0.12532905 -0.21973832 -0.107835546 0.4971158 -0.050015263 0.5882088 -1.0910484
-0.44417 -0.19839449 -0.44217202 0.13468882 -0.39638293 -0.10570561 -0.18079537 -1.5513997
0.0828412 -0.7756872 -0.6920425 0.7030518 0.0059370953 -0.05184333 -0.16604546 0.49884915
0.2704814 -1.0022746 0.07164438 -0.35492042 0.12280289 0.4672037 -0.018802447 -0.7088621
-0.77359605 0.39437354 -0.451856 -1.0527813 0.24564941 0.4170566 -0.17921473 -0.99037313
-0.47343865 0.032672957 0.27220467 -1.6341076 -0.3559606 -0.4432373 0.05370655 0.30586597
0.24287364 0.39537644 0.05287068 -0.11608386 -0.26232225 -0.2587933 0.4542877 -1.2549285
0.35087886 -0.08811711 -0.45747882 0.6153604 -0.3375766 0.11478249 -0.47015947 -0.73097557
-0.096123815 -0.19403084 0.0782745 -0.7409237 0.43703762 0.090652846 -0.42011976 0.27001095
-0.95592904 -0.4571623 0.20561582 0.08027592 0.63632727 -0.24646036 0.13032009 0.39761618
-1.7048515 0.097332895 -0.33804792 -0.12933144 1.0485606 0.12751278 -1.1211506 -0.258835
-0.37043738 -0.5898058 -0.78963184 0.14889023 -0.69223106 0.07986495 0.13948847 -0.09076821
-1.6887681 0.1485752 -0.7058761 -0.82506543 0.07045824 -0.27494213 -0.11053827 -0.69444567
0.87019163 -0.1291394 0.5534423 0.22940311 -0.2694969 0.20122945 -0.26212522 0.07377889
0.572347 0.122258045 0.2930968 0.10006775 0.57035285 -0.027415259 0.14524497 0.27582866
-0.7803934 0.16044919 0.0011982217 0.15004867 0.75761503 -0.22381069 -0.25645489 0.0471234
0.31084508 0.21748579 0.20787251 0.6167677 0.13999254 0.03591297 -0.5967069 0.2567132
0.24069858 -0.028496621 -0.77517194 -0.09648226 0.013940758 0.06762238 -0.032126486 0.37959424
-1.1105745 0.21377994 0.48172724 -0.44085816 -0.47809306 -0.124385074 0.70040953 -0.2865021
-0.41303623 -0.2598833 0.18357584 0.1903 0.46225598 0.28474548 -0.49537104 0.09210669
0.17802845 0.6214727 0.08719909 0.35091832 0.081183724 -0.4337355 0.065300286 0.6293713
0.089008585 -0.18389371 -0.10312824 -0.80575484 0.356417 -0.6321418 0.46489495 0.09420364
-0.60833144 -0.1577461 -0.41443795 0.3465994 -0.23712698 0.51450676 -0.9856227 0.05933982
-0.25075927 0.065548584 -0.512105 0.49814016 0.36381534 -0.67849416 -0.17888877 -0.6482757
-0.9026244 0.1973981 0.6470876 0.045730766 -0.0018560585 -0.016648587 -0.15114343 -0.055893507
0.67896444 -0.07121067 0.2311666 -0.9065385 -0.91556466 -0.08874279 -0.8457622 0.24462306
0.33278385 -0.49961895 -0.4344533 -0.4591993 0.81225353 0.3786076 0.25053683 0.026275245
-0.65312207 -0.013886229 -0.1410107 0.3122625 -0.28318667 -0.23087165 -0.63743347 -0.14720516
0.23331621 -0.34669122 0.15080981 0.30813152 0.030443542 0.019480009 0.61326516 0.19799836
-0.01664741 -0.036196 0.43855488 -0.8669254 0.34278992 -0.22449681 -1.0750293 0.1428265

conv1.bias f4 [64]
00000000: 1580 04bf 8d8d e3be c4fe 8bbf 74b1 e83e
00000010: 6801 e6be 9c1c 0bbf e4d3 333f f9da d4be
00000020: 2caf 4cbf 9257 22bf 68c2 36bf 190d 51bf
00000030: 349c fe3e a1ad 58be d295 56bf 7fb7 c7be
00000040: f42f 17be 7a53 3bbf b517 abbf 5d5e a03f
00000050: 9cb9 46bd e1f4 93be 040c a0be e62a 6abf
00000060: 6717 d8be 432e ddbd 7f60 54bf 91b6 4e3f
00000070: 65aa e4be c05b 65bf 5e5e 52bf 335a 57bf
00000080: 2c62 b1be 421a 51bf e2f3 8e3f daed a0bf
00000090: cf5c 3cbf 883e ee3c 7195 83bf d42b 7bbf
000000a0: 2ca8 593f be30 7bbf 1096 1abf f78d 86bf
000000b0: 82ab c9be 9266 4bbf 8c51 09bf a130 a5be
000000c0: b019 80be 558d 11bf 2aa4 23bf 829b e0be
000000d0: 62ba 1bbf 00a6 4cbf f6a6 45bf d6c2 fcbe
000000e0: 0709 94bf 942c 2ebf 84ee 0dbc db1c ae3f
000000f0: 3052 67bf 8a9b b7bf 37bb 2bbf c02a 13bf
-0.5175794 -0.44443932 -1.0937123 0.45447886 -0.44922948 -0.5434053 0.70245194 -0.41573313
-0.7995479 -0.6341487 -0.7139039 -0.8166061 0.4972855 -0.21159984 -0.8382236 -0.39007184
-0.14764386 -0.7317425 -1.336661 1.2528797 -0.048516855 -0.28897765 -0.31259167 -0.9147171
-0.42205355 -0.10799839 -0.8295974 0.80747324 -0.4466125 -0.89593124 -0.8217524 -0.8412201
-0.34645212 -0.8168069 1.1168177 -1.2572587 -0.73579115 0.029082552 -1.0279981 -0.9811375
0.85022235 -0.9812125 -0.6038523 -1.0512074 -0.39388663 -0.79453385 -0.53640056 -0.32263663
-0.25019598 -0.5685628 -0.6392237 -0.43868643 -0.6083127 -0.79940796 -0.7720789 -0.49367398
-1.1565255 -0.6803677 -0.008662824 1.3602556 -0.90359783 -1.4344342 -0.6708254 -0.57487106

conv2.weight f4 [128, 64, 2, 2]
00000000: 913f e23e 66ae 903f 33a2 ba3e 800f ce3f
00000010: 14ce 793e 0c4b 1540 a19e 9abf b6b1 16bf
00000020: c956 d2be ed10 dc3f 89dc fb3e 208d 9b3f
00000030: 678d 5f3d 7820 5f3f 6fd9 453f 15c1 06bb
00000040: 2e89 92bf 2ed2 633f f607 b23f ebbe 813f
00000050: 06f2 cbbd c232 adbd 242f ddbe f6f1 963f
00000060: 7acb fa3e e073 35bf 5db7 db3d 5dc0 053f
00000070: 7b9d 64bf 8b92 a53d 09d9 273f b8d2 c03e
00000080: c723 7c3f 6765 e5bd abfb 7fbe bf4f b7be
00000090: 9305 9e3d 591f 803e 1571 c63e 4108 c83e
000000a0: e785 763f 358f 413f 642e 2e3e 7438 893f
000000b0: 21eb 653c 1970 7abd 88e0 503f 63e5 253f
000000c0: 61ca 81bc cf34 00be d9a7 f23d 106c 34be
000000d0: 1e50 e93f 3413 343f 2f98 41bf 3351 c23e
000000e0: 3916 b6be d5c6 633f 6495 75bf fe88 813f
000000f0: 5d19 083e 57cc 003e 2343 60bd 1f93 753c
00000100: adb1 bebd c546 3c3f 5024 0abe ee17 e03e
00000110: 8a25 593f e668 6a3f 2cab 523f 479d b6bd
00000120: e061 1d3f cff4 65be f916 b1be 7195 99bd
00000130: 2e0a 37bf 7324 5fbf 071d b2be e8d6 06bf
00000140: 67ec 5abe e3d1 303f b4e2 1d3f 7764 093f
00000150: f9a0 2d3f 4106 2e3f c6ae 183f 0298 2bbe
00000160: 7392 703f 9113 e2be b07f a73e e267 6d3d
00000170: e3ad 17bf f3b9 b3be dc69 d8be d4f7 9a3f
00000180: 471c 8f3f 28e4 993d 93eb 723f 795e 183f
00000190: 7e7d 443f 380d 2b3f 0580 4bbd 9c11 6e3f
000001a0: 933b 1c3f a04c aabe 583e e33d b2d5 533f
000001b0: 8a21 dd3e efc6 033f 419d 993e 047b f8be
000001c0: 0ba8 3d3f 7d42 213f f76f 503f 8302 733f
000001d0: 49dc 1a3e cfe1 51be d5df 773f c132 39be
000001e0: 3b04 c1be 42cf a7be ba40 ba3d d0b2 0c3f
000001f0: 8b9f 883f a29e 093e 42d6 e7be a347 0e3f
00000200: dcdc c03a dcc2 a03f 6312 0e3e 1a89 ec3e
00000210: 99e0 a7bf 225f 763f 961c 2b3e 373f 2a3f
00000220: a91c 083e f07d 02bf 5d9d 83bd c883 3dbf
00000230: 1560 c4bd 0df2 2e3d c295 893f 0231 69bf
00000240: d6ce 943f 2cb9 913f 348c 5f3f c0c3 833f
00000250: 65ce 193e af44 b33e 983a 4a3f b483 2c3f
00000260: 5a29 0140 8175 7e3f 8e61 55be 25e3 d7be
00000270: 908e 2d3f 2220 773f c41e 2d3d 3d6a ccbd
00000280: 3322 cdbe 912b a2be ee2a 04be fe2c 04bf
00000290: 3813 e23e 7c57 b43f 6296 35bf b5f0 e4be
000002a0: c01f 4b3f e2e0 9fbb 575d 7b3f 85a9 ae3f
000002b0: 0336 833a 897e 123f 8f54 6bbe f1c3 193f
000002c0: 9b80 3ebe 4fb6 893f d9fa 833f fead 673e
000002d0: c2ac c73f 0df8 0240 af32 393f 5fdc 0a3e
000002e0: bb54 40bf 558b 313f 952e 1bbf 097f f43c
000002f0: 8782 82bd 8318 e33f f850 173e 9abd 813e
00000300: 67cf a23d 486f 993f ed1e b9be 6145 823f
00000310: 9bc0 bc3f feee 2740 127a c33f ce41 933e
00000320: ba15 7e3f a26b 873f c65c 9c3f 63b5 683e
00000330: 06b7 403e 2fda ca3f bc2e ea3d 4f59 f83e
00000340: 52fc d03d ef05 833f eefc e7be d4c4 0a3f
00000350: 4dcb 353f fee3 c5bc 9848 813f 7b95 f03f
00000360: 4975 bf3e 4de8 c63e 66dc 763e ee8a ce3e
00000370: 3c3f 29bf 7fb6 0b3f d698 9c3f a240 083f
00000380: bb96 453f d307 90bf fad0 72bf c11d 4c3d
00000390: 6186 e2bb af7b 903f 3f96 6cbe 9f8c 123f
000003a0: 05b2 223e a1cb c53e b5e6 803e 796a b1be
000003b0: c291 bebe ac28 0dbe 17f6 963e 539e 3cbe
000003c0: 31eb 403f 208b 843f b80a 1e3f c445 e6bd
000003d0: 48b3 28be 9012 773e 244a 0d3f e398 15be
000003e0: dea7 363f 521e eb3f 5762 0e40 e4c6 4a3f
000003f0: 7736 6dbe 66ef b23f 574f 053f 5f19 81bf
0.44189122 1.1303222 0.36451873 1.609848 0.24395019 2.3327055 -1.207966 -0.58864915
-0.41081837 1.7192665 0.49191692 1.2152443 0.05457821 0.8715892 0.772849 -0.0020561863
-1.1448114 0.88992584 1.390868 1.0136389 -0.09958272 -0.08456947 -0.43200028 1.1792591
0.48983365 -0.70879936 0.10728333 0.5224665 -0.89302796 0.080845915 0.65565544 0.37660766
0.9849209 -0.112009816 -0.24998347 -0.3580303 0.07715907 0.25023916 0.3875815 0.39068797
0.9629807 0.7560914 0.17009884 1.0720353 0.01403311 -0.06114206 0.8159261 0.6480314
-0.015843572 -0.12520145 0.11848421 -0.17619348 1.8227575 0.703418 -0.7562284 0.37952575
-0.3556383 0.8897527 -0.95931077 1.0119932 0.13290925 0.1257795 -0.054751527 0.01498869
-0.09311233 0.73545486 -0.13490415 0.43768257 0.84822905 0.9156631 0.8229244 -0.08916717
0.6147747 -0.22456668 -0.3458784 -0.07499207 -0.7149991 -0.8716499 -0.3478777 -0.5267167
-0.21379243 0.6907026 0.61674047 0.5366892 0.6782375 0.6797829 0.59641683 -0.16757205
0.93973464 -0.44155553 0.32714605 0.0579604 -0.59249705 -0.35102805 -0.42268264 1.2106881
1.1180505 0.075142205 0.9489071 0.59519154 0.76753986 0.66817045 -0.049682636 0.9299562
0.61028403 -0.33261585 0.110958755 0.8274795 0.4318965 0.51475424 0.30002788 -0.48531353
0.7408454 0.6299208 0.81420845 0.9492571 0.15123095 -0.20496295 0.96825916 -0.18085767
-0.3769854 -0.32775313 0.09094377 0.54960346 1.0673689 0.1343942 -0.45280653 0.5557806
0.0014714259 1.2559466 0.13874201 0.4619835 -1.3115417 0.9623891 0.16710123 0.6650271
0.13292183 -0.50973415 -0.06426499 -0.7402921 -0.09588639 0.042711306 1.0748827 -0.91090405
1.1625621 1.1384635 0.8732331 1.0294113 0.1502014 0.3501334 0.78995657 0.67388463
2.018149 0.99398047 -0.20837995 -0.42165485 0.6779566 0.96533406 0.04226567 -0.09981201
-0.40065154 -0.31673864 -0.12907001 -0.5163115 0.44155288 1.4089198 -0.7093259 -0.44714895
0.7934532 -0.004879103 0.981893 1.3645483 0.0010010604 0.5722433 -0.22981475 0.6006461
-0.18603747 1.0758761 1.0310928 0.22624967 1.5599597 2.0463898 0.7234296 0.13560627
-0.7512929 0.6935323 -0.60617954 0.029845731 -0.06372552 1.7741855 0.14776981 0.25339967
0.07949715 1.1987085 -0.36156407 1.0177423 1.4746279 2.623962 1.5271628 0.28761142
0.992519 1.0579722 1.2215812 0.22725444 0.18819818 1.5847834 0.11434695 0.48505637
0.10204376 1.0236186 -0.45310158 0.54206586 0.7101334 -0.024156567 1.0100279 1.8795618
0.3739417 0.38849106 0.24107513 0.4034037 -0.66112113 0.5457534 1.2234142 0.5322362
0.7718312 -1.1252388 -0.9485012 0.049833063 -0.006912992 1.1287745 -0.2310419 0.5724582
0.15888222 0.3863192 0.25176015 -0.34651545 -0.3722058 -0.13785046 0.29484627 -0.18419771
0.75358874 1.0354958 0.61735106 -0.112437755 -0.1647464 0.24128175 0.55191255 -0.14609103
0.71349895 1.8368628 2.2247522 0.79209733 -0.23165308 1.3979309 0.5207419 -1.0085868

conv2.bias f4 [128]
00000000: d982 4bbf 7d50 0ebf 1e21 5fbf 5477 49bf
00000010: 526b 26bf 375e 3abe 585b 0abf 6fc6 e1be
00000020: 8ded 0ebf 9e59 b8be 31d9 aebd 493d 91be
00000030: 5cf9 04bf 126f 3abf af3b 42bf 40a7 1bbf
00000040: e4ca 76be 5991 f2be 9035 6ebf 873c ecbc
00000050: 4baf ffbe 6907 bfbd de93 10bf 8372 0fbf
00000060: 4c37 3fbf f88e a6be f6df 593e 5ffd 22bf
00000070: e4c0 c4be fb00 6cbf 7408 173e fb16 51bf
00000080: b877 09bf 1891 e5be a561 37bf f4c4 88be
00000090: c5db 523d 0f6a 55bf a43a 48bd 7fd1 c0be
000000a0: a57b 9ebf adda f2be 4534 41bf 5d6c 74be
000000b0: 24bc 40bf 0494 15bf 5c36 62bf 49e9 a0bf
000000c0: 17ae 4cbf c29a a3be 1a85 72be 06b6 a6bd
000000d0: f822 84bf 5d06 37bf 1641 1abf 93b0 073e
000000e0: e974 8ebf cf7c 3fbe f361 c2be c749 dfbe
000000f0: 9a91 9bbe bed4 7abf 6e3c 28bf 477d 17bf
00000100: fabb dbbe 7636 00bf 79c0 f3be 893b 89bf
00000110: a1dd 2dbf 395e 3dbf b557 44bf cec1 2f3e
00000120: 6280 c5bd d5f0 c4bf a0df 9dbe e081 1cbe
00000130: 9b76 8ebf 157f 7dbe 8a5a 12bf b596 16bf
00000140: ad3c 8cbf 24a5 70bf a40d eb3d 007e 51bf
00000150: 2e9a 95bd 3efc c83d d996 3dbf 0c7c 16bf
00000160: 551b 4abf f8ea 6ebf 6564 25bd 7d01 abbe
00000170: a200 5bbe 57f4 bebe c323 d9be 001b 93be
00000180: 3ad6 38bf c69d 00bf e4ee 20be b667 a7bf
00000190: 7aee 30bf ce34 79be 22ca 01bf 1433 90be
000001a0: c516 3dbf f8b0 25be a2fc 06bf 609d cb3d
000001b0: 35a0 80bf b19b 9fbf a2f2 7fbf 1a83 59bf
000001c0: 226a 4ebf 9b24 bbbe c26a 24bf 1566 acbe
000001d0: 5609 88be c7d1 f0be f2e9 dfbe 5114 79bf
000001e0: 8913 15bf 017f f5be 3fe2 e1be ae53 4abe
000001f0: adeb 2ebd 5019 01bf 3b75 f9be 97ea 6ebe
-0.7949653 -0.55591565 -0.8715991 -0.78697705 -0.6500751 -0.18200003 -0.5404563 -0.44096705
-0.55831224 -0.36005872 -0.0853752 -0.2836707 -0.5194299 -0.7282573 -0.7587232 -0.6080208
-0.24100834 -0.47376516 -0.9305048 -0.028837455 -0.49938425 -0.09327585 -0.5647563 -0.56034106
-0.7469375 -0.32530951 0.2127684 -0.63667864 -0.38428414 -0.92188996 0.14749318 -0.8167569
-0.536983 -0.4483726 -0.7163337 -0.26712763 0.05147912 -0.8336496 -0.04888405 -0.37659833
-1.2381483 -0.4743246 -0.7547038 -0.23869462 -0.7528708 -0.5842898 -0.88364196 -1.2571193
-0.7995314 -0.31954008 -0.23683587 -0.08140187 -1.0323172 -0.71494085 -0.60255563 0.13250951
-1.1129428 -0.18699954 -0.37965354 -0.43610975 -0.30384523 -0.9798087 -0.6571721 -0.59175533
-0.42916852 -0.500831 -0.47607782 -1.0721294 -0.67916304 -0.739719 -0.7669633 0.17163774
-0.09643628 -1.5385996 -0.30834675 -0.15283918 -1.1129946 -0.24755509 -0.571694 -0.5882371
-1.0956017 -0.94001985 0.11477211 -0.81832886 -0.07304798 0.098137364 -0.740583 -0.5878303
-0.78947955 -0.93327284 -0.040378947 -0.33399573 -0.2138696 -0.37295792 -0.42410097 -0.28731537
-0.72201884 -0.50240743 -0.1571613 -1.3078525 -0.69113886 -0.2433655 -0.50699055 -0.2816397
-0.7386287 -0.1618079 -0.5272924 0.09942126 -1.0048891 -1.2469388 -0.99979603 -0.8496567
-0.80630696 -0.36551365 -0.642254 -0.33671632 -0.26569623 -0.47035047 -0.43733174 -0.97296625
-0.58232933 -0.4794846 -0.44117925 -0.19758484 -0.042705227 -0.5042925 -0.48722252 -0.23331676

fc1.weight f4 [128, 768]
00000000: f76c 8d3d fd38 23be 43d8 153f 5366 25c0
00000010: 75e4 37bf cd5c 1bbf 133c a43d 2dfe cdbf
00000020: b5bf 933e 6646 7bbf db44 8abf 330e ebbe
00000030: a90e 5abe 7e10 e3bd 4248 743e 688c 18bf
00000040: c09d f33e 366c c7be 7040 543f f2ce b8bf
00000050: a87d bbbd 3843 1abf 7b0c 12be 4ca2 093f
00000060: d679 cfbf aff5 10c0 0f18 8ebf d725 cf3e
00000070: 5b07 0fc0 a3d3 b13e f41d b03e 0ba4 42bf
00000080: 80aa c53e e91d 8fbf 934d 56be 4dcd 153f
00000090: b3a1 1b3e c33f 56bf b3d0 31bf aa81 5abf
000000a0: f1f1 c53e 14e9 a0bf 94b7 83be a6c0 65bf
000000b0: 55ff a1be b815 2f3f 8fa6 8e3e d159 d5bf
000000c0: ebac 503e 97de 733f c3bd 7abf f254 413f
000000d0: d37f c2bd 3e73 bc3e afa4 c0bb a1b3 f8be
000000e0: b8e8 d3bd 6a62 92bf 4500 093f 38b2 00be
000000f0: 0914 f83d a747 a33e 86ec 983e b4dc 0fbf
00000100: fa28 62bf 48a5 973e 8a58 d6be b310 34be
00000110: 343c c8bc e0cb c7bd d1b6 0dbf 1474 c03e
00000120: b046 e83e 8d8c 38bd e363 1cc0 1982 0ebe
00000130: 9a3d 04bf ba49 2bbf 5a15 60c0 e546 ce3d
00000140: 4b22 d83e cad2 febe 6e64 19bf be31 07bf
00000150: 4e61 61bd 183f acbf 0fd1 a33f 7837 32bf
00000160: 9046 9b3f a626 953e d7da e7bf 16c8 febf
00000170: a05c 87bf de06 22bf 508a 1dbf 475a 1d3f
00000180: 4f0c 0cbd 3700 2b3e 24e7 183f 4c1c b8be
00000190: 6f33 483e 4bf8 b43e 8c18 b63d 0bfa dabe
000001a0: 37be 3f3e cc36 c3be d82a f8be f473 48bf
000001b0: 145c 07bd 3b52 76bd 0eaf febf 406e 05bf
000001c0: 0e10 f93e e480 1fbf 70de f53e 6b6f b2bf
000001d0: 3089 a2bf b6d7 5fbe 1ccd 82bd f65f 0d3e
000001e0: e0c9 64bf bc9a 1ebf 3a5d 31bf 3e7d 2c3e
000001f0: 3f3d debe 655d 63bf a09f bbba 869f 14bc
00000200: 657d 82bc a45d c9bc 709e 293b 36f7 1bbc
00000210: ddf0 a2bd 1b5f bebf 9cd3 133f d877 e4be
00000220: 6572 90bf 3c38 b13e 4a00 9dbf 99e8 943e
00000230: 2c41 d3be b1ad 363d 5c6e 87bf b5e2 883e
00000240: dba4 17bf 055b dfbf f25a cdbf 8d1b 80bf
00000250: 85da e3bf a90a 403e 54bf 0a3f d11c afbe
00000260: ce9d 24bd 8797 263d eacc 29c0 e0c7 b8be
00000270: bdd7 0a3e dce4 0a3e fcbc 65bf 62b1 11be
00000280: 1642 033e 4bb1 173e 97b1 0d3e 544e bc3d
00000290: b968 b5be 4cef a8be cf26 a8be d10e 95bf
000002a0: d958 64bf 16d5 1dbe 9406 723e 8a32 e4bc
000002b0: 808d 92bf c910 1cbf d5cd ee3b e8f9 39bf
000002c0: 02c1 4fbe d347 c0bf 6a9e 2d3f 4167 303f
000002d0: cbbf 903d 03d9 c33e b91b 363e 1eff b3bf
000002e0: 60f4 683e cf87 ac3e 572f 08be e920 86be
000002f0: 1fde 4cbf f530 20bf c04e ee3e e32a 1ebe
00000300: 113e dbbe 4160 123f e5f4 843e 2ab1 343f
00000310: c7c5 47bf ae76 49c0 484b c1be 9005 4fbf
00000320: f881 643e 7b54 d03e 7672 003f 895a c53d
00000330: cbdc 1fbe 5e73 42bf b713 c5bd 6d8f 8bbe
00000340: cfc0 4d3e 9814 36bf c0a5 173e f0f3 283e
00000350: 167d b03e cdef 823c 4e0d 84be a78b 593d
00000360: 10ef b9be 6976 2a3e 4b25 053e 2544 62be
00000370: 5b0f 22c0 493f bcbd 17b9 99be 8f77 823f
00000380: 17b5 38bf 26aa dabe 6e4e aa3e 26fe c7be
00000390: 49cf d1bf 4ac8 e43d 2254 b63d a3cf c53e
000003a0: 7746 17be 4228 193e abdf 60bf 0ad1 1a3f
000003b0: 79d9 95be e6b2 50bf dad8 ffbf 6168 453e
000003c0: bdf7 94bd 09dc 61bd 8bd4 0a3e 82db 983a
000003d0: 254d 973d 92d3 85bf b07a 1ec0 30b8 afbe
000003e0: 172f 423f 1167 77bd 8372 ac3d d090 e3be
000003f0: 7d13 54be ab47 0d3e 97fa e6bf 5478 4cbf
0.06905549 -0.15939708 0.58533114 -2.5843704 -0.7183297 -0.6068848 0.08019271 -1.6093193
0.28857198 -0.98154294 -1.0802263 -0.4590927 -0.21294655 -0.1108713 0.23855689 -0.5958924
0.4758129 -0.38949746 0.82910824 -1.4438155 -0.091548264 -0.6025882 -0.14262573 0.5376327
-1.6209056 -2.2649953 -1.1101092 0.40458557 -2.234824 0.34731779 0.34397852 -0.7603156
0.38606644 -1.1181003 -0.2092803 0.5851639 0.15198402 -0.8369104 -0.69459075 -0.853541
0.3866115 -1.257113 -0.25725996 -0.89747083 -0.31640115 0.68392515 0.2786145 -1.6668035
0.20378463 0.9526152 -0.97945803 0.7552024 -0.09497037 0.36806673 -0.005879007 -0.48574546
-0.10347122 -1.1436284 0.53516036 -0.12567985 0.121131964 0.31890604 0.29867953 -0.5619614
-0.88343775 0.29618287 -0.41864425 -0.17584495 -0.02444277 -0.09755683 -0.5535708 0.3758856
0.4536643 -0.045055915 -2.4435966 -0.13916816 -0.51656497 -0.6690937 -3.5013032 0.10072116
0.42213663 -0.49770194 -0.5991887 -0.52810276 -0.055024438 -1.3456755 1.2798175 -0.6961589
1.2130909 0.2913105 -1.811366 -1.9904811 -1.0575142 -0.6329173 -0.61539173 0.6146588
-0.034191426 0.166993 0.5972769 -0.3595909 0.1955087 0.35345683 0.08891401 -0.42768893
0.18724905 -0.38127744 -0.48470187 -0.7830193 -0.033046797 -0.060137015 -1.9897172 -0.52121353
0.4864506 -0.62306046 0.4802127 -1.3940252 -1.2698116 -0.21859631 -0.06386778 0.13806137
-0.89370537 -0.61954856 -0.6928288 0.16844651 -0.43406102 -0.88814384 -0.001431454 -0.0090712365
-0.015928933 -0.024580784 0.002588179 -0.009519389 -0.07956097 -1.4872774 0.57744765 -0.44622684
-1.128491 0.34613216 -1.2265713 0.29083708 -0.4126066 0.04459924 -1.0580554 0.26735464
-0.59235924 -1.7449652 -1.6043379 -1.0008408 -1.7801062 0.18754067 0.54198194 -0.34201673
-0.040189557 0.04067185 -2.653132 -0.36089993 0.1355886 0.13563865 -0.8974149 -0.14227822
0.12818179 0.14813726 0.13837276 0.091946274 -0.3543146 -0.3299507 -0.3284211 -1.1645147
-0.8919807 -0.15413317 0.23635322 -0.02785613 -1.1449432 -0.6096311 0.0072877207 -0.7264695
-0.2028847 -1.5021919 0.67819846 0.6890755 0.070678316 0.38251504 0.17784013 -1.406223
0.22749472 0.33697364 -0.13299309 -0.26196983 -0.8002643 -0.625747 0.46544456 -0.15446047
-0.4282079 0.5717812 0.2596809 0.7058283 -0.7803616 -3.1478686 -0.37752748 -0.8086786
0.22315204 0.40689453 0.50174654 0.09636409 -0.1561157 -0.75957286 -0.09622901 -0.27257863
0.20093082 -0.71125174 0.14809322 0.16499305 0.34470433 0.015983487 -0.257914 0.0531117
-0.36315203 0.16646732 0.13002507 -0.22096308 -2.5321872 -0.09191758 -0.30024025 1.0192736
-0.7215132 -0.42707938 0.33262962 -0.39061087 -1.6391383 0.111710146 0.08902766 0.38634977
-0.14772974 0.14956763 -0.8784129 0.6047522 -0.2926748 -0.8152298 -1.9988053 0.19278099
-0.07273815 -0.055141483 0.13557641 0.0011662098 0.07387761 -1.0455191 -2.4762383 -0.3432021
0.75853103 -0.060401026 0.08420279 -0.4444642 -0.20710559 0.1379687 -1.8045224 -0.79871106

fc1.bias f4 [128]
00000000: 1956 073f 006b b03e c076 993f a4e6 8e3f
00000010: 4183 e23e 82fd f03e 2a93 dd3e 3ef1 233e
00000020: 9b2c 773f dfba d93e f5a5 ea3f da51 b6bd
00000030: 1c79 f13e dd1b 953f 8099 333f f508 853e
00000040: ac90 c93e 53e4 1bbd 90cf 4a3e 4a19 ae3f
00000050: 9b85 903e 68e7 bf3f 93ce 303f 60e5 133f
00000060: 8af9 ed3e e9b4 113f b86c 463f 14d1 263e
00000070: 7e8a 113f b31f fd3e f3a5 103f 82b1 1d3e
00000080: ef41 423f a479 f33e 6547 013e f5a3 0a3f
00000090: 7d53 c93f c61f 0a3d a178 ec3e cf3b 613e
000000a0: 80e7 943e a817 c53e 468f 0e3f b0c8 aabe
000000b0: ba71 c13f 235c 533f 3b63 11bf 406f cb3f
000000c0: 0fff b1bd c915 c03e 42bb 8ebd a2db 313f
000000d0: 97f2 eabc 7f3c bc3d 5842 d73e 71c7 933e
000000e0: 0690 433f 6fb1 863f 5ecf 243f c4c1 8b3e
000000f0: 763a 0ebf c424 903e 235e 993e feae b43e
00000100: d26a 8f3e 73c7 9d3e 21b2 9f3f 091f f93c
00000110: ae82 ce3e 2ff7 bc3d 976d 0bbf bfb1 523f
00000120: fdae aa3e f836 d03e a8db 6d3e e31d 063e
00000130: 0fad 033e 2ae2 9a3d 7fa9 203f f7bf 9bbd
00000140: 4568 0d3d d9da d4be 1663 b43e 1795 933e
00000150: a9f8 073d efb6 143f 97e1 2bbe 7fbb ab3d
00000160: 64e7 973e 305c 3d3d b158 873f 5c08 383e
00000170: e5b3 043f 553f 333f 3958 2bbe 097b 6d3e
00000180: 997f 3f3e b3ff 323f 06fb fa3e 53ee fb3e
00000190: 9408 d23f c2f3 3f3e 8487 373f 3fe6 b6be
000001a0: 1f89 eb3e 7640 59be fd97 2a3f cb96 833e
000001b0: 0ff8 e73e 5f07 dcbe 3965 b23e d91e bb3e
000001c0: 2792 a03e 2d75 a83e 3070 923e 51d1 7b3e
000001d0: dc71 253f 3382 073f e139 4d3e 35ac 8cbe
000001e0: ea66 9f3f c88c 643f 7fe9 db3d 261c 4cbf
000001f0: e4b2 d23e 09e9 583f 2403 6b3f 1d22 023e
0.5286575 0.34456635 1.1989365 1.1164136 0.44240764 0.4706841 0.4327634 0.16009995
0.9655244 0.42525384 1.8331896 -0.08902331 0.47162712 1.1649128 0.701561 0.25983396
0.39368188 -0.038059544 0.19805741 1.3601468 0.28226933 1.4992495 0.6906521 0.57771873
0.46479446 0.5691667 0.7750964 0.16290694 0.5685195 0.49438247 0.5650322 0.15399745
0.75881857 0.47553742 0.12624891 0.5415643 1.5728604 0.033721708 0.46185783 0.21995471
0.2908287 0.3849461 0.5568737 -0.33356237 1.5112832 0.82562464 -0.5679204 1.5893326
-0.08691227 0.3751662 -0.0696931 0.6947576 -0.028680129 0.09191226 0.42042804 0.288631
0.7639164 1.0522898 0.6437892 0.2729627 -0.55557954 0.2815305 0.29954633 0.35289758
0.28011185 0.3081623 1.2476236 0.030410307 0.40334076 0.09226834 -0.54464096 0.8230247
0.3333663 0.40666938 0.23228323 0.13097338 0.12858985 0.075626686 0.6275863 -0.07604974
0.034523267 -0.41573218 0.35231847 0.28824684 0.033196125 0.58091635 -0.16785274 0.083853714
0.29668725 0.046230495 1.0573941 0.17971939 0.51837 0.7001851 -0.16732873 0.23191465
0.18701018 0.69921416 0.4901964 0.49205264 1.6408868 0.1874533 0.71691155 -0.3572254
0.46003053 -0.21215996 0.66638166 0.25700983 0.4530644 -0.42974374 0.34842852 0.36546972
0.31361505 0.32901898 0.28601217 0.24591567 0.6462686 0.52933043 0.2004161 -0.27475134
1.2453282 0.89277315 0.10737895 -0.7973045 0.41152108 0.84730583 0.9180167 0.12708326

fc2.weight f4 [7, 128]
00000000: a968 713d fd1c 3cbd c2f2 53bd 8fef 053e
00000010: 5c57 653d 7107 fbbc 3f5a 693d 11e1 0fbd
00000020: c236 163c e62b 383b 68d3 67bd 5b62 a23d
00000030: dbaa 8b3d c54d 96bc f655 41bd ea34 98bd
00000040: d04f 4939 a0be 69be 2d4a a73c 71c0 8cbb
00000050: dc7d 47bd 2e84 f23c 57a5 5d3d c2d0 1dbc
00000060: 6f76 30bc e130 533c d53f 903d f208 4bbd
00000070: 3f59 2e3e 35f5 1d3d db43 37be 4b7c 333e
00000080: 6688 41bd 8dea a0bb 7d9d 033d e210 423d
00000090: 0c57 d039 b316 c13c 3ba8 ec3d 7221 6e3e
000000a0: 2252 63ba 6f3f 54bc f6ab 0fbd a0f6 113c
000000b0: 02f3 f03c 7e31 7d3c c2f0 163e 1c23 b9bb
000000c0: fff3 fcbd 7afc d7bc 2aae 9abd 14c9 e9bc
000000d0: 7bc5 24be 209a f43c d3a4 153e 5932 f53d
000000e0: c8b9 bd3b 0ffb e23d b4b4 203d 9a91 f23b
000000f0: 998f 413d 9710 f9bd 5553 573d 7226 353d
00000100: f8c3 9b3d 12f1 12be 2f9a 58bd 109d 4d3e
00000110: 0db1 4d3d 472a 1f3e f690 993e 4e13 1d3d
00000120: 35c9 123c da08 3dbd fa80 45bd b605 e2bb
00000130: 77f9 af3c cfc5 30bd 2893 2abd e70e 153d
00000140: 32a2 d23d e2a2 4dbc d0b8 08be 4517 42bd
00000150: 18e6 25bd b32d 773c 7d34 7cbb 4cb0 543e
00000160: e84d 913d 49de 31be 383f f93d 85fe f6bc
00000170: 2f62 5bbe 37ac 72be f9b5 5bbd 9c6f 17bd
00000180: 3752 923e ca60 6bbc ec73 0ebe c9b7 83bc
00000190: add8 573e 0b2d dabd 82b4 12bd cff0 f0bd
000001a0: 0d39 95be e435 843e 1701 2b3c ab65 e2bc
000001b0: 9da8 d83d acd5 273e 672b 2ebd 69bc 513d
000001c0: 4a0c 143d 4dfa 843d 662f 7ebd 5a3d 6e3d
000001d0: 27c6 5ebe bdb0 3abd 92e6 cabc c2a2 4a3c
000001e0: 9d63 353b 8364 223e d1b7 0d3e 6aa6 5d3e
000001f0: 70b7 c0bc 19ca a43d 662c 06bd e8e2 483c
00000200: 67d5 fb3c bc1b 5fbd a38d 4ebd 9e91 76be
00000210: d626 933d 1d7e 06bc 9161 223c f39c 26be
00000220: ffa8 a93c 90ba 843d 96df a0bd 53b6 793d
00000230: 76fb 953d 7e13 e1bc 1b72 b9bc 3754 01be
00000240: 2952 fa3b 0abd 46be fd1e e2bd 7c77 2b3e
00000250: 524c 2abd f32f ccbd 4899 103d f52d bb3c
00000260: 8ba8 2abd 9b17 5dbc e577 dbbc 8a68 e6bc
00000270: e4b2 983e 3af1 c83d 1421 32be ddd4 0b3e
00000280: 2f1a 13ba 7517 4c3d 91b4 8f3d ffad 093d
00000290: 314e 86bd 104d de3c 8a7c 693d c682 b13d
000002a0: 838d d23d 9a29 c13d 0afa 223e 2a85 09bd
000002b0: b4ab 23bd 51b4 cabd e896 73bd a16d 24be
000002c0: 1ef7 1b3d 34fb d9bc 7dcb 9bbe e94c 79bd
000002d0: dfaf 2c3d efd0 d83d ac9f 6bbe 4115 ce3d
000002e0: 2b65 2b3d a4de 063d ee39 163d 6c8d e33d
000002f0: aa6e 2dbd c715 09be c7ff 153d beb8 8c3d
00000300: 39c8 ca3d 919e a73d 22f0 a6bd c4e9 a43e
00000310: 0c57 f23c 3787 bc3d 8a5a 1c3e 0f68 a53c
00000320: f1f5 ae3d b0b3 79bd 3416 21bd d1f4 f9bc
00000330: bdc2 2fbc 4c97 b7bc 5f22 14bd 1b16 653b
00000340: 33c0 a43d 2175 983b 054d 70be 2b36 3ebd
00000350: 5016 00bd e79b 133e 7f98 79be d647 8d3e
00000360: 9cf0 0a3d 13f2 5a3c 033e a2bd 562a 2cbd
00000370: d556 a53d 02e2 863d cbe8 073e 9c46 72bc
00000380: 2472 2d3e 5e5b 1e3d 6636 63bd a4e1 7a3d
00000390: 13c9 8c3d 57e1 45be d4dc 0bbd e64f c7be
000003a0: 8ff6 80be 0359 cabc c44b 643c 12f9 8a3d
000003b0: 678b e53d 657a cebe 0250 b13d ed88 363d
000003c0: 7310 543d de4e 723d 571a 16be 7279 b53d
000003d0: fdd1 af3d ed39 bdbd e881 41bc 314f 86bd
000003e0: 975b 4fbc a496 743d b16e a93d ae29 2c3e
000003f0: ee2e 4abd e494 fe3c 2bda 9cbc d623 0d3d
0.058937702 -0.045926083 -0.051745184 0.13079666 0.055991516 -0.030643197 0.05697083 -0.03512675
0.009168329 0.0028102337 -0.056598097 0.07928916 0.068196975 -0.01834763 -0.04720112 -0.074319676
0.00019198586 -0.22826624 0.020421112 -0.0042954017 -0.048704013 0.029604044 0.05411276 -0.009632291
-0.010770424 0.012890072 0.07043425 -0.049569078 0.17026232 0.038563926 -0.17896979 0.17527883
-0.04724922 -0.004910773 0.032132614 0.047379382 0.00039737707 0.023570394 0.11555525 0.23254946
-0.00086716015 -0.012954577 -0.035076104 0.008908898 0.02941275 0.015453694 0.1474028 -0.0056499373
-0.12351226 -0.026365507 -0.075527504 -0.028538264 -0.16090958 0.029858649 0.14613657 0.11972494
0.005789969 0.11083042 0.039234832 0.007402611 0.047256086 -0.121613674 0.052569706 0.044226117
0.076057374 -0.14349774 -0.052881416 0.20079446 0.050217677 0.15543471 0.2999341 0.03834849
0.008959104 -0.04615102 -0.048218705 -0.0068976535 0.021481259 -0.043157395 -0.041644245 0.036391165
0.102848426 -0.012551041 -0.1335175 -0.047385473 -0.040502638 0.015086579 -0.0038483434 0.20770377
0.070949376 -0.17369951 0.12170261 -0.030150661 -0.21424173 -0.23698507 -0.05364034 -0.036971673
0.2857835 -0.014366338 -0.13911408 -0.016078847 0.21078749 -0.106531225 -0.035816677 -0.117646806
-0.2914509 0.25822365 0.010437272 -0.02763637 0.105790354 0.16390103 -0.04252186 0.051205073
0.036144532 0.064930536 -0.06205692 0.05816398 -0.21755277 -0.045578707 -0.024768148 0.012367906
0.0027677782 0.15858655 0.13839652 0.21645513 -0.02352497 0.080463596 -0.032757185 0.01226113
0.030741407 -0.05446981 -0.050428044 -0.24078986 0.07185142 -0.008208779 0.009910957 -0.16270809
0.020710466 0.064808965 -0.07855146 0.060964894 0.07323353 -0.027475115 -0.022637418 -0.12629782
0.007639189 -0.1940805 -0.11041067 0.16744798 -0.04157669 -0.09970083 0.03530243 0.022849062
-0.04166464 -0.0134943975 -0.026790569 -0.02812602 0.29823983 0.09811635 -0.17395431 0.1365542
-0.00056115066 0.049827058 0.07016862 0.0336132 -0.065578826 0.027136356 0.057003535 0.08667521
0.102808975 0.09431763 0.15915695 -0.03357426 -0.03995867 -0.09897674 -0.059470087 -0.16057445
0.038077466 -0.02660904 -0.30428687 -0.060864363 0.04215991 0.10586726 -0.23010129 0.100626476
0.04184453 0.03292717 0.03667634 0.111109585 -0.042341866 -0.13387214 0.03662088 0.06871174
0.09901471 0.08184541 -0.081512704 0.322096 0.029582523 0.09205478 0.15268913 0.02019122
0.08543003 -0.06096238 -0.039327815 -0.030512245 -0.010727582 -0.022411011 -0.03616559 0.0034955803
0.080444716 0.0046526347 -0.2346688 -0.046438377 -0.03127128 0.14414941 -0.24374579 0.2759387
0.03392087 0.013363379 -0.07921984 -0.042032562 0.080732025 0.06586076 0.13272397 -0.014787342
0.16938072 0.038661353 -0.0554718 0.061250344 0.06874289 -0.19324242 -0.034146145 -0.38928145
-0.2518811 -0.024700647 0.01393408 0.06785788 0.112082295 -0.40327755 0.086578384 0.044564176
0.0517735 0.059157245 -0.14658485 0.088610545 0.08584974 -0.09239564 -0.011810757 -0.06558073
-0.012656114 0.059713975 0.08273066 0.16812775 -0.049361162 0.031076856 -0.019147 0.034458004

fc2.bias f4 [7]
00000000: b366 84bf 1cb3 85bf cb96 70bf b6f0 65bf
00000010: a2f2 6cbf 796e 89bf 7b26 75bf
-1.0343841 -1.0445285 -0.9398009 -0.8982042 -0.9255773 -1.0736839 -0.9576184
