trained_models/DQL/dql_blockcheck_2.pt (torch, 536432 bytes, 8 tensors)

conv1.weight f4 [64, 1, 4, 4]
0	0xbe39c5d0	-0.18141866
1	0x3dbd8ac7	0.09254985
2	0xbd10153c	-0.0351765
3	0xbf4c94e6	-0.799147
4	0x3eb0facb	0.3456634
5	0x3edf718b	0.43641314
6	0x3edb895e	0.4287824
7	0xbe2c3d0b	-0.16820161
8	0x3cbc2a44	0.022969373
9	0xbe8738d1	-0.26410535
10	0xbea627fc	-0.3245238
11	0x3eaf304b	0.34216532
12	0x3f3fd962	0.74941075
13	0xbf02378f	-0.50866026
14	0x3ebacc05	0.3648378
15	0xbf11ea89	-0.569985
16	0x3e7c0c11	0.24613978
17	0xbf7f48a7	-0.99720234
18	0xbf4529a3	-0.7701666
19	0x3f796d98	0.9743285
20	0x3e20b1f1	0.1569288
21	0xbfefd603	-1.8737186
22	0xbfc8b768	-1.5680971
23	0x3d9bc67c	0.07606217
24	0x3d521edf	0.051298972
25	0xbe2eae07	-0.17058574
26	0xbe5fb8a3	-0.21847777
27	0x3ecb2aef	0.39681193
28	0x3ef2b51a	0.47403795
29	0x3e780d16	0.24223742
30	0xbcfc5232	-0.030800913
31	0xbf8cc6ad	-1.0998131
32	0xbf5347c9	-0.8253141
33	0xc00e1903	-2.2202766
34	0x3e7638d5	0.24045117
35	0xbfaf0b62	-1.3675349
36	0xbf0bfb37	-0.546802
37	0xbe8a191a	-0.26972276
38	0x3f1e0ba4	0.6173651
39	0x3ec00561	0.37504104
40	0x3e0e5992	0.13901356
41	0x3ea9909b	0.33118138
42	0xbe6dbec7	-0.23217307
43	0x3f0e2476	0.55524385
44	0x3e0cd5ef	0.13753484
45	0x3f206c44	0.626652
46	0xbe39d447	-0.18147384
47	0xbe692b9c	-0.22770542
48	0xbf86acdb	-1.0521501
49	0xbecb6be8	-0.39730763
50	0x3e05d97d	0.13071246
51	0x3f6f9f5e	0.9360255
52	0x3edf915e	0.43665594
53	0xbf20c758	-0.62804174
54	0xbe847eaf	-0.25877902
55	0x3f36bbee	0.7138051
56	0x3f46fe58	0.7773185
57	0x3e0deb04	0.13859183
58	0x3e0befa2	0.13665631
59	0xbf0b9115	-0.5451825
60	0xbef1be01	-0.47215274
61	0xbe831f5a	-0.25609857
62	0xbef7a749	-0.48369816
63	0x3d15d205	0.036577243
64	0xbd2b4a69	-0.04181901
65	0xbe937119	-0.28797224
66	0xbdf36881	-0.11885167
67	0xbf197f82	-0.59960186
68	0xbf569fa0	-0.8383732
69	0x3ede5a34	0.43428195
70	0xbef9dbf2	-0.48800617
71	0x3f131d25	0.57466346
72	0xbe2a74b5	-0.16646083
73	0xbbc4784f	-0.005995787
74	0xbf5fc193	-0.87404746
75	0x3e1e72e0	0.15473509
76	0xbe57445a	-0.21022168
77	0x3dff238d	0.12457953
78	0xbd316868	-0.04331246
79	0x3f7e4dbf	0.9933738
80	0xbfe717da	-1.8054154
81	0xbeb10f54	-0.34582007
82	0xc02acbc3	-2.6686866
83	0x3ccd1d9d	0.025038535
84	0x3e938875	0.28815046
85	0xbe571b98	-0.2100662
86	0xbea634cc	-0.32462156
87	0xbdffa3a2	-0.12482382
88	0x3eae5eea	0.3405679
89	0xbe9a1b4b	-0.30098948
90	0xbd9d5232	-0.07681693
91	0x3e09258b	0.13393228
92	0x3f1a7be5	0.603453
93	0x3e772e7e	0.24138829
94	0x3ed23851	0.4105859
95	0x3d87f484	0.066384345
96	0x3f06ce4f	0.5265855
97	0x3ebd5b24	0.36983597
98	0xbe074583	-0.1321011
99	0x3f2c7c6d	0.6737736
100	0xbe216814	-0.15762359
101	0x3f266ce3	0.650099
102	0x3efc8583	0.4932061
103	0xbf5ccdc0	-0.8625145
104	0xbf19e050	-0.601079
105	0xbf2a2b53	-0.6647236
106	0xbc865511	-0.016397985
107	0xbf3b0d94	-0.73067594
108	0x3f492ab5	0.7858079
109	0xbe6b7782	-0.22994807
110	0xbed62605	-0.41825882
111	0x3e9185c6	0.28422374
112	0x3f970c06	1.1800544
113	0x3e86e2d5	0.26344934
114	0x3ea3ee17	0.32017586
115	0x3ed3b680	0.41350174
116	0x3ed26f67	0.41100618
117	0x3e514406	0.20436105
118	0xbed50cb0	-0.41611242
119	0x3e28f349	0.16499056
120	0x3d77c781	0.060492996
121	0x3bdef5bd	0.0068041966
122	0x3dc73c26	0.09728269
123	0x3f1d7388	0.6150441
124	0x3d518144	0.051148668
125	0xbe3662cb	-0.17811124
126	0x3d3a578f	0.04549366
127	0xbf745574	-0.9544289
128	0xbe5423a3	-0.2071672
129	0xbf145c43	-0.5795328
130	0xbf68cad2	-0.9093448
131	0x3b8f2576	0.0043684794
132	0xbc3fcaac	-0.011706036
133	0x3f14ff37	0.58201927
134	0xbf83a058	-1.0283308
135	0x3d47902d	0.04872148
136	0x3e848065	0.25879207
137	0x3dba28b7	0.09089797
138	0x3d5e515b	0.054276805
139	0x3f6a47ee	0.91516006
140	0x3e9909b8	0.29890227
141	0xbea074a0	-0.31338978
142	0x3eefd99b	0.46845707
143	0xbcf163ed	-0.029466594
144	0xbf417971	-0.7557593
145	0xbe37df86	-0.17956361
146	0xbf506041	-0.8139687
147	0xc045bf25	-3.0897915
148	0xbdcdf138	-0.100557745
149	0x3df6da08	0.12053305
150	0xbc60ef01	-0.013728858
151	0xbd75168c	-0.059835956
152	0x3ee93626	0.45549124
153	0x3e82bb7f	0.25533673
154	0xbf2ac777	-0.6671061
155	0x3f2c92f0	0.6741171
156	0xbee2a7d4	-0.44268668
157	0x3f05e381	0.5230027
158	0xbd97f0b3	-0.074189566
159	0xbc869681	-0.016429188
160	0x3f19619c	0.59914565
161	0xbf15deb7	-0.5854296
162	0x3f0e9596	0.55697
163	0xbfeb0433	-1.8360656
164	0xbe027e09	-0.12743391
165	0x3d8fc04e	0.07019101
166	0x3d377fa3	0.04479946
167	0x3ee3099b	0.44343266
168	0xbee7b484	-0.4525491
169	0x3e816d53	0.2527872
170	0xbe8e2a01	-0.2776642
171	0x3e49a4da	0.19691792
172	0x3e68be1b	0.2272877
173	0xbf2f7a55	-0.6854604
174	0xbc552738	-0.013009839
175	0x3f0748e0	0.52845573
176	0x3f205c05	0.6264041
177	0xbdea6085	-0.11444191
178	0xbf717778	-0.9432292
179	0x3eefc90a	0.46833068
180	0x3e86a0cd	0.26294556
181	0x3e1ce868	0.15323031
182	0x3e8ff617	0.2811744
183	0xbef1f0d3	-0.47254047
184	0xbecb11a3	-0.39661893
185	0xbf2851ad	-0.6574963
186	0xbf009bf6	-0.5023798
187	0xbd1630ea	-0.03666774
188	0x3e35522c	0.17707127
189	0x3f127c35	0.57220775
190	0x3f28d83f	0.65954965
191	0xbe5d4313	-0.21607618
192	0x3f70b474	0.9402535
193	0x3db37087	0.08761697
194	0xc004887d	-2.0708306
195	0xbfa22640	-1.2667923
196	0x3ce84baf	0.028356401
197	0x3de5ecf8	0.11226839
198	0xbdb8462a	-0.08997758
199	0xbfa21b02	-1.2664492
200	0xbdc2cc3a	-0.095116094
201	0xbdb6e3ee	-0.08930193
202	0xbc515447	-0.012776441
203	0xbde36558	-0.11103314
204	0xbb51db36	-0.003202153
205	0xbf1065ab	-0.56405133
206	0xbe9c5e09	-0.30540493
207	0x3f5e5f49	0.86864144
208	0x3e4da97f	0.20084189
209	0xbfb128e4	-1.3840604
210	0x3e858e98	0.26085353
211	0x3d10c825	0.035347123
212	0xbecd031d	-0.40041438
213	0x3e4d6917	0.2005962
214	0x3f59c46c	0.8506534
215	0x3daf5e5e	0.08562921
216	0x3f264bce	0.6495942
217	0x3e810030	0.25195456
218	0x3f1814ef	0.5940694
219	0x3e8505a1	0.25980857
220	0x3ef59577	0.47965595
221	0xbcdc8214	-0.026917495
222	0xbedb5589	-0.42838696
223	0xbf91fd08	-1.1405344
224	0x3e07ba1a	0.13254586
225	0xbe9d6883	-0.307438
226	0xbd9c5ea9	-0.076352425
227	0xbfd9da7f	-1.7019805
228	0x3e2c2c03	0.16813664
229	0xbe5ab98e	-0.21359846
230	0x3ec52073	0.3850132
231	0xbe8eddf7	-0.2790372
232	0x3f7f2175	0.99660426
233	0x3ecf5ea4	0.40501893
234	0xbec27cde	-0.3798589
235	0x3ec66c02	0.38754278
236	0xbf5c797c	-0.8612287
237	0x3e30d07a	0.17267027
238	0x3daaeb0f	0.08345615
239	0xbeb94735	-0.3618714
240	0x3d8c522f	0.06851613
241	0xbf40bd83	-0.7528917
242	0x3e590330	0.21192622
243	0x3ed14a8b	0.40877184
244	0xbea20f31	-0.31652215
245	0xbf982103	-1.1885074
246	0xbf36e82e	-0.7144803
247	0x3d0975d7	0.033559646
248	0x3eda5ac1	0.42647365
249	0xbfe3bf16	-1.779269
250	0x3c850e66	0.016242217
251	0x3d754ea2	0.059889443
252	0xbeae2b04	-0.34017193
253	0xbf04871a	-0.5176865
254	0x3f2e33e6	0.6804794
255	0x3f26e144	0.6518748

conv1.bias f4 [64]
0	0xbf1c29c7	-0.6100125
1	0xbee8d9c0	-0.4547863
2	0x3ee33b9d	0.4438142
3	0xbf0f0b6d	-0.5587681
4	0xbf539a00	-0.8265686
5	0xbb2b12f3	-0.0026103824
6	0xbf6dcdbe	-0.9289206
7	0xbdc30d5d	-0.09524033
8	0xbf51342b	-0.81720227
9	0xbeb6744d	-0.35635605
10	0x3cc48b9e	0.023992356
11	0xbf4bd36d	-0.79619485
12	0xbdb5bd0f	-0.08873951
13	0xbf1b9ef6	-0.6078943
14	0x3d9839a5	0.0743287
15	0xbf72054f	-0.9453935
16	0xbf2a2185	-0.66457397
17	0xbd203c0b	-0.03911976
18	0x3eaac0ff	0.3335037
19	0xbeea5df1	-0.45774797
20	0xbf2caf64	-0.67455125
21	0xbe320299	-0.17383803
22	0xbf91707c	-1.1362453
23	0x3dcbba32	0.09947623
24	0xbde5fe4c	-0.11230144
25	0x3e2ee61f	0.17079972
26	0xbd76a8cf	-0.060219582
27	0xbd9306f5	-0.07179061
28	0xbe5e8d32	-0.21733549
29	0xbf00c174	-0.50295186
30	0xbec68f4b	-0.387812
31	0xbf447f29	-0.7675653
32	0xbdfa9922	-0.12236239
33	0x3e0c2461	0.13685752
34	0x3eb1ccdb	0.34726605
35	0xbf0dea90	-0.5543604
36	0xbf060395	-0.52349216
37	0x3ce06982	0.02739406
38	0xbf3f1a32	-0.74649346
39	0xbf4462f2	-0.7671348
40	0xbf4fd66d	-0.8118656
41	0xbf037cb2	-0.51362145
42	0x3ecc1176	0.39857072
43	0x3e86f086	0.2635538
44	0xbf27d248	-0.6555524
45	0x3e954d31	0.29160455
46	0xbf37aed8	-0.71751165
47	0xbd3df2a0	-0.046373963
48	0xbe103720	-0.14083529
49	0xbf3b590e	-0.7318276
50	0xbf311cd9	-0.69184643
51	0xbefe84f2	-0.49710804
52	0xbe827cdb	-0.25485882
53	0xbe8d6ff2	-0.2762447
54	0xbe3ff863	-0.18747096
55	0x3eafa1f5	0.3430325
56	0x3e6ffb00	0.23435593
57	0x3ea94694	0.3306166
58	0xbdc3f3b3	-0.09567966
59	0x3e1aad2e	0.15105125
60	0xbd341859	-0.043968532
61	0x3bf3cdc2	0.0074402997
62	0xbe66a612	-0.22524288
63	0x3e3cca0c	0.1843645

conv2.weight f4 [128, 64, 2, 2]
0	0xbf072375	-0.5278848
1	0x3ed7edc0	0.42173576
2	0xbb77d112	-0.0037813825
3	0xbed52869	-0.41632393
4	0x3e80659b	0.2507752
5	0xbe1a4dd1	-0.15068747
6	0x3c9218ff	0.017834185
7	0xbefb3ee5	-0.49071422
8	0xbed0412a	-0.40674716
9	0x3e35c41f	0.17750596
10	0x3e0a9065	0.13531645
11	0x3ee7ee6d	0.45299092
12	0xbeca81df	-0.3955221
13	0xbf7ad8d1	-0.97987086
14	0xbf2359b4	-0.6380875
15	0x3ef5bf1f	0.47997376
16	0xbef73420	-0.48281956
17	0xbebe3f28	-0.3715756
18	0xbe37961f	-0.1792836
19	0x3ce5bd86	0.028044473
20	0x3dc68e00	0.09695053
21	0x3e929d34	0.2863556
22	0xbe2e42d9	-0.17017688
23	0x3e90055d	0.28129092
24	0x3eb00759	0.34380606
25	0xbf1171de	-0.5681437
26	0x3ebcf36a	0.3690446
27	0xbe7fbee1	-0.24975158
28	0xbe420b54	-0.18949634
29	0xbe5f6048	-0.21814072
30	0xbee41d83	-0.44553766
31	0xbe624985	-0.22098358
32	0xbfadddb6	-1.3583286
33	0xbdc7642d	-0.09735904
34	0x3df8f0ab	0.12155279
35	0xbf0454ec	-0.5169208
36	0x3ea77918	0.32709575
37	0x3e7dbc02	0.2477875
38	0x3d43ef7d	0.047835816
39	0xbedc412a	-0.43018466
40	0xbe9c1a90	-0.30489016
41	0x3db54c72	0.088524714
42	0x3dcaf732	0.0991043
43	0xbe98d9cf	-0.29853675
44	0x3eafd3d8	0.3434131
45	0xbebe3459	-0.37149313
46	0x3e85d89a	0.26141816
47	0xbe56af57	-0.20965324
48	0x3df8040b	0.12110146
49	0xbe9a7d3c	-0.3017367
50	0x3e722ee4	0.236507
51	0xbe94999c	-0.29023445
52	0xbeddfe07	-0.4335787
53	0x3e1a8eaa	0.15093485
54	0xbe02ea67	-0.1278473
55	0x3f049509	0.5178991
56	0xbe77539d	-0.2415299
57	0x3f25e167	0.6479706
58	0x3f18bdde	0.59664714
59	0xbe514c01	-0.2043915
60	0xbf11050a	-0.56648314
61	0xbfd261c6	-1.6436088
62	0xbd403946	-0.04692962
63	0x3ee1ba2a	0.44087344
64	0xbefb3b81	-0.49068835
65	0xbf226d04	-0.63447595
66	0xbdf50daf	-0.119655006
67	0x3d354adf	0.044260856
68	0xbea84f67	-0.3287308
69	0xbdc3276f	-0.09529006
70	0xbcd1b347	-0.025598181
71	0xbed34d02	-0.4126969
72	0x3de88c5c	0.113548964
73	0xbe56c804	-0.20974737
74	0xbdd480ea	-0.10376151
75	0xbf28c5f0	-0.6592703
76	0x3d4a9513	0.049458575
77	0xbe810428	-0.25198483
78	0x3ed5253d	0.41629973
79	0xbf048993	-0.5177242
80	0xbed62d32	-0.41831356
81	0xbdcce765	-0.100050725
82	0x3d6da438	0.05801794
83	0xbe9ee027	-0.3103039
84	0x3c91988f	0.01777294
85	0x3eb1bc52	0.3471399
86	0x3e83d8ea	0.2575143
87	0xbd3884c3	-0.045048486
88	0xbef13a81	-0.47114947
89	0x3f3a0d63	0.72676677
90	0x3e3664a9	0.17811836
91	0xbe6038c4	-0.21896654
92	0xbeaf635f	-0.34255502
93	0x3da82e0b	0.08211907
94	0xbec19f54	-0.3781687
95	0xbf1f0198	-0.62111807
96	0xbe4e116a	-0.2012383
97	0xbf0427a3	-0.5162298
98	0xbd1d6f35	-0.038436133
99	0xbe479844	-0.19491678
100	0xbe60d40a	-0.21955886
101	0x3e54b711	0.2077296
102	0xbd99106d	-0.07473836
103	0xbf1dcd31	-0.6164122
104	0xbe40fc8c	-0.18846339
105	0xbf045b30	-0.5170164
106	0x3d5bc630	0.053655803
107	0xbcce8dee	-0.025214162
108	0x3e2d4bfb	0.16923515
109	0xbfa6c895	-1.3029963
110	0x3dbb532b	0.091467224
111	0x3e06167d	0.13094516
112	0x3d0fafd9	0.03507981
113	0xbcc0ddc0	-0.023543239
114	0x3df51f2e	0.11968838
115	0xbdafed94	-0.08590236
116	0xbede32fe	-0.4339828
117	0x3e17d99a	0.14829102
118	0x3edf2ab7	0.43587276
119	0x3e14252f	0.1446731
120	0xbe8139f3	-0.25239524
121	0xbf3edaaf	-0.74552435
122	0x3e9103fd	0.28323355
123	0xbe092f8a	-0.13397041
124	0xbde3d330	-0.11124265
125	0xbf57e2fe	-0.8433074
126	0x3e8dfd5b	0.27732357
127	0x3e8ebd99	0.27879027
128	0xbf5b3ba2	-0.8563787
129	0xbf21593f	-0.63026804
130	0xbe4bb297	-0.19892345
131	0xbf1eb2e4	-0.61991715
132	0x3c0becac	0.008540314
133	0xbd6cf9e6	-0.05785551
134	0xbdebcb7d	-0.11513422
135	0xbecb59d1	-0.39716962
136	0x3eccfecf	0.40038154
137	0x3ea2911f	0.31751344
138	0x3c3fc980	0.011705756
139	0xbee07cce	-0.43845218
140	0xbf4a101e	-0.7893084
141	0x3e59c719	0.21267356
142	0x3ea23456	0.31680554
143	0x3dfe10e1	0.12405563
144	0xbcab58d6	-0.020916384
145	0x3cde74e9	0.027155356
146	0x3e1b35f6	0.15157303
147	0xbe4970bc	-0.19671911
148	0x3e8cb46b	0.27481398
149	0xbe0d89ce	-0.138221
150	0xbf2eda03	-0.6830141
151	0xbe3cc1f8	-0.18433368
152	0xbd6515ae	-0.05592888
153	0xbf4c7134	-0.79860234
154	0xbe9f7f10	-0.31151628
155	0xbe765ae7	-0.24058114
156	0xbf39001c	-0.7226579
157	0xbd62d8d2	-0.055382557
158	0xbeb74f0c	-0.35802495
159	0x3c8ce224	0.017197676
160	0xbe429bee	-0.19004795
161	0xbf427e2f	-0.7597379
162	0xbf1a4e95	-0.60276157
163	0xbea2d21f	-0.31800935
164	0xbe775820	-0.24154711
165	0xbe9ca710	-0.3059621
166	0xbea618e8	-0.32440877
167	0xbd5c0745	-0.05371787
168	0x3e0807fe	0.13284299
169	0x3e655c58	0.22398508
170	0x3ecb7699	0.3973892
171	0x3e47ac2d	0.19499274
172	0xbca1fb14	-0.019773044
173	0xbd33c331	-0.04388732
174	0x3ca236ce	0.019801524
175	0x3efb05f0	0.49027967
176	0xbf3857b2	-0.7200881
177	0xbea5ce53	-0.32383975
178	0xbe93ca24	-0.2886516
179	0xbdea884f	-0.1145178
180	0xbeed8daf	-0.46397159
181	0x3d5f5854	0.054527596
182	0xbe73f703	-0.23824696
183	0xbe9611f7	-0.2931058
184	0xbe3be5e3	-0.18349414
185	0x3ed16dde	0.40904135
186	0x3ecc24da	0.39871866
187	0x3f1c9e8e	0.61179435
188	0x3ead51d7	0.338515
189	0xbf5daf1f	-0.8659534
190	0x3e89d583	0.2692071
191	0x3d189370	0.037249982
192	0x3e61e1a5	0.22058733
193	0xbe746685	-0.23867233
194	0x3ea666ce	0.3250031
195	0xbce6601e	-0.028122004
196	0xbba26a8c	-0.004956549
197	0xbea71620	-0.32634068
198	0x3ed237f6	0.4105832
199	0x3da77e94	0.0817844
200	0xbe90b270	-0.28261137
201	0xbe7556fa	-0.2395896
202	0x3e96155e	0.29313177
203	0x3df79373	0.120886706
204	0xbe907c1f	-0.28219697
205	0xbb320831	-0.0027165527
206	0xbeaf4ff2	-0.3424068
207	0xbcd450fb	-0.02591752
208	0xbdfe490d	-0.12416277
209	0x3e84d7c2	0.2594586
210	0xbe6ee671	-0.23330094
211	0xbebfe76f	-0.37481257
212	0xbee822db	-0.45339093
213	0xbf18bca2	-0.5966283
214	0x3decd648	0.115643084
215	0x3d9f0d64	0.07766226
216	0xbe9c1caf	-0.30490634
217	0xbe6b995f	-0.23007725
218	0xbdf2e908	-0.118608534
219	0x3ecd8843	0.40143022
220	0x3e4bb8b8	0.19894683
221	0xbd054807	-0.032539394
222	0xbd0a360e	-0.033742957
223	0x3e0329bb	0.12808888
224	0x3ea335ac	0.31876886
225	0xbeea0c97	-0.4571273
226	0x3f0cd52e	0.55012786
227	0xbcd7f1b0	-0.026360363
228	0xbdc5bae5	-0.09654788
229	0x3e2bbfa5	0.16772325
230	0x3d9a42a9	0.07532246
231	0x3e6fd974	0.23422796
232	0x3e92943a	0.28628713
233	0xbe212553	-0.15736894
234	0xbdbb65aa	-0.0915025
235	0x3e6e2b6e	0.23258755
236	0xbf04e484	-0.5191119
237	0xbf50f3b4	-0.8162186
238	0xbf2cc476	-0.67487276
239	0xbdbaa7fb	-0.09114071
240	0x3e198cfd	0.14995189
241	0x3ee0bb58	0.43892932
242	0x3e32e251	0.17469145
243	0x3e03a108	0.12854397
244	0x3f02779e	0.5096377
245	0x3e0a3c83	0.13499646
246	0x3e96b9c4	0.29438603
247	0x3f27afcb	0.65502614
248	0x3ddf2cb0	0.10897195
249	0xbd8d5607	-0.06901174
250	0x3f0b4d4b	0.54414815
251	0x3d5c2663	0.053747546
252	0xbf307f9e	-0.6894473
253	0x3c862c13	0.016378438
254	0xbeff16e9	-0.49822167
255	0xbe5bb2d8	-0.21454942

conv2.bias f4 [128]
0	0xbdbd97f7	-0.092575006
1	0xbee27c0e	-0.4423527
2	0xbcf46a71	-0.029835911
3	0xbdcb9c2d	-0.099418975
4	0xbe00cb86	-0.12577638
5	0xbea1359f	-0.31486222
6	0xbe8616eb	-0.2618936
7	0xbd85697d	-0.06514261
8	0xbe17f0a2	-0.14837888
9	0xbe8f182f	-0.27948138
10	0xbe6d5309	-0.23176207
11	0xbeab683d	-0.33477965
12	0xbd25457b	-0.040349465
13	0xbd891e18	-0.06695193
14	0xbe777d4b	-0.24168889
15	0x3dc2f7ce	0.09519921
16	0x3d358a4c	0.044321343
17	0xbe0adffe	-0.13562009
18	0x3d9874cb	0.074441515
19	0xbe0ba3a7	-0.13636647
20	0xbeec58da	-0.46161538
21	0x3c4ab1e0	0.01237151
22	0xbe945539	-0.2897127
23	0x3d561b13	0.052271914
24	0xbcd75d6f	-0.02628967
25	0xbe191108	-0.14947903
26	0xbdd783d8	-0.10523194
27	0xbe6571d1	-0.22406699
28	0xbf0a455e	-0.54012096
29	0xbcbf79b7	-0.023373468
30	0x3d2b582b	0.04183213
31	0xbe4983f9	-0.1967925
32	0xbd9e4dd0	-0.07729685
33	0xbe577d48	-0.21043885
34	0xbe869eb2	-0.2629295
35	0xbd822baf	-0.06355988
36	0xbe29a561	-0.16566993
37	0xbeb44220	-0.352067
38	0xbe5e042f	-0.21681283
39	0xbdd8a6cf	-0.10578691
40	0xbd1b9701	-0.037985805
41	0xbe5d27a0	-0.21597147
42	0x3f076681	0.52890784
43	0xbe84c37c	-0.25930393
44	0xbc831eb3	-0.01600585
45	0xbe4c3cc7	-0.1994506
46	0xbf122f8a	-0.5710379
47	0xbe07dfba	-0.13268939
48	0xbec9a8e4	-0.39386666
49	0xbe0c0659	-0.13674296
50	0xbdd8abff	-0.10579681
51	0xbe05e68d	-0.1307623
52	0xbd8d755f	-0.069071524
53	0xbd161e52	-0.03665001
54	0xbe951bd2	-0.29122788
55	0xbcab8ad3	-0.02094022
56	0xbe5497a2	-0.20760968
57	0xbe5104c4	-0.20411974
58	0xbe803fc4	-0.2504865
59	0xbd28cfc6	-0.041213773
60	0xbe59f4c8	-0.21284783
61	0x3c3fddd1	0.0117106
62	0x3d4ae676	0.04953619
63	0x3d8ad57c	0.06779
64	0xbe77bcaf	-0.24193071
65	0xbecefc91	-0.40427068
66	0x3b195194	0.0023394572
67	0xbeac3abc	-0.3363856
68	0x3da643f5	0.081184305
69	0xbcc87862	-0.024471465
70	0xbdc1da1c	-0.09465429
71	0xbd80f102	-0.062959686
72	0x3e7c9444	0.24665934
73	0xbe06a75e	-0.13149783
74	0xbd9bbba8	-0.07604152
75	0xbd861d1b	-0.0654852
76	0xbdb0415b	-0.086062156
77	0xbdfb998f	-0.12285148
78	0xbeac3524	-0.33634293
79	0x3c64f6ed	0.013974887
80	0xbe8b4b48	-0.27205873
81	0xbdbad2eb	-0.09122261
82	0x3d01e09e	0.031708352
83	0xbdeb2528	-0.11481696
84	0xbe943461	-0.28946212
85	0x3d96c53b	0.073618375
86	0xbebc57fd	-0.3678588
87	0xbe65800b	-0.22412126
88	0xbe1cd524	-0.15315682
89	0xbdef9cfa	-0.11699863
90	0xbe5ab541	-0.21358205
91	0xbdb0c72b	-0.08631738
92	0xbe838884	-0.2569009
93	0x3da554c8	0.08072811
94	0xbe6ba3fc	-0.23011774
95	0xbed97f79	-0.42480066
96	0x3d45b4e4	0.048268214
97	0xbe4e4d3f	-0.20146655
98	0xbe7cb165	-0.24677046
99	0xbeaeb93b	-0.34125695
100	0xbe7db559	-0.2477621
101	0xbe25ad69	-0.16179432
102	0xbe42847d	-0.18995853
103	0xbb8cfe96	-0.00430281
104	0xbe8fcfe9	-0.2808831
105	0xbe7d7233	-0.24750595
106	0xbdc0d450	-0.094154954
107	0xbec2ea4a	-0.38069373
108	0xbdf733dd	-0.12070439
109	0xbd824ccf	-0.06362306
110	0xbead97a0	-0.33904743
111	0xbe54bfdf	-0.20776318
112	0xbdfa4819	-0.12220783
113	0x3dc9938b	0.09842595
114	0xbe5ef7c1	-0.21774198
115	0xbe25f7e0	-0.16207838
116	0xbd9f5aff	-0.07781028
117	0x3d926c9b	0.07149621
118	0xbd9cfda4	-0.076655656
119	0xbd8f06dc	-0.0698373
120	0xbeb864cc	-0.36014402
121	0xbe8b556a	-0.27213603
122	0xbd3e40fd	-0.046448696
123	0xbda57af9	-0.08080096
124	0xbdf82dea	-0.121181324
125	0x3be13dd0	0.0068738237
126	0x3c99b302	0.018762115
127	0xbe919227	-0.28431818

fc1.weight f4 [128, 768]
0	0xbe599799	-0.21249236
1	0xbd5faf23	-0.054610383
2	0xbda327a1	-0.07966543
3	0xbe7f8967	-0.24954759
4	0xbe2449e1	-0.16043808
5	0x3e0633c2	0.13105682
6	0x3ea17e4a	0.31541663
7	0xbf03ec38	-0.51532316
8	0xbd16dad2	-0.036829777
9	0xbe24f0d7	-0.16107498
10	0xbf110ca5	-0.5665992
11	0xbc0fda57	-0.008780084
12	0xbdf4290b	-0.11921891
13	0x3d0bfb9b	0.034175497
14	0x3ba96733	0.005169773
15	0x3e84e706	0.25957507
16	0x3dc806b8	0.097669065
17	0xbe1feaa4	-0.15616852
18	0x3c646be9	0.013941743
19	0x3d4833c4	0.048877493
20	0x3d3ccf1a	0.046095945
21	0x3d187518	0.037221044
22	0xbe8379a8	-0.25678754
23	0xbeabf6b2	-0.3358665
24	0x3da4aa55	0.08040301
25	0xbde8dd46	-0.113703296
26	0xbe1a9867	-0.150972
27	0xbbc1b316	-0.0059112413
28	0x3cb47dfd	0.022032732
29	0xbe306db0	-0.17229342
30	0x3d0b6512	0.034031935
31	0x3d9a60b7	0.07537978
32	0xbd1403f4	-0.036136582
33	0xbead3cd3	-0.33835468
34	0x3e0ef0e1	0.13959076
35	0x3eebfc78	0.46091056
36	0x3da670e3	0.08127
37	0xbe1172c2	-0.14203933
38	0xbd56a201	-0.052400593
39	0xbdcb4270	-0.09924781
40	0xbea4a1db	-0.32154736
41	0xbce9af87	-0.02852608
42	0x3c2a876c	0.010408264
43	0xbcc4d446	-0.024027001
44	0x3c2aa0d0	0.010414317
45	0x3cede3f4	0.02903936
46	0xbca1f847	-0.019771708
47	0xbc4a58f8	-0.012350313
48	0x3d9634a4	0.07334259
49	0xbcf09e37	-0.029372318
50	0xbdf78835	-0.12086526
51	0xbbe37a8f	-0.0069421004
52	0xbc1136fa	-0.008863205
53	0xbd9b07e3	-0.07569864
54	0x3e63cc8c	0.22245997
55	0x3de278f4	0.11058226
56	0x3cdbc102	0.026825432
57	0xbe5dde01	-0.21666719
58	0x3db0b49d	0.08628199
59	0xbe4075a9	-0.18794884
60	0x3c491356	0.012272676
61	0xbe683594	-0.22676688
62	0xbd451d7d	-0.048123825
63	0x3d88ed94	0.066859394
64	0xbb48cc4d	-0.003063935
65	0x3e01402b	0.12622134
66	0xbe1a47cf	-0.15066455
67	0x3b9e29bc	0.0048267525
68	0xbe0e8012	-0.13916042
69	0xbdfb1e16	-0.12261598
70	0xbd88d158	-0.06680554
71	0x3e303918	0.1720928
72	0x3d2840ad	0.041077305
73	0x3e2cc947	0.16873656
74	0xbe290139	-0.16504373
75	0x3c26051e	0.010133056
76	0xbe84b5b7	-0.25919887
77	0x3b905a48	0.0044052936
78	0x3e41f27e	0.1894016
79	0x3ea869a8	0.3289311
80	0xbe43ddaf	-0.19127534
81	0x3b19f251	0.002349038
82	0xbdf9bd50	-0.121943116
83	0xbe592d11	-0.21208598
84	0xbd68c3b4	-0.056827262
85	0x3d3223a3	0.043491017
86	0xbe03e8f2	-0.1288183
87	0x3e78e6d8	0.2430681
88	0xbe53e6da	-0.20693532
89	0x3e2f7202	0.17133334
90	0x3e60e0cb	0.21960752
91	0xbd953f65	-0.07287482
92	0xbe3682ea	-0.17823377
93	0x3d4053ca	0.046954907
94	0xbba07ec6	-0.004897925
95	0xbd3a278d	-0.045447875
96	0x3cbcb463	0.023035234
97	0xbea50ad1	-0.32234815
98	0x3e18052e	0.14845726
99	0x3e769310	0.24079537
100	0xbdcb1c3f	-0.09917497
101	0xbdfb0815	-0.12257401
102	0x3e1db237	0.15400015
103	0xbdcd47a1	-0.10023428
104	0xbe11527c	-0.14191622
105	0x3d3601d9	0.044435356
106	0xbda0875e	-0.07838319
107	0xbdba8098	-0.091065586
108	0xbd54cf7d	-0.05195569
109	0xbe03aca5	-0.12858827
110	0xbed14b2a	-0.40877658
111	0xbed58bb1	-0.4170814
112	0xbe894eaa	-0.26817828
113	0xbea975ef	-0.3309779
114	0x3d41aee8	0.047285944
115	0x3e330c8b	0.17485254
116	0x3d81aad3	0.0633141
117	0xbdf04602	-0.11732103
118	0xbc1d6068	-0.009605505
119	0xbeac8b90	-0.33700228
120	0xbeaa986d	-0.33319417
121	0x3e454d24	0.19267708
122	0x3d401142	0.04689146
123	0x3dc6e926	0.09712438
124	0x3de4a7e8	0.11164838
125	0x3de23c7b	0.11046692
126	0x3db0012b	0.08593973
127	0xbe590f4a	-0.21197239
128	0x3cfd6960	0.030934036
129	0xbe5fbd0b	-0.21849458
130	0xbd6aa2b6	-0.05728408
131	0xbdf0c1b6	-0.117556974
132	0xbdceb86a	-0.10093768
133	0x3e44114d	0.19147225
134	0xbe721d7e	-0.23644063
135	0x3e0a9b3b	0.13535778
136	0xbe2cb572	-0.16866091
137	0xbd9e8da3	-0.07741859
138	0xbd4e34f2	-0.05034346
139	0x3e40a94e	0.18814585
140	0x3dabc7d5	0.08387724
141	0x3da9456d	0.08265195
142	0x3e1424e3	0.14467196
143	0x3d1a85fa	0.037725426
144	0xbd01d703	-0.03169919
145	0xbc00aa04	-0.007853035
146	0x3cff7d2e	0.03118762
147	0x3ca7bef7	0.020476801
148	0xb9c62b00	-0.0003779754
149	0x3d08b1e7	0.033372786
150	0xbe65000f	-0.22363304
151	0x3dae7068	0.085175335
152	0x3d465bf3	0.048427533
153	0x3ea5b298	0.3236282
154	0xbe8eae18	-0.27867198
155	0xbdd9acca	-0.1062866
156	0xbd69f772	-0.057120748
157	0xbe4d5b61	-0.2005439
158	0x3e098500	0.13429642
159	0x3d2fd2c6	0.04292562
160	0x3d8cad31	0.06868971
161	0x3cd75b41	0.02628863
162	0xbd4e0dfd	-0.05030631
163	0xbdd9d40f	-0.1063615
164	0xbe0e1027	-0.13873349
165	0xbe9113d2	-0.28335434
166	0xbe4dde9b	-0.20104448
167	0xbe7a6f3e	-0.24456498
168	0xbc89f849	-0.016842024
169	0xbd83cbef	-0.064353816
170	0xbe288b9b	-0.16459505
171	0xbe5fff77	-0.21874796
172	0x3d286e77	0.041120972
173	0x3d53e94a	0.051736154
174	0xbea48176	-0.3213002
175	0x3db4c256	0.08826129
176	0x3eaf66a7	0.34258005
177	0x3e1f455d	0.15553804
178	0x3d706240	0.05868745
179	0x3e10d19b	0.14142458
180	0xbc8cf143	-0.017204886
181	0xbe3e8493	-0.1860526
182	0xbcb7db14	-0.022443332
183	0x3dcffc73	0.10155573
184	0x3e274ede	0.16338679
185	0xbe5c1fe6	-0.21496543
186	0x3a9a92ec	0.0011793054
187	0xbe6c1e76	-0.23058495
188	0x3d5ea181	0.05435324
189	0x3c6c7918	0.014433168
190	0xbebfe73a	-0.374811
191	0x3dd02b47	0.101645045
192	0xbeae44ef	-0.34036967
193	0xbe819f74	-0.25316966
194	0x3dfde4f4	0.12397185
195	0xbca4fbf4	-0.020139672
196	0x3d275a58	0.040857643
197	0xbe63c8da	-0.22244588
198	0x3b403934	0.002933097
199	0x3d8da010	0.06915295
200	0xbe5b28df	-0.2140231
201	0x3dda9b79	0.10674185
202	0x3d2db9ac	0.0424134
203	0xbcdb438a	-0.026765604
204	0xbe25379b	-0.16134493
205	0x3c15297f	0.009104132
206	0xbe112b32	-0.14176634
207	0x3e4dc816	0.20095858
208	0xbe34c7e6	-0.1765438
209	0x3d67991c	0.0565425
210	0xbeaf249c	-0.34207618
211	0x3d6b4e77	0.057447877
212	0x3d9c07f5	0.07618705
213	0x3e1bd231	0.152169
214	0x3d02f9cc	0.031976506
215	0x3cb8be6f	0.022551743
216	0xbe04e19f	-0.12976693
217	0xbdf09f8f	-0.117491834
218	0xbd948dfb	-0.07253643
219	0xbcf96422	-0.030443255
220	0x3e6b8a0e	0.23001882
221	0x3ea78aaf	0.32722995
222	0x3da0f332	0.07858886
223	0xbdde034d	-0.10840473
224	0xbd999e79	-0.075009294
225	0x3e9d9906	0.3078081
226	0xbd70a315	-0.058749277
227	0x3dc6fcb1	0.09716166
228	0x3ce56fa1	0.02800733
229	0x3e9b2fcc	0.30309904
230	0xbdfe24e0	-0.12409377
231	0xbc25c644	-0.010118071
232	0xbd922529	-0.07135994
233	0x3e00012c	0.12500447
234	0x3dcb2192	0.099185124
235	0xbdbb6135	-0.091494
236	0xbc32b241	-0.010906757
237	0xbc5f53c6	-0.013630813
238	0x3a555cc3	0.0008139128
239	0x3e40f0ea	0.18841901
240	0x3e75ea88	0.24015248
241	0x39c17c9f	0.0003690468
242	0x3ee5a3ea	0.4485162
243	0xbdf04d70	-0.1173352
244	0xbd9dd564	-0.07706717
245	0xbe1fcc80	-0.15605354
246	0xbd6e0062	-0.058105834
247	0xbddc3fe9	-0.107543774
248	0xbc3eb75e	-0.011640398
249	0xbe4ba95d	-0.19888826
250	0xbe00b89e	-0.12570426
251	0xbd8fb9d3	-0.07017865
252	0x3c9e66cd	0.019336129
253	0xbb8414b8	-0.00403079
254	0x3da5fc19	0.081047244
255	0x3d5ecfca	0.05439738

fc1.bias f4 [128]
0	0xbd353f84	-0.044250026
1	0xbd7f7b9d	-0.062373746
2	0xbd02fc76	-0.031979047
3	0xbd42bd6f	-0.04754394
4	0xbdd15712	-0.102216855
5	0xbeafcca1	-0.34335807
6	0xbe8aad02	-0.2708512
7	0xbda6ac8e	-0.08138381
8	0xbe3296a1	-0.17440273
9	0xbdd9a46a	-0.106270626
10	0xbdfba657	-0.12287586
11	0xbe642eec	-0.22283524
12	0xbde2c967	-0.11073571
13	0xbe8576ae	-0.26067108
14	0xbde2953e	-0.11063622
15	0xbe48ab16	-0.19596514
16	0xbeb1a6bb	-0.34697518
17	0xbe4e4a7d	-0.20145603
18	0xbe12f05f	-0.14349507
19	0xbe493ab5	-0.19651301
20	0xbefed372	-0.49770695
21	0xbe35896a	-0.177282
22	0xbdd5fe57	-0.10448902
23	0xbbf32b1f	-0.007420912
24	0xbd31c283	-0.04339839
25	0xbd02f9b8	-0.03197643
26	0xbe83f92b	-0.25776038
27	0xbeb5c0b6	-0.3549859
28	0xbd4c5ce9	-0.049893294
29	0xbe97016d	-0.29493275
30	0x3c4acfdd	0.01237866
31	0xbd4f563d	-0.050619353
32	0xbceb7851	-0.028743895
33	0xbd521ba3	-0.051295888
34	0xbe16b6b2	-0.1471813
35	0xbdf80d38	-0.12111896
36	0xbdfadab6	-0.12248747
37	0xbe180398	-0.14845121
38	0xbad2525f	-0.0016046277
39	0xbd4e87ea	-0.050422587
40	0xbd2a382e	-0.041557483
41	0xbe65771f	-0.22408722
42	0xbd93367f	-0.07188129
43	0xbe466e5c	-0.19378036
44	0xbe3a5824	-0.18197685
45	0xbd7299b7	-0.059228625
46	0xbe3bc993	-0.18338613
47	0xbcd45803	-0.025920874
48	0xbe85b381	-0.26113513
49	0xbe75c10a	-0.2399942
50	0xbe0d8f83	-0.13824277
51	0xbe3cdf92	-0.1844466
52	0xbe5d8426	-0.21632442
53	0xbe6856ae	-0.22689316
54	0xbde1e3b8	-0.11029762
55	0xbe4369c1	-0.1908331
56	0xbd7fb978	-0.062432736
57	0xbd136931	-0.03598899
58	0xbc9e551b	-0.01932769
59	0xbe598622	-0.21242574
60	0xbe96d130	-0.29456472
61	0xbe6cd47a	-0.23127928
62	0xbd993f7f	-0.07482814
63	0xbe11570c	-0.14193362
64	0xbe5bf6d0	-0.2148087
65	0xbd2e8834	-0.042610362
66	0xbea5c87e	-0.32379526
67	0xbdeb6ed4	-0.11495748
68	0xbd1a6787	-0.037696388
69	0xbdb1a597	-0.08674162
70	0xbc29ca60	-0.010363191
71	0xbe95fb6e	-0.29293388
72	0xbe9dd13f	-0.30823705
73	0xbe353152	-0.17694595
74	0xbe4ba130	-0.19885707
75	0xbea47f62	-0.32128435
76	0xbdfc7afe	-0.123281464
77	0xbe6df793	-0.23238973
78	0xbdd05492	-0.101723805
79	0xbdeab572	-0.11460389
80	0xbe5a8a65	-0.21341856
81	0xbdbbadba	-0.09163995
82	0xbd15e098	-0.036591142
83	0xbe370dd8	-0.17876375
84	0xbe0494e1	-0.12947418
85	0xbdbe5670	-0.092938304
86	0x38a05aee	7.6463315e-05
87	0xbe73f982	-0.23825648
88	0xbea5a44a	-0.32351905
89	0xbdef161b	-0.11674138
90	0xbe18496b	-0.14871757
91	0xbd5ca453	-0.05386765
92	0xbd9f4bb2	-0.077781096
93	0xbe96905f	-0.2940702
94	0xbe1635bb	-0.14668934
95	0xbd0068ba	-0.031349875
96	0xbbe752a8	-0.007059414
97	0xbe95fd86	-0.29294986
98	0xbe717f8e	-0.23583815
99	0xbe11edcf	-0.14250873
100	0x3ed923bc	0.42410076
101	0xbe414c01	-0.1887665
102	0xbe2ed510	-0.17073464
103	0xbe06d0f7	-0.13165651
104	0xbdc5ff13	-0.09667792
105	0xbe37e49b	-0.179583
106	0xbd9bf3b3	-0.07614841
107	0xbe2139ba	-0.15744677
108	0xbe09da4b	-0.13462178
109	0xbe4b35f3	-0.19844799
110	0xbce153aa	-0.027505714
111	0xbc9c587d	-0.019085163
112	0xbdb4955f	-0.08817553
113	0xbc925a71	-0.017865391
114	0xbe817875	-0.25287214
115	0xbd51ba70	-0.05120319
116	0xbe6d098f	-0.23148178
117	0xbe6a436c	-0.22877282
118	0xbdb52e80	-0.0884676
119	0xbc9b466d	-0.01895448
120	0x3c4d411e	0.012527732
121	0xbe1643dc	-0.14674324
122	0xbd660348	-0.056155473
123	0xbce04b08	-0.027379528
124	0xbe4529a7	-0.1925417
125	0xbd85c0de	-0.06530927
126	0xbd9a3d90	-0.07531273
127	0xbd673c26	-0.056453846

fc2.weight f4 [7, 128]
0	0xbb112473	-0.002214697
1	0xbd8b5623	-0.06803539
2	0x3ce4c055	0.027923742
3	0x3e50a89f	0.20376824
4	0xbf023bec	-0.50872684
5	0xbf6bac8d	-0.92060167
6	0x3f9d9cde	1.2313497
7	0x3e6d14de	0.23152491
8	0x3ed7b732	0.42131954
9	0x3ee51766	0.44744414
10	0x3e5b5237	0.21418081
11	0x3ee7bc88	0.45261025
12	0x3e1010b5	0.14068873
13	0x3d609027	0.054824974
14	0x3e018d3f	0.12651537
15	0xbee6d07f	-0.45080945
16	0xbf32dc3e	-0.6986731
17	0xbe9b8d47	-0.30381224
18	0xbd6426b7	-0.055700984
19	0x3e84fc27	0.25973627
20	0xbd0329de	-0.03202235
21	0x3e923997	0.28559563
22	0x3eb1b0c9	0.3470519
23	0xbd7885ac	-0.060674354
24	0x3e4d0051	0.20019652
25	0xbd857448	-0.065163195
26	0x3f641300	0.8909149
27	0xbef8b444	-0.48575032
28	0x3e36686d	0.17813273
29	0xbf924693	-1.1427788
30	0x3e3d21f4	0.18469983
31	0x3d2d4855	0.04230531
32	0x3d5cb32a	0.0538818
33	0x3d629cd6	0.05532535
34	0x3ec41d35	0.38303533
35	0x3f6cb3b3	0.924617
36	0x3ecb45e9	0.39701775
37	0x3dc9c33d	0.09851692
38	0xbd59dc81	-0.053188805
39	0x3e0198c6	0.12655935
40	0x3e0892e4	0.13337284
41	0xbf4d8321	-0.8027821
42	0x3eb6aed6	0.35680264
43	0x3f26c723	0.6514761
44	0xbf239ed4	-0.6391423
45	0x3cf569dc	0.029957704
46	0x3ef48262	0.47755724
47	0x3e94c64e	0.29057544
48	0x3e854a67	0.26033327
49	0xbf10cbe2	-0.565611
50	0xbedc18cb	-0.42987666
51	0xbe89e816	-0.2693488
52	0x3e23334c	0.15937537
53	0x3f1db86c	0.6160953
54	0x3ebaae69	0.3646119
55	0x3f224983	0.6339342
56	0x3e186cb9	0.14885224
57	0xbd1526e4	-0.036414042
58	0xbbdb1b4c	-0.0066866037
59	0x3f4d7407	0.8025517
60	0x3e88e7f2	0.2673946
61	0xbdba71b8	-0.091037214
62	0x3da296e2	0.07938935
63	0x3e543b30	0.20725703
64	0xbf3c171d	-0.7347277
65	0xbd9d18b0	-0.076707244
66	0x3e4b7ad8	0.1987108
67	0x3df31ffa	0.118713334
68	0x3dc97776	0.098372385
69	0x3f0a81ca	0.5410429
70	0x3d1ce557	0.038304653
71	0xbea1f274	-0.3163029
72	0xbea7248a	-0.32645065
73	0xbe01f1a4	-0.12689835
74	0x3ef083a0	0.46975422
75	0xbf187560	-0.595541
76	0xbe0d8161	-0.13818885
77	0x3eefe872	0.4685703
78	0x3e16f56c	0.14742059
79	0x3d17ce99	0.03706226
80	0xbf08a58c	-0.53377604
81	0x3ea9b1d9	0.331435
82	0x3e01174f	0.12606548
83	0x3e28d4b8	0.16487396
84	0x3df5225b	0.119694434
85	0x3ea7e5b3	0.32792434
86	0x3c926c5a	0.017873932
87	0xbf1adcb4	-0.60493016
88	0xbeaad09f	-0.3336229
89	0x3e58af56	0.21160635
90	0x3e6c3c98	0.2306999
91	0x3d021ab5	0.03176375
92	0x3ee8b834	0.45453036
93	0xbeb5ad7a	-0.35483915
94	0x3eb3e7b1	0.35137704
95	0xbd36e65b	-0.044653278
96	0x3d7bb634	0.06145306
97	0xbe30e9f5	-0.17276748
98	0xbe9e9300	-0.30971527
99	0xbf0ff0ed	-0.56227
100	0xbe4a9f04	-0.19787222
101	0x3d773743	0.060355436
102	0x3ed4c7ea	0.41558772
103	0x3ea91d1c	0.3303002
104	0xbf050347	-0.51958126
105	0xbed958fc	-0.42450702
106	0x3e3c0695	0.18361886
107	0x3f199ed9	0.6000801
108	0x3eba6d2c	0.36411417
109	0xbda3d659	-0.07999868
110	0x3d7617d3	0.060081314
111	0xbc9960dd	-0.018722946
112	0x3db9cf2c	0.09072718
113	0x3da6644e	0.081246
114	0xbe896e1b	-0.26841816
115	0xbc81111f	-0.015755234
116	0x3f1e9764	0.61949754
117	0xbf0bafbe	-0.54565036
118	0x3e306844	0.17227274
119	0xbd66359d	-0.056203473
120	0x3cce1b7e	0.025159594
121	0x3ee143fb	0.43997177
122	0x3e24cda1	0.16094066
123	0x3d20610e	0.03915506
124	0xbf24d176	-0.6438211
125	0xbc98215f	-0.0185706
126	0x3e70296c	0.23453301
127	0x3ec2209a	0.37915498
128	0xbeb85fe5	-0.36010662
129	0x3e3790c2	0.17926314
130	0xbd2e7c2d	-0.042598892
131	0x3eb3d3ba	0.35122472
132	0x3e46e197	0.19421993
133	0xbed819e6	-0.4220726
134	0x3de2029c	0.11035654
135	0x3f0d4a9f	0.5519199
136	0x3e7a9e28	0.24474394
137	0x3f237746	0.6385387
138	0x3e488eef	0.19585775
139	0x3ebf7526	0.37394065
140	0x3d114088	0.035461932
141	0xbfad6a1a	-1.3548005
142	0x3e329d50	0.17442822
143	0x3e2b1e3b	0.16710751
144	0xbea6867b	-0.32524475
145	0xbed6f6e9	-0.41985252
146	0xbed33fe2	-0.41259676
147	0x3e5e95ca	0.21736827
148	0xbe2235dd	-0.1584086
149	0xbe7644f4	-0.24049741
150	0x3eb719e1	0.35761932
151	0xbd89a1a0	-0.06720281
152	0x3e6b7475	0.22993644
153	0xbd26f226	-0.040758274
154	0xbea080ef	-0.3134837
155	0xbeb4e4eb	-0.353309
156	0x3e99862d	0.2998518
157	0xbe74899c	-0.23880619
158	0x3e4c6acb	0.19962613
159	0xbd038dbe	-0.032117598
160	0xbbdfabd0	-0.0068259016
161	0x3c7a3c09	0.015273103
162	0xbe30525a	-0.17218915
163	0x3ea31d74	0.31858408
164	0x3e25934c	0.1616947
165	0x3e842841	0.2581196
166	0xbd403558	-0.046925873
167	0x3e514d30	0.20439601
168	0xbd04ea37	-0.032449927
169	0x3e3ff70f	0.18746589
170	0x3e3a42c1	0.18189527
171	0x3f0130e7	0.50465244
172	0x3ea34bb6	0.318937
173	0x3b22bda3	0.002483227
174	0xbf11ab80	-0.56902313
175	0x3e103346	0.1408206
176	0xbe997c04	-0.2997743
177	0x3ec5f3ea	0.38662654
178	0x3e58b851	0.21164061
179	0x3e994062	0.29931933
180	0x3ec31cba	0.38107854
181	0x3f206a86	0.6266254
182	0x3ea81171	0.32825807
183	0xbf3d7b1d	-0.7401598
184	0x3e065ae8	0.13120615
185	0x3c5f01f6	0.013611307
186	0x3d7b95e5	0.061422247
187	0xbf25edc9	-0.64815956
188	0xbdbc3039	-0.09188885
189	0xbdc9131f	-0.098181
190	0x3e287eb5	0.16454585
191	0x3f00ebb1	0.50359637
192	0xbe7910f0	-0.24322867
193	0x3b0e9920	0.002175875
194	0xbe96d978	-0.2946279
195	0x3e34985c	0.17636245
196	0x3e83100f	0.2559819
197	0xbc5e751f	-0.0135777285
198	0x3d93cd63	0.07216909
199	0xbe48ac2e	-0.19596931
200	0xbd717555	-0.058949787
201	0xbe9dcad2	-0.30818802
202	0x3eaf9e51	0.34300473
203	0x3e6d5673	0.23177509
204	0x3e55e2ea	0.20887342
205	0x3e03b100	0.12860489
206	0x3ea0c951	0.31403592
207	0x3e205106	0.15655908
208	0xbed7640c	-0.42068517
209	0x3e6ec5cc	0.23317641
210	0xbf055b91	-0.52092844
211	0xbe634dc7	-0.22197638
212	0x3ea50f66	0.3223831
213	0x3e76927b	0.24079315
214	0x3d857ada	0.06517573
215	0xbb2e28ad	-0.0026574538
216	0xbe801e47	-0.250231
217	0x3e69e91f	0.22842835
218	0x3ec81691	0.39079717
219	0x3d155777	0.036460366
220	0xbde58811	-0.11207593
221	0xbef95080	-0.4869423
222	0xbddfc4c1	-0.109262
223	0xbc382ece	-0.011241628
224	0x3c9ea977	0.019367917
225	0xbe5c135f	-0.21491764
226	0x3d33058a	0.043706454
227	0x3cdef24c	0.027215146
228	0xbe459ca3	-0.19298033
229	0x3e765433	0.24055557
230	0x3eaea772	0.34112126
231	0x3eaf5593	0.34244975
232	0x3e013695	0.12618478
233	0x3f0fb7ac	0.56139636
234	0x3dfb4134	0.12268296
235	0x3ed513da	0.41616708
236	0x3e8512a4	0.25990784
237	0x3e6ec850	0.233186
238	0xbb72bee0	-0.003704004
239	0xbd42019c	-0.047364816
240	0x3e5c3876	0.21505913
241	0x3d0440c2	0.03228832
242	0xbea1aee8	-0.31578755
243	0x3ce456dc	0.027873449
244	0x3e57b778	0.21066082
245	0xbea505f5	-0.32231107
246	0x3ecf13a4	0.40444672
247	0x3d42c242	0.04754854
248	0xbd16d100	-0.03682041
249	0xbe98bfcd	-0.29833832
250	0xbdd17601	-0.102275856
251	0x3c05b966	0.008161878
252	0x3de2f64a	0.11082132
253	0xbc4b53ac	-0.012410086
254	0x3efbade2	0.491561
255	0x3ea95c8e	0.33078426

fc2.bias f4 [7]
0	0x3e54b2ee	0.20771381
1	0x3e884e91	0.2662244
2	0x3e5eb341	0.21748067
3	0x3e969c36	0.29416054
4	0x3e3dcfc9	0.18536295
5	0x3e856e08	0.2606051
6	0x3e8c2c49	0.27377537
