models/double_dql_negamax_1e.pt (torch, 536616 bytes, 8 tensors)

conv1.weight f4 [64, 1, 4, 4]
0	0xbf92816a	-1.1445744
1	0x3d22b3a5	0.039722104
2	0x3d36a1eb	0.04458801
3	0xbf58dc86	-0.8471149
4	0x3e39ffe5	0.18164022
5	0x3d5ff885	0.054680366
6	0xbd32dd32	-0.04366798
7	0xbe3d23f9	-0.18470754
8	0x3e08f141	0.13373281
9	0x3eabcffb	0.33557114
10	0x3e75fe0f	0.24022697
11	0xbd992e3f	-0.07479524
12	0xbe24795e	-0.16061923
13	0xbed118dd	-0.40839282
14	0xbe0fbf08	-0.14037716
15	0xbd1ac1f1	-0.037782613
16	0x3efd393e	0.49457735
17	0x3e23b9c1	0.15988828
18	0xbe84e9f5	-0.25959745
19	0xbec46e54	-0.38365424
20	0xbebd9296	-0.370259
21	0xbe85281b	-0.2600716
22	0x3d9f669d	0.07783244
23	0xbc889bda	-0.016675878
24	0x3dbb7f1d	0.09155104
25	0x3c1e5f44	0.009666268
26	0x3df7f395	0.121070065
27	0x3ea1fe69	0.31639412
28	0xbe89df74	-0.26928294
29	0x3e61d5d6	0.22054228
30	0x3d2f2477	0.042759385
31	0xbe4d7190	-0.20062852
32	0x3d6af783	0.05736495
33	0x3d1d7826	0.03844466
34	0xbd9b0da9	-0.07570965
35	0x3e90ad8c	0.28257406
36	0xbd92f66d	-0.07175908
37	0xbd91d992	-0.07121576
38	0xbd90718f	-0.070529096
39	0xbeee02bc	-0.4648646
40	0x3e799699	0.24373855
41	0xbe87b451	-0.26504758
42	0x3db423d1	0.08795894
43	0x3d4d8ea8	0.050184876
44	0xbf0244ad	-0.5088604
45	0x3e93a054	0.28833258
46	0x3e43be4f	0.19115566
47	0x3e7db026	0.24774227
48	0x3d54b35f	0.051928874
49	0x3df1d123	0.11807468
50	0x3d030588	0.031987697
51	0x3cd22aba	0.02565514
52	0x3dbd0ec8	0.09231335
53	0x3e22360e	0.15840933
54	0xbe975d7f	-0.2956352
55	0x3e536664	0.20644528
56	0xbe07f985	-0.13278778
57	0xbd8ae4d9	-0.067819305
58	0x3e16dca7	0.1473261
59	0x3ef91b53	0.4865366
60	0xbe286dd2	-0.16448143
61	0xbed64551	-0.4184976
62	0xbba09968	-0.0049011
63	0xbf2b29f9	-0.6686092
64	0x3f082a69	0.5318971
65	0xbe80cbc8	-0.25155473
66	0x3d28aae0	0.041178584
67	0x3ec5c74e	0.3862862
68	0xbe224689	-0.1584722
69	0x3e7a0c64	0.24418789
70	0xbedc9494	-0.43082106
71	0xbebbc851	-0.36676267
72	0x3e16e500	0.14735794
73	0xbe6a9d4b	-0.22911565
74	0x3dbd606a	0.09246905
75	0xbc304d56	-0.010760626
76	0xbf0b17c7	-0.54333156
77	0x3da0ec36	0.07857554
78	0xbde1de53	-0.11028733
79	0x3d56c068	0.052429587
80	0x3e36a00e	0.17834494
81	0x3d93eb71	0.07222641
82	0x3e25ec28	0.16203368
83	0x3e41437f	0.18873404
84	0x3dee3134	0.116304785
85	0x3eb997a6	0.3624851
86	0x3e6b650f	0.2298777
87	0xbf13040a	-0.5742804
88	0xbe9fc379	-0.3120382
89	0xbd961f7c	-0.07330224
90	0xbe8698d9	-0.26288489
91	0x3e0e3a23	0.13889365
92	0xbde8d05a	-0.11367865
93	0xbe32279c	-0.17397922
94	0x3d067548	0.032826692
95	0x3e5a8d7d	0.21343036
96	0xbec45031	-0.3834243
97	0xbe3a0303	-0.18165211
98	0x3d14ff05	0.036376018
99	0x3eec8de1	0.46201995
100	0xbf28ce0a	-0.6593939
101	0x3bf31f96	0.007419537
102	0x3e97e6d5	0.29668298
103	0xbf186747	-0.5953259
104	0x3dc31e89	0.095273085
105	0x3e79e858	0.24405038
106	0x3dc52576	0.09626286
107	0x3d9f9b2c	0.077932686
108	0x3d977022	0.073944345
109	0xbce25624	-0.027628966
110	0xbeeec6f3	-0.4663616
111	0xbe043c67	-0.12913667
112	0xbde7a2e6	-0.11310367
113	0xbbf2a5e5	-0.00740503
114	0x3c036b6e	0.008021219
115	0xbea47ed2	-0.32128006
116	0x3f1467e0	0.57971
117	0xbe36a9f7	-0.17838274
118	0x3caabca4	0.020841904
119	0x3ea4812f	0.3212981
120	0xbd90d91a	-0.07072659
121	0x3d9940a2	0.07483031
122	0x3dafb07c	0.085785836
123	0xbeb70ac0	-0.3575039
124	0xbce932ea	-0.02846666
125	0x3d7f121f	0.06227314
126	0x3ed036cd	0.4066681
127	0xbe8dbc90	-0.27682924
128	0xbedaecd0	-0.427588
129	0xbd01c72d	-0.03168409
130	0x3ea3ce2e	0.3199324
131	0xbdfeddda	-0.124446586
132	0x3e72487c	0.23660463
133	0x3d4c6506	0.04990103
134	0xbeaa59d8	-0.3327167
135	0x3e22fea9	0.15917458
136	0xba75525a	-0.00093582796
137	0x3ea1a7ca	0.31573325
138	0x3dcc25c1	0.099681385
139	0x3ea13449	0.31485203
140	0xbe92cb2b	-0.2867063
141	0xbe03b6af	-0.12862657
142	0xbe63fe64	-0.22265011
143	0xbf015ec6	-0.5053524
144	0xbf4e20df	-0.8051891
145	0xbe32f04e	-0.17474481
146	0xbed61fad	-0.41821042
147	0xbf83adfb	-1.028747
148	0xbe8e887a	-0.27838498
149	0x3d69f9bd	0.057122935
150	0xbb9b5db5	-0.0047413954
151	0x3d39e96a	0.045388617
152	0x3cb8e3fd	0.02256965
153	0xbd929b25	-0.07158498
154	0xbdb7b296	-0.089696094
155	0x3e1e2d30	0.15446925
156	0xbbbb93cc	-0.005724406
157	0xbe0920b1	-0.13391377
158	0x3d9b57b3	0.07585087
159	0x3ce6c709	0.02817108
160	0xbff886d7	-1.941615
161	0xbcd9fb3d	-0.026609058
162	0x3e096eee	0.13421223
163	0xbe424031	-0.189698
164	0xbe251283	-0.16120343
165	0x3d4cafcd	0.049972344
166	0xbb867a2b	-0.004103919
167	0x3dff9343	0.1247926
168	0xbe09b926	-0.13449535
169	0x3e33c643	0.175561
170	0x3e6db903	0.23215108
171	0xbcb78677	-0.022402985
172	0x3e0185ec	0.12648743
173	0x3de78304	0.11304286
174	0x3bb8ea2f	0.0056431512
175	0x3ddc0893	0.10743823
176	0x3eccfd95	0.40037218
177	0xbe32b78e	-0.17452833
178	0x3e803dc0	0.25047112
179	0xbe8ec917	-0.27887794
180	0x3ea7528c	0.32680166
181	0xbde9cb1e	-0.11415695
182	0x3cef1598	0.029185101
183	0x3eafb169	0.3431504
184	0xbeaee288	-0.34157205
185	0xbeeb81bf	-0.45997426
186	0xbd7c6d66	-0.061627768
187	0xbdfcd3df	-0.12345099
188	0xbe4ec17b	-0.20190994
189	0x3debfedf	0.11523222
190	0xbe2b2350	-0.1671269
191	0xbb8aa9f8	-0.0042316876
192	0xbea059d8	-0.31318545
193	0xbf060fa3	-0.5236761
194	0xbbad8c06	-0.005296233
195	0xbe8759bb	-0.26435646
196	0x3e764354	0.24049121
197	0xbf502865	-0.8131164
198	0x3e7ca7c5	0.24673374
199	0xbf1eb7b0	-0.61999035
200	0xbdf0e714	-0.11762825
201	0x3d016509	0.031590495
202	0x3d7993a6	0.060931824
203	0x3dcec529	0.10096199
204	0xbe0fbaae	-0.14036056
205	0x3da5a6ea	0.08088477
206	0xbebc9f04	-0.3684007
207	0x3e85e596	0.26151723
208	0xbdf87397	-0.12131422
209	0xbcdaa5f8	-0.026690468
210	0x3d8cc00e	0.06872569
211	0xbf271253	-0.65262336
212	0xbe76cc33	-0.24101333
213	0xbdab5866	-0.0836647
214	0xbe081007	-0.13287364
215	0x3e73fbe7	0.23826562
216	0x3e8befd7	0.2733142
217	0xbeb66009	-0.35620144
218	0x3dc12e03	0.09432604
219	0x3d9ed4ad	0.077554084
220	0xbec6a87e	-0.38800424
221	0xbf181879	-0.5941234
222	0x3db49919	0.088182636
223	0xbed42701	-0.41436008
224	0xbf204d53	-0.6261799
225	0x3ec719d1	0.38886884
226	0x3cb2307d	0.021751637
227	0x3eaa09a8	0.33210492
228	0x3d9eb9ed	0.07750306
229	0x3e020dcb	0.12700574
230	0x3dbc0349	0.09180314
231	0x3c43fd37	0.011962227
232	0xbdde8e77	-0.10867017
233	0xbe1d9af9	-0.15391149
234	0x3caa8ebd	0.020820016
235	0xbee4e9b6	-0.44709557
236	0xbeb739dd	-0.35786334
237	0xbedc30b1	-0.430059
238	0x3deed18b	0.11661061
239	0xbe87fc7d	-0.2655982
240	0xbddabff7	-0.10681146
241	0xbdcaa978	-0.09895605
242	0xbd6f5eb5	-0.05843993
243	0xbeb9ed14	-0.3631369
244	0x3ea0855a	0.3135174
245	0xbdd89c8c	-0.10576734
246	0x3ea340bb	0.31885323
247	0xbe232507	-0.15932094
248	0xbdafdbdb	-0.08586856
249	0x3dc68bfa	0.09694667
250	0xbde73b6f	-0.11290633
251	0x3d2d200b	0.042266887
252	0x3e5f0bce	0.21781847
253	0xbc3b8e55	-0.011447509
254	0xbe4eb374	-0.20185643
255	0xbf2425e6	-0.6412033

conv1.bias f4 [64]
0	0xbe3b316f	-0.18280576
1	0xbeba8cf4	-0.36435664
2	0xbf2a6e91	-0.6657496
3	0x3df2427d	0.11829088
4	0xbe80cad5	-0.2515475
5	0x3d8ef48e	0.06980239
6	0xbe7bad36	-0.24577793
7	0xbd86c4d1	-0.065805085
8	0xbebf7ff1	-0.374023
9	0x3efb0417	0.49026558
10	0x3f750167	0.95705265
11	0xbed9c1d2	-0.42530686
12	0xbe9a1d03	-0.3010026
13	0x3e65e802	0.22451785
14	0xbd2e3934	-0.042535022
15	0xbec448e6	-0.38336867
16	0xbe96f499	-0.29483488
17	0xbf0d318f	-0.55153745
18	0xbead3324	-0.3382808
19	0xbf11c047	-0.56934017
20	0xbd8932cb	-0.06699141
21	0xbe20cb03	-0.15702443
22	0xbe0e6c9c	-0.13908619
23	0xbf34036d	-0.7031773
24	0xbe89adab	-0.2689031
25	0xbe5f690a	-0.21817413
26	0xbeb30039	-0.34961107
27	0xbf05bc5d	-0.52240545
28	0xbe8eaf86	-0.2786829
29	0x3e38a634	0.18032151
30	0xbc93723d	-0.017998809
31	0xbdaec3a8	-0.08533412
32	0xbeba63aa	-0.36404163
33	0xbe85a537	-0.2610261
34	0xbf251e06	-0.6449894
35	0xbf455535	-0.7708314
36	0x3de05eb9	0.10955567
37	0xbf2e07eb	-0.6798083
38	0xbe3e4a36	-0.18582997
39	0xbe3bb578	-0.18330944
40	0xbf34ab01	-0.7057343
41	0xbec75a5d	-0.3893613
42	0xbe4ed344	-0.20197779
43	0xbd8b1dd1	-0.067927964
44	0xbe86aae5	-0.26302257
45	0xbf15c73c	-0.5850713
46	0xbeee7575	-0.46573988
47	0xbe9c9048	-0.30578828
48	0xbecb8ee4	-0.39757454
49	0xbf4577be	-0.7713584
50	0xbe9053f9	-0.28189066
51	0x3e2e4d47	0.17021666
52	0xbf102c32	-0.56317437
53	0xbe9f167b	-0.3107184
54	0x3e750a05	0.23929603
55	0xbf16ac5e	-0.5885676
56	0xbf63e47b	-0.8902051
57	0x3b088cfd	0.0020835989
58	0xbec7c0ce	-0.39014286
59	0xbf06bda0	-0.52633095
60	0xbf059267	-0.5217652
61	0xbeca29b9	-0.39484957
62	0xbf06f49d	-0.52717
63	0xbef3e222	-0.47633463

conv2.weight f4 [128, 64, 2, 2]
0	0xbea9e941	-0.3318577
1	0xbdc4ab35	-0.09602968
2	0xbe8ea657	-0.27861282
3	0xbd1bd38e	-0.03804355
4	0xbefbf300	-0.49208832
5	0x3ced7f2f	0.02899131
6	0xbecb02ed	-0.3965067
7	0x3e1559d0	0.14585042
8	0x3f36d9e2	0.7142621
9	0xbf0718f3	-0.52772444
10	0x3e98661f	0.29765412
11	0x3eb17dee	0.3466639
12	0xbd658b06	-0.056040786
13	0xbe95b30f	-0.29238173
14	0x3e9ceb48	0.30648255
15	0xbe4a2e67	-0.19744264
16	0xbec4ac76	-0.38412827
17	0xbf5277fc	-0.8221433
18	0x3dbbf066	0.09176712
19	0x3de05163	0.10953023
20	0xbe80a9da	-0.25129586
21	0xbe7d992b	-0.2476546
22	0xbf086df9	-0.53292805
23	0x3e8b3d0d	0.27195016
24	0x3f0844e7	0.53230137
25	0x3e3ee39d	0.18641515
26	0xbeeb663b	-0.45976433
27	0x3e80876b	0.25103316
28	0x3e2b580d	0.16732807
29	0x3e6ae240	0.2293787
30	0x3dbe6ccd	0.09298096
31	0x3d7081bd	0.058717478
32	0x3f4f316e	0.809348
33	0x3e981641	0.29704478
34	0x3b01f2d3	0.0019828572
35	0xbedaa793	-0.42705974
36	0xbe276888	-0.1634847
37	0x3dfeda9e	0.12444042
38	0xbe96c209	-0.29444912
39	0xbf819538	-1.0123663
40	0x3d9b5b57	0.07585781
41	0xbe206e46	-0.15667066
42	0x3e3b5c98	0.1829704
43	0xbe9e8ff4	-0.30969203
44	0xbf567fbf	-0.83788675
45	0x3f11cb19	0.5695053
46	0xbf38180b	-0.71911687
47	0x3f0c4193	0.5478756
48	0x3e174169	0.14771046
49	0x3ebc262c	0.36747873
50	0x3ef13f0d	0.47118416
51	0x3e9ba506	0.3039934
52	0x3e59e094	0.21277076
53	0x3e4ba79b	0.19888155
54	0x3e32e34c	0.1746952
55	0xbf87da23	-1.0613445
56	0xbdc7f2af	-0.09763085
57	0xbd512b68	-0.051066786
58	0x3efab057	0.48962662
59	0x3d33a3c7	0.043857362
60	0x3f52e33c	0.8237798
61	0x3efdc624	0.49565232
62	0x3eb67e62	0.35643297
63	0xbe45fc32	-0.19334486
64	0x3f144c3d	0.5792883
65	0x3f5f738c	0.87285686
66	0xbeceeebc	-0.40416515
67	0xbf02cf28	-0.51097345
68	0xbead6ea9	-0.3387349
69	0xbe7fa301	-0.24964525
70	0xbed3e897	-0.4138839
71	0x3d9966cd	0.07490311
72	0x3ec100a6	0.37695807
73	0x3e95202f	0.29126117
74	0x3e976837	0.29571697
75	0x3d2befab	0.041976612
76	0xbf60685a	-0.8765923
77	0x3f1d8225	0.6152671
78	0x3f2f9819	0.6859146
79	0x3f975e0c	1.1825576
80	0xbdf11ca1	-0.11773039
81	0xbd0ae672	-0.033911176
82	0x3e33a751	0.17544295
83	0x3eae094a	0.33991462
84	0x3f3da4ad	0.740794
85	0xbf00f169	-0.5036836
86	0xbf176815	-0.5914319
87	0xbec1686e	-0.37774986
88	0x3ed0a37e	0.40749735
89	0x3e84b749	0.25921085
90	0x3e51d8d5	0.20492871
91	0xbe1a4a57	-0.15067421
92	0xbe93654c	-0.2878822
93	0xbcd103ce	-0.02551451
94	0x3e89a75e	0.26885504
95	0x3f5d24ec	0.86384463
96	0xbf41762d	-0.75570947
97	0xbed02a41	-0.40657237
98	0x3ebffc70	0.37497282
99	0xbe9d3920	-0.30707645
100	0xbd69ff57	-0.057128277
101	0x3d8d50fa	0.06900211
102	0x3e3d05c7	0.18459235
103	0xbdb5bb00	-0.08873558
104	0x3c75f362	0.01501164
105	0xbe3ed7d8	-0.18637025
106	0x3cec8eb8	0.028876647
107	0x3e113adf	0.14182614
108	0xbee94524	-0.45560563
109	0x3f34ea11	0.70669657
110	0x3eb051d2	0.34437424
111	0x3e4e96ab	0.20174663
112	0x3dee0505	0.11622051
113	0x3d609ea1	0.05483878
114	0xbc2cdd2d	-0.010550779
115	0xbe564b85	-0.20927246
116	0x3d5f907c	0.05458115
117	0x3e8e64d2	0.27811295
118	0x3e5dd24b	0.21662252
119	0x3e60da13	0.21958189
120	0xbd09c3ef	-0.033634122
121	0x3e6b8a7f	0.23002051
122	0x3dc078f5	0.09398071
123	0x3e61d101	0.22052385
124	0xbe9fb208	-0.31190515
125	0x3ebf6748	0.37383485
126	0xbe7e68b8	-0.24844635
127	0xbee511e4	-0.44740212
128	0x3e7a3d5b	0.24437468
129	0xbf1baabc	-0.60807395
130	0x3e626287	0.22107898
131	0xbe965de0	-0.29368496
132	0x3e1c57d7	0.15267883
133	0x3e33f287	0.17572986
134	0x3d8dbe1e	0.069210276
135	0x3f2b6342	0.6694833
136	0x3f974ae7	1.1819733
137	0xbf56026c	-0.83597445
138	0xbe11fd88	-0.14256871
139	0x3da9be64	0.08288267
140	0x3f09f157	0.5388388
141	0xbdf30178	-0.118655145
142	0xbd6e2276	-0.058138333
143	0xbd93f1f6	-0.07223885
144	0x3de1cc52	0.11025299
145	0x3d8901f1	0.066898234
146	0x3ec5e9d9	0.38654974
147	0xbe8c9bd3	-0.27462634
148	0xba420607	-0.0007401411
149	0x3ead0a07	0.33796713
150	0x3f24f3ef	0.64434713
151	0x3ed11e06	0.4084322
152	0x3b15b7cc	0.0022845147
153	0xbd00d62e	-0.031454258
154	0xbed40261	-0.41408065
155	0x3e84f14b	0.25965342
156	0x3e07606c	0.13220376
157	0xbe3c3527	-0.18379651
158	0xbf170462	-0.5899106
159	0xbe13bc04	-0.14427191
160	0x3e65b9ee	0.22434208
161	0xbf4017d6	-0.7503637
162	0x3ea79e68	0.32738042
163	0xbe30f9dd	-0.17282815
164	0xbd691998	-0.056909174
165	0x3e34f204	0.17670447
166	0x3e95b069	0.29236153
167	0x3f2249d6	0.63393915
168	0xbed8ed81	-0.423687
169	0xbe10e563	-0.14150004
170	0xbe9073d1	-0.2821336
171	0xbe66a710	-0.22524667
172	0x3d923df3	0.07140722
173	0x3d85cf9e	0.065337405
174	0xbdf252b5	-0.11832181
175	0xbecb091b	-0.39655384
176	0xbdf18a1a	-0.11793919
177	0xbed4abfe	-0.4153747
178	0x3e8d45d5	0.2759234
179	0x3e7b0be7	0.24516259
180	0x3f282ac7	0.65690273
181	0xbed5b8f1	-0.41742662
182	0x3ee030a0	0.43787098
183	0xbf2a6ea3	-0.6657507
184	0xbe124d6e	-0.1428735
185	0x3e8d9340	0.27651405
186	0xbe6a32be	-0.22870919
187	0x3ecdac3c	0.40170467
188	0x3e4fa3c4	0.20277315
189	0x3e57cd36	0.21074376
190	0xbef5e93a	-0.480295
191	0x3e9593b1	0.29214242
192	0x3ce8c317	0.028413339
193	0xbecd5584	-0.40104306
194	0x3e6f23f8	0.23353565
195	0xbebb4b2f	-0.36580798
196	0xbce90b8e	-0.028447893
197	0x3e950b69	0.29110268
198	0x3ed98762	0.424861
199	0xbf4f9a9b	-0.81095284
200	0x3f29f9f5	0.6639703
201	0x3f4a8388	0.7910695
202	0x3eaaebbe	0.33382982
203	0xbdd62c03	-0.10457613
204	0x3e6874f9	0.22700872
205	0xbbd2ca7b	-0.006432829
206	0xbd5925f7	-0.05301472
207	0x3e27feef	0.16405843
208	0x3f0b9069	0.5451723
209	0x3e725d7b	0.23668472
210	0x3df90397	0.12158888
211	0xbf1a75a6	-0.6033577
212	0xbe8f822b	-0.28028998
213	0xbdcfd2ca	-0.10147627
214	0xbdb5df05	-0.08880428
215	0xbecf21a3	-0.4045535
216	0xbefff057	-0.49988052
217	0xbe9e23c5	-0.30886665
218	0xbe08db56	-0.1336492
219	0x3f13481d	0.5753191
220	0x3ed89dc5	0.4230787
221	0x3f15a39d	0.5845278
222	0xbd863d92	-0.06554712
223	0x3e49e4ce	0.19716188
224	0xbdcb6494	-0.09931293
225	0x3dce8d59	0.10085554
226	0x3f16fec9	0.5898252
227	0x3f248bd8	0.64275885
228	0x3d2c0c1d	0.04200374
229	0x3edebd74	0.43503916
230	0x3e679466	0.22615203
231	0xbd15c72e	-0.036566906
232	0x3e5d5378	0.21613872
233	0xbd97ad7f	-0.07406139
234	0x3d38e5d9	0.045141075
235	0xbe087e2e	-0.13329384
236	0xbed84525	-0.42240253
237	0x3ebd7f65	0.37011257
238	0x3e5cc37c	0.21558946
239	0x3f0e27b1	0.55529314
240	0xbf8dedcf	-1.1088198
241	0x3da8013b	0.0820336
242	0x3ea10539	0.31449297
243	0x3c2dcfeb	0.010608654
244	0x3d78bd2f	0.060727295
245	0xbd0a38fe	-0.03374576
246	0x3d466e9f	0.04844534
247	0x3e85d782	0.26140982
248	0x3e6f162d	0.23348303
249	0x3f1ab572	0.60433114
250	0x3e37d589	0.17952551
251	0x3f1e6fea	0.6188952
252	0x3f44115c	0.7658899
253	0x3e2e1e87	0.17003833
254	0x3e1ecf08	0.15508664
255	0xbec3beb0	-0.3823142

conv2.bias f4 [128]
0	0xbe57dcac	-0.21080273
1	0xbeffd131	-0.49964288
2	0xbef14703	-0.4712449
3	0xbf0c5989	-0.5482412
4	0xbf2407e7	-0.6407456
5	0xbe17514e	-0.14777109
6	0xbee5623b	-0.44801506
7	0xbedf9aac	-0.43672693
8	0xbeffbbe7	-0.49948046
9	0xbf2f21b5	-0.6841081
10	0xbec95585	-0.3932306
11	0x3d997f09	0.07494933
12	0xbb7c4fe7	-0.0038499774
13	0xbf025a22	-0.5091878
14	0xbec5ff00	-0.38671112
15	0xbee90210	-0.45509386
16	0x3f0bdc7e	0.5463332
17	0xbf034f22	-0.5129262
18	0xbed97b84	-0.42477047
19	0xbef12fc0	-0.47106743
20	0xbf3630d2	-0.71168244
21	0xbf23b514	-0.6394818
22	0xbd5fe3aa	-0.054660477
23	0xbf1a0ce1	-0.601759
24	0xbe8dfff0	-0.27734327
25	0xbeed2241	-0.46315196
26	0xbf1ebad5	-0.62003833
27	0xbf2e5aed	-0.6810749
28	0xbeaf1f96	-0.34203786
29	0xbf1bd115	-0.6086591
30	0xbf54638a	-0.82964385
31	0xbf3bc8cb	-0.7335326
32	0xbee2b242	-0.44276625
33	0xbf5e1c1d	-0.8676165
34	0xbeee47d3	-0.46539173
35	0xbec88769	-0.3916581
36	0xbf16242b	-0.5864894
37	0xbf4520b5	-0.7700303
38	0xbf171e60	-0.59030724
39	0xbf25f62b	-0.6482875
40	0xbf208268	-0.62698984
41	0xbe82484d	-0.25445786
42	0xbf350ffd	-0.7072752
43	0xbe936c40	-0.28793526
44	0xbf28e6a0	-0.65976906
45	0xbf17fa6b	-0.5936648
46	0xbf5292c2	-0.82255185
47	0xbefaf5a3	-0.4901553
48	0xbf1300b2	-0.57422936
49	0xbf41ed00	-0.7575226
50	0xbe6cf030	-0.231385
51	0xbdc12e44	-0.094326526
52	0xbf0364b5	-0.5132554
53	0xbf2dda50	-0.67911243
54	0xbefc7204	-0.49305737
55	0xbf1c409e	-0.610361
56	0xbf245d17	-0.64204544
57	0xbf1a7322	-0.6033193
58	0x3f70971e	0.93980587
59	0xbf320409	-0.6953741
60	0xbea6e52f	-0.32596728
61	0xbf1f535a	-0.6223656
62	0xbea48213	-0.3213049
63	0xbef335dc	-0.4750203
64	0xbe5e465b	-0.21706526
65	0xbf1426d5	-0.5787175
66	0xbec3c13b	-0.3823336
67	0xbe9d65a9	-0.30741623
68	0xbe020f30	-0.12701106
69	0xbf1318cb	-0.57459706
70	0xbef6babd	-0.48189345
71	0xbef43546	-0.47696894
72	0xbed9a48e	-0.42508358
73	0xbefd36a7	-0.4945576
74	0xbf1ff86d	-0.6248844
75	0xbf26a718	-0.65098715
76	0xbec4afa3	-0.3841525
77	0xbf2ac359	-0.66704327
78	0xbed46904	-0.4148637
79	0xbf3088ab	-0.6895854
80	0xbf6322ea	-0.8872515
81	0xbf11d8f5	-0.56971675
82	0xbe477d8a	-0.19481483
83	0xbebfdc82	-0.37472922
84	0xbf1778cc	-0.59168696
85	0xbe54167d	-0.20711704
86	0xbe956fd6	-0.29186887
87	0xbe3e1e2b	-0.18566196
88	0xbf1f5845	-0.62244064
89	0xbf133eef	-0.57517904
90	0x3f174afa	0.5909878
91	0xbe91481f	-0.28375337
92	0xbf21e321	-0.63237196
93	0xbf182032	-0.59424126
94	0xbeca4dba	-0.39512426
95	0xbf2f349c	-0.6843965
96	0xbea3624c	-0.31910932
97	0xbf84e003	-1.0380863
98	0xbf207f57	-0.62694305
99	0xbf14a611	-0.580659
100	0xbe865a6f	-0.2624087
101	0xbefcdc57	-0.49386856
102	0xbf275d68	-0.653769
103	0xbeb81b38	-0.35958266
104	0xbe8950ad	-0.26819363
105	0x3d8821b1	0.06647051
106	0xbe998d68	-0.29990697
107	0xbf1e4142	-0.61818326
108	0xbe78b939	-0.24289407
109	0xbced61e6	-0.028977346
110	0xbf248906	-0.6427158
111	0xbf657599	-0.89632565
112	0xbf06c4f3	-0.5264427
113	0xbe47e8df	-0.19522427
114	0xbf16196f	-0.5863256
115	0xbefab51c	-0.489663
116	0x3ed2dcb1	0.41184
117	0xbed04c09	-0.4068301
118	0xbe139690	-0.14412904
119	0xbf088d69	-0.53340775
120	0xbe55ef88	-0.20892155
121	0xbf2038ec	-0.62586856
122	0xbf0bdb70	-0.5463171
123	0xbf425493	-0.759103
124	0xbf017327	-0.50566334
125	0xbe8c0bdd	-0.273528
126	0xbf324e9b	-0.6965119
127	0xbf4eca0c	-0.8077705

fc1.weight f4 [128, 768]
0	0xbc127433	-0.008938837
1	0xbcb8481d	-0.022495324
2	0x3bd763bf	0.00657317
3	0xbbe1ca8c	-0.0068906005
4	0x3cd2a532	0.025713537
5	0xbca4d993	-0.020123279
6	0xbd40536d	-0.04695456
7	0xbd5591fe	-0.052141182
8	0xbc423fe6	-0.011856055
9	0x3ca01952	0.019543324
10	0xbd416ccb	-0.047222894
11	0xbcc4880b	-0.023990652
12	0xbcf30ac1	-0.029668214
13	0x3c52db99	0.012869739
14	0xbb5d4aa7	-0.003376642
15	0xbcd66875	-0.026172856
16	0xbc22681b	-0.009912516
17	0x3c3eeaa1	0.01165262
18	0x3a40626f	0.00073388865
19	0x3a37631a	0.0006995663
20	0x3ca2b24e	0.019860413
21	0x3b173104	0.0023069987
22	0xbc8f8402	-0.017519
23	0x3b9111d4	0.004427174
24	0x3cf33d8c	0.029692434
25	0xbd1076aa	-0.035269417
26	0xbd2d9148	-0.04237488
27	0xbcca599c	-0.024700932
28	0xbce87e99	-0.028380679
29	0xbc9771a4	-0.018486805
30	0xbcaa09eb	-0.020756682
31	0xbd0869ae	-0.03330391
32	0x3bd5e543	0.0065275743
33	0x3b4503ee	0.0030062157
34	0xbcd5c851	-0.026096495
35	0xbd18cde6	-0.037305735
36	0xbd172285	-0.036898155
37	0x3c56de76	0.013114562
38	0xbd0472a0	-0.032335877
39	0xbbf1094f	-0.007355846
40	0x3a1b8fbe	0.00059342
41	0xbb2946cd	-0.0025829554
42	0xbd09cdf7	-0.03364369
43	0x3c7a9eea	0.015296677
44	0xbb180784	-0.002319784
45	0xbd64e070	-0.055878103
46	0x3a2e5b85	0.0006651211
47	0xbcd0e045	-0.025497565
48	0x3c6bcdc2	0.014392318
49	0x3c2e66ff	0.010644673
50	0xbb3f2dfe	-0.00291717
51	0xbc38424e	-0.011246277
52	0x3c6878f0	0.01418899
53	0x3cce2292	0.025162969
54	0xba5772a1	-0.000821868
55	0x3cb696e9	0.022288756
56	0xbcd4d14f	-0.025978712
57	0xbcda329d	-0.026635462
58	0xbd3ec6f8	-0.04657647
59	0x3c23bc3b	0.009993608
60	0xbd23aa9c	-0.039957628
61	0x3c29cfa3	0.010364446
62	0xbbf88f6a	-0.0075854557
63	0x3c2371aa	0.00997583
64	0xb98f7073	-0.00027358867
65	0xbb88c62b	-0.004174014
66	0x3c36ffdd	0.011169401
67	0xbbac0f7f	-0.0052508707
68	0xbcd9f423	-0.026605671
69	0x3c213c11	0.009840981
70	0x3bddf1ad	0.0067731948
71	0xbc839aab	-0.016064962
72	0x3bbd04fa	0.0057684155
73	0xbbfde3d2	-0.0077481056
74	0x3c9cdddd	0.019148761
75	0xbcb2ca32	-0.02182493
76	0xbd1ada9e	-0.037806146
77	0x3baeead1	0.005338051
78	0xbd32b629	-0.043630753
79	0xbcd6c9bb	-0.02621924
80	0xbbdc6e35	-0.006727005
81	0x399946a8	0.00029235077
82	0xbc7ea046	-0.015541142
83	0xbc5684af	-0.013093158
84	0x3c6d83af	0.014496728
85	0xbce99260	-0.02851218
86	0xbc97a0de	-0.018509325
87	0xbc45543a	-0.012044007
88	0x3c15bc5e	0.0091391485
89	0x3c80fd5b	0.01574581
90	0xbd383bb2	-0.044978805
91	0xbd1e2188	-0.038606197
92	0xbceb4707	-0.028720392
93	0x3ca03f26	0.019561362
94	0x3ccfdcbf	0.025373815
95	0xbd4b36d0	-0.04961282
96	0xbd0e2de3	-0.03471173
97	0x3cbbd66b	0.02292939
98	0xbd002537	-0.03128549
99	0xbd0fc7d6	-0.035102688
100	0xbb1fb57c	-0.0024369648
101	0xbd24472e	-0.040106945
102	0x3cd3c5c9	0.025851147
103	0xbd219239	-0.03944609
104	0xbc09fe33	-0.008422422
105	0x3c922265	0.017838666
106	0x3bbf458f	0.0058371495
107	0xbd25d668	-0.040487677
108	0xbb7a08e1	-0.0038152265
109	0xbccce061	-0.025009336
110	0xbd24c5c3	-0.040227663
111	0xbc90dc86	-0.017683279
112	0xbc9bd721	-0.01902348
113	0x3cb268cf	0.021778492
114	0xbb28bedf	-0.0025748534
115	0xbd506283	-0.050875198
116	0x3c4c8e31	0.012485073
117	0x3b771bde	0.003770582
118	0xbb903320	-0.004400626
119	0xbaf4594c	-0.0018642335
120	0x3d013232	0.03154201
121	0x3c9495bd	0.018137807
122	0xbd368cdd	-0.04456793
123	0xbcb317ba	-0.0218619
124	0xbd178be4	-0.036998644
125	0x3cd29ffe	0.025711056
126	0xbd304a8b	-0.04303984
127	0xbca9be69	-0.020720677
128	0xbcfda2c3	-0.0309614
129	0xbc8b0802	-0.016971592
130	0xbd23f5d3	-0.040029358
131	0xba1982a7	-0.00058559555
132	0x3c47acf0	0.012187228
133	0x3cba6837	0.022754772
134	0xbd3a0dbb	-0.04542325
135	0xbd42398f	-0.047418173
136	0xbcdf48e3	-0.027256435
137	0xbbdcf714	-0.006743321
138	0xbc51103b	-0.012760217
139	0xbd4729f1	-0.048623983
140	0xbc750601	-0.014955045
141	0xbd41edc0	-0.047345877
142	0x3cabcf29	0.020972805
143	0xbd4faadd	-0.050700057
144	0xbc7e1f42	-0.015510382
145	0xbd314b74	-0.04328485
146	0xbd168257	-0.036745396
147	0xbce1f0c0	-0.027580619
148	0x3a23f0e8	0.00062538544
149	0xbc83fd7c	-0.016112082
150	0x3d21521f	0.039384957
151	0x3cc9d816	0.02463917
152	0xbca9cdd7	-0.020728035
153	0xbb68a26f	-0.0035497209
154	0x37cadacb	2.418216e-05
155	0x3b4fbe39	0.0031699075
156	0xbcea910b	-0.028633615
157	0xbc2c29d3	-0.010508019
158	0x3b17fc26	0.0023191064
159	0xbc1be23a	-0.009514386
160	0xbc0f4f93	-0.008746999
161	0x3b150f6c	0.0022744788
162	0x3d4287f3	0.047492933
163	0x3d17354c	0.036916062
164	0xbcab524a	-0.020913262
165	0xbc2f0fa3	-0.01068488
166	0xbcb58795	-0.022159377
167	0x3d05d288	0.03267148
168	0xbc50fb30	-0.0127552
169	0x3bea4ec6	0.007150504
170	0x3d3d97b5	0.046287257
171	0xbc658a70	-0.014010057
172	0xbc749fea	-0.014930705
173	0x3c3ebeb6	0.011642149
174	0xbd334430	-0.0437662
175	0x3c1eba81	0.009688021
176	0xbcf9a0d1	-0.030472191
177	0x3cb9ed76	0.022696238
178	0xbcdca5cf	-0.026934532
179	0xbc3325bc	-0.01093429
180	0x3c6ff20c	0.014645111
181	0x3d1337ec	0.035942003
182	0xbcfd55f7	-0.03092478
183	0x3c8abdcc	0.016936205
184	0xbd003835	-0.031303603
185	0xbd044893	-0.032295775
186	0xbca841d2	-0.020539198
187	0xbbbb8ba1	-0.005723432
188	0xbc122e80	-0.008922219
189	0xbd2f57f5	-0.04280849
190	0x3c51c65e	0.012803642
191	0x3ccb68c1	0.024830224
192	0xbaad309d	-0.001321334
193	0x3cea8c04	0.028631218
194	0x3cdc08a5	0.02685959
195	0x3bf82308	0.0075725354
196	0x3cc6d05a	0.024269272
197	0x3c83a4f2	0.016069863
198	0x3b3fd3d8	0.0029270556
199	0xbcff6458	-0.031175777
200	0xbd30410d	-0.043030787
201	0xbd21c45b	-0.0394939
202	0xbc5517e3	-0.013006183
203	0x3a029bd6	0.0004982328
204	0xbc96f1ec	-0.018425904
205	0x3ce7066c	0.028201304
206	0x3bb18b57	0.005418222
207	0x3b15314e	0.0022764984
208	0xbd2f4b4f	-0.04279643
209	0xbd0f4c6f	-0.034985002
210	0xbd628b80	-0.05530882
211	0xbd3cb17e	-0.046067707
212	0xbc895f70	-0.016769141
213	0xbce7d1bc	-0.028298251
214	0xbd6b291d	-0.057412256
215	0x3c8886e5	0.016665885
216	0x3c0845e5	0.008317445
217	0xbc804221	-0.015656533
218	0xbd5828ed	-0.052773405
219	0xbc77861c	-0.015107658
220	0x3be9df8a	0.0071372436
221	0x3c722742	0.014779868
222	0xbd71312c	-0.058884785
223	0xbc2c425e	-0.01051387
224	0x3cb47e79	0.022032963
225	0xbcab756c	-0.020930015
226	0xbc9401e2	-0.018067304
227	0x3c8a9430	0.016916364
228	0xbcdadf0b	-0.026717683
229	0xbd249600	-0.040182114
230	0x3c9bd90a	0.01902439
231	0xbbf9af17	-0.0076197493
232	0xbc84105f	-0.016121088
233	0xbd502a97	-0.050821867
234	0xbac6ba9d	-0.0015161816
235	0x3b85c2d0	0.0040820614
236	0xbbc746b1	-0.006081425
237	0xbb73158c	-0.00370917
238	0x3c1e5739	0.00966435
239	0xbd40faf0	-0.047114313
240	0x3c4ca97c	0.01249158
241	0x3c1877f9	0.009305947
242	0xbd2e277d	-0.042518128
243	0xbd2aae00	-0.041669846
244	0xbc944446	-0.018098962
245	0xbcb7dc1e	-0.022443827
246	0x3c8f9bd7	0.017530365
247	0xbd0b898a	-0.034066714
248	0x3c29a5da	0.0103544835
249	0x3c42bb3f	0.011885463
250	0xbb80efd5	-0.00393484
251	0xbca30b3e	-0.019902822
252	0x3c1b2fed	0.009471876
253	0x3c3252b7	0.010883979
254	0xbb4f8059	-0.0031662195
255	0x3cd23957	0.025662107

fc1.bias f4 [128]
0	0xbd0ac9ea	-0.033883967
1	0x3eca5255	0.3951594
2	0x3c67bfb1	0.014144824
3	0x3f5fc2ba	0.87406504
4	0x3f638b1a	0.8888413
5	0x3ea6739e	0.32510084
6	0x3f836abc	1.0266948
7	0x3f7c1bcb	0.9847991
8	0x3eb31301	0.34975436
9	0xbd6ef9e9	-0.0583438
10	0xbc88332e	-0.016625967
11	0x3f1cd681	0.61264807
12	0x3ea1d92b	0.31611
13	0x3ef591f4	0.47962916
14	0x3efe0b7b	0.49618134
15	0x3c1ebd78	0.009688728
16	0x3f4c37fc	0.79772925
17	0x3f8090b7	1.0044163
18	0x3efa17ff	0.48846433
19	0x3f3a06fc	0.7266691
20	0x3e72386e	0.23654339
21	0x3ecff4e3	0.4061652
22	0xbd071687	-0.032980468
23	0x3e75a456	0.2398847
24	0xbc408b70	-0.0117519945
25	0x3f84e880	1.0383453
26	0xbd135b59	-0.035975788
27	0x3e87d600	0.26530457
28	0x3e96b3bc	0.29434
29	0x3f2926e4	0.6607497
30	0xbd30e0f6	-0.04318329
31	0xbcfc16f1	-0.030772658
32	0x3ebdca68	0.37068486
33	0x3eac511d	0.33655635
34	0xbdd2c3ef	-0.102912776
35	0x3dc09eca	0.094052866
36	0x3ec8d2ba	0.39223272
37	0xbde343e3	-0.11096933
38	0x3edb619f	0.42847916
39	0x3e85270e	0.2600636
40	0x3f04e324	0.5190909
41	0x3efe52f7	0.49672672
42	0x3f2e07cb	0.6798064
43	0x3ee0c427	0.43899652
44	0x3e442f53	0.19158678
45	0x3f0ce62c	0.55038714
46	0x3f9766b5	1.1828219
47	0x3f61dda8	0.88228846
48	0xbd2cde95	-0.04220446
49	0x3ea78155	0.3271586
50	0xbd0a412b	-0.033753555
51	0x3e748f14	0.23882705
52	0x3e2ba232	0.16761091
53	0x3eeb7ccb	0.45993647
54	0xbd45f2e8	-0.048327357
55	0x3f14da11	0.5814524
56	0x3efbf680	0.49211502
57	0xbc743f62	-0.01490769
58	0xbd8f4ca6	-0.069970414
59	0x3d2b1eab	0.041777294
60	0xbddd5ab5	-0.108083166
61	0x3e9ac904	0.30231488
62	0x3c47db22	0.012198241
63	0x3f140e03	0.5783388
64	0x3eb57e37	0.35447857
65	0x3eb35df7	0.35032627
66	0xbd2b25e3	-0.04178418
67	0x3e580570	0.21095824
68	0xbdcfeb6d	-0.10152326
69	0x3f14005f	0.57813066
70	0xbd6ea42d	-0.05826204
71	0x3e3140c8	0.17309868
72	0x3ec91d0f	0.39279982
73	0xbd1a1ccf	-0.03762513
74	0x3f8049ea	1.0022557
75	0x3ee4702c	0.4461683
76	0x3e4cd0b7	0.20001493
77	0xbd2503cd	-0.040286828
78	0x3eda9589	0.4269221
79	0x3ea1a781	0.31573108
80	0x3f1b64e4	0.6070082
81	0x3ec78d05	0.38974777
82	0x3f1e3b02	0.6180879
83	0x3f2f0003	0.6835939
84	0x3da17892	0.07884325
85	0x3e221a52	0.15830353
86	0x3ed509b0	0.41608953
87	0x3da1b277	0.078953676
88	0x3e2316c3	0.15926652
89	0x3d5e3be8	0.05425635
90	0x3f16a80e	0.5885018
91	0x3eca7b3f	0.39547154
92	0x3f128e99	0.57248837
93	0x3ef02f73	0.469112
94	0x3e38631f	0.18006562
95	0x3eee4632	0.4653793
96	0x3f02352a	0.5086237
97	0x3ea8549c	0.32877052
98	0x3f1b81c9	0.6074491
99	0xbd9bcbbe	-0.0760722
100	0x3e183694	0.1486457
101	0x3ea58aa8	0.3233235
102	0x3f82117c	1.0161586
103	0x3ef11c50	0.47091913
104	0xbd8a4f6c	-0.0675343
105	0x3eda806f	0.42676112
106	0xbd54f134	-0.05198784
107	0xbbc120b5	-0.0058937916
108	0xbcf9de9f	-0.030501662
109	0x3c9715cb	0.018443009
110	0x3f00ed2f	0.50361913
111	0x3f1489ef	0.5802297
112	0xbdf2861d	-0.11841986
113	0xbcd3178f	-0.02576807
114	0x3f535dc5	0.82564956
115	0x3ee82ccd	0.4534668
116	0x3f73cef5	0.95237666
117	0x3f09b42f	0.53790563
118	0x3e8a50a4	0.2701465
119	0x3e8ffe0f	0.2812352
120	0x3df5aac0	0.119954586
121	0xbca43f28	-0.020049646
122	0xbd712497	-0.058872785
123	0x3f1a596f	0.60292715
124	0x3eee6668	0.46562505
125	0x3ef76dfd	0.48326102
126	0xbe1ba472	-0.1519945
127	0xbd89da26	-0.06731062

fc2.weight f4 [7, 128]
0	0x3a19dfe0	0.0005869847
1	0x3c7fcf0f	0.015613331
2	0x3da41e0c	0.080135435
3	0x3c4f7715	0.012662669
4	0x3c9e538b	0.019326946
5	0x3d576f94	0.052596644
6	0x3c4decfc	0.0125687085
7	0x39c00cec	0.0003663072
8	0xbd624558	-0.055241913
9	0x3e097460	0.134233
10	0xbd14e9b4	-0.03635569
11	0xbc5f5191	-0.013630287
12	0x3e6d2fac	0.23162717
13	0xbe0421fb	-0.12903588
14	0xbccfca6a	-0.025365073
15	0xbd1beb4a	-0.038066186
16	0x3c8cdef5	0.017196158
17	0x3c1c639a	0.009545231
18	0xbf192b50	-0.59831715
19	0x3a82ce79	0.0009979747
20	0xbd97f8de	-0.074205145
21	0xbd04e817	-0.0324479
22	0x3db09f75	0.08624164
23	0xbe1fa317	-0.15589558
24	0x3d0b38d7	0.033989754
25	0x3c4fff08	0.0126950815
26	0x3d085a6d	0.03328936
27	0xbdbe17cb	-0.09281882
28	0x3ca37aa7	0.019955946
29	0xbea90796	-0.330136
30	0xbd9e803d	-0.07739303
31	0xbdac2a98	-0.084065616
32	0x3c85d6c0	0.016337752
33	0xbebd58ee	-0.3698191
34	0xbe30e60d	-0.17275257
35	0x3d9fbf49	0.078001566
36	0xbe41bb7e	-0.18919179
37	0x3d6d0185	0.057862777
38	0x3c6d683b	0.0144901825
39	0x3cbd01e6	0.023072194
40	0xbe7e3a50	-0.24826932
41	0xbd254f57	-0.040358867
42	0x3ccf4fb2	0.025306556
43	0xbb5876c3	-0.0033029772
44	0x3d8fa10c	0.07013139
45	0xbef2460f	-0.47319075
46	0xbb3fc168	-0.0029259566
47	0x3c3b2b12	0.011423843
48	0x3cd0901d	0.025459344
49	0xbd0bcb5d	-0.03412949
50	0xbd8b8969	-0.06813318
51	0x3d837958	0.06419629
52	0x3e765afd	0.24058147
53	0xbe81f0b6	-0.2537896
54	0x3cd2ac80	0.02571702
55	0xbdc1f60f	-0.0947076
56	0x3c966666	0.018359374
57	0xbce70474	-0.028200366
58	0xbc493036	-0.012279561
59	0xbd940901	-0.0722828
60	0x3dda637f	0.106635086
61	0x3dfa8f5b	0.12234374
62	0xbeb0f857	-0.34564468
63	0xba6cb90c	-0.00090302597
64	0xbd9bc37b	-0.07605644
65	0xbefc62b3	-0.49294052
66	0x3d4a354b	0.04936723
67	0x3d34ea7f	0.044168945
68	0x3d52b4e8	0.051442057
69	0x3c04c2fb	0.008103128
70	0xbd489a98	-0.048975557
71	0x3d2a9bed	0.04165261
72	0xbc61fa59	-0.013792598
73	0x3d4a2530	0.04935187
74	0x3b27972a	0.0025572279
75	0xbe06ff98	-0.13183439
76	0xbe303745	-0.17208584
77	0xbd535090	-0.051590502
78	0x3d49a757	0.049231853
79	0xbe182cfd	-0.14860912
80	0xbcb088a1	-0.021549525
81	0xbddd1743	-0.107954524
82	0xbe7c558b	-0.24642007
83	0xbd0ef8b2	-0.034905143
84	0x3d2bb998	0.041925043
85	0x3da0f257	0.07858723
86	0xbe37bfe1	-0.1794429
87	0x3e73819a	0.23779908
88	0x3c8c938c	0.0171602
89	0x3d8824e3	0.066476606
90	0xbd157afd	-0.036494244
91	0xbe013a10	-0.12619805
92	0xbdcbaa24	-0.09944561
93	0xbe996d56	-0.2996623
94	0xbd02c1de	-0.031923167
95	0xbea34a37	-0.3189256
96	0x3bea6c36	0.007154013
97	0xb9dfdd30	-0.00042698672
98	0x3c82685b	0.015918901
99	0x3e9b335e	0.30312628
100	0x3d5182ec	0.051150247
101	0x3ceaef20	0.028678477
102	0xb6300720	-2.623019e-06
103	0x3c57f673	0.013181317
104	0xbd82b277	-0.06381696
105	0x3c83983b	0.0160638
106	0x3bd9d6f5	0.0066479393
107	0xbd18d910	-0.037316382
108	0xbd87628c	-0.06610593
109	0x3da64791	0.08119119
110	0xbc514fe1	-0.012775392
111	0x3c1579f9	0.009123319
112	0x3e49e8fe	0.19717786
113	0x3a18445e	0.00058085273
114	0x3c355149	0.011066743
115	0x3cf9cba2	0.030492608
116	0x3bcd90dc	0.006273372
117	0xbebc87c2	-0.36822325
118	0xbcb9f068	-0.022697642
119	0xbe072413	-0.13197355
120	0x3db0c376	0.08631031
121	0x3d3f3ae1	0.04668701
122	0xbc8c2720	-0.0171085
123	0x3c4124d7	0.011788568
124	0xbc6c8cce	-0.014437867
125	0xbd3a97c1	-0.04555488
126	0x3e4b03e8	0.19825709
127	0x3cfbbd78	0.030729994
128	0x3d7f7dd7	0.06237587
129	0x3b89a28a	0.0042002844
130	0xbd0c76c4	-0.03429295
131	0x3c9a59d4	0.018841662
132	0x3b81809a	0.003952098
133	0xbe37e4ca	-0.1795837
134	0x3bb7938a	0.005602305
135	0x3bd5e617	0.006527673
136	0x3e4eb61f	0.20186661
137	0x3e6a57d9	0.22885074
138	0x3d262bc7	0.040569093
139	0xbdbe3dc2	-0.09289123
140	0x3e59eb02	0.21281055
141	0xbdd4a992	-0.103839055
142	0xbd0f0e25	-0.0349256
143	0xbdb0335d	-0.08603547
144	0xbe868460	-0.2627287
145	0x3c85ca71	0.016331883
146	0x3d680254	0.056642845
147	0x3d0b9353	0.034076046
148	0xbe07c586	-0.13258943
149	0xbd26e5c7	-0.040746477
150	0x3c9d3e0c	0.019194625
151	0xbe01dd6f	-0.12682126
152	0x3cf6b811	0.030117067
153	0xba6ec09d	-0.0009107681
154	0x3ce0e3d5	0.027452389
155	0xbd941d53	-0.07232156
156	0xbf01704e	-0.5056199
157	0x3c54ea46	0.012995308
158	0x3daa4a31	0.08314932
159	0xbd599176	-0.053117238
160	0xbe1869cc	-0.14884108
161	0xbe8ee479	-0.27908686
162	0x3de418d8	0.11137551
163	0x3d7200ef	0.05908292
164	0xbe516612	-0.20449093
165	0x3e05a395	0.13050683
166	0x3c834952	0.016026173
167	0xbe797357	-0.24360405
168	0x3cb45df6	0.02201746
169	0xbcf7fd0b	-0.030272027
170	0x3c492796	0.012277504
171	0xbe7b638c	-0.24549693
172	0x3d25483c	0.04035209
173	0x3b9bb601	0.004751921
174	0x3b3387d8	0.0027394202
175	0x3c99a537	0.018755538
176	0xbd774b64	-0.060374632
177	0xbd64bd47	-0.05584457
178	0xbd53e420	-0.05173123
179	0x3d9205c5	0.07130007
180	0xbea5c001	-0.3237305
181	0xbd9188ec	-0.07106194
182	0x3c092270	0.008370027
183	0xbd676e2f	-0.056501564
184	0x3cddf771	0.027095528
185	0x3a43b91c	0.0007466243
186	0xbcee552d	-0.02909335
187	0xbe21b193	-0.15790395
188	0x3da61fcd	0.08111534
189	0xbe22c8fd	-0.15896983
190	0x3e2a41af	0.16626619
191	0xbe9b85f7	-0.30375645
192	0xbdfd919d	-0.12381289
193	0x3d1d9478	0.03847167
194	0x3d1db27e	0.0385003
195	0x3d3b128b	0.04567198
196	0xbee983d4	-0.4560839
197	0x3d78f66e	0.06078189
198	0x3d58e865	0.052956004
199	0x3d64daa0	0.05587256
200	0x3d0eaf9a	0.034835435
201	0x3c3d4b80	0.011553645
202	0x3af2d509	0.0018526624
203	0xbe13e729	-0.1444365
204	0xbe5a38e0	-0.21310759
205	0x3c95cfd9	0.018287586
206	0xbd8c37f9	-0.068466134
207	0xbe4a483f	-0.19754122
208	0xbcbef267	-0.023308946
209	0xbe9b5e7e	-0.3034553
210	0x3d34f1bb	0.044175845
211	0xbd32e68f	-0.04367691
212	0x3c072044	0.008247439
213	0x3d5a24ed	0.05325787
214	0xbe4f765f	-0.20259999
215	0x3e027e07	0.12743388
216	0xbebe2a27	-0.37141535
217	0x3d8c0c8a	0.06838329
218	0xbd164be2	-0.03669346
219	0xbbdb1b06	-0.006686571
220	0xbdb641c0	-0.088992596
221	0x3e0dbe53	0.13842134
222	0xbe1c33ae	-0.15254089
223	0xbbb8717d	-0.005628763
224	0x3c48e608	0.012261875
225	0xbed299a9	-0.41132858
226	0x3c1f91d0	0.009739354
227	0x3ea3ad21	0.31968024
228	0x3c90f12e	0.017693128
229	0x3cec2d3a	0.02883016
230	0x3b3f06df	0.0029148383
231	0xbba9ac56	-0.0051780147
232	0x3d7c1e90	0.061552584
233	0x3cb63838	0.022243604
234	0xbd6b2250	-0.05740577
235	0xbbbd5da1	-0.0057789837
236	0xba2be081	-0.0006556586
237	0x3da03e53	0.078243874
238	0xbd109978	-0.03530261
239	0x3c441ce7	0.0119697815
240	0x3e9aac8a	0.30209762
241	0xbd2c64b5	-0.04208823
242	0x3bfa1f71	0.0076331426
243	0x3d19711a	0.037461378
244	0x3b4392a3	0.002984204
245	0xbce8e4e4	-0.028429456
246	0xba32022c	-0.0006790485
247	0xbe29dc79	-0.1658801
248	0x3d984e78	0.07436842
249	0xbd953146	-0.07284789
250	0xbd8e54b4	-0.069497496
251	0x3cfd3aa0	0.030911744
252	0xbd4af25b	-0.049547534
253	0xbeaafb8d	-0.33395043
254	0x3e08fb3e	0.13377091
255	0xbd88cba6	-0.06679468

fc2.bias f4 [7]
0	0xbe8ffb87	-0.28121588
1	0xbe3c10f2	-0.18365839
2	0xbe29fdb0	-0.1660068
3	0xbe83c2d6	-0.25734586
4	0xbd2f1111	-0.042740885
5	0xbd705999	-0.058679197
6	0xbdda1329	-0.10648186
