models/double_dql_negamax_1.pt (torch, 536604 bytes, 8 tensors)

conv1.weight f4 [64, 1, 4, 4]
00000000: 984e afbd d177 843e 26b3 abbe 4f93 56bf
00000010: e7e9 a93d ba18 993d 7932 17bd 4121 fa3d
00000020: 56a1 6cbd 7519 be3d 1da0 37be 6d0d 2c3e
00000030: 35a4 e03c 1676 44be 2c69 42be b77e b53e
00000040: f530 48bd 69cd b63d 8bcd 353e d41e f0bc
00000050: 0e30 5d3d 9bdf 56ba b9d7 9bbe 1ccf bcbd
00000060: 4a4a f8bd 5941 b63d ce25 aabd 7323 073e
00000070: 3f73 c63e a486 5f3e 5160 1a3e ac60 edbe
00000080: 32a2 2f3e b5c9 a43d 2908 103f efd7 44bf
00000090: 15e1 15bd cf03 293e 6a26 ffbb 4788 873c
000000a0: 94b2 99be c5c5 6e3c 8c83 93be d0e9 21bb
000000b0: edf9 0bbe dd57 af3d 3f76 8bbe 3bb5 dc3c
000000c0: aa23 20bf b7b3 053e 84e6 b0be 70c7 1fbe
000000d0: 149a 83bd cd9b 653e f7f5 48be 95c5 b0be
000000e0: 20df 733d 3d62 fa3d f194 80be efec f43d
000000f0: 6cd3 bcbe 5596 a5bd bf05 d83e c029 24be
00000100: 6c35 013e 9c5b 36bd e94e 573d 83df 94bf
00000110: 34f8 5e3d cd56 063e 3e43 543c c415 873d
00000120: 6800 2a3e 3f13 873d 059e 5e3e 5383 2c3e
00000130: a521 5dbe b287 ac3c 0d2d 6cbd 1584 4b3e
00000140: a84b 20bf cdc0 90bd 7d02 03bd f8dc d83e
00000150: 27f0 183e e0f6 33be 9c06 22be f9b1 4bbd
00000160: 7e9f 79be 6681 723c 6f1d 66bc 12e0 74bc
00000170: 2ca4 193e 1593 49be 461f 88be 45f4 a3bc
00000180: 4121 51bf 0356 e63d 79e9 8abc c593 913e
00000190: d73a a23e e3bc fa3d 17bf 743d 085c 9dbe
000001a0: abd0 3e3e ba6e dcbd 0898 723d 4e2c 0abd
000001b0: 0914 c5be cee4 92bd ed4f bc3d a60d 843c
000001c0: 274f af3c a599 cabe 6dd9 763e f425 983d
000001d0: c04b 423d c1d4 24bf 02d9 83bd 58ac e7be
000001e0: 5171 03bf fcbd d1be edf8 9b3e 259d 64be
000001f0: bbba a63d 19de f03d 6cb3 f6be 8aa8 983d
00000200: 7b66 023e 66e3 403e a76d 9e3e 3db8 8ebc
00000210: eaad 053d c97c 24bd f70e 1c3d 73a9 1a3d
00000220: 2bba 2f3e d99d a1be 553f 2dbd 1bf1 8fbe
00000230: 08ee 97bc 707e adbe 4aef 9b3d 46b3 febd
00000240: 2483 043e 2b4e 43be c4bf a8bd 0430 e4be
00000250: 3fcd ab3d 97f5 a53d 07f8 243e cdba d63e
00000260: 52e8 95be 71dc b1be 57e7 5e3e 9b3a 853e
00000270: 29dc a23d b6ed 28be bc9f 04bf 5912 7abe
00000280: 3275 843e c9e7 d63e 6ddd 3dbd d4e2 913e
00000290: dee5 023e 9ecd 3dbe b196 35be 98bf e7bd
000002a0: 44a2 d3be f852 553e 1cfd 2e3e 3bf1 64be
000002b0: 6c2d 003e 265f cbbe 5249 8d3d 78f3 d8bd
000002c0: 6bce e83d 4ead 43be 6e06 883e 2f25 e2bd
000002d0: 4243 ba3e aec2 763e e6c2 6cbe 3c4e 883d
000002e0: 9ef1 92be caf5 763e ae87 2f3e 4c87 96be
000002f0: 30fd 90be 39c2 7fbe 81cb 4fbe 4dde 383e
00000300: f777 a43e 42da 0abe 4140 fcbd 6d59 193e
00000310: a693 b6be 0df2 84bd c75b 713c c9af 63bd
00000320: 8fd3 0a3e e267 a33d b3b0 933e af09 50be
00000330: 609b 8c3c 93dc 24be a982 ebbe 8895 8d3e
00000340: 0087 89bd 4285 1abe d432 a3bd 5c4e e0bd
00000350: 4e1f 18be 78f4 cf3d 90a8 adbd 545d 9bbd
00000360: fc28 99bd d88a 36bd 3c89 fbbd 36fc 51be
00000370: 28f0 36be 6c52 2fbe c062 14bc f278 67be
00000380: 22fd bdbe 5bb4 98bd e068 6fbb 7f7d e53d
00000390: 8ee6 87bd 24a5 523e ecc8 f4bd 5411 6ebc
000003a0: 0254 aabe d0e4 a83e efbc dfbe 9647 a43d
000003b0: 2c10 313e f0ec 9dbe 5348 49be b68f b5be
000003c0: 8212 0bbe 46d0 eb3d c1c2 4ebe e542 8abe
000003d0: 79ef 963e f607 543d 693f c33e e5b5 99be
000003e0: 65c3 913c c79f 3c3e a4c2 85be 2002 cb3c
000003f0: 6812 1cbe 7f65 90be b9ff 04be da8a 903d
-0.085599124 0.25872663 -0.33535117 -0.83818525 0.082965665 0.07475419 -0.03691337 0.12213374
-0.05777105 0.09282199 -0.17932172 0.16801997 0.02742205 -0.19185671 -0.18985432 0.35448238
-0.048874814 0.08925898 0.1775419 -0.029311575 0.054000907 -0.0008196772 -0.3043802 -0.092191905
-0.121235445 0.08899183 -0.08307992 0.13197117 0.387598 0.21828705 0.15075804 -0.46362817
0.17151716 0.08046285 0.5626245 -0.7689199 -0.036591608 0.16505359 -0.0077865617 0.016544474
-0.30019057 0.014573519 -0.288113 -0.0024706014 -0.13669558 0.085616805 -0.27238652 0.026941886
-0.6255442 0.13056837 -0.3455087 -0.15603423 -0.064258724 0.22422715 -0.19625078 -0.34525743
0.05953896 0.12225769 -0.25113633 0.11959254 -0.36880052 -0.08085314 0.42191884 -0.16031551
0.12618035 -0.04452096 0.05256549 -1.163071 0.054435924 0.1311905 0.012955485 0.06595948
0.16601717 0.06595468 0.21739967 0.16846971 -0.21594866 0.021060798 -0.05766015 0.19874604
-0.6261544 -0.07068024 -0.031984795 0.42356086 0.14935361 -0.17574644 -0.15822834 -0.049730275
-0.24377248 0.014801359 -0.014045103 -0.014946001 0.15004033 -0.19685014 -0.2658636 -0.020013938
-0.81691366 0.11246874 -0.016957032 0.28433052 0.31685516 0.122430585 0.05975255 -0.30734277
0.18634288 -0.10763307 0.05922702 -0.03373366 -0.38491848 -0.07172547 0.09194932 0.01611979
0.021400047 -0.39570346 0.24106379 0.07429114 0.047435522 -0.64387137 -0.06437875 -0.45248675
-0.5134478 -0.4096526 0.30463353 -0.22325571 0.08141085 0.11761112 -0.48183763 0.07454021
0.12734406 0.18836746 0.30943033 -0.017421836 0.03263656 -0.040158067 0.03810021 0.037759256
0.17160861 -0.3156574 -0.042296726 -0.28113636 -0.01854612 -0.33885527 0.07614 -0.124365374
0.12940651 -0.19072787 -0.082397014 -0.44567883 0.08388757 0.08103483 0.1611024 0.41939393
-0.2927881 -0.34738496 0.21767937 0.26021275 0.079521485 -0.1649693 -0.51806235 -0.24421062
0.25870663 0.41973713 -0.046353746 0.2849337 0.12783 -0.18535468 -0.17733265 -0.113158405
-0.41334736 0.20832431 0.17088741 -0.22357647 0.12517327 -0.3972103 0.0689875 -0.10593313
0.11367496 -0.19109079 0.26567405 -0.110422485 0.3637944 0.24097702 -0.23121223 0.06655547
-0.28699964 0.24117199 0.17141601 -0.29400098 -0.28318167 -0.24976434 -0.20292474 0.18053551
0.32122776 -0.13559821 -0.12316943 0.1497552 -0.35659522 -0.0649148 0.014731354 -0.055587564
0.13557266 0.079787984 0.28845748 -0.20316194 0.017163932 -0.16099767 -0.45998123 0.27653146
-0.06715202 -0.15089896 -0.07968679 -0.10952446 -0.14855692 0.101540506 -0.08479416 -0.0758616
-0.0747852 -0.044566005 -0.12282035 -0.20506367 -0.1786505 -0.17121285 -0.009056747 -0.2260473
-0.37107188 -0.07456275 -0.0036531016 0.11205577 -0.06635772 0.20570809 -0.11952385 -0.014530499
-0.33267218 0.3298707 -0.43698832 0.080214664 0.17291325 -0.3084483 -0.19656496 -0.35461205
-0.13581279 0.115143344 -0.2019148 -0.2700416 0.29479578 0.051765405 0.38134316 -0.30021587
0.017793367 0.18420325 -0.26125062 0.024781287 -0.15241396 -0.28202435 -0.12988175 0.07057734

conv1.bias f4 [64]
00000000: ad42 9dbe fdf1 c8bd 3059 0bbe 6226 373e
00000010: f8d3 d5bc 17a5 acbb 7b22 233c 5395 993e
00000020: 7da4 b73c df3c a8bc 8568 96be 63ad 163e
00000030: 4153 9d3c 10b3 06bd 0e20 0d3e 55cf a23d
00000040: 9224 6dbe b6fc 993d 47a8 7abd f5fa 1e3e
00000050: 5034 a53e 547c c5bd 2d01 8d3e 4146 8e3e
00000060: b6ac e0bb d330 903a 71c8 ebbe 210f 8abe
00000070: ba07 62be 865b 37be 79cd 6a3d d139 893e
00000080: 0066 e9bd ebac 4abc ad0b 3dbe 46f6 92be
00000090: cc66 9abc ff0b b9bd 66a9 74be 4079 b63e
000000a0: 8d97 5a3d 6443 653d d8a1 bd3e 47b9 adbe
000000b0: 6c1b d5bd 64ee 8bbe 26c0 38be c429 cabe
000000c0: 102a cbbd a2bf 9f3d 6ab2 babe f23b 3cbe
000000d0: e8ff 98bb a8c7 45be 53c9 94be dab9 273e
000000e0: e23c 07bd d354 28be e8bc 9dbe 9f88 bbbd
000000f0: 8e6c fdbe 3c79 01be e8a6 b2be fd59 803d
-0.30714932 -0.098117806 -0.13608241 0.17885736 -0.026102051 -0.0052687037 0.009956951 0.29996738
0.022417301 -0.020536838 -0.29376617 0.1471458 0.019204738 -0.03288561 0.13781759 0.07949702
-0.23158482 0.07518904 -0.061195638 0.1552542 0.32266474 -0.09642854 0.2753996 0.27787974
-0.0068565262 0.0011000879 -0.46051362 -0.26964667 -0.2207326 -0.17906007 0.05732486 0.26801923
-0.11396408 -0.012370328 -0.18461485 -0.28703517 -0.018847845 -0.09035491 -0.23892745 0.3563938
0.053367186 0.05597247 0.3703754 -0.33930418 -0.10405621 -0.27330315 -0.18042049 -0.3948499
-0.09920132 0.07800223 -0.36464244 -0.18382242 -0.0046691783 -0.19314444 -0.29059848 0.1637949
-0.033017047 -0.16438608 -0.30808187 -0.09156918 -0.49496883 -0.12643903 -0.34892964 0.06267164

conv2.weight f4 [128, 64, 2, 2]
00000000: 70de 083d 4896 a7be 5d7b 883b aeb2 61be
00000010: b371 dfbe 600f 5abe 8e98 62be 36fb 9c3e
00000020: 2fa9 27be 1a96 933d 7e1c 113e ea0e 943e
00000030: a448 93be 6420 66bd 334d b93d f9ac 653b
00000040: 10cc cebd 198d cdbe 68da 93be 5b22 27be
00000050: 3f1b 7bbe 7a96 3f3d 1561 62be ea85 553e
00000060: d2d2 a5bd e296 a13d 6cd7 7638 c201 a2bd
00000070: a378 933e 0899 c9be afd6 023e e30a 093e
00000080: c36b 703e 1226 943e 7736 b83d 5eb2 c43d
00000090: 44d1 23be 28ce b53d 4e4e 813e 6208 aabe
000000a0: 3f00 17be 2faf 34be ea23 7ebb b30f 3a3d
000000b0: 6482 843e ef85 053b a7b1 90be adf5 57be
000000c0: 3017 dd3c 9369 5d3e 2f91 8c3e 835b ee3c
000000d0: 540c 26bd 7016 38bd acf9 9ebc 1801 543c
000000e0: 637d 24bd c00d e7bd 361d 3b3e 6934 b63e
000000f0: 8f32 b3be 99e2 6b3e a2dc 593e fcff b7be
00000100: 33fa e63d dae6 2f3e 3b1a 2a3e 441e 32be
00000110: fc88 1fbe 68bb 9fbd 2c89 053e 0fcf 94be
00000120: 67e9 d7bc 51ad 8bbe fc5e 723e 3c59 a5bc
00000130: 32f3 22be 6158 98be 81f9 64bd f606 a83e
00000140: a3d3 d9bb 1819 243e 1078 903e a968 153e
00000150: 2bd2 823e 63fe 82bd d274 b63e 00d2 543c
00000160: 9cc5 643e ed46 59be dda7 6ebd 9a6f 263e
00000170: 0b0e ccbe e938 933d 809a 753d c00f 0bbe
00000180: daf1 2dbe 72b4 afbc a8ca 25bd 3c93 9abe
00000190: 71af 32be d4ce d53d 2203 41bd 50aa 27be
000001a0: ff46 0bbe aa54 1f3e fac4 64be 375b d5be
000001b0: a179 acbe 867e 2bbf 527a 2abe 36cc cf3d
000001c0: 7d2f 4c3e 68cc 4fbe 9b41 e83d 81dd fb39
000001d0: 5a6f 0a3f 605a 173d 44c7 fe3d 19d1 1fbb
000001e0: 1e32 c4bc ff9f 1bbe 43e9 c1bd 62bd 39be
000001f0: ba5d 3e3e ef4a 02be 81b5 ccbd d789 77bc
00000200: 6de0 563d 5901 c63d f3dc 4d3e 9553 f43d
00000210: 0b0a 41bc a8f9 f7bc c223 253d e886 e33a
00000220: 8181 663d 51e9 95bd 9e29 96bd 6269 12be
00000230: 7eb8 973e 92c7 d3bb 9108 43be 8e74 7c3d
00000240: f0a7 2cbd 0e65 2d3e f310 d93e 6d76 26bf
00000250: ab1d d4be 1db8 983c 8a30 4a3e 618c 343e
00000260: 9546 6cbe 482a 673e db91 d1bd c9bb ae3e
00000270: e8c4 8e3d 39c0 d2bd a68e 81be f283 793c
00000280: 2ec9 713d da68 0b3e bd0e 51be 97d2 be3d
00000290: c7d3 d23d b2c5 973d 1c08 833e 9d09 b3be
000002a0: 264e c63e 5e8c 8bbe 1126 df3e 3fdf ca3d
000002b0: 00eb 6abd b0b5 9dbe 02bc d43d a925 f63d
000002c0: 3b84 9ebd a296 663e bc5a 953d b6d4 0bbe
000002d0: 6625 b53d 3ed5 e7be 67d9 f4bc b9dd 2ebd
000002e0: f620 44bd 1ffc 873e 5441 1e3e 6ae4 42be
000002f0: 4cc5 9bbe c3b7 e43d 0003 2ebe 613a fdbd
00000300: 2d84 ea3d 47f8 2c3d 9782 223e 78ef 563e
00000310: ebbb f03d b65f 5abe 6eb3 8fbd cce1 ad3d
00000320: b4f9 1dbe 8b16 30bd 7e86 03bf 12cd 40be
00000330: 1edc 83be 63d4 a63d 4e4e 873e 6a56 aebd
00000340: ca5d 093e 60b2 85be da26 453e 2cc2 0c3e
00000350: 3903 9abb d4ff 09bd f78f 4cbd 995d 0dbe
00000360: 44da 30be 1705 8ebd 15c0 56be 50bc 803d
00000370: 3248 83be b2e5 c0be b8de 743d 7429 67be
00000380: f903 76bd 7179 0a3e 6490 c1be debd 233e
00000390: 57e0 593e be8b 10be 6c23 d93d 5ba8 e1bd
000003a0: eb82 9fbe 5810 05be ca47 3abc 8883 993d
000003b0: 15f7 153e 2535 01be a702 24be a25b 133d
000003c0: 96b0 08be 91ef 97be e8d2 7ebd 7a5b 833e
000003d0: 475e 40be bff5 96be 239e 923d 6a7b 18bf
000003e0: a2a7 fabd 41d8 073e a302 76bb 60be f4ba
000003f0: e095 8b3e d9db 2b3e b480 593e 4d3f 953e
0.033415258 -0.32731843 0.0041650967 -0.22040817 -0.43641433 -0.21294928 -0.22128507 0.3066041
-0.16373132 0.07206364 0.14171025 0.2891763 -0.28766358 -0.056183234 0.09047928 0.0035045727
-0.100975156 -0.4014671 -0.28877568 -0.163217 -0.24522112 0.046774365 -0.22107346 0.20851865
-0.080968514 0.07890107 5.8851598e-05 -0.079104915 0.28802976 -0.39374566 0.12777208 0.13383059
0.23478608 0.28935295 0.08994763 0.09604333 -0.15997797 0.08877212 0.25255054 -0.3320952
-0.14746188 -0.17644952 -0.003877873 0.04542513 0.2588073 0.002037402 -0.28260538 -0.21089812
0.026988596 0.21622305 0.27454516 0.02909637 -0.0405391 -0.044943273 -0.019406162 0.012939714
-0.04015864 -0.112819195 0.18272862 0.3558686 -0.3499951 0.23035659 0.21275571 -0.35937488
0.112781905 0.17177907 0.16611569 -0.17394358 -0.15579599 -0.07799417 0.13040608 -0.29064223
-0.026356412 -0.27280667 0.23669046 -0.020184152 -0.15913084 -0.29754928 -0.055902008 0.3281781
-0.0066475435 0.16025198 0.282166 0.14590706 0.2555097 -0.06396177 0.35636002 0.012989521
0.22341007 -0.21218462 -0.058265556 0.1625351 -0.39854464 0.07188589 0.059961796 -0.13580227
-0.1698679 -0.021448348 -0.04047647 -0.30190456 -0.17449738 0.1043984 -0.04712213 -0.16373563
-0.13601302 0.1555964 -0.22340766 -0.41671154 -0.33686545 -0.66989934 -0.16648224 0.10146372
0.1993999 -0.20292819 0.11340638 0.00048039484 0.5407616 0.036951423 0.12440351 -0.0024386107
-0.023949679 -0.15197752 -0.09468319 -0.1813865 0.18590441 -0.12723897 -0.099955566 -0.015108547
0.052460123 0.09668226 0.20103817 0.119300045 -0.01178218 -0.030270413 0.040317304 0.0017358931
0.05627585 -0.07319892 -0.073321566 -0.14298013 0.29632944 -0.0064629996 -0.19046237 0.061634593
-0.042152345 0.1693308 0.42395744 -0.65024453 -0.41428885 0.01864248 0.19745079 0.17631675
-0.230738 0.22574723 -0.10232898 0.34127644 0.06971151 -0.1029057 -0.25304145 0.015229212
0.05902975 0.13614216 -0.20415778 0.093175106 0.102942996 0.07410754 0.25592124 -0.34968272
0.38731498 -0.2725553 0.4358373 0.09905862 -0.05735302 -0.3080268 0.10387422 0.12018902
-0.07740065 0.225184 0.07292697 -0.13655362 0.08845024 -0.45279878 -0.029888822 -0.04269192
-0.047882996 0.2655954 0.15454608 -0.19032446 -0.30423963 0.11167862 -0.16993332 -0.123646505
0.11450992 0.042228963 0.15870129 0.20989788 0.117545925 -0.21325573 -0.07016645 0.08490333
-0.15427285 -0.04299025 -0.51377094 -0.18828228 -0.25753874 0.08145978 0.2642693 -0.08512576
0.13414684 -0.26112652 0.19253102 0.13745946 -0.004700091 -0.033691242 -0.049941983 -0.13805236
-0.17270762 -0.069345646 -0.20971711 0.06285918 -0.25641018 -0.37675244 0.059782714 -0.22574407
-0.060062382 0.13522889 -0.37805474 0.15990397 0.21276985 -0.14115807 0.10602459 -0.110184394
-0.3115457 -0.12994516 -0.011369655 0.07495791 0.14645036 -0.1261793 -0.16016637 0.03597606
-0.13348612 -0.29674962 -0.062212855 0.2565573 -0.18785964 -0.29484364 0.071590684 -0.59563315
-0.12239005 0.13266088 -0.0037538193 -0.0018672459 0.27262783 0.16783084 0.21240503 0.29149857

conv2.bias f4 [128]
00000000: 0874 07be c6c7 70be 138e 75be f838 b1be
00000010: 0bb3 82be 6474 3fbe c138 77be 3a1b 26be
00000020: 8153 b63e 88bd e0bd 4a85 81bd 6652 29bc
00000030: 7b20 8abd b5d6 c83e e336 45be f8d9 57be
00000040: 5071 96be b109 103e a5b1 06bd dc16 a3be
00000050: 04d9 70be 92d3 27be 1ace 73be cf5c 92be
00000060: 4989 d2bc 7269 813c 246a e7bd c09c 20be
00000070: a3aa 9c3e 1553 bcbd 393a 68bc 1596 56be
00000080: b489 b2bd aaa8 ff3c 9529 e8bd 838e 59be
00000090: 5eb7 69be ec36 12be 57e3 76be 575b 11be
000000a0: 5bff 3abd bd16 39be a6ac bc3d f70c 8cbe
000000b0: 45e3 05be 279c 42be aa83 88bd caf6 57be
000000c0: 3399 3cbe 92d3 dfbd 2f2e 0ebc 0d42 f3bd
000000d0: b98f b5bd b308 6fbd d278 2e3e 0417 92be
000000e0: 14f2 1abe 8335 f3bd 44ce f0bd 604c 7ebd
000000f0: 6587 2abe e3bf acbc b7dd babe 4cf5 20be
00000100: c5b9 35be 9b90 3dbe c520 53be ea5d a6be
00000110: 9f43 22be 2502 29be 2f2d f9bc 4307 64be
00000120: 1b7f 20be 3978 89be e26c 6ebd 4c6e 67be
00000130: 800a 35bc 42ba 4cbd 7672 22be fc42 3fbe
00000140: 8717 b53e e375 9fbe 684a f2bd 7f69 d13e
00000150: b0f1 33be d184 3abe 3a27 3cbe 20ef dbbd
00000160: f538 65be 03ac 28be b95c 48be e636 83be
00000170: 2e9c 02be 3a23 5bbe 70d5 54be adaf 86be
00000180: d547 8dbd 226e 403d 5ae6 64be 5440 e3bd
00000190: 22fb 17be 321b 9cbd ebb4 9fbe 1cdd fdbd
000001a0: 7fc9 6abe 66ac 4fbe 3d5b 69be b239 afbc
000001b0: 612e abbd 2ccf 9ebe 4617 2abe 3708 5dbe
000001c0: a945 bbbe 1900 10be fb46 5ebe ef17 fdbd
000001d0: 9b65 47be f383 77be 9f0e 0abe 43f7 8bbe
000001e0: 923d 06be 0900 67bd 33c2 0ebe 3c45 e3bd
000001f0: 9565 11be 832b 4cbe c40f dbbd e0d6 dcbd
-0.13227856 -0.23513708 -0.23979978 -0.34613776 -0.25527224 -0.18696743 -0.24142744 -0.16221324
0.35610583 -0.1097365 -0.06324251 -0.010334587 -0.067444764 0.39226308 -0.19259219 -0.21079242
-0.29383326 0.14066197 -0.03288426 -0.31853378 -0.23520285 -0.16389301 -0.2380909 -0.28586432
-0.025700228 0.01579735 -0.112995416 -0.15684795 0.30598935 -0.09195534 -0.014174038 -0.20955689
-0.08717671 0.031208355 -0.11336056 -0.2124577 -0.22823855 -0.14278764 -0.24110161 -0.14195
-0.045653682 -0.1807508 0.092126176 -0.2735364 -0.13074978 -0.1900488 -0.06665738 -0.21090236
-0.18417816 -0.10929026 -0.008678003 -0.118778326 -0.088653035 -0.058357906 0.17038277 -0.28533185
-0.15131408 -0.11875441 -0.11758092 -0.062084556 -0.16653211 -0.021087592 -0.3649728 -0.15718573
-0.17746647 -0.18512194 -0.2061797 -0.32493526 -0.15846108 -0.16504724 -0.030417053 -0.22268395
-0.15673487 -0.26849535 -0.058209307 -0.22600669 -0.011049867 -0.049982317 -0.15863976 -0.18677896
0.35369512 -0.31144628 -0.11830598 0.409008 -0.17572665 -0.18214728 -0.18374339 -0.10738969
-0.22385009 -0.16471867 -0.19566621 -0.25627822 -0.1275489 -0.21400157 -0.20784545 -0.26305905
-0.068984665 0.04698003 -0.22353497 -0.11096254 -0.14841893 -0.076223746 -0.31192717 -0.12395689
-0.22928427 -0.20280609 -0.22788711 -0.021389816 -0.083584554 -0.31017435 -0.1661044 -0.21585165
-0.36576584 -0.14062537 -0.21706764 -0.123580806 -0.19472353 -0.24171428 -0.1348214 -0.27337083
-0.13109425 -0.056396518 -0.13941269 -0.1109719 -0.14198907 -0.19938473 -0.106963664 -0.10783172

fc1.weight f4 [128, 768]
00000000: 31a0 eebe 4d7a 19bf 4d0f 4abe 33b5 03bf
00000010: 405f 08bf 8cb2 fc3d e56f 043e 4542 4a3d
00000020: 8ad2 193e 3bdc 0dbf c9b0 a23d 0d0d 993e
00000030: 43a6 0ebe 5f67 24bd 2120 d63d bf82 b43d
00000040: 393d 023e 6c05 c53c 3379 30be c947 fa3d
00000050: 1455 8c3d 6d8b 6ebd 6fa4 90be 461a 8bbd
00000060: 6f51 aa3d ae58 adbe da6b 183e 6be2 7cbe
00000070: f3c6 06bf dd77 c3be 0bdf c03d 55d7 313d
00000080: 7475 8cbe 18af 373e 46b6 2ebe 9f6d 0bbd
00000090: 7905 2e3d ca75 52be da85 953e cfe8 63be
000000a0: 0943 393d f913 f5bd 9d45 51bf ca75 fabd
000000b0: 9fea 8cbe d007 303e a85f 0b3e 02f5 bbbc
000000c0: 2875 d8bd a51e d6bd ae22 623d fa0f b3bc
000000d0: 2fdf a53d 8963 2f3e 20da 8c3d f34c 113e
000000e0: 77f2 28bf 0aff b63e 5260 fe3d b14c ebbd
000000f0: 2828 953e df8d 2abe 5765 98be 7daf 60be
00000100: 42b3 0a3d 99e9 44be 893c 5e3e ac4e 4e3e
00000110: 9a87 773d d445 1d3e 0de4 903d 7fd1 30be
00000120: 6778 653d 6758 993c 22c5 2bbf 516f 283e
00000130: e7c8 b2bd ee53 b2be 377b ec3d 6bf0 373e
00000140: 34ca 5dbc 1e73 d2bd a7a2 083e 4d2f 893c
00000150: c60f fc3e 162a 023d 27c0 673e 4a6c 053d
00000160: 5027 9abd 4603 75bd 0914 e63c 5771 903a
00000170: a56b a8be 8267 613e 1340 d23d 2280 30be
00000180: 7178 a6bd 2af7 45be 112f 203e 4a21 e0bc
00000190: ecad 94be 5f26 02bc 8369 d33d 4d89 86be
000001a0: fcf9 233e fad7 db3e dd7d 6cbd 0ebf b5bd
000001b0: b338 823e f1b4 833b 3f18 58be a5bd f2bd
000001c0: 86f5 b5bd e7a1 0d3d 5652 48be b138 823c
000001d0: ef99 413d 4fbc 4b3d f161 20be 3e36 91b9
000001e0: f826 aabd 412d 553e 1cf0 26bf 34b4 31bd
000001f0: 6c12 d5be c3e7 bbbc d154 94bc c71e dfbd
00000200: ee4c 8e3e c1b8 c3be 03f1 17be 165d acbc
00000210: d71e 22be f29e c1be 8ce7 583e f71e 503d
00000220: 8a15 0dbe f7a2 81be 2a42 edbe 8b60 c9be
00000230: da96 113e 9582 efbc b073 17bf 0d50 04bf
00000240: 767f 38be 4544 213d 4097 2c3e 46ab b7be
00000250: 81ec b6bd 3309 2b3e 40f3 993e bda9 253e
00000260: 3db6 5abc 4057 373e fe68 babd f88e 3cbf
00000270: 583e 11bf e298 a0be e9f6 afbe f46d 78be
00000280: fd10 06be d544 babe a0ca 16bf 5234 cf3c
00000290: a718 9bbd e2f2 3cbe db76 22bd d2cb 86be
000002a0: 7ddd 80ba cf72 7cbc 5809 4bbe 1c24 8abd
000002b0: c29c 06be 501a 303c 5ced d7be 4306 973e
000002c0: 3f73 82be 3822 eb3d b13c f2bd 4edf 523c
000002d0: 67e4 b0bd 3846 083f 58d2 cebd 1f9c 51be
000002e0: aea2 20be 9222 e4bc 2541 143f 3acc 82bd
000002f0: 99b1 033d b1c4 0d3d 3a45 b0bc c9e0 ccbd
00000300: 64ea 29be 0563 ecbd 398b 1b3d fb86 6a3c
00000310: 15d0 0e3f aaf8 1b3e 4107 c43d 87cd 0abd
00000320: 3060 eebe fdf9 913c 8002 1dbd b701 39be
00000330: f642 183e f6c9 44be 650e 40bd fcfb 7f3e
00000340: 9aca cf3c 0bac fb3d 6d8e f0bd 7f14 103f
00000350: a372 afbe 028c aebe 2d8a debe 2ac5 de3d
00000360: e4c7 bcbe 6aa4 abbd a454 8abe 756c 83be
00000370: 39be 833d a499 933e d87e 5a3e afd0 d1bd
00000380: 62d5 50be 9372 233e 8966 08bf c335 d1bc
00000390: 6068 403d 404e 92bd ce70 e9bd cdda 4c3e
000003a0: 8330 5cbe c423 11be dcd7 54be 95e8 03bf
000003b0: 0d00 2abe 5af0 8fbe ecf2 b5be a1c3 e73d
000003c0: 85d4 0f3e db12 73be 7b44 1cbf c766 3c3d
000003d0: 7ec2 a3bd 7082 cb3e 1711 1fbe b596 063e
000003e0: 0877 a43d 5a63 11be e84a 313d d8ec b13e
000003f0: 47ee b4bc 8422 0abf f273 c1bc 4c6e b8be
-0.4660659 -0.5995224 -0.197324 -0.51448363 -0.5327034 0.123387426 0.1293331 0.049379606
0.1502172 -0.5541417 0.07943875 0.2989277 -0.13930611 -0.040137645 0.10455347 0.08814
0.12718667 0.024050437 -0.17233734 0.12220723 0.06852165 -0.058238436 -0.28250453 -0.06792121
0.083163135 -0.3385672 0.14884892 -0.24695747 -0.5264732 -0.38177386 0.09417542 0.043418247
-0.2743336 0.17937887 -0.1706172 -0.03404009 0.042485688 -0.20552745 0.29203683 -0.22256778
0.045229945 -0.119667 -0.81746846 -0.12229498 -0.27522752 0.1719048 0.13610709 -0.022943977
-0.10569221 -0.10455064 0.055208854 -0.021858204 0.080992095 0.17127813 0.068775415 0.1418951
-0.6599497 0.35741454 0.124207154 -0.11489237 0.291322 -0.16655682 -0.29764816 -0.21941943
0.03386236 -0.19229735 0.2170278 0.20147198 0.060432054 0.15358669 0.07074747 -0.17267416
0.056023028 0.018718911 -0.67097676 0.16448714 -0.08729725 -0.34829658 0.11546939 0.17962806
-0.0135369785 -0.10275863 0.13343297 0.016746188 0.49230784 0.031778418 0.22631894 0.032573976
-0.075270295 -0.059817575 0.028085725 0.0011020106 -0.32894626 0.22012141 0.102661274 -0.17236379
-0.08128441 -0.19332567 0.15642954 -0.027359623 -0.29038942 -0.007943719 0.10322859 -0.26276627
0.1601333 0.42938215 -0.05773722 -0.088743314 0.25433883 0.0040193726 -0.21102999 -0.11852578
-0.088847205 0.03457823 -0.19562659 0.015896173 0.047265943 0.049740132 -0.15662362 -0.0002769697
-0.08308214 0.20818044 -0.6521013 -0.043384746 -0.41615617 -0.022937661 -0.01810685 -0.10894542
0.27793068 -0.38226894 -0.14838032 -0.02104048 -0.15832077 -0.37816578 0.21182078 0.05081078
-0.13777748 -0.25319645 -0.46339542 -0.3933147 0.14217702 -0.029237071 -0.591609 -0.5168465
-0.18017372 0.039371748 0.16854572 -0.3587286 -0.08931828 0.16702728 0.30068398 0.16178031
-0.013349113 0.17904377 -0.09102057 -0.73655653 -0.56735754 -0.3136664 -0.34368065 -0.24260694
-0.13092418 -0.3638064 -0.5890293 0.025293503 -0.075730614 -0.18452027 -0.03966413 -0.26327378
-0.0009831634 -0.015408232 -0.19827783 -0.067451686 -0.13145736 0.010748461 -0.42173278 0.29496965
-0.2547855 0.11481136 -0.11827982 0.012870623 -0.08637314 0.53232145 -0.10098714 -0.20469712
-0.15687057 -0.027848516 0.579119 -0.063866094 0.032151792 0.034611408 -0.021517385 -0.10003812
-0.16593319 -0.11542324 0.03797457 0.014314408 0.5578626 0.15231577 0.09571696 -0.033887412
-0.4655776 0.017819399 -0.038332462 -0.1806706 0.14869294 -0.19217667 -0.046888728 0.24998468
0.025365163 0.12288674 -0.117459156 0.56281275 -0.34267148 -0.34091192 -0.43464795 0.1087745
-0.36871254 -0.08380969 -0.270177 -0.25668684 0.064327665 0.28828156 0.2133745 -0.10244881
-0.20393899 0.15961675 -0.53281456 -0.02553833 0.04697454 -0.07143831 -0.11398469 0.20005341
-0.21502881 -0.141738 -0.20785469 -0.51526767 -0.16601582 -0.2811306 -0.35536897 0.1131661
0.14045914 -0.23737662 -0.6104199 0.045996454 -0.07996081 0.39747953 -0.15533863 0.13143428
0.08030516 -0.14198056 0.043284327 0.3475101 -0.022086276 -0.53958917 -0.023614857 -0.3602165

fc1.bias f4 [128]
00000000: ca07 8a3e 052a 173c 0034 783d 59ea e43e
00000010: d546 ae3e 15bb af3e 6cb8 713e 85f3 063d
00000020: e70e 873e a052 a73e 98a1 903e 54cb 183e
00000030: 1e30 863d 6d55 573e 3be4 1f3e 6571 413e
00000040: cfee b23e 1886 b23e d077 b13e b1c0 5a3e
00000050: 1b5b 0fbc a551 7ebd 0eea a23e 2162 a83e
00000060: 9a12 5b3d 3675 873e ed4d 203e ac00 b43e
00000070: 8279 5c3e d5c3 823e a75b 073e e609 a13e
00000080: 3bbd abbc c241 a03e c4f8 313e 5d7d 073e
00000090: ce70 0f3f 6855 043f d371 e43e 7c69 163e
000000a0: ee5d 39bc 8512 5ebd 0496 363e 6a38 f83d
000000b0: e57b 933e 6e89 bd3e 9be3 bebc ca33 e13e
000000c0: 7166 14bd 3f73 823e 318b ec3e c0fc 56bd
000000d0: ebe0 c93e f495 ba3e 5132 683e 75b2 983e
000000e0: 3d80 973e cb85 da3e 92e3 843e e8ca e43d
000000f0: fb07 2dbc ffe6 613e 21db b53e d56c 343e
00000100: ece8 9a3e e910 833e 3b2f bb3d 8208 7c3e
00000110: 06aa 413e 56fe e1bc 2eb5 d43e b441 053f
00000120: aabd c53e 09e7 2f3e f2e3 963e 9bcb ad3e
00000130: aba2 993e 1d65 533e ed1a fd3e a74a 933e
00000140: e0e1 a93e 5f83 b73e 0d59 f83d a28d cf3e
00000150: 2391 e43e 4956 00bd 20d0 ae3e cf23 0f3f
00000160: 5923 98bc 7239 5cbd 745d b23e 1efe cb3c
00000170: 1a39 b33e 39d6 5a3e 0044 d13e ce57 53bd
00000180: 2007 6f3e 62b3 d13e 8895 013c e93b b33e
00000190: 4404 be3e b78e 20bd b2a9 633e 6743 ee3e
000001a0: 2673 ca3e fb89 5b3b ad9c f63e 6b63 bc3e
000001b0: e447 be3e 7ba1 883e 0a33 5fbc b69d 3fbd
000001c0: 2d4f ba3e 0c80 c43e 81a3 86bc 0fa3 953d
000001d0: a46c 9b3c 4d3b 503e c612 15bd 9f7b 5bbd
000001e0: f490 2dbe 52f8 193e 6d65 db3e d6f7 aa3b
000001f0: eed9 90bd e2a9 363e 99c6 a63e 8e1f ea3e
0.26959068 0.009226327 0.060596466 0.44710043 0.34038416 0.3432242 0.23605508 0.032947082
0.26378557 0.32680225 0.28248286 0.14921314 0.065521464 0.21028681 0.15614407 0.18890913
0.34947821 0.3486793 0.34661722 0.21362568 -0.008749749 -0.06208958 0.31819195 0.32887366
0.053484537 0.26456612 0.15654726 0.35156763 0.21530727 0.25540033 0.13218556 0.31452864
-0.020964256 0.3130017 0.17380053 0.13231416 0.560315 0.5169282 0.4461809 0.14688677
-0.0113138985 -0.05421688 0.17830664 0.12120135 0.28805462 0.37018913 -0.02330189 0.43984824
-0.03623051 0.2547855 0.46199945 -0.052487135 0.3942941 0.3644253 0.22675444 0.29823652
0.29590026 0.426802 0.25954872 0.11171514 -0.010560985 0.22060774 0.35518745 0.17619641
0.3025583 0.2559884 0.09139868 0.2461262 0.18912515 -0.027587097 0.4154448 0.5205338
0.38621265 0.17177977 0.29470783 0.339444 0.30006918 0.2064404 0.49434605 0.28767893
0.3318014 0.35842416 0.1212636 0.40537745 0.4464198 -0.031332288 0.34143162 0.55914015
-0.018571543 -0.05376572 0.34836924 0.024901446 0.35004503 0.21370782 0.40872192 -0.05159741
0.23342562 0.4095717 0.007909186 0.35006645 0.3711263 -0.039198603 0.22232702 0.465358
0.39540976 0.003349899 0.4816641 0.367946 0.37164223 0.266857 -0.0136230085 -0.046781264
0.3638853 0.38378942 -0.016435387 0.073064916 0.018972702 0.20335121 -0.036394857 -0.05358469
-0.16949826 0.15036133 0.4285082 0.0052175326 -0.07072817 0.17838243 0.32573393 0.457272

fc2.weight f4 [7, 128]
00000000: 03b0 1fbe 9ec2 9a3d 2c50 8e3d 8e7c a23c
00000010: 570b 8bbe c285 1cbd 26ca 3bbe 874f 513d
00000020: 3601 403c 0406 813c deb5 273c 033f 03be
00000030: f567 033d 0787 f5b9 1d0b dabe 8cfa 23be
00000040: f2e6 42bd 90b4 9abe 5a72 6bbe d177 4cbd
00000050: 35bd f43d 1e04 79bd 6898 a1be 1a83 de3d
00000060: eff5 1a3e fa19 8abe e4b0 13be 31e7 4ebb
00000070: dab2 7bbe bd6e 8d3b 5691 ffbd c8f1 97be
00000080: 9cc3 9eb8 5f8e e6bd a9e0 26be dffc 92be
00000090: 7196 513b fa75 ecbb c59d d03b a184 9abe
000000a0: e312 32bd e330 55bd 0101 ae3b 0e05 3cbd
000000b0: 1a05 4e3c c9db a0be 345d 6c3c 7a61 3e3c
000000c0: b83a 4d3c 82b3 b9be 5464 91bc 36fc 463c
000000d0: 8405 7dbe 67e1 993b 677d 6bbe 750a 243d
000000e0: e225 483d c3e4 1d3b 395c dcbd 824e 803d
000000f0: 305b 8fbb 4584 3dbc 6933 07be ac5a 3a3d
00000100: d2f2 7fbe a009 45be 48c1 1a3d 9243 05be
00000110: c864 7cbe 560a 2b3c 7e81 263c 9d68 a4bb
00000120: 8d18 8ebe 2924 75be 3a73 82be 1722 4ebe
00000130: 3029 d5bc 9bd4 6cbe c016 dd3b d50d d6be
00000140: 6e86 fb3a 627e 60be e85a 413d 1c1b a7bd
00000150: 3235 963a 3a4e 03bd ef90 a73c 2ccc d33a
00000160: fa92 1a3c a48d e43c ae68 ab3c 2e4d 83be
00000170: b39f f83b 0042 07be 4490 123d 5c4b 9bba
00000180: 3141 c2bc a6b7 c5bb 5124 643d a8c8 a1be
00000190: 265f 4e3c be7c f33b 603c 02bd cfbd 553c
000001a0: 5b17 d13c 153c d6bc e7a9 513b e17d 91bc
000001b0: 384d 84be b3ce efbe eb99 7a3c d8a5 dc3a
000001c0: 611d b0bc 3ba9 753c 1d88 1dbc f7b8 96be
000001d0: cbb4 383d 3840 da3c 2dd0 05bd d2c1 083d
000001e0: b0b2 1cbd 329f 243d 48e4 453c daf7 b23b
000001f0: 807e f63c 8cce 77be 82b2 4ebe c62a 473b
00000200: 2a30 2cbe 911a 81bd 2f37 3abe 6c6c a13c
00000210: cfd0 c83c 1824 50bd 95fa 77bd af43 49bb
00000220: 8368 d5be 2b28 afbe 6511 b23c 391b 65bd
00000230: 802e 073d ac7f 42bc 4834 a3be 90e9 cbbd
00000240: 7c19 253b 3146 d3bd 8b98 33bd 6a9a 95be
00000250: 281c d43d 95c8 a83d 9625 98bd 58ef c4be
00000260: e813 d2be 06b1 b3bb 3a0e bcbd 5f51 e13b
00000270: 4982 283d c08c df3b 94f2 863c 83d1 153b
00000280: b3a7 01bc 1327 64bd 02c0 c4be 69ce 623d
00000290: defd 363b a85a 63bc 3f8d 443c b6e9 693d
000002a0: 44f5 c3bc 1e50 1e3d 5a68 3a3c c2bf dcbe
000002b0: 0618 473c e01c 2b3c 132c 903d 92fd 883c
000002c0: 85d2 523d d57e 89be f5f3 333b f98a 7f3b
000002d0: 8ac4 04ba 6bcf a53c 48eb 1a3c a535 bcbe
000002e0: 79a8 2fbe ef72 073b 082f a63c 9f49 c8be
000002f0: 0373 6b3d 7027 37be d47c 33be 4099 993d
00000300: 494a 9dbe aebf 8abe e790 8e3d 5b9e 3ebe
00000310: 8f3a 3ebe 8a9d 353b 0a20 643c da20 34bb
00000320: fcec 1dbe bd3c 90bd 3ff4 b1bb f410 abba
00000330: 05e1 033e a687 ab3c 491c f03b 29f7 8cbb
00000340: 4a4e 8f3c 1bfb c5bb 0730 193d 999d dcbd
00000350: a402 893c 98d0 833d 1a3d 913c 9672 b93b
00000360: 9699 7bbd 51c5 b63d 64e3 1a3c 5f6b c8be
00000370: e3b1 0e3c dcc9 13be b0b5 d5bc d280 8b3d
00000380: 800d 65be d466 37bd 294f 21be 7c6b d03c
00000390: bb41 273c 96a6 563d 9647 153c 4bb4 d53c
000003a0: 701a 17bc aa57 aa3d 9d7f 64bb c121 a03b
000003b0: 9b54 d3bd b20c 2f3c 8117 a5bc 0ee7 1fbd
000003c0: d14d 013d e6f3 92bb ad84 1e3d e498 e7be
000003d0: 6266 8b3d ad5c 4d3d 9bfb a13d 073e 633c
000003e0: 7a5a d0be a518 2e3d aa13 8a3c 8bad 773c
000003f0: 2a2c 0d3d fc5b eebe f214 cbbd 5675 0b3c
-0.15594487 0.075566515 0.06948885 0.019834783 -0.2715709 -0.0382135 -0.18338832 0.051101234
0.011719039 0.015749939 0.010236232 -0.12817006 0.032081563 -0.00046830645 -0.42586604 -0.16013545
-0.047583528 -0.30215883 -0.2299284 -0.049918953 0.11950151 -0.060794942 -0.3156159 0.108648494
0.15132879 -0.26972944 -0.14422947 -0.0031570906 -0.24579945 0.0043161795 -0.124788925 -0.29676652
-7.570462e-05 -0.11257624 -0.16296639 -0.2870855 0.003198054 -0.0072162123 0.006366464 -0.30179313
-0.043475043 -0.052048575 0.0053101783 -0.045903258 0.0125744585 -0.31417683 0.014426518 0.01161992
0.012526207 -0.36269766 -0.017748035 0.012145093 -0.24709135 0.0046960595 -0.22997056 0.040049035
0.048864253 0.0024092651 -0.107597776 0.06264974 -0.004374884 -0.01156718 -0.13203205 0.045496628
-0.24994972 -0.19241953 0.037781984 -0.13014057 -0.2464782 0.010439476 0.010162709 -0.0050173537
-0.27753106 -0.23939575 -0.25478536 -0.20130192 -0.026020616 -0.23127978 0.006747097 -0.41807428
0.0019189843 -0.21923211 0.047205836 -0.081594676 0.0011459945 -0.032057025 0.020454852 0.001615887
0.009434456 0.02789957 0.020923939 -0.2564482 0.007587397 -0.13208771 0.035782114 -0.001184802
-0.023712726 -0.0060338555 0.055698697 -0.315984 0.012595927 0.007430642 -0.03179586 0.013045742
0.025523832 -0.026151696 0.0031992139 -0.017760219 -0.25840163 -0.46837386 0.015295486 0.0016834093
-0.021498384 0.014993961 -0.0096149715 -0.29437992 0.045094293 0.02664195 -0.032669235 0.033387966
-0.038256347 0.040190883 0.012078352 0.005461675 0.030089617 -0.24199885 -0.20185283 0.0030390485
-0.16815248 -0.06303895 -0.18185113 0.01970502 0.02451363 -0.05081567 -0.060541708 -0.0030710509
-0.416813 -0.34210333 0.02173681 -0.055934165 0.03300333 -0.01187126 -0.31875825 -0.09956658
0.0025192192 -0.10316122 -0.04384665 -0.2921937 0.10356933 0.08241383 -0.07429044 -0.38463855
-0.41030812 -0.0054837493 -0.09182401 0.0068761553 0.041139875 0.0068221986 0.016473092 0.0022860474
-0.007913518 -0.055701327 -0.3842774 0.05537263 0.0027922313 -0.013876595 0.011996566 0.05710765
-0.023920663 0.038650624 0.011377418 -0.4311505 0.012151724 0.010443896 0.070396565 0.016722474
0.0514703 -0.26854578 0.0027458642 0.0038992746 -0.0005064687 0.020240506 0.0094555095 -0.36759678
-0.17154111 0.002066787 0.020286098 -0.39118668 0.05748273 -0.17886138 -0.17528087 0.07499933
-0.30720738 -0.27099365 0.06961232 -0.18615095 -0.18577026 0.0027712309 0.013923654 -0.0027485401
-0.15422434 -0.07042835 -0.0054307277 -0.0013051317 0.12878807 0.020938706 0.0073275906 -0.0043019247
0.017493386 -0.006041897 0.037399318 -0.10772247 0.016724892 0.064362705 0.01772933 0.0056594117
-0.061425768 0.08924354 0.009453628 -0.39144418 0.008709404 -0.14432472 -0.026087612 0.0681168
-0.22368431 -0.0447758 -0.15752853 0.025441878 0.010208542 0.052404962 0.009111306 0.026086947
-0.009222612 0.08317502 -0.0034866103 0.0048868363 -0.103188716 0.010684179 -0.02015281 -0.03903871
0.031568352 -0.0044846414 0.03870075 -0.45233834 0.06806637 0.05013721 0.07909318 0.013869769
-0.40694028 0.04250397 0.01685508 0.015117059 0.034465946 -0.46554554 -0.099161044 0.008511862

fc2.bias f4 [7]
00000000: 1a55 b23e 9eee 5a3e fddb 4b3e b185 a33e
00000010: 3112 c73e 4142 8c3e b0e7 9e3e
0.34830552 0.21380088 0.19908138 0.31937936 0.38881066 0.27394298 0.3103614
