models/double_dql_blockcheck_1.pt (torch, 536704 bytes, 8 tensors)

conv1.weight f4 [64, 1, 4, 4]
00000000: f86b 8ebf 5987 2e3e b2c3 793d 19b8 5e3e
00000010: 9b5f 5c3e ad62 fabc 2391 62bd ebad 8a3e
00000020: 6cb4 3a3e af14 6bbe 7552 e3bd be25 d6bd
00000030: 71f3 763e beb8 cbbc 65ff 1e3e 40ac 03be
00000040: f799 343e 4ea2 263e 163e fa3d fa2e ebbe
00000050: 15d4 b6bd c8ce ae3d a346 fd3d 462b 09bf
00000060: f348 223e 3fd3 0bbe c494 02be 976b c63e
00000070: fe76 00be 2636 8e3d 5a72 2dbe dca7 a3be
00000080: f14c 89bf 1d16 c53d 809b 2bbe 6300 8bbe
00000090: 7816 87bd 7094 da3d cc83 c63d 2d7c f13c
000000a0: a6cb 3c3e 72e7 18be 7e15 88bd 3559 963e
000000b0: 4d11 4b3d 0775 bebe 09aa b4bc 8057 17bd
000000c0: af96 e13d dda3 c9bd bd9d 29be 72f5 563e
000000d0: b648 88bd 3149 9cbe e8ce 54bd f4e1 413e
000000e0: f788 9f3e 8608 ef3c bb3f 843e fb4e 9bbe
000000f0: e7ac cabe a3a6 82bd 039e e33e 31f4 613d
00000100: a8af 03be f2db 1cbe c8ed 78be 818f 3fbf
00000110: 82d1 493e f362 e8b9 b7e4 e23d ba53 763e
00000120: 3b74 40be 47ad 523e 0746 343e 660e 093e
00000130: 2f18 8f3e a9a5 88be 7ae5 443c 055d 43be
00000140: e8eb 48bf 1a20 21bd 7931 6ebe 1ec1 5d3e
00000150: 9d0b a0be b8bd cf3d a939 bdbd 465e bc3c
00000160: cc59 9ebd 86d0 b6bd 2f82 553e 2d3d a63e
00000170: 2057 a2bd 58e8 f53d 1ecb 02bf 6c60 10be
00000180: aa6d a0be 9664 1b3d a43a 803e e070 72bd
00000190: 0b58 a7be 7fc2 96bd 9aca 37be d829 323d
000001a0: 80bb 05be 3f4e 8abe 8289 91be 67c0 e53d
000001b0: d535 893e 1425 78bf 2a62 de3e 8bb7 e33e
000001c0: de1b 8f3e 5a1a 263e a145 6cbd b3b4 be3e
000001d0: 9218 b1bd e73d 603d 499e a43c e165 3d3d
000001e0: ef85 0c3e ca9d 083e 561f 343d 5abf 62be
000001f0: e69f 4e3e cd51 71be cb46 60bd 9280 053d
00000200: 720d 19bd a517 8ebe 867c b3bd e8f1 40bf
00000210: e80d afbc 676a 7c3e 4a80 8abd 96b5 183e
00000220: 23a6 163e 9d2f 123d 037a 883e 7cd1 b6be
00000230: b2bb f6bc 5b4f c33e 3878 6ebe b8e2 0cbf
00000240: be8b 12bd ca5c e6bd 6017 a2bd 2d5e 093f
00000250: 3596 8abe 33bd 81bc 7bfc 5a3e a826 303d
00000260: cd7d 3dbd 6a18 f2bd 9e81 bdbd 6115 81be
00000270: 4f27 ea3e 070f 4b3e 5118 83bc 0a6c 81be
00000280: c0a8 15be d175 9cbd 040b 7b3e 9339 933e
00000290: 78b8 bdbe e74b 433e 07da 363e 57e0 733b
000002a0: fc22 cdbe bb33 29bd 0cbe 6e3d 6101 973e
000002b0: d6c8 3f3e fed4 2fbe 0dca 3fbe 9a3b 79be
000002c0: 3425 9d3d 7769 fbbe c4e1 88be 5e75 cd3e
000002d0: b1bb bc3d 4a55 7cbd 65a8 093f 215c 8a3d
000002e0: f94d 7b3d 9c5b 6d3e eac4 16be 95bd 54bd
000002f0: 4c63 95be 0c6f 853d 0d22 d9bd 14d4 abbe
00000300: 6fab 53be 8624 bcbe a46e 983d 5828 50bf
00000310: 2b11 02be d860 e03c 7c24 a6be f4e3 d13b
00000320: c153 113d 18e4 8ebe bf11 213e 19b8 e33d
00000330: e538 433e 01d7 9d3e 1c3b 803e c992 373e
00000340: 06ef 17be a8bf 8f3e 550e 03bf f3fa 313e
00000350: b487 71be 83f3 13be 4eda a5bd 4a4d 983e
00000360: c4f3 263e ae24 dcbc fc53 8a3e 759b a83e
00000370: cc8b 26be 631a 1cbe fc1c a0bd 1036 84be
00000380: 0277 a0be 5723 0fbe a6e0 3fbe d324 51bf
00000390: 6a47 41be f72c 753d 6692 ed3c 9390 a9be
000003a0: 0d9a c73e d0f0 dd3d 3aa3 733e f2e5 aa3d
000003b0: d74b a1bd ea2d 22be b4d3 14be 62a8 2e3d
000003c0: 7571 cc3e 0ddc c4bd 0bb6 09be 0bc5 423e
000003d0: af78 51be 0eae 2b3d 22fb e03e b31c adbe
000003e0: 3ca8 ec3b 945c d8bc 7bb5 97be 15ca 163e
000003f0: bc66 92bc a823 263d 523c 8abe 4a2c 173e
-1.11267 0.17043819 0.060977645 0.21749915 0.21520846 -0.03056463 -0.055314194 0.27085814
0.18232888 -0.22957109 -0.11099712 -0.104564175 0.24116303 -0.024868365 0.15527113 -0.12858677
0.17636858 0.16272852 0.12218873 -0.45934278 -0.0892717 0.08535534 0.123669885 -0.53581655
0.1584814 -0.13654803 -0.12752062 0.3875396 -0.12545392 0.06943922 -0.16938153 -0.31964004
-1.0726606 0.096233584 -0.16758537 -0.27148733 -0.065960824 0.106728435 0.09693107 0.029478157
0.1843706 -0.1493204 -0.06644724 0.29364935 0.049577046 -0.3719866 -0.022053735 -0.03694868
0.11015069 -0.098457076 -0.16564079 0.20992067 -0.066544935 -0.3052459 -0.051955134 0.1893385
0.31159183 0.029178869 0.25829872 -0.30333695 -0.3958504 -0.0637944 0.4445649 0.05516452
-0.12859976 -0.15318277 -0.24309456 -0.74828345 0.19708827 -0.0004432421 0.1107878 0.24055377
-0.18794338 0.20573913 0.17604838 0.13384399 0.27948138 -0.2668889 0.012017602 -0.19078453
-0.78484964 -0.039337255 -0.2326106 0.216557 -0.3125886 0.10143608 -0.092395134 0.022994172
-0.07731971 -0.089264914 0.20850442 0.32468548 -0.07926774 0.12007207 -0.5109118 -0.14099282
-0.31333667 0.037937723 0.2504474 -0.059189677 -0.3268436 -0.07361316 -0.1794838 0.043496937
-0.13059807 -0.27012822 -0.28425223 0.112183385 0.26798883 -0.96931577 0.43434268 0.4447597
0.27950948 0.1622099 -0.05768359 0.37247238 -0.086472645 0.054746535 0.020095007 0.046239737
0.13722967 0.13341442 0.043975197 -0.22143307 0.20178184 -0.23566361 -0.054755013 0.032593317
-0.037366338 -0.27752414 -0.08763985 -0.7536912 -0.021368936 0.24649964 -0.067627504 0.1491302
0.14711814 0.03568994 0.26655588 -0.357067 -0.030118797 0.3814648 -0.23288047 -0.55033445
-0.0357778 -0.11248167 -0.07914615 0.53659326 -0.27067724 -0.015837288 0.21385376 0.043005615
-0.04626255 -0.11821063 -0.09253238 -0.25211623 0.45733115 0.19829951 -0.016002806 -0.2527774
-0.14615154 -0.07639659 0.24515921 0.28754863 -0.370548 0.19071923 0.17856608 0.0037212574
-0.40065753 -0.0413091 0.05828671 0.2949324 0.18728957 -0.17171094 -0.1872942 -0.24339142
0.076731116 -0.491039 -0.26734746 0.40128607 0.09215487 -0.061604775 0.53772575 0.067558534
0.061353657 0.23179477 -0.14723554 -0.051938612 -0.2917732 0.06515321 -0.10602198 -0.3356024
-0.20670865 -0.36746615 0.07442978 -0.8131156 -0.12701862 0.027389929 -0.3244971 0.006405348
0.035480265 -0.27908397 0.15729426 0.11119098 0.19064672 0.30828097 0.25045097 0.17927088
-0.14837274 0.2807591 -0.51193744 0.17380886 -0.23586923 -0.14448361 -0.08098279 0.29746467
0.16303927 -0.026872959 0.270172 0.32931104 -0.16264266 -0.1524444 -0.07818028 -0.25822496
-0.31340796 -0.13978325 -0.1873804 -0.81696814 -0.18874899 0.059857335 0.029000472 -0.33118114
0.3898472 0.10836947 0.23792735 0.0834464 -0.078757934 -0.15837827 -0.14533883 0.04264105
0.3993031 -0.09612284 -0.1344835 0.19020478 -0.20456193 0.04191404 0.439416 -0.33810958
0.0072222035 -0.026411332 -0.29630646 0.14725526 -0.017871253 0.04056135 -0.26999146 0.14762989

conv1.bias f4 [64]
00000000: 1c63 d8be e9e7 fe3d 2343 033e 09c3 82be
00000010: c49e aebd 8351 cc3e ae53 78be 8bff 00be
00000020: fd97 3fbe ea79 95be 2216 443c 5864 293e
00000030: 291e 74be 86cb 9cbe c561 023e 05a2 68be
00000040: a3e1 b3be 5f4a 3abe 5a97 40be 01fa 47be
00000050: 1fb3 23be 4dd6 973d f948 d83e 4eee c3bd
00000060: 5b18 acbd 61a6 6ebd c0b2 b93e 1f9f 8cbe
00000070: 2ee4 65be 0789 3abe 3db1 b3bd 71b8 b7bb
00000080: f250 9f3e d95c f1bd 8da9 24bd 7d98 9bbe
00000090: bf43 343e 4586 dcbd 9d8d aabe aea5 14bd
000000a0: dde1 df3e 067e c3be 4a5f 70bd 8122 513e
000000b0: 3c8a 45be 5878 c6bd 11c8 953d 8547 11be
000000c0: 8279 79be 4e5d 40bd 9de5 86bd 3805 3d3e
000000d0: d31a 4c3c 2212 f53d 716d 9cbe 0548 fe3d
000000e0: 5649 b7be 5ff9 013e df9f 78be 16ed dd3e
000000f0: 96ed b7bd 3055 b33d ecd7 8bbd 8a01 aabb
-0.42263114 0.12446577 0.1281858 -0.25539425 -0.08526376 0.39905939 -0.24250671 -0.12597482
-0.18710323 -0.29194576 0.0119681675 0.16542184 -0.2383963 -0.30624026 0.12732609 -0.22718056
-0.35133085 -0.18192433 -0.18807736 -0.19528963 -0.15986298 0.074139215 0.42243174 -0.095669374
-0.08403083 -0.05826414 0.36269188 -0.2746515 -0.22450325 -0.18216334 -0.0877404 -0.005606704
0.31116444 -0.117852874 -0.04020076 -0.30389777 0.17603968 -0.107677974 -0.33311167 -0.036290817
0.43727008 -0.38182086 -0.058684625 0.20423318 -0.19291013 -0.096909225 0.0731355 -0.14187439
-0.24362758 -0.046963982 -0.06586764 0.18459022 0.012457567 0.11966349 -0.30552247 0.124160804
-0.35798138 0.12692784 -0.24279736 0.43344945 -0.08980863 0.087564826 -0.06828293 -0.0051881718

conv2.weight f4 [128, 64, 2, 2]
00000000: 2b0e d33e 1fb8 a9be 00d9 983e 3aec 8dbe
00000010: d20c f03c b5f3 b23c 1f12 9bbd d26a 00be
00000020: cfcd 903e 7d84 5dbe 8e96 043d 9781 40bd
00000030: e1cc 63bd b087 53be c7bd d5bd a0ec 2e3e
00000040: f970 ca3c 4781 113e 5128 94be 07ce 4fbd
00000050: 16bc 933d 3c13 03be a77c e3be 73df 5dbd
00000060: 11b5 143e 0e9f 91be 9bf8 02bf be48 5f3e
00000070: 5c60 a23d 9a7c c6bc 6a7f 18be 0c33 0c3e
00000080: 8a72 8a3e d6b6 9a3e 051e 3cbe 0aff 08be
00000090: b493 ac3e 5aa9 8f3e 4307 48be 7c34 30be
000000a0: 8a3c 42bd fb2a c6be b8f8 10be 6d33 8abe
000000b0: 5d76 afbe ab34 963e 9339 41be 53e3 8ebd
000000c0: d9b9 0a3e 6258 0bbe 42bd 52be f3dd 9e3d
000000d0: d65e 283e 6960 18bf 6247 98bd 780d 693d
000000e0: a98d ea3d 2927 52be 9c0e 0a3e 2449 f23d
000000f0: 32dc bbbe 1600 3ebe 6755 603d daaf 4e3e
00000100: a488 153d 05bf dd3d 3598 013e a616 a63e
00000110: 121c fb3c 3809 0ebd 91db c5be a58a ad3d
00000120: 600f fabd 4a57 c9bd 5e35 81be 208e 743d
00000130: 6543 b9bc 1355 c63d e55a 65be 3825 033d
00000140: 8169 5abd 826a ecbd 8b65 433e 69b4 0abe
00000150: 488d 2d3b fa67 b23d 4a40 88be 6201 0bbe
00000160: def4 da3d 789c d1bd b5e7 a73e 8d91 14bf
00000170: 8065 063e 3f45 cdbd a0e0 afbd 03fa 1fbe
00000180: 1a4b eabd f387 bb3d 87bf 763e b71e 783d
00000190: 9bbf 233e ef0e dd3c 148e 893d 07f3 d03d
000001a0: 3972 11bd 75f3 47be 6d66 87be 2193 56be
000001b0: 02e3 1fbe 2ff1 91bc 7d7b 8f3e f465 c6be
000001c0: 6dc8 fb3c 06fc 173e bd16 d13c 96b1 48bd
000001d0: 18e4 e83d c106 3f3d 2ca1 ebbd 578c 8cbd
000001e0: 2450 05be 246d 85be 5e5c ad3d 2428 ad3d
000001f0: a4b2 fa3c 314c 9f3c e7f3 3fbc 0a1b 5ebd
00000200: 1bdb 29be 6469 fdbe d95e 8c3e 3a1f c6be
00000210: 42a7 08bf 1ced 4abd 26af ca3e 6ec0 49be
00000220: 6f76 f4be e11a 1ebe 30b8 bd39 bf60 b5be
00000230: 7645 113e 9068 c23d 6693 76be e240 3c3e
00000240: 8549 59be c59e 3e3c fc76 913d d407 4bbe
00000250: 7321 c23b d465 84bc 3615 e9bd 7db7 4a3d
00000260: 010d 9f3d 40a6 cabd 3a02 20bd d461 49bd
00000270: 1b24 503d e69c de3d 1c66 ab3e 1a93 253e
00000280: 634f 9ebd b026 a7bd 7508 2abf 771b 453e
00000290: 5e3d 4bbe 7cf8 27bd d5ea c7be b434 963d
000002a0: 3767 86be dfd9 a83e ed20 71bd 3e49 90be
000002b0: a246 a03d 3b17 0a3e dea6 0fbc 127a 3a3d
000002c0: 818e 9b3e f282 51be 257f 0a3e af67 5f3e
000002d0: 33ce 99bd 3d2e 093d ed9c 80be a3b6 1d3d
000002e0: c656 233e ffd6 0d3e baca a43d aaae 6a3e
000002f0: e1c0 6b3d e413 03bc 3e38 b0bc f83b 853d
00000300: 67f0 b4bd db23 22be 312a 1ebe f582 383e
00000310: 5244 ef3d 06bf a1bc 33da 823e 3770 77be
00000320: a8ea a03d 8528 c2be c3dc 31bd 91cb 01be
00000330: 27e4 f0bd bfaa 6b3e abe2 853e 6f80 59bd
00000340: 83cf 2e3e 385c 553e 3cc8 dc3d 23d4 98bb
00000350: 3d11 2bbe 8b96 023d 884f e9bd e103 343e
00000360: 7efe 1b3e e7c7 acbd 0281 a3be a031 a2bd
00000370: 314b 623e 0b42 9cb9 314f a9be f131 103e
00000380: 3209 9f3d 1802 143d 20ac 2d3e b725 f53c
00000390: a20a d03d 0aab 2c3e b35b b8bd f04e e6bd
000003a0: 6e66 5bbd c719 643d 1c3e 0bbd b789 44be
000003b0: 36b3 af3d 44ea a33d 0761 c5be e8e5 2abd
000003c0: 584d c3be 759a 1fbe be9d aabe ea74 60bd
000003d0: c4bf 8ebe 7afa 06be 1017 133e d01a 9c3e
000003e0: 0db1 873c c9b9 a0bd f399 223e ed42 b3bb
000003f0: 736c 333e 14e9 06bd b2b3 cc3d e18d 83be
0.41221747 -0.33148286 0.29853058 -0.2771929 0.029302988 0.021844724 -0.07571816 -0.12540749
0.2828202 -0.21632572 0.032370143 -0.046998587 -0.05561531 -0.2065723 -0.10436588 0.17082453
0.024712073 0.14209472 -0.2893701 -0.050733592 0.07213609 -0.12800306 -0.4443104 -0.054168176
0.14522196 -0.28441662 -0.5116059 0.21805093 0.07928535 -0.024229337 -0.14892355 0.13691348
0.2704051 0.30217618 -0.18370827 -0.1337854 0.3370644 0.28058892 -0.1953402 -0.17207521
-0.047421016 -0.38704666 -0.14157379 -0.2699236 -0.34269992 0.29337057 -0.18869619 -0.069769524
0.13547458 -0.13607934 -0.20580009 0.07757177 0.16442427 -0.5952211 -0.0743549 0.05689761
0.11452801 -0.20522751 0.13482136 0.11830357 -0.36691433 -0.1855472 0.054768946 0.2018427
0.036507264 0.1082745 0.12655719 0.32439154 0.030653033 -0.03467676 -0.38644078 0.0847371
-0.12209964 -0.09831102 -0.25236028 0.059705853 -0.022615144 0.09684195 -0.22397955 0.032017916
-0.053323273 -0.11543752 0.19081704 -0.13545384 0.0026481915 0.08711238 -0.2661155 -0.13574746
0.10691236 -0.10234922 0.32793966 -0.5803459 0.13124657 -0.10022973 -0.08587766 -0.15622716
-0.11440106 0.0915679 0.240965 0.060576167 0.1599106 0.02698466 0.067165524 0.10202604
-0.03550932 -0.19526465 -0.26445332 -0.20954563 -0.1561394 -0.0178152 0.28023902 -0.3874966
0.030735219 0.14842233 0.025523538 -0.048997484 0.113716304 0.0466373 -0.115053505 -0.06862705
-0.13018852 -0.2605983 0.08464883 0.08454922 0.03060276 0.01944551 -0.011715866 -0.054225005
-0.16587488 -0.4949447 0.27416113 -0.386957 -0.53380215 -0.04954253 0.39586753 -0.19702312
-0.47746608 -0.15439941 0.0003618612 -0.35425374 0.14186653 0.094926 -0.24079666 0.18384126
-0.21219452 0.011634533 0.071027726 -0.19827205 0.0059243976 -0.016161837 -0.11380999 0.049491394
0.07766152 -0.09894991 -0.039064623 -0.04916556 0.050815683 0.1086977 0.3347634 0.16169396
-0.077299856 -0.08161676 -0.66419154 0.19248758 -0.19847628 -0.041008458 -0.3904635 0.07334271
-0.26250622 0.32978722 -0.05886929 -0.2818088 0.07825972 0.13485424 -0.008767812 0.04552657
0.3038216 -0.20460108 0.13525064 0.21816896 -0.075100325 0.033491362 -0.25119725 0.038504254
0.1595107 0.13851546 0.080464795 0.22918192 0.05755699 -0.008000348 -0.021511193 0.06505579
-0.088349156 -0.1583399 -0.15445782 0.18018706 0.11682953 -0.019744407 0.25557098 -0.241639
0.07857257 -0.3792154 -0.043423425 -0.1267531 -0.117622666 0.23014353 0.26149496 -0.053101
0.17071347 0.2083596 0.10780379 -0.0046639605 -0.16705795 0.03188185 -0.113921225 0.17579605
0.152338 -0.08436566 -0.31934363 -0.079196215 0.22098996 -0.00029803845 -0.3306823 0.14081551
0.07765426 0.03613481 0.16960192 0.02992521 0.10158278 0.16862121 -0.09001865 -0.11245525
-0.05356448 0.055688646 -0.03399478 -0.19193159 0.08579104 0.08003667 -0.38550588 -0.041723162
-0.38144946 -0.15586264 -0.33323473 -0.054798998 -0.2788068 -0.13181487 0.14364266 0.30489206
0.016563917 -0.07847936 0.1587904 -0.0054706247 0.17521839 -0.032937124 0.09995212 -0.25694183

conv2.bias f4 [128]
00000000: 397e 003b 0494 73be 5c80 5e3d cb8c 9cbc
00000010: dc8f ddbd 54eb 003e 35aa bdbd bfb9 9b3d
00000020: f094 e13c 034b f3bc be92 07bd dd8b 03be
00000030: 350a f2bd eb81 1abd 8a98 c1bd 207e 8abd
00000040: be75 1d3e 62d7 9abd 2f70 83be 0000 353c
00000050: ce23 25be d5c7 4dbe fb74 3dbe 1891 3ebe
00000060: 5a25 edbc d2c3 643d 58e6 69be bed4 b5bd
00000070: 3788 f9bd 6b74 c03d edfa 913d 14f6 7dbe
00000080: 161f 933d e33e 5fbe e1ec adbd 3e6d dabd
00000090: 0765 50be 032f aebc 5265 b9bd 5c5e 9bbd
000000a0: 6d6d f3bd b8d7 08bd d95e bcbd b443 d7bd
000000b0: a275 f5bd 1904 8bbd 4e68 d0bd 5226 30be
000000c0: 10e9 fbbd dcf6 58bd 3579 193e 1fb7 12be
000000d0: e066 e8bd 9956 35bd d4d8 0ebe 2d6b 6abe
000000e0: 1f1a e2bd 9369 a63e 2d5d cfbb 2b97 153d
000000f0: 5b50 fabd fa7d e2bb d01a 04be 828a 25bd
00000100: 17bd 69be 1044 3fbd 3d6e 1cbe 04da fbbd
00000110: ced3 3fbd deef 2b3d e7f7 03be cdbb 923a
00000120: 42a6 5abd 4940 003e e96d 053d d891 133e
00000130: 3b69 a5bd bced a63c f74d 2abe 218f 963e
00000140: b94c 6bbe f599 69bd 15db f33c cb5e 52bd
00000150: 2961 52be c33e b3bd 1527 a6bd 80b9 2fbe
00000160: 2404 0ebd 211d 1b3c f267 85bd 30aa 1cbd
00000170: a509 22be 07f6 4ebe 6356 68be d3fe 8fbd
00000180: 1f01 f8bd 1bfd 0d3e b3ac 803b a299 5bbb
00000190: 8b12 c3bd 02ff 16be 6d81 f83d 4305 4b3d
000001a0: 4bbf d8bd bd73 03bd 3d71 9c3c 9d0e 51be
000001b0: 854e a53d 3c7f 4cbe de4c 8fbe eb16 60be
000001c0: c4f2 c4bd 3bea c53c c542 31bd 67ff 29be
000001d0: 276a cebd 4d11 75be 5276 9bbd 91f6 523d
000001e0: 2b9a 8f3b 1562 56be 7084 4fbe f86e b5bd
000001f0: 5f7b 98bd 591f 3bbd e14a 573c eecd 0bbe
0.0019606485 -0.23786932 0.05432163 -0.019110104 -0.108184546 0.1258977 -0.0926098 0.07603788
0.02753684 -0.029698854 -0.03309893 -0.12846322 -0.11818353 -0.037721556 -0.09452923 -0.06762338
0.15376946 -0.07560612 -0.25671527 0.011047363 -0.1612694 -0.20095761 -0.18501656 -0.18610036
-0.028948475 0.05585081 -0.22841775 -0.08878468 -0.12184184 0.09397205 0.071279384 -0.24800903
0.071836635 -0.21801333 -0.08492447 -0.106653675 -0.20351039 -0.021262651 -0.090525284 -0.07586357
-0.11886106 -0.03340885 -0.09197778 -0.1051096 -0.11985327 -0.06787891 -0.101761445 -0.17202118
-0.123003125 -0.0529698 0.14987643 -0.14327668 -0.11347747 -0.04427204 -0.13949901 -0.22892447
-0.110401385 0.32502422 -0.006328246 0.036521118 -0.12222358 -0.00691199 -0.12900853 -0.040415294
-0.22826038 -0.04669577 -0.15276428 -0.122974426 -0.046832852 0.041976802 -0.12887536 0.0011194885
-0.053381212 0.12524523 0.03257552 0.14411104 -0.08076712 0.020377032 -0.16631304 0.29406074
-0.22978486 -0.05703159 0.029767552 -0.051359933 -0.20544876 -0.08752205 -0.08112923 -0.17160606
-0.034671918 0.009467394 -0.065139666 -0.03824824 -0.15823992 -0.2021104 -0.22689204 -0.07031026
-0.12109589 0.13866083 0.0039268374 -0.003350832 -0.09525021 -0.14745715 0.12134061 0.049565565
-0.10583361 -0.0320928 0.019096965 -0.20415731 0.08071617 -0.19970411 -0.27988333 -0.21883743
-0.09616616 0.024159541 -0.043276567 -0.16601335 -0.10078841 -0.23932381 -0.07590927 0.051504675
0.004382392 -0.20935853 -0.20265365 -0.08859056 -0.07445406 -0.045684192 0.013140411 -0.13652775

fc1.weight f4 [128, 768]
00000000: a5c6 c6be 8b7b 5a3d 687d 90be 97df e33d
00000010: 11f0 93bd 409c 7e3d 7864 96be b899 cb3e
00000020: b8e0 a03d c755 7abe 5ac8 b7bd 2a46 44be
00000030: de46 9ebe 1ccf 803e adf3 853c fcbd 8c3e
00000040: 6b93 38be fe27 4c3d da29 503d 150b 0c3e
00000050: 636d 3c3e 9945 20bf 9fba 773b 8edc c3bd
00000060: ccb5 c8be 3675 d23d a5f9 89be a11a 2bbd
00000070: 6744 603e cc4a 20be 6936 723d d866 e8bd
00000080: 31b7 7abe 1f3f 2e3e dcda 00bd 1c9c a33e
00000090: 357b 06be 5f5b 35be 6e9d b7be b0d2 83be
000000a0: 0a17 60be 27aa 67be 86e1 0a3e 57eb 583e
000000b0: 1fe7 c6bd cd3e 853b fa53 7dbd 8a78 9dbe
000000c0: 6264 e1bd 996c 4f3e 0565 bcbe 587c 443f
000000d0: 7bae 1f3e bbe4 b3be 7018 64be 4449 b4be
000000e0: 6eb4 aebc 857f 60be 8d1a f23d b96c 2d3e
000000f0: a15d dc3c 2415 cebd 666a e2bd a98f 4dbe
00000100: 4622 aabd defa 47bd a9a9 8a3e 84e4 8fbe
00000110: c4ee b03b 51ee 9bbd 7440 bf3e 0df4 493e
00000120: 1996 ea3d 6ff6 e6be bd13 d8be eb8f 76bd
00000130: b90a 26bf b459 f3bd 0484 c93c 206a dcbc
00000140: 3fc5 bebc 42aa 0fbc 3652 a23c d496 a93c
00000150: 45db debc 1a33 80bb 1656 f9bb 9da0 88bd
00000160: 0033 e5bd 38f0 a1be d24d a0bd 055e 3bbd
00000170: eac4 95be c0bb 3cbe e037 ea3d 529f 18be
00000180: 2085 b6be 7d52 cc3e db27 04be 1653 f2bd
00000190: 3002 62be 5df0 e2bd dd78 d53e 06cb 80be
000001a0: 0d33 8c3e 69d9 733e 65e8 a539 dfdd 37be
000001b0: 8d13 0e3e 271b 5fbd 22a4 3b3d cb38 0abe
000001c0: faf6 53be c188 96be 3240 733d 7938 883e
000001d0: 54f7 e63d 7128 65be 23ca 1dbe 5f27 733d
000001e0: 9578 713e 6eb5 a0bd 4d8c 9a3e 6935 28bd
000001f0: 619d 55be 79ce 4cbd ec5f 17be 631d e3bd
00000200: d996 78bd d8a0 8e3d e775 fcbe d3f0 45bd
00000210: fc78 0ebf f1ff 0dbf 6c2c b9bd f33e 793b
00000220: 4f45 4cbe 4e5e 31be a247 e8be 4b9b 0e3e
00000230: 5fe8 a9bd 9b9d 83bd 610c 01be 8dd7 c7bc
00000240: c73e c6bd f8f6 3cbf b831 af3d a4f7 05be
00000250: bad5 50bf abad 5abd 1e08 023e d7ed 1dbd
00000260: 29e3 7e3e b0e6 5bbd a87c a33c 448d 4dbe
00000270: dd5f c5be 9d97 503e e7aa c63d 6811 5cbe
00000280: 5847 493c b887 dcbd f171 9fbe 9d35 52be
00000290: d702 1dbe 3e01 96be 142f b7bd 4f57 b4be
000002a0: 6940 083e 0c2a 90be 7e71 d8bd 1a79 e7bd
000002b0: 5b34 a73d 91ff a13e a688 08be 0735 d5be
000002c0: 7336 b9be 5ed7 19bd 1974 a03e 0f59 02be
000002d0: 724f fdbd 39d6 1d3e 5999 8ebe efd1 933e
000002e0: ca13 f3bd f635 adbe a467 af3e 55af 8cbe
000002f0: 1bc8 06be 49ac a3bd 924e d13d 90f2 c8be
00000300: 3802 b7bd c4a3 f33d d622 2abf e54d fc3b
00000310: fe81 92be 7944 e9bd 3ba4 6c3e 1dd1 52be
00000320: b23b 4f3e f920 37be 4bcc 093d 3ff8 41be
00000330: 88ab 28be 1d26 65bd bf3e 85bd 01fc 82bc
00000340: 622d 91bd d1da 453b 7983 34bd 5f67 fabc
00000350: d34c b4be f456 7d3e d2d3 c23e d81b 193e
00000360: 9304 983d e067 b73d e10b 9d3d c993 a7bd
00000370: 7570 f1be 7e1c afbd 0105 1cbe 87c6 a13e
00000380: a4cd df3c 60e4 f73d ec4b f8bd 6b38 f83d
00000390: 22aa 9b3d dd83 29bd 5e68 b7be 81f3 0cbf
000003a0: 1e3a 2ebd bcb2 fbbe f929 bebe 1657 0c3e
000003b0: a483 80be 8851 ad3c 3837 acbe 9c50 91be
000003c0: 87dc 16be 96ed 993d de50 59bb d7a6 91be
000003d0: 0b6e 06be db72 013e fe1e 82be 06e2 6cbd
000003e0: eb7d adbd 002c a3be fbf3 543e bc5c 79be
000003f0: 1539 013d 5566 bf3e d30d d5bd a833 303d
-0.3882343 0.053340476 -0.28220677 0.11126631 -0.072235234 0.06216073 -0.29373527 0.39765716
0.07855362 -0.24446784 -0.08973761 -0.1916739 -0.30913442 0.25158012 0.016351545 0.27488697
-0.18024985 0.049842827 0.050821163 0.13676102 0.18401103 -0.626062 0.0037800444 -0.09563552
-0.392012 0.102762625 -0.26948276 -0.041773442 0.21901093 -0.15653533 0.05913392 -0.11347741
-0.24483944 0.17016266 -0.03145872 0.3195504 -0.13132937 -0.17710637 -0.35862297 -0.2574668
-0.21883789 -0.22623502 0.13562593 0.21183525 -0.097120516 0.0040663243 -0.061847664 -0.30756027
-0.110054746 0.2025627 -0.36795822 0.76752234 0.15593903 -0.35135445 -0.22274947 -0.35212147
-0.02132627 -0.21923645 0.118214704 0.16936006 0.026900114 -0.10062626 -0.1105545 -0.20074333
-0.083073184 -0.04882323 0.27082565 -0.2810403 0.005399557 -0.076138146 0.3735386 0.19722004
0.1145441 -0.4510989 -0.4220256 -0.060195845 -0.6486011 -0.11882344 0.024599083 -0.026906073
-0.023287414 -0.00876862 0.019814592 0.020701803 -0.027204165 -0.003912342 -0.007609139 -0.066712596
-0.11191368 -0.31628585 -0.07827343 -0.04574396 -0.29251796 -0.18430996 0.114364386 -0.14904526
-0.3564844 0.39906684 -0.12905829 -0.11832254 -0.22071147 -0.11081002 0.41693774 -0.25154895
0.273827 0.23813404 0.000316444 -0.17955731 0.13874646 -0.054469254 0.045810826 -0.13498227
-0.20699683 -0.2940121 0.059387393 0.26605585 0.11277643 -0.22378708 -0.1540914 0.05936372
0.23581155 -0.07847105 0.30185166 -0.04106656 -0.20860817 -0.050001595 -0.14782685 -0.110895894
-0.060690735 0.06964272 -0.49308702 -0.04832537 -0.5565336 -0.5546866 -0.09041676 0.0038031905
-0.19948314 -0.1732113 -0.45367151 0.13926427 -0.082962744 -0.06426545 -0.12602378 -0.024394775
-0.096799426 -0.73814344 0.08554405 -0.13082749 -0.8157612 -0.05338828 0.12698409 -0.0385569
0.24891342 -0.053686798 0.019956902 -0.2007342 -0.385497 0.20370336 0.09700566 -0.21491015
0.012285076 -0.10768074 -0.31141618 -0.20528264 -0.15333115 -0.29297823 -0.08944526 -0.3522286
0.1330582 -0.2815708 -0.10568522 -0.11302395 0.08164283 0.31640294 -0.13333377 -0.4164202
-0.36174354 -0.037558906 0.31338575 -0.12729286 -0.123686686 0.1541375 -0.2785137 0.28871104
-0.11869009 -0.3383023 0.3425876 -0.27477518 -0.13162272 -0.07991845 0.10220064 -0.3924756
-0.0893597 0.1189647 -0.66459405 0.0076997154 -0.286148 -0.11390013 0.23109524 -0.20587583
0.20237616 -0.17883672 0.033642095 -0.18942355 -0.16471684 -0.05594455 -0.065061085 -0.015989305
-0.07088734 0.003019024 -0.044070695 -0.03056687 -0.35214862 0.24740201 0.3805223 0.14952028
0.074227475 0.089553595 0.07668281 -0.08182485 -0.4715611 -0.08550356 -0.15236284 0.31596777
0.027319737 0.12104106 -0.12123856 0.12120136 0.0760081 -0.04138552 -0.35821813 -0.5505906
-0.042535894 -0.491598 -0.37141398 0.13705096 -0.25100434 0.021157041 -0.3363588 -0.28381813
-0.14732562 0.07516019 -0.0033159773 -0.284476 -0.13127916 0.1264147 -0.2541427 -0.05783274
-0.084712826 -0.31869507 0.20796196 -0.24351782 0.03154858 0.3738276 -0.104030274 0.043018013

fc1.bias f4 [128]
00000000: f57f e23c b42a 613e b488 ac3e 0a61 b73e
00000010: 3993 543e d994 8e3e 7315 383e d1a8 a33e
00000020: b4c1 543e 648b 3dbc 9c77 3c3e 74fa 0f3e
00000030: cede 7dbd 0151 9b3e ed30 febc 6432 723e
00000040: c563 8fbd 4a65 1fbd 3b90 16bc df21 9b3e
00000050: f97a c63e 8ef0 f7bc 7a2c 8cbc fb65 c23d
00000060: eca3 ac39 f0d6 603e 8dfe 513e d104 e4bd
00000070: e06d 9e3e 3a9a f1bd 13bd f53e 9111 8c3e
00000080: b5e9 c03e 14db 893e 011b 603e 4109 263d
00000090: dc74 033d 0d66 7b3e 910e 0f3e 5226 8f3e
000000a0: 4c24 0d3c 9d30 16bd b717 21bd e12b f2bd
000000b0: 72ab 713e 1ca2 c23e 480e bb3e 4252 ca3e
000000c0: a42c e53d 424d 88bd b62b 47bd 4898 2f3e
000000d0: f440 78bd 7df3 013e ba88 92bd a245 7abc
000000e0: 4d66 80bd ad60 15bd e8f7 473e 7e8f 00bd
000000f0: 7a14 883c 09ba c4bd fe47 223e 042b 4cbd
00000100: a14c 9fbd c1f9 5c3e 74f5 68bc 6370 663c
00000110: b2e3 5c3e 9c49 683d 90d8 313e 2296 7cbd
00000120: 31dc 7d3b 0ce8 723e cabc 18be 1605 60bd
00000130: dfc9 933e 7894 d8bc d298 0b3d 700e 913e
00000140: caa4 83bc f4a5 933e 46a3 973e 7903 3bbd
00000150: c28d de3d 3d66 b3bc 4443 493e 768f 85bb
00000160: 2b2d 883e c90d c33d 6ddf b03e 349f 83bd
00000170: a0f7 9ebc a5dd c43e 9413 783c 7141 6bbd
00000180: e0ec 693e 7063 d6bb cf3f fd3e 5e4a 2bbd
00000190: 8b5e 0a3d 4372 db3e e6b1 0dbd 4b3e e4bc
000001a0: 3c2e 1bbe fd39 e5bc fc31 7d3d 1af0 393d
000001b0: e964 d13e 4607 483e 72b2 163e 6f7d 9ebd
000001c0: 4b43 3bbd bead 0d3e 1a28 c43e 8e02 7cbd
000001d0: a30e 073e 35ac 443d 5d16 493e 15cd 013e
000001e0: 8884 403e e4ba 9d3e 7790 463e 9e0d 0b3f
000001f0: 8354 84bd 3f65 cb3e 790f 0bbe b90a a73d
0.027648905 0.21988946 0.33698046 0.35816222 0.20759286 0.27847937 0.17976932 0.31964734
0.20777017 -0.011568878 0.18405002 0.14060384 -0.06198006 0.3033524 -0.031029189 0.23652035
-0.070014514 -0.038914956 -0.009189661 0.3029928 0.38765696 -0.030266073 -0.017111052 0.094921075
0.00032928528 0.21956992 0.2050726 -0.11133731 0.30943203 -0.117969945 0.47995815 0.27357152
0.37678304 0.26924956 0.21885301 0.04053617 0.032093868 0.24550648 0.139704 0.27958924
0.008614611 -0.036667455 -0.039329257 -0.118247755 0.23600557 0.38014305 0.36534333 0.39515883
0.11190155 -0.06655361 -0.04862567 0.17147934 -0.06060882 0.1269054 -0.07154985 -0.015275391
-0.06269512 -0.03646915 0.19528162 -0.031386845 0.016611326 -0.09605796 0.15847775 -0.04984571
-0.07778288 0.21579649 -0.014218677 0.014064881 0.21571234 0.056710824 0.17367768 -0.061666615
0.003873598 0.23721331 -0.14915767 -0.05469235 0.28864953 -0.026437983 0.034081288 0.28331327
-0.016069788 0.2883755 0.29616755 -0.04565761 0.10866882 -0.021899337 0.19654566 -0.0040759398
0.2659696 0.09524114 0.3454546 -0.0642685 -0.019405186 0.3845035 0.015141387 -0.057435457
0.22844267 -0.0065426156 0.49462745 -0.04181897 0.03378157 0.42860612 -0.034593485 -0.027861735
-0.15154356 -0.027981753 0.061815247 0.045394994 0.408973 0.19534025 0.14716509 -0.07738768
-0.045718472 0.13835809 0.38311845 -0.061525874 0.13189177 0.048015792 0.19637437 0.12675889
0.18800557 0.3080665 0.19391046 0.54317653 -0.06461432 0.39725682 -0.13580121 0.08156342

fc2.weight f4 [7, 128]
00000000: 83fb 243e e26e 883d 5644 02bd b828 dfbc
00000010: 763a 26bd 8418 18bd d3e5 b6bd 26d3 9fbd
00000020: 5521 273e df95 b6bd 2a00 693d e372 e33d
00000030: 3178 32bd 5186 ffbd 4c9f 8c3e 385b aabe
00000040: b8bc 773b 00d7 083e e2aa b6bc b15b 3dbd
00000050: 2c49 613c 50b6 ecbc 8e2e 863e 7d88 52be
00000060: 1105 babe c940 18be e1bc b13d ee23 a3be
00000070: 7b16 11bd f43e 99bd 44f4 963b 8097 633c
00000080: 5786 e7bd ab35 2e3d fbfe 75be f21a 5b3e
00000090: d42f 5cbe 4324 963c 0aa1 413d 45c0 febd
000000a0: 12c0 e8bd f920 b23d 76cc 7c3d 456e 9f3e
000000b0: cf2a 87bd e21d f8bd b0d2 613c f1f7 6e3c
000000c0: 2744 013e 2164 4c3e 8d55 8ebd af74 94be
000000d0: b121 5cba 8f1f 18be 846a 803e 287a d33c
000000e0: 183c 80bc 27b3 02bd f359 1dbe a76f 07bd
000000f0: 3ac0 1d3d 6ed4 513e 5c15 23be bd0a acbe
00000100: f8ce a8bc c43e a6be 68fb 2d3c 20e2 53be
00000110: ab96 08be fdcc 893d 9a75 8bbd d120 46bd
00000120: 2ee1 c9bc 73f7 0b3d 697f e13d 3b6a 98bd
00000130: f43e f3bd 7e91 91be f5d1 1cbe bc35 e3bd
00000140: d662 343e 09ea f4bd fa18 d6bd dcab 8c3e
00000150: cd07 693e fdda b7bd f4e0 54bd 3a96 663e
00000160: e4da a2bb 940d 0f3e 118f 193c 65a9 3f3d
00000170: b589 e5bc fec6 93bd 67fb f33d 3ffa 883d
00000180: 837a e8bd 7372 2abd e2b7 58bb e26e 9abe
00000190: e1a2 0e3e 4adf 2bbc e210 2d3c 9c56 763e
000001a0: 0485 363e 74b2 343d 15ee 8f3d 56a1 393e
000001b0: 431b 84bc cdfa 8fbd 2f17 00be 5420 953e
000001c0: 9905 8cbd 4c76 9ebe daca 073c 5ebc 27bd
000001d0: 1352 2c3d 1e37 3e3e 7a9c fbbd c919 e2be
000001e0: 7b0d 23be 6e34 5abc 6715 dbbd cd2c bbbb
000001f0: ded0 4fbc c19d 163c 669b b93e 8c9f 363e
00000200: 0186 9a3d 5010 36bd 0622 51bd e55f 9bbb
00000210: 04e0 bbbb 1c4d a2bd 279f 20be afaa 6cbe
00000220: 2b16 233e e856 92bc 06ad 013e f883 023e
00000230: 7676 2f3d 5b31 47be ca43 843e 7a75 aabd
00000240: c017 9cbd 074e 3d3e 2602 1ebc 8e7f 87be
00000250: 3dc2 353c 65df efbc d187 173e 0421 09be
00000260: c699 093e 018b e7bd 2dbd f13d 27b1 5e3e
00000270: 8be3 21bd 8236 61bb 5b73 8e3a 0e8e 29be
00000280: 4245 8abe 0a19 a5bd 3cff 19bd 3888 fc3d
00000290: 1f1a 893e d46d 6bbd bc3e 103d a7c3 3dbe
000002a0: 4b09 153e b237 7b3c be3e 5d3d eb73 3b3e
000002b0: e8b0 20be e428 84bd 1c64 c2bc 8ba5 b13c
000002c0: 21d1 f73d 8f38 ec3d 1fde 72bd f723 28be
000002d0: 9ef5 93bd 3251 a03c 4d0d 703e 3b64 9cbd
000002e0: 715b 153d 49c6 d23c a82c 47be 8857 90bc
000002f0: e83d cc3d a3da 833e 197f 8ebd 4d92 533d
00000300: bb2d 2c3d af79 a7bd 701c 433d e7f3 2bbe
00000310: 0671 0cbe 3e42 20bc da90 1cbe d0f7 bfbb
00000320: 992d 4d3d 356a 923d c486 683e 8646 5dbd
00000330: f2ce d6bd 5dc7 383e c67d 923e ccca 39bd
00000340: e7dc 613e 5a72 1d3b 4ac0 74be 5653 8d3e
00000350: 2241 0b3e 0781 b6bd 05b3 43bd 8390 653e
00000360: 22af 453d b897 513e ffaf 4d3c 636b 44bc
00000370: 9ca6 a43d dc91 003d 1889 023e e370 b5be
00000380: bd73 0cbe 9442 633d 5adc ddbc 1fa1 1cbe
00000390: 7eb0 e83d 959b febc 2589 853d d47d 563e
000003a0: 7d61 5b3e e4a2 21bd 4c77 b93d c881 2a3e
000003b0: 3e6f 22bd d947 06be fe75 11bd fcac 8b3e
000003c0: 2bc2 2cbb 2e8b 21be dade 9039 d251 8f3d
000003d0: 6f7d 933d 52a6 1fbe f921 803d cddd 013e
000003e0: e5cc 74be 5b70 23bc 1bf1 ac3c 169b e4b9
000003f0: 33b5 b63d 9a02 0d3c eecc af3e 355c 203e
0.16111569 0.06661774 -0.03180345 -0.027241096 -0.040583096 -0.037132755 -0.08930554 -0.07803945
0.16321309 -0.089153044 0.056884922 0.11105897 -0.043571655 -0.12476791 0.27465284 -0.3327272
0.0037801694 0.13363266 -0.02229828 -0.046230022 0.013750356 -0.028895527 0.26207393 -0.20559879
-0.3633199 -0.14868464 0.08678604 -0.3186335 -0.03542183 -0.074827105 0.0046067555 0.013891101
-0.1130492 0.04253165 -0.24023049 0.21396998 -0.2150262 0.018327838 0.04727272 -0.12439016
-0.113647595 0.08697695 0.061718427 0.31138816 -0.06599962 -0.12115075 0.013783142 0.014585481
0.12623654 0.19960071 -0.06949911 -0.28995273 -0.00083973544 -0.14855789 0.25081265 0.025815085
-0.015653655 -0.031909134 -0.15366344 -0.033065464 0.0385134 0.20491192 -0.15926117 -0.33601943
-0.020606503 -0.3246976 0.010619022 -0.20691729 -0.13338725 0.067285515 -0.0680954 -0.04837114
-0.024643507 0.034171533 0.1101063 -0.07442137 -0.11877242 -0.28431314 -0.15314467 -0.110942334
0.17615828 -0.11958701 -0.10453983 0.27474868 0.22756882 -0.089773156 -0.051972345 0.22518244
-0.0049699415 0.13970023 0.009372489 0.046792407 -0.028019765 -0.07215689 0.119131856 0.06688356
-0.11351492 -0.041613054 -0.0033068587 -0.30162722 0.13929321 -0.010490248 0.010563107 0.24056476
0.17824179 0.0441155 0.070278324 0.18127951 -0.01612628 -0.07030258 -0.12508844 0.29126227
-0.06837005 -0.30949628 0.00828811 -0.040951125 0.04207046 0.18575713 -0.12285705 -0.44160298
-0.15923111 -0.013318164 -0.106974415 -0.005712128 -0.012684075 0.009192885 0.36251372 0.178343
0.075450905 -0.04444915 -0.051057838 -0.004741656 -0.005733492 -0.07924864 -0.15685712 -0.23111986
0.15926425 -0.017863706 0.1266366 0.12745655 0.042837583 -0.19452421 0.2583297 -0.08323188
-0.076217175 0.18486796 -0.009644067 -0.26464504 0.011093673 -0.029281328 0.14797904 -0.133915
0.13437566 -0.1130581 0.118036605 0.21747266 -0.039523643 -0.0034364765 0.0010868119 -0.16558096
-0.27005965 -0.080614164 -0.037596926 0.12330669 0.2677774 -0.057477787 0.03521608 -0.18531667
0.14554326 0.015333103 0.054014914 0.18305938 -0.15692484 -0.06453112 -0.023729376 0.021685382
0.12100435 0.11534225 -0.059293862 -0.1641997 -0.07224582 0.019569967 0.23442574 -0.07636305
0.03646416 0.025729315 -0.19450629 -0.017619863 0.09972745 0.25752744 -0.06957836 0.051653195
0.0420358 -0.08177506 0.047634542 -0.1679226 -0.1371499 -0.009781418 -0.15289631 -0.005858399
0.050092313 0.07149164 0.22707659 -0.054022335 -0.104886904 0.18044801 0.28611583 -0.045359418
0.22056924 0.0024024458 -0.23901477 0.27602643 0.13599065 -0.08911329 -0.04777815 0.22418408
0.048262723 0.20468032 0.012554168 -0.011988494 0.08039591 0.031389102 0.1274761 -0.35437688
-0.13716026 0.055483416 -0.02708261 -0.15295838 0.11361788 -0.031080047 0.06520299 0.20946437
0.21423908 -0.039461985 0.09055957 0.1665107 -0.03965687 -0.13113345 -0.035512917 0.27280414
-0.002636085 -0.15775749 0.00027631858 0.06998028 0.07201659 -0.1559079 0.0625648 0.12682267
-0.23906286 -0.009975518 0.021111062 -0.00043603097 0.0892128 0.008606577 0.34336036 0.15660174

fc2.bias f4 [7]
00000000: 6282 41be 1cb6 67be b0c3 48bd 5ec5 ebbd
00000010: ef37 23be ae14 35bd 843e 96be
-0.18897393 -0.22628063 -0.049014747 -0.11512254 -0.15939306 -0.044209175 -0.2934457
