models/dql_negamax_1.pt (torch, 536492 bytes, 8 tensors)

conv1.weight f4 [64, 1, 4, 4]
0	0xbae6e408	-0.0017615566
1	0x3e2a2ca2	0.16618589
2	0x3e41f543	0.18941216
3	0x3e0b77e9	0.13619961
4	0x3d7dbc8d	0.061947394
5	0xbec83bb7	-0.3910806
6	0xbacbdcc6	-0.0015553467
7	0xbd54576f	-0.051841196
8	0x3dc38424	0.09546688
9	0xbe4866dc	-0.19570488
10	0xbd880213	-0.066410206
11	0x3eb2c99a	0.34919435
12	0xbe26947d	-0.16267581
13	0x3d7c5ec6	0.06161382
14	0xbe3fff44	-0.1874972
15	0xbcf08e3b	-0.029364696
16	0xbf1e5b94	-0.6185849
17	0x3d890913	0.06691184
18	0xbf75a4d0	-0.9595461
19	0xbdac168f	-0.0840274
20	0x3e679488	0.22615254
21	0x3eb843b0	0.3598914
22	0x3e582f78	0.21111858
23	0x3ea8c3f2	0.32961994
24	0xbecd5bec	-0.40109193
25	0xbea3ea94	-0.32014906
26	0xbd8fe90f	-0.07026874
27	0x3e169e83	0.14708905
28	0x3e53aa42	0.20670417
29	0xbe181b12	-0.14854077
30	0x3e1c3e8f	0.15258239
31	0xbed7c3e0	-0.42141628
32	0x3c69ad07	0.014262444
33	0xbde1dcb3	-0.11028423
34	0xbe17434a	-0.14771762
35	0x3f106f3c	0.5641973
36	0xbe9e9926	-0.30976218
37	0xbd909c3a	-0.07061048
38	0x3d905c18	0.070488155
39	0x3e7fa23b	0.2496423
40	0x3e85951b	0.2609032
41	0x3e2d812a	0.16943803
42	0x3dac4a34	0.084125906
43	0x3c96bde1	0.018401088
44	0xbd6fd77f	-0.058555122
45	0xbe874bcd	-0.2642502
46	0xbbfda6b0	-0.007740818
47	0xbe937bd7	-0.2880542
48	0x3ebec566	0.37259978
49	0x3d25c669	0.04047242
50	0x3e7668f6	0.24063477
51	0x3dfb1915	0.122606434
52	0xbeaabcda	-0.33347207
53	0xbe32341e	-0.17402694
54	0xbf0055e7	-0.50131077
55	0xbef35272	-0.47523838
56	0x3e15fa71	0.14646317
57	0xbcb251a7	-0.02176745
58	0xbd4a4174	-0.049378827
59	0xbd316053	-0.043304753
60	0xbc8ebb69	-0.017423349
61	0x3e8fc223	0.28077802
62	0xbcbdd218	-0.02317147
63	0x3ec9831a	0.39357835
64	0xbf239e2a	-0.63913214
65	0x3e989db1	0.2980781
66	0x3e53221f	0.20618485
67	0xbcee0a11	-0.029057534
68	0xbf74e7ab	-0.95666
69	0xbd1f8e9a	-0.038954355
70	0xbe903d56	-0.28171796
71	0x3ae7dbb7	0.0017689381
72	0x3d5bd563	0.0536703
73	0xbe837b1d	-0.25679865
74	0x3e1e9dd1	0.1548989
75	0xbdb64b44	-0.089010745
76	0x3c68fcdd	0.014220444
77	0x3ef2a0b6	0.47388238
78	0x3d83d478	0.064370096
79	0xbe8f4aff	-0.27986905
80	0xbcf11715	-0.029429952
81	0x3e2a3da4	0.16625077
82	0x3e64e6b1	0.22353627
83	0xbe94600f	-0.28979537
84	0xbdc54cb3	-0.0963377
85	0x3de6b67c	0.11265275
86	0xbb933016	-0.0044918163
87	0x3d682bc6	0.05668237
88	0xbeebbd7a	-0.46042997
89	0x3d6c778e	0.057731204
90	0xbbe7565d	-0.007059856
91	0xbf06bc4e	-0.5263108
92	0xbeb16c89	-0.34653118
93	0xbd40698b	-0.046975654
94	0xbe876135	-0.2644135
95	0x3ee5fb37	0.44918224
96	0x3e9be829	0.30450562
97	0x3e847f9d	0.2587861
98	0x3e698a7b	0.22806732
99	0xbed5ba81	-0.41743854
100	0xbda1f827	-0.079086594
101	0x3de97872	0.11399926
102	0xbe4f503a	-0.20245448
103	0x391c6ccc	0.0001491785
104	0x3babbb41	0.0052408283
105	0xbd0502f5	-0.032473523
106	0xbe312da5	-0.17302568
107	0x3edaf85a	0.42767602
108	0xbee1d0d8	-0.44104648
109	0xbec1c64b	-0.37846598
110	0x3e0816a7	0.13289891
111	0x3eb44522	0.35208994
112	0x3e5416ce	0.20711824
113	0xbf18f523	-0.5974905
114	0x3db5c793	0.088759564
115	0xbf512723	-0.8170034
116	0xbbe40b69	-0.006959368
117	0xbea0e1d5	-0.31422296
118	0xbe2096ac	-0.15682477
119	0x3d10f87c	0.035393223
120	0xbe1ec0fd	-0.15503307
121	0x3e54eb59	0.20792903
122	0xbe755538	-0.2395829
123	0x3ec0d120	0.3765955
124	0x3e901537	0.28141186
125	0x3caa372e	0.020778265
126	0x3e3633c4	0.17793185
127	0xbf12b876	-0.57312715
128	0x3eb8f70a	0.36125976
129	0x3da236b6	0.079205915
130	0xbd34ab00	-0.04410839
131	0x3f09621f	0.53665346
132	0x3c6f3966	0.014601087
133	0xbe82ce86	-0.2554819
134	0xbc852216	-0.016251605
135	0xbddb3ad3	-0.10704579
136	0xbd472f51	-0.04862911
137	0x3cf51add	0.029920036
138	0x3ca88259	0.020569967
139	0xbab95914	-0.0014140927
140	0xbd1857e6	-0.0371932
141	0x3e267adb	0.16257803
142	0x3d251da8	0.040311486
143	0xbec0decf	-0.3766999
144	0xba602ccc	-0.0008551597
145	0xbd9730ac	-0.0738233
146	0xbdecd27e	-0.11563586
147	0x3d82b47e	0.063820824
148	0x3e0027bb	0.12515156
149	0x3cc987cf	0.024600891
150	0xbdc390d2	-0.09549107
151	0xbe6a48ae	-0.22879288
152	0xbe0534d6	-0.13008437
153	0x3e89d2ab	0.2691854
154	0x3ec28d93	0.37998638
155	0x3e3615a9	0.177817
156	0xbde2ce57	-0.110745125
157	0x3eb73636	0.35783547
158	0xbe823f5a	-0.25438958
159	0xbd8ce711	-0.0688001
160	0xbf87c841	-1.0607988
161	0xbbd21878	-0.0064116083
162	0xbe1bdd79	-0.15221204
163	0x3e5a8874	0.21341115
164	0x3e08f2ba	0.13373843
165	0xbe4712f6	-0.19440827
166	0x3d7f7be2	0.062374003
167	0x3e1c27c6	0.15249547
168	0x3e537d4e	0.20653269
169	0x3d002218	0.031282514
170	0xbd90b5d1	-0.07065929
171	0x3b3e8609	0.002907159
172	0xbef6ea44	-0.48225605
173	0x3e75d53a	0.2400712
174	0xbe1573f1	-0.1459501
175	0x3d34f78c	0.04418139
176	0xbf167eea	-0.58787405
177	0xbc17b36f	-0.009259089
178	0x3eaddecb	0.3395904
179	0x3ea1d1e3	0.31605443
180	0xbeadd050	-0.33947992
181	0x3da3c7a0	0.0799706
182	0xbd537fa6	-0.051635407
183	0xbeac3761	-0.33636
184	0xbe8226fd	-0.2542037
185	0xbe6d3dc8	-0.23168099
186	0xbdf75ef7	-0.1207866
187	0xbd27acdb	-0.040936332
188	0xbd83856d	-0.06421933
189	0xbe4398b2	-0.19101217
190	0x3ec8ac50	0.39193964
191	0x3e46f3e9	0.19428982
192	0xbf10e7ca	-0.5660368
193	0xbd998318	-0.07495707
194	0x3ea82191	0.3283811
195	0x3e509c8f	0.20372222
196	0x3d510fe1	0.051040534
197	0xbc327fb8	-0.010894708
198	0xbe6c3a99	-0.23069228
199	0x3e8a50c2	0.27014738
200	0x3dbcb583	0.09214308
201	0xbc8fce9c	-0.017554574
202	0xbd1fa50f	-0.03897577
203	0xbd2a9cf1	-0.041653577
204	0xbe29e0d7	-0.16589676
205	0xbcb2d795	-0.021831313
206	0x3e61a43c	0.22035307
207	0xbf0db1ff	-0.55349725
208	0x3e8ea11e	0.27857298
209	0x3ea02021	0.31274512
210	0x3e3d7865	0.18502958
211	0xbf9050a1	-1.1274606
212	0xbd3a9fa9	-0.04556242
213	0xbd20c873	-0.039253663
214	0xbde1f972	-0.11033906
215	0x3eb0fcd2	0.34567887
216	0x3dbbf59d	0.091777064
217	0xbd25f935	-0.040520865
218	0xbe4141e2	-0.18872789
219	0xbe26d84a	-0.16293445
220	0x3e87d0c8	0.26526475
221	0xbeae1016	-0.33996648
222	0x3e1de2ad	0.15418501
223	0xbe0fd13b	-0.14044659
224	0xbc48401a	-0.012222314
225	0xbe9b9d07	-0.3039324
226	0xbd9a99aa	-0.0754884
227	0x3e650316	0.22364458
228	0xbde85124	-0.11343601
229	0x3e656086	0.22400102
230	0xbd92e5eb	-0.071727596
231	0xbf2962c4	-0.6616633
232	0x3e933d12	0.2875753
233	0xbe3d3c9d	-0.18480153
234	0xbecccb35	-0.39998785
235	0xbda3b72a	-0.0799392
236	0x3edea0af	0.43481967
237	0xbba980d7	-0.0051728296
238	0xbd90fc9a	-0.0707943
239	0x3db64a0e	0.089008436
240	0x3df644fc	0.120248765
241	0xbedda0cf	-0.4328675
242	0xbeeb2134	-0.4592377
243	0x3c19b784	0.009382132
244	0x3e9d6861	0.30743697
245	0x3d9405ef	0.07227694
246	0xbe7a8659	-0.24465312
247	0x3dfe88ca	0.12428434
248	0xbd7d05d2	-0.06177313
249	0x3ec31ace	0.38106388
250	0xbe4d3ed3	-0.20043497
251	0xbe8f994a	-0.28046638
252	0xbeda91c1	-0.42689326
253	0x3d4bf557	0.04979452
254	0xbee3329f	-0.44374558
255	0x3eb32e8a	0.34996444

conv1.bias f4 [64]
0	0xbe79fb5b	-0.24412291
1	0xbdaad18f	-0.083407514
2	0xbda43a71	-0.08018959
3	0xbebb1821	-0.36541846
4	0xbe9f1842	-0.31073195
5	0x3d8c73fc	0.0685806
6	0xbef22d1a	-0.47300035
7	0x3d769311	0.060198847
8	0xbe4390fe	-0.19098279
9	0xbf0a838e	-0.54106987
10	0xbd987815	-0.07444779
11	0xbef7a82f	-0.483705
12	0x3ea3a2d0	0.31960154
13	0xbe71f34e	-0.2362797
14	0xbec599dc	-0.38593948
15	0xbe9accd1	-0.30234388
16	0xbcf8e13c	-0.030380838
17	0xbf001116	-0.5002607
18	0xbea2a8f9	-0.3176954
19	0xbe1b7014	-0.15179473
20	0x3d5acba6	0.05341687
21	0xbcf2d0ce	-0.029640581
22	0x3e03f6e7	0.12887155
23	0xbcb05cd3	-0.021528637
24	0xbe3be922	-0.18350652
25	0xbe3d3d0e	-0.18480322
26	0xbe9f3791	-0.3109708
27	0xbec733b7	-0.38906643
28	0xbdf4a174	-0.11944857
29	0xbf22abc3	-0.6354334
30	0xbf234dc5	-0.6379054
31	0xbf141702	-0.5784761
32	0xbef0e55f	-0.47049996
33	0xbceb2e98	-0.028708741
34	0x3aa02a76	0.0012219686
35	0xbf053853	-0.5203907
36	0xbe0adf0a	-0.13561645
37	0xbe5f65ca	-0.21816173
38	0xbf037fde	-0.51366985
39	0xbf27657f	-0.65389246
40	0x3ea336b9	0.31877688
41	0xbe62d134	-0.22150117
42	0xbea49b11	-0.32149556
43	0x3c6b9fdc	0.014381375
44	0xbeda6027	-0.42651483
45	0xbdaca75b	-0.08430358
46	0xbed8f8fe	-0.42377466
47	0x3dba0e9a	0.09084816
48	0xbe86792d	-0.26264325
49	0x3e403be6	0.1877285
50	0xbe802a69	-0.25032356
51	0x3e00f4ea	0.12593427
52	0xbe19ecaa	-0.15031686
53	0xbed7891d	-0.42096797
54	0xbd482213	-0.04886062
55	0x3e25c408	0.16188061
56	0xbe08f353	-0.13374071
57	0xbe7d3775	-0.24728186
58	0x3e1096f8	0.1412009
59	0x3e777250	0.241647
60	0xbe7ca514	-0.24672347
61	0xbe2c033d	-0.1679811
62	0xbd75c2fe	-0.060000412
63	0xbeba9e3f	-0.36448857

conv2.weight f4 [128, 64, 2, 2]
0	0xbd3ebf63	-0.04656924
1	0xbcbd155d	-0.023081476
2	0x3d5df7c0	0.05419135
3	0xbd41e3cc	-0.047336385
4	0xbe972752	-0.29522187
5	0x3d215a79	0.039392922
6	0xbd8541a4	-0.065066606
7	0x3e1fe992	0.15616444
8	0x3e0c9b19	0.1373104
9	0xbeb2379d	-0.34808055
10	0x3ce7c659	0.028292822
11	0xbe1fd345	-0.15607937
12	0xbe9a6ca2	-0.30161005
13	0xbe4cce54	-0.20000583
14	0xbdea8302	-0.11450769
15	0x3ceeda43	0.02915681
16	0xbddbb42e	-0.10727726
17	0x3e3815ed	0.17977114
18	0xbdd5e056	-0.10443179
19	0x3e32494b	0.17410772
20	0xbf242813	-0.6412365
21	0xbe6ff993	-0.23435049
22	0xbe70ede5	-0.2352825
23	0xbe0e0c38	-0.13871849
24	0x3e1fe290	0.1561377
25	0x3f02274e	0.50841224
26	0x3ddf5600	0.10905075
27	0xbe110949	-0.14163698
28	0xbe35a1e2	-0.17737535
29	0xbe747028	-0.23870909
30	0x3e96e49c	0.2947129
31	0xbe11cee3	-0.14239077
32	0xbd6040fc	-0.054749474
33	0xbeb7180f	-0.35760543
34	0xbe515d5e	-0.20445773
35	0x3e365c2c	0.17808598
36	0x3e30072c	0.17190236
37	0x3d99eec6	0.075162455
38	0xbefa95c0	-0.48942375
39	0xbe034eaf	-0.12822984
40	0x3e50ca68	0.20389712
41	0xbe96521a	-0.29359514
42	0xbea9bda7	-0.33152506
43	0xbd58c063	-0.05291785
44	0x3e29fc4c	0.1660015
45	0x3e684425	0.22682245
46	0x3ea1713f	0.31531712
47	0xbe059590	-0.13045335
48	0xbd179637	-0.03700849
49	0x3d6e49bf	0.0581758
50	0x3c32cb27	0.010912693
51	0xbe45411a	-0.19263116
52	0x3da57045	0.08078054
53	0xbb3cab12	-0.002878849
54	0x3ee95664	0.45573723
55	0x3c180d6b	0.009280543
56	0x3e22790d	0.1586649
57	0xbcb21b4e	-0.021741536
58	0xbe930427	-0.28714105
59	0x3db7c7be	0.08973645
60	0x3e61799a	0.22019044
61	0x3e933c7b	0.2875708
62	0xbee1ce6e	-0.44102806
63	0xbdc7975e	-0.09745668
64	0xbd0b54ce	-0.034016423
65	0x3db37bb6	0.0876383
66	0xbe45776c	-0.19283837
67	0xbe913d5f	-0.28367135
68	0x3e10f4e3	0.14155917
69	0x3e01d63c	0.1267938
70	0xbde6749d	-0.11252711
71	0xbd43f2c6	-0.04783895
72	0x3e287932	0.16452482
73	0x3d16cdb5	0.03681727
74	0xbeb52f5d	-0.35387698
75	0xbbc351e8	-0.0059606917
76	0x3dc2ba85	0.09508232
77	0x3d177bda	0.03698335
78	0x3b331ed0	0.0027331598
79	0xbdf48b84	-0.11940673
80	0x3eb08220	0.34474277
81	0xbe2bda50	-0.16782498
82	0x3c7f2444	0.015572611
83	0xbb711a5f	-0.00367894
84	0x3db4699b	0.08809205
85	0x3e271fdf	0.16320752
86	0xbf11bad2	-0.5692569
87	0x3ceac276	0.02865718
88	0x3b2d814c	0.0026474772
89	0x3d8bf947	0.06834655
90	0x3d891a8a	0.06694515
91	0xbda18065	-0.078858174
92	0xbf25e47b	-0.6480176
93	0x3e255ef3	0.16149502
94	0x3f01e66e	0.5074223
95	0x3e711769	0.23544087
96	0x3e019e3d	0.1265802
97	0x3dbf03ec	0.0932692
98	0xbc374d45	-0.011187856
99	0xbdaafa69	-0.08348543
100	0xbe8d91d7	-0.2765033
101	0x3e468912	0.19388226
102	0xbe012e41	-0.126153
103	0x3e9e36b3	0.30901107
104	0xbedbd052	-0.42932373
105	0x3cbae715	0.022815267
106	0xbe595ae0	-0.21226072
107	0x3edfd506	0.4371721
108	0x3e930472	0.2871433
109	0xbda26a55	-0.079304375
110	0xbd297c8f	-0.041378554
111	0xbd251af7	-0.04030892
112	0xbd21975c	-0.03945099
113	0xbde54a8f	-0.111958615
114	0xbe59ff10	-0.21288705
115	0xbba71cab	-0.005099853
116	0x3eb0314b	0.34412608
117	0xbc51f4b8	-0.012814693
118	0x3e130b38	0.14359748
119	0xba94c2e6	-0.0011349588
120	0xbea60159	-0.32422903
121	0xbe2a89c8	-0.16654122
122	0x3e40aada	0.18815175
123	0x3df9d6ad	0.12199149
124	0xbdcefe47	-0.10107093
125	0xbdbcb609	-0.09214408
126	0x3e995f41	0.29955485
127	0x3b93c470	0.004509501
128	0xbdf3b2ac	-0.11899313
129	0xbdaaf06e	-0.083466396
130	0x3e148a50	0.14505887
131	0x3dacbf60	0.084349394
132	0x3e232aba	0.15934268
133	0x3ea80158	0.32813525
134	0xbf292a8a	-0.66080534
135	0xbe88f922	-0.26752573
136	0xba30f3c0	-0.0006750189
137	0xbd0306e6	-0.031989
138	0x3dad5d09	0.08465011
139	0xbe85c88c	-0.26129568
140	0x3eb03d79	0.344219
141	0x3d661dd4	0.05618079
142	0xbf059005	-0.5217288
143	0x3c88cbd5	0.016698757
144	0xbd13d9a6	-0.036096238
145	0xbe9ce9ec	-0.30647218
146	0xbc11d1f2	-0.0089001525
147	0x3c1da3d3	0.009621578
148	0xbe340068	-0.1757828
149	0x3e40df73	0.18835239
150	0x3cabac36	0.02095614
151	0x3e00868e	0.12551329
152	0xbde20c9a	-0.1103756
153	0xbf06c4b6	-0.5264391
154	0x3eb3222a	0.34987003
155	0xbdfa016a	-0.12207301
156	0x3d2d9bc0	0.042384863
157	0x3ea61c2a	0.32443362
158	0xbeb12964	-0.3460189
159	0xbec35be9	-0.3815606
160	0xbd083885	-0.033257026
161	0x3db457a9	0.08805782
162	0xbe71db16	-0.23618731
163	0xbdcd2bd3	-0.100181244
164	0xbea9675f	-0.33086678
165	0x3d9a7ae4	0.07542971
166	0xbe1b7545	-0.15181454
167	0xbe2a0c89	-0.16606344
168	0xbed198c8	-0.40936875
169	0xbe207d1b	-0.15672724
170	0x3dc0c002	0.094116226
171	0xbe638e88	-0.2222234
172	0x3de06e27	0.1095851
173	0xbe5d466c	-0.21608895
174	0xbebdeebc	-0.37096202
175	0xbe8569e7	-0.2605736
176	0xbd64c4a1	-0.055851582
177	0x3e840487	0.25784704
178	0x3e49b9e4	0.19699818
179	0xbecc8ef3	-0.39952812
180	0xbd61e9d3	-0.055154633
181	0x3d54dc17	0.051967707
182	0xbe2e1f0b	-0.1700403
183	0xbdd25fa4	-0.10272148
184	0x3e8c413b	0.27393517
185	0xbb92918d	-0.0044729174
186	0xbe52ef2c	-0.2059905
187	0x3981a700	0.00024729222
188	0xbcb651a6	-0.02225573
189	0x3e7dfc0b	0.24803178
190	0xbf071c2d	-0.5277737
191	0xbf597ec5	-0.8495906
192	0x3eab0fa2	0.33410364
193	0x3d0a372b	0.03374402
194	0x3e18c8d5	0.14920361
195	0x3e32130f	0.17390083
196	0xbf07ad2a	-0.529986
197	0xbe0eb42a	-0.13935915
198	0xbe6c682a	-0.2308661
199	0x3df7874b	0.12086352
200	0xbe913383	-0.28359613
201	0x3e07af91	0.13250567
202	0xbde19d9d	-0.110163905
203	0x3d5ad4ab	0.053425472
204	0xbe5dfb66	-0.21677932
205	0xbc77ea0b	-0.015131484
206	0x3eef87ca	0.46783286
207	0xbe59eff0	-0.21282935
208	0x3ea2f614	0.31828368
209	0xbeb13f4a	-0.34618598
210	0xbdeea9d8	-0.11653489
211	0xbd1a07cd	-0.037605096
212	0xbbe1e311	-0.0068935235
213	0xbd2b9131	-0.041886512
214	0xbc91cf38	-0.017799005
215	0xbe1fe823	-0.15615897
216	0xbe52cf7e	-0.20586964
217	0x3e85f574	0.26163828
218	0xbe326393	-0.17420797
219	0x3c1b7e47	0.009490556
220	0xbde84f2b	-0.11343225
221	0xbce906c7	-0.028445615
222	0xbdd3b706	-0.10337643
223	0x3e25c3e7	0.16188012
224	0x3b62ce0f	0.0034607684
225	0xbed5e7f8	-0.4177854
226	0x3dbd5d22	0.09246279
227	0xbedbf0b4	-0.4295708
228	0xbcdb7d66	-0.026793193
229	0xbe0664ea	-0.13124433
230	0x3b84dd4b	0.0040547005
231	0x3da1b1c4	0.07895234
232	0xbe096546	-0.13417539
233	0xbdbd6686	-0.092480704
234	0xbe8d0400	-0.27542114
235	0xbde46da9	-0.111537285
236	0xbecbb901	-0.39789584
237	0xbe4f5c6b	-0.20250098
238	0xbeb95138	-0.36194777
239	0xbbc6d687	-0.006068054
240	0x3d928acc	0.0715538
241	0x3efa3ab2	0.48872906
242	0xbccd25cb	-0.025042435
243	0x3c40bf69	0.011764386
244	0xbe8ab3a1	-0.2709017
245	0x3eead95a	0.4586895
246	0xbcd69c1a	-0.026197482
247	0x3e25a721	0.16177036
248	0x3c534d58	0.012896858
249	0xbe003c61	-0.12523033
250	0x3e3fa5bd	0.18715568
251	0x3e5ab20a	0.21356979
252	0xbe682eb0	-0.2267406
253	0x3eac72b0	0.3368125
254	0xbd73ecba	-0.059551932
255	0x3cd62f42	0.026145581

conv2.bias f4 [128]
0	0xbe52c1bb	-0.20581715
1	0x3d983454	0.07431856
2	0xbddf76d9	-0.1091134
3	0xbb1c32cf	-0.0023833995
4	0xbe416da2	-0.18889478
5	0xbe50b917	-0.20383106
6	0xbe5889eb	-0.21146362
7	0x3cbf1b44	0.023328431
8	0xbdba199c	-0.09086916
9	0xbdd1ffc4	-0.102538615
10	0xbd08ef7e	-0.033431523
11	0xbd28ac6e	-0.041180067
12	0xbdefdd1c	-0.11712095
13	0xbdaa6118	-0.083193004
14	0xbdbf2d6d	-0.09334836
15	0xbe0a77ae	-0.13522217
16	0xbe1dfd5a	-0.15428677
17	0x3b8c4b24	0.0042814184
18	0xbe1e8de3	-0.15483813
19	0x3d0598b0	0.032616317
20	0xbda44520	-0.08020997
21	0x3e5ac2eb	0.21363418
22	0x3e6148f9	0.22000493
23	0xbdc4a95a	-0.09602614
24	0x3e99ca1b	0.30037007
25	0xbbc89268	-0.0061209686
26	0xbe61f1e4	-0.2206493
27	0xbe00c10a	-0.12573639
28	0xbe21f261	-0.15815116
29	0xbdf017b1	-0.11723269
30	0xbe26742e	-0.16255257
31	0xbd95adcf	-0.07308542
32	0xbe0b467b	-0.13601105
33	0xbdb3acd0	-0.08773196
34	0xbcf87ff1	-0.030334445
35	0x3e2b33ca	0.16718975
36	0xbdbed504	-0.09317973
37	0xbe0ef8ef	-0.13962148
38	0x3dd467ba	0.10371347
39	0xbe3f53d7	-0.18684326
40	0xbe456d75	-0.19280036
41	0xbdd96f59	-0.10616941
42	0xbdac6796	-0.08418195
43	0x3be70131	0.0070497026
44	0xbaea2614	-0.0017864131
45	0xbe5eb815	-0.21749909
46	0x3d8db02e	0.06918369
47	0xbe5f6789	-0.2181684
48	0xbe5709ad	-0.20999785
49	0xbea68d31	-0.32529595
50	0xbcedaea3	-0.029013937
51	0x3d9fdd65	0.078058995
52	0x3ca81364	0.020517059
53	0xbe2f62f2	-0.17127588
54	0xbe0afd0c	-0.13573092
55	0x3d826b11	0.063680775
56	0xbd70739a	-0.058703996
57	0xbd366989	-0.04453424
58	0xbdb2d18e	-0.08731376
59	0x3c0ecd01	0.008715869
60	0xbd00b006	-0.03141787
61	0xbcb19c94	-0.021681108
62	0xbdc4e186	-0.09613328
63	0xbde537e4	-0.11192301
64	0xbe4af770	-0.19820952
65	0xbd2b9ef7	-0.041899648
66	0xbdced43d	-0.10099075
67	0xbb39ac27	-0.002833137
68	0x3d80e900	0.06294441
69	0xbc9e4e53	-0.019324457
70	0x3d92acb0	0.07161844
71	0x3d8c43a8	0.06848842
72	0xbd0375cf	-0.032094773
73	0x3db7f2ce	0.08981858
74	0xbd489683	-0.048971664
75	0x3884d3d8	6.3337095e-05
76	0xbd0386fc	-0.032111153
77	0xbe344bf1	-0.17607094
78	0x3bb91ad7	0.0056489515
79	0xbb759d2c	-0.0037477715
80	0xbd17c1c7	-0.037050035
81	0xbd5ddc7e	-0.054165356
82	0xbd1b3bfc	-0.037899002
83	0xbddfd1f8	-0.1092872
84	0xbcc3ce0a	-0.023901958
85	0xbe0c21d7	-0.13684784
86	0xbdb20577	-0.086924486
87	0x3c532f5d	0.01288971
88	0xbddcf327	-0.10788565
89	0x3e429d0c	0.19005221
90	0xbbd67ab8	-0.006545391
91	0xbe1a2b04	-0.15055472
92	0xbe2f9123	-0.17145209
93	0xbe0017a4	-0.12509018
94	0x3d931fb7	0.071837835
95	0xbd9b3f0c	-0.075803846
96	0x3d24da05	0.040246982
97	0xbdfb2600	-0.12263107
98	0x3d3dde9b	0.04635487
99	0x3d4c2cf3	0.049847554
100	0xbd034966	-0.03205242
101	0x3e0198ab	0.12655894
102	0xbe20f0c0	-0.15716839
103	0xbdb68bde	-0.08913396
104	0x3c31e919	0.0108587975
105	0xbe215176	-0.15753731
106	0xbd16978f	-0.03676563
107	0x3d281fbd	0.041045893
108	0xbdb64049	-0.0889898
109	0xbe9c55db	-0.30534253
110	0xbe440d26	-0.1914564
111	0xbe230c24	-0.159226
112	0xbe886c7f	-0.26645276
113	0xbe26daa9	-0.1629435
114	0xbda155f6	-0.07877724
115	0xbca4492a	-0.020054419
116	0xbe070102	-0.13183978
117	0xbe3b5316	-0.18293414
118	0xbdec1387	-0.11527162
119	0x3cc95069	0.024574475
120	0xbd61d1b7	-0.05513164
121	0xbe44c5bb	-0.19216053
122	0xbe1b041d	-0.15138288
123	0x3d8a57a4	0.067549974
124	0xbe5bb160	-0.21454382
125	0xbdf5c018	-0.119995296
126	0xbbb5625a	-0.005535406
127	0xbda16a2a	-0.07881577

fc1.weight f4 [128, 768]
0	0xbc9df0f4	-0.019279934
1	0x3b8ef289	0.0043624085
2	0xbc87b808	-0.016567245
3	0xbd03c602	-0.032171257
4	0xbbf8fc92	-0.007598468
5	0xbd02ef8a	-0.031966724
6	0xbcf4fdb7	-0.029906137
7	0xbccd92c9	-0.025094407
8	0x3bb4687b	0.005505619
9	0xbcd534b0	-0.0260261
10	0x3c59d122	0.01329449
11	0xbd0d7c5c	-0.034542426
12	0xbc5a4ee7	-0.013324476
13	0x3ab26453	0.0013610221
14	0xbcb1ede9	-0.02171989
15	0x3cd9c356	0.026582401
16	0x3b94f4d2	0.0045457864
17	0xbd2f734e	-0.042834572
18	0xbd0641f1	-0.03277773
19	0x3b1439a3	0.0022617362
20	0xbceec22c	-0.029145323
21	0xbd13a449	-0.036045346
22	0xbc83ee8b	-0.016104957
23	0x3cae9f6d	0.021316255
24	0x3c0e52f7	0.008686773
25	0xbb463212	-0.0030242247
26	0xbc3cb67e	-0.011518119
27	0x3c6e7194	0.014553446
28	0x3cd9dc7e	0.026594397
29	0xbce5a0c4	-0.02803076
30	0xbb96b270	-0.004598908
31	0xbcaded9b	-0.021231463
32	0xbc999c5e	-0.01875132
33	0xbcfa3ffd	-0.03054809
34	0x3c2afcca	0.010436246
35	0xbc7eedf1	-0.015559659
36	0x3cd11ad4	0.025525488
37	0xbc9ed045	-0.01938642
38	0xbd062f88	-0.032760173
39	0xbcb4bf20	-0.022063792
40	0xbc662da0	-0.014048964
41	0x3c2d75ad	0.010587138
42	0x3cd8bb99	0.026456641
43	0x3ae9859c	0.0017816308
44	0xbcd3ce50	-0.025855213
45	0x3c311ba8	0.010809816
46	0x3d0090a9	0.03138796
47	0xbcdc4850	-0.02688995
48	0xbd358000	-0.044311523
49	0xbbdb259b	-0.0066878325
50	0x3b97f6b7	0.004637565
51	0x3c1ff8dc	0.009763923
52	0x3cbab5b2	0.022791717
53	0xbc9fdd1d	-0.019514615
54	0x3c3e41ec	0.011612397
55	0x3d0bf1b4	0.034166053
56	0xbd0ea756	-0.034827553
57	0x3b9f0f36	0.004854108
58	0xbc73b55e	-0.014874784
59	0x3a09d4e5	0.0005257859
60	0xbcb8c984	-0.022557028
61	0xbd47fe25	-0.048826355
62	0xbd1f4052	-0.0388797
63	0xbca94d75	-0.020666817
64	0xbd221938	-0.03957483
65	0xbbb4dad5	-0.005519251
66	0xbcb92b03	-0.022603517
67	0x3b7f6fd0	0.0038976558
68	0x3d059861	0.032616023
69	0x3c17cf66	0.009265756
70	0xbcd9b355	-0.02657477
71	0x3bc97c18	0.0061488263
72	0x3c81b180	0.015831709
73	0x3856d370	5.1218492e-05
74	0x3ce65e14	0.028121032
75	0xbcec7467	-0.028864099
76	0xbcffaa39	-0.031209098
77	0xbd1b38cf	-0.037895974
78	0xbc47b8e7	-0.01219008
79	0xbce70f97	-0.028205676
80	0xbd36746c	-0.044544622
81	0x3c50c967	0.012743331
82	0xbcb5dc7b	-0.02219986
83	0x3c31890f	0.0108359
84	0x3ab0c28d	0.0013485715
85	0xbd584036	-0.05279561
86	0xbc502b76	-0.012705674
87	0xbba544fb	-0.0050436235
88	0x3c4c8c49	0.012484618
89	0x3cbc44da	0.02298205
90	0x3b379315	0.0028011252
91	0xbcbffe29	-0.023436623
92	0xbbe48b7d	-0.006974636
93	0xbbb1dbeb	-0.0054278276
94	0xbba3208b	-0.0049782447
95	0xbd2d9277	-0.042376008
96	0x3b421447	0.0029614137
97	0x3b8bc263	0.004265116
98	0xbcea1604	-0.028574951
99	0x3c5dc314	0.01353528
100	0xbc726d86	-0.01479662
101	0xbd0ea287	-0.034822967
102	0xbd1992ba	-0.037493445
103	0xbc6c6134	-0.014427472
104	0xbb4069ac	-0.002935986
105	0xbd255ab4	-0.040369704
106	0xbcff2ee0	-0.031150281
107	0xbb897381	-0.0041946773
108	0xbd1192e3	-0.035540473
109	0xbafd7559	-0.001933734
110	0x3cc23f0b	0.023711702
111	0xbc1dc1dd	-0.00962874
112	0xbbd4cd8f	-0.006494231
113	0x3d06bc5a	0.03289447
114	0x3c293818	0.010328315
115	0xbd24e606	-0.04025843
116	0x3c2a9b9b	0.010413076
117	0xbc3cd789	-0.011525997
118	0x3c01c313	0.0079200445
119	0xbcec50ec	-0.02884718
120	0xbc8bb56b	-0.01705428
121	0xbbee46c0	-0.0072716177
122	0x3ce1896e	0.027531352
123	0xbbda339a	-0.0066589834
124	0x3c745333	0.014912414
125	0xbcfa5783	-0.030559307
126	0xbd1cad49	-0.038251195
127	0x3cb2e977	0.02183984
128	0x3cb7418d	0.022370124
129	0xbca270c0	-0.019829154
130	0xbc667eb8	-0.014068298
131	0xbb9b8f18	-0.0047472827
132	0x3d196ac4	0.037455335
133	0xbba49289	-0.005022351
134	0xbd171b1d	-0.03689109
135	0x3cd27e58	0.025695011
136	0xbd0c72c6	-0.034289144
137	0xbc44be36	-0.01200824
138	0xba29fc5b	-0.0006484442
139	0xbc047198	-0.0080837235
140	0x3cf63d0c	0.030058406
141	0xbc9c8c77	-0.019109948
142	0xbc1cdae6	-0.009573674
143	0x3cd0837b	0.02545332
144	0x3bf2cdaa	0.007409771
145	0x3c27b4dc	0.010235991
146	0xbcd1f29f	-0.025628386
147	0x3c42f5fb	0.011899467
148	0xbc44cea8	-0.012012161
149	0xbd0ce6cb	-0.03439979
150	0xbcb8375e	-0.022487339
151	0x3c9b02d4	0.018922247
152	0xbc288354	-0.010285217
153	0x3caafd05	0.020872602
154	0xbcc48e79	-0.023993718
155	0x3ce9d4ca	0.028543849
156	0x3ccf1678	0.025279269
157	0xbc127eaa	-0.008941332
158	0xbc807295	-0.015679637
159	0xbb4bc545	-0.0031092924
160	0xbca66cd8	-0.020315573
161	0xbb2bf280	-0.002623707
162	0xbc08efc1	-0.008357943
163	0xbd2bd8ab	-0.041954678
164	0xba9fca19	-0.0012190967
165	0xbca66232	-0.020310495
166	0xbcc4dd9e	-0.024031457
167	0xbcdb6ecc	-0.02678623
168	0xbd34446b	-0.04401056
169	0xbc6cadbf	-0.014445721
170	0x3c9b9467	0.018991662
171	0x3c7aa571	0.015298233
172	0x3cc68b6f	0.024236409
173	0x3cda6895	0.026661197
174	0xbc4fb6f9	-0.012677901
175	0x3d162b94	0.036662653
176	0x3ca3eb68	0.020009711
177	0xbc02cd8f	-0.007983579
178	0xbc7c8c1e	-0.015414266
179	0xbcc2683c	-0.023731343
180	0xbc0c1bad	-0.00855152
181	0xbcd6bee5	-0.026214072
182	0x3c5501ed	0.013000947
183	0x3c2684e1	0.010163517
184	0x3b9e822e	0.004837296
185	0xbce8a6d0	-0.028399855
186	0x3b96fa39	0.0046074656
187	0xbd140e6e	-0.036146574
188	0x393a3efe	0.00017761809
189	0x3cba23d4	0.022722162
190	0x3c982c80	0.018575907
191	0xbcc8aec4	-0.024497397
192	0xbd2638fd	-0.040581692
193	0xbc0d696f	-0.008631094
194	0x3b5db783	0.0033831305
195	0xbbe4992c	-0.0069762673
196	0x3c651f9a	0.013984585
197	0xbbf8777a	-0.007582602
198	0xbc7e3f34	-0.0155179985
199	0xbcfde774	-0.030994155
200	0x3cd9e960	0.02660054
201	0x3c8f3920	0.017483294
202	0xbce15c40	-0.027509809
203	0xbba7431c	-0.0051044356
204	0xbc893a4d	-0.016751433
205	0xbd0a2dbd	-0.033735026
206	0x3c7ae85f	0.015314191
207	0x3c8093bc	0.015695445
208	0xbcbfbeaf	-0.023406355
209	0xbc724cb2	-0.014788793
210	0x3caad07f	0.020851372
211	0xbc9fee2f	-0.019522754
212	0x3d0c2216	0.034212194
213	0xbcda973e	-0.026683446
214	0xbd1442ef	-0.036196645
215	0xbd398223	-0.045290124
216	0xbd10a782	-0.035315998
217	0xbc86464d	-0.016390944
218	0xbd4910b8	-0.04908821
219	0x3b8e9b1f	0.004351988
220	0x3c8687e1	0.016422214
221	0xbca920e5	-0.020645568
222	0x3c623319	0.013806128
223	0xbd1f8133	-0.038941573
224	0xbac12d4b	-0.001473823
225	0x3c09d1ce	0.008411838
226	0xbbd5566e	-0.0065105474
227	0xbc5f6b65	-0.013636445
228	0x3cbfd4cc	0.0234169
229	0xbbab21bc	-0.0052225273
230	0xbd0c4d9a	-0.034253694
231	0xbcfcae56	-0.030844849
232	0xbc647e84	-0.013946179
233	0xbd1078b9	-0.03527138
234	0xbca4febd	-0.020141
235	0x3c84d107	0.016212953
236	0x3cb41a4c	0.021985196
237	0xba1502a8	-0.0005684295
238	0x3ca61f6f	0.02027866
239	0xbcd28dbd	-0.025702352
240	0x3ccdc201	0.025116922
241	0xbc8d3871	-0.017238827
242	0xbc8c668b	-0.01713874
243	0xbcd5f4db	-0.026117733
244	0x3c205e18	0.009788059
245	0x3ca955b9	0.020670759
246	0xbd0fc061	-0.035095576
247	0xbc70a862	-0.014688583
248	0xbcee345f	-0.029077707
249	0x3c348ffe	0.011020659
250	0xbca9bd0a	-0.020720024
251	0x3c9f8677	0.019473298
252	0x3ce3928e	0.027779844
253	0xbc91b361	-0.01778573
254	0x3b8510cd	0.0040608407
255	0xbc1ebe2f	-0.009688898

fc1.bias f4 [128]
0	0xbce9a2d0	-0.028520018
1	0xbdcc002b	-0.099609695
2	0xbd923716	-0.07139413
3	0xbd2edc70	-0.042690694
4	0x3e2ad7ff	0.16683958
5	0xbd1b8c34	-0.037975505
6	0xbe173ed1	-0.14770056
7	0xbe3a9e1b	-0.18224375
8	0xbc52bebb	-0.0128628565
9	0xbd663671	-0.056204263
10	0xbd385b46	-0.04500892
11	0xbd402ebe	-0.046919577
12	0x3d3f5535	0.04671212
13	0x3ed80e9d	0.4219865
14	0x3c91be2f	0.017790882
15	0xbdeec6d1	-0.11659015
16	0x3e9d7640	0.3075428
17	0x3d7fb61b	0.06242953
18	0x3dbb2cfc	0.091394395
19	0x3d8cf063	0.06881788
20	0xbca2d1c8	-0.019875422
21	0x3b90a8f2	0.004414671
22	0xbdfbd3c4	-0.122962505
23	0xbd192c48	-0.037395746
24	0x3e0764ec	0.13222092
25	0xbd6fd9af	-0.05855721
26	0x3c27d8a7	0.010244525
27	0xbde88a0e	-0.11354457
28	0x3e3317c1	0.1748953
29	0xbdfff816	-0.124984905
30	0x3b7f6f50	0.003897626
31	0xbd116564	-0.035497084
32	0x3dc4958a	0.09598835
33	0xbe362fa4	-0.17791611
34	0xbc49da2f	-0.012320085
35	0xbd2313ab	-0.03981368
36	0xbc84ecfc	-0.016226284
37	0xbd79ca6b	-0.060984056
38	0xbdd5ef8b	-0.1044608
39	0xbd816095	-0.0631725
40	0xbbf4b543	-0.007467897
41	0x3e8de710	0.2771535
42	0x3d13c016	0.03607186
43	0x3e35efa1	0.17767192
44	0x3c2988e9	0.010347583
45	0x3d3845e7	0.04498854
46	0x3d7a1001	0.06105042
47	0x3e14b205	0.14521034
48	0xbd4d34e6	-0.050099276
49	0x3e2e7995	0.17038567
50	0x3d5454ee	0.051838808
51	0xbc761c3d	-0.015021381
52	0xbd97bae8	-0.074086964
53	0x3d1c902e	0.038223438
54	0xbd44a219	-0.04800615
55	0xbe432513	-0.19057111
56	0x3dc0c480	0.094124794
57	0xbd247f53	-0.04016049
58	0xbdea7cd3	-0.114495896
59	0x3e8b4690	0.27202272
60	0xbdf0cdc6	-0.11757998
61	0xbd01bde4	-0.031675234
62	0xbd8d56d6	-0.06901328
63	0x3d451f7d	0.048125733
64	0x3b2ccb72	0.002636638
65	0xbd9dbe00	-0.07702255
66	0x3e3b20f8	0.18274295
67	0xbd79a60c	-0.06094937
68	0xbdfbf084	-0.12301734
69	0x3e4338cd	0.19064637
70	0xbe132e33	-0.14373092
71	0xbd084318	-0.03326711
72	0xbe09ac36	-0.134446
73	0xbd0c86e1	-0.034308318
74	0x3c8b0f6b	0.016975125
75	0xbd175e61	-0.03695524
76	0xbca84804	-0.020542152
77	0x3e44a289	0.19202627
78	0xbd88a1b6	-0.06671469
79	0xbaed8b37	-0.0018123154
80	0xbcdc59b1	-0.026898237
81	0xbdf34f0c	-0.11880311
82	0x3baea151	0.005329289
83	0x3e95b640	0.29240608
84	0xbe0c3349	-0.13691439
85	0xbe22c897	-0.15896831
86	0xbd5a4ec6	-0.05329778
87	0xbd6fdb17	-0.05855855
88	0xbe5e04c5	-0.21681507
89	0x3db3364a	0.08750589
90	0xbd2a976a	-0.041648306
91	0x3c56450f	0.013077988
92	0x3d904c3d	0.07045791
93	0xbe5f888b	-0.21829431
94	0xbc5af47f	-0.0133639565
95	0x3d543233	0.051805686
96	0xbe08ee5a	-0.13372174
97	0x3b5ea902	0.0033975248
98	0x3eabd250	0.33558893
99	0x3d8c1225	0.06839398
100	0xbd5ed44d	-0.054401685
101	0xbcbc7aa4	-0.023007698
102	0xbcc34ca0	-0.023840249
103	0xbe4e394f	-0.20139049
104	0xbbfd5ea6	-0.0077322302
105	0xbd60dd31	-0.054898445
106	0xbc996818	-0.018726394
107	0x3d263d7f	0.04058599
108	0x3de86025	0.11346463
109	0xbd63c8a7	-0.05561128
110	0xba202d94	-0.00061103073
111	0x3df5cae3	0.12001588
112	0xbd8897fe	-0.06669615
113	0xbdd9ea70	-0.106404185
114	0xbe5afa27	-0.21384488
115	0xbd2b58a3	-0.041832577
116	0x3e6cda5c	0.23130172
117	0xbd903ab3	-0.07042446
118	0xbe0499c1	-0.12949277
119	0xbe1e54c8	-0.15462029
120	0x3de0ba7a	0.109730676
121	0xbd5027e3	-0.05081929
122	0xbe812146	-0.25220698
123	0x3bd95199	0.0066320417
124	0xbe226b3c	-0.15861219
125	0xbdd11048	-0.102081835
126	0x3de5978e	0.112105474
127	0xbd69fbbe	-0.057124846

fc2.weight f4 [7, 128]
0	0x3d893d76	0.06701176
1	0x3e1063ea	0.14100614
2	0x3e0ecdb5	0.13945659
3	0xbc3dba35	-0.01158004
4	0x3da7b607	0.08189016
5	0x3e49e7df	0.19717358
6	0x3e55596e	0.20834896
7	0x3d05f239	0.032701705
8	0x3da5e0ab	0.08099493
9	0x3cdebcb0	0.027189583
10	0x3dadf4e2	0.08493973
11	0x3e445262	0.19172052
12	0xbe786dfe	-0.24260709
13	0xbc4a8634	-0.012361098
14	0xbdd3c2f5	-0.103399195
15	0xbf05ee1e	-0.52316463
16	0x3d0ce0b5	0.034393985
17	0x3d0afe02	0.033933647
18	0x3e3f5ad5	0.18686993
19	0xbf220914	-0.632951
20	0x3e1437aa	0.14474359
21	0xbd1fba1c	-0.038995847
22	0x3e15ec23	0.1464086
23	0xbd94859b	-0.07252046
24	0x3e1a3569	0.15059437
25	0x3d37e644	0.044897333
26	0x3ddc580f	0.10758983
27	0x3b91c5fa	0.0044486495
28	0x3d6b44ea	0.05743877
29	0xbe4ea05d	-0.20178361
30	0x3d78ceaf	0.060743984
31	0x3c932ac5	0.01796473
32	0x3d12a6ef	0.03580373
33	0xbe9925bd	-0.29911605
34	0xbd925b55	-0.071463265
35	0xbc966efb	-0.018363466
36	0xbde9fa01	-0.114246376
37	0x3e55077d	0.20803638
38	0x3e2fe383	0.17176633
39	0x3eae7055	0.34070078
40	0xbd9b41e1	-0.07580925
41	0x3d557789	0.05211595
42	0xbe4ff88c	-0.20309657
43	0x3d238f4e	0.039931588
44	0xbd11175c	-0.035422668
45	0xbe91d6ce	-0.28484195
46	0xbe8ef4a4	-0.2792102
47	0x3dee9835	0.11650125
48	0x3e356c01	0.17716981
49	0x3e0a6a0f	0.1351702
50	0xbe084777	-0.13308512
51	0x3d187fff	0.03723144
52	0x3e1d689b	0.15371935
53	0x3dced1eb	0.100986324
54	0xbea65c6e	-0.32492393
55	0x3e5907e4	0.21194416
56	0x3def17c6	0.11674456
57	0x3e66306d	0.2247941
58	0x3e39d7ae	0.18148682
59	0x3e10dd0a	0.1414682
60	0xbdedcd9a	-0.11611481
61	0x3c1799e0	0.009252995
62	0x3c74378f	0.014905824
63	0xbe48245f	-0.19545124
64	0xbb1f3632	-0.0024293778
65	0x3e518b85	0.20463379
66	0x3c9e1430	0.019296736
67	0xbdf2586d	-0.11833272
68	0x3e4e6703	0.20156483
69	0x3a01c478	0.00049502356
70	0x3e835f5d	0.25658694
71	0x3e5d4d3d	0.21611495
72	0x3e3c5f11	0.1839564
73	0x3ea232f0	0.31679487
74	0xbe8c702f	-0.2742934
75	0xbeb5c4ff	-0.3550186
76	0xbd9f662a	-0.07783158
77	0x3d893f18	0.06701487
78	0xbe9f78c1	-0.31146815
79	0x3c4ec800	0.012620926
80	0xbbfd90d0	-0.0077382103
81	0xbe979264	-0.29603875
82	0x3d8c543b	0.06852003
83	0x3e06711e	0.13129088
84	0xbc8b417c	-0.016998999
85	0x3e8dd11b	0.27698597
86	0x3e8ac140	0.27100563
87	0x3e5b00ca	0.2138702
88	0x3cd5dbed	0.026105845
89	0x3e274485	0.16334732
90	0x3b9d80ef	0.00480663
91	0xbbc1066f	-0.0058906595
92	0x3deaf1c1	0.11471892
93	0x3e8df999	0.2772949
94	0x3d334cce	0.04377442
95	0xbeb7b0f2	-0.35877186
96	0xbec80ed3	-0.3907381
97	0xbe6241c1	-0.22095396
98	0x3dfc86d5	0.12330405
99	0x3d4b87d1	0.04969007
100	0xbbdacce6	-0.006677258
101	0x3dbc526b	0.091954075
102	0x3d9f7d2b	0.07787546
103	0xbec3728d	-0.38173333
104	0xbe8a0f78	-0.26964927
105	0x3b80210b	0.003910189
106	0xbda6575f	-0.081221335
107	0x3df89089	0.12136943
108	0xbe34f7fa	-0.1767272
109	0x3e465fb8	0.19372451
110	0x3e51c06c	0.2048356
111	0x3dca21b0	0.09869707
112	0x3ebe6ae4	0.37190926
113	0x3e7bf240	0.2460413
114	0x3e7cb2ef	0.24677633
115	0x3bd3da00	0.0064651966
116	0x3e177a58	0.14792764
117	0xbe96ff68	-0.29491735
118	0x3e39129d	0.18073507
119	0x3e76c540	0.24098682
120	0xbf536d91	-0.8258906
121	0xbd967431	-0.073463805
122	0x3e926496	0.28592366
123	0xbd204406	-0.039127372
124	0x3eb3aaa0	0.35091114
125	0x3e643b05	0.22288139
126	0x3d929a83	0.07158377
127	0x3e94eaae	0.29085296
128	0xbd2edf67	-0.04269352
129	0x3e4f8195	0.20264275
130	0x3cb134c1	0.0216316
131	0xbda791cf	-0.08182108
132	0x3dd0a6c0	0.10188055
133	0xbec4ee5b	-0.384631
134	0x3da7d9ab	0.08195814
135	0x3e4984a1	0.196795
136	0xbf05375f	-0.52037615
137	0x3ba2e9f4	0.004971737
138	0xbd7f292b	-0.06229512
139	0x3e89d710	0.26921892
140	0xbea15df2	-0.31516987
141	0x3d7b27ea	0.061317362
142	0xbc4026ec	-0.01172803
143	0xbec4371b	-0.38323292
144	0xbcbe01c2	-0.023194198
145	0x3e079031	0.13238598
146	0x3e40cca6	0.18828067
147	0x3c347360	0.011013836
148	0x3e542796	0.20718226
149	0xbd76d423	-0.060260903
150	0x3e4b9676	0.19881615
151	0x3b8c7e70	0.0042875335
152	0xbf74a202	-0.95559704
153	0x3c85407e	0.016266104
154	0x3e898d4e	0.2686562
155	0x3e8ef3cb	0.27920374
156	0x3e1cd766	0.15316543
157	0xbe940cb0	-0.2891593
158	0x3caeeadf	0.02135223
159	0xbc23c0da	-0.00999471
160	0x3d9bc8d2	0.07606663
161	0x3ebc4eca	0.3677886
162	0xbed27e32	-0.41111904
163	0x3d0a63f3	0.033786725
164	0xbe6ad44b	-0.22932546
165	0x3e4fb0c0	0.20282269
166	0x3e8293ab	0.25503287
167	0x3eb33d05	0.35007492
168	0xbe4248b5	-0.18973048
169	0xbc94a4e7	-0.018145038
170	0xbd2646b1	-0.04059476
171	0x3d3affcb	0.0456541
172	0xbcf0d8a2	-0.029400174
173	0xbef1951b	-0.4718407
174	0xbed2ed66	-0.41196746
175	0x3e143a7a	0.14475432
176	0x3db9ac36	0.0906605
177	0x3e2793a6	0.16364917
178	0xbe6d12df	-0.2315173
179	0x3c1003af	0.008789941
180	0x3d88b2d2	0.06674732
181	0xbe23ca8d	-0.15995236
182	0xbe4cf61d	-0.2001576
183	0xbeb33ddd	-0.35008135
184	0x3e3eee43	0.18645577
185	0x3e716dff	0.23577116
186	0x3e1d19bd	0.1534185
187	0x3e07b8c5	0.13254078
188	0xbec79ffb	-0.38989243
189	0xbd8ce453	-0.06879487
190	0xbd06f559	-0.032948826
191	0x3deebc00	0.11656952
192	0xbca629aa	-0.020283539
193	0xbe80d6bc	-0.2516383
194	0x3daa207c	0.08306977
195	0xbe8d326f	-0.2757754
196	0x3e41540c	0.18879718
197	0xbc81b39f	-0.01583272
198	0x3e958e1e	0.2920999
199	0x3e721854	0.23642093
200	0xbe1ebbd2	-0.15501335
201	0x3ea6e369	0.32595375
202	0x3c4cc612	0.0124983955
203	0xbebe4b48	-0.3716681
204	0xbda15ae7	-0.07878666
205	0x3dd040dd	0.10168622
206	0xbe9a5d89	-0.30149487
207	0x3bea2cb9	0.0071464446
208	0x3d0a29d6	0.033731304
209	0xbc43e6f8	-0.011956923
210	0x3cb3cf2b	0.021949371
211	0x3e08ec46	0.13371381
212	0xbe9b22e0	-0.30300045
213	0x3e413e76	0.18871483
214	0x3e46cba1	0.19413616
215	0x3e2e1313	0.16999464
216	0x3e95eeaa	0.2928365
217	0x3e151f0b	0.14562623
218	0x3da8da74	0.082447916
219	0x3ce493c9	0.0279025
220	0x3c10964c	0.008824896
221	0x3e6ccef4	0.23125821
222	0xbd581349	-0.052752767
223	0x3ca0883f	0.019596217
224	0x3e6f184e	0.23349115
225	0xbd9be8dc	-0.07612774
226	0x3e28e1e2	0.16492417
227	0x3d4e52c8	0.050371915
228	0xb82a5210	-4.0607585e-05
229	0xbca7f0f8	-0.020500645
230	0xbd8daa9b	-0.06917306
231	0x3ea64620	0.32475376
232	0xbea49ed8	-0.32152438
233	0x3c42d472	0.011891471
234	0xbccbde72	-0.024886344
235	0xbd5060a7	-0.050873425
236	0xbd8f1fc5	-0.069884814
237	0x3e775145	0.24152096
238	0x3e5e0055	0.21679814
239	0x3e4c329a	0.19941178
240	0xbeb34249	-0.3501151
241	0x3e93d172	0.28870732
242	0x3e8cfa5f	0.27534768
243	0xbc2eb176	-0.010662427
244	0x3e43f97c	0.1913814
245	0xbe8eb602	-0.27873236
246	0xbeb411ae	-0.3516974
247	0xbe21b320	-0.15790987
248	0x3ddd4ae6	0.10805301
249	0x3b9ebd50	0.004844345
250	0x3e9265c8	0.28593278
251	0x3dbbfbc8	0.09178883
252	0x3e42c923	0.1902204
253	0x3ddab966	0.10679893
254	0xbe1793fd	-0.14802547
255	0xbeb875db	-0.36027417

fc2.bias f4 [7]
0	0xbbf77363	-0.007551597
1	0xbce72419	-0.028215455
2	0xbdc43927	-0.095812134
3	0x3ed3d30f	0.41371962
4	0xbd385126	-0.044999264
5	0x3dd74743	0.10511639
6	0x3d104ce7	0.03522959
